ML Model/tv_detection_epoch_150/e-1-1.770.pth (torch, 508101 bytes, 205 tensors)

backbone.0.0.weight f4 [16, 3, 3, 3]
000000 4f 0a 90 b0 5c 4f 0d b0 8a c5 6e 31 99 44 2d 32
       -1.0480309e-09 -5.140828e-10 3.4745846e-09 1.0085523e-08
000010 46 30 6d b1 ce 0e 50 30 15 8b f3 30 d8 fc 60 32
       -3.451548e-09 7.5691e-10 1.7720106e-09 1.3096006e-08
000020 ed 81 68 b1 fb a2 e5 30 6e 55 c8 2f 27 93 40 31
       -3.3834298e-09 1.6708265e-09 3.644049e-10 2.8023324e-09
000030 2b c5 3c b1 d8 f2 2f b2 70 ae 1f 2f cd 0c e7 b0
       -2.7469678e-09 -1.0241557e-08 1.4522938e-10 -1.68111e-09
000040 6d 06 32 b2 1c 81 92 b0 ad fe 1f b1 ca 31 d2 30
       -1.0362425e-08 -1.0659593e-09 -2.3282312e-09 1.5293662e-09
000050 d2 72 16 31 11 fd 1b 30 fb 85 11 32 2f d5 04 b1
       2.189314e-09 5.67483e-10 8.4705745e-09 -1.932971e-09
000060 60 16 f6 b1 89 b0 2c b2 dc 6b ab 31 1c d1 3f bd
       -7.162086e-09 -1.0051857e-08 4.989017e-09 -0.04683028
000070 6f e5 3c bc d9 8e 10 3d e2 60 0e 3e 34 e6 c8 3e
       -0.011529311 0.03529248 0.13904145 0.3923813
000080 6e 65 7a 3d 2a ca 35 be c3 a3 86 be ce ea c3 bc
       0.061131887 -0.177529 -0.26296815 -0.023915675
000090 39 52 30 bd 8b 7a 7b 3d d5 02 86 3c 65 4a 8e 3e
       -0.043047164 0.061396163 0.016358772 0.27791134
0000a0 f6 06 44 3f 1b 18 fa 3d aa d7 a5 be a4 78 16 bf
       0.7657312 0.12211629 -0.323911 -0.58777833
0000b0 6d 5b 6f bd a8 b1 5e 39 3e f9 47 ba 0b fb 14 3d
       -0.0584368 0.00021237752 -0.00076283875 0.036372226
0000c0 59 e8 88 3d dc 5c 50 3e 6a e8 f6 3c bb 0e 37 bd
       0.06684942 0.20347923 0.03014012 -0.044691782
0000d0 73 01 06 be 15 71 cf 3c 98 31 c5 bd 43 bd da 3d
       -0.1308649 0.025322476 -0.096286 0.1068063
0000e0 d8 1f f1 3a fa 55 ca be b3 ef 3f 3f bf bf 9b be
       0.0018396331 -0.3951872 0.74975127 -0.30419728
0000f0 cc d1 29 bf b0 33 6f 3f 3e e2 93 be b9 c4 dd bd
       -0.6633575 0.93438244 -0.28883547 -0.108285375
000100 e8 26 51 3e d6 3a f1 bc 5c b9 4f bf 14 ce ad 3f
       0.20424998 -0.029447 -0.8114221 1.3578515
000110 2b 8a 05 bf 4c 2d 86 bf 6a 30 bf 3f 8a 2e ea be
       -0.5216395 -1.0482574 1.493665 -0.4573863
000120 c9 1b 2b bb 0d ff b2 ba 62 5b 62 3d 9f d8 3a be
       -0.002610909 -0.0013656333 0.05526293 -0.18246697
000130 1e a0 cb 3e 8e 30 1a be 12 0c 84 be fe 87 e8 3e
       0.39770597 -0.15057585 -0.2579046 0.45416254
000140 9e d8 0b be d2 c8 f5 bb 1e d0 69 bd 61 36 93 3d
       -0.13656852 -0.0075007463 -0.05708324 0.07188106
000150 c7 e8 5f 3d 2d 9e 45 3e 78 37 92 be 43 6a 85 3c
       0.054665353 0.1929862 -0.28557944 0.016286021
000160 c1 d9 9b 3e e6 09 ad be 1f d3 91 bc 1e 2c 9b bd
       0.3043957 -0.33796614 -0.017800866 -0.07576774
000170 db 44 9d 3d dc 7f 2e 3d d1 05 04 3f 33 f6 1f bf
       0.07679149 0.042602405 0.51571375 -0.62485045
000180 5d 70 3f 3d c9 a7 25 3f 20 1d 35 bf ed 6a da bc
       0.046738017 0.64709145 -0.70747566 -0.026662314
000190 c0 14 22 bd 26 c5 58 3c b9 05 11 3d dd 54 9c 3d
       -0.03957057 0.013230598 0.03540585 0.07633374
0001a0 71 79 aa bd ae dd e1 bb 14 da ad 3d 74 96 05 be
       -0.08323944 -0.0068928814 0.08488861 -0.13045675
0001b0 62 4f 91 bd 17 c9 c5 3c 94 63 d5 3c 19 5d c5 ba
       -0.07095219 0.024143739 0.02604846 -0.0015057652
0001c0 41 12 b2 bd 78 17 ad bd ca ae ee 3d 57 a6 cb bd
       -0.08694888 -0.08451742 0.11654432 -0.09943836
0001d0 72 fe 99 be 89 86 06 3c c8 fc c5 3c 3d b6 e7 bc
       -0.3007694 0.008210787 0.024168387 -0.02828514
0001e0 0a ce 88 3d 15 c9 5c be 34 45 89 be eb 93 45 3e
       0.06679924 -0.21561082 -0.2681061 0.19294707
0001f0 78 a0 55 be d5 1a 03 bf 96 c7 18 bc 12 cd 7e 3c
       -0.20861995 -0.5121282 -0.009324929 0.015551822
000200 ac 8c 33 bd 21 7e 56 bc ae 3a 84 bd 3a 04 87 bd
       -0.043835327 -0.013091595 -0.06456505 -0.06592603
000210 b9 48 92 3c 0d 71 6f bd 62 a4 df bd 2d fd 23 3e
       0.017856942 -0.058457423 -0.109200254 0.16014548
000220 8b 42 2a 3e 76 99 77 be 94 27 f7 3d 5f c0 23 3f
       0.16626947 -0.24179634 0.12068096 0.6396541
000230 05 79 79 3e 18 f4 2b be fe 5f 1b 3f 0a 22 28 3f
       0.24362572 -0.16792333 0.6069335 0.6567694
000240 8e b3 c7 3b 94 bc 0c be 8d 25 85 3b b8 e5 2b bd
       0.0060944026 -0.13743812 0.0040633143 -0.041967124
000250 4a 53 83 be 00 ad 1a be b3 fb 0d bd 74 40 59 be
       -0.25649482 -0.15105057 -0.034663867 -0.21215993
000260 66 bb 21 be 65 9b 1a be f5 a7 87 bd e1 34 6f 3e
       -0.15794143 -0.15098341 -0.06623832 0.23360015
000270 2c 03 48 bd 46 fd cf be 6f 21 ff bd 55 d8 19 3e
       -0.04883115 -0.4062292 -0.12457549 0.1502393
000280 8a 0c cf be 56 56 fb be 16 d3 47 bc 6a bd 63 bc
       -0.40439254 -0.49089307 -0.012196323 -0.01390014
000290 72 a3 0d 3c 39 bc ec 3e 06 d3 04 be 80 c9 4b be
       0.008644925 0.46237352 -0.12971124 -0.19901085
0002a0 f1 5d 10 3e c1 84 db bd b1 47 78 bd e3 ad 61 bd
       0.14098336 -0.1071868 -0.060615245 -0.055097472
0002b0 e4 0d 23 bc 78 a4 f3 3c b0 de 6e 3f 93 13 87 be
       -0.009952042 0.02974151 0.93308544 -0.2638212
0002c0 18 6a e7 be 94 6a 83 3e 2e 5c 6b be 98 40 a6 bd
       -0.4519813 0.2566725 -0.22984383 -0.08117789
0002d0 a4 19 c2 3c 82 6c 86 3c c4 3a 0a 3c 31 90 77 3e
       0.023693867 0.016409162 0.008436862 0.24176098
0002e0 b9 f2 71 bd a7 98 d9 bd 52 3b 8e 3d 5d 6e 07 bd
       -0.05906937 -0.10624819 0.06944908 -0.033064235
0002f0 b8 63 2c bc 1c 18 6f 3c f9 96 5d bc 89 29 eb bd
       -0.010521822 0.0145931505 -0.013524764 -0.114825316
000300 6a 96 a3 bc 3c c8 a8 3d 31 94 69 3e a6 94 a4 bc
       -0.019969184 0.08241317 0.22810437 -0.020090412
000310 98 5c 1a 3e a4 da bd 3e 57 de f0 bc b6 48 b7 bd
       0.15074384 0.37080872 -0.029402895 -0.089494154
000320 6d 98 35 be 1c 7c f0 b8 6d f0 3a 3e 50 df be 3e
       -0.17733927 -0.00011467209 0.18255778 0.3727975
000330 fb 49 fa b8 a2 0f b2 3e bc 05 18 3f 3b e6 92 bc
       -0.00011934709 0.34777552 0.5938375 -0.017932048
000340 ee bd 82 bc 73 0f 12 bd 8d 54 84 bb 48 87 29 3c
       -0.015959706 -0.035659265 -0.0040383996 0.010347195
000350 2e b0 e4 3d b8 71 54 3c 60 01 94 3d f5 eb 12 3e
       0.11166416 0.012966566 0.07226825 0.14347823
000360 b3 8f 52 3d c1 cb 35 3d f0 b0 05 be de 44 3a be
       0.051406574 0.044383768 -0.13055778 -0.18190333
000370 8e 91 31 3f 22 2b 04 bf 7b 3b bd 3c be c3 3a 3f
       0.69362724 -0.51628315 0.023099652 0.7295493
000380 fc 81 2f bf 8f 1a 1d bd 03 e6 2b 3e c8 2a 54 be
       -0.68557715 -0.038355406 0.16786961 -0.20719445
000390 ee b4 03 be da 6f 8b 3f d3 21 6b bf e2 a2 46 3c
       -0.12861988 1.0893509 -0.91848487 0.012123795
0003a0 fc 3d 86 3f 19 11 7b bf e8 13 42 3d 26 97 71 bc
       1.0487666 -0.98072964 0.047382265 -0.014745509
0003b0 e0 a1 ea bb e1 1f f1 bd 25 fd cc 3e 0e 50 a9 be
       -0.0071604103 -0.117736585 0.40036884 -0.3306889
0003c0 f0 c6 e2 3b 0c ab cc 3e 1a bf c7 be d1 e8 82 b3
       0.006920688 0.39974248 -0.39012986 -6.095946e-08
0003d0 aa 8f a0 b2 23 09 5d b3 20 25 74 b3 63 02 51 b2
       -1.8691782e-08 -5.1463882e-08 -5.6844442e-08 -1.2165944e-08
0003e0 b5 18 6c b3 2b 85 8a b3 f6 8e e7 31 af 96 7d b3
       -5.4970503e-08 -6.450349e-08 6.7392376e-09 -5.90432e-08
0003f0 a1 3c 3e b3 ed fe 1b 33 27 9d 3b b3 f8 ac ae b3
       -4.4292964e-08 3.6320603e-08 -4.368226e-08 -8.133969e-08

backbone.0.1.weight f4 [16]
000000 e7 52 47 b2 c1 76 2c 3e 44 1a 45 3e f3 95 71 3e
       -1.1602174e-08 0.16842176 0.19248301 0.23592357
000010 d5 54 18 3e f9 81 1a 3e 64 e9 90 3d 74 37 83 3e
       0.14876111 0.15088643 0.07075766 0.25628245
000020 47 aa a2 3d 56 d2 b0 b9 c5 a9 c7 3e 4a a2 d5 3d
       0.07942634 -0.00033726048 0.3899671 0.10431345
000030 71 cd 68 3e be 10 93 3e 25 49 9b 2f 62 4a 8c 3d
       0.2273462 0.2872371 2.8246308e-10 0.06850125

backbone.0.1.bias f4 [16]
000000 9b 97 c0 35 56 fa 13 3f 07 d4 b5 3e 05 db 95 3e
       1.4349238e-06 0.5780386 0.35513327 0.2926866
000010 b1 67 74 3f 96 dd 27 3f da d6 02 3f e3 9b 0e 3f
       0.9547072 0.6557249 0.5110909 0.55706614
000020 dd ee 1f 3f 44 d8 8c b8 4a 34 a9 be 62 59 76 3f
       0.6247385 -6.716003e-05 -0.33047706 0.9623014
000030 53 ef e2 3e 65 db cb be 94 a6 37 b1 2a 3f 25 3d
       0.44323215 -0.39815822 -2.6724694e-09 0.04034344

backbone.0.1.running_mean f4 [16]
000000 0d 9f 70 b5 a8 f0 4e 42 8d d0 10 42 17 12 ad c1
       -8.9638417e-07 51.735016 36.203663 -21.633833
000010 f0 6a 2b c3 8f 1a 2f c2 79 98 03 42 b9 50 51 43
       -171.41772 -43.775936 32.8989 209.31532
000020 5a e8 c7 40 f7 90 77 b8 1d 2f 18 c2 9c 0f 31 43
       6.247113 -5.9024398e-05 -38.04601 177.06097
000030 ce b1 83 c1 62 c0 65 42 d2 e1 a3 32 55 48 92 c1
       -16.461819 57.437874 1.9078389e-08 -18.285318

backbone.0.1.running_var f4 [16]
000000 fb 92 d2 2e ca 9a 20 45 92 1d 0b 46 f0 6e c4 44
       9.575803e-11 2569.6743 8903.393 1571.4668
000010 fd f4 56 46 b3 b3 d0 45 d7 03 3e 45 89 92 a6 46
       13757.247 6678.4624 3040.24 21321.268
000020 24 ca b7 45 ad bd a6 33 ce bf 2a 45 f6 66 67 46
       5881.2676 7.764479e-08 2731.9878 14809.74
000030 d8 a8 f3 44 a7 61 42 45 cb 00 7d 2b 36 66 98 43
       1949.2764 3110.1033 8.9884757e-13 304.79852

backbone.1.conv.0.0.weight f4 [16, 1, 3, 3]
000000 59 a2 ca b0 98 29 05 b1 31 d2 96 2f 41 84 b3 b0
       -1.4743576e-09 -1.937769e-09 2.743419e-10 -1.3061553e-09
000010 0d f4 44 30 7f 2e 62 38 87 77 5d 30 22 55 50 30
       7.16512e-10 5.39259e-05 8.056919e-10 7.579094e-10
000020 24 c9 d8 b0 fb 9b 1c 3c 24 df 48 bd 11 c7 83 3d
       -1.5773236e-09 0.009558673 -0.04904093 0.06434453
000030 71 88 08 bc 54 45 09 be a6 32 40 3f 9f 6e fc 3c
       -0.008333311 -0.13405353 0.75077283 0.030814467
000040 ae bb c4 3d b9 cb 4c bf d3 6c 8b 3c 47 50 78 bc
       0.096061096 -0.79998356 0.017019665 -0.015155858
000050 c1 33 1b be 01 26 a0 3c 30 b0 98 3d 3f 5c 97 3f
       -0.15156461 0.019549372 0.0745548 1.1825026
000060 a1 fd 46 3c c6 19 47 bd b2 4b 07 bd 0e b4 c9 bd
       0.012145431 -0.048608564 -0.033031173 -0.09848796
000070 2a b3 8a bd 8d 1b d5 bd 39 cf 77 3d e2 13 46 3f
       -0.06772454 -0.104056455 0.060500357 0.7737409
000080 9a 6c 9a be a0 e0 0f bd 14 92 21 bd 5b 5d 44 be
       -0.3016098 -0.03512633 -0.03944595 -0.19176237
000090 a7 1b 14 3f 6e 5e f4 3f b3 66 dd 3e a7 c5 59 3e
       0.57854694 1.9091318 0.43242416 0.21266805
0000a0 d2 95 d2 3e 09 6b 22 3e 64 bf 61 bf de f7 0b c0
       0.4112993 0.15861143 -0.88182664 -2.1870036
0000b0 c8 86 49 bf e3 1a 07 bd 30 ce 06 3e 49 9d 3a be
       -0.78721285 -0.032984626 0.13164592 -0.18224062
0000c0 d8 01 47 3e 6f 28 b1 3e 84 fe e2 bf 2e 41 7b 3c
       0.19434297 0.3460116 -1.7733922 0.015335364
0000d0 4f e0 9b 3f 64 cc 80 3e 48 44 20 3a e2 c4 bc 3d
       1.2177829 0.25155938 0.00061136903 0.0921724
0000e0 cd ba a9 bd 0e c7 90 3c 6b 53 46 3b bc 3c 5b bf
       -0.082875825 0.017673042 0.0030262123 -0.8563955
0000f0 2a d6 33 bc 18 0c 6a bd 8f 42 79 3f 92 3a 01 bf
       -0.010976354 -0.05714044 0.97367185 -0.50479996
000100 07 c8 89 be 96 e5 42 3f 3c c6 1a c0 5a ab af be
       -0.2691042 0.7613157 -2.4183493 -0.34310418
000110 8f 0e 2b 40 d6 d7 00 bf 58 13 3f be 91 bf 20 3f
       2.6727636 -0.5032934 -0.18659723 0.6279231
000120 e6 3e ac bc d2 2a fc 3d 55 d7 ac bd 9c 3f 04 3d
       -0.021026086 0.12312855 -0.08439509 0.032287225
000130 eb 4d 8e bf 65 da 43 3e ce bf b3 3c 89 1b 19 3d
       -1.1117529 0.1912628 0.021942046 0.037379775
000140 3f 83 e7 bc 75 65 88 b2 51 30 ab b2 e4 b4 e5 b2
       -0.028260825 -1.5878621e-08 -1.9928992e-08 -2.6741368e-08
000150 9b b2 08 b2 2e 2e 4a b2 0b 2a c7 b2 d7 6d 40 b1
       -7.956852e-09 -1.17684475e-08 -2.3185768e-08 -2.8002114e-09
000160 59 74 d7 b1 47 7f 99 b2 b5 2a d3 3d a5 53 01 be
       -6.2705507e-09 -1.7869423e-08 0.1031088 -0.12629564
000170 f4 1c f4 be 5c 04 44 be bd 8c 1e 3e e7 ca c0 3e
       -0.4767834 -0.19142288 0.15483375 0.37654802
000180 08 cb e2 be 41 e7 83 3e 29 07 d1 3e 40 e8 40 3e
       -0.44295526 0.2576237 0.40825775 0.18838596
000190 4f 11 cd 3f 13 db 81 3f 4f 5f a7 3d c2 fa 56 3d
       1.6020907 1.0144981 0.081724755 0.052485235
0001a0 7a fa 05 be 8e f4 ad be a3 87 d0 bf 5b b2 7d bf
       -0.1308383 -0.33975643 -1.6291393 -0.99100274
0001b0 0c b6 d4 bb ab 7e 00 3d c0 1b e0 bc 5f a8 88 3c
       -0.0064914282 0.0313708 -0.027356982 0.016681848
0001c0 16 2c 0b 3d 61 10 28 bf 56 75 c1 bc b8 7d 07 3d
       0.03397759 -0.6564999 -0.02361552 0.03307888
0001d0 28 17 5c 3f 87 c5 8b bd 69 2a 78 bb db 59 e9 bd
       0.85972834 -0.06824785 -0.0037867075 -0.11394092
0001e0 f9 35 12 3c bf bc 0f 3d 60 86 f7 bd 25 53 fd bd
       0.008924001 0.03509211 -0.12086177 -0.12369374
0001f0 0e 77 ea bd 69 08 3c 3f 8b f8 dd 2f 84 d6 4b b0
       -0.11448489 0.7345033 4.0376266e-10 -7.4155815e-10
000200 07 4f d9 ae ee 88 42 b0 a3 e6 c5 2e ce 67 3a 2f
       -9.8820556e-11 -7.077138e-10 8.999492e-11 1.695348e-10
000210 dd d8 5a b0 d9 02 78 b0 f7 0d 0c 30 d3 64 e2 bc
       -7.961612e-10 -9.022592e-10 5.095155e-10 -0.027635967
000220 1d 92 29 bd c6 93 35 bd e0 33 21 bc 90 4f 82 bc
       -0.04139911 -0.04433038 -0.009839028 -0.015907079
000230 cc e8 42 bd 13 9e 9c bd 3b 6f e9 bd e0 d0 fc bd
       -0.047585294 -0.07647338 -0.11398169 -0.12344527

backbone.1.conv.0.1.weight f4 [16]
000000 f7 00 c5 31 96 be 07 3f b6 eb 36 3f 20 c9 fe 3e
       5.7335643e-09 0.53025186 0.71453416 0.4976282
000010 86 9a 92 3f 47 eb fe 3e c3 58 19 3f 72 2d 5a 3f
       1.1453407 0.49788877 0.59901065 0.85225594
000020 16 b4 fc 3e 21 9a c9 b8 8f 63 4f 3e a0 f8 87 3f
       0.49356145 -9.6131356e-05 0.20252822 1.0622749
000030 ec 9a 2f 3f 9f 6e 71 3e b2 f9 48 30 60 6a 3c 3e
       0.6859577 0.23577355 7.3114415e-10 0.18399954

backbone.1.conv.0.1.bias f4 [16]
000000 92 c0 b1 30 66 02 6c 3f f4 99 ba 3f c8 90 fc 3e
       1.2933177e-09 0.9219116 1.4578233 0.4932921
000010 0a c5 71 3e c1 08 84 3f 62 9c 71 3f 0b ad ce 3e
       0.2361032 1.0315171 0.94379246 0.40366396
000020 60 e8 12 3f 94 70 0d b8 cc 1b b7 3e 4f c9 51 3e
       0.57385826 -3.3721866e-05 0.35763395 0.2048695
000030 01 04 88 3f 5a fd bb be 30 0e a3 30 40 93 0f 3e
       1.0626222 -0.3671673 1.1863843e-09 0.14021015

backbone.1.conv.0.1.running_mean f4 [16]
000000 b7 63 6b 2f 2e 1f b8 bc 9e c6 ba 3e 89 82 32 3b
       2.1408551e-10 -0.022475805 0.36479658 0.002723845
000010 7e 66 07 be 31 3b ee 3d c9 9e 17 3d fc 12 c0 bd
       -0.13222691 0.116323836 0.037016664 -0.09378621
000020 02 f7 06 bf 3d 7d 37 ab 67 13 0d 3b 2f e3 0d be
       -0.52720654 -6.5188463e-13 0.0021526457 -0.13856195
000030 a9 31 de 3d fd 72 6c 3b c8 f9 f0 a1 00 13 dd bc
       0.10849316 0.003607928 -1.6329149e-18 -0.026986599

backbone.1.conv.0.1.running_var f4 [16]
000000 5b 12 b0 1c 3e 25 87 3c 80 e3 ca 3c 80 ad c3 3c
       1.1651448e-21 0.01649725 0.024766684 0.023886442
000010 ea d2 6b 3e 8c e4 25 3d 62 bd 81 3b 73 44 bd 3e
       0.23029676 0.040501162 0.003959344 0.36966285
000020 13 8b db 3b f3 c6 25 1e f7 54 4e 3b 13 7d 12 3e
       0.0066999285 8.776169e-21 0.0031483748 0.14305525
000030 a6 4c 1c 3d 93 7b 6f 3a 2d 69 8d 1b 93 99 11 3a
       0.038159035 0.00091355405 2.3394462e-22 0.00055541954

backbone.1.conv.1.weight f4 [8, 16, 1, 1]
000000 d1 6a 90 30 56 75 e2 3c 34 23 60 bd 07 f1 2c 3e
       1.0507738e-09 0.02764384 -0.054721072 0.1688882
000010 71 fe 2e bc 39 39 34 3f e1 5d 70 3e 1a 7b 2c bc
       -0.010680781 0.70399815 0.23473312 -0.010527397
000020 0b 7e 1d bd 10 89 ab 31 26 74 a3 3c d4 c2 74 3e
       -0.038450282 4.992337e-09 0.019952845 0.23902446
000030 54 33 89 3d 6f f1 e7 bd b5 69 47 af 83 c7 a8 bd
       0.06699243 -0.11325347 -1.8136499e-10 -0.08241179
000040 5c ab 8a ae 5b 51 37 bb 94 97 14 bf b5 d3 a3 bd
       -6.305953e-11 -0.0027972076 -0.5804379 -0.07999364
000050 63 a7 c3 3d 9d 89 93 39 e1 61 6e bd 74 10 90 3d
       0.09553411 0.00028140555 -0.058198813 0.07034388
000060 ea ed b9 3d c8 9c a6 b1 9b 2e 04 3e 20 09 dc b9
       0.09078582 -4.84906e-09 0.12908404 -0.0004196847
000070 9b 83 ee bd eb c9 47 3e 2e 40 12 30 6b 32 bf bd
       -0.116461955 0.1951062 5.3205695e-10 -0.09335788
000080 ff ff ce ad 7b 44 0b 3f 4a e6 d1 3d 59 8f d5 3e
       -2.3533174e-11 0.5440137 0.10249002 0.41710928
000090 17 76 45 be 73 9d 45 be 7d cc 8f be cf 46 99 3d
       -0.19283329 -0.19298343 -0.280857 0.07484209
0000a0 22 c7 2d be 64 36 fb b2 d0 3c 2b bd 6b 25 ba 3e
       -0.16970494 -2.924498e-08 -0.041806042 0.36356673
0000b0 57 e9 b5 3d b5 e3 11 bd f0 04 92 30 31 c4 0f be
       0.08882397 -0.03561755 1.0624301e-09 -0.14039685
0000c0 4e 7f ae b0 31 44 af bd 9c d3 05 be 17 dd 00 3e
       -1.2696348e-09 -0.08557928 -0.13069004 0.12584339
0000d0 d1 10 f4 3e e1 b7 eb be e6 48 5a 3d b4 3f 96 3d
       0.4766908 -0.46038726 0.053292178 0.07336369
0000e0 c2 fd 88 be 68 16 48 af a8 6e f5 3c 74 53 da be
       -0.26756102 -1.8197854e-10 0.029959992 -0.42641795
0000f0 03 17 86 3e c7 39 a6 3e 2d da 69 30 09 b7 d7 bd
       0.26189432 0.32465956 8.507495e-10 -0.10532958
000100 0b 9e 04 30 71 25 b4 be a1 15 86 3e 38 93 d6 bc
       4.8245913e-10 -0.35184816 0.26188377 -0.026193246
000110 ea 94 22 3e ef 81 1d bf 69 4e 92 3d 0c c4 95 be
       0.15877119 -0.6152639 0.07143862 -0.29251134
000120 e2 42 1d 3e f7 03 92 b1 63 21 0c 3e fd 2c e7 bd
       0.15357545 -4.24961e-09 0.13684611 -0.11287878
000130 26 79 56 be f4 33 12 bd 4a fb e0 b0 92 35 1b 3e
       -0.20944652 -0.035694078 -1.6369566e-09 0.15157154
000140 c0 34 3f af 39 7f 37 be 6a 97 4a bc 53 f6 0a bf
       -1.739009e-10 -0.17919625 -0.0123652015 -0.5428211
000150 29 b7 97 be e0 f3 77 be 68 69 cb 3e 09 0c db 3e
       -0.29631928 -0.24214125 0.39728856 0.4278262
000160 3e 0d d6 3e ec 39 fe 34 f0 b9 34 3d a5 3e ec 3e
       0.41806978 4.735333e-07 0.044122636 0.46141544
000170 af 2b c6 bc cd 47 9c 3d 2f 08 0b 30 4b 92 14 be
       -0.024190752 0.076308824 5.0579535e-10 -0.14508931
000180 87 b9 aa ad 7e ed ca 3e df 79 ed bd bc 40 c8 be
       -1.9409153e-11 0.39634317 -0.11595511 -0.39111888
000190 43 a8 dd be 05 fb b9 3c 39 95 27 3d a9 b1 51 bf
       -0.43292436 0.022702703 0.040913794 -0.8191171
0001a0 d3 c7 3a 3e 27 03 8c b2 b8 24 a1 bd 97 84 51 3e
       0.1824029 -1.6299579e-08 -0.07868332 0.20460735
0001b0 c2 52 e6 bd f9 8a 33 3e 35 ce 82 2f 9b bb 21 be
       -0.112462536 0.17533483 2.379338e-10 -0.15794222
0001c0 85 ee bc b1 59 85 94 3d b8 fa 66 3e e9 85 04 bd
       -5.4986367e-09 0.072519965 0.22556579 -0.03235427
0001d0 66 6f ec 3e f3 02 0b 3f 46 45 2f be ef 30 38 3e
       0.4617874 0.54301375 -0.1711627 0.17987417
0001e0 0a dd e4 bd fb 79 22 b2 f3 82 18 3e 48 b5 05 bf
       -0.11174972 -9.457376e-09 0.14893703 -0.5222974
0001f0 85 72 65 be 11 79 60 3b ae a9 2f b0 cd 4d 73 bd
       -0.22406967 0.0034251849 -6.390576e-10 -0.05940037

backbone.1.conv.2.weight f4 [8]
000000 83 63 02 3f fe 64 07 3f 52 1f 18 3f e4 d8 e3 3e
       0.5093309 0.52888477 0.5942279 0.44501412
000010 d0 18 15 3f b8 79 1c 3f 77 0c 19 3f 0b 80 0b 3f
       0.58240986 0.6112323 0.59784645 0.54492253

backbone.1.conv.2.bias f4 [8]
000000 ea 24 c2 38 9f 73 10 38 74 17 d2 38 9d 6b 72 b9
       9.257517e-05 3.4439956e-05 0.00010017949 -0.00023119008
000010 b4 10 b8 b8 24 e6 7e 38 03 86 82 39 46 9f 0d b9
       -8.776915e-05 6.0772654e-05 0.0002489538 -0.00013506142

backbone.1.conv.2.running_mean f4 [8]
000000 1b 7d 8e 3f 68 82 69 bf 0e 69 e4 3e 3c fd d9 be
       1.1131929 -0.9121461 0.446114 -0.42576015
000010 82 a0 3a bf 9a 3a 18 3e 4d 32 09 bf 27 f5 1c 3f
       -0.72901165 0.14866105 -0.5359238 0.6131157

backbone.1.conv.2.running_var f4 [8]
000000 02 fb 0c 3e 0a 36 28 3e bd 41 6f 3e 1d 6d 61 3e
       0.13767627 0.16426864 0.23364921 0.2201428
000010 2e c4 3f 3e ef 5f 98 3e a8 72 d0 3e 9c 30 42 3e
       0.1872718 0.29760692 0.40712476 0.18963856

backbone.2.conv.0.0.weight f4 [48, 8, 1, 1]
000000 5c 06 3c 3e 88 47 2e 3d e4 05 16 3e 94 5e f7 bd
       0.18361801 0.042548686 0.14650685 -0.12078586
000010 69 29 0a be ee f0 03 3d 9c 53 9d 3e fc c2 81 3c
       -0.13492359 0.03221219 0.3072785 0.015840046
000020 a0 a7 5b 3d 2b 34 c0 3d b4 c1 ec 3d e6 48 ee 3d
       0.053626657 0.0938495 0.115603834 0.11634998
000030 36 72 36 be fb 39 9c be 0e f9 b8 bd 54 93 05 be
       -0.17817006 -0.30512986 -0.090318784 -0.13044482
000040 e6 bb a3 bd 04 a1 6e bd f8 60 0d be cc e6 9c 3d
       -0.07994823 -0.058259025 -0.13806522 0.076612085
000050 0f fa 86 3a e0 51 ab 3d 21 03 b1 be f0 44 1a 3e
       0.0010297912 0.08365226 -0.345727 0.1506536
000060 e4 e9 c2 bc 2d 75 72 3e f5 19 a0 3d 74 d1 16 bf
       -0.023793168 0.23677512 0.07817451 -0.5891335
000070 08 93 3d 3a 1c 98 12 be 4b 85 6b be 1f 5e d6 be
       0.0007231687 -0.14315838 -0.23000066 -0.41868684
000080 02 61 5b 3d 2b e6 68 bd a9 ba 07 3e 40 32 8c be
       0.05355931 -0.05686013 0.13254799 -0.27382088
000090 9f 89 01 be ec 78 27 3e 64 e7 72 3d da 90 47 be
       -0.12650155 0.16354722 0.059302703 -0.1948885
0000a0 cb 82 6d bd 82 67 a1 bb 9c a9 68 3d e9 89 d5 bd
       -0.057986062 -0.004925669 0.056802377 -0.10426695
0000b0 e7 77 50 3c 37 b5 12 3e c1 ee 44 3e 0d 66 23 be
       0.012723899 0.1432694 0.19231702 -0.15956898
0000c0 cf 42 57 3d e8 8a 1f 3e 16 97 da 3d ef 76 ce 3d
       0.052553948 0.15580332 0.106733486 0.100812785
0000d0 1e 71 fe bd 40 38 9f be 99 17 2a be 96 cb e0 bb
       -0.12423919 -0.31097603 -0.16610564 -0.006860207
0000e0 c8 1d 45 3c bb 7a 41 3e 2e 4e 78 3d 2b 2f 02 bd
       0.012031026 0.18894474 0.060621433 -0.031783264
0000f0 35 65 b6 3c 27 8e 00 3e 2e 5e 8b bd 9d e4 16 3e
       0.022265056 0.12554227 -0.06805073 0.14735647
000100 2c b0 84 be 89 3e 86 bd 40 39 cf 3e 90 26 30 bc
       -0.25915658 -0.065548964 0.40473366 -0.0107513815
000110 eb 40 8b bd 67 32 8b bc 26 da 04 be 06 12 28 bd
       -0.067994915 -0.016991807 -0.12973842 -0.041032813
000120 58 4f be 3c eb 2a 8e 3e 0c 08 08 bd de fd 20 3e
       0.023231193 0.2776712 -0.0332108 0.15721843
000130 8e 0c 2d be 30 c6 5f bc ba 90 61 3d 4b 1a 8b bd
       -0.1689932 -0.013658091 0.055069663 -0.06792124
000140 ab 36 81 3d 1f b6 04 be 95 ef 00 bc 75 0b c9 be
       0.06309255 -0.12960099 -0.007869621 -0.39266554
000150 57 5f 09 3d da d3 1d bd 6d 21 a2 bd bb 75 10 3e
       0.03353819 -0.038532116 -0.07916532 0.1410741
000160 db c7 a4 bd e6 8d 36 bc a8 58 af bd 04 f1 85 3e
       -0.08045932 -0.01114223 -0.08561832 0.26160443
000170 91 68 36 bd 4c b6 14 be da 04 8e be 48 b8 6b 3e
       -0.044533316 -0.14522666 -0.27738076 0.23019516
000180 3c c6 02 3e 3d 24 be 3d 4f cc c7 bd c5 5a a7 bb
       0.12770933 0.09284256 -0.09755766 -0.005107256
000190 79 6b cb 3d ea 1c 36 3e 8a b6 aa bb c0 63 ad 3d
       0.09932608 0.17784467 -0.0052097486 0.084662914
0001a0 c6 21 ff 3d 3a 54 44 be 45 f5 4d bb 17 35 e2 bd
       0.12457614 -0.19172755 -0.003142671 -0.11045282
0001b0 1d cf 7c be b4 04 2d 3e 64 05 76 3d e4 2a 55 3e
       -0.24688382 0.16896325 0.060063735 0.20817143
0001c0 7b ad 6b be b7 fd b2 bd 4b e2 d9 3d d8 d0 89 3e
       -0.23015396 -0.087397985 0.10638865 0.26917148
0001d0 19 a5 56 3e e8 2d 2a 3e a9 cd 59 3b 38 27 96 be
       0.20961417 0.16619074 0.0033234155 -0.29326797
0001e0 e9 6f 33 3d 87 14 d5 3d 4b ae 33 3e 22 e8 14 3e
       0.043807898 0.10404306 0.17546956 0.14541677
0001f0 1b ea b0 be 61 b1 cc bd 2d e7 4e 3b c6 60 52 be
       -0.34553608 -0.0999477 0.0031570897 -0.20544729
000200 d6 22 7a 3e 20 1d a8 3d e6 12 3b 3e 34 8b 41 3e
       0.24427351 0.0820868 0.18268928 0.18900758
000210 c8 ca 66 3e a5 74 cf 3d f0 51 9c 3d de 86 a8 39
       0.22538292 0.1012967 0.07632816 0.0003214394
000220 ea 6f 4c 3c 31 88 14 bd 8c 9e 33 3e c1 4c 79 be
       0.012477854 -0.036262695 0.1754095 -0.24345686
000230 c6 0b f1 bd 21 2a a3 3d ea 85 20 3d 3a 57 d1 bc
       -0.11769824 0.0796702 0.03919021 -0.025554288
000240 33 56 4a be 1d 07 c6 3c 9c ca e9 bd 48 a4 fa 3d
       -0.19759445 0.024173314 -0.11415598 0.122383654
000250 d9 53 2d be aa e8 85 bd 5a a4 a1 be d7 f1 78 3e
       -0.16926517 -0.06538518 -0.31570703 0.24311005
000260 bf c1 b2 bd 98 17 61 3d 86 21 4f be 03 d1 67 3e
       -0.087283604 0.05495414 -0.20227632 0.22638325
000270 ca 6f 06 3e db 44 91 be 69 e5 78 be 9e 33 b5 3e
       0.13128582 -0.28372845 -0.24306263 0.35390943
000280 b3 2b ee 3c c8 16 24 3e 3a de 3e 3e 84 4e 83 3e
       0.029073572 0.16024315 0.1863946 0.2564584
000290 d1 ea 0e bd 02 9d 10 3d 5d 26 04 3e b0 75 da 3d
       -0.034891907 0.035305984 0.1290526 0.10666978
0002a0 04 00 c2 3d 28 70 f0 bc b7 bf a4 3d db f4 a4 be
       0.09472659 -0.029350355 0.08044379 -0.3221806
0002b0 2b 4d 14 3e 1c 77 d5 bd 90 c9 ad be 82 22 47 be
       0.14482562 -0.10423109 -0.33942842 -0.19446757
0002c0 a4 4d 86 3d 2c 03 cf 3c 04 95 85 3c 78 52 f9 3d
       0.065577775 0.025270067 0.016306408 0.12173933
0002d0 22 14 81 bd d3 11 09 be e8 ed c2 bc fa 40 85 bd
       -0.06302668 -0.13385706 -0.023795083 -0.06506534
0002e0 47 d5 52 3e f7 58 5f 3d 30 93 93 3d af 53 69 3d
       0.20589171 0.054528203 0.07205808 0.056964573
0002f0 fc 20 d6 3d 59 70 cd b9 9d b2 a2 bc 8f ac 7f 3d
       0.1045551 -0.00039184352 -0.01986056 0.062420424
000300 71 ea dc bc 33 9f 5a 3c 26 80 b0 3d 18 d8 e8 3d
       -0.02696726 0.01334362 0.086181924 0.113693416
000310 fd 47 43 3c e6 7b 94 be 2e d9 94 bb f6 57 62 bd
       0.011919019 -0.29000777 -0.0045424914 -0.055259667
000320 b8 6a 67 bd 8d f2 eb be 86 e9 4f 3e 93 1d d0 bc
       -0.05649826 -0.4608349 0.20303926 -0.025404727
000330 18 6d 49 3e 47 07 fa bd 4a 5d 99 bd 38 7d 78 3e
       0.19670522 -0.12208419 -0.074884966 0.24266517
000340 76 dc a5 3c 6e 67 be 3d 83 46 59 3e 21 60 36 3d
       0.020246726 0.092970714 0.21218304 0.04452527
000350 32 cd c6 bd 70 95 80 3b 35 c9 3c 3e 43 8a 37 3e
       -0.09707107 0.0039240643 0.1843613 0.17923836
000360 c8 86 a0 be f4 45 86 3d b0 32 a4 bd 2d 85 53 3e
       -0.3135283 0.06556311 -0.080174804 0.20656271
000370 4e fe 1d be b1 85 d4 3c 44 f1 8e 3e d6 4a 97 3d
       -0.15429041 0.025942655 0.27918446 0.07387321
000380 c0 67 a3 3e 38 c8 cb 3d 3b f6 ea bd 7c 96 15 be
       0.31915092 0.09950298 -0.11472746 -0.14608186
000390 37 4b be bc 28 63 a0 be 03 ee 8f 3c 66 b9 b6 3d
       -0.023229225 -0.3132565 0.017569548 0.08922081
0003a0 df 08 b4 3c 03 4f 64 3d e0 15 33 3e 47 af 46 3e
       0.021976886 0.055739414 0.17488813 0.194028
0003b0 26 d4 61 3c dc 5a 0f 3e 44 15 da 3c 1b 09 2d bc
       0.01378349 0.13999504 0.026621468 -0.010561253
0003c0 86 24 2f be b5 4b 02 be 6b 16 df be 93 5e 99 bd
       -0.17103776 -0.12724192 -0.4357179 -0.07488742
0003d0 38 09 64 3d 10 78 cc 3e 09 8a ca 3d 3d d7 51 bc
       0.055672854 0.3993535 0.09889609 -0.012807664
0003e0 ad 68 40 3e 56 39 96 bd 16 ae 83 bd 01 e5 6a be
       0.1878993 -0.07335155 -0.06429689 -0.2293892
0003f0 a8 69 86 be 57 5d 86 bc d4 40 58 3d 3f 13 8c 3e
       -0.26252484 -0.01640193 0.0527962 0.27358434

backbone.2.conv.0.1.weight f4 [48]
000000 33 d3 f9 3e fb a6 b7 3e 44 05 03 3e 97 38 43 3e
       0.48793945 0.35869583 0.12794977 0.19064556
000010 57 4d 26 3e f1 e0 4a 3e c4 7a 97 3e 3a 47 fb 3d
       0.1624044 0.19812371 0.2958585 0.12269445
000020 5b 00 ed 3e c7 15 15 3e 7c 67 50 3e 8b cd c6 3e
       0.46289334 0.14559089 0.20351976 0.38828692
000030 5c c4 90 3d 99 fd cc 3d 4d 32 19 3e 6c 1f ed 3e
       0.070687026 0.100093074 0.14960594 0.46313035
000040 6d 51 2a 3e c8 48 0a 3e 5a bc a6 3e c0 ea 4c 3e
       0.16632624 0.13504326 0.32565576 0.20011425
000050 c2 cf 17 3e 5a c6 03 3e fa cc ea 3d c5 2f b8 3d
       0.14825347 0.12868634 0.114648774 0.08993486
000060 2f 82 59 3e 08 eb eb 3e da 9a 25 3e 1b e8 8a 3e
       0.21241067 0.46077752 0.16172352 0.27130207
000070 71 e3 ea 3d fc 1b 8e 3d 17 8e ff 3e 94 18 b3 3d
       0.11469162 0.06938931 0.49913093 0.08744922
000080 5f 59 26 3e 47 f9 a8 3e 6f f2 df 3e b0 51 39 3e
       0.1624503 0.33002684 0.4373965 0.18097568
000090 36 90 85 3e 29 ea ad 3e 05 6a d4 3d bf b9 b9 3e
       0.26086587 0.33967713 0.10371784 0.36274526
0000a0 a2 fb f2 3e d9 a5 09 3e aa a9 08 3e 1f f9 e6 3d
       0.47457606 0.13442172 0.13345972 0.11277985
0000b0 ac fc 2c 3e 3e f5 ef 3e b0 40 9f 3e fe 51 21 3e
       0.16893262 0.46866792 0.3110404 0.15753934

backbone.2.conv.0.1.bias f4 [48]
000000 c7 97 4d bb 84 7f 17 bc 7f ce 6c 3e 66 d8 c0 3e
       -0.0031370984 -0.009246711 0.23125647 0.376651
000010 47 a9 8a 3e 7c e4 28 3e 50 f2 97 3d c7 63 7c 3d
       0.27082273 0.1649341 0.07419264 0.061618593
000020 50 4e 37 bd 74 12 11 3e e9 69 86 bd 19 05 48 3d
       -0.04475242 0.14167196 -0.065631695 0.048832987
000030 30 0c 53 3e 27 02 65 3e cc a9 4c 3e 5a b6 96 3b
       0.20610118 0.22364102 0.19986647 0.0045993747
000040 66 35 68 bd 13 8f 98 3e 8f 96 b1 3d 5a 0c bc 3e
       -0.05669155 0.29796657 0.08671295 0.36728173
000050 1f bc d2 3e 32 9b 1b 3e b6 0d 85 3e 12 d9 99 3e
       0.4115915 0.15195921 0.25987023 0.30048424
000060 15 00 a9 3d 9a b3 c6 ba 65 d4 d8 3d 8e c0 ac be
       0.08251969 -0.0015159727 0.10587386 -0.33740658
000070 68 57 8e 3e ed a6 83 3e 4f 50 58 bc 7e 47 6d 3e
       0.2780106 0.25713292 -0.013202741 0.23171803
000080 ce d6 1d 3e 47 fb f0 3b 03 c0 48 bc bb be 44 3e
       0.15413973 0.0073541733 -0.01225281 0.19213383
000090 cb 67 00 3e 73 f0 c7 3d c5 fd 88 3e 0f ff 8f 3d
       0.12539594 0.09762659 0.2675611 0.070310704
0000a0 68 75 ef 3c 4b 13 4f 3e 3a e4 8f 3e 96 2f 60 3e
       0.029230788 0.20222203 0.2810381 0.21893153
0000b0 f1 8e 20 3e a3 77 26 b9 53 a4 59 3e 38 7a 2e 3e
       0.15679528 -0.00015875562 0.21254091 0.1703881

backbone.2.conv.0.1.running_mean f4 [48]
000000 8d 02 8f 38 99 1c ac 38 d1 b4 f3 b8 e4 cc 99 39
       6.8192465e-05 8.206926e-05 -0.000116208226 0.0002933509
000010 85 99 04 39 0b 51 8e 38 85 e9 26 38 aa 7d 3a b8
       0.00012645691 6.786183e-05 3.9794966e-05 -4.446289e-05
000020 a8 f8 a2 37 93 d3 bf 37 2e aa df 37 34 13 16 b9
       1.9427694e-05 2.2867496e-05 2.6662918e-05 -0.00014312268
000030 e3 12 38 b8 c9 55 6c b8 06 88 d2 b5 d5 69 c9 38
       -4.388661e-05 -5.634668e-05 -1.5685807e-06 9.6041396e-05
000040 57 57 89 b7 79 31 94 38 cf f5 0b b9 95 5b 38 b9
       -1.6372343e-05 7.066405e-05 -0.00013347644 -0.00017581724
000050 4d f9 71 b8 d2 fa 0d 39 26 a5 c8 37 c5 01 3f b7
       -5.7691057e-05 0.00013540246 2.3918761e-05 -1.1384899e-05
000060 27 c0 0e 38 2f dd d0 b8 18 85 0c b8 06 e9 a7 b8
       3.4034394e-05 -9.9594115e-05 -3.3502554e-05 -8.0065845e-05
000070 71 dd 85 38 7d 1a 07 b8 26 ed ad b8 c9 93 c5 b7
       6.383181e-05 -3.2211177e-05 -8.293455e-05 -2.3553048e-05
000080 5e d0 65 37 89 d9 36 38 12 ff c8 b8 86 df b5 38
       1.3697978e-05 4.3594777e-05 -9.584254e-05 8.672387e-05
000090 cc 12 08 39 36 b6 59 b7 79 af 44 38 cf 16 e0 b8
       0.00012976973 -1.2976632e-05 4.6893463e-05 -0.00010685401
0000a0 38 09 b2 b7 9d f3 b9 36 48 99 e1 36 ca e1 ec b7
       -2.1223546e-05 5.54179e-06 6.723367e-06 -2.8238534e-05
0000b0 b7 62 37 38 bd 31 ab b8 53 70 33 38 43 3b 8b 37
       4.3722535e-05 -8.16318e-05 4.2781536e-05 1.6597687e-05

backbone.2.conv.0.1.running_var f4 [48]
000000 03 2e c2 3d 1e e1 aa 3d 23 bc cb 3d fa 03 b3 3d
       0.09481432 0.08343719 0.099479936 0.08740993
000010 85 92 a8 3d d3 a0 54 3d cc f1 a9 3d ea 68 8c 3c
       0.082310714 0.051911186 0.08298072 0.01713987
000020 f6 dd 9c 3d 0c 1e 62 3d 27 6c 39 3d 4e 61 e7 3d
       0.07659523 0.055204436 0.045269158 0.11297856
000030 81 ae a3 3c 84 0f 7f 3d fc de 0e 3e 9a 9e d9 3d
       0.01998067 0.062270656 0.1395225 0.10625954
000040 e2 61 96 3c a6 5f 45 3d 75 d9 c9 3d c5 c3 46 3e
       0.018357221 0.04818692 0.0985593 0.19410618
000050 4a ad bf 3c 69 2a e2 3c 94 b3 97 3c 80 9e 23 3c
       0.02339806 0.027608113 0.018518247 0.00998652
000060 7a 8f 29 3d fd ab 13 3e 5c f0 00 3d 6a 9a 25 3d
       0.041396596 0.14421077 0.031479225 0.040430464
000070 e9 e2 dc 3d 9b 77 82 3c ca fc 3a 3e 68 a3 d6 3d
       0.10785467 0.015926173 0.18260494 0.10480386
000080 46 2a 89 3d 30 26 85 3d f7 31 8b 3d 52 ec f0 3d
       0.06697516 0.06501424 0.067966394 0.117638245
000090 cf 72 5c 3d 2a 83 43 3e ac 7b 00 3d ef 81 01 3e
       0.053820428 0.19093004 0.031367943 0.12647222
0000a0 ae a7 0e 3d cc 92 8c 3d ad 2c 02 3d a6 b3 cc 3d
       0.03482788 0.06863937 0.031780887 0.09995203
0000b0 f2 88 b4 3d 36 9e 2a 3e 2e 3f da 3d 8f c2 ff 3d
       0.08815183 0.16661915 0.10656582 0.12488281

backbone.2.conv.1.0.weight f4 [48, 1, 3, 3]
000000 9b 86 bc bd de c1 23 be b4 b7 94 bd 4b 1f 28 be
       -0.092053615 -0.15991923 -0.07261601 -0.16418187
000010 31 ad 25 be 61 b0 de bd 45 72 05 bd f0 27 d6 bd
       -0.16179349 -0.10873485 -0.03257968 -0.10456836
000020 83 f4 33 bd ad 7e 0f be d4 cd 88 bd f8 dd 8b ba
       -0.043934356 -0.14013167 -0.066798836 -0.001067101
000030 63 8c 3c be 3a 49 62 bd d4 24 80 bc 03 e7 2c be
       -0.18412928 -0.055245616 -0.015642561 -0.16884999
000040 48 34 0c be b1 c4 74 bd d7 b5 00 be 29 5a 26 bd
       -0.13691819 -0.059757892 -0.12569366 -0.040613327
000050 7f 2e 65 3d 84 d6 2d 3e f6 51 c7 3e 5c 22 29 3e
       0.055952545 0.16976362 0.3892972 0.16517013
000060 36 40 db bc 4b 3e 04 be d5 79 b7 be af a9 13 3e
       -0.026764017 -0.12914388 -0.35835138 0.14420198
000070 02 d3 61 3e 7e 29 27 bd e8 38 58 3e 3c 0b ff 3e
       0.2205315 -0.040811054 0.21115458 0.4981326
000080 d6 ab 3d bb da 01 55 3d 39 8b 0d 3e b1 a4 b4 bd
       -0.0028941534 0.05200372 0.1382264 -0.08820475
000090 cd 9d 8c bd 2c ee 7b be 20 1b 1c be 8f 31 9c bd
       -0.068660356 -0.24602574 -0.15244722 -0.0762664
0000a0 1b 7c b7 bd aa 43 48 bc 1c cf 0e 3e 43 67 d3 3e
       -0.08959218 -0.012223164 0.13946193 0.4128972
0000b0 ce db 1f 3e 11 f6 4a 3d 12 88 86 3e 98 ca 6b 3e
       0.15611193 0.049551073 0.26275688 0.23026502
0000c0 bf 4c 83 bd ae 5b d6 bd cb 0d 8f 3d 2d 40 b1 bd
       -0.064111225 -0.10466705 0.06985053 -0.08654819
0000d0 94 43 49 be 91 75 fd bd c5 e2 09 bc 39 57 87 bd
       -0.19654685 -0.1237594 -0.0084158825 -0.06608433
0000e0 1a 75 ca bd 44 56 3b 3d 82 f6 44 be 0b 34 83 be
       -0.098856166 0.045736566 -0.1923466 -0.25625643
0000f0 f2 54 43 3d 1b bf 2b be 42 e0 7c be 62 9d 14 be
       0.047688432 -0.1677212 -0.24694923 -0.14513162
000100 ad be 67 3d a1 d9 f9 bd ad 34 06 be 84 93 14 3e
       0.056578327 -0.121997125 -0.13106032 0.14509398
000110 3e 25 14 be cf d2 25 be 6f e5 c9 3d f1 80 f1 bd
       -0.14467332 -0.16193698 0.09858214 -0.11792172
000120 70 4b 5e 3d 49 ea 01 3e 25 51 ab 3d c9 bc cc 3d
       0.05427116 0.12687029 0.083650865 0.099969454
000130 61 b6 9a 3e 5d 93 6f 3e ff a8 7f 3d 20 a1 43 3e
       0.3021727 0.23396058 0.062417027 0.19104433
000140 9e d0 2a 3e ae 1c e1 bd 5c 0e 52 3e d1 92 a1 bd
       0.16681144 -0.10991798 0.2051329 -0.07889331
000150 52 99 19 bd 4f 04 e4 3d 2f 67 a6 bd d7 19 05 3e
       -0.037499733 0.11133634 -0.081251495 0.12998138
000160 58 70 af be 01 07 f3 3d 99 87 b9 3c d5 aa dc 3c
       -0.342654 0.1186657 0.022647666 0.026936928
000170 ef 0b fd 3b 58 04 c0 3d a2 68 1b 3e 33 ca 98 3d
       0.00772237 0.093758285 0.15176633 0.074604414
000180 04 2d a0 3d 47 a9 28 3e a7 0e 8c 3d 11 2e 3d bd
       0.07821086 0.16470824 0.06838732 -0.04618651
000190 af 26 33 be 35 0f 43 be 1f 51 98 bc aa 7f 72 be
       -0.17495225 -0.1904877 -0.018593369 -0.23681512
0001a0 c7 05 5a be a8 7b 30 3c 17 d4 23 bc 18 31 16 bd
       -0.21291266 0.010771669 -0.009999297 -0.036667913
0001b0 32 87 b0 bd 2b 65 e9 3d 18 d6 af bc d9 11 4e 3e
       -0.086195365 0.113962494 -0.021464393 0.20123996
0001c0 fb 84 a5 be 4d 5f 9b 3d 73 ed e1 bd 2b ba 6b 3e
       -0.3232802 0.075865366 -0.11031618 0.23020236
0001d0 b6 73 d9 bd a5 51 d4 bd ef 1b 59 bc 6e 54 8c 3d
       -0.10617773 -0.10367135 -0.013251289 0.06852041
0001e0 ac 67 80 be 55 97 a8 3e 84 37 10 3c 1b 5e 7e 3d
       -0.25079095 0.32927957 0.008802298 0.062101465
0001f0 01 0b 66 3e ae 5a 0c be 47 99 65 bd dc c4 d6 bd
       0.22465135 -0.13706467 -0.05605438 -0.10486767
000200 79 a2 91 bd 62 a1 cf 3d eb 3e c0 3e e5 a7 b3 3d
       -0.07111067 0.10138203 0.37548003 0.08772258
000210 14 11 31 bd cc 35 92 be 1d 43 a3 bc be 62 a2 bd
       -0.043229178 -0.2855667 -0.019929463 -0.0792899
000220 c5 a2 c1 bd 49 b8 e5 bc c6 05 3f be c2 f4 4d be
       -0.09454874 -0.028041976 -0.18654546 -0.20112899
000230 cb d2 c3 bd 9c ac ce bd 32 48 48 be 81 ed b9 bd
       -0.0956169 -0.100915164 -0.1955879 -0.090785034
000240 bb 65 1e be 43 da 11 be 79 59 37 bd 4d 56 36 bd
       -0.15468495 -0.14243416 -0.044763062 -0.044515897
000250 ce 9e 6b 3d 2b 49 17 3e 06 bf 11 3d c3 21 fe 3d
       0.057524495 0.14774005 0.035582565 0.12408783
000260 2c 3b 60 3e cd 91 cd 3d 57 5e 49 3e b6 cf 9d 3d
       0.21897572 0.10037575 0.19664894 0.07705633
000270 9d 29 3a 3e 92 db 1c 3e 0c 94 bc 3c 8b a5 59 3d
       0.18179937 0.15318134 0.023019813 0.05313639
000280 7d dc aa 3d d6 a3 46 3d 48 6d 38 bc f8 58 9e bd
       0.08342836 0.04849609 -0.011256523 -0.07731813
000290 89 5b 75 3c 54 3e 7e 3c 05 5f b0 be db 44 a4 bd
       0.014975437 0.01551779 -0.34447494 -0.08020946
0002a0 06 01 48 3c 49 68 2a be f7 bd 11 3d 0f 04 3d bc
       0.012207275 -0.16641344 0.035581555 -0.011536612
0002b0 8b d2 b6 bd ec 36 9a bd 10 10 9d bd fc ae 97 be
       -0.08926877 -0.07530007 -0.07669079 -0.2962569
0002c0 fe 32 6b be 69 dc cd 3c 1d 24 2e be 95 9e e1 bd
       -0.2296867 0.025129514 -0.17005964 -0.11016575
0002d0 27 92 f7 3d cb 55 21 3e fd de 8c 3c 73 62 4b 3e
       0.12088423 0.15755384 0.017196173 0.19861774
0002e0 50 9f ca 3e ba 8b c8 3c 33 63 fe 3d 7a 76 0a 3e
       0.3957467 0.02448069 0.124212645 0.13521758
0002f0 26 66 18 bd 22 01 ba bd 77 6c 01 bd 72 74 fb 3d
       -0.03720679 -0.09082247 -0.03159758 0.122780696
000300 95 10 c8 bd bb a8 50 be 8c a4 a5 3e 50 33 c9 bc
       -0.09768788 -0.20376866 0.32352102 -0.0245606
000310 f7 5a 4e be 76 19 0f 3e 4a ba 9d 3d 0b 98 7f be
       -0.20151888 0.13974556 0.077015474 -0.24960344
000320 79 97 02 3e 6f 0e 81 be df e5 d5 3e 19 16 0a be
       0.12753095 -0.25206324 0.4177694 -0.13484992
000330 a2 e8 16 3e b3 93 2d be 25 38 9e 3c c7 2b 33 bd
       0.1473718 -0.16950874 0.019313881 -0.04374292
000340 60 d0 3a 3d 35 1a 09 bd e4 2a 90 3d de 68 d4 be
       0.045608878 -0.03347226 0.07039431 -0.41486257
000350 2c 44 a4 3e 3c 92 51 bd ee 3c b3 3e 0f b6 9e be
       0.3208326 -0.05116485 0.35007423 -0.30998275
000360 b1 03 81 bd 77 65 b6 bd 93 91 0e 3e 8d f2 62 3d
       -0.06299532 -0.08906072 0.1392272 0.055407096
000370 1c 9c 21 be 2a 24 99 be 99 1b 86 3d a8 f6 95 3e
       -0.15782207 -0.29910403 0.065482326 0.29289746
000380 cf c7 ba 3d 7a 6e 10 3d b1 96 f0 3d 62 5b 52 3d
       0.09120142 0.03526161 0.11747492 0.05135668
000390 fb 3a e6 3d fc da a5 3e a0 cf 18 3e 1b 63 1d 3e
       0.112417184 0.32393634 0.14922953 0.15369837
0003a0 e1 ce 87 3e 22 92 ee 3d 5d 03 ae 39 ea 7b 91 bd
       0.26525024 0.11648966 0.00033190372 -0.07103713
0003b0 0f 45 01 bd 78 83 26 3e c6 78 ac 3e 9c 07 2e 3e
       -0.03156 0.16261089 0.33685893 0.1699509
0003c0 47 b2 a4 bc 08 ee 63 bd fe 88 3e bc 36 df 44 3d
       -0.02010454 -0.055646926 -0.011629341 0.048064433
0003d0 e9 6e f7 3d f7 50 e9 3d 1b 74 28 3d e5 1a 15 3e
       0.12081701 0.11392396 0.04112635 0.1456104
0003e0 10 f1 29 3e a3 f1 b9 bc 68 98 86 3d 1a 28 9b 3d
       0.16595864 -0.02269823 0.06572038 0.07576008
0003f0 33 b1 c4 3d e9 df 24 3e 86 39 a9 3d 1d 89 ec 3d
       0.096041106 0.1610104 0.08262925 0.1154959

backbone.2.conv.1.1.weight f4 [48]
000000 56 72 09 3f 79 26 9f 3e ac 02 bb 3e 66 0b 81 3e
       0.5369009 0.3108404 0.36525476 0.2520401
000010 21 7b a9 3e 19 dd ac 3e 82 31 45 3e 4d d9 aa 3e
       0.33101752 0.33762434 0.19257167 0.33368912
000020 d1 d8 88 3e 10 ae 90 3e 45 ee 09 3e 62 d0 e2 3e
       0.26727918 0.282578 0.13469799 0.44299608
000030 7f 70 c5 3e 15 a7 89 3e 73 29 7d 3e 4f f1 e4 3e
       0.3856239 0.26885286 0.24722843 0.44715354
000040 84 21 8e 3e 6f 53 5d 3e 3c c4 ff 3e 54 92 e5 3e
       0.27759945 0.21613859 0.49954402 0.44838202
000050 e7 6a 84 3e 0f 42 84 3e b1 a8 d6 3e f9 c0 e8 3e
       0.2586281 0.2583165 0.41925576 0.45459726
000060 6a bb a8 3e 73 b6 ab 3e 6d 84 9f 3e 36 55 14 3e
       0.32955486 0.33537635 0.3115572 0.1448563
000070 54 98 67 3e b1 3c ab 3e 34 14 05 3f 01 c3 5e 3e
       0.22616702 0.3344474 0.5198395 0.21754076
000080 cf 20 af 3e ac d4 5a 3e a2 dc 64 3e 0b 33 b5 3e
       0.34204718 0.2137019 0.2234979 0.35390505
000090 ba fc 3e 3e 7d 81 aa 3e 3e 07 cc 3e 1f b2 9a 3e
       0.18651095 0.33301917 0.39849275 0.3021402
0000a0 4f 13 df 3e 16 92 70 3e 83 e4 b4 3e a2 85 c1 3e
       0.4356942 0.23493227 0.3533059 0.37797266
0000b0 a8 72 af 3e bd a1 97 3e bd 36 b0 3e b9 ee 80 3e
       0.34267163 0.29615584 0.34416762 0.2518213

backbone.2.conv.1.1.bias f4 [48]
000000 0a d7 3a bd 3f c2 05 3e bd 88 d2 3c 47 17 15 3f
       -0.045615233 0.1306238 0.025699968 0.58238643
000010 10 50 eb 3d c4 0a b8 3d bf 3f 3c 3f f1 a9 de be
       0.1148988 0.089864284 0.7353477 -0.4348903
000020 fa 5e 54 3e 8b eb a2 3b 61 02 64 3d 03 e2 c9 3d
       0.20739356 0.0049719266 0.05566633 0.098575614
000030 91 fd 3a bc d1 54 8d bc 7d a2 bb bc 6d ee 4c 3d
       -0.011412994 -0.017252358 -0.022904629 0.050032068
000040 3f 5f 8d 3d 29 87 90 3c fe 5e 5c 3c 6b 83 0a bb
       0.069029324 0.017642574 0.013450382 -0.002113546
000050 59 78 2e 3f 68 e5 16 3c b7 49 14 3b 92 01 44 bb
       0.68152386 0.009209968 0.0022626945 -0.0029908163
000060 be 4a 50 bc 4f a3 3f 3e 3f 38 e6 3c 53 de da 3c
       -0.012713132 0.18714641 0.028102992 0.02671734
000070 8c 8f d5 3d d6 d0 aa bc e4 65 43 3c 10 df 72 bb
       0.1042777 -0.020851534 0.011926148 -0.0037059225
000080 23 12 06 3d 58 b9 23 3f 8c 2f 8a 3f 34 80 6e 3b
       0.03273214 0.6395469 1.079576 0.0036392333
000090 f6 82 bc 3e e3 e5 38 3e c7 0d bc bb b3 b8 4f 3e
       0.36818665 0.18056445 -0.005738947 0.20285301
0000a0 19 22 15 3e 6a 80 1c 3d 2e 8e a6 3c 39 01 dc 3c
       0.14563788 0.038208403 0.020331468 0.026856052
0000b0 be 35 f7 bb 18 18 8f 3e ea ef 0e 3d 09 1d bf ba
       -0.0075442484 0.2794807 0.03489677 -0.0014580797

backbone.2.conv.1.1.running_mean f4 [48]
000000 01 ed 08 be 27 52 a3 bd d4 5e d4 3c f8 2d d7 3e
       -0.1337166 -0.07974654 0.025924124 0.4202726
000010 00 40 c3 3c 02 c7 ad 3b 17 48 02 be e3 5f 00 bd
       0.023834229 0.0053032646 -0.12722813 -0.031341445
000020 3f 1c 1d 3e 7f 57 49 bc 9b 92 d4 3c 73 87 0b be
       0.15342806 -0.012288927 0.025948813 -0.13625889
000030 81 ee b6 bb a5 4e 35 3d 03 85 8f bb 6c 89 25 be
       -0.005582631 0.044264454 -0.00437987 -0.16165704
000040 2d 4d 36 3c d1 4d 8a 3e 3d 9c c3 bd 14 67 c4 be
       0.011126799 0.27012494 -0.095512845 -0.38359892
000050 d0 02 ea 3e 7e b4 4f bc a5 8e 5d bb b0 40 9b bc
       0.4570527 -0.01267731 -0.0033806947 -0.018951744
000060 6e d8 a4 3b 2e dd 43 3e 0a 82 62 3d 7a 3a a2 3b
       0.0050306832 0.19127342 0.055299796 0.0049508186
000070 04 00 5e 3e 3c ea 13 3d 26 f2 2b be f1 7a 25 3d
       0.21679693 0.036112055 -0.16791591 0.04040045
000080 ba 22 80 3d 2c 0a 9f bd 95 5d 1d be c6 65 56 3c
       0.062566236 -0.07765612 -0.1536773 0.013085788
000090 a8 db 24 be ae 8a 03 be a9 36 38 bb b3 b4 36 3e
       -0.16099417 -0.12845871 -0.0028108752 0.17842369
0000a0 61 d4 2d be bc df 3f 3e ee 83 a3 bc b7 86 2d 3d
       -0.16975547 0.18737692 -0.01996037 0.042364802
0000b0 dd 6f 0d 3d c8 0b 6d 3e 6a 7c 76 be c5 75 8a 3c
       0.03453051 0.23149025 -0.24070898 0.01690186

backbone.2.conv.1.1.running_var f4 [48]
000000 c6 50 d6 3c 54 f9 1b 3c f9 d1 97 3b f9 07 bc 3c
       0.026161563 0.009519894 0.004633185 0.02295302
000010 e3 c9 62 3c 0b 6b ce 3b c2 5e b5 3c e4 d7 fe 3a
       0.013842079 0.0062993816 0.02213991 0.0019443003
000020 b2 ef 4d 3d c5 71 ae 3a 1e 67 14 3b b3 a0 1a 3d
       0.05027742 0.0013309052 0.002264447 0.03775091
000030 87 54 20 3a 6e ec e0 3a 2e 17 ca 3a f3 6f d7 3c
       0.0006116111 0.0017160305 0.0015418285 0.026298499
000040 c5 c7 a4 3b d9 a8 bd 3b 03 56 c0 3c 40 8b a9 3c
       0.005028697 0.0057879505 0.023478514 0.020696282
000050 41 cc 00 3c 78 e9 56 3b b3 28 28 3b 05 2b 38 3a
       0.007861198 0.0032792967 0.0025659024 0.00070254534
000060 e3 c2 6e 3b 88 65 99 3d e4 11 89 3b 3d 88 98 39
       0.003643208 0.07490069 0.004183041 0.00029093205
000070 1e 4d 2d 3b 0e d5 28 3a 3a 60 b6 3c d5 1f 4b 3a
       0.002644367 0.0006440439 0.022262681 0.0007748579
000080 8a 3a 83 3b fa 63 43 3c fb 1a 18 3d 9c 73 dd 3b
       0.004004781 0.011925692 0.037135106 0.0067581665
000090 c6 fe f1 3b 0b de 99 3c 0e a8 e7 3a 5f eb 72 3d
       0.0073851077 0.018782636 0.0017673986 0.0593065
0000a0 99 39 4b 3d 5b 25 f7 3a 1d 9d bc 3b 0b d7 52 3b
       0.049615476 0.0018855737 0.005756034 0.0032171633
0000b0 a9 f1 7c 3b 0f c4 10 3d 30 ba 76 3c 7d 16 a2 3a
       0.003859619 0.035343226 0.015059039 0.0012366321
