ML Model/tv_detection_epoch_150/e-107-0.655.pth (torch, 508597 bytes, 205 tensors)

backbone.0.0.weight f4 [16, 3, 3, 3]
-4.256e-42 1.63687e-40 -6.2931e-41 1.8053e-40 -1.60013e-40 -7.9106e-41 -7.9263e-41 -1.19653e-40
-1.5738e-40 -7.426e-41 -1.53228e-40 1.19995e-40 2.15776e-40 -4.9045e-41 6.6616e-41 -5.8755e-41
-4.6132e-41 9.405e-41 -8.498e-41 -9.2155e-41 -1.0018e-40 1.7108e-40 1.8365e-41 1.75344e-40
1.25112e-40 -1.78064e-40 1.15931e-40 0.017800191 0.018953083 -0.0718322 0.14694668 0.341082
-8.563668e-06 -0.1287771 -0.18895872 0.0067548966 -0.05120954 -0.008117729 -0.17383364 0.29876253
0.7023257 0.060727675 -0.3166719 -0.539372 -0.09858549 0.16727012 0.16648272 0.044199146
0.19756307 0.3049878 0.079663076 -0.14323871 -0.19688365 -0.085832834 -0.08037343 0.1359953
0.054673914 -0.38629657 0.7668578 -0.18452947 -0.6350397 0.915045 -0.23460753 -0.131926
0.16613857 -0.03860508 -0.8173349 1.3037677 -0.4525574 -1.0221916 1.415295 -0.46252447
-0.056527827 -0.0069629247 0.063195094 -0.2383849 0.4130994 -0.08726167 -0.2928168 0.44368106
-0.14351526 -0.044986814 -0.006599555 0.06560727 0.057412073 0.23026113 -0.29972512 0.008473051
0.29737696 -0.31558204 -0.02190602 -0.033086274 0.07955451 0.055888873 0.5654572 -0.57525843
0.03857157 0.6289079 -0.6475407 0.007807128 0.017583774 -0.07613074 0.13269226 0.18216954
-0.20706524 0.04723017 0.13747066 -0.22491266 -0.09295497 -0.0685123 -0.110305294 0.015313425
-0.012747956 -0.13319772 0.13225129 0.034427054 -0.19271466 0.08519898 0.014919225 -0.07427983
0.16587283 -0.12063397 -0.3024662 0.19272085 -0.079614915 -0.41910022 0.0847504 -0.07521338
-0.20799579 0.0533122 -0.14386526 -0.270662 -0.0078061284 -0.09710225 -0.22633022 0.17789748
0.18680014 -0.13183619 0.098417126 0.6087127 0.29812863 -0.20826584 0.524436 0.62577295
0.13026404 -0.014647345 0.09544297 0.051514532 -0.1343051 -0.03808115 0.015785275 -0.13362144
-0.050242152 -0.25159055 -0.18746816 0.03956091 -0.18247162 -0.52655774 -0.2826374 0.06840538
-0.47347465 -0.55659944 0.17645352 0.11851818 0.03529823 0.5078821 0.0030136788 -0.0958639
0.10392575 -0.09124331 0.009095891 0.019617613 -0.02725123 -0.04854041 0.855959 -0.084914796
-0.29210934 0.12244205 -0.23358756 -0.044039916 0.092980914 0.04747264 0.0015388315 0.26309994
0.06558402 0.016717171 -0.07899354 -0.11096875 -0.014827908 0.030843347 0.035223436 -0.035281267
-0.010408482 0.11027037 0.30001646 -0.004224598 0.09367464 0.35238487 -0.086561374 -0.16989878
-0.18887885 -0.054665115 0.07526025 0.30646336 -0.009325128 0.12955047 0.33245024 -0.04514592
-0.0015802598 0.020342072 0.041663703 0.18783422 0.3598779 0.093835585 0.19431852 0.31462103
0.04921845 0.047462314 -0.14990927 -0.18510656 0.6521078 -0.5333264 0.013168927 0.71533287
-0.6636901 -0.036713958 0.17054453 -0.2138552 -0.14315335 1.0380348 -0.91660804 -0.007321706
1.0187132 -0.95143753 0.082934834 0.040329322 -0.0007455882 -0.09684061 0.41309816 -0.3435079
0.013257052 0.42162216 -0.37996256 7.0047e-41 -2.0686e-41 3.846e-41 6.1537e-41 1.43542e-40
1.87554e-40 3.4971e-41 -6.1719e-41 6.2104e-41 1.342e-40 -1.16364e-40 -8.6638e-41 1.47908e-40
00000000: dd0b 0080 4bc8 0100 6daf 0080 3ff7 0100
00000010: 0dbe 0180 84dc 0080 f4dc 0080 8b4d 0180
00000020: b6b6 0180 02cf 0080 23ab 0180 7f4e 0100
00000030: 7f59 0200 b888 0080 b3b9 0000 c9a3 0080
00000040: 9980 0080 2c06 0100 e4ec 0080 e400 0180
00000050: 4317 0180 e7dc 0100 3233 0000 cae8 0100
00000060: c35c 0100 5ff0 0180 2b43 0100 b5d1 913c
00000070: 7f43 9b3c c31c 93bd 3179 163e 4da2 ae3e
00000080: adac 0fb7 25de 03be 657e 41be 2e58 dd3b
00000090: 18c1 51bd 3900 05bc 7201 32be 67f7 983e
000000a0: 9ecb 333f 95bd 783d d222 a2be 4914 0abf
000000b0: 30e7 c9bd dc48 2b3e 727a 2a3e 2a0a 353d
000000c0: f94d 4a3e 5c27 9c3e 6526 a33d 2bad 12be
000000d0: de9b 49be 20c9 afbd d39a a4bd 5a42 0b3e
000000e0: c1f1 5f3d aac8 c5be cb50 443f 4bf5 3cbe
000000f0: f691 22bf 6440 6a3f f53c 70be 9c17 07be
00000100: 3b20 2a3e 5c20 1ebd dc3c 51bf dce1 a63f
00000110: 9bb5 e7be 2dd7 82bf 6328 b53f 02d0 ecbe
00000120: b989 67bd 3f29 e4bb 6e6c 813d 2c1b 74be
00000130: c481 d33e 3fb6 b2bd 15ec 95be 2a2a e33e
00000140: aaf5 12be 1844 38bd 1441 d8bb 1b5d 863d
00000150: ec28 6b3d 93c9 6b3e 9275 99be 8dd2 0a3c
00000160: cb41 983e f893 a1be 4174 b3bc 7985 07bd
00000170: 7aed a23d bbeb 643d cec1 103f 2344 13bf
00000180: 39fd 1d3d 1c00 213f 3ac5 25bf f0d2 ff3b
00000190: d90b 903c 6fea 9bbd 7be0 073e a78a 3a3e
000001a0: e908 54be 6c74 413d 1cc5 0c3e 814f 66be
000001b0: 2d5f bebd 2d50 8cbd bee7 e1bd 29e5 7a3c
000001c0: cedc 50bc fc64 08be e26c 073e 6203 0d3d
000001d0: fe56 45be ce7c ae3d c46f 743c 0620 98bd
000001e0: 91da 293e f10e f7bd dadc 9abe 9d58 453e
000001f0: 250d a3bd 4e94 d6be 9e91 ad3d 7909 9abd
00000200: d9fc 54be e55d 5a3d 6a51 13be 3694 8abe
00000210: 8dca ffbb 8bdd c6bd 1cc3 67be c22a 363e
00000220: 8948 3f3e 1100 07be eb8e c93d 98d4 1b3f
00000230: 51a4 983e a443 55be 7041 063f a832 203f
00000240: f063 053e 6bfb 6fbc 9b77 c33d e700 533d
00000250: 4787 09be fbfa 1bbd 1f50 813c 0fd4 08be
00000260: b7ca 4dbd 7ad0 80be a7f7 3fbe 9f0a 223d
00000270: d7d9 3abe 7dcc 06bf d9b5 90be 1f18 8c3d
00000280: 456b f2be 4d7d 0ebf 3bb0 343e a9b9 f23d
00000290: e094 103d 9004 023f 2481 453b 4b54 c4bd
000002a0: 06d7 d43d c6dd babd ef06 153c 1eb5 a03c
000002b0: f93d dfbc 4fd2 46bd 2120 5b3f cfe7 adbd
000002c0: 5b8f 95be e6c2 fa3d 9431 6fbe 3363 34bd
000002d0: c76c be3d ac72 423d 9eb2 c93a 09b5 863e
000002e0: ea50 863d 73f2 883c 5dc7 a1bd 9643 e3bd
000002f0: c1f0 72bc 30ab fc3c 7346 103d 1783 10bd
00000300: 5688 2abc 6fd5 e13d c29b 993e 7f6e 8abb
00000310: 7dd8 bf3d ca6b b43e 1747 b1bd f2f9 2dbe
00000320: 7569 41be 87e8 5fbd 0c22 9a3d c4e8 9c3e
00000330: 6cc8 18bc e1a8 043e eb36 aa3e eeea 38bd
00000340: b820 cfba 6ba4 a63c 8fa7 2a3d 9d57 403e
00000350: eb41 b83e df2c c03d 6ffb 463e 0216 a13e
00000360: 4999 493d d867 423d d181 19be 938c 3dbe
00000370: 89f0 263f 1488 08bf 7cc2 573c 0e20 373f
00000380: 98e7 29bf 6061 16bd 3aa3 2e3e dcfc 5abe
00000390: cb96 12be 53de 843f d3a6 6abf ecea efbb
000003a0: 3265 823f 6991 73bf bdd9 a93d 5c30 253d
000003b0: 9473 43ba 5f54 c6bd 9a81 d33e 44e0 afbe
000003c0: 1b34 593c dcde d73e 748a c2be 43c3 0000
000003d0: aa39 0080 366b 0000 8aab 0000 2390 0100
000003e0: d30a 0200 7c61 0000 0cac 0080 1fad 0000
000003f0: 1876 0100 6044 0180 83f1 0080 4f9c 0100

backbone.0.1.weight f4 [16]
7.365e-41 0.09986357 0.11312899 0.28942558 0.19742677 0.22090209 0.116277635 0.3006742
0.094887346 2.03956e-40 0.4235534 0.14756513 0.30964813 0.3410137 1.32133e-40 0.08740566
00000000: 4ecd 0000 4585 cc3d 2cb0 e73d 972f 943e
00000010: 3e2a 4a3e 2834 623e f822 ee3d f8f1 993e
00000020: 4c54 c23d 8c38 0200 fedb d83e 501b 173e
00000030: 338a 9e3e 5999 ae3e 5570 0100 bd01 b33d

backbone.0.1.bias f4 [16]
-1.71202e-40 0.60083926 0.40683267 0.23236616 0.850489 0.5612744 0.469733 0.49862117
0.5391842 1.14433e-40 -0.26657563 0.88060653 0.34035546 -0.30368268 9.4754e-41 0.13175218
00000000: 3edd 0180 9ad0 193f 5f4c d03e 65f1 6d3e
00000010: a6b9 593f aeaf 0f3f d880 f03e 464b ff3e
00000020: fa07 0a3f fe3e 0100 9a7c 88be 6e6f 613f
00000030: 1243 ae3e 4c7c 9bbe 2308 0100 0bea 063e

backbone.0.1.running_mean f4 [16]
-1.4726429e-38 58.94476 43.76531 9.583356 -190.81375 -72.22261 123.407974 240.58107
7.417012 -4.231332e-38 -31.731094 197.33842 22.592852 73.422844 -3.1150327e-38 -42.997925
00000000: 4b5b a080 6fc7 6b42 ad0f 2f42 6d55 1941
00000010: 52d0 3ec3 fa71 90c2 e2d0 f642 c194 7043
00000020: 2a58 ed40 2960 6681 48d9 fdc1 a356 4543
00000030: 29be b441 7fd8 9242 3899 2981 e0fd 2bc2

backbone.0.1.running_var f4 [16]
6e-45 3021.8535 9840.063 1903.1227 16134.47 10344.659 9441.854 25439.826
5942.807 6e-45 3393.6516 16920.09 2851.9456 3820.799 6e-45 2227.089
00000000: 0400 0000 a8dd 3c45 41c0 1946 ede3 ed44
00000010: e119 7c46 a3a2 2146 6a87 1346 a7bf c646
00000020: 75b6 b945 0400 0000 6d1a 5445 2e30 8446
00000030: 213f 3245 c9cc 6e45 0400 0000 6d31 0b45

backbone.1.conv.0.0.weight f4 [16, 1, 3, 3]
-1.79599e-40 8.8456e-41 -7.3903e-41 1.15886e-40 9.1812e-41 -4.188e-42 -5.4068e-41 4.5363e-41
-3.892e-41 -0.029129433 -0.027247343 0.026059832 0.019721197 -0.05569336 0.7175802 -0.015702201
0.030924432 -0.84996057 0.0070960484 -0.051438395 -0.13465963 -0.02155673 0.039550804 1.0419314
0.004480611 -0.08676705 -0.09287612 -0.07084811 -0.04810708 -0.071904525 0.004447104 0.8029362
-0.28138837 -0.0064489422 -0.03381705 -0.19905038 0.56814396 1.9291269 0.4628913 0.21389353
0.44330308 0.2049571 -0.84570926 -2.1073754 -0.7184756 -0.22059363 0.005252946 -0.21052182
0.12755966 0.37829414 -1.6346468 0.08142696 1.3219528 0.3974872 -0.060614582 0.0822867
-0.050984334 -0.0004365737 0.04610269 -0.77011484 0.017653037 0.07113488 1.024135 -0.47883233
-0.27586934 0.7307027 -2.359449 -0.36194757 2.6007175 -0.42907798 -0.14159639 0.6619433
-0.03570932 0.02266229 -0.08790451 0.048285667 -0.9234483 0.1373266 0.0755407 0.014221532
-0.096857965 -5.2525e-41 1.1949e-40 1.13002e-40 -1.27218e-40 -1.36456e-40 -1.12601e-40 2.388e-41
1.72538e-40 -5.7187e-41 -0.0144782085 -0.14824115 -0.37558925 -0.18455897 0.1406869 0.3886926
-0.32872072 0.34091124 0.4911632 0.18960598 1.5578179 0.975579 0.10922244 0.04125524
-0.12155431 -0.28091532 -1.6316804 -0.9741905 -0.0048507974 0.026800092 -0.023812728 0.013705177
-0.016948484 -0.7435661 -0.024135333 -0.0048483857 0.732947 -0.02527043 0.0677112 -0.1771357
0.04917324 0.11602409 -0.08456067 -0.17631869 -0.06268765 0.6015201 1.81753e-40 -1.67897e-40
-2.341e-41 -1.7146e-41 2.12787e-40 2.0979e-40 1.1924e-40 4.3083e-41 -8.7008e-41 0.13221206
0.021276057 0.02074332 0.13937643 -0.052026466 -0.17839204 0.10154472 -0.19202545 -0.23729053
00000000: a6f4 0180 94f6 0000 03ce 0080 0b43 0100
00000010: efff 0000 ad0b 0080 b896 0080 747e 0000
00000020: 7e6c 0080 d9a0 eebc d235 dfbc 6e7b d53c
00000030: 598e a13c b81e 64bd 56b3 373f e7a1 80bc
00000040: 3c55 fd3c 0497 59bf f885 e83b 11b1 52bd
00000050: 37e4 09be bd97 b0bc 0600 223d 025e 853f
00000060: 17d2 923b ecb2 b1bd d635 bebd d018 91bd
00000070: ee0b 45bd ae42 93bd 03b9 913b 3a8d 4d3f
00000080: 2312 90be a651 d3bb bf83 0abd ddd3 4bbe
00000090: e271 113f a1ed f63f 1700 ed3e e806 5b3e
000000a0: 9ff8 e23e 46e0 513e 6780 58bf 3ddf 06c0
000000b0: 04ee 37bf 4ce3 61be e820 ac3b 0893 57be
000000c0: 009f 023e c5af c13e 1b3c d1bf 2ec3 a63d
000000d0: c035 a93f 7183 cb3e ff46 78bd ee85 a83d
000000e0: f3d4 50bd eee3 e4b9 2dd6 3c3d 3f26 45bf
000000f0: 1a9d 903c 2aaf 913d db16 833f 8329 f5be
00000100: bf3e 8dbe 550f 3b3f 3601 17c0 3151 b9be
00000110: 2872 2640 1cb0 dbbe a5fe 10be 1e75 293f
00000120: f043 12bd 44a6 b93c 4807 b4bd 31c7 453d
00000130: 1c67 6cbf 589f 0c3e 15b5 9a3d 6e01 693c
00000140: 785d c6bd 6b92 0080 174d 0100 013b 0100
00000150: a262 0180 627c 0180 e339 0180 9142 0000
00000160: f7e0 0100 6a9f 0080 0236 6dbc 87cc 17be
00000170: 3c4d c0be 07fd 3cbe 3a10 103e b702 c73e
00000180: 154e a8be eb8b ae3e be79 fb3e 1228 423e
00000190: 9466 c73f 8cbf 793f 04b0 df3d 41fb 283d
000001a0: 77f1 f8bd 22d4 8fbe e7da d0bf 8c64 79bf
000001b0: 70f3 9ebb de8b db3c e912 c3bc ae8b 603c
000001c0: 8cd7 8abc 595a 3ebf 76b7 c5bc 35df 9ebb
000001d0: 6aa2 3b3f ef03 cfbc 2bac 8a3d 1063 35be
000001e0: e169 493d 0a9e ed3d 252e adbd e38c 34be
000001f0: 6262 80bd 39fd 193f a7fa 0100 07d4 0180
00000200: 4241 0080 cc2f 0080 2a51 0200 cf48 0200
00000210: 654c 0100 1978 0000 8bf2 0080 9962 073e
00000220: 204b ae3c e5ed a93c b2b8 0e3e b419 55bd
00000230: 67ac 36be aef6 cf3d 52a2 44be 4afc 72be

backbone.1.conv.0.1.weight f4 [16]
1.99073e-40 0.51179755 0.56023496 0.59038764 1.1316217 0.473322 0.5484143 0.82089573
0.40263334 -1.2137e-41 0.21017072 0.9878815 0.86912555 0.24202067 -1.4051e-41 0.33609495
00000000: ef2a 0200 2a05 033f 8f6b 0f3f a523 173f
00000010: fbd8 903f 4357 f23e e164 0c3f 3926 523f
00000020: f525 ce3e d521 0080 fe36 573e cde5 7c3f
00000030: 037f 5e3f 44d4 773e 2b27 0080 a314 ac3e

backbone.1.conv.0.1.bias f4 [16]
-3.44448e-39 0.6302166 1.3401324 0.265141 0.19226345 0.7518814 0.557926 0.50662494
0.45105612 -7.69626e-39 0.54136866 0.06821253 0.68858784 -0.31057057 -2.648905e-39 0.36303267
00000000: cf81 2580 e055 213f 7589 ab3f 90c0 873e
00000010: b6e0 443e 4d7b 403f 3dd4 0e3f 2cb2 013f
00000020: d4f0 e63e 0bce 5380 2397 0a3f 03b3 8b3d
00000030: 4b47 303f 1b03 9fbe 12d8 1c80 6bdf b93e

backbone.1.conv.0.1.running_mean f4 [16]
6e-45 -0.10610575 0.27859822 0.026857832 0.13772744 0.14617036 0.16558234 -0.033075985
-0.45659545 -6e-45 0.013728136 -0.11858439 -0.023706421 0.014270613 -6e-45 -0.033001762
00000000: 0400 0000 f94d d9bd 6da4 8e3e f504 dc3c
00000010: 6c08 0d3e afad 153e 6b8e 293e af7a 07bd
00000020: e1c6 e9be 0400 0080 faeb 603c 5fdc f2bd
00000030: f833 c2bc 4acf 693c 0400 0080 db2c 07bd

backbone.1.conv.0.1.running_var f4 [16]
6e-45 0.008805971 0.0081784185 0.03667903 0.2268815 0.049376447 0.0065660863 0.40722612
0.007173073 6e-45 0.00708106 0.14277731 0.05873443 0.002059405 6e-45 0.00070861453
00000000: 0400 0000 eb46 103c c6fe 053c c03c 163d
00000010: a053 683e f53e 4a3d 5328 d73b f17f d03e
00000020: 190c eb3b 0400 0000 3d08 e83b 3734 123e
00000030: 8393 703d 15f7 063b 0400 0000 51c2 393a

backbone.1.conv.1.weight f4 [8, 16, 1, 1]
2.376671e-39 -0.21462992 -0.04236703 0.19132398 -0.03970734 0.65193284 0.25661838 -0.107369736
-0.06308412 -8.51924e-40 0.003717637 0.25557235 0.119423226 0.0073623336 -6.19256e-40 -0.21566872
-1.55519e-39 -0.077037565 -0.5178656 0.008696014 0.25697008 -0.07992991 0.009739303 0.021268262
0.095965795 9.52475e-40 -0.07442419 0.11011446 -0.18183368 -0.040274486 -1.800605e-39 -0.3027813
-4.27201e-40 0.41903546 0.13057403 0.426332 -0.18639944 -0.16847178 -0.29374063 0.0848351
-0.20694566 6.21742e-40 -0.21270373 0.3773253 0.025425995 -0.096320204 1.177277e-39 -0.3518651
9.9286e-40 -0.17415367 -0.115868844 -0.08769705 0.46273997 -0.28023097 0.13085526 -0.058457546
-0.16895802 -1.992097e-39 0.11202525 -0.39705 0.448989 0.27617934 2.544915e-39 -0.37470216
1.28391e-40 -0.3296291 0.23744138 0.024264514 0.13159539 -0.6884088 0.17755328 -0.21776608
-0.07233127 -4.68129e-40 0.2859842 -0.03471073 -0.23664725 0.11880021 -2.23e-43 0.009732047
-9.22874e-40 -0.11359029 0.047674697 -0.5695541 -0.2975581 -0.14845346 0.14526217 0.5786663
0.4310735 -1.064868e-39 0.113275714 0.41297388 0.09855494 0.044856273 -1.463886e-39 -0.21907046
-1.82854e-40 0.31771702 -0.04694286 -0.41748464 -0.39728454 0.06585702 1.2673717e-05 -0.82175475
0.074530944 -2.78542e-40 -0.04374683 0.24215958 -0.06376038 0.3200246 -9.9505e-41 -0.21519497
-8.69975e-40 0.09527891 0.24812381 -0.04654154 0.50767714 0.56779534 -0.13614348 0.1552174
-0.06435372 -2.012892e-39 0.088396445 -0.4492785 -0.23078491 0.084291585 6.85256e-40 -0.24890506
00000000: 31e1 1900 f2c7 5bbe 0d89 2dbd 6fea 433e
00000010: 2aa4 22bd 12e5 263f 7c63 833e aae4 dbbd
00000020: 3f32 81bd d146 0980 99a3 733b 61da 823e
00000030: 2a94 f43d bb3f f13b 3cbe 0680 43d8 5cbe
00000040: 3def 1080 dfc5 9dbd d792 04bf ba79 0e3c
00000050: 9591 833e 4bb2 a3bd 9991 1f3c c73a ae3c
00000060: b789 c43d 1d5f 0a00 b66b 98bd b183 e13d
00000070: 9c32 3abe dcf6 24bd 5b9b 1380 2706 9bbe
00000080: dda6 0480 d18b d63e 33b5 053e 3048 da3e
00000090: 7fdf 3ebe de83 2cbe 2c65 96be 06be ad3d
000000a0: 90e9 53be 2ac5 0600 02cf 59be c830 c13e
000000b0: 2d4a d03c 8743 c5bd c5d1 0c00 aa27 b4be
000000c0: b1cf 0a00 5755 32be a54c edbd 839a b3bd
000000d0: 41ec ec3e 6f7a 8fbe ecfe 053e 2e71 6fbd
000000e0: 5503 2dbe 28b1 1580 7f6d e53d 234a cbbe
000000f0: e3e1 e53e 6167 8d3e 30b6 1b00 f6d8 bfbe
00000100: e765 0100 25c5 a8be d523 733e 60c6 c63c
00000110: f1c0 063e 8f3b 30bf 87d0 353e 12fe 5ebe
00000120: 6b22 94bd f418 0580 856c 923e d72c 0ebd
00000130: a853 72be 864d f33d 9f00 0080 2a73 1f3c
00000140: 990c 0a80 07a2 e8bd 8b46 433d 4cce 11bf
00000150: 8959 98be 2f04 18be 9bbf 143e 7a23 143f
00000160: aab5 dc3e 6b98 0b80 19fd e73d 5071 d33e
00000170: 2cd7 c93d 36bb 373d b8f0 0f80 0254 60be
00000180: b9fd 0180 ceab a23e 2847 40bd 8cc0 d5be
00000190: e168 cbbe 0ce0 863d 33a1 5437 855e 52bf
000001a0: aea3 983d 7608 0380 e02f 33bd aef8 773e
000001b0: cd94 82bd 44da a33e 6115 0180 125c 5cbe
000001c0: 2379 0980 9721 c33d 2b14 7e3e 58a2 3ebd
000001d0: 21f7 013f 095b 113f 3269 0bbe 4ff1 1e3e
000001e0: e2cb 83bd 20eb 1580 3209 b53d d507 e6be
000001f0: e152 6cbe 11a1 ac3d 3776 0700 f8e0 7ebe

backbone.1.conv.2.weight f4 [8]
0.5191831 0.47662544 0.68733585 0.52525645 0.519881 0.60057634 0.5792749 0.5150867
00000000: 2fe9 043f 4008 f43e 3ef5 2f3f 3577 063f
00000010: ec16 053f 5fbf 193f 5c4b 143f b9dc 033f

backbone.1.conv.2.bias f4 [8]
0.00023159194 2.0665162e-07 0.00016731926 -0.00020155136 2.4840467e-05 0.00025724474 -2.4608284e-05 -7.069847e-05
00000000: 7dd7 7239 f7e3 5d34 6c72 2f39 8857 53b9
00000010: 7f60 d037 cede 8639 e36d ceb7 f443 94b8

backbone.1.conv.2.running_mean f4 [8]
0.4874287 -0.921745 0.031232541 -0.19977716 -0.46057755 0.37395993 -0.6546573 0.6651991
00000000: 4190 f93e 7bf7 6bbf 63db ff3c 6292 4cbe
00000010: d2d0 ebbe ad77 bf3e 9f97 27bf 7d4a 2a3f

backbone.1.conv.2.running_var f4 [8]
0.11944101 0.12026533 0.26690194 0.30579734 0.20035635 0.34828866 0.37075323 0.19027647
00000000: 7d9d f43d ab4d f63d 5fa7 883e 7891 9c3e
00000010: 372a 4d3e e452 b23e 5ed3 bd3e d6d7 423e

backbone.2.conv.0.0.weight f4 [48, 8, 1, 1]
0.122885816 -0.06952862 0.15218717 -0.34418058 -0.14948027 0.068042554 0.23256275 0.037730698
0.13202946 0.07876398 0.08974412 0.021623095 -0.046759177 -0.37725037 -0.15806916 -0.16470373
-0.16330032 0.06785018 -0.16243494 0.15019159 -0.01688319 -0.11452399 -0.21740945 0.19851187
-0.1900529 0.16778655 0.15821712 -0.44514394 0.022402512 -0.101299025 -0.22354713 -0.5297002
0.035735946 -0.11838113 0.108841725 -0.25687736 -0.064992696 0.10755127 0.061893605 -0.28614247
0.08920194 0.042999398 0.2247254 -0.10356907 -0.06643514 0.0005181162 0.26151478 -0.092772804
0.0287324 0.18797787 0.19757873 0.16149743 -0.09800824 -0.30666032 -0.0821743 -0.04704152
0.015884914 0.119001426 0.050507016 -0.010267175 0.074901685 0.020167295 -0.07183451 0.12530984
-0.019241957 0.065237835 0.51258934 0.012656755 -0.101411834 0.000949415 0.00039706056 0.009022943
-0.066136844 0.3312238 -0.09010039 0.1383652 -0.11551285 0.108957246 0.07154317 -0.03534266
-0.17058249 -0.094463654 0.0691187 -0.39070588 0.12140758 0.08043797 0.0146907875 -0.036239054
-0.08728209 0.08908525 -0.29295304 0.26531312 0.07381302 -0.15824656 -0.14225085 0.20636348
0.12062689 0.10041802 -0.18066248 0.15210983 0.07951503 0.14275433 -0.031309206 -0.058226246
0.31511608 -0.13350599 -0.040490285 -0.017606387 -0.23739739 -0.046528198 0.10684112 0.21262231
0.08778418 -0.19710267 0.0063833403 0.38441813 -0.022954378 0.14767048 -0.10305136 -0.34669864
0.10754123 0.23929147 0.18894969 0.17232658 -0.30661845 -0.16949385 0.021331133 -0.03537715
0.30832562 0.20413455 0.15038392 0.21608518 0.12797706 0.09985236 0.16464807 0.07820741
0.023844257 0.06078329 0.13641007 -0.092580415 -0.21785006 0.20390801 -0.021627543 0.057815477
-0.22871214 0.057826363 -0.20293169 0.15768102 -0.16161118 -0.10732834 -0.20281519 0.29063672
-0.07020921 0.10761625 -0.23456484 0.35462573 0.08763194 -0.21233925 -0.16105282 0.45455557
0.09345858 0.18625629 0.22527462 0.24129876 0.027281772 0.10677744 0.14663114 0.11344648
0.045933537 -0.08548477 0.08760248 -0.3909105 0.14965296 -0.043884393 -0.33522457 -0.017619284
0.073912196 0.12836246 0.010192781 0.071164146 -0.23652343 -0.07632158 -0.0341187 -0.10605372
0.27542666 -0.045378104 0.083702095 0.11834871 0.02009974 -0.0339372 -0.14199126 -0.0066576377
-0.1675544 -0.14732152 0.077491105 0.18943629 -0.20094083 -0.06520189 0.065668024 -0.04995159
-0.0600908 -0.45358354 0.21641125 -0.050860666 0.105035946 -0.107766345 0.0011301523 0.26899445
-0.20124671 -0.02543905 0.21834205 0.008613642 -0.19678071 -2.2262075e-05 0.1764756 0.12921749
-0.21709606 -0.007646733 -0.07704287 0.27794847 0.12266596 0.08765439 0.34693584 0.10312571
0.34114063 -0.048532665 -0.23981088 -0.0384363 -0.01911131 -0.24270925 0.010480395 0.2053399
0.05540011 0.010441212 0.19863509 0.20235649 0.12610883 0.08244042 -0.058007963 0.06503357
-0.24126372 -0.061826743 -0.27901685 -0.07934681 -0.19144037 0.48780587 0.06722093 0.18314888
0.15521885 -0.022874165 0.043515973 -0.17141262 -0.26277134 0.093430914 0.009777935 0.26618573
00000000: 8fab fb3d 0565 8ebd f4d6 1b3e 7038 b0be
00000010: 5b11 19be e559 8b3d ee24 6e3e 818b 1a3d
00000020: bb32 073e 024f a13d c4cb b73d eb22 b13c
00000030: 8d86 3fbd f626 c1be e2dc 21be 18a8 28be
00000040: 3338 27be 09f5 8a3d 5855 26be d3cb 193e
00000050: 9e4e 8abc 8e8b eabd 95a0 5ebe b246 4b3e
00000060: 3a9d 42be 3dd0 2b3e ab03 223e e8e9 e3be
00000070: 7985 b73c dd75 cfbd 8ae9 64be 6f9a 07bf
00000080: db5f 123d ce71 f2bd 69e8 de3d 6e85 83be
00000090: e41a 85bd d743 dc3d 2684 7d3d 4481 92be
000000a0: 82af b63d 2320 303d 6a1e 663e 051c d4bd
000000b0: 260f 88bd 31d2 073a 44e5 853e abff bdbd
000000c0: 3660 eb3c 457d 403e 1452 4a3e 955f 253e
000000d0: 8bb8 c8bd 9502 9dbe 004b a8bd 9cae 40bd
000000e0: 1421 823c 05b7 f33d 72e0 4e3d a737 28bc
000000f0: 0e66 993d e235 a53c f91d 93bd 3951 003e
00000100: 4fa1 9dbc 6a9b 853d 0e39 033f 475e 4f3c
00000110: 02b1 cfbd 2ae2 783a 912c d039 f7d4 133c
00000120: c172 87bd 2a96 a93e 8e86 b8bd 9baf 0d3e
00000130: 0092 ecbd fa24 df3d 3a85 923d 77c3 10bd
00000140: 2dad 2ebe 2976 c1bd 1b8e 8d3d 9a0a c8be
00000150: 8aa4 f83d aabc a43d a1b1 703c 676f 14bd
00000160: f4c0 b2bd 5472 b63d f1fd 95be 1fd7 873e
00000170: 482b 973d 630b 22be 35aa 11be f350 533e
00000180: 3b0b f73d f6a7 cd3d 96ff 38be aec2 1b3e
00000190: c7d8 a23d 312e 123e 153e 00bd a57e 6ebd
000001a0: e556 a13e cbb5 08be 24d9 25bd 453b 90bc
000001b0: 4d18 73be 5a94 3ebd 84cf da3d aab9 593e
000001c0: 31c8 b33d 48d5 49be 572b d13b 74d2 c43e
000001d0: d20a bcbc ee36 173e 970c d3bd 7c82 b1be
000001e0: 943e dc3d d308 753e 077c 413e 6176 303e
000001f0: 18fd 9cbe cc8f 2dbe a1be ae3c a1e7 10bd
00000200: dbdc 9d3e a608 513e 3efe 193e 6f45 5d3e
00000210: 6b0c 033e 657f cc3d 8199 283e 352b a03d
00000220: 0855 c33c e6f7 783d 15af 0b3e cd9a bdbd
00000230: 1614 5fbe 43cd 503e 3f2c b1bc eccf 6c3d
00000240: 8433 6abe 56db 6c3d 53cd 4fbe 2277 213e
00000250: 677d 25be f6ce dbbd c9ae 4fbe 56ce 943e
00000260: d9c9 8fbd e965 dc3d c431 70be 8191 b53e
00000270: 6078 b33d 766f 59be 08eb 24be 82bb e83e
00000280: 3667 bf3d f8b9 3e3e 64ae 663e 0617 773e
00000290: 067e df3c 21ae da3d 7926 163e a156 e83d
000002a0: ce24 3c3d a412 afbd ee68 b33d 6c25 c8be
000002b0: a03e 193e 1fc0 33bd 8ea2 abbe 5156 90bc
000002c0: 475f 973d 7371 033e 9fff 263c 82be 913d
000002d0: 3333 72be 7d4e 9cbd 0dc0 0bbd b132 d9bd
000002e0: b904 8d3e 64de 39bd 016c ab3d cf60 f23d
000002f0: 36a8 a43c bc01 0bbd 2866 11be 5028 dabb
00000300: 6193 2bbe 74db 16be a8b3 9e3d 96fb 413e
00000310: 6fc3 4dbe 9288 85bd f57c 863d 0a9a 4cbd
00000320: c521 76bd 1a3c e8be e99a 5d3e 4653 50bd
00000330: 161d d73d 9ab4 dcbd 9e21 943a a4b9 893e
00000340: 9e13 4ebe 8e65 d0bc 0f95 5f3e 3c20 0d3c
00000350: e280 49be 71bf bab7 05b6 343e 9751 043e
00000360: 6e4e 5ebe 7291 fabb a7c8 9dbd 434f 8e3e
00000370: 4a38 fb3d 2584 b33d 93a1 b13e 9233 d33d
00000380: fca9 ae3e 30ca 46bd fc90 75be 626f 1dbd
00000390: 528f 9cbc c688 78be f6b5 2b3c 9f44 523e
000003a0: 3aeb 623d 9e11 2b3c ff66 4b3e 8a36 4f3e
000003b0: ac22 013e 86d6 a83d c299 6dbd 5230 853d
000003c0: d60d 77be 0a3e 7dbd 4cdb 8ebe 9580 a2bd
000003d0: f208 44be b1c1 f93e 20ab 893d 618b 3b3e
000003e0: b1f1 1e3e 9a62 bbbc ce3d 323d ca86 2fbe
000003f0: f789 86be b558 bf3d a233 203c 7f49 883e

backbone.2.conv.0.1.weight f4 [48]
0.44832036 0.34762883 0.12139283 0.17241804 0.15049106 0.07526982 0.30105916 0.054031253
0.37115312 0.11355243 0.23180807 0.40312716 0.08021376 0.13978666 0.13966163 0.37464938
0.16262276 0.19400531 0.37912223 0.26236168 0.23742473 0.14087783 0.16115564 0.1555659
0.14742248 0.17908455 0.15812106 0.25556293 0.07953639 0.053869925 0.45504278 0.09574792
0.262327 0.35637727 0.31543264 0.2258551 0.3565967 0.4053506 0.18478024 0.40093824
0.45977288 0.1509633 0.11011574 0.20461151 0.20897305 0.2722288 0.33202264 0.062100783
00000000: 3f8a e53e 68fc b13e ce9c f83d 5b8e 303e
00000010: 541a 1a3e 1027 9a3d 6d24 9a3e e04f 5d3d
00000020: c807 be3e 2d8e e83d 185f 6d3e af66 ce3e
00000030: 1d47 a43d 3c24 0f3e 7503 0f3e 0bd2 bf3e
00000040: 9586 263e 54a9 463e 4f1c c23e 4554 863e
00000050: 781f 733e 4742 103e fc05 253e ab4c 1f3e
00000060: ebf5 163e f161 373e 7dea 213e 25d9 823e
00000070: fae3 a23d b6a6 5c3d 5efb e83e 7c17 c43d
00000080: b94f 863e 1577 b63e 6380 a13e 8f46 673e
00000090: d893 b63e 1d8a cf3e 0837 3d3e c747 cd3e
000000a0: 5a67 eb3e 2096 1a3e 5c84 e13d ae85 513e
000000b0: 08fd 553e 9361 8b3e dffe a93e 645d 7e3d

backbone.2.conv.0.1.bias f4 [48]
-0.025954189 0.028989002 0.24444616 0.37279406 0.27548546 0.29691955 0.008472942 0.03730439
-0.046201482 0.16410163 -0.035933007 0.05363067 0.20641339 0.17393325 0.20597927 -0.062735364
-0.108387075 0.15685907 0.04928344 0.30544725 0.26884627 0.15867141 0.15299949 0.20438038
0.16116695 0.01954932 0.13465233 -0.3487408 0.27953106 0.2488874 -0.023735799 0.20280291
0.04297999 0.025046408 0.0837283 0.15999906 -0.032692596 0.030088248 0.16783482 0.04784188
0.017770892 0.16865118 0.29442447 0.13715383 0.1308614 -0.059274025 0.1948875 0.24137658
00000000: e19d d4bc 587a ed3c 1850 7a3e ddde be3e
00000010: 6e0c 8d3e d705 983e 18d2 0a3c 7dcc 183d
00000020: c43d 3dbd 420a 283e 7d2e 13bd d5ab 5b3d
00000030: 085e 533e 8f1b 323e 3bec 523e 667b 80bd
00000040: 0bfa ddbd aa9f 203e 6fdd 493d 9563 9c3e
00000050: 38a6 893e c27a 223e e6ab 1c3e 1749 513e
00000060: f308 253e e525 a03c 4de2 093e 278e b2be
00000070: b21e 8f3e 57dc 7e3e 9471 c2bc 91ab 4f3e
00000080: c90b 303d 202e cd3c be79 ab3d cbd6 233e
00000090: ace8 05bd a17b f63c e4dc 2b3e d9f5 433d
000000a0: 4394 913c e5b2 2c3e cebe 963e 0e72 0c3e
000000b0: 8800 063e 52c9 72bd 9790 473e 6c2b 773e

backbone.2.conv.0.1.running_mean f4 [48]
2.878907e-05 -5.241853e-05 -1.752179e-05 -5.131117e-07 1.5651613e-05 2.1290607e-05 -2.461066e-05 4.106284e-06
1.6813601e-05 5.4459968e-05 4.7092385e-06 -2.9613708e-05 1.4328219e-05 -1.8555229e-06 -7.704632e-06 1.743992e-05
1.8951703e-05 5.0976298e-05 -3.9893594e-06 -3.8390917e-05 3.0834457e-05 -3.5086043e-05 1.4163191e-05 -2.4665045e-05
-1.3555122e-06 -5.7630055e-05 2.7412189e-05 1.8789153e-05 -4.4520202e-05 -3.3365989e-06 8.593974e-05 3.122164e-05
6.488174e-05 -7.3633746e-05 5.918051e-05 3.7718582e-05 -3.288463e-05 1.4045676e-05 1.6675003e-05 2.951243e-05
-4.113287e-06 2.6370064e-05 3.4129e-05 8.617482e-05 3.8757444e-05 9.712997e-06 -3.2977794e-05 -2.1976539e-06
00000000: 0f80 f137 f8db 5bb8 c2fb 92b7 c4bc 09b5
00000010: 954b 8337 3b99 b237 fd72 ceb7 b6c8 8936
00000020: ef0a 8d37 f26b 6438 0d04 9e36 f46a f8b7
00000030: 3b63 7037 480b f9b5 2443 01b7 f14b 9237
00000040: 79fa 9e37 62cf 5538 56dc 85b6 ef05 21b8
00000050: 3f54 0138 5a29 13b8 719e 6d37 c8e7 ceb7
00000060: 0bef b5b5 cdb7 71b8 3af3 e537 669d 9d37
00000070: 34bb 3ab8 55ea 5fb6 8c3a b438 fbf3 0238
00000080: 1e11 8838 d16b 9ab8 9738 7838 0534 1e38
00000090: 9aed 09b8 b8a5 6b37 4ce1 8b37 7691 f737
000000a0: de04 8ab6 4835 dd37 bc25 0f38 c1b8 b438
000000b0: 7d8f 2238 01f5 2237 a351 0ab8 687b 13b6

backbone.2.conv.0.1.running_var f4 [48]
0.13402072 0.076200835 0.09821745 0.1536066 0.09936036 0.09779768 0.08355491 0.012954938
0.13546437 0.035436373 0.07638941 0.17046298 0.03811422 0.07788124 0.069357224 0.093989946
0.049441647 0.058452595 0.1234578 0.26899442 0.034755252 0.058370903 0.027129943 0.029334823
0.021008283 0.065159954 0.045761064 0.061377287 0.1042283 0.020635288 0.19071084 0.077109106
0.061961595 0.09830014 0.12581988 0.08065271 0.1662098 0.15681075 0.043148685 0.1506902
0.036999404 0.13744527 0.05702617 0.093311325 0.08045792 0.13547213 0.14075965 0.09092681
00000000: ba3c 093e 2f0f 9c3d 3b26 c93d 0c4b 1d3e
00000010: 727d cb3d 264a c83d d61e ab3d f340 543c
00000020: 2cb7 0a3e bb25 113d 0d72 9c3d d98d 2e3e
00000030: a81d 1c3d 3380 9f3d 290b 8e3d cd7d c03d
00000040: 5383 4a3d fd6b 6f3d 71d7 fc3d a3b9 893e
00000050: 865b 0e3d 5416 6f3d 9d3f de3c 954f f03c
00000060: 9019 ac3c 9572 853d f46f 3b3d c066 7b3d
00000070: a675 d53d 560b a93c b449 433e 61eb 9d3d
00000080: 71cb 7d3d 9551 c93d edd6 003e 3f2d a53d
00000090: e732 2a3e ff92 203e adbc 303d 884e 1a3e
000000a0: b08c 173d 74be 0c3e 4694 693d 021a bf3d
000000b0: 1fc7 a43d 35b9 0a3e 4c23 103e d637 ba3d

backbone.2.conv.1.0.weight f4 [48, 1, 3, 3]
-0.013128281 -0.2068795 -0.21127245 -0.007490378 -0.1997614 -0.15161693 0.04667281 -0.091785185
-0.05516929 -0.07264064 -0.03786591 0.026863901 -0.17831968 -0.21576972 -0.15466067 -0.08045902
-0.0690132 -0.107191734 -0.11313595 -0.06077588 -0.014188143 0.19590582 0.45121002 0.26320013
-0.026761763 -0.082591504 -0.26858065 0.12984625 0.21697575 0.1012757 0.25616875 0.42376643
0.066875085 0.13538858 0.125371 -0.018858878 -0.06853388 -0.35195956 -0.28331718 -0.0037054692
-0.026885154 0.04880264 0.05799702 0.261518 0.22574498 0.079948604 0.28125983 0.12620188
-0.021755517 -0.066723496 -0.054496277 -0.12089724 -0.223846 -0.28847942 0.035564408 -0.06773069
-0.11155501 0.07656969 -0.15798968 -0.33450887 0.06789263 -0.046729527 -0.26504028 -0.08307803
-0.0003738722 -0.00019839557 -0.09635325 0.062225 -0.045563646 -0.14699301 0.015126281 -0.090587944
-0.046957847 0.062165193 0.12679374 0.07171102 0.20509647 0.2094972 0.20438342 0.29322484
0.077161446 -0.16580762 0.23379366 -0.0521936 0.033277757 0.12430818 0.022229707 0.1131585
-0.3828924 0.051595334 0.098970264 0.09177829 0.02437589 0.04683987 0.18086001 0.09667806
0.0153160915 0.14574072 0.17973977 -0.109663844 -0.22420658 -0.011800565 -0.21327575 -0.2861525
0.01253479 -0.08004651 -0.06967444 0.013000422 -0.017770829 0.10770327 0.039223537 0.13292356
-0.41341743 -0.0054878355 -0.1168289 0.28410342 -0.0018457904 -0.06713537 0.1023104 -0.08994132
-0.16595982 0.3346257 -0.13536273 0.013682016 0.20000872 -0.2346777 -0.05479885 -0.07168409
0.03403354 0.15418124 0.34311455 0.08574045 -0.12747633 -0.33126062 -0.1360165 -0.09037284
-0.064315535 0.123662114 -0.15201525 -0.2768888 -0.0012092286 0.043715823 -0.2928724 -0.030729989
-0.076069675 -0.04042354 0.13434112 0.0018940797 0.17925085 0.18575183 0.12086835 0.16107966
0.14444631 0.21877837 0.1314836 0.039583255 0.19523983 0.13404776 0.031865545 0.076829724
0.124699876 0.01339899 -0.15079592 -0.00439452 0.06986369 -0.14587179 -0.29912436 -0.10008003
0.122866035 -0.09487862 -0.08880977 -0.04893237 -0.15205906 -0.07349079 -0.08536622 -0.2943667
-0.10221333 0.081335254 -0.2529066 -0.14441451 0.03112447 0.07957799 0.042802934 0.09775429
0.33735216 0.031523954 0.1601886 0.16008249 -0.2236273 -0.17512728 -0.06741966 0.12454961
-0.26321438 -0.14336592 0.21302012 -0.16397409 -0.16403736 0.046033613 0.05300799 -0.3083808
0.043026138 -0.18852614 0.4807637 -0.09559237 0.13811456 -0.15668264 0.046272036 -0.015041001
0.09165775 -0.07779535 0.04183097 -0.48959172 0.32518658 -0.023680145 0.31894937 -0.25001255
-0.014300014 0.0017617471 0.15862226 -0.11865665 -0.31470376 -0.21862699 0.16790678 0.26261187
0.055173844 0.026301306 0.15864845 0.14511916 0.04095931 0.24546976 0.18220483 0.035379924
0.30196986 0.070551425 -0.010526519 -0.18976802 -0.07821956 0.15374196 0.31829542 0.12766604
-0.11588461 -0.15804754 -0.048208613 0.08349232 0.1860027 0.060121775 0.047481135 0.2751949
0.13231756 -0.018213449 0.03443406 -0.054515067 0.06391861 0.19835985 0.13372578 0.044622622
00000000: 0018 57bc 38d8 53be ce57 58be d871 f5bb
00000010: 418e 4cbe 7841 1bbe fd2b 3f3d dff9 bbbd
00000020: 32f9 61bd 9ec4 94bd 4919 1bbd af11 dc3c
00000030: 6f99 36be bdf2 5cbe 5e5f 1ebe b3c7 a4bd
00000040: cb56 8dbd 5787 dbbd d2b3 e7bd 21f0 78bd
00000050: 6375 68bc 899b 483e 0005 e73e 2bc2 863e
00000060: 7c3b dbbc bc25 a9bd 6783 89be 6af6 043e
00000070: e42e 5e3e a269 cf3d 8d28 833e eaf7 d83e
00000080: cef5 883d 4ea3 0a3e 4161 003e ef7d 9abc
00000090: 7e5b 8cbd 0b34 b4be f30e 91be 75d7 72bb
000000a0: 413e dcbc 47e5 473d 498e 6d3d b0e5 853e
000000b0: b129 673e 18bc a33d 4a01 903e 113b 013e
000000c0: a038 b2bc 54a6 88bd 7d37 5fbd f998 f7bd
000000d0: e337 65be 93b3 93be fcab 113d 63b6 8abd
000000e0: f476 e4bd 92d0 9c3d 0cc8 21be bf44 abbe
000000f0: 4b0b 8b3d 7667 3fbd 5cb3 87be d024 aabd
00000100: 4704 c4b9 6808 50b9 da54 c5bd a4df 7e3d
00000110: f2a0 3abd 5685 16be 39d4 773c 2c86 b9bd
00000120: df56 40bd eea0 7e3d 38d6 013e 3add 923d
00000130: cf04 523e 6f86 563e e349 513e 9121 963e
00000140: d206 9e3d 79c9 29be 9b67 6f3e f5c8 55bd
00000150: 424e 083d 4995 fe3d 131b b63c a5bf e73d
00000160: 790a c4be a155 533d ecb0 ca3d 42f6 bb3d
00000170: f2af c73c 2adb 3f3d 5e33 393e 26ff c53d
00000180: 58f0 7a3c 0e3d 153e b40d 383e 7097 e0bd
00000190: 6996 65be 2857 41bc f564 5abe 9582 92be
000001a0: b85e 4d3c 6def a3bd 79b1 8ebd b9ff 543c
000001b0: 2194 91bc 8893 dc3d dca8 203d 1d1d 083e
000001c0: 73ab d3be 4dd3 b3bb fe43 efbd 0176 913e
000001d0: 73ee f1ba 457e 89bd 1d88 d13d 2833 b8bd
000001e0: 5ff1 29be 0f54 ab3e 879c 0abe 892a 603c
000001f0: 16cf 4c3e 5a4f 70be c274 60bd 1ccf 92bd
00000200: c166 0b3d b0e1 1d3e b6ac af3e b098 af3d
00000210: 2889 02be fe9a a9be e947 0bbe 6515 b9bd
00000220: ddb7 83bd 9042 fd3d e3a9 1bbe 5ec4 8dbe
00000230: fb7e 9eba 5d0f 333d 5ff3 95be 75bd fbbc
00000240: 6bca 9bbd 2793 25bd b890 093e c542 f83a
00000250: 898d 373e ba35 3e3e d389 f73d 11f2 243e
00000260: bce9 133e 7007 603e a3a3 063e 0d22 223d
00000270: f3ec 473e d143 093e 7285 023d e758 9d3d
00000280: a662 ff3d 7087 5b3c 3f6a 1abe e8ff 8fbb
00000290: b214 8f3d 6a5f 15be d426 99be c2f6 ccbd
000002a0: 30a1 fb3d b94f c2bd e6e1 b5bd 4f6d 48bd
000002b0: 5fb5 1bbe 5782 96bd 7cd4 aebd 3bb7 96be
000002c0: 3955 d1bd 1993 a63d f97c 81be 66e1 13be
000002d0: bff8 fe3c c9f9 a23d 2152 2f3d 6733 c83d
000002e0: 6cb9 ac3e 431f 013d 7b08 243e aaec 233e
000002f0: 8efe 64be 9154 33be 5213 8abd de13 ff3d
00000300: 09c4 86be 84ce 12be f221 5a3e d3e8 27be
00000310: 69f9 27be be8d 3c3d e81e 593d 17e4 9dbe
00000320: 2d3c 303d ff0c 41be a926 f63e efc5 c3bd
00000330: e76d 0d3e 6a71 20be bf87 3d3d 886e 76bc
00000340: 0fb7 bb3d 2b53 9fbd f456 2b3d c4ab fabe
00000350: db7e a63e ddfc c1bc 554d a33e a501 80be
00000360: 9b4a 6abc 6cea e63a e06d 223e 4202 f3bd
00000370: da20 a1be c1df 5fbe c1ef 2b3e 1075 863e
00000380: f8fd 613d d675 d73c bd74 223e 1e9a 143e
00000390: f3c4 273d 6d5c 7b3e e793 3a3e 8aea 103d
000003a0: cb9b 9a3e 447d 903d 6c77 2cbc 8c52 42be
000003b0: 9431 a0bd 886e 1d3e 9ef7 a23e e3ba 023e
000003c0: e954 edbd 37d7 21be 6576 45bd 05fe aa3d
000003d0: 7e77 3e3e 4042 763d 947b 423d 59e6 8c3e
000003e0: 417e 073e 5f34 95bc bb0a 0d3d 314b 5fbd
000003f0: c3e7 823d d81e 4b3e 69ef 083e 36c6 363d

backbone.2.conv.1.1.weight f4 [48]
0.515419 0.34114727 0.3738826 0.21231833 0.37165952 0.3671574 0.15167525 0.18213958
0.19120568 0.2590803 0.19861533 0.4857944 0.30876917 0.25168782 0.38206452 0.27852327
0.2770215 0.29932535 0.53960943 0.5803702 0.21347703 0.25297 0.28350395 0.26369008
0.35011068 0.2145045 0.3694146 0.20685586 0.2284747 0.19888607 0.5731197 0.24486375
0.30379787 0.20954558 0.2067427 0.34813362 0.21770798 0.39491087 0.32671446 0.35577607
0.4080358 0.25184554 0.41907617 0.35084683 0.3403554 0.15052827 0.3650955 0.3233695
00000000: 80f2 033f dbaa ae3e 8a6d bf3e fa69 593e
00000010: 284a be3e 0efc bb3e c250 1b3e cc82 3a3e
00000020: 6ccb 433e 2ca6 843e d161 4b3e 0bba f83e
00000030: fe16 9e3e 3add 803e f69d c33e 9a9a 8e3e
00000040: c3d5 8d3e 2c41 993e d823 0a3f 2493 143f
00000050: b999 5a3e 4985 813e 6e27 913e 6302 873e
00000060: b541 b33e 11a7 5b3e e923 bd3e 06d2 533e
00000070: 46f5 693e caa8 4b3e f9b7 123f 90bd 7a3e
00000080: 658b 9b3e 1e93 563e 5cb4 533e 923e b23e
00000090: d7ee 5e3e c231 ca3e 1e47 a73e 4828 b63e
000000a0: 12ea d03e e6f1 803e 2791 d63e 32a2 b33e
000000b0: 1043 ae3e 1524 1a3e cced ba3e b090 a53e

backbone.2.conv.1.1.bias f4 [48]
-0.032391537 -0.09426561 0.012339801 0.7220469 0.008464931 0.022851603 0.6196128 -0.24235728
0.08097194 -0.07288679 0.044565614 0.22140662 -0.007692731 -0.038527593 -0.011384169 0.018683653
0.10244428 -0.098784976 0.10499422 -0.021017453 0.41727442 -0.060012627 -0.006453687 -0.007172909
-0.0077360054 0.058512975 -0.010026681 0.09774181 0.27751893 -0.034916837 -0.07981619 -0.00074066134
0.00672295 0.67676026 0.62123924 -0.037861057 0.5945938 0.3598626 -0.0039835805 0.24030216
0.24770279 0.013353959 -0.0032426077 -0.0234387 -0.08045502 0.16262016 0.08839861 -0.08691016
00000000: fdac 04bd 540e c1bd e02c 4a3c 11d8 383f
00000010: 7eb0 0a3c 4933 bb3c f29e 1e3f 822c 78be
00000020: 9ed4 a53d ab45 95bd 6f8a 363d 6bb8 623e
00000030: 4e13 fcbb 1ccf 1dbd aa84 3abc 760e 993c
00000040: 4fce d13d c74f cabd 3607 d73d cb2c acbc
00000050: fea4 d53e cdcf 75bd 7379 d3bb b90a ebbb
00000060: 517e fdbb 4dab 6f3d f346 24bc dc2c c83d
00000070: f616 8e3e f504 0fbd ac76 a3bd f128 42ba
00000080: 314c dc3b 2940 2d3f 8909 1f3f 3214 1bbd
00000090: 4d37 183f e93f b83e b288 82bb c511 763e
000000a0: cda5 7d3e 90ca 5a3c ee81 54bb 8402 c0bc
000000b0: 9ac5 a4bd e685 263e 550a b53d f4fd b1bd

backbone.2.conv.1.1.running_mean f4 [48]
-0.110364325 -0.09643785 0.08521823 0.53113467 -0.035153832 -0.08986477 -0.08182877 -0.014590214
0.12288698 -0.0049263495 0.0477841 -0.14411658 0.0010611379 -0.013624629 -0.02091285 -0.06440021
0.017968897 0.15654722 -0.09937108 -0.34285462 0.19067754 -0.09703161 0.0022038843 -0.015775913
-0.0041150204 0.07596994 -0.0017813123 0.0026524563 0.2782745 0.017715745 -0.14023893 0.100998685
0.05880474 -0.12580848 -0.17752099 0.0075606825 -0.105220675 -0.14904673 -0.0034973617 0.18058136
-0.15070233 0.18699197 -0.07412767 0.074252576 0.024896866 0.09116257 -0.24123013 0.057754822
00000000: b106 e2bd 3581 c5bd e586 ae3d 71f8 073f
00000010: 77fd 0fbd 050b b8bd d895 a7bd cb0b 6fbc
00000020: 2bac fb3d 376d a1bb 43b9 433d 4c93 13be
00000030: e115 8b3a d639 5fbc 6d51 abbc 42e4 83bd
00000040: 8233 933c ea4d 203e 1183 cbbd a48a afbe
00000050: f940 433e 82b8 c6bd 0b6f 103b 7d3c 81bc
00000060: 4bd7 86bb 2196 9b3d ec7a e9ba d5d4 2d3b
00000070: ff79 8e3e 9c20 913c cb9a 0fbe 66d8 ce3d
00000080: 3ddd 703d f0d3 00be 10c8 35be 9abf f73b
00000090: f07d d7bd b59f 18be fe33 65bb 52ea 383e
000000a0: b651 1abe d37a 3f3e 3fd0 97bd bc11 983d
000000b0: 83f4 cb3c 71b3 ba3d 0805 77be 5290 6c3d

backbone.2.conv.1.1.running_var f4 [48]
0.027549718 0.015648384 0.0053568054 0.026444105 0.011992198 0.0033646957 0.019322284 0.00021059171
0.04115693 0.0011781196 0.0038465487 0.0399509 0.0010399625 0.003585512 0.010365041 0.013413591
0.0022839634 0.012272227 0.020179726 0.030959925 0.013566306 0.0065229586 0.0032962847 0.0054212394
0.008503448 0.00843916 0.0058714813 0.00017469536 0.0030691887 0.00021977359 0.037864596 0.0025931657
0.005252323 0.029917693 0.030507179 0.010380331 0.011161119 0.051631406 0.0038121846 0.09027947
0.04844706 0.005093224 0.004595255 0.006732115 0.0058753374 0.009608737 0.016950734 0.00043973656
00000000: f2af e13c 0a31 803c 2488 af3b 4fa1 d83c
00000010: ed7a 443c 3a82 5c3b c449 9e3c 48d2 5c39
00000020: 2b94 283d 226b 9a3a 6116 7c3b 8ea3 233d
00000030: 5a4f 883a e9fa 6a3b 22d2 293c aec4 5b3c
00000040: 8cae 153b 7311 493c f44f a53c ab9f fd3c
00000050: 3645 5e3c 8bbe d53b 7b06 583b a7a4 b13b
00000060: 0c52 0b3c 6744 0a3c 8e65 c03b 6e2e 3739
00000070: 7124 493b 0673 6639 e817 1b3d 1af2 293b
00000080: ae1b ac3b f315 f53c 31ea f93c 4412 2a3c
00000090: 20dd 363c 747b 533d d8d5 793b 71e4 b83d
000000a0: 6d70 463d 0fe5 a63b cb93 963b 1399 dc3b
000000b0: e785 c03b f76d 1d3c 44dc 8a3c 718c e639

backbone.2.conv.2.weight f4 [8, 48, 1, 1]
0.12029806 0.2560417 -0.000608115 0.18841086 0.35629207 -0.0761537 0.16682859 -0.15256579
-0.09818539 -0.09267141 0.07593221 0.3532622 0.01739373 -0.06921214 0.116042435 0.27632162
-0.22327606 0.0026518032 0.30870807 0.38538206 -0.06420304 -0.053544644 0.010720184 0.038432747
0.15554124 -0.035945877 0.14838903 -0.18095993 -0.18393058 -0.037638716 -0.08595089 0.00024723366
-0.061849657 0.2886631 0.16192676 -0.09959552 0.20562884 0.27854803 0.06153479 -0.05955574
0.09801164 -0.028427746 0.16333987 -0.13718049 -0.053314175 -0.18858106 0.030697392 -0.028825466
0.04785214 0.23713304 0.25270227 -0.32629442 0.17076017 0.21829113 0.13485514 -0.003437059
-0.026403306 -0.046344586 0.08119041 -0.14847286 -0.052796636 -0.15155256 0.09419523 0.16741155
-0.10561382 0.07656774 -0.10094303 -0.041731603 -0.09734489 -0.22329903 0.003492283 -0.032359846
0.07604658 -0.07456377 0.1672788 -0.054092195 0.19488725 -0.052220166 0.041725658 -0.19324248
-0.10919693 0.14289834 -0.05961216 -0.11972663 0.43211234 -0.35482058 0.01665691 -0.28423014
-0.14413609 0.11562858 -0.027054472 -0.14977713 -0.1161489 -0.1758372 -0.05390075 -0.19912097
0.13936035 -0.012709315 0.02530943 -0.24986026 0.18141966 -0.25100237 -0.109907635 0.019772327
-0.11891439 0.19029045 -0.039296515 -0.30775705 0.28791863 -0.20961627 -0.102358416 0.016619425
0.15469828 -0.084461056 0.084998906 0.090909496 0.064401895 -0.0017101291 0.24354564 0.24054338
-0.104310654 -0.15096277 -0.16459163 0.17071615 0.15856333 0.23236309 0.04092166 0.032541983
-0.2753254 0.23301016 0.17500812 -0.17331538 -0.1456211 0.21303485 0.23162828 -0.16554295
-0.018163742 -0.18436389 0.0049628466 -0.12316726 -0.33844867 0.1829163 -0.37882683 0.23350188
0.04321718 0.24763687 0.08769461 0.32043543 -0.12741625 0.12659529 -0.046879105 0.036225
-0.15661371 -0.0046035415 0.22987244 -0.20068023 0.040936984 0.04281232 0.18250832 0.06356093
0.004026416 0.036592424 0.012947549 -0.25926942 -0.11833522 0.06218565 0.081419334 0.076720625
0.16356602 -0.0812625 0.14033604 0.073961265 -0.17586426 -0.000112286834 0.3381173 0.14308661
-0.05477452 -0.08690901 0.25274923 -0.0066256966 0.09438232 0.22026986 0.06958198 -0.093979515
-0.165721 0.3117238 0.3574232 0.015543348 -0.028579216 -0.077041544 -0.35779595 0.107313566
-0.034838576 -0.14072533 0.18053614 0.071350634 0.16908506 -0.019515002 -0.24483891 0.03949526
-0.0022788881 -0.07143785 0.18932886 0.22481124 0.1865403 0.02542863 0.2952923 -0.11940413
-0.0819009 -0.28661373 0.005181217 -0.2070487 -0.17546953 0.061259788 0.06699886 0.10594878
0.27622038 0.11067765 0.28848267 -0.16568768 -0.057263274 -0.10621079 -0.17890005 -0.13183796
0.15569761 -0.15191506 0.11974873 0.18236816 -0.056911968 -0.08454091 0.24519344 -0.087205276
-0.17695512 0.061361235 0.004809081 0.14892924 0.07820506 0.15092836 -0.10969999 -0.26448715
0.048396885 0.047467653 0.25223067 0.07121924 0.26183796 0.13957371 0.23098321 -0.04985744
-0.22316867 0.18019067 0.0013136761 -0.3785311 0.2963642 0.06812025 0.18062514 -0.09080697
00000000: d45e f63d e617 833e e869 1fba c7ee 403e
00000010: ea6b b63e 79f6 9bbd 1dd5 2a3e 353a 1cbe
00000020: 6c15 c9bd 82ca bdbd 5982 9b3d c8de b43e
00000030: 4c7d 8e3c 18bf 8dbd a8a7 ed3d 077a 8d3e
00000040: 7ba2 64be e0c9 2d3b fc0e 9e3e cc50 c53e
00000050: e27c 83bd a151 5bbd b6a3 2f3c a86b 1d3d
00000060: 3446 1f3e fc3b 13bd 4bf3 173e 8f4d 39be
00000070: 4c58 3cbe 0e2b 1abd 0507 b0bd 249f 8139
00000080: 1156 7dbd a6cb 933e 21d0 253e bcf8 cbbd
00000090: 5e90 523e d99d 8e3e e70b 7c3d b8f0 73bd
000000a0: 54ba c83d 4ee1 e8bc 9142 273e 0b79 0cbe
000000b0: f75f 5abd 651b 41be 1979 fb3c 6223 ecbc
000000c0: 9b00 443d 01d3 723e 3162 813e 1010 a7be
000000d0: c1db 2e3e b687 5f3e 7717 0a3e 4840 61bb
000000e0: bf4b d8bc d2d3 3dbd 2847 a63d 4509 18be
000000f0: 4941 58bd 9830 1bbe 6ee9 c03d ef6d 2b3e
00000100: 0f4c d8bd 8ccf 9c3d 38bb cebd c2ee 2abd
00000110: c25c c7bd 80a8 64be c9de 643b c28b 04bd
00000120: 4fbe 9b3d e4b4 98bd 224b 2b3e c78f 5dbd
00000130: 8690 473e d0e4 55bd 86e8 2a3d 5be1 45be
00000140: a4a2 dfbd f153 123e e12b 74bd 3c33 f5bd
00000150: d43d dd3e 0bab b5be 1274 883c 9d86 91be
00000160: 6998 13be adce ec3d 57a1 ddbc 2d5f 19be
00000170: 79df edbd ab0e 34be 08c7 5cbd 5ee6 4bbe
00000180: 7bb4 0e3e bb3a 50bc b955 cf3c 5edb 7fbe
00000190: 13c6 393e 6283 80be 4117 e1bd 93f9 a13c
000001a0: 6389 f3bd 80db 423e 62f5 20bd 5592 9dbe
000001b0: 126a 933e a6a5 56be 4aa1 d1bd 7625 883c
000001c0: 3a69 1e3e ebf9 acbd e813 ae3d c22e ba3d
000001d0: 24e5 833d 6926 e0ba 0764 793e 0151 763e
000001e0: d3a0 d5bd fc95 1abe b58a 28be 37d0 2e3e
000001f0: 6d5e 223e 97f0 6d3e 789d 273d be4a 053d
00000200: 73f7 8cbe 379a 6e3e 5435 333e 9679 31be
00000210: b31d 15be cf25 5a3e f72f 6d3e 1784 29be
00000220: 21cc 94bc e3c9 3cbe 609f a23b 1e3f fcbd
00000230: 2549 adbe 694e 3b3e 97f5 c1be 1e1b 6f3e
00000240: 7f04 313d 8594 7d3e 3b99 b33d 1d10 a43e
00000250: 6879 02be 32a2 013e 4e04 40bd aa60 143d
00000260: 585f 20be 4ed9 96bb ae63 6b3e 1e7f 4dbe
00000270: 8aad 273d f95b 2f3d 76e3 3a3e 3c2c 823d
00000280: 07f0 833b f0e1 153d f521 543c f6be 84be
00000290: bc59 f2bd 61b6 7e3d 2ebf a63d b41f 9d3d
000002a0: da7d 273e f46c a6bd 40b4 0f3e 0179 973d
000002b0: c315 34be 897b ebb8 b61d ad3e 4c85 123e
000002c0: 3f5b 60bd 5afd b1bd 5968 813e 5f1c d9bb
000002d0: 854b c13d 6c8e 613e ff80 8e3d 5578 c0bd
000002e0: c4b2 29be 439a 9f3e 2c00 b73e 87a9 7e3c
000002f0: f61e eabc f5c7 9dbd 0831 b7be 37c7 db3d
00000300: e5b2 0ebd 4d1a 10be 77de 383e 4820 923d
00000310: a224 2d3e eddd 9fbc 0db7 7abe c8c5 213d
00000320: 6659 15bb 024e 92bd 6ddf 413e eb34 663e
00000330: 6c04 3f3e b44f d03c 8d30 973e 278a f4bd
00000340: a9bb a7bd 09bf 92be 33c7 a93b 9304 54be
00000350: 49ae 33be 8beb 7a3d b336 893d adfb d83d
00000360: c26c 8d3e f7aa e23d 00b4 933e 08aa 29be
00000370: e58c 6abd 0b85 d9bd 9331 37be 8800 07be
00000380: 326f 1f3e 9f8f 1bbe d23e f53d b8be 3a3e
00000390: 861c 69bd c923 adbd fd13 7b3e ae98 b2bd
000003a0: b933 35be eb55 7b3d 7f95 9d3b e880 183e
000003b0: f929 a03d f78c 1a3e 63aa e0bd dc6a 87be
000003c0: d03b 463d 716d 423d 6124 813e 65db 913d
000003d0: a00f 863e 69ec 0e3e dd86 6c3e 5137 4cbd
000003e0: 5486 64be e783 383e a82f ac3a d4ce c1be
000003f0: 0cbd 973e a182 8b3d ccf5 383e 01f9 b9bd

backbone.2.conv.3.weight f4 [8]
0.5579426 0.45240438 0.43210864 0.43645528 0.42002895 0.5695476 0.43404305 0.6457216
00000000: 54d5 0e3f 8ca1 e73e 583d dd3e 1177 df3e
00000010: 090e d73e dfcd 113f e43a de3e 034e 253f

backbone.2.conv.3.bias f4 [8]
-0.00022395026 -6.639246e-05 6.358801e-06 -4.840017e-05 -2.7557006e-05 1.4070514e-05 -3.6630667e-05 -7.2426716e-05
00000000: 31d4 6ab9 2e3c 8bb8 af5d d536 4901 4bb8
00000010: 382a e7b7 6610 6c37 e1a3 19b8 cce3 97b8

backbone.2.conv.3.running_mean f4 [8]
1.0232016 -0.15025483 -0.059630733 0.34794718 -0.19247304 0.45404458 -0.07323389 0.13821802
00000000: 45f8 823f 67dc 19be 5b3f 74bd 2226 b23e
00000010: a717 45be 8878 e83e a6fb 95bd 0689 0d3e

backbone.2.conv.3.running_var f4 [8]
0.124304324 0.08125858 0.11012529 0.048514858 0.060863554 0.13499242 0.059623428 0.1517104
00000000: 4493 fe3d e66a a63d 5e89 e13d 84b7 463d
00000010: 104c 793d 743b 0a3e b237 743d f959 1b3e
