ML Model/tv_detection_epoch_150/e-109-0.666.pth (torch, 508597 bytes, 205 tensors)

backbone.0.0.weight f4 [16, 3, 3, 3]
0	0x8001f295	-1.78858e-40
1	0x80011374	-9.8814e-41
2	0x80026550	-2.20015e-40
3	0x80007b40	-4.4214e-41
4	0x80009bf9	-5.5952e-41
5	0x0001fed0	1.83245e-40
6	0x0001fd9a	1.8281e-40
7	0x8001deb8	-1.71732e-40
8	0x0000c16e	6.939e-41
9	0x8001f386	-1.79195e-40
10	0x00013055	1.09174e-40
11	0x0001affc	1.54967e-40
12	0x0000a50f	5.9212e-41
13	0x0001ea56	1.759e-40
14	0x80015f2c	-1.25977e-40
15	0x8001c7f6	-1.63568e-40
16	0x0001f271	1.78807e-40
17	0x80023675	-2.03206e-40
18	0x80020fcf	-1.89342e-40
19	0x8002245f	-1.96718e-40
20	0x0001c370	1.61945e-40
21	0x80009bff	-5.5961e-41
22	0x00015565	1.22469e-40
23	0x0000c53d	7.0756e-41
24	0x0001be06	1.60003e-40
25	0x80016096	-1.26484e-40
26	0x000081ae	4.652e-41
27	0x3c89da20	0.016827643
28	0x3c8ed5eb	0.017435988
29	0xbd9858c6	-0.07438807
30	0x3e1655be	0.14681146
31	0x3ead6350	0.33864832
32	0xbb22a00b	-0.0024814631
33	0xbe04c1d8	-0.1296457
34	0xbe42793f	-0.18991564
35	0x3bb636c5	0.0055607283
36	0xbd56d8b6	-0.052452765
37	0xbc1be889	-0.00951589
38	0xbe3451b6	-0.17609295
39	0x3e98cba6	0.2984287
40	0x3f333573	0.7000343
41	0x3d6c106a	0.05763284
42	0xbea292b9	-0.31752566
43	0xbf0a3e55	-0.5400136
44	0xbdcc9f03	-0.099912666
45	0x3e2bb27d	0.16767307
46	0x3e2b2239	0.16712274
47	0x3d317735	0.043326575
48	0x3e4b4ed7	0.19854294
49	0x3e9bae11	0.3040624
50	0x3da08f94	0.07839885
51	0xbe13ed6e	-0.14446041
52	0xbe49cbef	-0.197067
53	0xbdb06101	-0.08612252
54	0xbda51421	-0.0806048
55	0x3e0b1d86	0.13585481
56	0x3d602f97	0.054732885
57	0xbec611c5	-0.38685432
58	0x3f442246	0.766148
59	0xbe3cdb4b	-0.18443029
60	0xbf22ab75	-0.6354287
61	0x3f6a1e28	0.91452265
62	0xbe701039	-0.23443688
63	0xbe07cbb6	-0.13261303
64	0x3e29eb42	0.1659365
65	0xbd1f5648	-0.038900644
66	0xbf516959	-0.8180137
67	0x3fa6bf3b	1.3027109
68	0xbee7c4c7	-0.45267317
69	0xbf82ed1e	-1.0228612
70	0x3fb50603	1.414246
71	0xbeecf8cd	-0.4628357
72	0xbd6b3e98	-0.05743274
73	0xbbe2405d	-0.0069046454
74	0x3d816c0f	0.06319439
75	0xbe75152d	-0.23933859
76	0x3ed33e2b	0.41258368
77	0xbdb275ab	-0.0871385
78	0xbe964d38	-0.29355788
79	0x3ee2f9bf	0.44331166
80	0xbe12f6ba	-0.14351931
81	0xbd360602	-0.044439323
82	0xbbf0aa53	-0.007344523
83	0x3d85d929	0.06535561
84	0x3d6c3010	0.057663023
85	0x3e6b470a	0.22976318
86	0xbe998e79	-0.2999151
87	0x3c1a9475	0.009434809
88	0x3e97e5b6	0.29667443
89	0xbea180f5	-0.315437
90	0xbcad7951	-0.021176012
91	0xbd09b862	-0.033623107
92	0x3da2252e	0.07917248
93	0x3d645d69	0.055753145
94	0x3f108e76	0.5646738
95	0xbf137231	-0.5759612
96	0x3d219b0f	0.039454516
97	0x3f20debb	0.6283986
98	0xbf25ceb7	-0.64768547
99	0x3c0ee680	0.008721948
100	0x3c8e9296	0.017403882
101	0xbd9bf72d	-0.076155044
102	0x3e088278	0.1333102
103	0x3e3a2315	0.18177445
104	0xbe54b810	-0.2077334
105	0x3d458018	0.048217863
106	0x3e0cb008	0.13739026
107	0xbe66e8b1	-0.22549702
108	0xbdbe1dac	-0.09283003
109	0xbd8b5d6f	-0.068049304
110	0xbddfe727	-0.10932761
111	0x3c6e51a3	0.014545831
112	0xbc4b6b19	-0.012415671
113	0xbe09c7dc	-0.13455147
114	0x3e055016	0.13018832
115	0x3d00eeb2	0.031477638
116	0xbe48760a	-0.19576278
117	0x3db0f927	0.08641272
118	0x3c866a56	0.016408127
119	0xbd925097	-0.071442775
120	0x3e2ab443	0.16670327
121	0xbdf220df	-0.11822676
122	0xbe99f0c9	-0.30066517
123	0x3e435e09	0.1907884
124	0xbda66018	-0.08123797
125	0xbed75f7f	-0.42065045
126	0x3db0e1f1	0.08636845
127	0xbd965063	-0.07339551
128	0xbe52124b	-0.2051479
129	0x3d5a3d5f	0.053281184
130	0xbe11d02b	-0.14239566
131	0xbe8af421	-0.2713938
132	0xbc1c4d63	-0.009539935
133	0xbdcb9e3a	-0.09942289
134	0xbe6a3d48	-0.2287494
135	0x3e3407e2	0.17581132
136	0x3e3c9ff8	0.18420398
137	0xbe080b35	-0.13285525
138	0x3dc6ffea	0.097167805
139	0x3f1b4016	0.6064466
140	0x3e98a415	0.29812685
141	0xbe571179	-0.21002759
142	0x3f059535	0.52180797
143	0x3f1fbe59	0.6239982
144	0x3e02f213	0.12787656
145	0xbc91af06	-0.017783653
146	0x3dbef1d3	0.09323468
147	0x3d4ef43e	0.050525896
148	0xbe0c18bf	-0.13681315
149	0xbd1e5eed	-0.038664747
150	0x3c67c1ee	0.0141453575
151	0xbe0b6b9c	-0.13615268
152	0xbd57268d	-0.052527
153	0xbe811add	-0.25215808
154	0xbe4251c1	-0.18976499
155	0x3d1aa5c3	0.03775574
156	0xbe3a826b	-0.18213813
157	0xbf074b64	-0.5284941
158	0xbe9116c0	-0.2833767
159	0x3d8afa64	0.067860395
160	0xbef3bf2d	-0.47606793
161	0xbf0f1467	-0.55890507
162	0x3e328e4c	0.17437094
163	0x3dedec00	0.11617279
164	0x3d0238ba	0.03179238
165	0x3f01bee7	0.5068192
166	0x3a8707d3	0.0010302014
167	0xbdc85c01	-0.09783173
168	0x3dd56a7e	0.104207024
169	0xbdbb1288	-0.09134394
170	0x3c193fe7	0.009353614
171	0x3c8a306b	0.01686879
172	0xbcf50f8e	-0.029914644
173	0xbd559f15	-0.052153666
174	0x3f5a9c0c	0.8539436
175	0xbdb227a7	-0.08698969
176	0xbe969e1d	-0.29417506
177	0x3dfaca21	0.12245584
178	0xbe6f4284	-0.23365217
179	0xbd3298a3	-0.043602597
180	0x3dbd60ca	0.09246977
181	0x3d410925	0.04712786
182	0xb9280a7c	-0.00016025634
183	0x3e86c647	0.2632315
184	0x3d846f2a	0.06466515
185	0x3c831611	0.016001733
186	0xbda35b56	-0.07976405
187	0xbde41049	-0.11135919
188	0xbc69cfdf	-0.014270752
189	0x3cf8e92d	0.030384624
190	0x3d0679af	0.03283089
191	0xbd22ae37	-0.039716925
192	0xbc3913fd	-0.0112962695
193	0x3ddbf33a	0.10739751
194	0x3e976be3	0.295745
195	0xbb6dbf58	-0.003627738
196	0x3dbc9d9a	0.092097476
197	0x3eb3186f	0.3497958
198	0xbdb02b2e	-0.08601986
199	0xbe2e18b6	-0.17001614
200	0xbe441ed4	-0.19152385
201	0xbd61c853	-0.055122685
202	0x3d98617e	0.0744047
203	0x3e9bf523	0.30460462
204	0xbc093990	-0.00837554
205	0x3e04945c	0.1294722
206	0x3ea9e0ab	0.3317922
207	0xbd329f0f	-0.04360872
208	0x389dd7a2	7.526508e-05
209	0x3ca86b87	0.020559086
210	0x3d2f8540	0.042851686
211	0x3e420d71	0.1895044
212	0x3eb91d10	0.36154985
213	0x3dc5c84b	0.096573435
214	0x3e49be97	0.1970161
215	0x3ea1fa11	0.31636098
216	0x3d45c9ca	0.048288144
217	0x3d3ebd1f	0.04656708
218	0xbe1a3ddd	-0.15062661
219	0xbe3e96c4	-0.186122
220	0x3f26a721	0.6509877
221	0xbf08bc51	-0.5341235
222	0x3c468a70	0.012117967
223	0x3f36e266	0.71439207
224	0xbf2a10b5	-0.6643174
225	0xbd190576	-0.037358724
226	0x3e2e0e24	0.16997582
227	0xbe5b79c3	-0.21433167
228	0xbe136b24	-0.1439634
229	0x3f84c490	1.0372486
230	0xbf6ac483	-0.91706103
231	0xbc05a7bc	-0.008157667
232	0x3f824ee3	1.0180324
233	0xbf73b166	-0.95192564
234	0x3daa7ab4	0.08324185
235	0x3d2723ff	0.040805813
236	0xb97ce05c	-0.00024116173
237	0xbdc5b6ab	-0.09653982
238	0x3ed3b194	0.4134642
239	0xbeafa8ff	-0.3430862
240	0x3c5ba3a7	0.013405717
241	0x3ed81767	0.42205355
242	0xbec26094	-0.37964308
243	0x8001b41d	-1.56448e-40
244	0x00023e2c	2.05974e-40
245	0x00025117	2.1276e-40
246	0x000260d6	2.18409e-40
247	0x800148b1	-1.17912e-40
248	0x0000256e	1.3427e-41
249	0x0001850f	1.39568e-40
250	0x8001cfcf	-1.66383e-40
251	0x8001ca52	-1.64414e-40
252	0x800162a2	-1.27218e-40
253	0x8001a5d2	-1.5132e-40
254	0x0001e750	1.74815e-40
255	0x00004877	2.5995e-41

backbone.0.1.weight f4 [16]
0	0x00000d43	4.757e-42
1	0x3dcc484c	0.09974727
2	0x3de4eec3	0.11178353
3	0x3e94b383	0.29043207
4	0x3e48d2e3	0.19611697
5	0x3e610753	0.2197545
6	0x3dec407a	0.115357354
7	0x3e99f8e2	0.30072695
8	0x3dc19bb8	0.09453529
9	0x800241ed	-2.07321e-40
10	0x3ed7e11e	0.42163938
11	0x3e1af51d	0.15132566
12	0x3e9e16c9	0.3087676
13	0x3eae3edf	0.34032342
14	0x0001d1b2	1.6706e-40
15	0x3db59995	0.08867184

backbone.0.1.bias f4 [16]
0	0x8000c9cb	-7.239e-41
1	0x3f19c4e4	0.60066056
2	0x3ed0e6ee	0.40801185
3	0x3e6cd872	0.23129442
4	0x3f59febf	0.85154337
5	0x3f0ff58a	0.5623404
6	0x3ef0ead8	0.47054172
7	0x3eff3be2	0.49850374
8	0x3f0a1152	0.5393268
9	0x0001438e	1.1607e-40
10	0xbe896590	-0.268353
11	0x3f606998	0.87661123
12	0x3eaeaefc	0.34117877
13	0xbe9bb6a4	-0.3041278
14	0x0001084b	9.481e-41
15	0x3e05b222	0.13056234

backbone.0.1.running_mean f4 [16]
0	0x00315f02	4.534022e-39
1	0x425f9d7b	55.90379
2	0x4232a7f8	44.664032
3	0x4111b864	9.107517
4	0xc344096a	-196.03677
5	0xc2850040	-66.50049
6	0x42f8fc5b	124.49288
7	0x4377006d	247.00166
8	0x40c4b3ac	6.1469326
9	0x00c4cce3	1.8073257e-38
10	0xc1d9d702	-27.229984
11	0x434221d3	194.13213
12	0x41bbf985	23.496836
13	0x429de472	78.94618
14	0x802bb135	-4.012496e-39
15	0xc20e4bca	-35.574013

backbone.0.1.running_var f4 [16]
0	0x00000004	6e-45
1	0x45306b6b	2822.7136
2	0x461c935c	10020.84
3	0x44f3d52b	1950.6615
4	0x46805898	16428.297
5	0x46284aa6	10770.662
6	0x460fff20	9215.781
7	0x46c899b2	25676.848
8	0x45be3a24	6087.2676
9	0x00000004	6e-45
10	0x4544a8ef	3146.5583
11	0x46782cd5	15883.208
12	0x4534d917	2893.568
13	0x457fbc67	4091.7751
14	0x00000004	6e-45
15	0x4506b061	2155.0237

backbone.1.conv.0.0.weight f4 [16, 1, 3, 3]
0	0x000084b8	4.761e-41
1	0x8001e3e3	-1.73586e-40
2	0x0001ab78	1.53347e-40
3	0x0001a478	1.50836e-40
4	0x8001dbf0	-1.70734e-40
5	0x8001d560	-1.6838e-40
6	0x80024d33	-2.11365e-40
7	0x0001416a	1.15302e-40
8	0x00020d3f	1.88423e-40
9	0xbceafa07	-0.028683675
10	0xbcdd0e02	-0.026984219
11	0x3ce3090d	0.027714277
12	0x3ca7a48b	0.020464202
13	0xbd5da794	-0.054114893
14	0x3f37ff12	0.7187358
15	0xbc661a72	-0.014044391
16	0x3d00b4cf	0.031422433
17	0xbf59428a	-0.84867156
18	0x3b82ce78	0.003991898
19	0xbd4e224c	-0.050325677
20	0xbe065a13	-0.13120298
21	0xbccb52a2	-0.024819676
22	0x3d28b5c8	0.041188985
23	0x3f85a01b	1.0439485
24	0x3aa1fa01	0.0012357832
25	0xbdac7960	-0.08421588
26	0xbdbe4d4a	-0.092920855
27	0xbd8f2408	-0.06989294
28	0xbd497f8f	-0.049193915
29	0xbd938c44	-0.07204488
30	0x3b952d76	0.0045525385
31	0x3f4d32c2	0.80155575
32	0xbe908c6a	-0.28232127
33	0xbbb7777e	-0.0055989614
34	0xbd1b9c6a	-0.037990965
35	0xbe4e13c1	-0.20124723
36	0x3f1199b2	0.56875145
37	0x3ff6d05e	1.9282339
38	0x3eec86fe	0.4619674
39	0x3e5bc1e6	0.21460685
40	0x3ee2a385	0.4426538
41	0x3e51420c	0.20435351
42	0xbf585352	-0.84502137
43	0xc006eb3f	-2.1081083
44	0xbf3812b2	-0.71903527
45	0xbe632dd7	-0.22185455
46	0x3b868de7	0.0041062715
47	0xbe58c3c7	-0.21168433
48	0x3e013134	0.12616426
49	0x3ec112cb	0.3770965
50	0xbfd162ff	-1.6358336
51	0x3da4f1bc	0.0805392
52	0x3fa90b1e	1.3206518
53	0x3ecac511	0.39603475
54	0xbd7de4cd	-0.06198578
55	0x3da6c8f8	0.081438005
56	0xbd55f12e	-0.05223196
57	0xbafeea27	-0.0019448445
58	0x3d36e975	0.044656236
59	0xbf458426	-0.7715477
60	0x3c7ac79e	0.0153063815
61	0x3d8e2b7f	0.0694189
62	0x3f82e0fc	1.022491
63	0xbef4b53c	-0.4779452
64	0xbe8ce128	-0.2751553
65	0x3f3b307e	0.7312087
66	0xc016f3d1	-2.3586314
67	0xbeb8f6d7	-0.36125824
68	0x40267bdd	2.60131
69	0xbedb15f7	-0.42790195
70	0xbe0fdf4e	-0.14050028
71	0x3f29a9de	0.6627482
72	0xbd177973	-0.036981057
73	0x3cb8c19c	0.022553258
74	0xbdb30a73	-0.087422274
75	0x3d3f672d	0.046729255
76	0xbf6cb5cb	-0.92464894
77	0x3e0c9a17	0.13730656
78	0x3d9608d8	0.073259056
79	0x3c77cd42	0.015124621
80	0xbdc6060a	-0.096691206
81	0x800241ac	-2.0723e-40
82	0x8000c0b7	-6.9133e-41
83	0x0000dc2c	7.8983e-41
84	0x00016ae5	1.30182e-40
85	0x0001516f	1.21048e-40
86	0x80004b42	-2.6997e-41
87	0x00019280	1.4439e-40
88	0x00018243	1.38565e-40
89	0x0001cfaa	1.66331e-40
90	0xbc92d7a8	-0.017925099
91	0xbe1b82cd	-0.15186615
92	0xbec1ef42	-0.37877852
93	0xbe407b62	-0.18797067
94	0x3e0c27d1	0.13687064
95	0x3ec4feb6	0.3847558
96	0xbea9b303	-0.33144388
97	0x3ead1e7e	0.33812326
98	0x3ef9b944	0.4877416
99	0x3e40a59f	0.1881318
100	0x3fc77329	1.5582019
101	0x3f79f1bb	0.97634476
102	0x3ddd0c89	0.107934065
103	0x3d2b0be1	0.041759375
104	0xbdf6fcc7	-0.12059932
105	0xbe907e78	-0.28221488
106	0xbfd0cb7b	-1.6312097
107	0xbf79231d	-0.97319204
108	0xbbd496f5	-0.006487722
109	0x3cd15f09	0.025558012
110	0xbccbdaa8	-0.024884537
111	0x3c674a5d	0.014116851
112	0xbc90ae44	-0.017661221
113	0xbf3e9fc2	-0.7446252
114	0xbcd60fc3	-0.026130563
115	0xbbe3a1f9	-0.006946799
116	0x3f3b497b	0.73159
117	0xbcd3c843	-0.025852328
118	0x3d8896ff	0.06669425
119	0xbe369a2a	-0.17832246
120	0x3d49b4f4	0.049244836
121	0x3decd63e	0.11564301
122	0xbdad3327	-0.08457022
123	0xbe34fce9	-0.17674603
124	0xbd81c3a6	-0.06336145
125	0x3f19ab3f	0.60026926
126	0x80007f99	-4.5773e-41
127	0x000044b9	2.4653e-41
128	0x00023940	2.04208e-40
129	0x00024a5b	2.10345e-40
130	0x000099fd	5.524e-41
131	0x00009192	5.2221e-41
132	0x0001ae03	1.54259e-40
133	0x00013b4d	1.13109e-40
134	0x80015428	-1.22025e-40
135	0x3e07708e	0.1322653
136	0x3cae5315	0.021279851
137	0x3ca71104	0.020393856
138	0x3e0e4c75	0.13896354
139	0xbd564762	-0.05231417
140	0xbe37084b	-0.17874257
141	0x3dceb590	0.10093224
142	0xbe45054e	-0.19240305
143	0xbe733a4a	-0.23752704

backbone.1.conv.0.1.weight f4 [16]
0	0x8001cd6a	-1.65524e-40
1	0x3f02b8b2	0.5106307
2	0x3f0ebd51	0.55757624
3	0x3f170ef0	0.5900717
4	0x3f90c06c	1.1308722
5	0x3ef205d4	0.47270072
6	0x3f0c1f20	0.54734993
7	0x3f519258	0.8186393
8	0x3ecf1963	0.40449056
9	0x000104be	9.3537e-41
10	0x3e52b017	0.20574985
11	0x3f7d5510	0.9895792
12	0x3f5efeaa	0.87107337
13	0x3e7644e4	0.24049717
14	0x000250c6	2.12647e-40
15	0x3ead3c42	0.33835036

backbone.1.conv.0.1.bias f4 [16]
0	0x00a65f3c	1.5278856e-38
1	0x3f2169dd	0.6305216
2	0x3fabb160	1.3413506
3	0x3e87ac9e	0.26498884
4	0x3e4b3ada	0.19846669
5	0x3f40b94c	0.7528274
6	0x3f0e463f	0.5557594
7	0x3f021897	0.5081877
8	0x3ee6930b	0.4503406
9	0x80ba68b0	-1.7118957e-38
10	0x3f0b0e16	0.5431837
11	0x3d8dc85c	0.06922981
12	0x3f2f4692	0.68467057
13	0xbe9ff594	-0.3124205
14	0x000389de	3.24964e-40
15	0x3eb94ed2	0.36192948

backbone.1.conv.0.1.running_mean f4 [16]
0	0x00000004	6e-45
1	0xbdcbaf8e	-0.09945594
2	0x3e8f7b89	0.28023937
3	0x3cc86554	0.02446238
4	0x3e0a8539	0.13527383
5	0x3e0ee895	0.1395591
6	0x3e21702e	0.1576545
7	0xbce4a337	-0.027909858
8	0xbeeb08e9	-0.45905235
9	0x80000004	-6e-45
10	0x3c678e3e	0.014133034
11	0xbdeef51a	-0.11667843
12	0xbcefe4e4	-0.029283948
13	0x3c665508	0.014058359
14	0x80000004	-6e-45
15	0xbd098b9a	-0.0335804

backbone.1.conv.0.1.running_var f4 [16]
0	0x00000004	6e-45
1	0x3c148963	0.009065959
2	0x3c070218	0.008240245
3	0x3d1730db	0.036911827
4	0x3e649537	0.22322546
5	0x3d44a15f	0.048005458
6	0x3bcfd2de	0.006342276
7	0x3ecfd737	0.40593883
8	0x3bea63cc	0.00715301
9	0x00000004	6e-45
10	0x3c06e22f	0.008232637
11	0x3e14655d	0.14491792
12	0x3d707bc9	0.0587118
13	0x3b00721a	0.001959926
14	0x00000004	6e-45
15	0x3a412e19	0.0007369235

backbone.1.conv.1.weight f4 [8, 16, 1, 1]
0	0x80145bff	-1.869712e-39
1	0xbe5cd496	-0.2156547
2	0xbd2f63bd	-0.042819727
3	0x3e43623b	0.1908044
4	0xbd2a9321	-0.04164422
5	0x3f273994	0.6532223
6	0x3e829282	0.25502402
7	0xbddac551	-0.10682166
8	0xbd7bbe5c	-0.061460838
9	0x000c7a3d	1.145877e-39
10	0xb969bf4c	-0.00022291875
11	0x3e830f2d	0.25597516
12	0x3df24439	0.11829419
13	0x3c1ca1c2	0.00956005
14	0x001f0059	2.847025e-39
15	0xbe5cb104	-0.21551901
16	0x80052ccc	-4.75248e-40
17	0xbd9e79e3	-0.07738092
18	0xbf0444fe	-0.51667774
19	0x3bc87882	0.0061178813
20	0x3e833994	0.25629866
21	0xbda3be0f	-0.07995235
22	0x3c268c71	0.01016532
23	0x3c9fc73a	0.019504178
24	0x3dc59841	0.09648181
25	0x0006d2e1	6.26662e-40
26	0xbd938267	-0.07202607
27	0x3de165a3	0.11005714
28	0xbe3c6f9e	-0.18401954
29	0xbd30a19d	-0.043122876
30	0x00089925	7.89622e-40
31	0xbe9b9025	-0.3038341
32	0x00007bb1	4.4372e-41
33	0x3ed64666	0.41850585
34	0x3e0758aa	0.13217416
35	0x3ed9759e	0.42472547
36	0xbe3f03bb	-0.18653767
37	0xbe2dc351	-0.16969039
38	0xbe96687e	-0.29376596
39	0x3db426f7	0.087964945
40	0xbe546a7b	-0.20743744
41	0x80025774	-2.15043e-40
42	0xbe54d7a0	-0.2078538
43	0x3ec225b6	0.37919396
44	0x3ccd56c1	0.025065782
45	0xbdc0ddc1	-0.09417296
46	0x00200d58	2.943523e-39
47	0xbeb41c46	-0.3517782
48	0x800226f5	-1.97646e-40
49	0xbe306a17	-0.1722797
50	0xbdf5da76	-0.12004559
51	0xbdb1fe0d	-0.086910345
52	0x3eedb2d8	0.4642551
53	0xbe9060de	-0.28198904
54	0x3e05174c	0.12997168
55	0xbd7786bf	-0.06043124
56	0xbe2cd427	-0.16877805
57	0x0005053d	4.61057e-40
58	0x3de2b4dc	0.110696524
59	0xbecac99a	-0.39606935
60	0x3ee56e36	0.44810647
61	0x3e8c47b1	0.27398446
62	0x0005cac9	5.31923e-40
63	0xbebf537f	-0.3736839
64	0x00025974	2.15761e-40
65	0xbea91202	-0.3302155
66	0x3e6e886c	0.23294228
67	0x3c9c91a1	0.01911241
68	0x3e0a6619	0.1351551
69	0xbf2fb328	-0.68632746
70	0x3e360961	0.17777015
71	0xbe5efcad	-0.21776076
72	0xbd93a810	-0.0720979
73	0x800200ce	-1.8396e-40
74	0x3e943317	0.28945228
75	0xbd0e95d0	-0.03481084
76	0xbe7488ba	-0.23880282
77	0x3df1fef2	0.11816205
78	0x0026d681	3.566698e-39
79	0x3c231ff0	0.009956345
80	0x800177cd	-1.34812e-40
81	0xbde4dca6	-0.11174898
82	0x3d45af2a	0.048262753
83	0xbf120fe4	-0.570555
84	0xbe9738f0	-0.29535627
85	0xbe19dfbc	-0.15026754
86	0x3e1508fb	0.14554207
87	0x3f1437cb	0.57897633
88	0x3eddd24e	0.43324512
89	0x0004dbdd	4.46214e-40
90	0x3de1b972	0.11021699
91	0x3ed2ee53	0.41197452
92	0x3dc9749a	0.09836693
93	0x3d386103	0.045014393
94	0x802888fb	-3.722559e-39
95	0xbe61237a	-0.2198619
96	0x0017c189	2.181644e-39
97	0x3ea210de	0.31653494
98	0xbd488f5f	-0.048964854
99	0xbed647e3	-0.4185172
100	0xbecb0796	-0.39654225
101	0x3d86f833	0.06590309
102	0xbac1b7b2	-0.0014779477
103	0xbf51ce50	-0.8195543
104	0x3d9cb3fc	0.07651517
105	0x000726ef	6.56815e-40
106	0xbd32cd51	-0.043652836
107	0x3e7a2be9	0.24430813
108	0xbd824aee	-0.06361948
109	0x3ea3d202	0.3199616
110	0x0010a2a4	1.527712e-39
111	0xbe629c19	-0.22129859
112	0x8001425a	-1.15638e-40
113	0x3dc1df07	0.09466367
114	0x3e7d986e	0.24765179
115	0xbd445f31	-0.047942344
116	0x3f026709	0.5093847
117	0x3f10d5ca	0.56576216
118	0xbe0a9aa7	-0.13535558
119	0x3e1e0726	0.15432414
120	0xbd816530	-0.06318128
121	0x8005fccb	-5.49863e-40
122	0x3da9ddd8	0.082942665
123	0xbee6cfc8	-0.450804
124	0xbe6c52d2	-0.23078468
125	0x3db0a20c	0.08624658
126	0x80011d60	-1.02373e-40
127	0xbe7e42b5	-0.24830134

backbone.1.conv.2.weight f4 [8]
0	0x3f04943e	0.517887
1	0x3ef4d955	0.4782206
2	0x3f2ffcbf	0.68745035
3	0x3f065b20	0.52482796
4	0x3f050c5c	0.51971984
5	0x3f1a6b58	0.60320044
6	0x3f140634	0.57821965
7	0x3f039685	0.5140155

backbone.1.conv.2.bias f4 [8]
0	0xb8f40f16	-0.000116376366
1	0x37d5bf9e	2.5480807e-05
2	0xb94c148e	-0.00019462613
3	0xb8aec2f7	-8.3332816e-05
4	0xb8908642	-6.8914625e-05
5	0xb987bcae	-0.00025889784
6	0xb70f9189	-8.557349e-06
7	0x39536d39	0.00020163217

backbone.1.conv.2.running_mean f4 [8]
0	0x3ef81a9f	0.4845781
1	0xbf6c11de	-0.92214763
2	0x3d17921b	0.03700457
3	0xbe5800c9	-0.2109405
4	0xbeee3d3c	-0.46531093
5	0x3ebff802	0.37493902
6	0xbf291b7f	-0.6605758
7	0x3f29a17a	0.6626202

backbone.1.conv.2.running_var f4 [8]
0	0x3df3106b	0.11868366
1	0x3df4224e	0.119206056
2	0x3e86071b	0.26177296
3	0x3e9cf6b6	0.30656976
4	0x3e4ab308	0.19794858
5	0x3eb284dc	0.3486699
6	0x3ebbc021	0.3667002
7	0x3e42d1d7	0.1902536

backbone.2.conv.0.0.weight f4 [48, 8, 1, 1]
0	0x3dfb1c38	0.12261242
1	0xbd938f62	-0.072050825
2	0x3e198aa6	0.14994296
3	0xbeb117fc	-0.3458861
4	0xbe16ad41	-0.14714529
5	0x3d8fe513	0.07026114
6	0x3e6dab18	0.23209798
7	0x3d196833	0.037452888
8	0x3e08d24a	0.13361469
9	0x3da10845	0.078629054
10	0x3db72339	0.08942265
11	0x3caa6743	0.020801192
12	0xbd44ba40	-0.048029184
13	0xbebf776f	-0.37395808
14	0xbe267b0e	-0.16257879
15	0xbe269f7a	-0.16271773
16	0xbe270fba	-0.16314593
17	0x3d88b704	0.066755325
18	0xbe29de53	-0.16588716
19	0x3e1ad2c4	0.15119463
20	0xbc3f9d0a	-0.011695156
21	0xbdef5825	-0.11686734
22	0xbe5cb504	-0.21553427
23	0x3e483ea9	0.19555153
24	0xbe41d434	-0.18928605
25	0x3e2b2d0d	0.16716404
26	0x3e20d52c	0.15706319
27	0xbee4bcbf	-0.44675252
28	0x3cb19ca5	0.02168114
29	0xbdcbfb90	-0.09960091
30	0xbe663a56	-0.22483191
31	0xbf076863	-0.52893656
32	0x3d126ea3	0.035750043
33	0xbdef3ed5	-0.11681906
34	0x3ddd8d56	0.10817973
35	0xbe848727	-0.25884363
36	0xbd795bfc	-0.06087874
37	0x3ddd8e40	0.10818148
38	0x3d795d76	0.060880147
39	0xbe92933d	-0.2862796
40	0x3dbba873	0.091629885
41	0x3d394d35	0.045239646
42	0x3e655fa7	0.2239977
43	0xbdced195	-0.10098568
44	0xbd8a23f7	-0.06745141
45	0x3a2813fa	0.0006411668
46	0x3e85fcfd	0.26169577
47	0xbdbc0812	-0.09181227
48	0x3ce9db43	0.028546935
49	0x3e410bd0	0.18852162
50	0x3e4cc8b0	0.19998431
51	0x3e22d3f5	0.15901168
52	0xbdc91056	-0.09817569
53	0xbe9c16cf	-0.30486152
54	0xbdab2d53	-0.08358254
55	0xbd3e917c	-0.046525463
56	0x3c8bdd14	0.017073192
57	0x3df4f2b3	0.11960354
58	0x3d4c9849	0.049949918
59	0xbc0729a0	-0.00824967
60	0x3d9b7324	0.07590321
61	0x3c9ced2b	0.01915606
62	0xbd8e52a8	-0.06949359
63	0x3e006cc4	0.12541491
64	0xbc96b0aa	-0.018394787
65	0x3d824f4f	0.06362783
66	0x3f034778	0.5128093
67	0x3c404ac3	0.011736575
68	0xbdd028f0	-0.10164058
69	0x3b8634a8	0.0040956326
70	0x3b0c4d8c	0.0021408526
71	0x3c046102	0.008079769
72	0xbd85540a	-0.0651017
73	0x3eab2139	0.33423784
74	0xbdb32878	-0.08747953
75	0x3e0b8cdb	0.13627951
76	0xbded3d49	-0.11583955
77	0x3ddccd80	0.107813835
78	0x3d95b5ca	0.07310064
79	0xbd104256	-0.035219513
80	0xbe2e7fea	-0.17040983
81	0xbdc416c7	-0.09574657
82	0x3d8d727e	0.06906603
83	0xbec6bb31	-0.3881469
84	0x3e008fe9	0.12554897
85	0x3d9da33d	0.07697151
86	0x3c9d849d	0.019228274
87	0xbd223ab7	-0.039606776
88	0xbdb0309e	-0.08603023
89	0x3db999f6	0.09062569
90	0xbe975f0a	-0.29564697
91	0x3e882a7d	0.26594916
92	0x3d97ec49	0.07418115
93	0xbe260aad	-0.1621501
94	0xbe0c1eb1	-0.13683583
95	0x3e4fcaa9	0.20292152
96	0x3df1727d	0.11789415
97	0x3dcc12db	0.09964534
98	0xbe3ce2eb	-0.18445937
99	0x3e185533	0.14876251
100	0x3da73fdd	0.08166478
101	0x3e1414f4	0.14461118
102	0xbcf1d957	-0.029522581
103	0xbd6e4838	-0.058174342
104	0x3ea16aa0	0.3152666
105	0xbe08680a	-0.13320938
106	0xbd1d4365	-0.03839435
107	0xbca35a4b	-0.019940516
108	0xbe7308e9	-0.23733868
109	0xbd4475b7	-0.047963824
110	0x3ddc5350	0.10758078
111	0x3e589f4a	0.21154514
112	0x3da9d1f5	0.08291999
113	0xbe4c194e	-0.19931528
114	0x3bfd4b29	0.007729907
115	0x3ec4f1d8	0.38465762
116	0xbcb28ef8	-0.021796688
117	0x3e18547a	0.14875975
118	0xbdd67d57	-0.104731254
119	0xbeb0f085	-0.34558502
120	0x3de01c94	0.10942951
121	0x3e762d49	0.24040712
122	0x3e4275f3	0.18990307
123	0x3e308f1e	0.17242095
124	0xbe9a4d14	-0.3013693
125	0xbe307b32	-0.17234495
126	0x3cb75e72	0.022383902
127	0xbd137e04	-0.03600885
128	0x3e9c901d	0.305787
129	0x3e55934a	0.20856968
130	0x3e1850df	0.148746
131	0x3e5d2912	0.21597698
132	0x3e03e8fa	0.12881842
133	0x3dcde4d2	0.1005341
134	0x3e29582e	0.16537544
135	0x3da1ab7f	0.078940384
136	0x3cc2156b	0.023691854
137	0x3d74452d	0.059636284
138	0x3e0c87e4	0.13723713
139	0xbdbe2736	-0.09284823
140	0xbe5f21f6	-0.21790299
141	0x3e507e32	0.2036064
142	0xbcb4ca4b	-0.022069117
143	0x3d691fc3	0.056915056
144	0xbe6a5b9e	-0.22886512
145	0x3d674f6b	0.056472223
146	0xbe51f862	-0.20504907
147	0x3e219520	0.15779543
148	0xbe2458b4	-0.16049463
149	0xbddbda99	-0.107350536
150	0xbe4ea871	-0.20181443
151	0x3e94a496	0.2903182
152	0xbd8facd3	-0.070153855
153	0x3ddd7d98	0.10814971
154	0xbe6fbc94	-0.2341178
155	0x3eb4c501	0.35306552
156	0x3db1da23	0.086841844
157	0xbe5ad60b	-0.21370713
158	0xbe251fda	-0.16125432
159	0x3ee8b682	0.45451742
160	0x3db76dd4	0.08956495
161	0x3e3f9856	0.18710455
162	0x3e652cea	0.22380415
163	0x3e77319c	0.24140018
164	0x3cddfcc6	0.02709807
165	0x3de50815	0.11183182
166	0x3e17ee50	0.14837003
167	0x3de15169	0.11001856
168	0x3d3f949d	0.046772588
169	0xbdaee3ff	-0.085395806
170	0x3db18889	0.0866862
171	0xbec94033	-0.39306793
172	0x3e174064	0.14770657
173	0xbd3619a0	-0.04445803
174	0xbeab0380	-0.33401108
175	0xbc95b699	-0.018275546
176	0x3d955257	0.07291096
177	0x3e0180f0	0.12646842
178	0x3c549a9d	0.012976316
179	0x3d8dde10	0.06927121
180	0xbe74d77d	-0.23910327
181	0xbd9fdbd4	-0.07805601
182	0xbd0a1128	-0.033707768
183	0xbdd40c91	-0.10353959
184	0x3e8cee3c	0.27525508
185	0xbd417427	-0.047229912
186	0x3daafdb1	0.08349169
187	0x3df15cc7	0.11785274
188	0x3cc32dcd	0.02382555
189	0xbd116f59	-0.03550658
190	0xbe101a43	-0.14072518
191	0xbba1f66a	-0.004942705
192	0xbe2a462e	-0.16628334
193	0xbe18144e	-0.14851496
194	0x3da3a7f4	0.07991019
195	0x3e40e882	0.18838695
196	0xbe4d9b37	-0.20078741
197	0xbd851cb0	-0.06499612
198	0x3d873a0a	0.06602867
199	0xbd563e48	-0.05230549
200	0xbd7eb9b4	-0.06218882
201	0xbee6fd1b	-0.4511498
202	0x3e601dcb	0.21886365
203	0xbd46388c	-0.04839377
204	0x3dd69aec	0.10478768
205	0xbdd68f3e	-0.1047654
206	0xbb4f9e52	-0.003168006
207	0x3e8ac0de	0.2710027
208	0xbe4e77c3	-0.20162873
209	0xbcda04e8	-0.026613668
210	0x3e61abf4	0.22038251
211	0x3c3f2fe7	0.011669136
212	0xbe476081	-0.19470407
213	0xbba7a2c1	-0.0051158373
214	0x3e31b1c1	0.17352964
215	0x3e05d9a7	0.13071309
216	0xbe5e2f66	-0.21697769
217	0xbaf80f35	-0.001892543
218	0xbda191a7	-0.07889109
219	0x3e8ebb78	0.27877402
220	0x3dffc07f	0.124878876
221	0x3dabd4de	0.083902106
222	0x3eb09bb5	0.34493795
223	0x3dda54d2	0.106607094
224	0x3eae3c17	0.3403022
225	0xbd462937	-0.04837915
226	0xbe766599	-0.24062194
227	0xbd1a9d6b	-0.03774778
228	0xbca646e9	-0.020297484
229	0xbe797027	-0.24359189
230	0x3c478abc	0.012179073
231	0x3e51172b	0.20418994
232	0x3d5b2947	0.053506162
233	0x3c39548a	0.01131166
234	0x3e49e461	0.19716026
235	0x3e4f239a	0.20228425
236	0x3e03616e	0.12830135
237	0x3da66494	0.081246525
238	0xbd7e8b0e	-0.06214433
239	0x3d887630	0.066631675
240	0xbe7589b7	-0.23978315
241	0xbd7c70e0	-0.061631083
242	0xbe8eec66	-0.27914733
243	0xbd9fa284	-0.07794669
244	0xbe44617e	-0.19177815
245	0x3efa28b4	0.4885918
246	0x3d89bbdb	0.06725284
247	0x3e3c3256	0.18378577
248	0x3e1f0dfb	0.15532677
249	0xbcb1aba6	-0.021688294
250	0x3d3b5a4a	0.045740403
251	0xbe30bf37	-0.17260443
252	0xbe87c9a5	-0.2652103
253	0x3dbce1a5	0.09222726
254	0x3c0e1dfd	0.008674142
255	0x3e870ff7	0.26379368

backbone.2.conv.0.1.weight f4 [48]
0	0x3ee5a30f	0.44850966
1	0x3eb20928	0.3477261
2	0x3df991d7	0.1218602
3	0x3e31f580	0.17378807
4	0x3e1cc271	0.15308549
5	0x3d9f9ef6	0.07793991
6	0x3e998e43	0.2999135
7	0x3d643da4	0.055722848
8	0x3ebed5b2	0.37272412
9	0x3dde2396	0.10846631
10	0x3e6f3f3a	0.23363963
11	0x3ecd9e29	0.4015973
12	0x3da493e3	0.0803602
13	0x3e0eb654	0.1393674
14	0x3e10814f	0.14111827
15	0x3ebf72ac	0.37392175
16	0x3e263df8	0.16234577
17	0x3e489695	0.19588692
18	0x3ec21147	0.37903807
19	0x3e8680f2	0.26270252
20	0x3e73ee1b	0.23821299
21	0x3e0f8577	0.14015757
22	0x3e2675a0	0.16255808
23	0x3e1dcd5f	0.15410374
24	0x3e171d9d	0.1475739
25	0x3e36df55	0.17858632
26	0x3e221698	0.15828931
27	0x3e8487f1	0.25884965
28	0x3da06af6	0.07832901
29	0x3d60f06d	0.054916788
30	0x3ee8010f	0.45313308
31	0x3dc55d3a	0.09636922
32	0x3e85bdb9	0.2612131
33	0x3eb6a8b6	0.3567559
34	0x3ea0fffa	0.31445295
35	0x3e667bbd	0.2250814
36	0x3eb5888f	0.35455748
37	0x3ecf9be9	0.40548638
38	0x3e3ac699	0.18239821
39	0x3ecc9e13	0.3996435
40	0x3eec208a	0.46118575
41	0x3e19dcd3	0.15025644
42	0x3de2c87f	0.11073398
43	0x3e4f5935	0.20248874
44	0x3e53afd4	0.20672542
45	0x3e8b69c4	0.2722913
46	0x3ea8841c	0.3291329
47	0x3d6f1b14	0.058375433

backbone.2.conv.0.1.bias f4 [48]
0	0xbcd0ed1a	-0.025503684
1	0x3ceaf5e8	0.02868171
2	0x3e79c074	0.24389821
3	0x3ebe1c2d	0.3713087
4	0x3e8ba3bd	0.2727336
5	0x3e969773	0.29412422
6	0x3c08c17c	0.0083469115
7	0x3d0e233a	0.034701563
8	0xbd3499e8	-0.04409209
9	0x3e2ca048	0.16858017
10	0xbd0b54b1	-0.034016315
11	0x3d61877d	0.055060852
12	0x3e5331b1	0.20624425
13	0x3e3279ef	0.17429326
14	0x3e5166c8	0.20449364
15	0xbd81a1a9	-0.06329662
16	0xbdde84b9	-0.108651586
17	0x3e1ea308	0.15491879
18	0x3d497e1c	0.049192533
19	0x3e9c313e	0.3050632
20	0x3e892d71	0.26792482
21	0x3e233050	0.15936399
22	0x3e1b22f1	0.15150048
23	0x3e529d07	0.20567714
24	0x3e24dcc4	0.1609984
25	0x3ca22173	0.01979134
26	0x3e09ad2b	0.13444965
27	0xbeb0dac0	-0.34541893
28	0x3e8fa26a	0.280536
29	0x3e7c5f6f	0.2464578
30	0xbccec7fd	-0.025241846
31	0x3e4eef4c	0.20208472
32	0x3d34253d	0.043980826
33	0x3cc77e6f	0.02435228
34	0x3dad45af	0.08460557
35	0x3e2492f9	0.1607169
36	0xbd0dd94c	-0.03463106
37	0x3cf30f1f	0.029670296
38	0x3e2e2d13	0.17009382
39	0x3d489066	0.048965834
40	0x3c8127f9	0.01576613
41	0x3e2d61a5	0.1693178
42	0x3e96615c	0.29371154
43	0x3e0e7f38	0.13915718
44	0x3e082d82	0.1329861
45	0xbd71fec3	-0.05908085
46	0x3e4a6e15	0.19768555
47	0x3e7ad846	0.24496564

backbone.2.conv.0.1.running_mean f4 [48]
0	0x3589055a	1.0208853e-06
1	0x385c9d25	5.259844e-05
2	0x3899d3dd	7.335071e-05
3	0xb86ce90c	-5.6483826e-05
4	0xb887e69c	-6.480256e-05
5	0xb85c3331	-5.2499763e-05
6	0x3794b9b6	1.7729453e-05
7	0x379ca1af	1.8671939e-05
8	0xb88d4bea	-6.737544e-05
9	0xb84258e9	-4.633601e-05
10	0xb7000f3e	-7.632943e-06
11	0x38b42389	8.589688e-05
12	0xb7c44626	-2.3397686e-05
13	0x38a32e85	7.7811106e-05
14	0xb8f4f162	-0.00011679788
15	0xb6fcdcde	-7.5358976e-06
16	0xb8366179	-4.348296e-05
17	0xb80628f4	-3.198623e-05
18	0x38beb191	9.09298e-05
19	0x3909c10c	0.00013137254
20	0xb8864c80	-6.403867e-05
21	0x3887f887	6.4835935e-05
22	0xb6548bd4	-3.1671852e-06
23	0x378a8eb2	1.651733e-05
24	0xb81e77db	-3.778176e-05
25	0x385e7cec	5.3045267e-05
26	0xb7f3ae87	-2.9049128e-05
27	0xb8814b34	-6.165207e-05
28	0x391b4c3f	0.00014810356
29	0xb82f2cb0	-4.176487e-05
30	0xb81c8676	-3.7318525e-05
31	0x3879c501	5.95497e-05
32	0xb86c9f45	-5.6415116e-05
33	0x383d7d7d	4.517798e-05
34	0x36f11d29	7.1857544e-06
35	0xb85dfd76	-5.292656e-05
36	0x360b0745	2.0716845e-06
37	0x38fe037a	0.000121123114
38	0xb799d0be	-1.8336224e-05
39	0xb7b74ca8	-2.1850996e-05
40	0xb85a6d30	-5.207694e-05
41	0x3807850a	3.231041e-05
42	0xb7092b87	-8.175971e-06
43	0xb89223d3	-6.968495e-05
44	0xb7e885dc	-2.7718888e-05
45	0xb50cb26a	-5.241369e-07
46	0xb6fc3639	-7.5164976e-06
47	0xb908a0e8	-0.00013029913

backbone.2.conv.0.1.running_var f4 [48]
0	0x3e096f21	0.13421299
1	0x3d99fd24	0.07518986
2	0x3dcc0830	0.09962499
3	0x3e1b5c77	0.15171991
4	0x3dccf6fa	0.100080445
5	0x3dc6e406	0.09711461
6	0x3daaa291	0.08331788
7	0x3c5590df	0.013035028
8	0x3e0a7e89	0.13524832
9	0x3d12acf7	0.035809483
10	0x3d9a0c16	0.075218365
11	0x3e2fc49f	0.17164849
12	0x3d1da06f	0.03848308
13	0x3d9f29ad	0.07771621
14	0x3d8ba8fe	0.06819342
15	0x3dbf358e	0.093363866
16	0x3d4a05c0	0.04932189
17	0x3d7003c5	0.058597345
18	0x3dff2258	0.124577224
19	0x3e8a99f7	0.2707059
20	0x3d0cb6a2	0.03435386
21	0x3d6f7310	0.05845934
22	0x3cdf1074	0.027229525
23	0x3cee0cec	0.029058896
24	0x3cb0e7e4	0.021594949
25	0x3d86e4df	0.065866224
26	0x3d35d5a0	0.04439318
27	0x3d808c35	0.06276742
28	0x3dd347a4	0.10316399
29	0x3caf7037	0.021415813
30	0x3e42ed71	0.19035889
31	0x3d9e95e3	0.077434324
32	0x3d7f96f5	0.062399823
33	0x3dc9154f	0.098185174
34	0x3dfe8a9a	0.1242878
35	0x3da536d2	0.08067097
36	0x3e294ab5	0.16532405
37	0x3e218623	0.15773825
38	0x3d3100d5	0.043213684
39	0x3e1a642e	0.15077278
40	0x3d158519	0.036503885
41	0x3e0a59e7	0.13510858
42	0x3d6bee50	0.05760032
43	0x3dc1fb7c	0.09471795
44	0x3da64348	0.08118302
45	0x3e0ae255	0.13562901
46	0x3e0f07cf	0.13967822
47	0x3db984c3	0.090585254

backbone.2.conv.1.0.weight f4 [48, 1, 3, 3]
0	0xbc23d071	-0.009998427
1	0xbe51b753	-0.20480089
2	0xbe53f07c	-0.20697206
3	0xbbfe7f7d	-0.0077666626
4	0xbe50c486	-0.20387468
5	0xbe1cfc41	-0.15330602
6	0x3d3a85c2	0.045537718
7	0xbdbe6925	-0.092973985
8	0xbd68c460	-0.056827903
9	0xbd96a5c5	-0.07355837
10	0xbd1db41d	-0.038501848
11	0x3cc4346c	0.023950778
12	0xbe3a7f2a	-0.18212572
13	0xbe59d693	-0.2127326
14	0xbe217872	-0.15768602
15	0xbda43c19	-0.08019275
16	0xbd84989a	-0.06474419
17	0xbddaba7d	-0.10680101
18	0xbde7f2cd	-0.113256074
19	0xbd824f5c	-0.06362793
20	0xbc88f4b3	-0.016718244
21	0x3e4a0534	0.19728547
22	0x3ee53d00	0.44773102
23	0x3e85bf9d	0.26122752
24	0xbcd1a9fd	-0.025593752
25	0xbdabb063	-0.083832525
26	0xbe8abb67	-0.27096102
27	0x3e0074dc	0.12544578
28	0x3e5c3c4b	0.21507375
29	0x3dcecef1	0.10098065
30	0x3e81ba92	0.25337654
31	0x3edc6c51	0.4305139
32	0x3d8cf817	0.06883257
33	0x3e067a6f	0.13132642
34	0x3e011d47	0.12608825
35	0xbc8f7a0c	-0.017514251
36	0xbd8bb062	-0.06820752
37	0xbeb4069f	-0.35161301
38	0xbe8ff54c	-0.28116834
39	0xbbba28dc	-0.0056811403
40	0xbcec6ec9	-0.02886142
41	0x3d3fbdc6	0.04681184
42	0x3d6f0dbc	0.058362707
43	0x3e865cd7	0.26242706
44	0x3e68b699	0.22725905
45	0x3da6baa1	0.081410654
46	0x3e90c315	0.28273836
47	0x3e026f2b	0.1273772
48	0xbca3a1ab	-0.01997455
49	0xbd86e047	-0.06585746
50	0xbd63057e	-0.05542516
51	0xbdf62610	-0.120189786
52	0xbe63c916	-0.22244677
53	0xbe92adc0	-0.28648186
54	0x3d12b420	0.03581631
55	0xbd87ca7a	-0.06630416
56	0xbde42308	-0.11139494
57	0x3d9cffc0	0.07665968
58	0xbe22ffa9	-0.15917839
59	0xbeaa8e21	-0.3331156
60	0x3d8aab8d	0.06771002
61	0xbd436b88	-0.04770997
62	0xbe87e346	-0.26540583
63	0xbda68558	-0.08130902
64	0xbb6141b7	-0.0034371444
65	0xb996a2c6	-0.00028731505
66	0xbdc199dc	-0.094531745
67	0x3d73bf83	0.05950881
68	0xbd3973af	-0.04527634
69	0xbe18c851	-0.14920165
70	0x3c51ed65	0.012812947
71	0xbdbc22d6	-0.09186332
72	0xbd29d06a	-0.041458525
73	0x3d7cf999	0.061761472
74	0x3e036d4e	0.12834665
75	0x3d95bfcd	0.07311974
76	0x3e4d4f07	0.20049678
77	0x3e54da36	0.20786366
78	0x3e558327	0.20850812
79	0x3e965798	0.29363704
80	0x3da37654	0.07981554
81	0xbe29475c	-0.16531128
82	0x3e72043d	0.2363443
83	0xbd4d7fdb	-0.05017076
84	0x3d192b06	0.037394546
85	0x3e01905b	0.12652723
86	0x3cbf57c0	0.023357272
87	0x3defd025	0.11709622
88	0xbec176c4	-0.37785923
89	0x3d5905a8	0.05298391
90	0x3dc96860	0.09834361
91	0x3dbb06b2	0.091321364
92	0x3ce1889d	0.027530963
93	0x3d4749e1	0.04865444
94	0x3e3714a1	0.17878963
95	0x3dcc9154	0.09988657
96	0x3c78a33e	0.015175639
97	0x3e1294c1	0.14314558
98	0x3e398b34	0.18119508
99	0xbddd61d2	-0.10809673
100	0xbe62b1e7	-0.22138177
101	0xbc0aaa3c	-0.008463439
102	0xbe5eeade	-0.21769282
103	0xbe92101d	-0.28527918
104	0x3c66a366	0.014077043
105	0xbda48c5a	-0.080345824
106	0xbd906fda	-0.07052584
107	0x3c4cf2ea	0.012509087
108	0xbc9ba1df	-0.018998085
109	0x3dd55fb3	0.10418644
110	0x3d0fd8d6	0.0351189
111	0x3e0592d2	0.13044289
112	0xbed6519d	-0.4185914
113	0xbbc80f01	-0.006105304
114	0xbdede366	-0.116156384
115	0x3e8fe6be	0.2810573
116	0xbb98603f	-0.0046501453
117	0xbd86bb13	-0.0657865
118	0x3dd5174f	0.104048364
119	0xbdb58096	-0.088624164
120	0xbe280c81	-0.1641102
121	0x3eabe245	0.33571067
122	0xbe0a85e4	-0.13527638
123	0x3c7e743c	0.015530642
124	0x3e4ec27d	0.20191379
125	0xbe6e4de7	-0.23271905
126	0xbd56730a	-0.052355804
127	0xbd909449	-0.07059533
128	0x3d0e184d	0.034691144
129	0x3e21ea19	0.15811957
130	0x3eafccbe	0.34335893
131	0x3daff5b4	0.08591786
132	0xbdfe4924	-0.12416294
133	0xbea943a4	-0.33059418
134	0xbe0b4bf0	-0.13603187
135	0xbdbbc5ef	-0.09168612
136	0xbd83f4ce	-0.06443177
137	0x3df971aa	0.12179883
138	0xbe1bc64b	-0.15212362
139	0xbe8eacc3	-0.27866182
140	0xbacd737e	-0.0015674678
141	0x3d331b59	0.043727253
142	0xbe962363	-0.29323873
143	0xbd00e1ec	-0.031465456
144	0xbd9ac00a	-0.0755616
145	0xbd1fabce	-0.038982205
146	0x3e09ae83	0.13445477
147	0xb94b44a4	-0.00019385159
148	0x3e363a24	0.17795616
149	0x3e3e2218	0.18567693
150	0x3df63590	0.12021935
151	0x3e255046	0.16143903
152	0x3e165568	0.14681017
153	0x3e5d0582	0.21584132
154	0x3e056bdd	0.13029428
155	0x3d18b8a4	0.037285462
156	0x3e47bcff	0.1950569
157	0x3e0a6e23	0.13518576
158	0x3d052d9b	0.032514196
159	0x3da0dfc8	0.07855183
160	0x3e034a0a	0.12821212
161	0x3c85aa20	0.016316473
162	0xbe1a8b5c	-0.15092224
163	0xb9b3a506	-0.00034264493
164	0x3d93ffe9	0.07226545
165	0xbe156248	-0.14588273
166	0xbe97604a	-0.2956565
167	0xbdcd9398	-0.10037917
168	0x3df80851	0.12110961
169	0xbdc4e5f9	-0.09614176
170	0xbdbc3242	-0.091892734
171	0xbd50926c	-0.05092089
172	0xbe1bb998	-0.15207517
173	0xbd945492	-0.07242693
174	0xbdaf6971	-0.08565033
175	0xbe9526a8	-0.29131055
176	0xbdce86f5	-0.10084335
177	0x3da636f1	0.08115948
178	0xbe8219fb	-0.25410447
179	0xbe15a1e3	-0.14612536
180	0x3d0482c4	0.03235127
181	0x3da2e61b	0.079540454
182	0x3d292ce0	0.04130256
183	0x3dcd1043	0.10012867
184	0x3eabdfea	0.3356927
185	0x3d03016b	0.031983774
186	0x3e24f1a2	0.161078
187	0x3e229af1	0.15879418
188	0xbe655285	-0.2239476
189	0xbe324b1f	-0.17411469
190	0xbd891df2	-0.06695165
191	0x3e017378	0.12641704
192	0xbe870061	-0.26367477
193	0xbe114f11	-0.14190318
194	0x3e59dcc5	0.21275623
195	0xbe27231a	-0.16321984
196	0xbe27b28f	-0.16376708
197	0x3d3fe640	0.046850443
198	0x3d62cd90	0.05537182
199	0xbe9d7e16	-0.30760258
200	0x3d3f2dda	0.046674587
201	0xbe3f8b34	-0.18705446
202	0x3ef636fa	0.4808882
203	0xbdbe76d4	-0.093000084
204	0x3e0fa788	0.14028752
205	0xbe1eede7	-0.1552044
206	0x3d4d75dd	0.05016123
207	0xbc7e5dd9	-0.015525305
208	0x3db3ccd9	0.08779306
209	0xbda80a0a	-0.0820504
210	0x3d24cb36	0.04023286
211	0xbefba6eb	-0.49150786
212	0x3ea3cab4	0.31990588
213	0xbccd82b0	-0.02508673
214	0x3ea372da	0.31923562
215	0xbe81bf9d	-0.25341502
216	0xbc48df6d	-0.0122603
217	0x3b1d14d1	0.0023968706
218	0x3e242f3b	0.16033642
219	0xbdf05ec3	-0.11736824
220	0xbea0e934	-0.3142792
221	0xbe60acc5	-0.21940906
222	0x3e2943f1	0.16529824
223	0x3e868ddd	0.26280108
224	0x3d6fb76a	0.058524527
225	0x3ccb8578	0.024843916
226	0x3e238e32	0.15972212
227	0x3e14fe5d	0.14550157
228	0x3d2589b8	0.040414542
229	0x3e7dba30	0.24778056
230	0x3e370c59	0.17875804
231	0x3d17ab01	0.037028316
232	0x3e9b1468	0.30289006
233	0x3d8a05fd	0.067394234
234	0xbc35f60f	-0.011106028
235	0xbe429fd5	-0.19006284
236	0xbda10c49	-0.07863671
237	0x3e1d5498	0.15364301
238	0x3ea2a07e	0.3176307
239	0x3e00df8f	0.12585281
240	0xbdf0b817	-0.11753862
241	0xbe22b618	-0.15889776
242	0xbd4639a9	-0.048394833
243	0x3da73cc2	0.081658855
244	0x3e40ec77	0.18840204
245	0x3d7cbc69	0.06170312
246	0x3d425694	0.04744585
247	0x3e8c0e62	0.27354723
248	0x3e0887b1	0.13333012
249	0xbc959c36	-0.018262964
250	0x3d15cc9a	0.036572076
251	0xbd53eb9b	-0.051738363
252	0x3d78dd42	0.060757883
253	0x3e472640	0.19448185
254	0x3e08f611	0.13375117
255	0x3d35453e	0.044255488

backbone.2.conv.1.1.weight f4 [48]
0	0x3f0474ce	0.5174073
1	0x3eaf427e	0.34230417
2	0x3ebf67b8	0.3738382
3	0x3e58140b	0.21101396
4	0x3ebdab26	0.37044638
5	0x3ebc29d8	0.36750674
6	0x3e1aa697	0.15102611
7	0x3e37d976	0.17954049
8	0x3e431dfa	0.19054404
9	0x3e844962	0.25837237
10	0x3e4a4e9f	0.19756554
11	0x3ef90579	0.48636988
12	0x3e9e8e47	0.30967924
13	0x3e82f9e1	0.25581267
14	0x3ec35f42	0.38158613
15	0x3e8e0711	0.27739766
16	0x3e8dfe85	0.27733245
17	0x3e99e020	0.30053806
18	0x3f099461	0.53742033
19	0x3f145489	0.5794149
20	0x3e5c9293	0.21540289
21	0x3e825788	0.25457406
22	0x3e9105cc	0.28324735
23	0x3e855627	0.26042292
24	0x3eb2be12	0.34910637
25	0x3e5ada69	0.2137238
26	0x3ebc6508	0.3679583
27	0x3e570c66	0.21000823
28	0x3e6add6e	0.22936031
29	0x3e497abb	0.19675724
30	0x3f134871	0.5753241
31	0x3e7d58d4	0.24740916
32	0x3e9c228e	0.30495113
33	0x3e5766aa	0.21035257
34	0x3e54514e	0.2073414
35	0x3eb2b2ec	0.34902132
36	0x3e5b13d7	0.21394287
37	0x3ecae994	0.3963133
38	0x3ea618d1	0.32440808
39	0x3eb7df70	0.35912657
40	0x3ecf6677	0.40507862
41	0x3e7e8727	0.24856244
42	0x3ed73463	0.42032155
43	0x3eb286e5	0.3486854
44	0x3ead602a	0.3386243
45	0x3e18988a	0.14901939
46	0x3ebbb3de	0.36660665
47	0x3ea55a0e	0.3229527

backbone.2.conv.1.1.bias f4 [48]
0	0xbcebad03	-0.028769022
1	0xbdbf8d23	-0.093530916
2	0x3c304255	0.010758002
3	0x3f37e34a	0.7183119
4	0x3c0530c8	0.008129306
5	0x3ca2863d	0.0198394
6	0x3f1e4b64	0.61833787
7	0xbe7a621b	-0.24451487
8	0x3da56766	0.08076362
9	0xbd984fe3	-0.07437112
10	0x3d36b474	0.044605687
11	0x3e655424	0.22395378
12	0xbbdefc61	-0.0068049883
13	0xbd0bb3d3	-0.03410704
14	0xbc3d2f97	-0.011546991
15	0x3c97377c	0.018459074
16	0x3dce56a9	0.10075123
17	0xbdc9a105	-0.09845165
18	0x3dd197c4	0.10234025
19	0xbca9a1e9	-0.020707088
20	0x3ed60b9d	0.41805735
21	0xbd6f744d	-0.058460522
22	0xbbd4264d	-0.0064742924
23	0xbc0fcaec	-0.008776408
24	0xbbde824c	-0.006790435
25	0x3d735961	0.05941141
26	0xbc286e9c	-0.010280278
27	0x3dc7c9e1	0.09755302
28	0x3e8e10b3	0.27747115
29	0xbd1e8371	-0.03869957
30	0xbda1a469	-0.07892687
31	0xba32b2f1	-0.00068168255
32	0x3c1514b7	0.009099177
33	0x3f2dfafa	0.67961085
34	0x3f1ecf4f	0.6203508
35	0xbd166096	-0.036713205
36	0x3f1887a4	0.5958197
37	0x3eb7475e	0.35796636
38	0xbbd86b66	-0.0066045998
39	0x3e765956	0.24057516
40	0x3e7c5f5e	0.24645755
41	0x3c48dad7	0.012259207
42	0xbb7e57e2	-0.0038809706
43	0xbcc5838a	-0.024110574
44	0xbda56461	-0.080757864
45	0x3e244e07	0.1604539
46	0x3db2efe3	0.08737161
47	0xbdb4d50d	-0.08829699

backbone.2.conv.1.1.running_mean f4 [48]
0	0xbde1bc61	-0.110222585
1	0xbdc6c82a	-0.09706147
2	0x3da88912	0.08229269
3	0x3f07b0d4	0.53004193
4	0xbd126794	-0.03574331
5	0xbdafef3f	-0.085905544
6	0xbda6f662	-0.081524625
7	0xbc696305	-0.0142447995
8	0x3dfe9940	0.12431574
9	0xbad2f10b	-0.0016093565
10	0x3d4925f9	0.04910848
11	0xbe13b981	-0.14426233
12	0xbb6dbf3f	-0.0036277322
13	0xbc3c6470	-0.011498556
14	0xbc98b272	-0.018639777
15	0xbd8333e8	-0.06406385
16	0x3c940a7e	0.01807141
17	0x3e1fef8f	0.15618728
18	0xbdc9c542	-0.09852077
19	0xbeaf9d36	-0.3429963
20	0x3e423633	0.18965988
21	0xbdc3acae	-0.095544204
22	0x3ba1f56e	0.0049425876
23	0xbca99bce	-0.020704176
24	0xbb443a44	-0.0029941956
25	0x3d99b8a2	0.07505919
26	0xbb3f4545	-0.0029185575
27	0x3b488c8b	0.0030601348
28	0x3e8e9454	0.2784754
29	0x3c41e4f2	0.01183437
30	0xbe0f1320	-0.1397214
31	0x3dd150dc	0.10220501
32	0x3d764a42	0.06012941
33	0xbe004226	-0.12525234
34	0xbe3485d5	-0.17629178
35	0x3bff549e	0.0077920696
36	0xbdd3db43	-0.10344555
37	0xbe17fca2	-0.14842466
38	0xbb822ffb	-0.003973005
39	0x3e3a74ae	0.18208572
40	0xbe199299	-0.14997329
41	0x3e401413	0.18757658
42	0xbd9a4d4e	-0.07534276
43	0x3d95b10c	0.0730916
44	0x3cbcd171	0.023049088
45	0x3db85cc9	0.09002072
46	0xbe767493	-0.24067907
47	0x3d61471a	0.05499945

backbone.2.conv.1.1.running_var f4 [48]
0	0x3ce4205f	0.027847467
1	0x3c81c104	0.015839107
2	0x3bad75ff	0.0052936072
3	0x3cda52bf	0.026650785
4	0x3c483084	0.012218598
5	0x3b6875aa	0.0035470524
6	0x3c9d62ab	0.019212088
7	0x396e93c7	0.000227525
8	0x3d30406f	0.0430302
9	0x3a8de097	0.0010824379
10	0x3b80e500	0.003933549
11	0x3d1cf2ee	0.038317613
12	0x3a894b3d	0.0010474693
13	0x3b6f4e92	0.0036515337
14	0x3c2887eb	0.010286312
15	0x3c5fe286	0.013664847
16	0x3b1af470	0.0023644231
17	0x3c4c7c92	0.012480872
18	0x3c9f776e	0.019466128
19	0x3cf9cb15	0.030492345
20	0x3c5b6a70	0.013392076
21	0x3bd64619	0.006539118
22	0x3b5d2acd	0.0033747435
23	0x3bb5d6cd	0.005549288
24	0x3c0a1660	0.008428186
25	0x3c0d7594	0.00863399
26	0x3bc65f2a	0.006053825
27	0x395e37b8	0.00021192327
28	0x3b419252	0.0029536677
29	0x39631f09	0.00021659968
30	0x3d176c42	0.036968477
31	0x3b2dacb4	0.0026500644
32	0x3bac8013	0.005264291
33	0x3cf781f3	0.030213332
34	0x3cfa9536	0.030588727
35	0x3c27c1c0	0.010239065
36	0x3c352e4e	0.011058403
37	0x3d54c2b6	0.051943503
38	0x3b8019d8	0.003909331
39	0x3db786fb	0.08961292
40	0x3d445bba	0.04793904
41	0x3ba05666	0.004893112
42	0x3b9b7d4a	0.00474516
43	0x3bd78daa	0.006578167
44	0x3bbb95fc	0.0057246666
45	0x3c15c940	0.00914222
46	0x3c88769f	0.016658125
47	0x39cf5a8e	0.00039549585

backbone.2.conv.2.weight f4 [8, 48, 1, 1]
0	0x3dfa61b5	0.122256674
1	0x3e830688	0.2559092
2	0xba77e91a	-0.0009457037
3	0x3e3f5b8c	0.18687266
4	0x3eb72839	0.35772875
5	0xbd9d5064	-0.07681349
6	0x3e2ab0eb	0.16669051
7	0xbe1a9190	-0.1509459
8	0xbdc902d7	-0.09814995
9	0xbdc36470	-0.09540641
10	0x3d9d587e	0.07682894
11	0x3eb447f1	0.35211137
12	0x3c97febc	0.018554084
13	0xbd8ca3ab	-0.06867155
14	0x3df419b9	0.11918969
15	0x3e8d070d	0.27544442
16	0xbe64cfef	-0.22344945
17	0x3b5c9955	0.003366073
18	0x3e9e22fd	0.3088607
19	0x3ec42f26	0.3831722
20	0xbd896d25	-0.06710271
21	0xbd5cb666	-0.053884886
22	0x3c47d068	0.012195684
23	0x3d16ca60	0.036814094
24	0x3e1e2a86	0.15445909
25	0xbd082f44	-0.0332482
26	0x3e18dc12	0.149277
27	0xbe3c2204	-0.18372351
28	0xbe3d1411	-0.18464686
29	0xbd14a51a	-0.036290266
30	0xbdaf2e7c	-0.08553788
31	0xba0deeba	-0.0005414296
32	0xbd82aefe	-0.06381033
33	0x3e9347bb	0.28765664
34	0x3e270262	0.16309503
35	0xbdd32a5d	-0.103108145
36	0x3e51528a	0.20441642
37	0x3e8fd63e	0.2809314
38	0x3d76f51c	0.06029235
39	0xbd6e3751	-0.058158223
40	0x3dcc2f1b	0.09969922
41	0xbceaaef2	-0.028647874
42	0x3e258666	0.1616455
43	0xbe0aed8a	-0.13567176
44	0xbd59c965	-0.05317058
45	0xbe3deef2	-0.18548182
46	0x3cf63364	0.030053802
47	0xbcedaf74	-0.029014327
48	0x3d3d6448	0.046238214
49	0x3e736605	0.23769386
50	0x3e811b4d	0.2521614
51	0xbea63afd	-0.3246688
52	0x3e2db9f4	0.16965467
53	0x3e605511	0.2190745
54	0x3e0b2b74	0.13590795
55	0xbb2b7b7d	-0.0026166134
56	0xbcdfaa99	-0.027303027
57	0xbd427861	-0.047478084
58	0x3da57654	0.0807921
59	0xbe178a7f	-0.14798926
60	0xbd6212cb	-0.055193704
61	0xbe1e3af1	-0.15452172
62	0x3dc272d1	0.09494556
63	0x3e2b6a7f	0.16739844
64	0xbdd73b39	-0.10509343
65	0x3d991d52	0.074762955
66	0xbdc99809	-0.098434515
67	0xbd2bf8aa	-0.04198519
68	0xbdcb2b54	-0.099203736
69	0xbe6740b3	-0.22583275
70	0x3a8b797c	0.0010641064
71	0xbcfb780e	-0.030696895
72	0x3d9d7fa3	0.076903604
73	0xbd99bc91	-0.07506669
74	0x3e277c0a	0.16355911
75	0xbd648dba	-0.055799223
76	0x3e48b3e7	0.19599877
77	0xbd5322b9	-0.051546786
78	0x3d35587f	0.04427385
79	0xbe49498b	-0.1965696
80	0xbde12e03	-0.10995104
81	0x3e1064f1	0.14101006
82	0xbd68bf4c	-0.05682306
83	0xbdfad585	-0.12247757
84	0x3edbf47f	0.42959973
85	0xbeb50ec7	-0.35362837
86	0x3c9d3493	0.019190108
87	0xbe932b17	-0.28743812
88	0xbe121b4b	-0.14268224
89	0x3de8bce3	0.11364152
90	0xbce7da25	-0.028302262
91	0xbe193e91	-0.14965273
92	0xbdea8505	-0.11451153
93	0xbe3429c8	-0.17594063
94	0xbd6cb07e	-0.057785504
95	0xbe4d4d6e	-0.20049068
96	0x3e10ce55	0.1414121
97	0xbc478c51	-0.01217945
98	0x3cc2c09e	0.023773488
99	0xbe7fb8e1	-0.2497287
100	0x3e3951f7	0.18097673
101	0xbe80989b	-0.2511643
102	0xbddf80af	-0.10913216
103	0x3c9eaa67	0.019368364
104	0xbdf5cb1d	-0.120016314
105	0x3e429e75	0.19005759
106	0xbd222d03	-0.039593708
107	0xbe9e3236	-0.30897683
108	0x3e935933	0.2877899
109	0xbe570729	-0.20998825
110	0xbdd04e48	-0.10171181
111	0x3c8475d4	0.016169466
112	0x3e1e6433	0.1546791
113	0xbdb40e82	-0.0879183
114	0x3dabaa5e	0.08382104
115	0x3db378b5	0.087632574
116	0x3d83bd25	0.06432561
117	0xbae9671b	-0.0017807217
118	0x3e785b92	0.24253681
119	0x3e77137b	0.24128525
120	0xbddc4503	-0.107553504
121	0xbe1912b7	-0.14948545
122	0xbe28f9e0	-0.1650157
123	0x3e2ef4c1	0.17085554
124	0x3e2197c6	0.15780553
125	0x3e6c9262	0.23102716
126	0x3d2bfad1	0.041987244
127	0x3d025012	0.031814642
128	0xbe8d4378	-0.27590537
129	0x3e6ee815	0.2333072
130	0x3e344e30	0.17607951
131	0xbe310a54	-0.17289096
132	0xbe144586	-0.14479646
133	0x3e5c6d82	0.21526149
134	0x3e6c020f	0.2304766
135	0xbe2c66ab	-0.1683604
136	0xbc945964	-0.018109031
137	0xbe3aa972	-0.18228701
138	0x3bb42a4e	0.005498207
139	0xbdfe0cb3	-0.12404766
140	0xbeabc914	-0.33551848
141	0x3e386fa7	0.18011342
142	0xbec1fa29	-0.3788617
143	0x3e6e4fda	0.23272648
144	0x3d2ffb34	0.042964175
145	0x3e801474	0.25015604
146	0x3db42fcb	0.08798178
147	0x3ea49949	0.32148197
148	0xbe014a24	-0.12625939
149	0x3dfe4575	0.124155916
150	0xbd39f1e9	-0.04539672
151	0x3d1556bc	0.03645967
152	0xbe2126cd	-0.15737458
153	0xbbd2f9af	-0.006438456
154	0x3e6a88b9	0.22903718
155	0xbe4cc803	-0.19998173
156	0x3d2ed938	0.042687625
157	0x3d2697af	0.040672
158	0x3e386c0b	0.18009965
159	0x3d82bbce	0.06383477
160	0x3bae0160	0.0053102225
161	0x3d0d07b5	0.034431178
162	0x3c7b1314	0.015324373
163	0xbe84581a	-0.25848466
164	0xbdf4ed31	-0.11959303
165	0x3d79c50f	0.060978945
166	0x3dac5d8c	0.0841628
167	0x3d9a9022	0.075470224
168	0x3e262f5a	0.16229
169	0xbda815a9	-0.08207256
170	0x3e10a762	0.14126351
171	0x3d978612	0.07398619
172	0xbe33c892	-0.1755698
173	0xba5b91d7	-0.0008375919
174	0x3eada9db	0.33918652
175	0x3e100b74	0.14066869
176	0xbd686b79	-0.05674312
177	0xbdb0ee4f	-0.08639204
178	0x3e823be6	0.25436324
179	0xbbfa3fd5	-0.007637004
180	0x3dc21d48	0.09478241
181	0x3e61769c	0.22017902
182	0x3d892d2f	0.06698071
183	0xbdc55280	-0.09634876
184	0xbe26292c	-0.16226643
185	0x3e9e7234	0.30946505
186	0x3eb70a85	0.35750213
187	0x3c563a6f	0.013075455
188	0xbcda51a4	-0.026650257
189	0xbd9ed953	-0.07756295
190	0xbeb87707	-0.3602831
191	0x3dd83504	0.10556987
192	0xbd186dc9	-0.037214074
193	0xbe0e69fb	-0.13907616
194	0x3e3950dc	0.18097252
195	0x3d975934	0.07390061
196	0x3e2b0eb1	0.16704823
197	0xbcaa384e	-0.020778801
198	0xbe78fb18	-0.24314535
199	0x3d23843e	0.039921038
200	0xbb41f353	-0.0029594495
201	0xbd8c4ce6	-0.06850605
202	0x3e3f46da	0.18679371
203	0x3e6870af	0.22699235
204	0x3e3fc9f2	0.1872938
205	0x3cd14cb7	0.025549276
206	0x3e96a4a4	0.29422486
207	0xbdf2d4f7	-0.11857026
208	0xbdb28625	-0.08716992
209	0xbe93a71b	-0.2883843
210	0x3c16471d	0.009172228
211	0xbe50e6a5	-0.20400484
212	0xbe33727c	-0.17524141
213	0x3d7b2551	0.061314885
214	0x3d8698c2	0.06572105
215	0x3dd4dfec	0.10394272
216	0x3e8c9a50	0.2746148
217	0x3ddfb700	0.10923576
218	0x3e937ff6	0.28808564
219	0xbe2c4e42	-0.16826728
220	0xbd6a8199	-0.0572525
221	0xbddd02a0	-0.10791516
222	0xbe38049d	-0.1797051
223	0xbe08b9c6	-0.13352117
224	0x3e207039	0.1566781
225	0xbe1dc30e	-0.15406439
226	0x3df659f6	0.120288774
227	0x3e3c12cd	0.18366547
228	0xbd6da3f8	-0.0580177
229	0xbdb1ddea	-0.08684905
230	0x3e794022	0.24340871
231	0xbdb7ffe5	-0.08984355
232	0xbe33ef4c	-0.17571753
233	0x3d728bdf	0.059215423
234	0x3b053977	0.0020328441
235	0x3e181933	0.14853363
236	0x3d9e198e	0.07719718
237	0x3e1913c9	0.14948954
238	0xbde26764	-0.110548764
239	0xbe870224	-0.2636882
240	0x3d41bd04	0.0472994
241	0x3d41e827	0.04734054
242	0x3e81d70e	0.25359386
243	0x3d93389b	0.07188531
244	0x3e858fa6	0.26086158
245	0x3e0cfed1	0.1376908
246	0x3e6c3473	0.23066883
247	0xbd4b3da9	-0.04961935
248	0xbe6409c8	-0.22269356
249	0x3e3854ff	0.18001173
250	0x39e2eb76	0.0004328151
251	0xbec1f1e1	-0.3787985
252	0x3e981029	0.2969983
253	0x3d8a1f4f	0.06744253
254	0x3e393c71	0.18089463
255	0xbdb8db74	-0.09026232

backbone.2.conv.3.weight f4 [8]
0	0x3f0e1e91	0.5551539
1	0x3ee6e7b5	0.45098653
2	0x3edd7270	0.4325137
3	0x3edf73f3	0.4364315
4	0x3ed7dd32	0.42160946
5	0x3f11ec7e	0.57001483
6	0x3edeba9e	0.43501753
7	0x3f25c6b6	0.64756334

backbone.2.conv.3.bias f4 [8]
0	0x376d02e9	1.4126978e-05
1	0xb78cf6ac	-1.6804166e-05
2	0xb869620a	-5.5642835e-05
3	0x393b3f7a	0.00017857357
4	0x386f5502	5.706121e-05
5	0x38540768	5.0551636e-05
6	0x391f8f99	0.00015216916
7	0x39637f7a	0.00021695896

backbone.2.conv.3.running_mean f4 [8]
0	0x3f82aab9	1.020835
1	0xbe1a0370	-0.15040374
2	0xbd7658e5	-0.06014337
3	0x3eb21302	0.34780127
4	0xbe47b136	-0.19501194
5	0x3ee6f8bd	0.45111647
6	0xbd94c406	-0.07263951
7	0x3e12bb2a	0.1432921

backbone.2.conv.3.running_var f4 [8]
0	0x3dffe7db	0.12495395
1	0x3da34613	0.0797235
2	0x3de3be0a	0.111202314
3	0x3d4695d8	0.048482746
4	0x3d75922b	0.05995385
5	0x3e05dad7	0.13071762
6	0x3d7938f7	0.06084534
7	0x3e1ad389	0.15119757
