ML Model/tv_detection_epoch_150/e-118-0.657.pth (torch, 508597 bytes, 205 tensors)

backbone.0.0.weight f4 [16, 3, 3, 3]
-1.79143e-40 -9.8856e-41 -1.6797e-40 -2.01144e-40 -5.6171e-41 1.83368e-40 1.8304e-40 -1.72952e-40
6.9495e-41 -1.79342e-40 1.09223e-40 1.55236e-40 5.9383e-41 1.76852e-40 -1.43506e-40 -1.63785e-40
2.3137e-41 -2.0338e-40 -1.90034e-40 -1.9723e-40 1.62112e-40 -5.6011e-41 7.0795e-41 7.0913e-41
1.60671e-40 -1.27234e-40 -1.45215e-40 0.018272772 0.016903562 -0.07491496 0.14246003 0.33382857
0.00067363185 -0.1313578 -0.19125365 0.005342811 -0.0509739 -0.011436219 -0.17940287 0.29570118
0.6957824 0.059851244 -0.31919143 -0.54106176 -0.097773984 0.1713432 0.16989098 0.044279955
0.19797736 0.30381414 0.0809617 -0.14632629 -0.19759959 -0.083429255 -0.07782192 0.13803262
0.0593495 -0.38391265 0.769061 -0.17924786 -0.63263047 0.9168739 -0.22906229 -0.1312963
0.16657323 -0.035810508 -0.81591415 1.3032961 -0.44865578 -1.0209633 1.4151597 -0.45836568
-0.05860097 -0.008214975 0.063920595 -0.24035715 0.41171816 -0.08592202 -0.29444122 0.44249952
-0.14162976 -0.04344933 -0.0078367535 0.064195536 0.057307575 0.22755252 -0.29899105 0.011000239
0.29413357 -0.31679118 -0.020919781 -0.034384746 0.07825158 0.05326463 0.5611807 -0.57718253
0.039059788 0.6229394 -0.65280396 0.009981925 0.01599934 -0.07957761 0.13173524 0.1781195
-0.2123752 0.050527826 0.13461232 -0.23167086 -0.098005995 -0.07128598 -0.11135801 0.010952973
-0.013442462 -0.1346554 0.12316415 0.028692119 -0.203253 0.08194969 0.01387484 -0.071062334
0.16374911 -0.117131606 -0.3004699 0.18477356 -0.08541715 -0.4289753 0.08861232 -0.07165786
-0.20083669 0.056215398 -0.13626145 -0.26394472 -0.010943309 -0.09822831 -0.22981578 0.17541322
0.18742703 -0.13041708 0.09402848 0.6068667 0.29984394 -0.21115348 0.52182674 0.6238984
0.12940548 -0.011930667 0.09770287 0.04841057 -0.13408048 -0.035449028 0.012827574 -0.13505274
-0.05152673 -0.24995048 -0.18450654 0.040840764 -0.18374848 -0.52726674 -0.2828425 0.06653738
-0.47617194 -0.5590702 0.17780143 0.11814444 0.034882937 0.50172836 -0.00086262857 -0.09252004
0.09963599 -0.094321 0.0063638785 0.02036085 -0.029055215 -0.05175581 0.8510012 -0.08707241
-0.28843632 0.11781464 -0.23615538 -0.04344374 0.098786734 0.053222463 0.0056027095 0.26609278
0.06901951 0.023633318 -0.07987582 -0.10918227 -0.009309738 0.035361417 0.03442375 -0.03290151
-0.009881175 0.108578116 0.2932427 -0.0025325539 0.08775573 0.35114077 -0.08182941 -0.16620827
-0.18175833 -0.0540489 0.07566792 0.3065224 -0.007388244 0.12741287 0.3396373 -0.04426622
-0.00029270595 0.028047865 0.04041535 0.18564603 0.36076236 0.09495831 0.19416426 0.3259753
0.047596805 0.046144906 -0.15155336 -0.18663402 0.6500516 -0.53427 0.011312664 0.7130704
-0.6644895 -0.03698247 0.1706799 -0.21395777 -0.14348343 1.0374521 -0.9159183 -0.007966311
1.0176172 -0.95122933 0.083231255 0.04141192 -0.00023106091 -0.09673469 0.41376096 -0.34288028
0.012993192 0.42154217 -0.3800136 -1.56818e-40 2.06452e-40 2.13269e-40 2.18946e-40 -1.18198e-40
1.348e-41 8.7473e-41 -1.6668e-40 -1.64825e-40 -1.27479e-40 -1.51667e-40 1.75221e-40 -1.66134e-40
00000000: 61f3 0180 9213 0180 3bd4 0180 b530 0280
00000010: 959c 0080 28ff 0100 3efe 0100 1fe2 0180
00000020: b9c1 0000 eff3 0180 7830 0100 bcb0 0100
00000030: 89a5 0000 feec 0100 0990 0180 91c8 0180
00000040: 7f40 0000 f136 0280 bd11 0280 cc25 0280
00000050: e7c3 0100 239c 0080 59c5 0000 adc5 0000
00000060: e3bf 0100 ad62 0180 cd94 0180 c8b0 953c
00000070: 5779 8a3c 046d 99bd 0be1 113e 94eb aa3e
00000080: ab96 303a a982 06be ffd7 43be bf12 af3b
00000090: 02ca 50bd fb5e 3bbc 63b5 37be 2566 973e
000000a0: cc1e 323f 9426 753d 0f6d a3be 0683 0abf
000000b0: ba3d c8bd 9874 2f3e e7f7 2d3e e65e 353d
000000c0: 94ba 4a3e 878d 9b3e 3fcf a53d 8fd6 15be
000000d0: 8c57 4abe f5dc aabd 1961 9fbd 6c58 0d3e
000000e0: 7618 733d 3390 c4be 2fe1 443f c08c 37be
000000f0: 12f4 21bf 3fb8 6a3f 4e8f 6abe 8a72 06be
00000100: 2c92 2a3e 0aae 12bd c0df 50bf 68d2 a63f
00000110: 36b6 e5be edae 82bf f423 b53f e8ae eabe
00000120: 9207 70bd 1a98 06bc cde8 823d 2f20 76be
00000130: b9cc d23e e2f7 afbd 00c1 96be 4c8f e23e
00000140: 6407 11be edf7 31bd ba65 00bc f378 833d
00000150: 59bb 6a3d 8703 693e 5b15 99be 593a 343c
00000160: ad98 963e 7432 a2be f65f abbc 05d7 0cbd
00000170: 5d42 a03d 032c 5a3d 8aa9 0f3f 3cc2 13bf
00000180: 28fd 1f3d f578 1f3f 291e 27bf 3a8b 233c
00000190: 0c11 833c 96f9 a2bd 9ae5 063e f564 363e
000001a0: e278 59be 44f6 4e3d d0d7 093e 203b 6dbe
000001b0: 5eb7 c8bd 62fe 91bd ab0f e4bd 1974 333c
000001c0: c63d 5cbc 1be3 09be 7c3d fc3d bc0b eb3c
000001d0: 8e21 50be 3dd5 a73d 4c53 633c 2189 91bd
000001e0: d9ad 273e b2e2 efbd 31d7 99be 4835 3d3e
000001f0: 30ef aebd a7a2 dbbe 607a b53d 5bc1 92bd
00000200: 22a8 4dbe 1e42 663d 1f88 0bbe c323 87be
00000210: 914b 33bc ed2b c9bd d454 6bbe 869f 333e
00000220: dfec 3f3e 0e8c 05be 0192 c03d 9e5b 1b3f
00000230: 2585 993e 9e38 58be 7096 053f ceb7 1f3f
00000240: df82 043e d878 43bc 7118 c83d 294a 463d
00000250: 654c 09be 0033 11bd bf2a 523c 444b 0abe
00000260: b10d 53bd 05f3 7fbe 48ef 3cbe a548 273d
00000270: 9028 3cbe f4fa 06bf bbd0 90be c044 883d
00000280: cfcc f3be 3a1f 0fbf 9411 363e b6f5 f13d
00000290: 69e1 0e3d 4571 003f 0622 62ba 267b bdbd
000002a0: f40d cc3d 5e2b c1bd 1588 d03b cccb a63c
000002b0: 3405 eebc e6fd 53bd 37db 593f 0553 b2bd
000002c0: edad 93be cd48 f13d b7d2 71be 10f2 31bd
000002d0: b350 ca3d ccff 593d ef96 b73b 503d 883e
000002e0: 1a5a 8d3d a99a c13c ef95 a3bd f49a dfbd
000002f0: df87 18bc 22d7 103d ebff 0c3d bcc3 06bd
00000300: a7e4 21bc 345e de3d e823 963e 34f9 25bb
00000310: 47b9 b33d b9c8 b33e 2d96 a7bd 8032 2abe
00000320: db1e 3abe 6162 5dbd c8f7 9a3d 81f0 9c3e
00000330: 1519 f2bb 8578 023e f1e4 ad3e 7f50 35bd
00000340: 5476 99b9 a3c4 e53c 918a 253d fe19 3e3e
00000350: d8b5 b83e 8179 c23d ffd2 463e 3ce6 a63e
00000360: def4 423d 7102 3d3d ce30 1bbe fd1c 3fbe
00000370: c869 263f ebc5 08bf c058 393c c88b 363f
00000380: fc1b 2abf ee7a 17bd b6c6 2e3e bf17 5bbe
00000390: 52ed 12be 3bcb 843f 9f79 6abf 2185 02bc
000003a0: 4841 823f c483 73bf 2675 aa3d 8c9f 293d
000003b0: f148 72b9 d61c c6bd 7ad8 d33e 018e afbe
000003c0: 66e1 543c 60d4 d73e 2591 c2be 25b5 0180
000003d0: 813f 0200 8252 0200 5562 0200 7d49 0180
000003e0: 9425 0000 d7f3 0000 a3d0 0180 77cb 0180
000003f0: 5c63 0180 c9a6 0180 72e8 0100 1dcf 0180

backbone.0.1.weight f4 [16]
-6.4771e-41 0.098816186 0.1152521 0.28656405 0.19089389 0.21687955 0.11917095 0.29694727
0.09896993 1.4544e-40 0.4193605 0.14886115 0.31032085 0.3337112 1.67656e-40 0.08980004
00000000: 8eb4 0080 2460 ca3d 4b09 ec3d 86b8 923e
00000010: b079 433e ac15 5e3e e60f f43d 7909 983e
00000020: bfb0 ca3d 6d95 0100 6bb6 d63e 0f6f 183e
00000030: 60e2 9e3e 32dc aa3e 5bd3 0100 15e9 b73d

backbone.0.1.bias f4 [16]
-7.4238e-41 0.6003285 0.4038373 0.23485327 0.85566926 0.5648135 0.4661396 0.5019676
0.53387374 1.21246e-40 -0.26998088 0.87815595 0.33923405 -0.30973145 -1.14734e-40 0.12937544
00000000: f2ce 0080 21af 193f c3c3 ce3e 607d 703e
00000010: 240d 5b3f 9e97 103f daa9 ee3e f380 003f
00000020: f3ab 083f fc51 0100 ef3a 8abe d4ce 603f
00000030: 16b0 ad3e 1f95 9ebe d53f 0180 ff7a 043e

backbone.0.1.running_mean f4 [16]
-1.493226e-39 54.446697 46.770287 5.058956 -192.01772 -70.31022 124.11474 242.36028
6.400742 4.986944e-39 -27.22642 194.27196 21.112059 65.40466 -7.28307e-40 -39.151882
00000000: 8242 1080 6bc9 5942 c614 3b42 f8e2 a140
00000010: 8904 40c3 d59e 8cc2 bf3a f842 3b5c 7243
00000020: e1d2 cc40 924d 3600 b5cf d9c1 9f45 4243
00000030: 7fe5 a841 30cf 8242 39ee 0780 879b 1cc2

backbone.0.1.running_var f4 [16]
6e-45 2811.259 9895.756 1916.3589 16597.646 10794.542 9518.9 26005.977
5981.5244 6e-45 3457.1387 16597.76 2839.7085 3322.239 6e-45 2240.69
00000000: 0400 0000 25b4 2f45 069f 1a46 7c8b ef44
00000010: 4bab 8146 2baa 2846 9abb 1446 f42b cb46
00000020: 32ec ba45 0400 0000 3812 5845 85ab 8146
00000030: 567b 3145 d3a3 4f45 0400 0000 0a0b 0c45

backbone.1.conv.0.0.weight f4 [16, 1, 3, 3]
4.7657e-41 -1.73793e-40 1.53498e-40 1.5119e-40 -1.70792e-40 -1.7387e-40 -2.11621e-40 -9.4572e-41
1.88583e-40 -0.02776052 -0.028162073 0.025178038 0.021856345 -0.054659065 0.71657145 -0.013263343
0.030804465 -0.85039276 0.0059596766 -0.045564316 -0.13539466 -0.020657279 0.044152357 1.0441322
0.007662879 -0.081108846 -0.08164267 -0.062009223 -0.04514623 -0.07418561 0.008995611 0.7992989
-0.28593805 -0.0023331512 -0.041371744 -0.2043836 0.566509 1.9267086 0.46086 0.21248701
0.4418234 0.20372468 -0.8469279 -2.1084878 -0.71939635 -0.22002254 0.0040147146 -0.21108797
0.1274322 0.37663057 -1.6356851 0.08259093 1.320552 0.39536223 -0.06346215 0.08176014
-0.052102424 -0.0042165276 0.045416694 -0.77025294 0.0148957735 0.0715138 1.0226353 -0.47831514
-0.27531353 0.73055774 -2.3589902 -0.36230773 2.5995135 -0.42842248 -0.14138292 0.66148293
-0.045273237 0.0138223125 -0.079532765 0.03593525 -0.9289034 0.1402063 0.06492628 0.020013765
-0.09627615 -2.09284e-40 -1.2188e-40 -2.4332e-41 1.31334e-40 1.22193e-40 4.2199e-41 -4.5269e-41
1.39715e-40 1.67752e-40 -0.012154409 -0.14503932 -0.37044328 -0.1841554 0.14133081 0.38974106
-0.3272912 0.34318084 0.49399707 0.1889389 1.5577792 0.9753832 0.10891719 0.041795757
-0.121150926 -0.28084892 -1.6306522 -0.9735498 0.00196151 0.0309542 -0.020192292 0.012600793
-0.017983401 -0.7447293 -0.02033314 -0.0067470726 0.730833 -0.025234882 0.0661864 -0.18070917
0.05120217 0.11834214 -0.08531174 -0.17377324 -0.06015271 0.5980698 -4.5787e-41 1.8226e-40
2.04255e-40 2.1045e-40 5.5263e-41 5.2243e-41 1.54329e-40 -9.6985e-41 -3.4489e-41 0.13078502
0.020075565 0.021903453 0.13787559 -0.053890288 -0.17823619 0.099565774 -0.19521792 -0.23847426
00000000: d984 0000 77e4 0180 e4ab 0100 75a5 0100
00000010: 19dc 0180 aee4 0180 ea4d 0280 a107 0180
00000020: b10d 0200 086a e3bc 26b4 e6bc 2c42 ce3c
00000030: 140c b33c 2fe2 5fbd 3a71 373f 7e4e 59bc
00000040: a559 fc3c 57b3 59bf 6449 c33b a6a1 3abd
00000050: e6a4 0abe 7439 a9bc 1ad9 343d 20a6 853f
00000060: e318 fb3b 651c a6bd 4634 a7bd 62fd 7dbd
00000070: 41eb 38bd a0ee 97bd 5462 133c da9e 4c3f
00000080: 7966 92be c8e7 18bb 6b75 29bd ef49 51be
00000090: bc06 113f 639e f63f d8f5 eb3e 3296 593e
000000a0: ad36 e23e 349d 503e 44d0 58bf 77f1 06c0
000000b0: 5c2a 38bf 974d 61be de8d 833b 7227 58be
000000c0: 967d 023e b9d5 c03e 215e d1bf 6f25 a93d
000000d0: d907 a93f eb6c ca3e 72f8 81bd dc71 a73d
000000e0: 5a69 55bd cc2a 8abb db06 3a3d 4c2f 45bf
000000f0: 670d 743c d475 923d b7e5 823f b9e5 f4be
00000100: e5f5 8cbe d505 3b3f b2f9 16c0 6680 b9be
00000110: 6e5e 2640 315a dbbe afc6 10be f256 293f
00000120: 6e70 39bd fb76 623c 13e2 a2bd d730 133d
00000130: 9dcc 6dbf 3e92 0f3e 12f8 843d e8f3 a33c
00000140: 6e2c c5bd 6647 0280 c053 0180 d443 0080
00000150: 1b6e 0100 a054 0100 a275 0000 317e 0080
00000160: 7885 0100 a0d3 0100 4923 47bc 3085 14be
00000170: beaa bdbe 3c93 3cbe 06b9 103e 248c c73e
00000180: b692 a7be 66b5 af3e 2fed fc3e 3379 413e
00000190: 4f65 c73f b7b2 793f fa0f df3d 0732 2b3d
000001a0: fa1d f8bd 6ecb 8fbe 36b9 d0bf 8f3a 79bf
000001b0: ad8c 003b aa93 fd3c 4e6a a5bc 8e73 4e3c
000001c0: ed51 93bc 94a6 3ebf af91 a6bc 8c16 ddbb
000001d0: df17 3b3f 62b9 cebc bc8c 873d d30b 39be
000001e0: 5eb9 513d 5d5d f23d ecb7 aebd 9df1 31be
000001f0: b062 76bd 1a1b 193f a37f 0080 11fc 0100
00000200: 6139 0200 a64a 0200 0d9a 0000 a291 0000
00000210: 35ae 0100 5b0e 0180 2460 0080 82ec 053e
00000220: 8375 a43c df6e b33c 422f 0d3e 10bc 5cbd
00000230: 8c83 36be 24e9 cb3d 35e7 47be 9932 74be

backbone.1.conv.0.1.weight f4 [16]
-2.01068e-40 0.5096761 0.5591052 0.58760995 1.1282248 0.468185 0.55156124 0.82149625
0.41048694 8.3694e-41 0.20434603 0.98460406 0.871951 0.24429864 2.13123e-40 0.3341912
00000000: 7f30 0280 227a 023f 8521 0f3f 9b6d 163f
00000010: ac69 903f f2b5 ef3e 1e33 0d3f 944d 523f
00000020: 582b d23e 4ee9 0000 1640 513e 030f 7c3f
00000030: 2e38 5f3f 6c29 7a3e 1a52 0200 1c1b ab3e

backbone.1.conv.0.1.bias f4 [16]
-8.39994e-39 0.6344114 1.3344961 0.26790452 0.1985841 0.7623296 0.55081296 0.50515485
0.44369233 2.344903e-39 0.53648984 0.0686467 0.6859634 -0.3098986 -1.915693e-39 0.36315995
00000000: 9d77 5b80 c968 223f c5d0 aa3f c82a 893e
00000010: a159 4b3e 0828 433f 1402 0d3f d451 013f
00000020: a42b e33e a388 1900 6657 093f a496 8c3d
00000030: 4c9b 2f3f 08ab 9ebe 2cdc 1480 1af0 b93e

backbone.1.conv.0.1.running_mean f4 [16]
6e-45 -0.103276275 0.28943828 0.026361939 0.12688628 0.1430598 0.15885368 -0.033812832
-0.46771458 -6e-45 0.015607008 -0.11239937 -0.019963158 0.013717802 -6e-45 -0.03453238
00000000: 0400 0000 8382 d3bd 4131 943e fef4 d73c
00000010: 7aee 013e 457e 123e 8aaa 223e 537f 0abd
00000020: 4978 efbe 0400 0080 89b4 7f3c a431 e6bd
00000030: c789 a3bc a2c0 603c 0400 0080 d371 0dbd

backbone.1.conv.0.1.running_var f4 [16]
6e-45 0.008973939 0.0087785395 0.0364819 0.22298126 0.048195366 0.0066939075 0.40282577
0.007796385 6e-45 0.0077944463 0.14379784 0.059121236 0.0020352982 6e-45 0.0007728186
00000000: 0400 0000 6e07 133c ddd3 0f3c 0b6e 153d
00000010: 3355 643e 8168 453d 9158 db3b 2e3f ce3e
00000020: d178 ff3b 0400 0000 8e68 ff3b be3f 133e
00000030: 1c29 723d a362 053b 0400 0000 fa96 4a3a

backbone.1.conv.1.weight f4 [8, 16, 1, 1]
1.08524e-39 -0.22069232 -0.044675212 0.18819918 -0.044582393 0.65172553 0.25527045 -0.11000811
-0.059977468 -3.833825e-39 -0.007232237 0.25461337 0.11763206 0.009364737 1.639529e-39 -0.21442138
-3.9281e-41 -0.07644172 -0.51745015 0.0031588103 0.25665396 -0.077016056 0.011004114 0.017265791
0.097640455 1.587157e-39 -0.07419973 0.111806974 -0.18186069 -0.04491328 9.82546e-40 -0.30277267
-1.459873e-39 0.42111933 0.13225909 0.41994473 -0.19385809 -0.16833913 -0.29382077 0.08679398
-0.20467354 -3.405571e-39 -0.20268437 0.3765667 0.03178251 -0.09068605 -5.18817e-40 -0.3575154
6.7061e-40 -0.17076719 -0.114707276 -0.08613347 0.46209228 -0.2806191 0.13377663 -0.059683673
-0.17004313 4.226425e-39 0.110055245 -0.39880612 0.45427194 0.27183402 8.6477e-40 -0.36816543
-4.4717e-40 -0.32681838 0.22920528 0.021816548 0.13445048 -0.68792534 0.18030417 -0.21284895
-0.07506388 1.799e-42 0.2916032 -0.034557007 -0.23975615 0.12815197 -1.295318e-39 0.010002532
2.54492e-39 -0.115939 0.047419026 -0.57140994 -0.2923625 -0.15025607 0.1472809 0.5779069
0.44051203 -4.122982e-39 0.10572478 0.40934712 0.096871756 0.053499665 2.843607e-39 -0.21977213
1.095772e-39 0.31273302 -0.047374032 -0.42313546 -0.39355078 0.06560714 0.0032424806 -0.8227231
0.07373646 -4.112562e-39 -0.052823834 0.23764357 -0.06553088 0.32305798 -1.167433e-39 -0.21193598
1.58322e-39 0.09059379 0.2492225 -0.052913394 0.50882274 0.5676674 -0.13720506 0.15416764
-0.05994066 -7.44451e-40 0.0835137 -0.4499799 -0.2269023 0.09311384 -4.9889e-41 -0.24622007
00000000: 35d1 0b00 2bfd 61be 5bfd 36bd 49b7 403e
00000010: 079c 36bd 7cd7 263f cfb2 823e ef4b e1bd
00000020: efaa 75bd 25bf 2980 67fc ecbb af5c 823e
00000030: 14e9 f03d 8e6e 193c 57da 1100 4791 5bbe
00000040: 806d 0080 7a8d 9cbd 9d77 04bf 0b04 4f3b
00000050: 2668 833e 98ba 9dbd 994a 343c fd70 8d3c
00000060: b8f7 c73d 5948 1100 07f6 97bd 0efb e43d
00000070: b039 3abe fdf6 37bd f0b2 0a00 0505 9bbe
00000080: 88e5 0f80 f49c d73e ed6e 073e ff02 d73e
00000090: bc82 46be 1861 2cbe ad6f 96be 0bc1 b13d
000000a0: f195 51be 5915 2580 7e8c 4fbe 5acd c03e
000000b0: 612e 023d 9cb9 b9bd 40a6 0580 420c b7be
000000c0: 634d 0700 98dd 2ebe a6eb eabd bf66 b0bd
000000d0: 5c97 ec3e 4fad 8fbe befc 083e de76 74bd
000000e0: c91f 2ebe 8e05 2e00 a564 e13d 5130 ccbe
000000f0: 5596 e83e d42d 8b3e a06a 0900 2e80 bcbe
00000100: 87de 0480 bd54 a7be cab4 6a3e 9eb8 b23c
00000110: 63ad 093e e01b 30bf a8a1 383e 13f5 59be
00000120: 17bb 99bd 0405 0000 044d 953e a68b 0dbd
00000130: a382 75be 453a 033e d21a 0e80 a9e1 233c
00000140: 34b6 1b00 6d71 edbd 743a 423d ec47 12bf
00000150: 8ab0 95be badc 19be ced0 163e b5f1 133f
00000160: cb8a e13e 32e5 2c80 3c86 d83d f295 d13e
00000170: b364 c63d 7722 5b3d d2f6 1e00 f20b 61be
00000180: 91ee 0b00 8b1e a03e 460b 42bd 36a5 d8be
00000190: 7d7f c9be 095d 863d cc7f 543b fb9d 52bf
000001a0: 2403 973d 26c8 2c80 ce5d 58bd d658 733e
000001b0: 0e35 86bd db67 a53e 54b6 0c80 bf05 59be
000001c0: 603d 1100 3d89 b93d 2f34 7f3e b7bb 58bd
000001d0: 3542 023f a752 113f 7c7f 0cbe 1fde 1d3e
000001e0: 5684 75bd 3a1b 0880 3b09 ab3d c463 e6be
000001f0: 1459 68be 78b2 be3d 128b 0080 1d21 7cbe

backbone.1.conv.2.weight f4 [8]
0.52179205 0.4768927 0.6869492 0.5235896 0.5184573 0.60322636 0.5786218 0.51205957
00000000: 2a94 053f 482b f43e e7db 2f3f f809 063f
00000010: 9eb9 043f 0b6d 1a3f 8f20 143f 5616 033f

backbone.1.conv.2.bias f4 [8]
3.6664675e-05 -7.150357e-06 9.790761e-05 0.0002040817 3.4795896e-05 0.00019337054 -0.00012651774 0.00017061354
00000000: 65c8 1938 19ed efb6 bf53 cd38 c4fe 5539
00000010: cff1 1138 82c3 4a39 d9a9 04b9 b9e6 3239

backbone.1.conv.2.running_mean f4 [8]
0.47521123 -0.91888356 0.044262152 -0.19538368 -0.47578374 0.36197937 -0.6623902 0.6693915
00000000: e34e f33e f43b 6bbf 3b4c 353d a912 48be
00000010: ed99 f3be 5c55 b93e 6792 29bf 3e5d 2b3f

backbone.1.conv.2.running_var f4 [8]
0.11760709 0.122112505 0.26101795 0.30641085 0.1978342 0.350255 0.3676878 0.18963096
00000000: fcdb f03d 1f16 fa3d 25a4 853e e2e1 9c3e
00000010: 0c95 4a3e a054 b33e 9341 bc3e 9e2e 423e

backbone.2.conv.0.0.weight f4 [48, 8, 1, 1]
0.12352904 -0.073769785 0.14827919 -0.34715292 -0.14811872 0.06757822 0.22936575 0.04544442
0.13782747 0.07811886 0.090838194 0.020749928 -0.051533934 -0.37469032 -0.16108607 -0.15763487
-0.16360752 0.06836729 -0.16127561 0.14992805 -0.019107834 -0.116459526 -0.21442655 0.20040731
-0.18778919 0.16982445 0.16042799 -0.44350556 0.022524225 -0.099729285 -0.22621538 -0.5268315
0.029023891 -0.112567194 0.10954053 -0.2636728 -0.052408706 0.10256094 0.061808724 -0.28762886
0.0920293 0.04710686 0.21539657 -0.105383255 -0.070272535 -0.0018184979 0.2680383 -0.086932965
0.028619051 0.19367473 0.20310435 0.1550269 -0.10147009 -0.29718253 -0.084792495 -0.04808828
0.014634251 0.117013134 0.04611309 -0.0073984833 0.074659385 0.021468876 -0.06855162 0.124298096
-0.018368872 0.06581396 0.50768846 0.01507444 -0.10255105 0.0020110079 0.0058177863 0.0072217635
-0.066382036 0.32573742 -0.08841424 0.13097753 -0.11841788 0.11882265 0.07444816 -0.0326989
-0.17029208 -0.09776737 0.06712227 -0.38758114 0.12484422 0.08019146 0.019329034 -0.03563299
-0.087019265 0.08815257 -0.29755133 0.25831679 0.076521255 -0.16556984 -0.13875403 0.1998469
0.1187446 0.10440711 -0.18353416 0.1462789 0.07957512 0.14480706 -0.027208023 -0.059230868
0.31946546 -0.12985457 -0.03969812 -0.018798864 -0.2314259 -0.0522449 0.10983915 0.20922625
0.08436076 -0.2046184 0.009021725 0.38206908 -0.019805774 0.14420734 -0.10467414 -0.34622952
0.112691715 0.23317866 0.18979204 0.17400962 -0.2986692 -0.17627877 0.028296512 -0.035043936
0.30865586 0.20201974 0.14106336 0.22220585 0.12657605 0.10371962 0.16633238 0.07875784
0.025303058 0.05537362 0.13966955 -0.09875551 -0.20945272 0.20827977 -0.018675864 0.05259438
-0.22247563 0.050337445 -0.20559947 0.15778747 -0.161037 -0.102277055 -0.20381394 0.2970544
-0.071278736 0.106770866 -0.2328591 0.3538802 0.088197604 -0.21333502 -0.1625417 0.45378605
0.09359866 0.17944175 0.22155012 0.24437986 0.02510663 0.111420065 0.14994103 0.11188023
0.046406448 -0.08127495 0.080195956 -0.39044815 0.14518178 -0.03956386 -0.34169492 -0.009515371
0.076095104 0.12959696 0.008998934 0.068393335 -0.23201387 -0.07760288 -0.027131818 -0.11382889
0.2723914 -0.04965795 0.08812114 0.11512074 0.017625563 -0.037777547 -0.1403361 -0.0059294137
-0.1694009 -0.15456894 0.07917216 0.18824044 -0.1971137 -0.06396688 0.062733844 -0.04835656
-0.07046164 -0.45554838 0.21398619 -0.047714006 0.10928452 -0.09640568 -0.005389627 0.2709109
-0.20439754 -0.02437068 0.21889187 0.015717905 -0.1949005 -0.0053461613 0.18060915 0.12079005
-0.21651262 -0.0038042795 -0.07610976 0.27770403 0.12773876 0.07921292 0.3465247 0.10630027
0.3390762 -0.053565137 -0.24095155 -0.036756687 -0.020573163 -0.24816985 0.013205209 0.19795121
0.050905652 0.0061976463 0.19854993 0.19641376 0.13301875 0.08371722 -0.05833129 0.06819486
-0.24222498 -0.05768404 -0.28178537 -0.07537162 -0.19114923 0.4838001 0.06740239 0.18418072
0.15544146 -0.026946375 0.048166275 -0.1697857 -0.26266554 0.09501872 0.007039846 0.26277542
00000000: cbfc fc3d 9d14 97bd 80d6 173e 07be b1be
00000010: 6fac 17be 7366 8a3d dbde 6a3e ee23 3a3d
00000020: a522 0d3e c8fc 9f3d 6009 ba3d c1fb a93c
00000030: 3f15 53bd 69d7 bfbe bff3 24be 096b 21be
00000040: bb88 27be 2604 8c3d 6f25 25be bd86 193e
00000050: 0888 9cbc 5582 eebd a292 5bbe 9337 4d3e
00000060: cf4b 40be 76e6 2d3e 3c47 243e 2913 e3be
00000070: b984 b83c de3e ccbd 01a5 67be 6ede 06bf
00000080: 83c3 ed3c a189 e6bd c956 e03d 1f00 87be
00000090: 83aa 56bd 780b d23d 252b 7d3d 1744 93be
000000a0: dc79 bc3d 1ff3 403d eb90 5c3e 2dd3 d7bd
000000b0: 0ceb 8fbd aa5a eeba 513c 893e e909 b2bd
000000c0: 8072 ea3c ab52 463e 96fa 4f3e 5fbf 1e3e
000000d0: 8dcf cfbd 4f28 98be b0a7 adbd 37f8 44bd
000000e0: 7fc4 6f3c 95a4 ef3d 14e1 3c3d fa6e f2bb
000000f0: 05e7 983d 7fdf af3c cb64 8cbd 0090 fe3d
00000100: 517a 96bc 78c9 863d dff7 013f c9fa 763c
00000110: 4906 d2bd 1dcb 033b 21a3 be3b 8ba4 ec3b
00000120: 4ef3 87bd 0ec7 a63e 8612 b5bd f91e 063e
00000130: 1385 f2bd 4a59 f33d 4778 983d 48ef 05bd
00000140: 0c61 2ebe 423a c8bd 6777 893d 0971 c6be
00000150: 54ae ff3d 6c3b a43d ec57 9e3c e6f3 11bd
00000160: 2837 b2bd 5689 b43d a658 98be 1942 843e
00000170: 2db7 9c3d 248b 29be 8915 0ebe aaa4 4c3e
00000180: 5e30 f33d 65d3 d53d 61f0 3bbe 23ca 153e
00000190: 48f8 a23d 4d48 143e 5ce3 debc 119c 72bd
000001a0: fa90 a33e 99f8 04be 7f9a 22bd 1300 9abc
000001b0: e9fa 6cbe c0fe 55bd 59f3 e03d 683f 563e
000001c0: 56c5 ac3d 7c87 51be dbcf 133c 8f9e c33e
000001d0: b83f a2bc 17ab 133e 655f d6bd ff44 b1be
000001e0: eaca e63d 63c6 6e3e d858 423e 942f 323e
000001f0: 2beb 98be 6c82 34be 16ce e73c 3b8a 0fbd
00000200: 2408 9e3e 43de 4e3e ea72 103e ee89 633e
00000210: 279d 013e f46a d43d 0953 2a3e ca4b a13d
00000220: 5c48 cf3c 73cf 623d 8905 0f3e 5440 cabd
00000230: c67a 56be 4b47 553e 20fe 98bc 346d 573d
00000240: a7d0 63be a32e 4e3d ab88 52be 0a93 213e
00000250: e2e6 24be a276 d1bd 9ab4 50be 8417 983e
00000260: 96fa 91bd afaa da3d 9e72 6ebe c92f b53e
00000270: f2a0 b43d 7f74 5abe 5571 26be a556 e83e
00000280: a7b0 bf3d 94bf 373e 09de 623e b73e 7a3e
00000290: 6bac cd3c 3430 e43d 248a 193e 7621 e53d
000002a0: b014 3e3d 7b73 a6bd c73d a43d d2e8 c7be
000002b0: 88aa 143e b70d 22bd a3f2 aebe 5ce6 1bbc
000002c0: c0d7 9b3d 11b5 043e 4470 133c ce11 8c3d
000002d0: 0b95 6dbe 42ee 9ebd 8c43 debc 1f1f e9bd
000002e0: e376 8b3e 2266 4bbd db78 b43d 6cc4 eb3d
000002f0: 7c63 903c a1bc 1abd 44b4 0fbe 874b c2bb
00000300: 6e77 2dbe 5247 1ebe 0325 a23d 1ac2 403e
00000310: 2cd8 49be 1101 83bd 9a7a 803d 8711 46bd
00000320: 314e 90bd a33d e9be 321f 5b3e c36f 43bd
00000330: 90d0 df3d 5770 c5bd 789b b0bb d5b4 8a3e
00000340: 974d 51be 05a5 c7bc 3125 603e d6c2 803c
00000350: ff93 47be da2e afbb 9bf1 383e c660 f73d
00000360: 7cb5 5dbe 3851 79bb 6fdf 9bbd 392f 8e3e
00000370: f3cd 023e 623a a23d af6b b13e f5b3 d93d
00000380: 659b ad3e 1e67 5bbd 01bc 76be 2e8e 16bd
00000390: 0d89 a8bc 3d20 7ebe a95a 583c b9b3 4a3e
000003a0: 7282 503d a015 cb3b ac50 4b3e b020 493e
000003b0: 1136 083e ef73 ab3d caec 6ebd bfa9 8b3d
000003c0: d309 78be 1a46 6cbd 2c46 90be 705c 9abd
000003d0: a0bc 43be a6b4 f73e 440a 8a3d df99 3c3e
000003e0: 0c2c 1f3e a5be dcbc 004a 453d 4ddc 2dbe
000003f0: 197c 86be 2d99 c23d 82ae e63b 808a 863e

backbone.2.conv.0.1.weight f4 [48]
0.45076764 0.34693244 0.11766912 0.16866472 0.15899211 0.07720369 0.29639363 0.057127625
0.37121415 0.11070809 0.23213689 0.4057652 0.07784424 0.14050739 0.13864194 0.37644768
0.16269875 0.19688945 0.38181347 0.2599023 0.23812704 0.13900252 0.16401976 0.15951912
0.14103049 0.17418782 0.15443823 0.26294708 0.08071579 0.053490493 0.45379245 0.093104035
0.2643161 0.35044447 0.31444782 0.22648227 0.35768393 0.40523803 0.18120041 0.4003748
0.4607545 0.14550345 0.11004619 0.20613569 0.20333478 0.27294937 0.32946977 0.056986798
00000000: 04cb e63e 21a1 b13e 82fc f03d 72b6 2c3e
00000010: d4ce 223e f81c 9e3d e8c0 973e a8fe 693d
00000020: c80f be3e ecba e23d 4bb5 6d3e 75c0 cf3e
00000030: cd6c 9f3d 2be1 0f3e 27f8 0d3e c0bd c03e
00000040: 809a 263e 639d 493e 0e7d c33e ea11 853e
00000050: 93d7 733e ad56 0e3e ccf4 273e fb58 233e
00000060: 4c6a 103e 4b5e 323e 0e25 1e3e 00a1 863e
00000070: 524e a53d d918 5b3d 7c57 e83e 54ad be3d
00000080: 7154 873e 756d b33e 4eff a03e f8ea 673e
00000090: 5922 b73e 5c7b cf3e 9a8c 393e edfd cc3e
000000a0: 04e8 eb3e dbfe 143e e65f e13d 3c15 533e
000000b0: fe36 503e 05c0 8b3e 43b0 a83e fd6a 693d

backbone.2.conv.0.1.bias f4 [48]
-0.021670692 0.028545234 0.2477164 0.37608817 0.2662371 0.29464447 0.005236535 0.032337375
-0.04336223 0.16623901 -0.03503926 0.05013135 0.20846345 0.17285939 0.20660503 -0.059787843
-0.10824723 0.15338358 0.045470934 0.30766514 0.26737598 0.16035685 0.14960477 0.199427
0.16729705 0.02289621 0.13810295 -0.340829 0.27737793 0.2461087 -0.023326423 0.20475739
0.039855335 0.029049806 0.08432674 0.15906209 -0.030761644 0.028626904 0.17096616 0.047621205
0.013329974 0.17386775 0.29406086 0.13523483 0.13603427 -0.057850916 0.19711092 0.24602394
00000000: bc86 b1bc b2d7 e93c 5ea9 7d3e a18e c03e
00000010: 3b50 883e a4db 963e 3d97 ab3b 3274 043d
00000020: 989c 31bd 8f3a 2a3e 5485 0fbd 8856 4d3d
00000030: 7177 553e 0d02 313e 4590 533e 19e4 74bd
00000040: b9b0 ddbd 9610 1d3e bb3f 3a3d 4986 9d3e
00000050: 81e5 883e 9634 243e fe31 193e 9736 4c3e
00000060: eb4f 2b3e d590 bb3c dc6a 0d3e 2481 aebe
00000070: 7b04 8e3e eb03 7c3e 0e17 bfbc ecab 513e
00000080: 593f 233d dcf9 ed3c 7fb3 ac3d 2ce1 223e
00000090: d8ff fbbc f882 ea3c c111 2f3e 740e 433d
000000a0: f765 5a3c 630a 323e 258f 963e 007b 0a3e
000000b0: 914c 0b3e 15f5 6cbd 72d7 493e b3ed 7b3e

backbone.2.conv.0.1.running_mean f4 [48]
-8.045578e-06 2.1506821e-05 -2.3219183e-05 -4.0040018e-06 1.2881584e-05 -3.7672405e-06 7.55863e-06 8.6723885e-06
5.2680898e-05 -6.9892965e-05 5.703897e-06 -3.307889e-05 -9.802976e-06 4.7953955e-07 5.6105928e-05 -2.1080314e-05
2.9116598e-05 -4.302906e-06 -4.812638e-05 -1.9023642e-05 1.6518738e-05 6.0182e-05 -2.7465545e-05 6.0909893e-05
-6.6979746e-06 8.6143235e-05 -2.1365233e-05 -3.9706836e-05 -7.696598e-06 5.9540223e-05 -7.635032e-05 -9.2019145e-06
-8.456e-05 7.2657014e-05 8.343129e-07 -8.638621e-05 -2.5170271e-05 -4.6799232e-05 -4.4202156e-05 5.7191315e-05
1.52380135e-05 -4.78244e-05 1.5642996e-05 -0.00011067899 -0.00010363303 -5.8774585e-06 -1.20345485e-05 4.359093e-05
00000000: 7ffb 06b7 8c69 b437 d1c6 c2b7 1d5a 86b6
00000010: fb1d 5837 b3d0 7cb6 23a0 fd36 a07f 1137
00000020: aff5 5c38 8093 92b8 1a64 bf36 30be 0ab8
00000030: 7677 24b7 b5b9 0035 4853 6b38 a1d5 b0b7
00000040: 6b3f f437 ae61 90b6 4fdb 49b8 f694 9fb7
00000050: b891 8a37 ee6b 7c38 cf65 e6b7 8079 7f38
00000060: 2abf e0b6 cca7 b438 7d39 b3b7 e48a 26b8
00000070: a320 01b7 d4ba 7938 441e a0b8 ec61 1ab7
00000080: ce55 b1b8 705f 9838 8cf5 5f35 3e2a b5b8
00000090: bf24 d3b7 4b4a 44b8 b465 39b8 b5e0 6f38
000000a0: c5a6 7f37 0f97 48b8 1439 8337 551c e8b8
000000b0: 8f55 d9b8 fc36 c5b6 fee7 49b7 68d5 3638

backbone.2.conv.0.1.running_var f4 [48]
0.13070711 0.07645688 0.09657595 0.15231666 0.09764247 0.096255176 0.082799956 0.01245256
0.1334835 0.03465404 0.07484929 0.16783437 0.038022235 0.07748727 0.06884903 0.09523718
0.048457067 0.059019327 0.12400536 0.26553735 0.033065964 0.058894515 0.027662825 0.029313557
0.021899486 0.06590885 0.045292586 0.06256424 0.10340542 0.020501537 0.18895596 0.07615401
0.062256895 0.098058306 0.12284979 0.08125098 0.1668017 0.15581661 0.042027716 0.15349369
0.036626574 0.13767491 0.056663528 0.09457248 0.082030565 0.1389866 0.14215685 0.08940297
00000000: 16d8 053e 6d95 9c3d 9dc9 c53d e6f8 1b3e
00000010: c6f8 c73d 6f21 c53d 0693 a93d d205 4c3c
00000020: e6af 083e 65f1 0d3d 964a 993d c6dc 2b3e
00000030: 34bd 1b3d a5b1 9e3d b800 8d3d b60b c33d
00000040: eb7a 463d 40be 713d 86f6 fd3d 83f4 873e
00000050: 2d70 073d 603b 713d 269d e23c fc22 f03c
00000060: 8d66 b33c 38fb 863d b884 393d ae21 803d
00000070: 39c6 d33d d7f2 a73c ac7d 413e a2f6 9b3d
00000080: 1601 7f3d cbd2 c83d ac98 fb3d ea66 a63d
00000090: 11ce 2a3e 648e 1f3e 4125 2c3d 732d 1d3e
000000a0: bf05 163d a7fa 0c3e 0418 683d 37af c13d
000000b0: a4ff a73d 8152 0e3e 9191 113e e818 b73d

backbone.2.conv.1.0.weight f4 [48, 1, 3, 3]
-0.016703708 -0.20776057 -0.19999973 -0.014894047 -0.20658009 -0.15376893 0.04073197 -0.0955711
-0.054842763 -0.07903229 -0.03936852 0.026932381 -0.18263976 -0.21232477 -0.14921145 -0.08436544
-0.06449337 -0.10472835 -0.11632497 -0.06394751 -0.017427396 0.1941854 0.44991082 0.25514954
-0.023189755 -0.08073259 -0.27377367 0.12686251 0.21100186 0.10026882 0.2593889 0.42868742
0.0628727 0.13306798 0.12189889 -0.0219709 -0.06964185 -0.35323486 -0.28056416 -0.00742743
-0.027339073 0.050711423 0.056109346 0.26104054 0.22534399 0.07993389 0.28151914 0.12699448
-0.017105035 -0.06226829 -0.048589025 -0.123211615 -0.22289906 -0.2894921 0.03545254 -0.061919324
-0.11584373 0.07881096 -0.15261015 -0.33561277 0.06715592 -0.038778514 -0.26760387 -0.07626844
-0.004512619 0.002961955 -0.08770724 0.05936094 -0.043145195 -0.14705953 0.0121204145 -0.09109016
-0.046588987 0.05136279 0.12449467 0.072429314 0.1989404 0.21061213 0.20949003 0.2936465
0.08153004 -0.16024338 0.24352966 -0.04648306 0.03276198 0.12535192 0.024706768 0.11672502
-0.37515113 0.053608935 0.101408556 0.08995735 0.038410176 0.048459437 0.16687953 0.1050548
0.01600726 0.13811922 0.18751055 -0.10464409 -0.22364026 -0.011718006 -0.21202971 -0.2870793
0.016520869 -0.080266565 -0.07269254 0.012013424 -0.022108262 0.10106297 0.03725078 0.12814735
-0.41745538 -0.0050261132 -0.121958226 0.2807375 -0.002844252 -0.06554351 0.10277489 -0.09066639
-0.16382264 0.33416894 -0.13506101 0.013969843 0.19795452 -0.23740365 -0.0501861 -0.075094946
0.03589096 0.1547524 0.34579277 0.082645416 -0.12766762 -0.32829434 -0.13488764 -0.09172865
-0.061034843 0.12514931 -0.15495843 -0.27736044 0.0038040436 0.04054771 -0.29034227 -0.021641321
-0.06950797 -0.039111555 0.13406637 0.0038734407 0.17350554 0.18579692 0.12525035 0.15905805
0.15192796 0.21709429 0.12745042 0.039684214 0.1931692 0.13236652 0.037980255 0.08278548
0.12649778 0.022564182 -0.14754033 0.005017547 0.07715711 -0.14657561 -0.28991702 -0.1035863
0.12062891 -0.09716394 -0.09489896 -0.05196907 -0.15068506 -0.07100079 -0.080113746 -0.29503962
-0.10334377 0.08543052 -0.25413465 -0.14128208 0.034339037 0.07359426 0.041569542 0.10683895
0.33589473 0.03653546 0.16701944 0.15577854 -0.21917787 -0.17830898 -0.063857324 0.11849248
-0.27318788 -0.14078912 0.20854849 -0.16849518 -0.16273414 0.042808734 0.04671325 -0.30915242
0.044898115 -0.19141588 0.48379567 -0.09070281 0.13537025 -0.14597614 0.04879714 -0.016857328
0.08992274 -0.08307272 0.04356214 -0.4851429 0.32046387 -0.020277742 0.32541615 -0.2506158
-0.010362344 0.006825538 0.16111587 -0.124481745 -0.31390357 -0.21582118 0.16463247 0.26246107
0.05659247 0.025774205 0.1629325 0.13722959 0.03649905 0.2568033 0.16650414 0.033646483
0.3119204 0.057214726 -0.0133622335 -0.18740058 -0.07840552 0.15418711 0.31704748 0.12877683
-0.12256494 -0.15625109 -0.04761878 0.087628014 0.18553856 0.06486846 0.053906668 0.26561895
0.13917644 -0.0132602565 0.02966382 -0.05308744 0.062174894 0.1924735 0.13101627 0.046161428
00000000: 37d6 88bc 30bf 54be bbcc 4cbe 2906 74bc
00000010: bb89 53be 9a75 1dbe 91d6 263d c8ba c3bd
00000020: cea2 60bd aedb a1bd e340 21bd 4ca1 dc3c
00000030: eb05 3bbe aa6b 59be e3ca 18be cac7 acbd
00000040: 1a15 84bd d17b d6bd c93b eebd eaf6 82bd
00000050: e6c3 8ebc 8ad8 463e b65a e63e f6a2 823e
00000060: 71f8 bdbc 2157 a5bd 102c 8cbe 3fe8 013e
00000070: df10 583e bd59 cd3d 9fce 843e eb7c db3e
00000080: 67c3 803d f942 083e 20a6 f93d 51fc b3bc
00000090: 63a0 8ebd 33db b4be 1ba6 8fbe cc61 f3bb
000000a0: 31f6 dfbc c8b6 4f3d ead2 653d 1ba7 853e
000000b0: 93c0 663e 61b4 a33d 4723 903e d70a 023e
000000c0: dc1f 8cbc 090d 7fbd 4905 47bd 5f56 fcbd
000000d0: a73f 64be 4f38 94be af36 113d 1e9f 7dbd
000000e0: 7a3f edbd a467 a13d d645 1cbe 70d5 abbe
000000f0: 0b89 893d 38d6 1ebd 6003 89be a132 9cbd
00000100: 98de 93bb 5c1d 423b da9f b3bd 7524 733d
00000110: 04b9 30bd c696 16be b494 463c 7a8d babd
00000120: 18d4 3ebd ca61 523d 10f7 fe3d d255 943d
00000130: 08b7 4b3e b5aa 573e 8e84 563e d658 963e
00000140: 39f9 a63d d716 24be d75f 793e 0565 3ebd
00000150: 6d31 063d 415c 003e d965 ca3c 870d ef3d
00000160: cf13 c0be 0b95 5b3d 4aaf cf3d 8f3b b83d
00000170: fd53 1d3d 677d 463d 78e2 2a3e f926 d73d
00000180: a821 833c 206f 0d3e c402 403e a44f d6bd
00000190: f401 65be e1fc 3fbc 511e 59be 0ffc 92be
000001a0: c656 873c cc62 a4bd d4df 94bd f4d3 443c
000001b0: 631c b5bc 1afa ce3d 4694 183d 0f39 033e
000001c0: b6bc d5be 18b2 a4bb 3cc5 f9bd d3bc 8f3e
000001d0: a166 3abb ad3b 86bd a47b d23d 4daf b9bd
000001e0: 1fc1 27be 3118 ab3e 6f4d 0abe c5e1 643c
000001f0: 97b4 4a3e f119 73be f18f 4dbd 61cb 99bd
00000200: 6602 133d 6a77 1e3e c00b b13e 0042 a93d
00000210: 4dbb 02be 3216 a8be fc1f 0abe 3bdc bbbd
00000220: acff 79bd 2427 003e 6cad 1ebe 3002 8ebe
00000230: 434d 793b 5b15 263d bea7 94be 2449 b1bc
00000240: 325a 8ebd 7033 20bd b248 093e 8dd9 7d3b
00000250: 70ab 313e 8c41 3e3e a141 003e 1de0 223e
00000260: 0193 1b3e f74d 5e3e 5d82 023e ea8b 223d
00000270: 26ce 453e 178b 073e 2f91 1b3d 6f8b a93d
00000280: a288 013e 85d8 b83c d014 17be 3c6a a43b
00000290: 8c04 9e3d eb17 16be 0170 94be 0e25 d4bd
000002a0: 4a0c f73d e3fd c6bd 635a c2bd 85dd 54bd
000002b0: 2f4d 1abe dd68 91bd ad12 a4bd 6f0f 97be
000002c0: e6a5 d3bd 32f6 ae3d f01d 82be 40ac 10be
000002d0: 17a7 0c3d 96b8 963d d344 2a3d 61ce da3d
000002e0: 65fa ab3e 35a6 153d 2507 2b3e 6984 1f3e
000002f0: 2a70 60be a196 36be a1c7 82bd 2fac f23d
00000300: 48df 8bbe 062b 10be bc8d 553e 008a 2cbe
00000310: c7a3 26be 3658 2f3d 6556 3f3d 3a49 9ebe
00000320: 16e7 373d 8602 44be 11b4 f73e 65c2 b9bd
00000330: 809e 0a3e c57a 15be 83df 473d 6118 8abc
00000340: 6a29 b83d 0822 aabd 376e 323d a664 f8be
00000350: d713 a43e 821d a6bc f29c a63e b750 80be
00000360: d2c6 29bc c3a8 df3b 8ffb 243e 49f0 febd
00000370: f8b7 a0be 3a00 5dbe 6a95 283e 4c61 863e
00000380: 81cd 673d 6d24 d33c c7d7 263e ea85 0c3e
00000390: 0780 153d b97b 833e 1080 2a3e e5d0 093d
000003a0: 08b4 9f3e fd59 6a3d 45ed 5abc f0e5 3fbe
000003b0: 1393 a0bd 3ae3 1d3e 0c54 a23e 13de 033e
000003c0: 5403 fbbd 4900 20be e90b 43bd 5176 b33d
000003d0: d2fd 3d3e c1d9 843d 3dcd 5c3d 35ff 873e
000003e0: 4584 0e3e 8c41 59bc 8a01 f33c 3772 59bd
000003f0: 1aab 7e3d c617 453e 2129 063e c413 3d3d

backbone.2.conv.1.1.weight f4 [48]
0.5169292 0.3409835 0.37410718 0.21198887 0.37376863 0.37099376 0.15892223 0.17760092
0.1874313 0.25746566 0.19960785 0.48854205 0.30897063 0.25232548 0.3841947 0.2743315
0.27713028 0.30429062 0.5364194 0.5770293 0.21684293 0.24883255 0.28121728 0.2577468
0.34636405 0.21072653 0.36407638 0.20879291 0.22992074 0.19593395 0.5744164 0.2516805
0.30324107 0.20603216 0.20754382 0.34253865 0.21220864 0.40389797 0.32141873 0.35742542
0.40569022 0.25327295 0.42788273 0.34774363 0.3466588 0.15053631 0.35999793 0.32354105
00000000: 7955 043f 6495 ae3e fa8a bf3e 9c13 593e
00000010: 9a5e bf3e e5f2 bd3e 82bc 223e 04dd 353e
00000020: feed 3f3e 8ad2 833e 0066 4c3e 2f22 fa3e
00000030: 6631 9e3e ce30 813e 2bb5 c43e 2e75 8c3e
00000040: 05e4 8d3e fbcb 9b3e c852 093f 31b8 133f
00000050: 130c 5e3e f6cd 7e3e b6fb 8f3e 63f7 833e
00000060: a156 b13e b2c8 573e 3868 ba3e cfcd 553e
00000070: 5870 6b3e e9a2 483e f40c 133f 44dc 803e
00000080: 6a42 9b3e 18fa 523e 5e86 543e 3a61 af3e
00000090: 394d 593e b7cb ce3e ff90 a43e 7700 b73e
000000a0: a1b6 cf3e feac 813e 7213 db3e 740b b23e
000000b0: 437d b13e 3126 1a3e a651 b83e 2ca7 a53e

backbone.2.conv.1.1.bias f4 [48]
-0.028451158 -0.09809474 0.0147046 0.7038981 0.012428201 0.027672013 0.6088029 -0.24391462
0.0784364 -0.074234605 0.048468012 0.22866488 -0.007145234 -0.03746945 -0.010910071 0.014020711
0.100767665 -0.09698694 0.106643334 -0.02708432 0.41514224 -0.056653235 -0.001950437 -0.0067275665
-0.0056833546 0.05963845 -0.00879436 0.091435164 0.27706417 -0.037454132 -0.086486146 0.0061811004
0.0038833495 0.682102 0.60952896 -0.03866203 0.59696025 0.3508361 -0.005559798 0.24106583
0.25496244 0.012137966 -0.0015797704 -0.025580447 -0.06991446 0.16111149 0.08537047 -0.091995984
00000000: 6712 e9bc e5e5 c8bd 90eb 703c aa32 343f
00000010: a79f 4b3c 6bb0 e23c 82da 1b3f c1c4 79be
00000020: 43a3 a03d 5008 98bd 6586 463d 2027 6a3e
00000030: 9122 eabb 9179 19bd 28c0 32bc 20b7 653c
00000040: 475f ce3d 17a1 c6bd d267 da3d f0df ddbc
00000050: 868d d43e 390d 68bd cea5 ffba eb72 dcbb
00000060: 6f3b babb 7347 743d 3816 10bc 5c42 bb3d
00000070: 5bdb 8d3e 8169 19bd a61f b1bd d48a ca3b
00000080: cb7f 7e3b 3d9e 2e3f 170a 1c3f 145c 1ebd
00000090: 63d2 183f caa0 b33e f72e b6bb f6d9 763e
000000a0: 708a 823e 52de 463c 4c10 cfba 168e d1bc
000000b0: 502f 8fbd 69fa 243e b7d6 ae3d 6468 bcbd

backbone.2.conv.1.1.running_mean f4 [48]
-0.11519234 -0.096397124 0.08171823 0.5309366 -0.036168255 -0.08482412 -0.078935355 -0.0129587855
0.12375 0.0009059109 0.04857275 -0.14233042 -0.00497227 -0.014283343 -0.019918239 -0.063378364
0.018786354 0.15722445 -0.09587837 -0.34123355 0.19299571 -0.1013694 0.0037020398 -0.0151406685
-0.0028173616 0.075406566 -0.0020217588 0.0037477086 0.27664354 0.013798306 -0.14140663 0.101705015
0.059099223 -0.12740567 -0.17574604 0.012104545 -0.10633641 -0.14741938 -0.0018436202 0.17973296
-0.1472359 0.19173834 -0.06753243 0.06969913 0.029870704 0.09191649 -0.2355062 0.05973912
00000000: f6e9 ebbd db6b c5bd e35b a73d 76eb 073f
00000010: 2a25 14bd 45b8 adbd dca8 a1bd 1651 54bc
00000020: a470 fd3d a77a 6d3a 38f4 463d 11bf 11be
00000030: 6dee a2bb af04 6abc 932b a3bc 84cc 81bd
00000040: d7e5 993c 72ff 203e e15b c4bd 2ab6 aebe
00000050: aba0 453e c39a cfbd ec9d 723b 9110 78bc
00000060: 7ca3 38bb c26e 9a3d 7c7f 04bb 1e9c 753b
00000070: 39a4 8d3e 4a12 623c e6cc 10be b84a d03d
00000080: 0712 723d a276 02be c5f6 33be 2452 463c
00000090: e7c6 d9bd 1bf5 16be a1a5 f1ba eb0b 383e
000000a0: 02c5 16be 0e57 443e 714e 8abd 6bbe 8e3d
000000b0: 68b3 f43c b63e bc3d 8a28 71be 02b1 743d

backbone.2.conv.1.1.running_var f4 [48]
0.029232137 0.015329036 0.0048609055 0.025219934 0.012480165 0.0034392425 0.018241093 0.00022215322
0.041634813 0.0011351312 0.0038353002 0.039040864 0.000991881 0.0037072448 0.00985894 0.01341756
0.0023217609 0.012713003 0.019111507 0.029868089 0.014443921 0.0065971343 0.0034140963 0.0058860998
0.0080600185 0.008292975 0.0056807194 0.00028110069 0.003125604 0.00021397424 0.037406154 0.0024892888
0.0053514168 0.02872534 0.030784493 0.009805544 0.011223132 0.04979366 0.0039260583 0.089463405
0.048880793 0.004771346 0.004650231 0.006756566 0.0054313983 0.009927635 0.016394768 0.00039828455
00000000: 3c78 ef3c a326 7b3c 3b48 9f3b 099a ce3c
00000010: 9b79 4c3c ea64 613b 586e 953c cdf1 6839
00000020: 4489 2a3d afc8 943a a959 7b3b 50e9 1f3d
00000030: 0102 823a 3ff5 723b 6487 213c 53d5 5b3c
00000040: af28 183b 334a 503c bc8f 9c3c ecad f43c
00000050: 32a6 6c3c c62c d83b 08bf 5f3b 2fe0 c03b
00000060: 2b0e 043c 42df 073c 5425 ba3b b260 9339
00000070: efd6 4c3b 465e 6039 3237 193d 5623 233b
00000080: f05a af3b 6751 eb3c c32f fc3c 6fa7 203c
00000090: 3ae1 373c 70f4 4b3d 2aa6 803b 9738 b73d
000000a0: 3a37 483d f458 9c3b f760 983b 2f66 dd3b
000000b0: dff9 b13b 85a7 223c 524e 863c d9d0 d039

backbone.2.conv.2.weight f4 [8, 48, 1, 1]
0.119480744 0.25430954 -0.0011950397 0.19021383 0.3601901 -0.08020437 0.16265811 -0.1468163
-0.0939304 -0.09156168 0.073314 0.35063726 0.012217742 -0.07223935 0.117625736 0.27313074
-0.22660878 0.0019774712 0.30551973 0.3801614 -0.06358524 -0.050777912 0.012144307 0.03749421
0.15556933 -0.041451037 0.1403384 -0.18160573 -0.1879514 -0.03495141 -0.08851938 -0.0018292089
-0.062695116 0.28390047 0.16185354 -0.092413366 0.2062867 0.28859508 0.06597229 -0.0656503
0.095893435 -0.0329566 0.1601541 -0.13762054 -0.05837738 -0.19322845 0.027820332 -0.027560225
0.04079562 0.24005535 0.25282553 -0.32401192 0.16928953 0.21626835 0.1362854 -0.0017821607
-0.026873723 -0.0462589 0.089594804 -0.14952135 -0.05764526 -0.15265478 0.09711737 0.1694195
-0.106353395 0.07729891 -0.09914902 -0.038333457 -0.10176712 -0.21984984 -0.0022652384 -0.025735267
0.07738604 -0.072631694 0.16215833 -0.052724767 0.19580019 -0.049502086 0.038758148 -0.1986557
-0.10988803 0.1385752 -0.055215858 -0.11377429 0.42944583 -0.35578826 0.020027392 -0.28243384
-0.14503112 0.11315898 -0.028714046 -0.14855379 -0.125581 -0.17832197 -0.05643223 -0.20782545
0.14002617 -0.015373612 0.027141325 -0.24604261 0.18147135 -0.25698 -0.10604084 0.019551435
-0.12140562 0.18924056 -0.03707595 -0.30933446 0.2941468 -0.20553598 -0.10391219 0.01132519
0.1516526 -0.08995068 0.083635956 0.093358845 0.06025484 -0.004367459 0.24143317 0.24427277
-0.10283859 -0.14788176 -0.16184857 0.17062606 0.15662871 0.23188014 0.044832792 0.031944297
-0.27739337 0.23156554 0.18002318 -0.17099324 -0.14215332 0.21268685 0.22895734 -0.1706359
-0.022280177 -0.1858652 0.0068488163 -0.1232764 -0.33910272 0.17350686 -0.37473243 0.22909538
0.041583214 0.24970153 0.08486878 0.32482922 -0.1250128 0.12519757 -0.042153813 0.03507823
-0.15571499 -0.009747751 0.23078854 -0.19780393 0.03802979 0.045432024 0.17927168 0.060585987
0.004388859 0.037604902 0.015127574 -0.25835818 -0.122805685 0.05988884 0.08378853 0.07219667
0.16057171 -0.078816935 0.14100441 0.07255754 -0.17482194 -0.0023381624 0.3365235 0.14726274
-0.060155425 -0.08835431 0.25329122 -0.0034435776 0.0965494 0.22006194 0.07034036 -0.09278859
-0.16410898 0.3132928 0.36281356 0.015625298 -0.025242282 -0.07786326 -0.3548657 0.10420261
-0.036176886 -0.13762051 0.18266776 0.07190153 0.16650641 -0.023423368 -0.24220383 0.040389277
-0.005822369 -0.070316404 0.18290265 0.22813378 0.18252748 0.029641666 0.29296255 -0.108923845
-0.090463854 -0.2936656 0.008697731 -0.21054697 -0.17553107 0.06464205 0.070185944 0.10559371
0.27294347 0.111058496 0.28380165 -0.1650758 -0.05755136 -0.10860132 -0.18112274 -0.13577764
0.15248634 -0.15371436 0.12069633 0.18608259 -0.05726285 -0.08493769 0.2386269 -0.08883993
-0.17598553 0.061195645 0.0039242953 0.14704593 0.07683222 0.14446935 -0.11187282 -0.26403722
0.04811311 0.05410348 0.25562096 0.0695166 0.26482552 0.14249568 0.23653996 -0.049124572
-0.21875143 0.18190321 0.0077688396 -0.38425517 0.29347768 0.07069476 0.17973515 -0.08973245
00000000: 52b2 f43d dc34 823e e1a2 9cba 6ac7 423e
00000010: d66a b83e 3042 a4bd d98f 263e 0357 16be
00000020: 955e c0bd b184 bbbd a725 963d ba86 b33e
00000030: ed2c 483c 39f2 93bd c3e5 f03d cbd7 8b3e
00000040: 220c 68be 7698 013b 156d 9c3e 84a4 c23e
00000050: fa38 82bd 80fc 4fbd eaf8 463c 8793 193d
00000060: 914d 1f3e 90c8 29bd dfb4 0f3e daf6 39be
00000070: 5576 40be 3629 0fbd a649 b5bd 11c2 efba
00000080: 4c66 80bd 675b 913e efbc 253e 3843 bdbd
00000090: d23c 533e bcc2 933e 7b1c 873d aa73 86bd
000000a0: c763 c43d 80fd 06bd 70ff 233e 66ec 0cbe
000000b0: 1f1d 6fbd aedd 45be 77e7 e33c fbc5 e1bc
000000c0: 4f19 273d 12d1 753e 5972 813e e4e4 a5be
000000d0: 3c5a 2d3e 7375 5d3e 668e 0b3e 6497 e9ba
000000e0: 4826 dcbc f979 3dbd 7b7d b73d 201c 19be
000000f0: 701d 6cbd 8951 1cbe 79e5 c63d 4e7c 2d3e
00000100: cfcf d9bd e44e 9e3d a40e cbbd 8b03 1dbd
00000110: 486b d0bd 5120 61be 6574 14bb c4d2 d2bc
00000120: 927c 9e3d edbf 94bd d50c 263e edf5 57bd
00000130: d87f 483e b3c2 4abd ddc0 1e3d 666c 4bbe
00000140: fa0c e1bd a8e6 0d3e 062a 62bd 7f02 e9bd
00000150: 53e0 db3e e129 b6be 7c10 a43c 2b9b 90be
00000160: 0a83 14be e5bf e73d b839 ebbc 7c1e 18be
00000170: 4e98 00be 099a 36be 7b25 67bd 32d0 54be
00000180: 0563 0f3e 9ae1 7bbc 7c57 de3c 98f2 7bbe
00000190: a0d3 393e e292 83be f12b d9bd 552a a03c
000001a0: 82a3 f8bd 47c8 413e f4dc 17bd 1661 9ebe
000001b0: 699a 963e 0678 52be eacf d4bd 4a8d 393c
000001c0: d24a 1b3e 1038 b8bd 5449 ab3d ec32 bf3d
000001d0: c7cd 763d e71c 8fbb 423a 773e a422 7a3e
000001e0: 0a9d d2bd 516e 17be a2bb 25be 99b8 2e3e
000001f0: 4763 203e fd71 6d3e 97a2 373d 06d8 023d
00000200: 8106 8ebe 841f 6d3e ff57 383e da18 2fbe
00000210: a490 11be 95ca 593e cb73 6a3e 2dbb 2ebe
00000220: eb84 b6bc 7253 3ebe 096c e03b 5678 fcbd
00000230: df9e adbe c8ab 313e eedc bfbe fb97 6a3e
00000240: 2953 2a3d c2b1 7f3e afcf ad3d 0450 a63e
00000250: 5b03 00be cb33 003e 7aa9 2cbd 31ae 0f3d
00000260: c073 1fbe 08b5 1fbc d553 6c3e 1d8d 4abe
00000270: 20c5 1b3d ee16 3a3d ff92 373e 0329 783d
00000280: 6bd0 8f3b 9907 1a3d a5d9 773c 8647 84be
00000290: 8c81 fbbd 004e 753d 5299 ab3d d9db 933d
000002a0: e96c 243e c66a a1bd 7663 103e 0c99 943d
000002b0: 8604 33be db3b 19bb cf4c ac3e 0bcc 163e
000002c0: 8965 76bd 1bf3 b4bd 63af 813e a5ad 61bb
000002d0: b1bb c53d eb57 613e 9b0e 903d f207 bebd
000002e0: 2f0c 28be ea67 a03e b3c2 b93e a000 803c
000002f0: e7c8 cebc c676 9fbd f5b0 b5be 2e68 d53d
00000300: 372e 14bd 64ec 0cbe 420d 3b3e 1c41 933d
00000310: a880 2a3e 5de2 bfbc 4804 78be 3a6f 253d
00000320: 92c9 bebb 0c02 90bd d54a 3b3e e79b 693e
00000330: 7ce8 3a3e 14d3 f23c 30ff 953e 7713 dfbd
00000340: 1d45 b9bd 565b 96be ee80 0e3c a099 57be
00000350: 6bbe 33be 0d63 843d a6bd 8f3d 8441 d83d
00000360: 3fbf 8b3e a372 e33d 734e 913e a109 29be
00000370: faba 6bbd 5e6a debd 3d78 39be 4b09 0bbe
00000380: 6125 1c3e 4c67 1dbe a32f f73d 6f8c 3e3e
00000390: 738c 6abd d0f3 adbd 9c5a 743e b6f1 b5bd
000003a0: 8d35 34be 49a8 7a3d 6097 803b 3593 163e
000003b0: 365a 9d3d c6ef 133e 941d e5bd e32f 87be
000003c0: 4112 453d 9c9b 5d3d c0e0 823e b85e 8e3d
000003d0: 3697 873e 63ea 113e 8837 723e d936 49bd
000003e0: 6000 60be d644 3a3e c091 fe3b 18bd c4be
000003f0: b542 963e 6ac8 903d 7e0c 383e a6c5 b7bd

backbone.2.conv.3.weight f4 [8]
0.55692786 0.45121434 0.42964837 0.43645534 0.42402193 0.56795114 0.43526152 0.64677745
00000000: d392 0e3f 9105 e73e dffa db3e 1377 df3e
00000010: 6719 d93e 3f65 113f 99da de3e 3593 253f

backbone.2.conv.3.bias f4 [8]
1.0614174e-07 -3.6773545e-05 2.3771841e-05 0.00020815717 7.2629864e-06 4.2710286e-05 4.5147925e-05 3.2280965e-05
00000000: 0af0 e333 4b3d 1ab8 a469 c737 c444 5a39
00000010: 94b4 f336 d223 3338 375d 3d38 6c65 0738

backbone.2.conv.3.running_mean f4 [8]
1.0072609 -0.14640638 -0.05899436 0.34662655 -0.19234629 0.44492215 -0.059313096 0.14563891
00000000: eded 803f 8eeb 15be 12a4 71bd 0979 b13e
00000010: 6df6 44be d6cc e33e 4af2 72bd 5e22 153e

backbone.2.conv.3.running_var f4 [8]
0.12356858 0.0753762 0.11303238 0.047883898 0.057385456 0.13399784 0.0624988 0.15147236
00000000: 8611 fd3d d65e 9a3d 857d e73d e821 443d
00000010: 030d 6b3d bb36 093e befe 7f3d 921b 1b3e
