ML Model/tv_detection_epoch_150/e-148-0.629.pth (torch, 508597 bytes, 205 tensors)

backbone.0.0.weight f4 [16, 3, 3, 3]
-3.4909e-41 -4.1958e-41 -3.6916e-41 6.4754e-41 7.7134e-41 6.5243e-41 6.5005e-41 8.1841e-41
6.0867e-41 -3.9379e-41 3.0481e-41 8.11e-41 -3.2385e-41 2.4664e-41 -7.7846e-41 -3.2629e-41
-7.5272e-41 -7.4335e-41 -7.0375e-41 -1.8263e-41 2.6534e-41 -1.4466e-41 -6.0138e-41 -7.7814e-41
-9.377e-42 7.1166e-41 -4.7217e-41 0.020593418 0.01692224 -0.073673435 0.14468995 0.3347303
0.0019995295 -0.13236924 -0.19009931 0.0043080044 -0.05004367 -0.013001936 -0.18001693 0.2968143
0.69446295 0.06036927 -0.31908435 -0.5384137 -0.09771265 0.17149867 0.16797441 0.043672748
0.19923331 0.30251053 0.08275061 -0.14715803 -0.19658275 -0.08395246 -0.07848456 0.13718118
0.05913266 -0.3857451 0.7664033 -0.17930596 -0.6341064 0.9146531 -0.23010127 -0.13280022
0.1647195 -0.0374212 -0.81809306 1.2993902 -0.44995344 -1.0226331 1.4115965 -0.4605637
-0.06020055 -0.009666344 0.061977025 -0.24284676 0.4090396 -0.08789942 -0.2967997 0.44012344
-0.14445475 -0.043096896 -0.0062531293 0.065119654 0.058032095 0.22925772 -0.29678684 0.013188348
0.2963016 -0.31376538 -0.018876426 -0.031453874 0.079847775 0.054750104 0.5633276 -0.5746868
0.04120043 0.6251014 -0.6498142 0.011836037 0.01938486 -0.076993175 0.13374737 0.182421
-0.20941606 0.05403778 0.13967936 -0.22755912 -0.09911063 -0.06939045 -0.111254856 0.010567595
-0.010353419 -0.13183159 0.12161682 0.028235598 -0.20092346 0.0807926 0.015221373 -0.07105184
0.16457644 -0.11286824 -0.2960593 0.18249713 -0.086237 -0.42872807 0.08488606 -0.074541815
-0.2059574 0.053796906 -0.13697624 -0.26676634 -0.013155188 -0.100580834 -0.23149608 0.17335099
0.18621649 -0.13079825 0.09133633 0.60607654 0.29891285 -0.21113947 0.5206586 0.6220231
0.12877609 -0.0124369925 0.09661503 0.047199916 -0.13346548 -0.036049496 0.014421149 -0.13426219
-0.051136088 -0.24965136 -0.18689345 0.036646854 -0.1845795 -0.5281746 -0.28622198 0.06886227
-0.476346 -0.56054336 0.18210018 0.118791476 0.036639232 0.5030657 -0.00024985985 -0.09195569
0.09983234 -0.09286172 0.0072069475 0.022250611 -0.030305993 -0.051547755 0.8487524 -0.08728781
-0.2869432 0.118834734 -0.23263575 -0.04060391 0.098271355 0.050076716 0.0048373607 0.26337
0.066445105 0.023832548 -0.08032212 -0.1081277 -0.008110621 0.03212482 0.03287723 -0.03381278
-0.014310375 0.10412218 0.29273358 -0.0048194677 0.08550954 0.35067177 -0.08615553 -0.1671064
-0.18265973 -0.058994476 0.07204821 0.30537632 -0.008668696 0.12700345 0.34021452 -0.04847014
-0.0024546636 0.022537975 0.03759684 0.18290092 0.3568631 0.09650405 0.19637299 0.32370296
0.046479765 0.04611651 -0.15156427 -0.18756056 0.6495338 -0.5340247 0.010675906 0.7128481
-0.66389966 -0.03864716 0.1701454 -0.21438086 -0.14498667 1.0362798 -0.9159981 -0.009395212
1.0166903 -0.9511257 0.0821188 0.04198459 0.00039336548 -0.097545035 0.4142571 -0.3420492
0.012407546 0.42228112 -0.37901604 -7.178e-41 -2.5163e-41 -2.704e-41 -6.9446e-41 -2.4287e-41
-7.6221e-41 -6.7774e-41 6.9368e-41 -6.4514e-41 -5.7698e-41 -7.7541e-41 7.2734e-41 -1.7698e-41
00000000: 5061 0080 f674 0080 e866 0080 82b4 0000
00000010: 05d7 0000 dfb5 0000 35b5 0000 24e4 0000
00000020: aca9 0000 c66d 0080 f854 0000 13e2 0000
00000030: 475a 0080 c144 0000 01d9 0080 f55a 0080
00000040: d4d1 0080 37cf 0080 2dc4 0080 e932 0080
00000050: f749 0000 5328 0080 a4a7 0080 ead8 0080
00000060: 241a 0080 62c6 0000 9f83 0080 87b3 a83c
00000070: 82a0 8a3c 19e2 96bd 9a29 143e c561 ab3e
00000080: 8a0a 033b cd8b 07be 65a9 42be 292a 8d3b
00000090: 97fa 4cbd 1206 55bc 5c56 38be 0bf8 973e
000000a0: 53c8 313f c545 773d 065f a3be 7bd5 09bf
000000b0: 921d c8bd 599d 2f3e 7c01 2c3e 32e2 323d
000000c0: d103 4c3e a9e2 9a3e 2779 a93d 98b0 16be
000000d0: fd4c 49be 44ef abbd 83bc a0bd 3979 0c3e
000000e0: 1735 723d 6280 c5be 0233 443f fb9b 37be
000000f0: cc54 22bf b526 6a3f ab9f 6bbe c8fc 07be
00000100: 3bac 283e f946 19bd 8c6e 51bf 6b52 a63f
00000110: 4c60 e6be a4e5 82bf 32af b43f 01cf ebbe
00000120: da94 76bd 965f 1ebc 9fdb 7d3d d2ac 78be
00000130: a36d d13e 9c04 b4bd 21f6 97be dc57 e13e
00000140: f2eb 13be 5f86 30bd 0de7 ccbb 745d 853d
00000150: 10b3 6d3d 89c2 6a3e 72f4 97be f113 583c
00000160: d8b4 973e dba5 a0be bca2 9abc c7d5 00bd
00000170: 3b87 a33d a541 603d 3d36 103f ad1e 13bf
00000180: c8c1 283d a506 203f 395a 26bf f0eb 413c
00000190: ffcc 9e3c 99ae 9dbd 12f5 083e 92cc 3a3e
000001a0: 2a71 56be b856 5d3d 1b08 0f3e 4205 69be
000001b0: 84fa cabd 951c 8ebd 96d9 e3bd b523 2d3c
000001c0: 63a1 29bc dcfe 06be 3d12 f93d 574e e73c
000001d0: e1be 4dbe 9776 a53d 1163 793c a183 91bd
000001e0: ba86 283e 7727 e7bd 1695 97be 87e0 3a3e
000001f0: 069d b0bd 3f82 dbbe bed8 ad3d 61a9 98bd
00000200: 7fe6 52be 255a 5c3d 8043 0cbe 9995 88be
00000210: dc88 57bc 53fd cdbd 4f0d 6dbe ec82 313e
00000220: 89af 3e3e faef 05be 8b0e bb3d d527 1b3f
00000230: 1b0b 993e f234 58be e249 053f e83c 1f3f
00000240: e1dd 033e 87c4 4bbc 1ade c53d b354 413d
00000250: 2dab 08be a3a8 13bd af46 6c3c 077c 09be
00000260: 1374 51bd 9ba4 7fbe ff60 3fbe 031b 163d
00000270: 6902 3dbe 7336 07bf b08b 92be a907 8d3d
00000280: 9fe3 f3be c57f 0fbf 7878 3a3e f248 f33d
00000290: 0513 163d eac8 003f 9fff 82b9 4453 bcbd
000002a0: e674 cc3d 492e bebd 4228 ec3b ea46 b63c
000002b0: 4644 f8bc bd23 53bd d647 593f f4c3 b2bd
000002c0: 38ea 92be a05f f33d 1138 6ebe 4950 26bd
000002d0: 7e42 c93d 3e1d 4d3d b982 9e3b 6fd8 863e
000002e0: 5f14 883d 7a3c c33c ec7f a4bd 0e72 ddbd
000002f0: 69e2 04bc 5195 033d 46aa 063d 457f 0abd
00000300: 1076 6abc 023e d53d 2de1 953e a0ec 9dbb
00000310: a01f af3d 408b b33e 4f72 b0bd f11d 2bbe
00000320: 270b 3bbe 31a4 71bd 038e 933d 495a 9c3e
00000330: 2507 0ebc 310d 023e 9930 ae3e a088 46bd
00000340: 6cde 20bb 8fa1 b83c 25ff 193d 614a 3b3e
00000350: c3b6 b63e eaa3 c53d 0016 493e 65bc a53e
00000360: 9161 3e3d aae4 3c3d aa33 1bbe e00f 40be
00000370: d947 263f d8b5 08bf ffe9 2e3c 377d 363f
00000380: 54f5 29bf 7c4c 1ebd 993a 2e3e a886 5bbe
00000390: 6377 14be d1a4 843f da7e 6abf 60ee 19bc
000003a0: e822 823f f97c 73bf e72d a83d 09f8 2b3d
000003b0: 9f3c ce39 b1c5 c7bd 8219 d43e 1321 afbe
000003c0: 0549 4b3c 3b35 d83e 640e c2be 18c8 0080
000003d0: 2546 0080 604b 0080 96c1 0080 b443 0080
000003e0: 79d4 0080 edbc 0080 5fc1 0000 d7b3 0080
000003f0: d7a0 0080 27d8 0080 c1ca 0000 5631 0080

backbone.0.1.weight f4 [16]
1.352e-41 0.09816501 0.11347187 0.28903157 0.1927422 0.21517576 0.12005395 0.2971239
0.09365692 -3.7716e-41 0.4209711 0.14978072 0.3096485 0.33366814 4.053e-42 0.08797888
00000000: b025 0000 bd0a c93d f163 e83d f2fb 933e
00000010: 365e 453e 0957 5c3e d8de f53d a020 983e
00000020: 33cf bf3d 2369 0080 8689 d73e 1e60 193e
00000030: 408a 9e3e 8dd6 aa3e 4c0b 0000 452e b43d

backbone.0.1.bias f4 [16]
6.1486e-41 0.5997247 0.40495193 0.23208128 0.852912 0.5661103 0.46465048 0.5014761
0.5382752 6.7503e-41 -0.26774448 0.87634724 0.33953542 -0.30883783 2.5138e-41 0.13124771
00000000: 66ab 0000 8f87 193f dc55 cf3e b7a6 6d3e
00000010: 7158 5a3f 9bec 103f abe6 ed3e bd60 003f
00000020: 67cc 093f 2cbc 0000 ce15 89be 4b58 603f
00000030: 96d7 ad3e fe1f 9ebe 1346 0000 cd65 063e

backbone.0.1.running_mean f4 [16]
6.439238e-39 55.0926 41.827763 11.561263 -194.1788 -70.48452 125.233665 237.72104
5.841431 3.149174e-38 -24.491983 197.3642 21.582466 68.82334 -5.102552e-39 -40.475166
00000000: fa1d 4600 d35e 5c42 a14f 2742 effa 3841
00000010: c62d 42c3 13f8 8cc2 a377 fa42 96b8 6d43
00000020: 01ed ba40 1475 2b01 95ef c3c1 3c5d 4543
00000030: e4a8 ac41 8da5 8942 d78f 3780 92e6 21c2

backbone.0.1.running_var f4 [16]
6e-45 2885.8892 10221.533 2053.8892 17394.346 10498.983 9871.453 25769.98
6256.5854 6e-45 3196.644 17657.969 2841.5537 3674.5469 6e-45 2173.2852
00000000: 0400 0000 3a5e 3445 22b6 1f46 3a5e 0045
00000010: b1e4 8746 ef0b 2446 d03d 1a46 f653 c946
00000020: af84 c345 0400 0000 4eca 4745 f0f3 8946
00000030: dc98 3145 c0a8 6545 0400 0000 90d4 0745

backbone.1.conv.0.0.weight f4 [16, 1, 3, 3]
2.363e-41 -7.1099e-41 5.2944e-41 7.7136e-41 -5.2615e-41 -3.5145e-41 4.2108e-41 2.7929e-41
7.7048e-41 -0.028621672 -0.027934048 0.025472345 0.017612256 -0.05348056 0.71548325 -0.012091206
0.03286004 -0.8509662 0.0046164924 -0.046283823 -0.1378271 -0.019413281 0.0442834 1.0393368
0.009625787 -0.078163095 -0.08376035 -0.056661505 -0.04069978 -0.070641056 0.012141633 0.8043132
-0.2811311 -0.00075777335 -0.037636615 -0.19848341 0.56915474 1.9270827 0.46215314 0.21507706
0.44252753 0.20528619 -0.84407943 -2.107204 -0.71748084 -0.22221376 0.0021279936 -0.2129043
0.12536608 0.37535235 -1.6363938 0.08131745 1.3190507 0.3939131 -0.063817695 0.081603415
-0.05166926 -0.0023988802 0.045251414 -0.7692269 0.015376515 0.072599344 1.0227782 -0.47854263
-0.276456 0.7289212 -2.359086 -0.36331272 2.598187 -0.42909396 -0.14256169 0.66012615
-0.044074774 0.014556042 -0.07759094 0.036956545 -0.9219732 0.13751033 0.06727544 0.016893702
-0.10111306 4.2457e-41 -5.48e-43 -2.2352e-41 3.6261e-41 2.9286e-41 5.3534e-41 4.844e-41
-7.1252e-41 2.484e-41 -0.014168545 -0.14665215 -0.3705239 -0.18459474 0.13959077 0.38800555
-0.32483366 0.34390247 0.49414864 0.18779007 1.559949 0.97680455 0.107732065 0.04419141
-0.11922346 -0.28146058 -1.6279864 -0.97094655 0.0039099744 0.029709691 -0.020570152 0.010214462
-0.018034771 -0.745047 -0.020903233 -0.008089742 0.7298299 -0.026282437 0.06318677 -0.18243743
0.05143572 0.11618645 -0.08582197 -0.17343366 -0.060673457 0.59647584 -2.1757e-41 2.4661e-41
-2.7796e-41 -2.5902e-41 -6.295e-41 -1.9994e-41 7.9975e-41 2.5603e-41 6.1828e-41 0.12930095
0.019849334 0.022170193 0.1373299 -0.054531917 -0.17918903 0.09935965 -0.1958205 -0.23895551
00000000: df41 0000 32c6 0080 9693 0000 06d7 0000
00000010: ab92 0080 f861 0080 6175 0000 db4d 0000
00000020: c7d6 0000 ff77 eabc f2d5 e4bc 61ab d03c
00000030: 9447 903c 6f0e 5bbd e929 373f 321a 46bc
00000040: 4098 063d ecd8 59bf f245 973b 1b94 3dbd
00000050: 8c22 0dbe 9a08 9fbc 8362 353d fd08 853f
00000060: 7ab5 1d3c f913 a0bd 8c8a abbd e515 68bd
00000070: d0b4 26bd 42ac 90bd b3ed 463c 78e7 4d3f
00000080: 6af0 8fbe 4fa5 46ba da28 1abd 3c3f 4bbe
00000090: 20b4 113f a5aa f63f 569f ec3e 293d 5c3e
000000a0: f892 e23e 8b36 523e 9715 58bf 6edc 06c0
000000b0: d3ac 37bf 018c 63be cf75 0b3b 9603 5abe
000000c0: f75f 003e 2f2e c03e 5a75 d1bf c389 a63d
000000d0: a7d6 a83f faae c93e dab2 82bd b11f a73d
000000e0: 25a3 53bd 8836 1dbb 8c59 393d 0eec 44bf
000000f0: c7ed 7b3c f7ae 943d 65ea 823f 8a03 f5be
00000100: a48b 8dbe 949a 3a3f 44fb 16c0 2004 babe
00000110: b248 2640 34b2 dbbe b1fb 11be 07fe 283f
00000120: c087 34bd 777c 6e3c 00e8 9ebd bf5f 173d
00000130: 7006 6cbf 82cf 0c3e b5c7 893d a964 8a3c
00000140: 5d14 cfbd 5a76 0000 8701 0080 4f3e 0080
00000150: 1565 0000 a351 0000 3b95 0000 0887 0000
00000160: 9fc6 0080 3e45 0000 2f23 68bc fb2b 16be
00000170: 4fb5 bdbe 6706 3dbe e2f0 0e3e aaa8 c63e
00000180: 9950 a6be fc13 b03e 0d01 fd3e 0a4c 403e
00000190: 69ac c73f dd0f 7a3f a1a2 dc3d 0d02 353d
000001a0: 6e2b f4bd 9a1b 90be dc61 d0bf f48f 78bf
000001b0: 3e1f 803b bd61 f33c bc82 a8bc 8f5a 273c
000001c0: a8bd 93bc 66bb 3ebf 423d abbc d68a 04bc
000001d0: 22d6 3a3f 444e d7bc 1168 813d e1d0 3abe
000001e0: 43ae 523d 29f3 ed3d 6ec3 afbd 9898 31be
000001f0: bb84 78bd a4b2 183f a63c 0080 bf44 0000
00000200: 7c4d 0080 3448 0080 7baf 0080 bc37 0080
00000210: f0de 0000 5f47 0000 5aac 0000 7867 043e
00000220: 129b a23c 449e b53c 36a0 0c3e dc5c 5fbd
00000230: 547d 37be 127d cb3d 2b85 48be c1b0 74be

backbone.1.conv.0.1.weight f4 [16]
-8.1407e-41 0.5064238 0.5573228 0.5878178 1.1294476 0.46847636 0.55128795 0.8180664
0.41442737 1.5835e-41 0.20697205 0.984722 0.86837995 0.24257256 5.374e-41 0.3339494
00000000: eee2 0080 fda4 013f b5ac 0e3f 3a7b 163f
00000010: bd91 903f 22dc ef3e 3521 0d3f cd6c 513f
00000020: d32f d43e 242c 0000 7bf0 533e be16 7c3f
00000030: 264e 5e3f f164 783e ce95 0000 6afb aa3e

backbone.1.conv.0.1.bias f4 [16]
-4.685239e-39 0.63101107 1.3322873 0.26464698 0.19992086 0.76193297 0.5483542 0.5050586
0.44535872 -2.949519e-39 0.53690475 0.06587534 0.6850857 -0.3103729 -9.0796e-41 0.3670087
00000000: 8a04 3380 f189 213f 6488 aa3f cf7f 873e
00000010: 0eb8 4c3e 0a0e 433f f160 0c3f 854b 013f
00000020: 0f06 e43e 0f1e 2080 9772 093f a6e9 863d
00000030: c761 2f3f 32e9 9ebe 1afd 0080 90e8 bb3e

backbone.1.conv.0.1.running_mean f4 [16]
6e-45 -0.10402939 0.2879845 0.035459306 0.13937998 0.13552044 0.15915255 -0.03794459
-0.46922404 -6e-45 0.014214227 -0.10626079 -0.021619806 0.013129922 -6e-45 -0.035183843
00000000: 0400 0000 5c0d d5bd b472 933e c73d 113d
00000010: a0b9 0e3e dfc5 0a3e e3f8 223e c96b 1bbd
00000020: 223e f0be 0400 0080 cae2 683c 429f d9bd
00000030: 051c b1bc e21e 573c 0400 0080 ef1c 10bd

backbone.1.conv.0.1.running_var f4 [16]
6e-45 0.008756267 0.008312406 0.036505703 0.2189179 0.04829659 0.006686918 0.40609306
0.0069577624 6e-45 0.008364925 0.14254032 0.05837509 0.0018849139 6e-45 0.0007564301
00000000: 0400 0000 7276 0f3c c230 083c 0187 153d
00000010: 042c 603e a5d2 453d ef1d db3b 6eeb cf3e
00000020: f1fd e33b 0400 0000 0a0d 093c 17f6 113e
00000030: b81a 6f3d 370f f73a 0400 0000 2a4b 463a

backbone.1.conv.1.weight f4 [8, 16, 1, 1]
-1.61533e-40 -0.21837352 -0.04227673 0.19037172 -0.04300158 0.6532616 0.25569636 -0.10625381
-0.06236396 -1.98968e-40 -0.002787156 0.25528255 0.11683424 0.009998448 1.59902e-40 -0.21271937
7.42146e-40 -0.07679922 -0.5151191 0.0050446903 0.25678378 -0.07930294 0.011941776 0.017865391
0.09272145 1.64769e-40 -0.07421936 0.11199899 -0.18545565 -0.045862067 -2.16939e-40 -0.3024882
1.410488e-39 0.4151171 0.13075857 0.42142418 -0.19377011 -0.17120744 -0.29307142 0.0885447
-0.21227403 -1.482302e-39 -0.2058967 0.3737801 0.029497882 -0.087440565 -3.9772e-41 -0.3579195
-7.49711e-40 -0.17189117 -0.116479136 -0.08994512 0.46023852 -0.278644 0.13248016 -0.062730744
-0.16337778 -4.08839e-40 0.112832874 -0.4042716 0.45046726 0.27001613 2.86948e-40 -0.36906818
1.753768e-39 -0.32501984 0.22772509 0.02297552 0.13677134 -0.6873788 0.18130116 -0.21341938
-0.07629691 6.90336e-40 0.29124635 -0.03274004 -0.23826429 0.13010333 6.1018e-41 0.00932446
-2.92464e-40 -0.11637569 0.049401533 -0.5685076 -0.2957424 -0.1495927 0.14462294 0.57521737
0.4451467 -7.47783e-40 0.10665726 0.4080303 0.097817205 0.050892897 -4.242e-42 -0.22275533
1.763662e-39 0.31493816 -0.045376964 -0.4194957 -0.39355493 0.0681372 0.0026451293 -0.8221988
0.07416543 7.60256e-40 -0.048940927 0.24018179 -0.06641709 0.32166258 -9.74e-41 -0.2130753
-2.241625e-39 0.09185887 0.25131053 -0.051633436 0.5102318 0.56475806 -0.13965915 0.15106155
-0.057909112 1.313942e-39 0.08725116 -0.44805977 -0.22551453 0.09144469 -1.04652e-40 -0.24876036
00000000: 4ac2 0180 4f9d 5fbe 5d2a 2dbd cef0 423e
00000010: 6d22 30bd 273c 273f a2ea 823e 999b d9bd
00000020: 5a71 7fbd a42a 0280 b8a8 36bb 65b4 823e
00000030: ca46 ef3d 88d0 233c bebd 0100 1bd3 59be
00000040: cd14 0800 e948 9dbd d8de 03bf ee4d a53b
00000050: 2a79 833e 9469 a2bd 70a7 433c 715a 923c
00000060: bee4 bd3d 4fcb 0100 5200 98bd ba5f e53d
00000070: 16e8 3dbe ddd9 3bbd bd5c 0280 bcdf 9abe
00000080: de5b 0f00 3b8a d43e 93e5 053e e9c4 d73e
00000090: ac6b 46be 0151 2fbe 750d 96be ec56 b53d
000000a0: 5d5e 59be 0e24 1080 96d6 52be 1b60 bf3e
000000b0: 8ba5 f13c 0a14 b3bd de6e 0080 3a41 b7be
000000c0: e429 0880 3d04 30be 9d8c eebd 2635 b8bd
000000d0: 62a4 eb3e 6daa 8ebe e1a8 073e fa78 80bd
000000e0: 814c 27be ad73 0480 ec14 e73d b0fc cebe
000000f0: a5a3 e63e 8e3f 8a3e e51f 0300 81f6 bcbe
00000100: cb18 1300 0069 a6be c430 693e 2837 bc3c
00000110: c90d 0c3e 0ff8 2fbf 03a7 393e 9c8a 5abe
00000120: 8e41 9cbd 6084 0700 3e1e 953e 6c1a 06bd
00000130: 8efb 73be cf39 053e 18aa 0000 9fc5 183c
00000140: 452f 0380 6156 eebd 4359 4a3d b789 11bf
00000150: 8c6b 97be d42e 19be 0918 143e 7241 133f
00000160: 45ea e33e 8424 0880 1f6f da3d 59e9 d03e
00000170: 6354 c83d 1275 503d d30b 0080 f919 64be
00000180: 5f34 1300 933f a13e 32dd 39bd 24c8 d6be
00000190: 0880 c9be 848b 8b3d e859 2d3b 9f7b 52bf
000001a0: 0ce4 973d 4947 0800 4876 48bd 37f2 753e
000001b0: af05 88bd f5b0 a43e 830f 0180 6930 5abe
000001c0: bd68 1880 8120 bc3d c6ab 803e 957d 53bd
000001d0: 8d9e 023f fc93 103f cf02 0fbe e1af 1a3e
000001e0: 1b32 6dbd bc4e 0e00 bcb0 b23d 1768 e5be
000001f0: 48ed 66be 5b47 bb3d ba23 0180 09bb 7ebe

backbone.1.conv.2.weight f4 [8]
0.5218909 0.47801182 0.6873091 0.5247836 0.5153496 0.6064544 0.5761993 0.51133645
00000000: a49a 053f f7bd f43e 7df3 2f3f 3858 063f
00000010: f4ed 033f 9840 1b3f cc81 133f f2e6 023f

backbone.1.conv.2.bias f4 [8]
-3.055249e-05 -6.0124476e-05 -3.3087035e-05 3.4841607e-05 -2.025801e-05 -5.183112e-05 6.975245e-05 9.399502e-05
00000000: 7d25 00b8 2a2e 7cb8 efc6 0ab8 e422 1238
00000010: bfef a9b7 3e65 59b8 1048 9238 311f c538

backbone.1.conv.2.running_mean f4 [8]
0.48418844 -0.92014587 0.024509216 -0.20081861 -0.47274172 0.36379424 -0.65353847 0.67313206
00000000: 8ce7 f73e ae8e 6bbf 8dc7 c83c 65a3 4dbe
00000010: 340b f2be 3d43 ba3e 4c4e 27bf 6252 2c3f

backbone.1.conv.2.running_var f4 [8]
0.115850456 0.120929584 0.26134866 0.30414677 0.19830592 0.3496491 0.36488467 0.1871386
00000000: 0143 ed3d eea9 f73d 7ecf 853e 20b9 9b3e
00000010: b510 4b3e 3505 b33e 2ad2 ba3e 43a1 3f3e

backbone.2.conv.0.0.weight f4 [48, 8, 1, 1]
0.12739034 -0.07458383 0.1496976 -0.34576073 -0.14792506 0.068768226 0.22676201 0.045037635
0.13594884 0.077816084 0.09114988 0.018252317 -0.046585526 -0.3774302 -0.15880741 -0.15921775
-0.16930911 0.06754078 -0.16192298 0.14730544 -0.017294973 -0.11478818 -0.21010831 0.20241934
-0.18839408 0.16847916 0.15590563 -0.44221708 0.021827826 -0.09925419 -0.22689055 -0.52864873
0.030024016 -0.1086721 0.11400646 -0.25962806 -0.052985754 0.10031835 0.055729307 -0.2919156
0.0945635 0.04656225 0.21815966 -0.10344528 -0.06924061 -0.0014448429 0.26584768 -0.08492647
0.028730225 0.19522902 0.205509 0.1527223 -0.10053063 -0.29366824 -0.08645082 -0.050393626
0.017796457 0.112528555 0.045702033 -0.005632013 0.07638516 0.018581249 -0.06465157 0.11957469
-0.016743196 0.067214236 0.50730544 0.0132086435 -0.09899949 -0.00087492017 0.008166446 0.0024756896
-0.06371642 0.327235 -0.09105013 0.13371651 -0.110048875 0.11419062 0.07872517 -0.036366045
-0.1663466 -0.09446039 0.07254762 -0.38895193 0.12316547 0.081360586 0.022879142 -0.03748923
-0.089339495 0.092949174 -0.29718006 0.25873426 0.07685578 -0.166053 -0.13467342 0.19901504
0.119755335 0.10498859 -0.18227434 0.14364529 0.07993694 0.14628072 -0.031094605 -0.057139263
0.32016256 -0.12176252 -0.042928927 -0.014378516 -0.23748295 -0.052391574 0.10996368 0.20514868
0.088586815 -0.20941857 0.011343154 0.3806081 -0.025403086 0.14254056 -0.102979936 -0.34332946
0.1123508 0.23783928 0.19262372 0.16951425 -0.29553258 -0.17449485 0.031603307 -0.03901692
0.30779478 0.19916977 0.14036286 0.22279559 0.12881105 0.10214107 0.16632216 0.083073474
0.02280236 0.055988085 0.13992804 -0.09471664 -0.20743725 0.20897506 -0.019831328 0.05693348
-0.22231646 0.050335977 -0.20651743 0.16645205 -0.15794517 -0.10357132 -0.20229356 0.2938728
-0.06825224 0.10511741 -0.23413062 0.35353148 0.08723181 -0.21646802 -0.16135935 0.4521902
0.09085754 0.178591 0.22247404 0.24480161 0.0248415 0.112560965 0.14888853 0.11208614
0.046160884 -0.081572555 0.08094082 -0.39011705 0.14438488 -0.042575464 -0.34012657 -0.011215788
0.07261471 0.13094507 0.008116323 0.06853305 -0.23448363 -0.07545067 -0.024942432 -0.112040244
0.27394924 -0.054319203 0.09209065 0.10959958 0.017828116 -0.040121894 -0.13443367 -0.007173441
-0.16976236 -0.15334527 0.07881396 0.18637152 -0.20024636 -0.06320002 0.06292134 -0.0479893
-0.068462744 -0.45408398 0.21427312 -0.04451442 0.11174512 -0.0994902 -0.0015673051 0.26900208
-0.20802402 -0.02510753 0.21715884 0.016740676 -0.19029541 -0.009481909 0.18045045 0.1222808
-0.21526408 -0.0003859507 -0.07470806 0.27914673 0.12754649 0.0813641 0.3454801 0.10624758
0.34178078 -0.05441373 -0.23738503 -0.03493885 -0.022392442 -0.24687889 0.012539066 0.19931789
0.04924163 0.00907533 0.20051207 0.19493496 0.13166292 0.084819615 -0.05462017 0.06654501
-0.24039811 -0.059470754 -0.2794506 -0.07870409 -0.19113736 0.48905492 0.06760857 0.18141061
0.15358934 -0.023351839 0.044996683 -0.16906928 -0.2659561 0.098225795 0.009477158 0.25979137
00000000: 9d72 023e 68bf 98bd 544a 193e 8d07 b1be
00000010: ab79 17be 5bd6 8c3d 4d34 683e 6279 383d
00000020: 2c36 0b3e 0a5e 9f3d caac ba3d e285 953c
00000030: 77d0 3ebd 883e c1be 699e 22be fa09 23be
00000040: 5e5f 2dbe d252 8a3d 23cf 25be 3dd7 163e
00000050: 30ae 8dbc 1116 ebbd a226 57be 0447 4f3e
00000060: 61ea 40be cd85 2c3e baa5 1f3e 476a e2be
00000070: 45d0 b23c c845 cbbd ff55 68be 8655 07bf
00000080: edf4 f53c 7a8f debd 387c e93d f8ed 84be
00000090: 9707 59bd b573 cd3d 6a44 643d f675 95be
000000a0: 82aa c13d 0fb8 3e3d 3f65 5f3e 1edb d3bd
000000b0: 05ce 8dbd e260 bdba 301d 883e eeed adbd
000000c0: a65b eb3c 1eea 473e f470 523e 3c63 1c3e
000000d0: 01e3 cdbd af5b 96be 210d b1bd 8c69 4ebd
000000e0: e0c9 913c 5f75 e63d 0e32 3b3d c08c b8bb
000000f0: d36f 9c3d b437 983c 0b68 84bd 93e3 f43d
00000100: 0729 89bc 9ea7 893d c5de 013f 1169 583c
00000110: 3fc0 cabd e65a 65ba 8fcc 053c 2e3f 223b
00000120: c17d 82bd 598b a73e 7e78 babd fbec 083e
00000130: 4e61 e1bd c6dc e93d a93a a13d 90f4 14bd
00000140: c356 2abe 7374 c1bd d993 943d b524 c7be
00000150: 2e3e fc3d 61a0 a63d 0a6d bb3c 4f8e 19bd
00000160: a0f7 b6bd 235c be3d fc27 98be d178 843e
00000170: 9066 9d3d cc09 2abe d4e7 09be 99ca 4b3e
00000180: 4942 f53d 4204 d73d 20a6 3abe c017 133e
00000190: fab5 a33d 9dca 153e 1dba febc dc0a 6abd
000001a0: 59ec a33e a15e f9bd 3ed6 2fbd de93 6bbc
000001b0: bb2e 73be 8c98 56bd a334 e13d 7f12 523e
000001c0: 016d b53d d271 56be a3d8 393c 11df c23e
000001d0: 221a d0bc 27f6 113e 25e7 d2bd e1c8 afbe
000001e0: 2d18 e63d 248c 733e 273f 453e 2595 2d3e
000001f0: 0c50 97be c7ae 32be 7872 013d 35d0 1fbd
00000200: 4797 9d3e 29f3 4b3e 48bb 0f3e 8724 643e
00000210: 0be7 033e 562f d13d 5b50 2a3e 6d22 aa3d
00000220: 04cc ba3c c353 653d 4c49 0f3e ccfa c1bd
00000230: 6e6a 54be 8ffd 553e 4f75 a2bc 1533 693d
00000240: eda6 63be 192d 4e3d 4e79 53be 6872 2a3e
00000250: 61bc 21be 331d d4bd 0b26 4fbe 7f76 963e
00000260: d5c7 8bbd cc47 d73d f0bf 6fbe 1402 b53e
00000270: 97a6 b23d cba9 5dbe 633b 25be 7985 e73e
00000280: 8513 ba3d 8fe0 363e 3cd0 633e 46ad 7a3e
00000290: 6780 cb3c 5d86 e63d 3c76 183e 6b8d e53d
000002a0: 3213 3d3d 830f a7bd 4dc4 a53d 6cbd c7be
000002b0: a1d9 133e 9c63 2ebd 1225 aebe 6dc2 37bc
000002c0: 05b7 943d 7716 063e 53fa 043c 0e5b 8c3d
000002d0: 7a1c 70be e285 9abd 1254 ccbc 5b75 e5bd
000002e0: 1343 8c3e d07d 5ebd 069a bc3d bf75 e03d
000002f0: 450c 923c db56 24bd fba8 09be 2f0f ebbb
00000300: 2fd6 2dbe 8b06 1dbe 3769 a13d 2dd8 3e3e
00000310: 620d 4dbe 036f 81bd e7dc 803d 6e90 44bd
00000320: 3236 8cbd b27d e8be 6a6a 5b3e c154 36bd
00000330: a0da e43d 85c1 cbbd 086e cdba a4ba 893e
00000340: 4004 55be 4fae cdbc e35e 5e3e be23 893c
00000350: cddc 42be 025a 1bbc 01c8 383e 5b6e fa3d
00000360: 306e 5cbe 6d59 cab9 8a00 99bd 52ec 8e3e
00000370: 8c9b 023e 39a2 a63d c5e2 b03e 5598 d93d
00000380: e4fd ae3e eee0 5ebd 1015 73be 0a1c 0fbd
00000390: 5b70 b7bc d2cd 7cbe a870 4d3c fd19 4c3e
000003a0: 97b1 493d b1b0 143c 0953 4d3e 089d 473e
000003b0: a5d2 063e e8b5 ad3d 66b9 5fbd c048 883d
000003c0: ec2a 76be 9b97 73bd 2614 8fbe 9c2f a1bd
000003d0: 83b9 43be 6865 fa3e 5d76 8a3d b4c3 393e
000003e0: 8646 1d3e 5b4c bfbc 714e 383d 7f20 2dbe
000003f0: 662b 88be 9b2a c93d 1546 1b3c 6003 853e

backbone.2.conv.0.1.weight f4 [48]
0.44817483 0.3476867 0.117305405 0.16684373 0.15731436 0.07824054 0.2846261 0.0578751
0.3684823 0.11357951 0.22527778 0.40500402 0.078986004 0.1383586 0.14113519 0.3772495
0.16430502 0.19514866 0.37924403 0.26444697 0.23670018 0.13670348 0.16164929 0.15888831
0.14041449 0.17544667 0.14946994 0.2669018 0.07895248 0.05183212 0.4506819 0.09403278
0.26209134 0.34919876 0.30994692 0.22019438 0.35704178 0.40600866 0.18269274 0.4008627
0.45573187 0.14417297 0.10769949 0.20626763 0.20375331 0.27311945 0.3295545 0.058005195
00000000: 2c77 e53e fe03 b23e d13d f03d 15d9 2a3e
00000010: 0417 213e 943c a03d 83ba 913e 710e 6d3d
00000020: b6a9 bc3e 609c e83d 38af 663e b05c cf3e
00000030: 6ac3 a13d e0ad 0d3e be85 103e d926 c13e
00000040: 933f 283e 0dd5 473e 462c c23e 9865 873e
00000050: 8861 723e fffb 0b3e 6487 253e 9eb3 223e
00000060: d1c8 0f3e 4ba8 333e a60e 193e 5aa7 883e
00000070: d6b1 a13d eb4d 543d c7bf e63e 4294 c03d
00000080: d630 863e 2eca b23e 5db1 9e3e a37a 613e
00000090: 2ece b63e 5ee0 cf3e ce13 3b3e e03d cd3e
000000a0: b055 e93e 14a2 133e 8d91 dc3d d237 533e
000000b0: b5a4 503e 50d6 8b3e 5ebb a83e db96 6d3d

backbone.2.conv.0.1.bias f4 [48]
-0.022772381 0.026757821 0.24772355 0.37749898 0.2676344 0.29326245 0.0018118093 0.030523065
-0.04373188 0.16293441 -0.041218594 0.05020857 0.20701173 0.17459157 0.20375371 -0.057875045
-0.10651786 0.15456943 0.04707148 0.30293247 0.26818025 0.16243634 0.15155347 0.1994377
0.16772252 0.020875646 0.14276405 -0.3363595 0.2782563 0.24548905 -0.024960833 0.20315503
0.041100718 0.029093519 0.088335976 0.16495575 -0.030655041 0.026568726 0.16915236 0.046395894
0.015332314 0.17490813 0.2959513 0.13478212 0.13528965 -0.05706377 0.1967343 0.2440118
00000000: 258d babc 3833 db3c 3eab 7d3e 8c47 c13e
00000010: 6007 893e 7f26 963e 3b7a ed3a 820b fa3c
00000020: 3320 33bd 47d8 263e d4d4 28bd 80a7 4d3d
00000030: e2fa 533e 22c8 323e d0a4 503e 620e 6dbd
00000040: 0926 dabd 7347 1e3e 06ce 403d f719 9b3e
00000050: ec4e 893e b655 263e d530 1b3e 6539 4c3e
00000060: 74bf 2b3e 6703 ab3c bd30 123e 5037 acbe
00000070: 9c77 8e3e 7b61 7b3e a97a ccbc df07 503e
00000080: 3a59 283d 8855 ee3c 7ee9 b43d 29ea 283e
00000090: 4820 fbbc a8a6 d93c 4736 2d3e 9f09 3e3d
000000a0: 6334 7b3c 1e1b 333e ee86 973e 5304 0a3e
000000b0: 5f89 0a3e b3bb 69bd b774 493e 3bde 793e

backbone.2.conv.0.1.running_mean f4 [48]
1.8375416e-05 -2.561106e-05 1.1239865e-05 -4.429251e-05 -1.6882228e-05 5.5280457e-06 -1.41601795e-05 -1.3737857e-06
-9.141766e-06 1.1425805e-08 9.811336e-06 1.2434996e-05 -1.7385408e-05 1.587823e-05 -4.3059994e-05 -8.539423e-06
-1.2175853e-05 -1.3433099e-06 2.4787316e-05 2.6135245e-05 -2.187466e-07 -2.3889308e-05 -1.1679715e-05 -2.6786602e-05
1.2698675e-05 2.765552e-05 3.2167784e-05 3.737107e-05 1.0652939e-05 -1.3476892e-05 3.2925065e-05 1.7435093e-05
2.515921e-05 -1.7452172e-05 2.3493805e-05 -1.990596e-05 3.1041633e-05 1.783266e-05 2.5574338e-05 -6.1268092e-06
-1.2543933e-05 1.9198182e-05 -8.775473e-06 2.7811804e-05 -4.7984877e-06 1.17099025e-05 1.3287721e-05 -1.6180587e-05
00000000: e824 9a37 55d7 d6b7 da92 3c37 b8c6 39b8
00000010: 4f9e 8db7 8d7d b936 8291 6db7 eb62 b8b5
00000020: 965f 19b7 394b 4432 5e9b 2437 e79f 5037
00000030: e1d6 91b7 3d32 8537 519b 34b8 8b44 0fb7
00000040: e446 4cb7 c74b b4b5 5bee cf37 033d db37
00000050: 9ce0 6ab4 e665 c8b7 fef3 43b7 cab3 e0b7
00000060: 650c 5537 c7fd e737 e5eb 0638 e2be 1c38
00000070: 06ba 3237 cf1a 62b7 0519 0a38 9441 9237
00000080: fe0c d337 4166 92b7 9014 c537 b9fb a6b7
00000090: b332 0238 5997 9537 7988 d637 e494 cdb6
000000a0: c873 52b7 c80b a137 5f3a 13b7 654d e937
000000b0: b202 a1b6 a675 4437 54ee 5e37 8cbb 87b7

backbone.2.conv.0.1.running_var f4 [48]
0.13137701 0.07761791 0.09630016 0.15040435 0.09720732 0.09581683 0.08209559 0.0115362005
0.1334303 0.03518735 0.07520757 0.16754863 0.03779377 0.077883646 0.069043115 0.09384795
0.04795868 0.058185283 0.12562463 0.26524234 0.033074427 0.058703557 0.026657913 0.029190173
0.02164244 0.065418355 0.044085532 0.06290016 0.10283173 0.020306522 0.19430259 0.07651646
0.06348134 0.10023741 0.12450939 0.08003403 0.16560812 0.15615015 0.040448114 0.15124159
0.037283003 0.13750242 0.05795093 0.097755365 0.08037461 0.1340689 0.14113279 0.08941447
00000000: b287 063e 24f6 9e3d 0539 c53d 9903 1a3e
00000010: a214 c73d 9d3b c43d bc21 a83d 5502 3d3c
00000020: f4a1 083e 9c20 103d 6d06 9a3d de91 2b3e
00000030: a4cd 1a3d 7681 9f3d 7a66 8d3d 5b33 c03d
00000040: 5270 443d b153 6e3d bea3 003e d8cd 873e
00000050: 0d79 073d 2473 703d b261 da3c 3b20 ef3c
00000060: 7d4b b13c 0ffa 853d 0893 343d cdd1 803d
00000070: 7199 d23d dd59 a63c 42f7 463e a9b4 9c3d
00000080: 8102 823d 4549 cd3d c7fe fe3d e2e8 a33d
00000090: 2d95 293e d3e5 1f3e ecac 253d 13df 1a3e
000000a0: 10b6 183d 6fcd 0c3e f45d 6d3d f733 c83d
000000b0: 729b a43d 5c49 093e 1d85 103e ef1e b73d

backbone.2.conv.1.0.weight f4 [48, 1, 3, 3]
-0.014377241 -0.20679428 -0.20562412 -0.00745579 -0.20224988 -0.15619262 0.047097802 -0.090463124
-0.0512733 -0.08444341 -0.044722117 0.025281407 -0.17997834 -0.21000579 -0.14816697 -0.083751924
-0.06700143 -0.1015862 -0.114882104 -0.06353047 -0.020300144 0.19757135 0.45216048 0.25365084
-0.020929245 -0.078406855 -0.2709894 0.12489772 0.20705713 0.10397078 0.26150241 0.4250035
0.064614624 0.13550998 0.12400764 -0.018549265 -0.06646405 -0.34986478 -0.28071442 -0.0052840635
-0.023501005 0.053345975 0.057734724 0.2645062 0.22411814 0.077808045 0.27858755 0.12713695
-0.016473139 -0.062207904 -0.047867805 -0.12463809 -0.22700152 -0.29009265 0.032646585 -0.059906293
-0.11885058 0.07936878 -0.1506951 -0.3372399 0.06420411 -0.0346328 -0.26747686 -0.067480214
-0.0073099895 0.0046498165 -0.074486375 0.056899946 -0.039900552 -0.1456901 0.009967412 -0.09076389
-0.042987026 0.053029023 0.12740833 0.0748465 0.20133355 0.21203771 0.21003678 0.28710505
0.07998252 -0.15878941 0.24162638 -0.042951994 0.035445873 0.124486856 0.026616918 0.11482471
-0.37655628 0.056915175 0.10497151 0.089036725 0.04194447 0.05056049 0.16653468 0.10798337
0.019059734 0.13540676 0.18356283 -0.10506414 -0.22526781 -0.0137062045 -0.21444677 -0.28458652
0.016986245 -0.07711015 -0.07188931 0.012009434 -0.019795252 0.09759009 0.035748865 0.13268827
-0.4200026 -0.0033952917 -0.11871674 0.27774033 -0.0012762807 -0.060818747 0.107801095 -0.087977976
-0.16506328 0.33370152 -0.13644825 0.012371821 0.1981308 -0.23505154 -0.046941534 -0.07178111
0.037000068 0.15559018 0.3461375 0.081830144 -0.12924947 -0.32822868 -0.13332602 -0.093490355
-0.06114253 0.12438926 -0.15597542 -0.27550492 0.0058270236 0.03693213 -0.29102975 -0.020119796
-0.072881706 -0.03968892 0.13735546 0.00089171727 0.16990565 0.18396251 0.12519923 0.15759835
0.15365523 0.21492794 0.1250541 0.038983848 0.19223171 0.13386317 0.04419882 0.08236352
0.12702923 0.028353257 -0.15041481 0.0054819365 0.079314396 -0.14277016 -0.2814088 -0.09895227
0.12519494 -0.0981026 -0.095267475 -0.052556604 -0.1514228 -0.06990654 -0.08202885 -0.29769546
-0.102496 0.081090346 -0.25409937 -0.13914363 0.035217397 0.07437989 0.04461555 0.10655122
0.33312064 0.036144774 0.17012557 0.15537679 -0.21743892 -0.17859821 -0.06639656 0.117075324
-0.27123255 -0.13923137 0.20948862 -0.16827211 -0.16107722 0.04549288 0.048716065 -0.3138647
0.045928195 -0.18941939 0.48102364 -0.09052026 0.13151999 -0.14757028 0.047940616 -0.023103487
0.08699665 -0.085602954 0.0395583 -0.4859278 0.31990427 -0.0243718 0.32283896 -0.25074816
-0.0073853983 0.008145351 0.16294889 -0.12903795 -0.3148787 -0.21597864 0.1617603 0.25922602
0.05660919 0.029373383 0.16059694 0.14130914 0.040388685 0.25358215 0.16997917 0.03673241
0.3054668 0.06255536 -0.013089874 -0.18576474 -0.07670321 0.15300809 0.31916887 0.1316997
-0.121308416 -0.15472928 -0.046598926 0.08175207 0.18241487 0.06578128 0.05148395 0.26849538
0.14078668 -0.013718362 0.029802365 -0.05232734 0.059166923 0.19032069 0.13159658 0.04886657
00000000: 858e 6bbc e1c1 53be 218f 52be b34f f4bb
00000010: 981a 4fbe f5f0 1fbe a0e9 403d bb44 b9bd
00000020: f403 52bd abf0 acbd 8a2e 37bd f41a cf3c
00000030: 3e4c 38be c20b 57be 15b9 17be 2186 abbd
00000040: 0c38 89bd 6d0c d0bd 4f47 ebbd 431c 82bd
00000050: 7d4c a6bc 2550 4a3e 9481 e73e 86de 813e
00000060: cf73 abbc c693 a0bd 1fbf 8abe 60ca ff3d
00000070: c906 543e a2ee d43d a5e3 853e 0f9a d93e
00000080: ac54 843d 21c3 0a3e b8f7 fd3d a1f4 97bc
00000090: 4e1e 88bd 7a21 b3be cdb9 8fbe f025 adbb
000000a0: 2e85 c0bc 4f81 5a3d 3f7b 6c3d 5b6d 873e
000000b0: 3a7f 653e d359 9f3d 07a3 8e3e 3030 023e
000000c0: adf2 86bc b7cd 7ebd 0811 44bd 4142 ffbd
000000d0: 1673 68be 0687 94be 6db8 053d 4d60 75bd
000000e0: ef67 f3bd 198c a23d d14f 1abe b5aa acbe
000000f0: 727d 833d 1fdb 0dbd baf2 88be 1133 8abd
00000100: a388 efbb 7d5d 983b 508c 98bd eb0f 693d
00000110: c36e 23bd c92f 15be 5b4e 233c 6be2 b9bd
00000120: 2a13 30bd f634 593d 5477 023e 1f49 993d
00000130: 622a 4e3e 6a20 593e e213 573e 6fff 923e
00000140: e0cd a33d b199 22be e86c 773e 6eee 2fbd
00000150: b12f 113d f7f2 fe3d b90b da3c 3829 eb3d
00000160: fccb c0be e31f 693d 4efb d63d e358 b63d
00000170: f7cd 2b3d 8418 4f3d 1188 2a3e 6326 dd3d
00000180: 2923 9c3c 12a8 0a3e e5f7 3b3e de2b d7bd
00000190: 9bac 66be fd8f 60bc ef97 5bbe 53b5 91be
000001a0: bd26 8b3c edeb 9dbd b43a 93bd 38c3 443c
000001b0: a729 a2bc 50dd c73d 676d 123d 6fdf 073e
000001c0: 950a d7be 8b83 5ebb c321 f3bd fb33 8e3e
000001d0: e048 a7ba 141d 79bd d2c6 dc3d cc2d b4bd
000001e0: 5906 29be edda aa3e 17b9 0bbe 2eb3 4a3c
000001f0: cde2 4a3e 5ab1 70be c445 40bd f901 93bd
00000200: 628d 173d 0853 1f3e ef38 b13e 9096 a73d
00000210: f959 04be 970d a8be 9e86 08be df77 bfbd
00000220: 9770 7abd ccbf fe3d 05b8 1fbe fb0e 8dbe
00000230: 9ef0 be3b 2546 173d da01 95be 45d2 a4bc
00000240: 0143 95bd d990 22bd e9a6 0c3e 22c2 693a
00000250: bffb 2d3e ab60 3c3e 3a34 003e 7661 213e
00000260: cc57 1d3e 1216 5c3e 2f0e 003e 87ad 1f3d
00000270: 64d8 443e 6d13 093e d209 353d 35ae a83d
00000280: f313 023e 1745 e83c 5706 1abe d1a1 b33b
00000290: 966f a23d 5732 12be d014 90be 7da7 cabd
000002a0: 1a33 003e 04ea c8bd 981b c3bd 9845 57bd
000002b0: 940e 1bbe 292b 8fbd befe a7bd 8a6b 98be
000002c0: 6ce9 d1bd b212 a63d 5019 82be ab7b 0ebe
000002d0: 1e40 103d 7c54 983d ccbe 363d 8737 da3d
000002e0: ca8e aa3e 8b0c 143d 6635 2e3e 181b 1f3e
000002f0: 4fa8 5ebe 73e2 36be ebfa 87bd 30c5 ef3d
00000300: fede 8abe ab92 0ebe 2f84 563e 864f 2cbe
00000310: 6df1 24be be56 3a3d 7f8a 473d e0b2 a0be
00000320: 341f 3c3d 28f7 41be bb48 f63e b062 b9bd
00000330: 2dad 063e aa1c 17be 615d 443d 8643 bdbc
00000340: 4d2b b23d 9a50 afbd e207 223d 87cb f8be
00000350: 7eca a33e 5ea7 c7bc 264b a53e 1062 80be
00000360: 3601 f2bb 1474 053c 13dc 263e 8622 04be
00000370: c837 a1be 8129 5dbe 7ea4 253e 46b9 843e
00000380: 0adf 673d 73a0 f03c 8673 243e 58b3 103e
00000390: 9b6e 253d 85d5 813e 050f 2e3e b974 163d
000003a0: 2566 9c3e 061d 803d e976 56bc 1d39 3ebe
000003b0: 9316 9dbd 27ae 1c3e 1a6a a33e 49dc 063e
000003c0: 8c70 f8bd 5a71 1ebe 84de 3ebd a16d a73d
000003d0: f7ca 3a3e 56b8 863d d6e0 523d 3a78 893e
000003e0: 622a 103e fbc2 60bc 1724 f43c 3155 56bd
000003f0: 0459 723d 6de3 423e 41c1 063e 5028 483d

backbone.2.conv.1.1.weight f4 [48]
0.5157965 0.34271532 0.3749313 0.21141696 0.36978197 0.36841166 0.15744798 0.1738466
0.19032048 0.2563354 0.20221145 0.48754743 0.30782798 0.2523061 0.38327947 0.27315238
0.27664462 0.30509487 0.5352763 0.5760237 0.21914196 0.25187448 0.2797529 0.25634718
0.34290934 0.21615405 0.36517483 0.20552096 0.2303163 0.19437186 0.57357424 0.25073534
0.3012843 0.20820118 0.20597173 0.34583968 0.21073516 0.40441737 0.3219394 0.35873917
0.40846655 0.25146317 0.4318495 0.34527352 0.34267512 0.149294 0.35733104 0.3206192
00000000: 3d0b 043f 6278 af3e fff6 bf3e b07d 583e
00000010: 1054 bd3e 74a0 bc3e 0b3a 213e d804 323e
00000020: 5fe3 423e 653e 833e 8510 4f3e d19f f93e
00000030: a19b 9d3e 442e 813e 353d c43e a1da 8b3e
00000040: 5da4 8d3e 6535 9c3e de07 093f 4a76 133f
00000050: c066 603e b1f5 803e c63b 8f3e f03f 833e
00000060: d091 af3e 7d57 5d3e 32f8 ba3e 1674 523e
00000070: 09d8 6b3e 6b09 473e c3d5 123f 6260 803e
00000080: f041 9a3e b132 553e 41ea 523e e611 b13e
00000090: f5ca 573e cb0f cf3e 3ed5 a43e a9ac b73e
000000a0: 8722 d13e c8bf 803e 611b dd3e b1c7 b03e
000000b0: 1d73 af3e 87e0 183e 18f4 b63e 3328 a43e

backbone.2.conv.1.1.bias f4 [48]
-0.027836993 -0.09745418 0.015961306 0.6980914 0.0074351844 0.026986033 0.6114437 -0.2430425
0.07746649 -0.07200357 0.047360882 0.23041885 -0.009964862 -0.04066167 -0.010635878 0.012479285
0.10362323 -0.09540334 0.104166366 -0.024381308 0.4163467 -0.056122147 -0.0011795223 -0.0057562785
-0.004328195 0.06292167 -0.009643409 0.09164984 0.27364337 -0.035886616 -0.09175058 0.008949513
0.0074613844 0.6839352 0.6121241 -0.034369253 0.5970207 0.34862256 -0.0034888554 0.2432963
0.25812557 0.014494951 -1.4683767e-05 -0.027998433 -0.070929274 0.16165684 0.08891507 -0.090017945
00000000: 680a e4bc 0f96 c7bd 49c1 823c 1eb6 323f
00000010: d9a2 f33b d011 dd3c 9387 1c3f 22e0 78be
00000020: c0a6 9e3d 9c76 93bd 7cfd 413d ebf2 6b3e
00000030: a943 23bc da8c 26bd 1b42 2ebc ea75 4c3c
00000040: 6a38 d43d d462 c3bd 2d55 d53d 4fbb c7bc
00000050: 652b d53e 56e0 65bd 339a 9aba 2a9f bcbb
00000060: 88d3 8dbb 14dd 803d 64ff 1dbc e9b2 bb3d
00000070: fc1a 8c3e d8fd 12bd bae7 bbbd faa0 123c
00000080: a17e f43b 6116 2f3f 2ab4 1c3f c6c6 0cbd
00000090: 59d6 183f a87e b23e 48a5 64bb aa22 793e
000000a0: 0929 843e 3b7c 6d3c 4d5a 76b7 f85c e5bc
000000b0: 5e43 91bd 5f89 253e 1b19 b63d 545b b8bd

backbone.2.conv.1.1.running_mean f4 [48]
-0.109972015 -0.095152624 0.0837287 0.53470683 -0.030879155 -0.08700041 -0.0739916 -0.011941027
0.12229327 0.002330129 0.04447288 -0.14118588 -0.0046428638 -0.012782756 -0.01800157 -0.0638287
0.018962169 0.15915553 -0.09302195 -0.33912182 0.19584104 -0.10115556 0.002540683 -0.019748354
-0.004167452 0.07474537 -0.00042247475 0.003929594 0.28043863 0.010309207 -0.13757005 0.1030753
0.06052052 -0.12678662 -0.17714867 0.0077688573 -0.1054728 -0.14158247 -0.0015009745 0.17752343
-0.14632955 0.19181101 -0.074685864 0.07080431 0.027328828 0.09086654 -0.23453176 0.06128229
00000000: 0239 e1bd 61df c2bd f479 ab3d 8ce2 083f
00000010: 48f6 fcbc 452d b2bd e888 97bd 4ca4 43bc
00000020: e574 fa3d 14b5 183b 3229 363d 0893 10be
00000030: 2a23 98bb c46e 51bc 0778 93bc 9fb8 82bd
00000040: 8d56 9b3c abf9 223e 4b82 bebd 60a1 adbe
00000050: 8e8a 483e a52a cfbd 9681 263b 4dc7 a1bc
00000060: 1f8f 88bb 1a14 993d 9a7f ddb9 d3c3 803b
00000070: a795 8f3e f3e7 283c 2adf 0cbe 2519 d33d
00000080: 5de4 773d 5ad4 01be 7666 35be e691 fe3b
00000090: 2002 d8bd fffa 10be 59bc c4ba b4c8 353e
000000a0: 6ad7 15be 1b6a 443e e7f4 98bd da01 913d
000000b0: b5e0 df3c 3d18 ba3d 1829 70be 2303 7b3d

backbone.2.conv.1.1.running_var f4 [48]
0.028023954 0.015836764 0.004812096 0.024739409 0.012329381 0.0035455367 0.0169342 0.00021506846
0.040577654 0.0011618048 0.0035713508 0.03897099 0.0010076248 0.0036850797 0.010238701 0.01371496
0.0023795469 0.012667711 0.017813567 0.030878723 0.014393838 0.006492949 0.003322548 0.0058365674
0.007857289 0.008141935 0.0054301918 0.00028615395 0.002972055 0.00019989711 0.036821377 0.0025552856
0.0052646147 0.02916876 0.029730763 0.009671996 0.011136708 0.04836641 0.0039965454 0.08927818
0.046335757 0.0045967307 0.0045388364 0.0066956514 0.00547847 0.009726389 0.016137935 0.00040252972
00000000: 7e92 e53c 1abc 813c c9ae 9d3b 4daa ca3c
00000010: 2c01 4a3c 3c5c 683b 97b9 8a3c 0084 6139
00000020: c134 263d b347 983a 530d 6a3b 0ba0 1f3d
00000030: 4712 843a 6181 713b 39c0 273c b6b4 603c
00000040: 2cf2 1b3b 3b8c 4f3c c2ed 913c 60f5 fc3c
00000050: 22d4 6b3c cec2 d43b 1bbf 593b ad40 bf3b
00000060: dcbb 003c c065 053c c0ef b13b ef06 9639
00000070: cfc6 423b 799b 5139 03d2 163d 9476 273b
00000080: ca82 ac3b 53f3 ee3c ee8d f33c 4b77 1e3c
00000090: bd76 363c db1b 463d 74f5 823b 7ad7 b63d
000000a0: 90ca 3d3d 2ca0 963b 85ba 943b 3267 db3b
000000b0: bd84 b33b 6f5b 1f3c b433 843c a00a d339

backbone.2.conv.2.weight f4 [8, 48, 1, 1]
0.11923247 0.2538836 0.0010247689 0.18805283 0.35988227 -0.083011106 0.16392154 -0.13812612
-0.09456856 -0.088854246 0.07141641 0.3490714 0.012649348 -0.07333467 0.11500188 0.2735807
-0.22845273 0.0022871282 0.30441263 0.3750211 -0.06940606 -0.052886426 0.018319365 0.03804689
0.1594417 -0.045464594 0.139354 -0.1781559 -0.186929 -0.03655806 -0.09368044 0.0015328896
-0.06455894 0.287447 0.16433187 -0.09779109 0.20940842 0.2882957 0.06808343 -0.06464882
0.090348914 -0.03489642 0.16144751 -0.1375356 -0.056378108 -0.19245407 0.029994188 -0.03057651
0.04048575 0.24392726 0.25251013 -0.32346606 0.1670198 0.21758188 0.13507557 0.0009076866
-0.026742507 -0.044416696 0.09144619 -0.1495386 -0.05060291 -0.15310887 0.09262188 0.16886331
-0.10440568 0.07564445 -0.09765908 -0.038061935 -0.101187795 -0.22020908 -0.0028823034 -0.019119173
0.07415047 -0.07559534 0.16778283 -0.049322754 0.19805795 -0.04838438 0.04135438 -0.19700429
-0.11093399 0.13982078 -0.053555675 -0.11449019 0.42798296 -0.35654432 0.014108849 -0.2850917
-0.14718871 0.11204892 -0.031316232 -0.148422 -0.12265051 -0.1726436 -0.05968639 -0.2041557
0.13807413 -0.017466238 0.024588099 -0.24887437 0.18210734 -0.25723052 -0.10594753 0.018861366
-0.12457413 0.18502454 -0.041061267 -0.3111086 0.29243028 -0.20221156 -0.10498861 0.009890911
0.15183924 -0.09065402 0.08151277 0.09339048 0.058927998 -0.0068427003 0.23856296 0.24064645
-0.101834625 -0.15291628 -0.16046228 0.16737413 0.1593811 0.2303083 0.047388848 0.03643226
-0.2769518 0.23448388 0.181306 -0.17347272 -0.14425446 0.21028462 0.22843152 -0.17071585
-0.02524679 -0.1832949 0.0057613524 -0.12117891 -0.33706078 0.17424019 -0.37285447 0.22776002
0.04283359 0.24937616 0.08699384 0.32046065 -0.12293141 0.12242323 -0.043413617 0.033505186
-0.15814917 -0.011152594 0.22928429 -0.20092015 0.03719517 0.04460977 0.17586803 0.061334934
0.0030746134 0.0352802 0.013208468 -0.2615941 -0.12221159 0.061246376 0.08216461 0.07118185
0.16018778 -0.08327008 0.14243665 0.07056105 -0.16999757 0.0017119929 0.33694682 0.1488935
-0.05909499 -0.08349907 0.25179794 -0.0022661376 0.09720577 0.22003017 0.06830489 -0.09434635
-0.16644281 0.3133397 0.36898765 0.012740211 -0.022395564 -0.076472305 -0.35362568 0.102438174
-0.033551253 -0.13859358 0.18685007 0.07274356 0.16335662 -0.021688432 -0.24658698 0.038760703
-0.0036332873 -0.06785666 0.18747987 0.2267935 0.18428776 0.03298084 0.2949257 -0.10552525
-0.087863065 -0.2926196 0.006435703 -0.20863065 -0.17529528 0.06731612 0.071255036 0.11077728
0.26845035 0.115114085 0.28218177 -0.16239293 -0.06014345 -0.11036323 -0.17850213 -0.1381612
0.15147498 -0.15546882 0.121058375 0.18546534 -0.060581118 -0.08233534 0.24320851 -0.08833879
-0.17696673 0.0588754 0.00514076 0.14318082 0.0787281 0.14637132 -0.11293561 -0.2611324
0.04923168 0.053597696 0.25366 0.07121982 0.2605463 0.14079678 0.234667 -0.047965378
-0.21924487 0.18357235 0.008081982 -0.3838883 0.29322693 0.06892457 0.18357837 -0.089990415
00000000: 2730 f43d 08fd 813e 8a51 863a ec90 403e
00000010: 7d42 b83e ba01 aabd 0cdb 273e ef70 0dbe
00000020: 29ad c1bd 37f9 b5bd c442 923d 7db9 b23e
00000030: 363f 4f3c 7d30 96bd 1b86 eb3d c512 8c3e
00000040: 83ef 69be a5e3 153b f9db 9b3e c402 c03e
00000050: c424 8ebd 709f 58bd 7e12 963c 0ed7 1b3d
00000060: af44 233e 1539 3abd d1b2 0e3e 806e 36be
00000070: 516a 3fbe e8bd 15bd 88db bfbd 3deb c83a
00000080: 7a37 84bd 412c 933e 9d46 283e b246 c8bd
00000090: 296f 563e 7e9b 933e 536f 8b3d 9a66 84bd
000000a0: da08 b93d 8cef 0ebd 7f52 253e 22d6 0cbe
000000b0: bbec 66bd ae12 45be 5fb6 f53c 977b fabc
000000c0: 63d4 253d 11c8 793e 0249 813e 589d a5be
000000d0: 3d07 2b3e c9cd 5e3e 4051 0a3e d1f1 6d3a
000000e0: 1a13 dbbc 48ee 35bd 2448 bb3d a620 19be
000000f0: ff44 4fbd 92c8 1cbe 8ab0 bd3d 81ea 2c3e
00000100: a5d2 d5bd 7aeb 9a3d 7c01 c8bd d5e6 1bbd
00000110: 8c3b cfbd 7d7e 61be 07e5 3cbb d09f 9cbc
00000120: 34dc 973d bbd1 9abd 43cf 2b3e a806 4abd
00000130: b4cf 4a3e b32e 46bd 3663 293d 7ebb 49be
00000140: 5c31 e3bd 2e2d 0f3e 325d 5bbd d579 eabd
00000150: 9520 db3e fa8c b6be cd28 673c 8af7 91be
00000160: a3b8 16be e779 e53d 7345 00bd f0fb 17be
00000170: 3130 fbbd 7cc9 30be b779 74bd 310e 51be
00000180: 4e63 0d3e 5b15 8fbc fb6c c93c ecd8 7ebe
00000190: 597a 3a3e b8b3 83be 05fb d8bd 2783 9a3c
000001a0: b920 ffbd 1377 3d3e dc2f 28bd a049 9fbe
000001b0: 6cb9 953e 8c10 4fbe 4504 d7bd 7d0d 223c
000001c0: bf7b 1b3e d1a8 b9bd 2bf0 a63d 8243 bf3d
000001d0: 7c5e 713d bb38 e0bb d949 743e 066c 763e
000001e0: ac8e d0bd 1696 1cbe 3950 24be 2064 2b3e
000001f0: cd34 233e f0d5 6b3e cf1a 423d fe39 153d
00000200: a0cc 8dbe 8b1c 703e 48a8 393e d5a2 31be
00000210: 71b7 13be da54 573e f4e9 693e 23d0 2ebe
00000220: 5bd2 cebc a9b1 3bbe bac9 bc3b a62c f8bd
00000230: 3b93 acbe 056c 323e c8e6 bebe ec39 693e
00000240: 4672 2f3d 775c 7f3e d429 b23d 6b13 a43e
00000250: 77c3 fbbd 08b9 fa3d 7ad2 31bd bc3c 093d
00000260: dbf1 21be 5fb9 36bc 80c9 6a3e 03be 4dbe
00000270: f659 183d bcb8 363d c016 343e 573a 7b3d
00000280: 747f 493b f981 103d 5568 583c a9ef 85be
00000290: 124a fabd 7bdd 7a3d eb45 a83d cac7 913d
000002a0: 4408 243e 8189 aabd eada 113e 5082 903d
000002b0: d813 2ebe f364 e03a 4b84 ac3e 8a77 183e
000002c0: 970d 72bd 8f01 abbd a9eb 803e 7b83 14bb
000002d0: d213 c73d 974f 613e 6fe3 8b3d a938 c1bd
000002e0: fc6f 2abe 106e a03e f3eb bc3e 51bc 503c
000002f0: e776 b7bc 839d 9cbd 6d0e b5be 1bcb d13d
00000300: 0a6d 09bd 7aeb 0dbe a055 3f3e 93fa 943d
00000310: f546 273e f0ab b1bc 4c81 7cbe 8bc3 1e3d
00000320: 721c 6ebb 6ff8 8abd b9fa 3f3e 8e3c 683e
00000330: eeb5 3c3e eb16 073d 8000 973e 9f1d d8bd
00000340: 8df1 b3bd 3cd2 95be 97e2 d23b 46a3 55be
00000350: 9b80 33be 09dd 893d 29ee 913d 33df e23d
00000360: 5372 893e efc0 eb3d 217a 903e 554a 26be
00000370: fa58 76bd 1e06 e2bd 43c9 36be 217a 0dbe
00000380: 421c 1b3e 3833 1fbe 74ed f73d a0ea 3d3e
00000390: e823 78bd 6e9f a8bd a70b 793e f8ea b4bd
000003a0: c436 35be 5527 713d d273 a83b fe9d 123e
000003b0: 333c a13d 5de2 153e c94a e7bd 25b3 85be
000003c0: 28a7 493d 4289 5b3d b9df 813e b2db 913d
000003d0: 5366 853e 082d 103e 8c4c 703e 5877 44bd
000003e0: ba81 60be 64fa 3b3e 4a6a 043c 028d c4be
000003f0: d721 963e 5328 8d3d f8fb 3b3e e54c b8bd

backbone.2.conv.3.weight f4 [8]
0.55554503 0.4515973 0.42836833 0.43853635 0.42207357 0.57146096 0.43105647 0.6455625
00000000: 3338 0e3f c337 e73e 1853 db3e d687 e03e
00000010: 071a d83e 444b 123f 6fb3 dc3e 9643 253f

backbone.2.conv.3.bias f4 [8]
-7.966881e-06 -7.1892406e-05 -1.777796e-05 -1.2522624e-05 -8.795225e-06 1.0762022e-05 5.6592453e-06 -3.821894e-05
00000000: 7ea9 05b7 f1c4 96b8 e121 95b7 4318 52b7
00000010: 348f 13b7 888e 3437 8ce4 bd36 464d 20b8

backbone.2.conv.3.running_mean f4 [8]
1.0065477 -0.1446436 -0.064118944 0.33977246 -0.19637062 0.44468987 -0.06284944 0.14766116
00000000: 8ed6 803f 741d 14be cb50 83bd a8f6 ad3e
00000010: 6115 49be 64ae e33e 35b7 80bd 7d34 173e

backbone.2.conv.3.running_var f4 [8]
0.121693596 0.076306485 0.111142986 0.048003793 0.059609115 0.13287853 0.061930988 0.1499458
00000000: 7e3a f93d 9346 9c3d ef9e e33d a09f 443d
00000010: b028 743d 4f11 083e 59ab 7d3d 648b 193e
