ML Model/tv_detection_epoch_150/e-141-0.626.pth (torch, 508597 bytes, 205 tensors)

backbone.0.0.weight f4 [16, 3, 3, 3]
-7.6491e-41 4.5607e-41 -6.3183e-41 3.8464e-41 3.555e-41 -2.2324e-41 -2.2562e-41 2.7125e-41
5.2093e-41 -6.565e-41 -5.7087e-41 1.5427e-41 5.5158e-41 7.935e-41 -3.404e-42 -7.4217e-41
-3.3701e-41 6.666e-42 1.4966e-41 -8.3903e-41 8.1261e-41 7.0901e-41 7.1133e-41 -3.6204e-41
7.5952e-41 4.4909e-41 4.0311e-41 0.02093918 0.017018816 -0.07382976 0.1449199 0.3351249
0.0023319363 -0.13212095 -0.18982586 0.004760506 -0.04956762 -0.012789021 -0.17993654 0.29736364
0.69503033 0.060970195 -0.31865147 -0.5379998 -0.09722151 0.17179216 0.16806127 0.04370507
0.19974552 0.30311725 0.08318424 -0.14656065 -0.195994 -0.083517924 -0.078045204 0.1377193
0.05975718 -0.3852108 0.7669863 -0.1787674 -0.63354826 0.91533446 -0.22953998 -0.13223262
0.1653138 -0.03684166 -0.81743735 1.3001047 -0.44945908 -1.0220108 1.4124404 -0.4600058
-0.05958768 -0.00900589 0.062639 -0.2420685 0.40977943 -0.08729395 -0.29602918 0.4409439
-0.14375837 -0.04319102 -0.0062576737 0.06517136 0.05826346 0.22937171 -0.2968312 0.013252592
0.29638845 -0.31373304 -0.018973222 -0.03152325 0.07981872 0.05499472 0.56346583 -0.57463133
0.041294392 0.6252449 -0.6497166 0.011887391 0.019424818 -0.07690762 0.13397303 0.18234606
-0.20932168 0.053990405 0.13954559 -0.22744939 -0.09884728 -0.0687634 -0.11073575 0.0106249945
-0.010239723 -0.13145848 0.12226543 0.028540181 -0.2008472 0.08079868 0.015398856 -0.070962444
0.16410369 -0.11328846 -0.29695278 0.1826505 -0.0863577 -0.42932802 0.08501855 -0.07413801
-0.20542534 0.053543378 -0.13722901 -0.26687458 -0.012643174 -0.10016949 -0.23136832 0.17381233
0.18680865 -0.1305961 0.091543004 0.6067088 0.29895344 -0.21142666 0.5206328 0.62177336
0.12899208 -0.012014314 0.09687291 0.047165167 -0.1330613 -0.035873186 0.013979637 -0.13445807
-0.051377114 -0.24933544 -0.1862618 0.037083697 -0.18454131 -0.5276235 -0.28587076 0.068380944
-0.47648492 -0.56080526 0.18204781 0.11814173 0.03603569 0.50305367 -0.0004002647 -0.09210257
0.09978611 -0.09281169 0.007119865 0.022384323 -0.030703811 -0.051893294 0.84930843 -0.08740915
-0.28704497 0.11910963 -0.23245147 -0.040665902 0.09853878 0.050027985 0.004745156 0.26387313
0.06666377 0.023819502 -0.079877645 -0.107818246 -0.008134709 0.03209069 0.032877177 -0.03357418
-0.014287338 0.10402705 0.29243657 -0.0047393804 0.085788846 0.35041752 -0.086083084 -0.16732614
-0.18318662 -0.058643803 0.072041504 0.30498624 -0.0084063625 0.12734649 0.33951384 -0.04820215
-0.0021399637 0.022618726 0.03812291 0.18336168 0.3572682 0.09682333 0.19706999 0.3237839
0.046785552 0.04636336 -0.15131345 -0.1872103 0.6498342 -0.53380924 0.010991662 0.7131275
-0.663727 -0.038377844 0.17035459 -0.21418206 -0.1446446 1.0365673 -0.91579866 -0.009084417
1.0169675 -0.950973 0.08232597 0.042092267 0.0004926727 -0.09726994 0.41438058 -0.34193286
0.012616607 0.42237744 -0.37896127 1.3591e-41 6.2373e-41 6.0497e-41 1.8116e-41 6.3243e-41
-3.4625e-41 7.2283e-41 -1.817e-41 2.3033e-41 2.9848e-41 -1.1882e-41 -1.2633e-41 6.9841e-41
00000000: 3ad5 0080 227f 0000 21b0 0080 396b 0000
00000010: 1963 0000 3b3e 0080 e53e 0080 9d4b 0000
00000020: 3791 0000 01b7 0080 239f 0080 012b 0000
00000030: c299 0000 32dd 0000 7d09 0080 e3ce 0080
00000040: f25d 0080 9512 0000 b829 0000 e3e9 0080
00000050: 86e2 0000 a5c5 0000 4ac6 0000 ec64 0080
00000060: b9d3 0000 307d 0000 5f70 0000 a588 ab3c
00000070: 0b6b 8b3c 0f34 97bd e265 143e 7e95 ab3e
00000080: 66d3 183b b74a 07be b661 42be 05fe 9b3b
00000090: 6b07 4bbd 0b89 51bc 4941 38be 0c40 983e
000000a0: 82ed 313f e2bb 793d 4926 a3be 5bba 09bf
000000b0: 121c c7bd 49ea 2f3e 4118 2c3e 1604 333d
000000c0: 178a 4c3e 2f32 9b3e 805c aa3d ff13 16be
000000d0: a7b2 48be 720b abbd 2ad6 9fbd 4a06 0d3e
000000e0: f2c3 743d 5a3a c5be 3759 443f cd0e 37be
000000f0: 3830 22bf 5c53 6a3f 870c 6bbe fd67 07be
00000100: 0548 293e 48e7 16bd 9343 51bf d569 a63f
00000110: 801f e6be 40d1 82bf d9ca b43f e185 ebbe
00000120: 3612 74bd 718d 13bc e048 803d cee0 77be
00000130: 9cce d13e 2cc7 b2bd 2391 97be 66c3 e13e
00000140: 6535 13be 11e9 30bd 2c0d cdbb 9078 853d
00000150: aaa5 6e3d 6be0 6a3e 42fa 97be 6621 593c
00000160: 3ac0 973e 9ea1 a0be bb6d 9bbc 861e 01bd
00000170: ff77 a33d 2542 613d 4c3f 103f 0a1b 13bf
00000180: 4f24 293d 0d10 203f d453 26bf 55c3 423c
00000190: cc20 9f3c be81 9dbd 3a30 093e edb8 3a3e
000001a0: 6c58 56be 0b25 5d3d 0ae5 0e3e 7ee8 68be
000001b0: 7170 cabd d3d3 8cbd 6dc9 e2bd 7514 2e3c
000001c0: 83c4 27bc 0d9d 06be 4c66 fa3d 19cd e93c
000001d0: e3aa 4dbe c779 a53d 7c4b 7c3c c254 91bd
000001e0: cc0a 283e c803 e8bd 320a 98be bc08 3b3e
000001f0: 4edc b0bd e2d0 dbbe 351e ae3d abd5 97bd
00000200: 055b 52be 4d50 5b3d c385 0cbe c9a3 88be
00000210: 5125 4fbc a925 cdbd d1eb 6cbe dcfb 313e
00000220: c44a 3f3e fcba 05be e67a bb3d 4551 1b3f
00000230: 6d10 993e 3b80 58be 3148 053f 8a2c 1f3f
00000240: 8016 043e afd7 44bc 4e65 c63d 4330 413d
00000250: 3941 08be c3ef 12bd d90a 653c 60af 09be
00000260: cf70 52bd ca51 7fbe 6abb 3ebe 13e5 173d
00000270: 66f8 3cbe 5512 07bf a75d 92be 4f0b 8c3d
00000280: d5f5 f3be ef90 0fbf be6a 3a3e 4bf4 f13d
00000290: 299a 133d 20c8 003f 9eda d1b9 46a0 bcbd
000002a0: a95c cc3d 0e14 bebd c24d e93b 545f b73c
000002b0: 8f86 fbbc 108e 54bd 476c 593f 9203 b3bd
000002c0: 8ff7 92be c0ef f33d c207 6ebe 4a91 26bd
000002d0: b3ce c93d 25ea 4c3d 417d 9b3b 611a 873e
000002e0: 0487 883d 1e21 c33c e496 a3bd d0cf dcbd
000002f0: 7147 05bc 8771 033d 38aa 063d 1485 09bd
00000300: 7015 6abc 220c d53d 3fba 953e ce4c 9bbb
00000310: 10b2 af3d ed69 b33e 544c b0bd 8b57 2bbe
00000320: 4695 3bbe 7c34 70bd 7f8a 933d 2827 9c3e
00000330: d7ba 09bc 1e67 023e c2d4 ad3e 9e6f 45bd
00000340: a23e 0cbb e84a b93c c526 1c3d 2ac3 3b3e
00000350: dceb b63e 4f4b c63d b7cc 493e 01c7 a53e
00000360: 35a2 3f3d 82e7 3d3d eaf1 1abe 0fb4 3fbe
00000370: 895b 263f b9a7 08bf 5f16 343c 868f 363f
00000380: 03ea 29bf 1632 1dbd 6f71 2e3e 8b52 5bbe
00000390: b71d 14be 3dae 843f c871 6abf ced6 14bc
000003a0: fe2b 823f f772 73bf 859a a83d f168 2c3d
000003b0: b526 013a 7635 c7bd b129 d43e d311 afbe
000003c0: e3b5 4e3c db41 d83e 3607 c2be e325 0000
000003d0: dfad 0000 a4a8 0000 8032 0000 4cb0 0000
000003e0: 8560 0080 7fc9 0000 a732 0080 3540 0000
000003f0: 3453 0000 1f21 0080 3723 0080 b0c2 0000

backbone.0.1.weight f4 [16]
-3.2395e-41 0.09896464 0.114018545 0.2889644 0.1921455 0.21592505 0.11991984 0.29658735
0.09399834 -6.3284e-41 0.42121032 0.14986491 0.30903864 0.33420455 7.8449e-41 0.08806687
00000000: 4e5a 0080 f9ad ca3d 8e82 e93d 24f3 933e
00000010: cac1 443e 751b 5d3e 8898 f53d 4cda 973e
00000020: 3482 c03d 69b0 0080 e1a8 d73e 3076 193e
00000030: 503a 9e3e dc1c ab3e afda 0000 675c b43d

backbone.0.1.bias f4 [16]
5.2612e-41 0.5990604 0.4044765 0.23217994 0.85360485 0.565408 0.4648492 0.5020449
0.5380323 7.5991e-41 -0.2675716 0.87635654 0.34018242 -0.3084003 7.9845e-41 0.13116227
00000000: a992 0000 065c 193f 8b17 cf3e 94c0 6d3e
00000010: d985 5a3f 94be 103f b700 ee3e 0486 003f
00000020: 7cbc 093f d5d3 0000 25ff 88be e758 603f
00000030: 642c ae3e a5e6 9dbe 93de 0000 674f 063e

backbone.0.1.running_mean f4 [16]
1.54888e-38 56.59851 43.84342 11.848851 -195.99748 -70.295006 126.67183 240.20496
6.4657907 4.0885214e-38 -23.43275 199.36823 21.787115 70.4744 -1.5664938e-38 -40.488277
00000000: 79a8 a800 e064 6242 a95f 2f42 e594 3d41
00000010: 5bff 43c3 0b97 8cc2 fa57 fd42 7834 7043
00000020: c2e7 ce40 ac99 5e01 4676 bbc1 445e 4743
00000030: 034c ae41 e5f2 8c42 7993 aa80 fff3 21c2

backbone.0.1.running_var f4 [16]
6e-45 2886.6648 9710.897 1989.3545 16951.7 10749.806 9611.994 25165.03
6005.6914 6e-45 3278.6814 17236.605 2779.778 3627.7556 6e-45 2236.6375
00000000: 0400 0000 a36a 3445 97bb 1746 58ab f844
00000010: 666f 8446 39f7 2746 fa2f 1646 0f9a c446
00000020: 88ad bb45 0400 0000 e7ea 4c45 36a9 8646
00000030: 73bc 2d45 17bc 6245 0400 0000 33ca 0b45

backbone.1.conv.0.0.weight f4 [16, 1, 3, 3]
-6.3937e-41 1.4276e-41 6.17e-41 1.148e-41 -6.1373e-41 -7.6411e-41 -4.546e-41 8.2658e-41
2.2317e-41 -0.028811041 -0.028556162 0.024625875 0.017511053 -0.054045256 0.7152367 -0.012566517
0.032292493 -0.85127336 0.0052647917 -0.04556832 -0.13786383 -0.018945832 0.04451216 1.0400455
0.010187527 -0.078242294 -0.08326446 -0.056212764 -0.04117708 -0.07113348 0.012699821 0.80385673
-0.28169712 -0.00023433824 -0.038130123 -0.1990568 0.5686732 1.9269137 0.46191886 0.21456277
0.44234496 0.20507494 -0.844601 -2.1074557 -0.7177377 -0.22142714 0.0029589753 -0.21216214
0.12608968 0.37606525 -1.6357881 0.08198568 1.31976 0.39450783 -0.063586324 0.08187167
-0.05154123 -0.0022106 0.04549077 -0.76919585 0.015764253 0.072892934 1.022864 -0.47810474
-0.27596664 0.7294788 -2.358699 -0.36281925 2.5987055 -0.42873058 -0.14208883 0.66059625
-0.044131946 0.014457636 -0.07844939 0.036561765 -0.92261326 0.13716687 0.06662316 0.016581962
-0.101619765 -4.498e-41 -8.139e-41 6.5082e-41 7.7738e-41 -5.817e-41 6.2246e-41 -3.904e-41
-4.4976e-41 7.9456e-41 -0.014015237 -0.14659128 -0.37048224 -0.18447906 0.13968575 0.38818192
-0.3248936 0.34381992 0.49438155 0.18763047 1.5596281 0.97651863 0.1075098 0.043838024
-0.11950922 -0.28174666 -1.6284043 -0.9712621 0.004663548 0.030388044 -0.019847365 0.011061969
-0.01768645 -0.7449424 -0.020324595 -0.0075214976 0.7300107 -0.026558425 0.063378684 -0.182672
0.050995644 0.11637081 -0.08605807 -0.17391212 -0.06094478 0.5960084 6.5825e-41 -6.292e-41
5.9785e-41 6.1666e-41 -5.4192e-41 6.7587e-41 1.4278e-41 8.034e-41 5.307e-41 0.1297925
0.020152258 0.022469185 0.1378032 -0.054105032 -0.1786467 0.09968757 -0.19553493 -0.23852174
00000000: 3bb2 0080 cc27 0000 ffab 0000 0020 0000
00000010: 15ab 0080 01d5 0080 b97e 0080 6be6 0000
00000020: 363e 0000 2205 ecbc 9dee e9bc 34bc c93c
00000030: 5773 8f3c 8f5e 5dbd c119 373f cbe3 4dbc
00000040: 2245 043d 0ded 59bf 4684 ac3b d9a5 3abd
00000050: 2d2c 0dbe 4a34 9bbc 6252 363d 3620 853f
00000060: 96e9 263c 7f3d a0bd 8f86 aabd 5b3f 66bd
00000070: 4ca9 28bd 6eae 91bd e912 503c 8ec9 4d3f
00000080: 9b3a 90be b1b8 75b9 552e 1cbd 8cd5 4bbe
00000090: 9194 113f 1ca5 f63f a180 ec3e 58b6 5b3e
000000a0: 0a7b e23e 2aff 513e c537 58bf 8ee0 06c0
000000b0: a8bd 37bf ccbd 62be 5eeb 413b 0841 59be
000000c0: a71d 013e a08b c03e 8161 d1bf 1ce8 a73d
000000d0: e5ed a83f eefc c93e 8c39 82bd 56ac a73d
000000e0: e61c 53bd b7df 10bb 8854 3a3d 05ea 44bf
000000f0: 0924 813c e448 953d 35ed 823f 25ca f4be
00000100: 804b 8dbe 1fbf 3a3f edf4 16c0 72c3 b9be
00000110: 3151 2640 9382 dbbe bc7f 11be d61c 293f
00000120: b3c3 34bd b8df 6c3c 13aa a0bd cac1 153d
00000130: 6230 6cbf 7975 0c3e b971 883d e5d6 873c
00000140: 061e d0bd 637d 0080 e2e2 0080 6cb5 0000
00000150: b4d8 0000 27a2 0080 84ad 0000 d46c 0080
00000160: 607d 0080 7edd 0000 2aa0 65bc 061c 16be
00000170: d9af bdbe 14e8 3cbe c809 0f3e c8bf c63e
00000180: 7458 a6be 2a09 b03e 941f fd3e 3422 403e
00000190: e5a1 c73f 20fd 793f 192e dc3d 808f 333d
000001a0: 40c1 f4bd 1941 90be 8d6f d0bf a2a4 78bf
000001b0: add0 983b 59f0 f83c f196 a2bc 433d 353c
000001c0: 2de3 90bc 8cb4 3ebf c47f a6bc e576 f6bb
000001d0: fbe1 3a3f 0e91 d9bc afcc 813d 5e0e 3bbe
000001e0: cfe0 503d d253 ee3d 373f b0bd 0516 32be
000001f0: 3ca1 79bd 0294 183f 7eb7 0000 65af 0080
00000200: a8a6 0000 e6ab 0000 1197 0080 68bc 0000
00000210: cd27 0000 f5df 0000 f093 0000 53e8 043e
00000220: 5916 a53c 4c11 b83c 481c 0d3e 3d9d 5dbd
00000230: 29ef 36be ff28 cc3d 4f3a 48be 0b3f 74be

backbone.1.conv.0.1.weight f4 [16]
-2.6705e-41 0.5063353 0.55790824 0.58724785 1.1293306 0.46874946 0.5511927 0.81934696
0.41375858 -1.4446e-41 0.20606782 0.984287 0.8688273 0.24236651 6.2495e-41 0.3339311
00000000: 714a 0080 319f 013f 13d3 0e3f e055 163f
00000010: e88d 903f eeff ef3e f71a 0d3f b9c0 513f
00000020: 2ad8 d33e 4528 0080 7103 533e 3cfa 7b3f
00000030: 776b 5e3f ed2e 783e 36ae 0000 04f9 aa3e

backbone.1.conv.0.1.bias f4 [16]
-4.95091e-40 0.63146436 1.3326967 0.26511264 0.2001173 0.76159674 0.54899913 0.50476474
0.44573772 -1.532913e-39 0.5369597 0.06588918 0.685029 -0.3106957 -7.783927e-39 0.36693412
00000000: 1d64 0580 a6a7 213f ce95 aa3f d8bc 873e
00000010: 8deb 4c3e 01f8 423f 358b 0c3f 4338 013f
00000020: bc37 e43e 23b1 1080 3176 093f e8f0 863d
00000030: 0f5e 2f3f 8213 9fbe 6cc2 5480 cade bb3e

backbone.1.conv.0.1.running_mean f4 [16]
6e-45 -0.10629042 0.2889412 0.035054464 0.13706537 0.13951854 0.16011113 -0.035713844
-0.47097468 -6e-45 0.01587714 -0.108080216 -0.020086762 0.013053706 -6e-45 -0.03461111
00000000: 0400 0000 cbae d9bd 1af0 933e 4595 0f3d
00000010: dd5a 0c3e f3dd 0e3e 2cf4 233e ae48 12bd
00000020: 9823 f1be 0400 0080 c710 823c 2959 ddbd
00000030: fe8c a4bc 36df 553c 0400 0080 61c4 0dbd

backbone.1.conv.0.1.running_var f4 [16]
6e-45 0.008742456 0.00833605 0.036785495 0.22098577 0.047914445 0.0067061973 0.40421
0.0070303096 6e-45 0.0074292957 0.1430279 0.058198236 0.0018557761 6e-45 0.00074861746
00000000: 0400 0000 853c 0f3c ee93 083c 63ac 163d
00000010: 184a 623e f041 443d a9bf db3b 9df4 ce3e
00000020: 835e e63b 0400 0000 7371 f33b e875 123e
00000030: 4661 6e3d 833d f33a 0400 0000 de3e 443a

backbone.1.conv.1.weight f4 [8, 16, 1, 1]
-7.1749e-41 -0.21858822 -0.0434851 0.19065423 -0.042852227 0.6529643 0.2549677 -0.107249334
-0.06243734 1.72185e-40 -0.003111834 0.2551965 0.11662144 0.009601505 -2.21111e-40 -0.21340345
7.0122e-41 -0.07613202 -0.5155069 0.0058790245 0.2565686 -0.07884381 0.0109170135 0.018042162
0.09243254 3.5652e-41 -0.0739148 0.11171401 -0.185656 -0.045829203 -6.586e-41 -0.30276823
8.3851e-41 0.41510522 0.13134983 0.42142487 -0.19368546 -0.17141825 -0.29323855 0.08903806
-0.21185999 -5.6664e-40 -0.20543386 0.37387967 0.029018058 -0.08703211 5.1629e-40 -0.35769016
-2.59494e-40 -0.17157412 -0.116550654 -0.08874608 0.4607008 -0.2786422 0.1333838 -0.06292044
-0.16370566 1.89816e-40 0.11272193 -0.40330094 0.45107865 0.27059352 -2.36329e-40 -0.36848098
1.34005e-40 -0.32482624 0.22862935 0.022256592 0.13671398 -0.6877394 0.18157503 -0.2129984
-0.07606257 -3.4042e-40 0.29103526 -0.032236464 -0.23779653 0.13024671 -6.72356e-40 0.009385846
-3.93182e-40 -0.11705607 0.048978988 -0.5685734 -0.29619974 -0.1496782 0.14491633 0.57574135
0.4447212 2.3562e-40 0.10576232 0.40773368 0.09721708 0.050244667 3.5164e-41 -0.22206467
1.072e-42 0.31524366 -0.046334963 -0.41885933 -0.39334464 0.068980634 0.0019259432 -0.8227303
0.07372166 -2.5385e-41 -0.04930447 0.2398237 -0.0663487 0.3212577 -1.4557e-40 -0.21316238
2.6482e-41 0.09136965 0.2505981 -0.05171767 0.509777 0.56495017 -0.13976769 0.15106356
-0.057921764 3.22708e-40 0.08629678 -0.4486186 -0.22609864 0.09114341 -1.13379e-40 -0.24935436
00000000: 02c8 0080 97d5 5fbe 6f1d 32bd dd3a 433e
00000010: d185 2fbd ab28 273f 208b 823e 8aa5 dbbd
00000020: 4cbe 7fbd fbdf 0100 e9ef 4bbb 1ea9 823e
00000030: 39d7 ee3d a14f 1d3c 5e68 0280 6f86 5abe
00000040: 79c3 0000 1beb 9bbd 43f8 03bf d5a4 c03b
00000050: f65c 833e dd78 a1bd 46dd 323c 28cd 933c
00000060: 464d bd3d 6263 0000 a560 97bd 51ca e43d
00000070: 9b1c 3ebe 67b7 3bbd 97b7 0080 7004 9bbe
00000080: bee9 0000 ac88 d43e 9280 063e 00c5 d73e
00000090: 7b55 46be 4488 2fbe 5d23 96be 9659 b63d
000000a0: d3f1 58be 902b 0680 415d 52be 286d bf3e
000000b0: 47b7 ed3c e43d b2bd 359f 0500 2a23 b7be
000000c0: 5dd3 0280 20b1 2fbe 1cb2 eebd 81c0 b5bd
000000d0: fae0 eb3e 31aa 8ebe c395 083e 6fdc 80bd
000000e0: 75a2 27be 2111 0200 c1da e63d 767d cebe
000000f0: c8f3 e63e 3c8b 8a3e ca92 0280 8aa9 bcbe
00000100: 8d75 0100 a04f a6be d01d 6a3e 7553 b63c
00000110: c0fe 0b3e b00f 30bf ceee 393e 411c 5abe
00000120: b1c6 9bbd f4b4 0380 9302 953e 620a 04bd
00000130: ef80 73be 655f 053e 4152 0780 17c7 193c
00000140: 0848 0480 18bb efbd 319e 483d 078e 11bf
00000150: 7ea7 97be 3e45 19be f264 143e c963 133f
00000160: 7fb2 e33e d090 0200 ea99 d83d 78c2 d03e
00000170: c019 c73d 5acd 4d3d 0662 0000 ec64 63be
00000180: fd02 0000 9e67 a13e bbc9 3dbd bb74 d6be
00000190: 7864 c9be b845 8d3d ee6f fc3a 749e 52bf
000001a0: 62fb 963d c346 0080 7cf3 49bd 5894 753e
000001b0: d4e1 87bd e47b a43e ca95 0180 3d47 5abe
000001c0: d249 0000 0320 bb3d 654e 803e e8d5 53bd
000001d0: bf80 023f 93a0 103f 431f 0fbe 68b0 1a3e
000001e0: 5f3f 6dbd 9483 0300 5ebc b03d 56b1 e5be
000001f0: 6786 67be 65a9 ba3d 0e3c 0180 c056 7fbe

backbone.1.conv.2.weight f4 [8]
0.52156717 0.47850204 0.6877789 0.52513 0.5150649 0.6065595 0.5760743 0.5110413
00000000: 6d85 053f 38fe f43e 4712 303f eb6e 063f
00000010: 4bdb 033f 7c47 1b3f 9b79 133f 9ad3 023f

backbone.1.conv.2.bias f4 [8]
-6.1032522e-05 0.000100014666 -3.3823417e-05 -3.5810594e-05 -6.6955627e-06 3.5192086e-05 -7.314333e-05 -3.3943725e-05
00000000: 2cfd 7fb8 f7be d138 9edd 0db8 5533 16b8
00000010: 72aa e0b6 379b 1338 8764 99b8 cc5e 0eb8

backbone.1.conv.2.running_mean f4 [8]
0.4810637 -0.9199726 0.025991503 -0.19881278 -0.4705218 0.36244947 -0.65483624 0.6695618
00000000: fb4d f63e 5383 6bbf 22ec d43c 9495 4bbe
00000010: 3ce8 f0be fa92 b93e 59a3 27bf 6768 2b3f

backbone.1.conv.2.running_var f4 [8]
0.11600713 0.12161262 0.261068 0.30510482 0.20004196 0.3509932 0.36412367 0.18686925
00000000: 2595 ed3d 0a10 f93d b4aa 853e b336 9c3e
00000010: cdd7 4c3e 61b5 b33e 6b6e ba3e a75a 3f3e

backbone.2.conv.0.0.weight f4 [48, 8, 1, 1]
0.12640923 -0.073848225 0.1500193 -0.34584856 -0.1485588 0.06852014 0.22698739 0.045515604
0.13567878 0.07776041 0.09140788 0.018609667 -0.046491403 -0.37719592 -0.15877806 -0.15967791
-0.16928974 0.06760917 -0.1621858 0.14708214 -0.016774343 -0.11481584 -0.21011019 0.20247765
-0.188534 0.16754685 0.15608364 -0.44303557 0.021532858 -0.09854577 -0.22727603 -0.52828795
0.030660445 -0.10883001 0.11381163 -0.2613714 -0.05312197 0.10108278 0.055881828 -0.28999987
0.094587035 0.046468284 0.21779005 -0.104386136 -0.06926177 -0.0018520324 0.26607603 -0.08423842
0.02927683 0.19426052 0.20599371 0.1520245 -0.101129144 -0.29406446 -0.08621523 -0.049578853
0.018164359 0.113799416 0.04626388 -0.005317204 0.07666878 0.01830375 -0.06438905 0.12014546
-0.01680872 0.066779375 0.5080278 0.013468592 -0.098787814 -0.00090287 0.008095456 0.002150144
-0.0637582 0.32800305 -0.09114856 0.13343228 -0.11025509 0.11385346 0.078138836 -0.036269724
-0.16689806 -0.094881 0.07199468 -0.3879739 0.124486916 0.0809372 0.022856563 -0.037744448
-0.089086466 0.09254035 -0.29757428 0.25861663 0.07703725 -0.16616757 -0.13457398 0.19881463
0.119546555 0.104777925 -0.1818562 0.144381 0.07978946 0.14633012 -0.030815296 -0.057503562
0.3201117 -0.12207872 -0.042460132 -0.014288394 -0.23782344 -0.051996667 0.10978226 0.20535998
0.08801326 -0.20903033 0.011059813 0.38103402 -0.024992706 0.14250675 -0.10334499 -0.3433299
0.111673586 0.23832187 0.19258079 0.16972956 -0.29632747 -0.17384131 0.031479347 -0.03776678
0.30795944 0.19969326 0.14106445 0.22232497 0.12878627 0.10148664 0.16626965 0.082654014
0.022528261 0.05617114 0.13917994 -0.09534017 -0.20810254 0.20876263 -0.02029364 0.057212178
-0.22313036 0.050704833 -0.20616671 0.16585739 -0.15781666 -0.10364676 -0.20245007 0.2936651
-0.067746766 0.10516575 -0.23393275 0.35379076 0.086928934 -0.21594295 -0.16134922 0.45280784
0.090948924 0.17908777 0.22284698 0.24498713 0.024977172 0.11211335 0.14845607 0.11158724
0.04615401 -0.08227848 0.080371484 -0.39026412 0.14451976 -0.041954663 -0.3402499 -0.011082964
0.073297635 0.13125475 0.008502635 0.06747164 -0.23467612 -0.07551005 -0.024985638 -0.11164987
0.2734516 -0.05423577 0.09204302 0.11006875 0.017471366 -0.03980509 -0.13516805 -0.006602265
-0.169467 -0.15380661 0.07848965 0.18697871 -0.19984028 -0.06319243 0.062410045 -0.048114832
-0.0681219 -0.4543624 0.21418494 -0.04501006 0.11050244 -0.0990863 -0.0017025714 0.26977354
-0.20845996 -0.025708785 0.21708515 0.015861968 -0.19000591 -0.008565086 0.1802553 0.12237921
-0.21477634 -0.0006019144 -0.07525195 0.27944398 0.12712754 0.08091072 0.34550008 0.10645226
0.3418173 -0.053299557 -0.2374458 -0.03489513 -0.022389378 -0.24752253 0.013036788 0.1987979
0.048888568 0.010041586 0.20023346 0.19574812 0.13172834 0.08461251 -0.05454326 0.06621212
-0.23990557 -0.059604865 -0.27931085 -0.07878652 -0.19115941 0.48966864 0.068005815 0.18141316
0.15300308 -0.023656227 0.04524516 -0.16944993 -0.26535612 0.0983943 0.008419886 0.26047242
00000000: 6c71 013e bd3d 97bd a99e 193e 1013 b1be
00000010: cc1f 18be 4a54 8c3d 626f 683e 926e 3a3d
00000020: 61ef 0a3e da40 9f3d 0e34 bb3d 4d73 983c
00000030: c56d 3ebd d31f c1be b796 22be 9b82 23be
00000040: 4a5a 2dbe ad76 8a3d 0914 26be b39c 163e
00000050: 596a 89bc 9124 ebbd 2027 57be 4d56 4f3e
00000060: 0f0f 41be 6791 2b3e 64d4 1f3e 8fd5 e2be
00000070: ad65 b03c 5dd2 c9bd 0cbb 68be e13d 07bf
00000080: 9d2b fb3c 45e2 debd 1216 e93d 79d2 85be
00000090: 6c96 59bd 7d04 cf3d 58e4 643d dd7a 94be
000000a0: d9b6 c13d 8755 3e3d 5b04 5f3e 66c8 d5bd
000000b0: 1dd9 8dbd e5bf f2ba 1e3b 883e 3185 acbd
000000c0: f6d5 ef3c 3bec 463e 04f0 523e 4fac 1b3e
000000d0: cc1c cfbd 9e8f 96be 9c91 b0bd 3213 4bbd
000000e0: 6ccd 943c ab0f e93d 327f 3d3d f13b aebb
000000f0: 8504 9d3d bff1 953c 68de 83bd d30e f63d
00000100: 71b2 89bc a0c3 883d 1c0e 023f 5fab 5c3c
00000110: 4451 cabd 94ae 6cba cea2 043c 6ee9 0c3b
00000120: a993 82bd 04f0 a73e 19ac babd 79a2 083e
00000130: 6ccd e1bd 012c e93d 4107 a03d 908f 14bd
00000140: 53e7 2abe f850 c2bd f271 933d 84a4 c6be
00000150: fff2 fe3d 67c2 a53d b03d bb3c ec99 1abd
00000160: f772 b6bd cc85 bd3d a85b 98be 6669 843e
00000170: b5c5 9d3d d527 2abe c3cd 09be 1096 4b3e
00000180: d3d4 f43d cf95 d63d 8338 3abe 9dd8 133e
00000190: a868 a33d 90d7 153e 5c70 fcbc db88 6bbd
000001a0: aee5 a33e 6804 fabd adea 2dbd de19 6abc
000001b0: fd87 73be 75fa 54bd 86d5 e03d e349 523e
000001c0: 4c40 b43d 0c0c 56be 3834 353c e416 c33e
000001d0: 81bd ccbc 4aed 113e 8aa6 d3bd f0c8 afbe
000001e0: 1fb5 e43d a60a 743e e633 453e 96cd 2d3e
000001f0: 3cb8 97be 7503 32be 7df0 003d 57b1 1abd
00000200: dcac 9d3e 647c 4c3e 3373 103e 28a9 633e
00000210: 8ce0 033e 3ad8 cf3d 9742 2a3e 8246 a93d
00000220: 308d b83c b613 663d 3085 0e3e b541 c3bd
00000230: d518 55be dfc5 553e d93e a6bc 5157 6a3d
00000240: 497c 64be dfaf 4f3d 5e1d 53be 85d6 293e
00000250: b19a 21be c144 d4bd 124f 4fbe 465b 963e
00000260: d1be 8abd 2461 d73d 118c 6fbe 1024 b53e
00000270: cc07 b23d 2620 5dbe bb38 25be 6ed6 e73e
00000280: 6e43 ba3d c962 373e 0032 643e e8dd 7a3e
00000290: ed9c cc3c af9b e53d de04 183e da87 e43d
000002a0: fd0b 3d3d 9f81 a8bd ce99 a43d b3d0 c7be
000002b0: fdfc 133e a7d8 2bbd 3c35 aebe 5295 35bc
000002c0: 121d 963d a567 063e a34e 0b3c 922e 8a3d
000002d0: f04e 70be 03a5 9abd aeae ccbc b0a8 e4bd
000002e0: d901 8c3e 5426 5ebd 0d81 bc3d ba6b e13d
000002f0: 1c20 8f3c a90a 23bd 7e69 0abe d057 d8bb
00000300: c288 2dbe 7b7f 1dbe 2ebf a03d 5977 3f3e
00000310: eea2 4cbe 086b 81bd ada1 7f3d 0f14 45bd
00000320: 7f83 8bbd 30a2 e8be 4c53 5b3e 785c 38bd
00000330: 1a4f e23d c2ed cabd d128 dfba c21f 8a3e
00000340: 8776 55be 3b9b d2bc 924b 5e3e f5f0 813c
00000350: e990 42be 9354 0cbc d894 383e f4a1 fa3d
00000360: 54ee 5bbe cbc9 1dba b21d 9abd 4813 8f3e
00000370: b92d 023e 85b4 a53d 63e5 b03e a403 da3d
00000380: ad02 af3e a350 5abd fe24 73be 32ee 0ebd
00000390: ee69 b7bc 8c76 7dbe 4198 553c ad91 4b3e
000003a0: 613f 483d 7785 243c 000a 4d3e 3272 483e
000003b0: cbe3 063e 5349 ad3d c168 5fbd 389a 873d
000003c0: cea9 75be 3b24 74bd d501 8fbe d45a a1bd
000003d0: 4bbf 43be d9b5 fa3e a246 8b3d 5fc4 393e
000003e0: d7ac 1c3e b4ca c1bc fd52 393d 4884 2dbe
000003f0: c2dc 87be f382 c93d 90f3 093c a45c 853e

backbone.2.conv.0.1.weight f4 [48]
0.448583 0.34805897 0.11736628 0.16707692 0.15746088 0.07807691 0.28645346 0.05816942
0.36895272 0.11412993 0.22543448 0.4051475 0.07885249 0.13848124 0.1401676 0.37782362
0.16445716 0.19495752 0.3795517 0.26473293 0.23720533 0.13678282 0.16150846 0.1583475
0.13958883 0.17542262 0.14977138 0.26640573 0.078715034 0.05083181 0.45091537 0.093893245
0.2622948 0.34953746 0.31024 0.22031307 0.35685822 0.40537053 0.18295306 0.40093154
0.4571611 0.14427422 0.10730692 0.20650022 0.20348902 0.2725488 0.32900164 0.05711597
00000000: acac e53e c934 b23e bb5d f03d 3616 2b3e
00000010: 6d3d 213e c9e6 9f3d 07aa 923e 0f43 6e3d
00000020: 5fe7 bc3e f4bc e93d 4cd8 663e 7e6f cf3e
00000030: 6a7d a13d 07ce 0d3e 1888 0f3e 1972 c13e
00000040: 7567 283e f2a2 473e 9a54 c23e 138b 873e
00000050: f4e5 723e cc10 0c3e 7962 253e d925 223e
00000060: 60f0 0e3e fda1 333e ab5d 193e 5566 883e
00000070: 5935 a13d 0435 503d 61de e63e 1a4b c03d
00000080: 814b 863e 93f6 b23e c7d7 9e3e c099 613e
00000090: 1fb6 b63e ba8c cf3e 0c58 3b3e e646 cd3e
000000a0: 0511 ea3e 9fbc 133e bbc3 db3d cb74 533e
000000b0: 6d5f 503e 848b 8b3e e772 a83e 6ff2 693d

backbone.2.conv.0.1.bias f4 [48]
-0.022533765 0.026509054 0.24770682 0.3773077 0.26752266 0.293468 0.0022603786 0.030273195
-0.04350026 0.16244622 -0.041114815 0.050140806 0.2071825 0.17450759 0.20476481 -0.057415053
-0.10637454 0.15481621 0.04685773 0.30266765 0.26773885 0.16238195 0.15174168 0.20004834
0.16857006 0.020992728 0.14248434 -0.33689278 0.2785874 0.24666725 -0.024873666 0.20336933
0.040982634 0.028884541 0.08808656 0.16486786 -0.030930605 0.027345981 0.16892844 0.04640689
0.014244951 0.17483875 0.29639438 0.13458335 0.13557847 -0.05771217 0.1973197 0.24507271
00000000: bb98 b8bc 8429 d93c dba6 7d3e 7a2e c13e
00000010: bbf8 883e 7041 963e dc22 143b 7eff f73c
00000020: 542d 32bd 4d58 263e 0268 28bd 7260 4d3d
00000030: a627 543e 1eb2 323e dead 513e 0c2c 6bbd
00000040: e5da d9bd 2488 1e3e e4ed 3f3d 41f7 9a3e
00000050: 1115 893e 7447 263e 2c62 1b3e 79d9 4c3e
00000060: a19d 2c3e f1f8 ab3c 6ae7 113e 367d acbe
00000070: 02a3 8e3e 5796 7c3e dcc3 cbbc 0d40 503e
00000080: 68dd 273d 469f ec3c ba66 b43d 1fd3 283e
00000090: 2e62 fdbc ae04 e03c 94fb 2c3e 2715 3e3d
000000a0: a863 693c ee08 333e 01c1 973e 38d0 093e
000000b0: 15d5 0a3e 9963 6cbd 2d0e 4a3e 57f4 7a3e

backbone.2.conv.0.1.running_mean f4 [48]
-2.0996466e-05 8.8072056e-07 1.9633104e-05 5.375324e-05 1.7295001e-06 -2.3022661e-05 -2.6240098e-06 6.0132925e-06
-1.955904e-05 2.30757e-05 1.0825473e-05 1.4564436e-05 1.3341111e-05 -3.3265565e-05 -9.340887e-06 -8.18044e-06
-2.3999006e-05 4.2232e-06 1.9313506e-05 1.6806317e-06 -2.0395259e-05 2.3206858e-05 6.4213095e-06 -1.41824985e-05
-1.7036367e-05 -4.6214675e-05 -1.96384e-05 -2.0933145e-05 -1.8096109e-05 -1.3061555e-05 2.353591e-05 -1.0275092e-05
1.07403575e-05 -2.5903824e-05 -1.3486635e-05 3.4332486e-05 -4.5358156e-05 -1.6499118e-05 -6.446188e-06 1.48062145e-05
-1.4986245e-05 4.8699665e-05 4.9082823e-06 1.7313498e-05 3.195511e-05 7.999785e-06 -3.7365477e-05 4.8506945e-06
00000000: 9121 b0b7 a86a 6c35 c5b1 a437 1a75 6138
00000010: 2c21 e835 ca20 c1b7 2518 30b6 cac5 c936
00000020: b812 a4b7 b092 c137 0d9f 3537 c759 7437
00000030: a3d3 5f37 a186 0bb8 ceb6 1cb7 b93e 09b7
00000040: 7951 c9b7 03b5 8d36 7003 a237 1192 e135
00000050: 7c16 abb7 59ac c237 a176 d736 5ef1 6db7
00000060: 52e9 8eb7 a1d6 41b8 25bd a4b7 9699 afb7
00000070: 19cd 97b7 f422 5bb7 fb6e c537 2f63 2cb7
00000080: 7c31 3437 0a4c d9b7 a844 62b7 3a00 1038
00000090: f33e 3eb8 9667 8ab7 554c d8b6 3568 7837
000000a0: 6f6d 7bb7 de42 4c38 d3b1 a436 743c 9137
000000b0: 8a07 0638 d136 0637 e0b8 1cb8 26c3 a236

backbone.2.conv.0.1.running_var f4 [48]
0.13226186 0.078045554 0.096769154 0.14983292 0.097473614 0.09657566 0.08305929 0.011640574
0.13427982 0.034811266 0.07498875 0.16835709 0.037538275 0.0777084 0.06922073 0.094912976
0.048113406 0.058468975 0.12572663 0.26582307 0.03318655 0.05840813 0.026964488 0.028985487
0.021538453 0.06451305 0.04433347 0.06245105 0.10266897 0.02014084 0.19542196 0.07670652
0.062815346 0.10026636 0.12515582 0.08066248 0.1663774 0.15571845 0.04058393 0.15259434
0.037297092 0.13774715 0.058271084 0.096255235 0.08109572 0.13487059 0.14162996 0.08904406
00000000: a76f 073e 59d6 9f3d e82e c63d cd6d 193e
00000010: 3fa0 c73d 76c9 c53d fd1a aa3d 1bb8 3e3c
00000020: a680 093e 4296 0e3d b493 993d cd65 2c3e
00000030: bcc1 193d 9525 9f3d 99c3 8d3d bc61 c23d
00000040: 9012 453d 2a7d 6f3d 7bbe 003e f619 883e
00000050: 9fee 073d 5d3d 6f3d a1e4 dc3c f972 ed3c
00000060: 6971 b03c 6b1f 843d 0397 353d accc 7f3d
00000070: 1c44 d23d 67fe a43c b21c 483e 4f18 9d3d
00000080: 55a5 803d 7358 cd3d d928 003e 5f32 a53d
00000090: d65e 2a3e a874 1f3e 563b 263d b141 1c3e
000000a0: d6c4 183d 970d 0d3e a9ad 6e3d 7721 c53d
000000b0: 8315 a63d 841b 0a3e 7207 113e bb5c b63d

backbone.2.conv.1.0.weight f4 [48, 1, 3, 3]
-0.0145079745 -0.2067985 -0.20525123 -0.0074123493 -0.202212 -0.15556073 0.047356065 -0.09091545
-0.051932793 -0.08468409 -0.04460275 0.024434485 -0.17964104 -0.21066403 -0.14842804 -0.08388626
-0.066844046 -0.10140283 -0.115282245 -0.06395942 -0.020066928 0.19725007 0.45147845 0.2531529
-0.02135643 -0.07935829 -0.27167186 0.12524378 0.20838983 0.10389301 0.2607846 0.4257509
0.06431655 0.13410704 0.123462066 -0.019371452 -0.065749705 -0.34934172 -0.28049865 -0.005061286
-0.023718253 0.052864928 0.058421273 0.2651808 0.22452465 0.07832082 0.27868193 0.12695335
-0.015918726 -0.062262032 -0.048003975 -0.124083266 -0.22706625 -0.29022953 0.033682324 -0.059874292
-0.11803582 0.079667404 -0.15065086 -0.33701906 0.064842716 -0.034749795 -0.26766858 -0.068368405
-0.0076225353 0.0043014283 -0.077038914 0.056442805 -0.040402222 -0.14666614 0.009458869 -0.091554314
-0.043484207 0.052724723 0.12731424 0.0752505 0.2013885 0.21122938 0.21066438 0.2872672
0.0800751 -0.15912773 0.24120441 -0.043423895 0.03526697 0.12413291 0.02650394 0.1157591
-0.37666947 0.05658193 0.10509605 0.08879576 0.04201944 0.051150497 0.16696134 0.10864038
0.018251495 0.13500695 0.18313532 -0.104683585 -0.22484805 -0.013980094 -0.21463335 -0.28429508
0.01703897 -0.07797216 -0.072438456 0.011112032 -0.019579628 0.09791118 0.036306914 0.13231146
-0.42018464 -0.0040010023 -0.11822013 0.2779518 -0.001353708 -0.06143452 0.10723047 -0.088050365
-0.16481878 0.33411142 -0.13611159 0.012093711 0.19823603 -0.23499729 -0.04760232 -0.07249526
0.03675144 0.15516359 0.34586665 0.08092145 -0.12914346 -0.3288962 -0.13352463 -0.09377131
-0.061898496 0.12376014 -0.15622814 -0.27605397 0.00527023 0.036251623 -0.29143655 -0.02061095
-0.07227941 -0.03936733 0.13703093 0.0021451467 0.17094539 0.18424296 0.12552252 0.157594
0.15254481 0.21520177 0.12504578 0.03885028 0.19217604 0.13369602 0.04352018 0.08263638
0.12722336 0.028238418 -0.14983593 0.0060203103 0.07941347 -0.14249082 -0.28171632 -0.09939036
0.12565134 -0.09791782 -0.095229246 -0.052652188 -0.15118082 -0.06982305 -0.08150441 -0.29735303
-0.102160834 0.081748866 -0.2543301 -0.13957281 0.034483146 0.07286327 0.0433722 0.10685485
0.33308885 0.034885366 0.1700503 0.15512517 -0.21845677 -0.1784947 -0.06646356 0.11766561
-0.2704805 -0.13949844 0.20981638 -0.1676795 -0.1608857 0.046484254 0.048919853 -0.31321782
0.045946956 -0.18966383 0.48154375 -0.09022571 0.13199107 -0.14686856 0.048327472 -0.022742974
0.08645573 -0.08514669 0.039655194 -0.4865717 0.31972542 -0.023313122 0.32298258 -0.250582
-0.0077892123 0.008220089 0.1630377 -0.12886459 -0.3156443 -0.21613337 0.16133042 0.25879422
0.05632634 0.029480303 0.160567 0.14223589 0.04071316 0.25278217 0.1708688 0.03694283
0.30447328 0.063739926 -0.012845483 -0.18561818 -0.07683459 0.15343733 0.31908935 0.13161966
-0.121438004 -0.15459263 -0.046608206 0.08206802 0.18248309 0.0654008 0.051661547 0.26816547
0.14119448 -0.014053197 0.029129574 -0.05269587 0.059889957 0.19138613 0.13159211 0.048379596
00000000: dbb2 6dbc fcc2 53be 612d 52be 4be3 f2bb
00000010: aa10 4fbe 504b 1fbe 6ff8 413d e131 babd
00000020: 7bb7 54bd da6e adbd 60b1 36bd d42a c83c
00000030: d2f3 37be 50b8 57be 85fd 17be 8fcc abbd
00000040: 88e5 88bd 49ac cfbd 1919 ecbd 28fd 82bd
00000050: 6663 a4bc ecfb 493e 2f28 e73e 429d 813e
00000060: aef3 aebc 9986 a2bd 9318 8bbe e83f 003e
00000070: 2564 553e dcc5 d43d 8f85 853e 06fc d93e
00000080: 65b8 833d 5b53 093e aed9 fc3d e1b0 9ebc
00000090: c8a7 86bd ebdc b2be 859d 8fbe 25d9 a5bb
000000a0: c84c c2bc e588 583d 254b 6f3d c7c5 873e
000000b0: cae9 653e ab66 a03d 66af 8e3e 0f00 023e
000000c0: fd67 82bc 7906 7fbd d19f 44bd 5e1f febd
000000d0: 0e84 68be f798 94be 7af6 093d bf3e 75bd
000000e0: c4bc f1bd aa28 a33d 3844 1abe c38d acbe
000000f0: 42cc 843d cd55 0ebd db0b 89be bc04 8cbd
00000100: 76c6 f9bb fff2 8c3b 94c6 9dbd 9230 673d
00000110: cd7c 25bd a62f 16be 5ff9 1a3c d480 bbbd
00000120: 7f1c 32bd e1f5 573d aa5e 023e ef1c 9a3d
00000130: c938 4e3e 844c 583e 67b8 573e b014 933e
00000140: 6afe a33d 61f2 22be 4afe 763e 41dd 31bd
00000150: 1974 103d 6539 fe3d ca1e d93c 1b13 ed3d
00000160: d2da c0be 74c2 673d 993c d73d 8dda b53d
00000170: 941c 2c3d 2f83 513d eaf7 2a3e d97e de3d
00000180: 2984 953c 433f 0a3e d387 3b3e 5964 d6bd
00000190: 913e 66be c40c 65bc d8c8 5bbe 208f 91be
000001a0: 4f95 8b3c deaf 9fbd 9d5a 94bd 3e0f 363c
000001b0: 7565 a0bc a885 c83d 8fb6 143d a87c 073e
000001c0: 7122 d7be d71a 83bb 651d f2bd b34f 8e3e
000001d0: e76e b1ba c3a2 7bbd a69b db3d c053 b4bd
000001e0: 41c6 28be a710 ab3e d660 0bbe b324 463c
000001f0: 63fe 4a3e 21a3 70be a6fa 42bd 6578 94bd
00000200: ae88 163d 34e3 1e3e 6f15 b13e 25ba a53d
00000210: 2f3e 04be 1565 a8be aeba 08be 2c0b c0bd
00000220: 4789 7dbd f575 fd3d 45fa 1fbe f256 8dbe
00000230: e5b1 ac3b 957c 143d 2c37 95be 4cd8 a8bc
00000240: 3a07 94bd a33f 21bd d651 0c3e 9795 0c3b
00000250: 4f0c 2f3e 30aa 3c3e fa88 003e 5260 213e
00000260: b534 1c3e da5d 5c3e 000c 003e 7921 1f3d
00000270: ccc9 443e 9ce7 083e 3742 323d 433d a93d
00000280: d746 023e 4154 e73c 976e 19be 0646 c53b
00000290: 88a3 a23d 1de9 11be 1f3d 90be 2c8d cbbd
000002a0: bfaa 003e 2389 c8bd 8d07 c3bd d2a9 57bd
000002b0: 25cf 1abe 63ff 8ebd c9eb a6bd a83e 98be
000002c0: b339 d1bd f36b a73d 8e37 82be 2dec 0ebe
000002d0: 333e 0d3d 5739 953d 0ca7 313d b7d6 da3d
000002e0: 9f8a aa3e f5e3 0e3d aa21 2e3e 22d9 1e3e
000002f0: 22b3 5fbe 51c7 36be 0c1e 88bd abfa f03d
00000300: 6c7c 8abe aed8 0ebe 1bda 563e 2db4 2bbe
00000310: 39bf 24be 4666 3e3d 2f60 483d 165e a0be
00000320: e032 3c3d 3c37 42be e78c f63e 42c8 b8bd
00000330: ab28 073e b664 16be 07f3 453d 794f babc
00000340: b40f b13d 6361 aebd 7c6d 223d ed1f f9be
00000350: 0db3 a33e 29fb bebc f95d a53e 494c 80be
00000360: a63c ffbb 8dad 063c 5bf3 263e 14f5 03be
00000370: 219c a1be 1152 5dbe cd33 253e ad80 843e
00000380: 73b6 663d ad80 f13c ad6b 243e 49a6 113e
00000390: d8c2 263d aa6c 813e 3bf8 2e3e 5d51 173d
000003a0: ece3 9b3e 148a 823d dc75 52bc b112 3ebe
000003b0: 745b 9dbd ad1e 1d3e ae5f a33e 4ec7 063e
000003c0: 7db4 f8bd 884d 1ebe 3fe8 3ebd 4713 a83d
000003d0: d9dc 3a3e dbf0 853d 0f9b 533d fc4c 893e
000003e0: 4995 103e 613f 66bc 25a1 ee3c a0d7 57bd
000003f0: 2c4f 753d bafa 433e 15c0 063e af29 463d

backbone.2.conv.1.1.weight f4 [48]
0.5154738 0.3426825 0.37531742 0.21046504 0.37031952 0.36897996 0.15774016 0.17364296
0.19063686 0.25709462 0.20227455 0.48781326 0.30805686 0.25187021 0.3828216 0.27380347
0.2761436 0.30478746 0.5356131 0.5768768 0.21873777 0.25286955 0.2798455 0.2565858
0.34320906 0.21600862 0.36561105 0.20522416 0.23018105 0.19339229 0.5730908 0.25112396
0.30077052 0.20770283 0.20607956 0.34554762 0.21074113 0.40463433 0.32223943 0.3585479
0.4083073 0.2515116 0.43230802 0.34567106 0.34167826 0.14947793 0.35828054 0.3209282
00000000: 17f6 033f 1574 af3e 9b29 c03e 2684 573e
00000010: 859a bd3e f1ea bc3e a386 213e 76cf 313e
00000020: 4f36 433e e8a1 833e 0f21 4f3e a9c2 f93e
00000030: a1b9 9d3e 22f5 803e 3101 c43e f82f 8c3e
00000040: b262 8d3e 1a0d 9c3e f11d 093f 33ae 133f
00000050: cbfc 5f3e 1e78 813e e947 8f3e 375f 833e
00000060: 19b9 af3e 5d31 5d3e 5f31 bb3e 4826 523e
00000070: 95b4 6b3e a108 463e 14b6 123f 5293 803e
00000080: 98fe 993e 0db0 543e 8506 533e 9eeb b03e
00000090: 86cc 573e 3b2c cf3e 91fc a43e 9793 b73e
000000a0: a80d d13e 21c6 803e 7a57 dd3e ccfb b03e
000000b0: 74f0 ae3e be10 193e 8c70 b73e b350 a43e

backbone.2.conv.1.1.bias f4 [48]
-0.027905673 -0.097305916 0.01646329 0.69812024 0.008251175 0.027072815 0.61110955 -0.24389042
0.07850547 -0.071777366 0.0474522 0.2300831 -0.011150443 -0.041178655 -0.011052918 0.01298747
0.10366989 -0.095491305 0.10451401 -0.0238451 0.41608068 -0.05553551 -0.0014318879 -0.0054745236
-0.004808111 0.062587604 -0.01040204 0.09147639 0.273551 -0.036138587 -0.091938436 0.008597422
0.0067116767 0.6837059 0.61217046 -0.03469656 0.596467 0.34782684 -0.0033471987 0.24285959
0.258715 0.014282983 9.810851e-05 -0.026947442 -0.071739435 0.16161297 0.08929074 -0.08967358
00000000: 709a e4bc 5348 c7bd 06de 863c 02b8 323f
00000010: f02f 073c cfc7 dd3c ad71 1c3f 69be 79be
00000020: 7ac7 a03d 0300 93bd 3d5d 423d e79a 6b3e
00000030: 59b0 36bc f3aa 28bd 4c17 35bc 66c9 543c
00000040: e150 d43d f290 c3bd 710b d63d cd56 c3bc
00000050: 8708 d53e 3479 63bd 2fae bbba a263 b3bb
00000060: 5c8d 9dbb ee2d 803d 516d 2abc f957 bb3d
00000070: e00e 8c3e 0e06 14bd 384a bcbd 34dc 0c3c
00000080: a0ed db3b 5a07 2f3f 34b7 1c3f fb1d 0ebd
00000090: 10b2 183f 5c16 b23e ad5c 5bbb 2fb0 783e
000000a0: 4b76 843e 2c03 6a3c 9bbf cd38 e2c0 dcbc
000000b0: 20ec 92bd df7d 253e 10de b63d c8a6 b7bd

backbone.2.conv.1.1.running_mean f4 [48]
-0.111356534 -0.09623058 0.08254531 0.533815 -0.03029527 -0.08662842 -0.0747415 -0.012164599
0.12332793 0.00203646 0.045092247 -0.1426926 -0.004565468 -0.012971309 -0.018530346 -0.06530994
0.01899847 0.1593741 -0.093331516 -0.3385519 0.194065 -0.10060896 0.0031041335 -0.019745924
-0.0049887723 0.07539337 -0.00016363303 0.0039383518 0.28048757 0.009873534 -0.13936679 0.10289559
0.06051864 -0.1278174 -0.1776915 0.00820895 -0.10650598 -0.14254525 -0.0017534225 0.17959438
-0.14743721 0.19163306 -0.07512855 0.07102497 0.026341084 0.0906776 -0.23426582 0.060877122
00000000: e50e e4bd 8a14 c5bd 840d a93d 1aa8 083f
00000010: c92d f8bc 3e6a b1bd 1212 99bd 074e 47bc
00000020: 5b93 fc3d 2176 053b a6b2 383d 021e 12be
00000030: ec99 95bb 9d85 54bc f4cc 97bc 38c1 85bd
00000040: aea2 9b3c f732 233e 9824 bfbd ad56 adbe
00000050: fab8 463e 120c cebd b86e 4b3b 34c2 a1bc
00000060: db78 a3bb d767 9a3d e894 2bb9 4a0d 813b
00000070: 119c 8f3e 9ac4 213c 2bb6 0ebe ecba d23d
00000080: 65e2 773d 91e2 02be c3f4 35be d57e 063c
00000090: cf1f dabd 62f7 11be 19d3 e5ba 97e7 373e
000000a0: c8f9 16be 753b 443e ffdc 99bd 8a75 913d
000000b0: 42c9 d73c 2db5 b93d 61e3 6fbe 4a5a 793d

backbone.2.conv.1.1.running_var f4 [48]
0.028213816 0.01587207 0.0048291744 0.025134193 0.012610977 0.0035652015 0.017223982 0.00022181495
0.040573902 0.0011690127 0.003591346 0.03873869 0.0010142422 0.0035788387 0.010075171 0.013650366
0.002363819 0.012683539 0.017730663 0.030898985 0.014327334 0.006521223 0.0033075968 0.0058189817
0.007844529 0.008176798 0.005385277 0.00030046 0.002986184 0.00019233965 0.036600046 0.0025400305
0.005218129 0.029201645 0.029805245 0.00970395 0.011281542 0.048349757 0.0040117027 0.0884895
0.046178147 0.004685832 0.004541306 0.006690419 0.0054940623 0.009619543 0.01633132 0.00038418124
00000000: a920 e73c 2506 823c 0d3e 9e3b 39e6 cd3c
00000010: 459e 4e3c 28a6 693b 4f19 8d3c ff96 6839
00000020: d230 263d 8f39 993a ca5c 6b3b 76ac 1e3d
00000030: 52f0 843a f38a 6a3b 5412 253c c9a5 5f3c
00000040: 4dea 1a3b 9ece 4f3c e53f 913c de1f fd3c
00000050: 32bd 6a3c fcaf d53b 44c4 583b 28ad be3b
00000060: 5786 003c faf7 053c fa76 b03b 0f87 9d39
00000070: dbb3 433b c8ae 4939 eee9 153d a476 263b
00000080: d7fc aa3b 4a38 ef3c 212a f43c 51fd 1e3c
00000090: 37d6 383c 650a 463d 9a74 833b fc39 b53d
000000a0: 4c25 3d3d 9c8b 993b 3ccf 943b 4d3b db3b
000000b0: 8907 b43b 4a9b 1d3c 43c9 853c ef6b c939

backbone.2.conv.2.weight f4 [8, 48, 1, 1]
0.11935677 0.2542826 0.0012278772 0.1878538 0.35986534 -0.08209235 0.16442883 -0.13954526
-0.0953331 -0.08834826 0.07146231 0.34894615 0.012564705 -0.07315256 0.11506006 0.2735195
-0.22766286 0.0023424332 0.30481437 0.37551242 -0.06984088 -0.052861236 0.017658114 0.03780285
0.15916015 -0.044916302 0.13951658 -0.17737146 -0.1868151 -0.03632711 -0.09388408 0.0011623916
-0.06395643 0.2877639 0.16465211 -0.09745841 0.20926206 0.28841126 0.068240434 -0.064188145
0.09066192 -0.034115586 0.16179171 -0.13816455 -0.056273047 -0.19180211 0.030373389 -0.030508572
0.040645476 0.24388373 0.2526986 -0.323058 0.16795613 0.21729243 0.13526312 0.00033998638
-0.026153553 -0.04496332 0.091387965 -0.14958249 -0.05086651 -0.15305305 0.09316647 0.16809829
-0.10402403 0.075530015 -0.09755972 -0.037881363 -0.10066648 -0.22076178 -0.0025903217 -0.020085096
0.07447127 -0.07572837 0.16761675 -0.048849393 0.19768532 -0.048330814 0.041752387 -0.19785962
-0.110480376 0.13975163 -0.053938437 -0.11398343 0.42757887 -0.35667375 0.01410962 -0.28558788
-0.14714287 0.11193455 -0.030987332 -0.14853509 -0.12255078 -0.17276406 -0.060212687 -0.20418186
0.13781373 -0.0179584 0.024635755 -0.24840564 0.18288694 -0.25764292 -0.105989985 0.019231396
-0.12421514 0.18552175 -0.040556245 -0.31120482 0.29217595 -0.20238459 -0.104614474 0.0092499675
0.15183249 -0.09045155 0.08207814 0.093926355 0.059478924 -0.0065980903 0.23841824 0.24074976
-0.101961695 -0.15283224 -0.16066496 0.167134 0.15920508 0.22974248 0.04759473 0.035780195
-0.27692437 0.23407915 0.18113029 -0.17342402 -0.14462009 0.21014391 0.22863998 -0.1712004
-0.024899216 -0.18348788 0.0061158077 -0.12086623 -0.33583727 0.17384987 -0.37388965 0.22829747
0.043099977 0.249506 0.08775468 0.3197885 -0.12310258 0.123159006 -0.0436881 0.033959985
-0.15817508 -0.011004464 0.22939178 -0.2010774 0.03687103 0.0443533 0.17559491 0.060728967
0.003876784 0.03596778 0.013134792 -0.26178065 -0.121857904 0.06201409 0.081849344 0.071431875
0.16092117 -0.082412474 0.14233278 0.07145096 -0.16977566 0.0017306338 0.33712724 0.1489305
-0.058273386 -0.08367924 0.2512818 -0.0021057483 0.097175926 0.21995968 0.069232546 -0.0940406
-0.16695376 0.3134058 0.3690539 0.011641292 -0.023117982 -0.075880855 -0.35380846 0.10243488
-0.033719476 -0.1378676 0.1859648 0.07284383 0.16348834 -0.022377089 -0.24679852 0.038608704
-0.0030077975 -0.06843476 0.18744017 0.22742577 0.18455526 0.032615285 0.29444715 -0.10628373
-0.087519504 -0.29288036 0.0072049075 -0.20875312 -0.17466304 0.06739436 0.07118095 0.111073025
0.2680573 0.114799045 0.28357238 -0.16205107 -0.060093205 -0.10884822 -0.17724812 -0.13811284
0.15194546 -0.1556863 0.12051997 0.18532708 -0.060677946 -0.08247879 0.2436409 -0.08917677
-0.17654315 0.058603622 0.004776771 0.14232498 0.07769881 0.14635597 -0.113979176 -0.261377
0.049633726 0.053575654 0.25369498 0.07181125 0.2602401 0.14046854 0.23449588 -0.048639454
-0.2190792 0.18440288 0.0076578567 -0.3834568 0.2938186 0.06921763 0.18256827 -0.09020404
00000000: 5271 f43d 5431 823e b9f0 a03a bf5c 403e
00000010: 4540 b83e 0920 a8bd 0860 283e f4e4 0ebe
00000020: 003e c3bd efef b4bd d55a 923d 12a9 b23e
00000030: 31dc 4d3c 02d1 95bd 9ca4 eb3d bf0a 8c3e
00000040: 7420 69be 8283 193b a110 9c3e 2a43 c03e
00000050: bc08 8fbd 0685 58bd c0a7 903c 29d7 1a3d
00000060: e1fa 223e 28fa 37bd 6fdd 0e3e dda0 35be
00000070: 754c 3fbe bccb 14bd 4c46 c0bd 645b 983a
00000080: 97fb 82bd ca55 933e 909a 283e 4698 c7bd
00000090: cb48 563e a4aa 933e a4c1 8b3d 1375 83bd
000000a0: f5ac b93d c9bc 0bbd baac 253e 027b 0dbe
000000b0: 917e 66bd c667 44be 9dd1 f83c 1ded f9bc
000000c0: df7b 263d a8bc 793e b661 813e dc67 a5be
000000d0: b1fc 2b3e e881 5e3e 6a82 0a3e 3340 b239
000000e0: fa3f d6bc 752b 38bd 9d29 bb3d 272c 19be
000000f0: 6759 50bd f0b9 1cbe 10ce be3d f521 2c3e
00000100: 8d0a d5bd 7baf 9a3d 64cd c7bd 7d29 1bbd
00000110: 3a2a cebd 600f 62be 63c2 29bb 8089 a4bc
00000120: 6584 983d 7a17 9bbd baa3 2b3e 4d16 48bd
00000130: 056e 4a3e 88f6 45bd 8d04 2b3d b69b 4abe
00000140: 8943 e2bd 0d1b 0f3e 8dee 5cbd 2570 e9bd
00000150: 9eeb da3e f19d b6be 092c 673c 9338 92be
00000160: 9fac 16be f13d e53d 25d9 fdbc 9519 18be
00000170: e7fb fabd 10e9 30be 94a1 76bd 0d15 51be
00000180: 0b1f 0d3e 7f1d 93bc ecd0 c93c 0c5e 7ebe
00000190: b746 3b3e c6e9 83be 4711 d9bd 298b 9d3c
000001a0: 8264 febd 6af9 3d3e 4e1e 26bd 3d56 9fbe
000001b0: 1698 953e e83d 4fbe 1d40 d6bd 2d8d 173c
000001c0: fa79 1b3e aa3e b9bd 9518 a83d 765c c03d
000001d0: 2ca0 733d cb34 d8bb e923 743e 1b87 763e
000001e0: 4bd1 d0bd 0e80 1cbe 5b85 24be 2d25 2b3e
000001f0: a806 233e 9d41 6b3e b1f2 423d 418e 123d
00000200: 08c9 8dbe 72b2 6f3e 387a 393e 1196 31be
00000210: 4a17 14be f72f 573e 9920 6a3e 284f 2fbe
00000220: 71f9 cbbc 3fe4 3bbe 1d67 c83b b788 f7bd
00000230: ddf2 abbe b305 323e 776e bfbe d0c6 693e
00000240: 9a89 303d 807e 7f3e bab8 b33d 51bb a33e
00000250: 351d fcbd ca3a fc3d 4bf2 32bd a019 0b3d
00000260: a6f8 21be 114c 34bc aee5 6a3e 3ce7 4dbe
00000270: 1406 173d ceab 353d 27cf 333e f0be 783d
00000280: a411 7e3b f352 133d 5033 573c 1d08 86be
00000290: a390 f9bd 7d02 7e3d a1a0 a73d e04a 923d
000002a0: 85c8 243e dfc7 a8bd afbf 113e e254 923d
000002b0: acd9 2dbe 6fd6 e23a f19b ac3e 3d81 183e
000002c0: 13b0 6ebd 0560 abbd 02a8 803e 9800 0abb
000002d0: 2c04 c73d 1c3d 613e cbc9 8d3d 5c98 c0bd
000002e0: edf5 2abe ba76 a03e a2f4 bc3e 1ebb 3e3c
000002f0: ec61 bdbc 6c67 9bbd 6226 b5be 61c9 d13d
00000300: 6f1d 0abd 2a2d 0dbe 8e6d 3e3e 252f 953d
00000310: 7d69 273e 2850 b7bc c0b8 7cbe 2924 1e3d
00000320: 781e 45bb 8627 8cbd 51f0 3f3e 4de2 683e
00000330: 0efc 3c3e 9b97 053d c7c1 963e 49ab d9bd
00000340: 6d3d b3bd 6af4 95be 2517 ec3b 61c3 55be
00000350: deda 32be 0e06 8a3d 51c7 913d 417a e33d
00000360: ce3e 893e c31b eb3d 6630 913e b7f0 25be
00000370: 4b24 76bd d1eb debd 8880 35be 746d 0dbe
00000380: 9797 1b3e 3b6c 1fbe 2dd3 f63d 62c6 3d3e
00000390: 7089 78bd a4ea a8bd 007d 793e 4fa2 b6bd
000003a0: bac7 34be 5a0a 703d 7686 9c3b a4bd 113e
000003b0: 8e20 9f3d 57de 153e ea6d e9bd 35d3 85be
000003c0: bc4c 4b3d 2572 5b3d 4fe4 813e c711 933d
000003d0: 313e 853e fcd6 0f3e b01f 703e 2a3a 47bd
000003e0: 4c56 60be 1cd4 3c3e c2ee fa3b 7354 c4be
000003f0: 646f 963e f9c1 8d3d 2df3 3a3e e5bc b8bd

backbone.2.conv.3.weight f4 [8]
0.5557477 0.45158622 0.42843172 0.43886942 0.4218745 0.57090336 0.43078363 0.64609087
00000000: 7b45 0e3f 4f36 e73e 675b db3e 7eb3 e03e
00000010: efff d73e b926 123f ac8f dc3e 3666 253f

backbone.2.conv.3.bias f4 [8]
-1.3099333e-05 9.744567e-05 -6.0457785e-07 -1.9615069e-05 -2.2095463e-05 1.6235657e-05 3.9465263e-05 4.0865098e-06
00000000: 35c5 5bb7 bf5b cc38 464a 22b5 0a8b a4b7
00000010: a559 b9b7 cf31 8837 8187 2538 da1e 8936

backbone.2.conv.3.running_mean f4 [8]
1.0091203 -0.14437096 -0.06451341 0.3394406 -0.19661148 0.44506526 -0.062235363 0.14902303
00000000: db2a 813f fbd5 13be 9b1f 84bd 29cb ad3e
00000010: 8554 49be 98df e33e 82ea 7ebd 7e99 183e

backbone.2.conv.3.running_var f4 [8]
0.12198423 0.0762646 0.11219668 0.049244393 0.059426654 0.13342664 0.06096526 0.1501193
00000000: ded2 f93d 9d30 9c3d 5fc7 e53d 7db4 493d
00000010: 5d69 733d fea0 083e b5b6 793d e0b8 193e
