ML Model/tv_detection_epoch_150/e-2-1.459.pth (torch, 508101 bytes, 205 tensors)

backbone.0.0.weight f4 [16, 3, 3, 3]
00000000: 958d c3ab b620 7e2a ca82 c8ab 6e73 ad2c
00000010: a37d c7ab 319b ff29 714a 422b feaa 93ac
00000020: e11f e72b 76d1 5f2b 1ae9 062b 2de3 5da8
00000030: e6d4 ceaa fa26 acac 3448 9429 55ca 972b
00000040: b35d a8ac bcf7 18ab e70b 1aac 393b c12b
00000050: 62bb 922b 94b7 b6aa 08a4 40ab 6c21 7eab
00000060: c812 792c 05ff 5cac 3453 b8ab 845a 44bd
00000070: eb8d 3abc e6a6 0e3d 3ee3 0c3e 8191 c73e
00000080: 38af 663d a6ed 36be 016a 88be 051a edbc
00000090: becd 29bd 560a 823d a3b1 883c 6195 8d3e
000000a0: 0d82 433f 0c4a f23d 1f32 a6be d92f 17bf
000000b0: 3a82 7ebd 8d92 783b 46e7 473b 6ac2 1a3d
000000c0: b5a1 863d c3d0 4e3e f7eb e03c c582 3bbd
000000d0: a0ee 08be 9358 ba3c 6bf5 c2bd f1b0 dc3d
000000e0: e130 463b b723 cabe 6810 403f 9e4a 9bbe
000000f0: 76bd 29bf 3339 6f3f df8c 93be 2418 dabd
00000100: 10aa 523e 54b2 e3bc 2f6a 4fbf bff6 ad3f
00000110: dc1e 05bf a307 86bf 3452 bf3f a861 e9be
00000120: fcae efb9 735a 1c3a 0ac2 6b3d a512 39be
00000130: a4bd cc3e d6be 17be b502 83be ad95 e93e
00000140: 2a29 09be c346 86bc 5ea1 82bd f67b 883d
00000150: 3344 543d ecd7 403e c153 92be 9226 673c
00000160: a154 9a3e 8403 aebe 71d2 bcbc 0e72 a2bd
00000170: 84a1 983d f605 283d 5773 033f 5176 20bf
00000180: 6f81 3c3d 6f43 253f 1e69 35bf 106e febc
00000190: 92a0 2fbd 7aa4 3c3c 2d60 0f3d 264b 993d
000001a0: 93d5 aebd e434 d2bb 2f1e af3d 504a 06be
000001b0: 1db6 97bd 12dc b13c 40a4 b83c cd90 513b
000001c0: 7fa3 a6bd 8cca a9bd 47ba 013e bcc5 c1bd
000001d0: 66bd 95be ad12 9a3b 05fb a53c a884 0abd
000001e0: b98e 883d 9b6c 5dbe 2770 8abe fe66 463e
000001f0: ad4f 57be 2956 02bf 7d18 4fbc 6e51 3a3c
00000200: 5944 4cbd 2556 62bc 8174 88bd 3738 8ebd
00000210: 3591 8e3c 88c0 80bd 9885 e5bd 255e 253e
00000220: 7738 2e3e 5c91 70be bfca f33d a9fc 233f
00000230: 99f4 7c3e 274e 31be 0935 1b3f d4f8 273f
00000240: 6b94 ca3b d3aa 09be 3e2c 113c 7ce5 33bd
00000250: d9d0 82be ea15 18be cce4 24bd 6a18 59be
00000260: 44d6 21be 0e32 1ebe e3ec 7fbd 52e2 733e
00000270: 89b3 55bd 7d7c cfbe 62cf fabd 6946 123e
00000280: cae0 cebe e1ec fbbe 145a 55bc d06b 7dbc
00000290: d58f 093c aa58 ed3e d3ae 05be 06c6 48be
000002a0: db53 113e 920a dbbd 58f7 6ebd 6b18 60bd
000002b0: 8e42 18bc 03d1 fb3c d122 6f3f d912 87be
000002c0: 39f9 e5be 6b3b 843e 8234 6abe 121e a0bd
000002d0: a8bd d33c 0851 a63c 3acb 393c 82b2 783e
000002e0: f0ea 71bd b23b d4bd 0721 903d 0b43 07bd
000002f0: 9363 0bbc 14d5 933c 24ca 09bc 885f ecbd
00000300: 6710 8cbc 3672 c33d 7821 693e 6b76 96bc
00000310: d791 1e3e 2d16 bd3e 4a45 e4bc c7fb b4bd
00000320: 9a5c 37be c407 d83a 5f8b 423e 70f9 bd3e
00000330: 068b 113a 4329 b23e 16e2 163f 410f 80bc
00000340: 1c70 59bc 1813 17bd ce60 f2ba 4a18 8e3c
00000350: 788d e33d 6327 663c 5500 993d 58ba 103e
00000360: 6687 5c3d 6f88 413d 543d 02be 56df 36be
00000370: 4e77 323f dd13 03bf 52e1 d43c 2aaf 3b3f
00000380: 9084 2ebf 97da 18bd b842 2d3e f78d 52be
00000390: 0f25 02be 53a8 8b3f d4a9 6abf e505 613c
000003a0: 877a 863f a799 7abf 2277 433d 4eab 6bbc
000003b0: dde8 cabb d02e efbd 2874 cd3e c9c2 a8be
000003c0: ba08 053c 6969 cd3e 0d21 c7be 649c cd2d
000003d0: e296 c9ad b132 b32d 873d f82d ac99 a3ad
000003e0: 7abd 922d 7a81 d6ac dcbf e8ab 2fd2 872d
000003f0: 8c64 44ae fd67 e42d 4f9d 37ae 1227 c9ad
-1.389488e-12 2.2571081e-13 -1.4247156e-12 4.929771e-12 -1.4174672e-12 1.1351196e-13 6.9025954e-13 -4.1969752e-12
1.6422385e-12 7.95162e-13 4.7929857e-13 -1.2317225e-14 -3.674068e-13 -4.8928613e-12 6.5850456e-14 1.0785354e-12
-4.78525e-12 -5.434505e-13 -2.1891323e-12 1.3729912e-12 1.0425933e-12 -3.2457077e-13 -6.843974e-13 -9.028531e-13
3.5395454e-12 -3.1405445e-12 -1.309708e-12 -0.047937885 -0.011386375 0.034827136 0.13758561 0.38978198
0.056319445 -0.17864093 -0.26643375 -0.028943071 -0.041455977 0.06349628 0.016686266 0.2765303
0.76370317 0.118305296 -0.32460114 -0.59057385 -0.062135912 0.0037929148 0.003050284 0.037783064
0.06573812 0.20196824 0.027456267 -0.04577901 -0.13372278 0.022747314 -0.09519466 0.107759364
0.0030241536 -0.39480373 0.75025034 -0.30330366 -0.6630472 0.93446654 -0.28818414 -0.10649136
0.20572686 -0.027794994 -0.810214 1.3590926 -0.5200021 -1.047108 1.4946961 -0.45582318
-0.00045716006 0.0005964406 0.057558097 -0.18073519 0.39988434 -0.14818892 -0.25588003 0.45622006
-0.13394609 -0.016391164 -0.063784346 0.06664269 0.051822852 0.18832368 -0.28579524 0.014108317
0.30142692 -0.33987057 -0.023049565 -0.079319105 0.07452682 0.04102131 0.5134787 -0.62680537
0.046021875 0.6455602 -0.7086352 -0.031058341 -0.04287774 0.011513824 0.03500383 0.074850366
-0.0853683 -0.0064149965 0.08550679 -0.13114285 -0.07407782 0.021711383 0.022539258 0.0031977177
-0.08136653 -0.08290586 0.12668715 -0.09461543 -0.29246062 0.0047019334 0.020261297 -0.033817917
0.06667847 -0.21623461 -0.2703869 0.19375226 -0.21026488 -0.5091272 -0.012640116 0.011371953
-0.04986987 -0.013814484 -0.06662846 -0.06944316 0.017403224 -0.062867224 -0.112071216 0.16149195
0.17013727 -0.2349295 0.11903905 0.64057404 0.24702682 -0.17314969 0.606278 0.65614057
0.0061822436 -0.1344407 0.008860646 -0.043920025 -0.25549963 -0.1485211 -0.04025726 -0.2120072
-0.15804392 -0.15448782 -0.062481772 0.23816803 -0.05217317 -0.40524665 -0.122465864 0.14284672
-0.40405875 -0.49204162 -0.013021965 -0.015467599 0.008396109 0.46356708 -0.13054971 -0.1960679
0.14192145 -0.106953755 -0.058341354 -0.054710787 -0.009293212 0.030739313 0.934125 -0.26381567
-0.44916704 0.25826582 -0.22871593 -0.078182355 0.025847271 0.02030231 0.011339957 0.24286845
-0.059061944 -0.103629485 0.070375495 -0.03302292 -0.008507627 0.01804594 -0.0084100105 -0.11541659
-0.017097665 0.095432684 0.22766674 -0.018367013 0.15485321 0.3693098 -0.02786507 -0.08837085
-0.17906418 0.0016481807 0.18998478 0.37104368 0.0005552027 0.34797105 0.5893873 -0.015632274
-0.013271358 -0.036883444 -0.0018491985 0.017345566 0.111109674 0.014047476 0.074707665 0.14133584
0.053840064 0.047249254 -0.12718707 -0.17858633 0.69713295 -0.51202184 0.025986347 0.73314154
-0.68171024 -0.03731784 0.16919982 -0.20561968 -0.12709449 1.0910743 -0.9166539 0.0137343155
1.0506142 -0.97890705 0.047721036 -0.014384104 -0.0061923102 -0.11678851 0.40127683 -0.3296111
0.008119756 0.40119484 -0.38892403 2.3375253e-11 -2.291806e-11 2.0372455e-11 2.822166e-11 -1.8599199e-11
1.6682423e-11 -6.0966206e-12 -1.6537843e-12 1.5441063e-11 -4.4654544e-11 2.5966779e-11 -4.17491e-11 -2.2868405e-11

backbone.0.1.weight f4 [16]
00000000: 4f3f e62c b10f 2a3e 6d51 3e3e 686d 6f3e
00000010: f81e 133e 73e9 193e 38b2 843d fa87 833e
00000020: 5785 9e3d 1ed0 3bb8 a6d8 c73e 5884 d53d
00000030: 6307 663e 299b 8f3e 5df9 192b 06c8 7a3d
6.544022e-12 0.16607548 0.18585749 0.23381579 0.14367282 0.1503046 0.06479305 0.2568968
0.07740276 -4.47781e-05 0.39032477 0.10425633 0.22463755 0.28048065 5.470258e-13 0.061225913

backbone.0.1.bias f4 [16]
00000000: bc83 2f30 c079 143f 0901 b93e 63d9 963e
00000010: 84c6 753f bbfe 273f e708 043f e96e 0e3f
00000020: 3e59 203f a907 deb4 37d3 a8be 2e52 763f
00000030: 813e e43e 162b cfbe 3b92 42ab 4b80 623d
6.3851835e-10 0.57998276 0.36133602 0.29462728 0.96006036 0.6562306 0.51576084 0.55637985
0.6263617 -4.1356296e-07 -0.32973644 0.96219146 0.44578937 -0.4046256 -6.912558e-13 0.05529813

backbone.0.1.running_mean f4 [16]
00000000: 7148 122f d2a2 4642 7016 1c42 3379 e6c1
00000010: 920c 2fc3 d512 29c2 0437 1242 b292 5743
00000020: 4203 3941 c8f5 4b2c 910e 09c2 5287 3343
00000030: 9899 22c1 2d08 8142 1b5d 8b2d 29f8 62c1
1.3304359e-10 49.659004 39.02191 -28.80918 -175.0491 -42.26839 36.553726 215.57303
11.563295 2.898447e-12 -34.264225 179.5286 -10.162498 64.51597 1.5843818e-11 -14.185586

backbone.0.1.running_var f4 [16]
00000000: 2e72 df23 dfba 1845 0a80 1046 db87 da44
00000010: ed89 6846 d059 c745 4bf9 4845 3ea7 b646
00000020: cda7 bd45 207a af28 9ab3 1345 ca15 7646
00000030: 3496 de44 e86d 5f45 d717 9520 5cbc 9943
2.4226065e-17 2443.6794 9248.01 1748.2455 14882.481 6379.2266 3215.5808 23379.621
6068.975 1.9481866e-14 2363.225 15749.447 1780.6938 3574.8691 2.5257358e-19 307.47156

backbone.1.conv.0.0.weight f4 [16, 1, 3, 3]
00000000: 9ede 842b d1df a42b bfdd ea29 ec5d 152c
00000010: 0ef2 9eaa 97a0 b4b2 ad01 13ab 4515 3e2b
00000020: 13ae c1aa 4869 2f3c d883 32bd 6748 873d
00000030: 7f6f debb fbd5 02be 0670 403f 04ad 003d
00000040: c33b cc3d e3b0 4cbf 70a4 ac3c e298 6cbc
00000050: b659 1ebe c918 c23c 7116 9a3d 9778 953f
00000060: b7e1 b33c fd32 48bd 1314 21bd dba5 bdbd
00000070: d4de 7ebd 1c07 c5bd 3d64 823d eb7d 473f
00000080: f403 99be 492f e9bc 1727 13bd 26a1 3fbe
00000090: 2549 143f c949 f43f 8a2f dd3e 7263 5a3e
000000a0: ce53 d23e b3ab 213e 8289 61bf 32fe 0bc0
000000b0: 28a4 49bf 034d 07bd c729 063e f465 3abe
000000c0: 3967 483e e4f1 b13e 2bb9 e2bf 7dbc 913c
000000d0: 031a 9c3f 2851 823e 129e b139 d0ae bb3d
000000e0: 94ce a5bd fc7e 8b3c b9b3 2b3b 4898 5abf
000000f0: fc01 39bc d3f0 69bd 77e1 793f affa 02bf
00000100: b40c 8dbe 89bb 403f b95b 1bc0 8803 b4be
00000110: b573 2a40 e3d7 02bf ca1d 46be 80ad 1e3f
00000120: 28af 93bc c14f 023e 4b42 aabd 9aa5 0e3d
00000130: aacb 8dbf 22eb 443e 681e c53c 213d 1d3d
00000140: e6ae debc 633e 9dac a864 3dac 2624 85ac
00000150: 3d3b 5f2c 24ed c72c 5f5e ccab f8ca 102d
00000160: fc78 4d2d 348b 722d 7221 ce3d 31f5 03be
00000170: f4f8 f5be 74c0 47be 2476 1b3e 3520 bf3e
00000180: 0d73 e4be 1ecb 813e 9075 ce3e a4de 3c3e
00000190: b770 cc3f cd36 813f 89bb 9f3d 6e36 443d
000001a0: 0676 0abe 87e6 afbe be15 d1bf a7e1 7ebf
000001b0: b035 11bc 017e 053d ed47 c2bc 8368 793c
000001c0: 29f9 033d 5984 28bf 08cf d4bc 2a71 0b3d
000001d0: a68b 5b3f c5c3 89bd b714 64bb 2bba e8bd
000001e0: b7a7 253c abd6 133d 86a7 f6bd 7f66 f9bd
000001f0: b208 e5bd 244f 3c3f 529f 8ea8 38c0 482a
00000200: 1cad 9ba9 2f32 e728 9de0 952a e817 d429
00000210: 336f 87aa 9f66 beaa 0a07 de29 5637 a3bc
00000220: 4f36 ecbc 3075 66bd d789 113c 3558 aa3b
00000230: c872 91bd 23fa 97bd 4be4 f1bd e0d3 1dbe
9.440953e-13 1.1715022e-12 1.0430154e-13 2.122631e-12 -2.8234397e-13 -2.1027786e-08 -5.2227217e-13 6.753108e-13
-3.4404475e-13 0.010706253 -0.043582767 0.066056065 -0.0067881937 -0.1277694 0.75170934 0.031415
0.09972336 -0.7995741 0.021074504 -0.014440747 -0.1546391 0.02369346 0.075238116 1.1677426
0.021958215 -0.04887675 -0.039325785 -0.0926015 -0.062224224 -0.09620497 0.06366775 0.7792651
-0.29885828 -0.02846493 -0.03592595 -0.18713817 0.5792411 1.9085017 0.43200332 0.21326998
0.41079563 0.15788154 -0.88100445 -2.1873899 -0.7876611 -0.03303243 0.13101874 -0.18202955
0.19570626 0.3475486 -1.7712759 0.017790074 1.2195438 0.25452542 0.00033877842 0.09164202
-0.08096042 0.017028324 0.0026199652 -0.8538861 -0.011291977 -0.057114433 0.9760966 -0.5116376
-0.27548754 0.75286156 -2.4274733 -0.35158944 2.6633122 -0.51110667 -0.19347301 0.6198349
-0.018027857 0.12725736 -0.08313426 0.0348259 -1.1077778 0.19230321 0.02406235 0.038388375
-0.027183007 -4.4691347e-12 -2.691439e-12 -3.7841006e-12 3.172309e-12 5.682248e-12 -1.4521265e-12 8.23052e-12
1.1679765e-11 1.3787017e-11 0.10064973 -0.12886502 -0.480415 -0.19507009 0.15181786 0.3732926
-0.44619027 0.2535028 0.40324068 0.18444306 1.5971898 1.0094849 0.07799441 0.04790347
-0.13521585 -0.34355566 -1.633476 -0.9956307 -0.008862898 0.03259087 -0.023715938 0.015222671
0.03222004 -0.65826946 -0.025977626 0.03404347 0.8575996 -0.06726793 -0.0034802386 -0.11363634
0.010110787 0.036093395 -0.12043671 -0.12177753 -0.11183299 0.7355826 -1.5834261e-14 1.7830258e-13
-6.9134124e-14 2.5667916e-14 2.6623574e-13 9.418838e-14 -2.4057977e-13 -3.3821988e-13 9.8600015e-14 -0.019923847
-0.02883449 -0.056264102 0.008882961 0.0051985034 -0.07101971 -0.07420757 -0.118111216 -0.15412855

backbone.1.conv.0.1.weight f4 [16]
00000000: dcdf 6aab 3e1a 063f 045f 353f 62a3 ff3e
00000010: bf4b 923f 5941 003f 29e6 183f 7816 5b3f
00000020: 3aa1 f93e db83 18b7 3b4f 4d3e bc10 883f
00000030: 3702 2c3f abfd 723e 3949 c92a 8ff7 6b3e
-8.344417e-13 0.5238379 0.7084811 0.4992934 1.1429366 0.5009971 0.59726197 0.8558116
0.4875582 -9.090606e-06 0.20049755 1.0630107 0.6719088 0.23729579 3.575558e-13 0.23043655

backbone.1.conv.0.1.bias f4 [16]
00000000: bb85 a02b b16a 6b3f e0dc ba3f 1085 fb3e
00000010: f17e 733e 340c 833f 4378 713f eec3 d23e
00000020: decb 123f 9f5d 68b1 4a1d b73e 5500 4b3e
00000030: e09a 873f a686 bbbe 261e 15ab 481d 2a3e
1.1405801e-12 0.91959673 1.4598656 0.49124956 0.23778893 1.0238099 0.9432413 0.41165107
0.57342327 -3.381366e-09 0.35764533 0.19824345 1.0594139 -0.36626166 -5.2977273e-13 0.16612732

backbone.1.conv.0.1.running_mean f4 [16]
00000000: ef28 9224 48ef a3bb 8c99 bd3e db69 803c
00000010: e0c3 0abe d3fe 013e 3008 213d b1d3 09be
00000020: 8ede 03bf ec92 20a0 8cde b73a a16e 33be
00000030: c741 d83d aea0 603b 0bfa c597 87cf f8bc
6.338675e-17 -0.00500289 0.3703121 0.015675476 -0.13551283 0.12694864 0.03931445 -0.1345966
-0.51511467 -1.360114e-19 0.0014028116 -0.1752267 0.10559421 0.003427546 -1.2793946e-24 -0.030372394

backbone.1.conv.0.1.running_var f4 [16]
00000000: dcc2 a511 18d1 823c 48b7 bc3c 16a9 af3c
00000010: af47 643e 6665 263d 1d91 613b 1607 ba3e
00000020: f3cd cd3b ed12 1113 a80a 593b 2db8 103e
00000030: 7401 1d3d 8336 313a 5180 7710 54e0 0d3a
2.6152501e-28 0.015968844 0.023036614 0.021442931 0.2229297 0.040624045 0.003441877 0.3633353
0.0062806546 1.8310904e-27 0.0033117924 0.14132757 0.038331464 0.0006760137 4.8811012e-29 0.00054121506

backbone.1.conv.1.weight f4 [8, 16, 1, 1]
00000000: 5147 aca8 380c af3c 2931 5cbd 4e82 2e3e
00000010: a4c1 06bc 17a9 343f 3283 703e cdd9 05bc
00000020: 9b96 29bd 5eda f62b cf74 df3c d493 733e
00000030: 2151 833d 1774 debd 89d1 bf29 e0d5 bcbd
00000040: 74fe 152b 9059 d9bb 49e8 14bf 5482 98bd
00000050: 14f8 bc3d 0492 c53a fa38 7dbd 71d0 913d
00000060: 3a8d af3d 5682 07ad d246 fd3d 834d ef3b
00000070: 01d8 f0bd 7773 483e 9b25 03aa 86e5 19be
00000080: d838 1b2a 5227 0a3f 0b7a cd3d 08b0 d53e
00000090: ed0d 3bbe 1f9b 40be 8866 91be 6117 993d
000000a0: 6056 2ebe b44f 91af 4074 36bd ea5d bd3e
000000b0: 228b b83d 3011 fdbc 3da2 84a8 1a04 4ebe
000000c0: 639d c4ac f0eb b4bd c9e0 febd 0f94 f63d
000000d0: 1334 f63e 36e0 ebbe 46a1 5a3d 0a9a 953d
000000e0: 76c8 88be 7eeb db2c dde0 f53c 6c2b d8be
000000f0: 330b 813e dd40 a63e 6de7 16aa 7f0d 0ebe
00000100: 5d35 0c2c 1447 b4be 8cce 863e 5164 84bc
00000110: bce0 1b3e cbbc 1cbf bb15 953d 6dc1 97be
00000120: 42be 143e 2b2d 652d a386 0a3e 288b ecbd
00000130: f506 54be 6a1a 1ebd 3a2b db2a 9453 2a3e
00000140: 5b94 a2a9 ae05 3bbe ec60 3dbc 425c 0bbf
00000150: ce47 98be 4985 76be 964d c83e 1c38 d93e
00000160: 89aa d43e 209a 6f2f d098 333d ed6c ed3e
00000170: 7d03 83bc 05a0 a13d 1001 59aa 048e 2dbe
00000180: 68f2 2fa9 6518 c63e 7723 debd 1189 c8be
00000190: 03e7 d6be 0e06 d73c db53 2a3d 9905 56bf
000001a0: 1812 353e 0289 d8ac f1df a5bd 1231 503e
000001b0: 10f2 e1bd 077a 3b3e 876f a029 6779 33be
000001c0: 727d 23ad fe0b 7c3d 39e3 673e 7511 07bd
000001d0: 7b9d ee3e 881e 0d3f 8d5f 2abe 8219 383e
000001e0: f30b e3bd e943 852d 3af6 173e b7a5 04bf
000001f0: 046e 59be b7f2 0b3c 6950 95aa 8fd6 babd
-1.9126765e-14 0.021368131 -0.05375782 0.17041895 -0.008224878 0.7057051 0.23487547 -0.0081696035
-0.041403394 1.753996e-12 0.027277378 0.2378686 0.064119585 -0.10861986 8.5184525e-14 -0.09220481
5.328856e-13 -0.006632991 -0.5816694 -0.07446733 0.09227005 0.0015073423 -0.061821915 0.07119835
0.08571859 -7.702802e-12 0.123670235 0.0073029413 -0.117599495 0.19575296 -1.1648184e-13 -0.15028962
1.3786487e-13 0.5396625 0.100330435 0.41735864 -0.18267031 -0.18809174 -0.28398538 0.07475162
-0.17025137 -2.643198e-10 -0.04454446 0.36985713 0.090109125 -0.030891985 -1.4725304e-14 -0.20118752
-5.5881285e-12 -0.08834064 -0.12445218 0.12039959 0.48086604 -0.46069497 0.05337646 0.07304771
-0.2671544 6.2504993e-12 0.03001445 -0.42220628 0.25203857 0.32471362 -1.3402968e-13 -0.13872336
1.992482e-12 -0.35210478 0.26329458 -0.016161116 0.15222448 -0.61225575 0.072795354 -0.2963976
0.14525703 1.3027172e-11 0.13527922 -0.115499794 -0.20705779 -0.03859941 3.893221e-13 0.16633445
-7.219981e-14 -0.18263885 -0.0115587525 -0.5443765 -0.29742283 -0.24074282 0.39121693 0.4242562
0.41536358 2.179168e-10 0.043846905 0.46372166 -0.015992874 0.078918494 -1.927384e-13 -0.16948706
-3.906806e-14 0.38690487 -0.10846608 -0.39167073 -0.41973123 0.026248004 0.041583877 -0.8360229
0.17682683 -6.1543e-12 -0.08099354 0.20331219 -0.11032498 0.18308268 7.124774e-14 -0.1752678
-9.293332e-12 0.061534874 0.22645272 -0.032975633 0.46604523 0.5512471 -0.16638012 0.1797848
-0.110862635 1.5150508e-11 0.14840022 -0.5181536 -0.21233374 0.008541754 -2.6523513e-13 -0.09122955

backbone.1.conv.2.weight f4 [8]
00000000: 2a52 023f 624c 073f ef3e 1a3f 2de7 e33e
00000010: 914f 143f 9487 1c3f f43f 183f 33b0 0b3f
0.5090662 0.52850926 0.6025228 0.4451231 0.5793391 0.61144376 0.59472585 0.54565734

backbone.1.conv.2.bias f4 [8]
00000000: 3fc6 d138 9ddf 01b9 58e3 9ab8 49a9 bdb9
00000010: 2e4e 6a39 e4ce fe38 9514 91b9 b171 5eb7
0.00010002823 -0.00012385701 -7.385638e-05 -0.00036175016 0.00022345103 0.000121502 -0.0002767189 -1.3258702e-05

backbone.1.conv.2.running_mean f4 [8]
00000000: a5be 8c3f 39bc 6fbf 7cfa dc3e 684d ddbe
00000010: 41be 36bf 82e7 0c3e 1462 0cbf f710 213f
1.099568 -0.9364658 0.43159854 -0.4322312 -0.71384054 0.13760188 -0.54837155 0.6291651

backbone.1.conv.2.running_var f4 [8]
00000000: 2a32 0c3e e24c 273e a107 6d3e e41b 593e
00000010: bf82 3e3e f0b3 933e 35d0 ce3e 32d2 363e
0.13691011 0.16337922 0.23147441 0.21202046 0.18604563 0.2884822 0.40393224 0.1785362

backbone.2.conv.0.0.weight f4 [48, 8, 1, 1]
00000000: b2bc 403e d230 513d eb9e 1a3e 1ba2 edbd
00000010: 5f28 13be 52a4 ec3c d3cd 993e f311 a13c
00000020: db31 673d 2783 c73d a6eb ec3d 67f6 ea3d
00000030: fcbc 39be 52d1 9bbe 531c c2bd e803 fbbd
00000040: 0ee0 a8bd 7d25 81bd 933e 0dbe 2f27 9e3d
00000050: 5b51 083c 9e78 b83d 825e b0be 340b 173e
00000060: 56a5 d0bc 5a6e 723e 145c 9e3d 111c 16bf
00000070: 0883 5a3a eb0e 14be 61d3 6bbe 6ca3 d7be
00000080: 0be7 643d 7c54 6abd 51ad 0b3e 73ef 8abe
00000090: f9d1 07be 0172 263e ab9d 6d3d 3b00 40be
000000a0: 39a3 69bd de2f 7fbb ab9d 7e3d 5648 d6bd
000000b0: 73b7 253c 7b52 073e 58c0 4e3e 3f46 21be
000000c0: 12fa 593d df4a 1d3e 6bc4 e33d 749e cb3d
000000d0: d8b0 00be 19f6 9abe 2f53 2cbe cedc 48bc
000000e0: c2cd 363c aa22 403e c21e 813d 5369 f2bc
000000f0: 8156 bb3c 9496 003e e93e 8ebd 7c4e 183e
00000100: 066e 79be 9dd5 82bd 7229 d13e 8b6e 43bc
00000110: 1198 93bd b417 05bc 2b13 0bbe a8f6 26bd
00000120: 8a27 8b3c 9e11 8d3e 5115 f1bc e4b7 223e
00000130: 5307 22be d6b1 b0bc 1169 8a3d 4605 96bd
00000140: d938 7e3d f3e5 04be 8d81 8cbb 3d03 cabe
00000150: 3627 113d 5649 2cbd 2ba1 9bbd 8497 0a3e
00000160: 499f a3bd 150c 43bc a312 b3bd 1a90 853e
00000170: 5707 3bbd af76 13be ad90 90be c6aa 6b3e
00000180: 3f94 003e 7a3b c23d dee1 c3bd 91cb ecbb
00000190: eaa4 c63d 06c2 383e 21e7 a13a eb2f b33d
000001a0: 0f89 f63d 24f9 44be 40fd 74bb 4a37 f1bd
000001b0: a00c 76be 56c1 2e3e a443 823d 4d5c 523e
000001c0: 5372 69be 3aa0 abbd 9c6c df3d 8141 893e
000001d0: e6a7 523e 428b 273e afa4 dd3b 3102 9abe
000001e0: 76d2 1a3d e9e6 d93d f1b9 373e a54a 143e
000001f0: 1d47 b0be c741 c3bd 02e0 633b 9b04 54be
00000200: 312d 793e 5a7a b93d acbe 353e 07d0 433e
00000210: df0f 6a3e fa4f cf3d 07d6 913d 1375 1a3c
00000220: b4dd 793c 2f0e f3bc 97ad 293e a9eb 7fbe
00000230: c33f f5bd c8ad ad3d af15 273d e239 c5bc
00000240: dd85 4dbe 9552 d83c 78d6 00be 691e 093e
00000250: f3c9 27be b130 89bd 8fbc 9dbe fc6d 793e
00000260: b9ec b2bd 295c 603d 4158 50be 34eb 663e
00000270: f8b4 063e f261 91be 5bd8 78be 0aa3 b43e
00000280: 500d 173d 8917 183e cbdc 373e ce3b 863e
00000290: 23bf ecbc 1530 fb3c 3c85 023e c040 f03d
000002a0: be27 bb3d 3da1 ddbc 1ad5 ad3d f3b0 a2be
000002b0: e1ae 143e 1321 d4bd eee7 aebe 547e 4ebe
000002c0: 6bab 853d f5d6 873c b093 dc3c a8f0 f63d
000002d0: 6ddb 71bd ae1e 0abe 96a9 b4bc d13b 8bbd
000002e0: 2822 553e 53ac 633d c5f6 943d c7e2 633d
000002f0: 58c9 d43d a73d 89bb 0ab0 6dbc e217 7c3d
00000300: 525d f8bc 7010 5f3c 9fac bc3d 8421 eb3d
00000310: 1538 2f3c 4297 92be 4de3 61bb bed8 65bd
00000320: 6bbe 5fbd 8b36 e6be 676b 443e b4fb 3cbc
00000330: 31f3 4c3e 8ee3 fbbd 7fca acbd 253b 853e
00000340: 4b5b 913c deb7 c13d 326d 5c3e d69d 513d
00000350: 6540 c7bd 8228 3e3b 4c86 3d3e 4b52 343e
00000360: ba8a a1be faef 773d a99d a9bd 4f10 543e
00000370: a249 17be 72c6 ef3c 55e5 8e3e d26b 9f3d
00000380: a236 a63e d8e8 ca3d cc52 f3bd 6050 0fbe
00000390: 7a53 a7bc b0a8 9cbe 6142 503c 7266 c23d
000003a0: ad08 aa3c a640 523d c9f1 333e 23a8 403e
000003b0: 409e 803c 7cb8 103e 819c e63c ae88 09bc
000003c0: d256 32be 311c 06be 847e ddbe b117 9dbd
000003d0: 5f8c 513d ae48 cc3e 8b7f ca3d 98b9 91bc
000003e0: 42fc 403e 078d 98bd c799 6dbd ada0 69be
000003f0: d7dc 86be d8a7 9dbc dcd4 523d 5631 8c3e
0.18821982 0.05107195 0.15099685 -0.11603185 -0.14370869 0.028886948 0.30039844 0.01966188
0.05644403 0.09741812 0.11568384 0.11472779 -0.18138498 -0.30433136 -0.09478059 -0.122566044
-0.0824586 -0.063059784 -0.13793401 0.077223174 0.008320178 0.09007381 -0.34447104 0.14750367
-0.025469463 0.23674908 0.07732406 -0.58636576 0.0008335565 -0.14458816 -0.23029853 -0.42116868
0.055884402 -0.057209477 0.13640334 -0.2713581 -0.13263692 0.16254427 0.058011692 -0.18750088
-0.057040427 -0.0038938443 0.062162083 -0.10463016 0.0101145385 0.13215058 0.20190561 -0.15749453
0.053217 0.15360592 0.11121448 0.09942332 -0.1256746 -0.30265883 -0.16828607 -0.012259675
0.011157455 0.18763223 0.06304695 -0.029591238 0.022868397 0.12557441 -0.06945593 0.1487369
-0.24358377 -0.063884 0.40851933 -0.011928211 -0.07206739 -0.008123327 -0.13581531 -0.040762573
0.016986627 0.27552503 -0.02942911 0.15890461 -0.15823106 -0.021569174 0.06758321 -0.073252246
0.062065933 -0.12978344 -0.0042879046 -0.39455596 0.035437785 -0.042062126 -0.075991 0.13534361
-0.079893656 -0.011904736 -0.08743789 0.26086503 -0.045661297 -0.14400743 -0.2823538 0.23014364
0.12556551 0.094840005 -0.09564565 -0.0072264154 0.096994236 0.18042764 0.0012352207 0.08749374
0.120378606 -0.19235665 -0.0037382394 -0.11778124 -0.24028254 0.1706594 0.06360558 0.20543022
-0.22797517 -0.0838017 0.109093875 0.26807788 0.2057186 0.16361716 0.0067640166 -0.30079797
0.037798367 0.10639746 0.17942025 0.144816 -0.34429255 -0.095340304 0.003477097 -0.20704882
0.24333645 0.0905654 0.17748517 0.19122325 0.22857617 0.10122676 0.071209006 0.009427327
0.015250612 -0.02966985 0.16570126 -0.24992241 -0.11975052 0.08480412 0.040792163 -0.024075452
-0.20070596 0.026406566 -0.12581813 0.13390507 -0.16385631 -0.0669874 -0.3080792 0.24358362
-0.087365575 0.05477539 -0.20346166 0.2255066 0.13154972 -0.2839504 -0.24301283 0.3528064
0.03687793 0.14852728 0.1795532 0.26217502 -0.028899735 0.030662576 0.12746137 0.117311
0.091384396 -0.027054423 0.084879115 -0.31775627 0.14519836 -0.10357871 -0.34161323 -0.20165378
0.06526836 0.016581992 0.026925892 0.1205762 -0.05904715 -0.13488266 -0.022053521 -0.067985184
0.20813811 0.055584263 0.0727363 0.055636194 0.10389966 -0.0041882577 -0.014507303 0.061546214
-0.030317936 0.013614759 0.09212612 0.11481002 0.010694523 -0.28631026 -0.0034467757 -0.056114905
-0.054624956 -0.44963488 0.19181596 -0.01153462 0.20014645 -0.12299262 -0.084370606 0.26021686
0.017743727 0.09458898 0.2152603 0.051175915 -0.09729079 0.0029015844 0.18508261 0.17609517
-0.31551152 0.060531594 -0.082820244 0.20709346 -0.14774182 0.02926943 0.2790934 0.07784237
0.32463557 0.09907693 -0.118810266 -0.13995504 -0.020425547 -0.30597448 0.012711138 0.09492196
0.02075609 0.051331185 0.17572702 0.18814139 0.01570046 0.14132875 0.028150799 -0.008394403
-0.17415932 -0.13096692 -0.43260586 -0.076705344 0.05115926 0.398992 0.09887608 -0.017788693
0.18846229 -0.07448774 -0.05800798 -0.22815199 -0.26340362 -0.019245073 0.05147253 0.2738139

backbone.2.conv.0.1.weight f4 [48]
00000000: ab70 f73e 785e b63e 1409 fd3d fd2a 423e
00000010: b2b2 233e b365 433e 0f74 963e 53d7 f83d
00000020: 865b ec3e 261f 1e3e 6ebc 4b3e dbed c53e
00000030: b13c 8c3d d954 cd3d b611 193e b037 ed3e
00000040: 1bfa 253e 1b48 163e 0677 a83e 7bc6 493e
00000050: a4fb 193e 8023 0a3e 3545 f63d 3b6d ba3d
00000060: c2be 4f3e 325c e43e 325f 243e 543b 8d3e
00000070: 6c7e 023e e00f 513d 7cdc 013f 2823 b23d
00000080: 21d1 203e 25d6 a93e 1204 e33e 7998 363e
00000090: 90e5 873e 3f4d b03e 2e4c db3d e69d b83e
000000a0: 7528 f43e 5bc2 0f3e 5328 043e 4a31 f63d
000000b0: 19c5 383e fe61 e93e 7158 9e3e 1928 203e
0.48328146 0.3561895 0.12355247 0.18961711 0.15986136 0.19081764 0.2938542 0.12150445
0.46163577 0.1544157 0.19896099 0.38658032 0.068475135 0.10025949 0.14948162 0.4633155
0.16208689 0.14675944 0.32903308 0.1970462 0.150374 0.13490105 0.12024919 0.09102865
0.20287612 0.4460159 0.16051939 0.27584326 0.12743539 0.05104053 0.5072706 0.08698112
0.15704776 0.33171192 0.44339043 0.17831601 0.2654233 0.34433934 0.107078895 0.36057967
0.47687116 0.14038984 0.12906007 0.1202112 0.18043937 0.45582575 0.3092685 0.15640296

backbone.2.conv.0.1.bias f4 [48]
00000000: 195c 38bc 84a0 43bc 69a2 713e 524f c13e
00000010: a404 8c3e 4071 303e b2c8 9c3d 980f 813d
00000020: 624b 3bbd bc63 063e 080c 8ebd d09a 4e3d
00000030: 0dd7 543e 19d4 643e 0dc6 4c3e a03a 363b
00000040: 2e99 75bd 478b 913e 2bbc aa3d b663 bd3e
00000050: 97a0 d13e fd36 153e 0db4 813e 2a14 993e
00000060: 7bff bb3d e4bd 3fbb 0a0c db3d 6f6b aabe
00000070: 6367 873e 1ac0 893e 89cd 5dbb 60a5 6d3e
00000080: 55bb 233e 7a13 ceba a187 e0bb 2f1c 473e
00000090: d6f9 f73d 887f be3d 6418 873e 6492 943d
000000a0: 3d27 d73c a287 473e 6ee2 913e 0020 573e
000000b0: f4f0 123e e4bd b3bb c486 5b3e 9fa0 2f3e
-0.011252427 -0.011940125 0.23597111 0.3775583 0.2734729 0.17230701 0.07655467 0.063018024
-0.045726188 0.13123983 -0.069358885 0.05044061 0.2078516 0.22346534 0.19997425 0.002780594
-0.059960537 0.28426573 0.083366714 0.36990136 0.40942833 0.14571758 0.2533268 0.29898196
0.091795884 -0.002925747 0.10695656 -0.3328509 0.26446065 0.26904374 -0.0033844432 0.23207617
0.1598943 -0.0015722357 -0.0068521057 0.19444345 0.12108199 0.093016684 0.26385796 0.07254484
0.026263827 0.19485334 0.28493065 0.21008301 0.14349729 -0.005485283 0.21438128 0.17151116

backbone.2.conv.0.1.running_mean f4 [48]
00000000: 3551 48b7 5eec 6438 ce76 74b7 ddad bc38
00000010: 7837 2e37 82f8 ccb6 914d 6738 2932 adb6
00000020: adc2 9e38 5814 4db7 f02b f636 093f abb3
00000030: e673 0fb8 39a6 5bb8 ed8c f737 7ffa 0338
00000040: a210 ad37 f685 5b37 4ccc 88b7 48cd a5b6
00000050: 26eb 0f35 af42 a838 22a1 a037 8ddc 5937
00000060: b315 4538 f800 2138 09d2 76b5 f295 66b8
00000070: e6c2 b036 d7c1 1c37 788e e9b8 9dfd 39b8
00000080: a32d 85b8 205a ae38 4bf0 f9b7 a6df 7cb6
00000090: 5cb9 7838 383e 71b8 23b8 c837 e4d5 29b5
000000a0: 5c36 c137 95b4 2838 ebfc 51b7 8a65 a2b8
000000b0: 56b1 34b8 aa9b d8b8 58e2 3b36 f872 2838
-1.1939836e-05 5.457957e-05 -1.4571195e-05 8.996923e-05 1.0384123e-05 -6.108604e-06 5.514693e-05 -5.161641e-06
7.570288e-05 -1.2223689e-05 7.3364863e-06 -7.974274e-08 -3.4201796e-05 -5.2368476e-05 2.9510318e-05 3.1466127e-05
2.0630952e-05 1.3084607e-05 -1.6307597e-05 -4.941281e-06 5.361384e-07 8.023285e-05 1.914852e-05 1.2985559e-05
4.698867e-05 3.8386293e-05 -9.194778e-07 -5.497592e-05 5.267898e-06 9.343456e-06 -0.00011136843 -4.4343633e-05
-6.350435e-05 8.313754e-05 -2.9795008e-05 -3.7681107e-06 5.9300437e-05 -5.7516823e-05 2.3927603e-05 -6.326866e-07
2.3032706e-05 4.02225e-05 -1.2516258e-05 -7.743675e-05 -4.30805e-05 -0.00010328677 2.799692e-06 4.0161394e-05

backbone.2.conv.0.1.running_var f4 [48]
00000000: 5ac9 c03d 0617 ab3d 0a3c c93d ab10 b83d
00000010: 27f6 a23d 5819 513d e310 a63d ada4 913c
00000020: e7cd a03d c9cd 5a3d 57f9 383d 0aed e23d
00000030: f490 a23c de87 803d 3b55 113e 0147 d73d
00000040: 1761 9b3c 7486 423d 7c87 c63d 6c0d 3f3e
00000050: f5c2 bb3c 0630 e43c 7cf2 923c a3c9 2f3c
00000060: 07cb 293d 2512 143e 249a 023d 7618 243d
00000070: 0f05 dc3d 4ef4 883c 23b4 3f3e d452 dc3d
00000080: a060 893d 8144 8a3d 5f23 8f3d 6066 ed3d
00000090: 5026 673d 4217 453e a5c5 ef3c b064 f73d
000000a0: efc0 113d 85df 7b3d c70b f33c 626b cb3d
000000b0: c478 ad3d 13e3 2f3e f072 e13d dcfe 033e
0.09413405 0.08354001 0.09825905 0.08987554 0.07957106 0.05104956 0.0810869 0.017778719
0.07851773 0.05341891 0.045159664 0.11080368 0.01984451 0.062759146 0.14192669 0.1051159
0.018967194 0.047491506 0.0969381 0.18657464 0.022920111 0.02785493 0.017937891 0.010729226
0.041453388 0.14460047 0.03188528 0.04006239 0.10743152 0.016718056 0.1872106 0.10757986
0.06707883 0.06751347 0.069891684 0.11591792 0.056433022 0.19247153 0.029269049 0.120797515
0.035584386 0.06149246 0.029668702 0.09932591 0.084703 0.17176466 0.11008251 0.1289019

backbone.2.conv.1.0.weight f4 [48, 1, 3, 3]
00000000: 11f7 b9bd 65a1 2abe 9e11 9ebd 58ef 23be
00000010: 17b0 20be baca e3bd 77a6 02bd dfe5 cdbd
00000020: c52e 2bbd 6bfc 0ebe 61a5 8abd 2286 1bbb
00000030: f70a 32be 6ea6 2bbd 8032 6abc b8bc 2dbe
00000040: ba5d 13be d2a2 82bd 3257 00be dbb8 2dbd
00000050: 7818 653d eb07 2e3e 2871 c53e 3de6 263e
00000060: 9333 d6bc 8c86 07be de5e b9be 94ab 153e
00000070: dfe5 633e b8e2 19bd 13a6 563e 8241 fe3e
00000080: 1ded 9839 f63a 6b3d 8efa 0d3e 9bc6 adbd
00000090: 5a92 a6bd c25b 83be d2d6 25be f0de b2bd
000000a0: 7a92 d1bd 2056 9fbc 4e12 083e 174a ca3e
000000b0: 0f0f 143e f60e 5a3d 8b7a 873e cdb8 6d3e
000000c0: 43c6 82bd 6a33 d3bd 8638 8a3d da18 aabd
000000d0: 7af9 45be db06 00be a0af 6ebc 71f5 95bd
000000e0: 4f56 c6bd dec4 263d c3ce 47be d6c0 82be
000000f0: 071f 323d 80bb 27be a6e9 7ebe 83aa 14be
00000100: 3c7a 6a3d 3b18 f7bd 85ef 05be 5636 153e
00000110: e17b 13be 7996 24be 3e41 cc3d 0fed efbd
00000120: c01b 4b3d 5803 063e ad0e a63d f2b2 bf3d
00000130: 172a 9d3e 3a3d 653e ced8 633d aa3c 4d3e
00000140: 0f71 233e 9bba e5bd 197d 4a3e 0b19 a9bd
00000150: 38fd 2ebd c20a e03d d829 adbd b21c 033e
00000160: 1d22 b3be 5c66 ec3d a518 4b3c dfb2 103d
00000170: f670 b53b 3084 b33d 120f 253e 15fe 8e3d
00000180: 82e2 943d 0159 2f3e a39e 873d 39a6 50bd
00000190: d198 30be bf1f 36be ed95 ddbc 5250 75be
000001a0: 498b 61be 2a7e 243c 1a4d 0ebc ce02 17bd
000001b0: 9e1b b0bd 2d8d e93d 4ee7 95bc 80f7 4b3e
000001c0: 2483 a8be 1c82 993d 55cd e4bd 0e52 693e
000001d0: 3901 dbbd 4a22 c8bd 0563 b9bb ee44 963d
000001e0: ed42 81be afb6 a83e d9bb 9d38 eeff 723d
000001f0: c622 613e d0f2 15be 3e2a 6fbd 03b0 dfbd
00000200: b96d 95bd 273f c93d 5218 c03e f977 b23d
00000210: c9d6 32bd dffc 90be 8303 a9bc e856 a2bd
00000220: 5382 cabd 42f8 eabc fde9 3ebe b921 4fbe
00000230: d14e c1bd 756e cbbd 69d8 47be ab14 b5bd
00000240: ed2b 1fbe cee0 0bbe 1c83 30bd 6aa7 50bd
00000250: f801 5b3d 465e 103e b7dc 293d f378 053e
00000260: 77df 633e cbbd c93d 240f 403e 0673 8b3d
00000270: 83f0 433e 9895 233e 0934 c13c 3091 6f3d
00000280: d853 b03d fe74 4a3d 656d 8bbc c18f a4bd
00000290: 9cd2 893c 1bc9 1f3c 1829 b2be ade3 9dbd
000002a0: c39c af3b a560 29be 0cea 113d b29f 0fbc
000002b0: cdd6 b7bd c954 93bd 692b 95bd 20c8 98be
000002c0: 1831 6dbe 4d78 e93c 8128 2dbe cfb5 e1bd
000002d0: 29d0 e53d bea7 253e 1ec2 933c ea2b 453e
000002e0: 1a08 cc3e deb8 cf3c 4b94 eb3d e84b 133e
000002f0: 1a76 1dbd 6a6e bcbd f029 07bd 3085 f13d
00000300: 0d01 cabd c5db 50be 475d a53e 3426 f1bc
00000310: 7256 57be 7f52 023e 22e2 a53d 19e8 82be
00000320: 057a f43d 3698 77be 31e6 d73e 4f61 06be
00000330: d989 1b3e 555d 2cbe ddff 963c de2f 2ebd
00000340: 3189 343d e981 1abd 9644 963d 081f d6be
00000350: ff2a a33e da84 51bd 162d b23e 2339 9fbe
00000360: 639c 90bd c158 a4bd 7fd3 133e b3f9 423d
00000370: 5257 20be 7bb1 94be c638 7d3d 7d30 973e
00000380: a3af d53d 7e1f 103d 8204 f03d 372d 5d3d
00000390: 2c44 e53d eafb a23e e104 1c3e e1ec 1e3e
000003a0: d931 863e abdb f63d 20e9 4a3b 38f0 86bd
000003b0: 0347 fabc 97c1 203e 8203 b13e ef0d 2a3e
000003c0: 84c5 f3bc a5d0 77bd f033 57bc d379 0f3d
000003d0: e5f7 fc3d c760 ea3d 919a 073d d08b 1f3e
000003e0: 84c8 293e 42b8 e1bc 06c7 883d f72c 873d
000003f0: 385f b33d 5da1 243e 9481 ab3d 2efb eb3d
-0.09080327 -0.1666313 -0.07718204 -0.16009271 -0.15692173 -0.111226514 -0.031897034 -0.1005361
-0.04179265 -0.13963477 -0.06769825 -0.0023731072 -0.17386995 -0.041906767 -0.014294267 -0.16966522
-0.14391223 -0.06378712 -0.12533262 -0.04241262 0.05593154 0.16995208 0.38562894 0.16298766
-0.02614764 -0.1323492 -0.3620519 0.14616233 0.22255658 -0.03756973 0.2096179 0.49659353
0.00029168362 0.057429276 0.1386511 -0.084851466 -0.08133383 -0.25655943 -0.16195229 -0.08733928
-0.10233016 -0.019450247 0.13288233 0.3950965 0.1445887 0.053236924 0.2646068 0.23215027
-0.06385472 -0.10312541 0.06749062 -0.08305521 -0.19333449 -0.12502615 -0.014568239 -0.07322205
-0.09684431 0.04071509 -0.19512467 -0.25537747 0.04348662 -0.1638012 -0.24893817 -0.1451817
0.057245478 -0.120651685 -0.1307965 0.14571509 -0.14402725 -0.16073026 0.099733815 -0.11715137
0.04958701 0.13087213 0.08108268 0.09360303 0.30696175 0.22386637 0.055626683 0.20042673
0.15961097 -0.11217233 0.19774283 -0.0825673 -0.042721957 0.10939552 -0.08455247 0.12803915
-0.34986964 0.11542961 0.012396012 0.035326835 0.0055371476 0.08765447 0.1611903 0.06982056
0.072697654 0.17123796 0.066220544 -0.050939772 -0.17245795 -0.17785548 -0.02704903 -0.23956421
-0.2202579 0.0100398455 -0.008685375 -0.03686791 -0.085990176 0.1140388 -0.018298771 0.19918633
-0.32912552 0.074955195 -0.111719765 0.22785208 -0.106935926 -0.09772165 -0.005657556 0.07337366
-0.25246373 0.32951877 7.521333e-05 0.059326105 0.21985921 -0.14643407 -0.058389895 -0.109222434
-0.072963186 0.098264985 0.37518555 0.08714289 -0.043661866 -0.28317925 -0.020631557 -0.07926732
-0.098881386 -0.028682832 -0.18643947 -0.20227708 -0.09438861 -0.099331774 -0.19516148 -0.08841833
-0.155441 -0.13659975 -0.043093786 -0.05094091 0.053468674 0.14098462 0.041470256 0.1303442
0.22253214 0.09850653 0.18755776 0.06809048 0.19134717 0.15975034 0.023584383 0.05848807
0.08609742 0.04942798 -0.017019937 -0.080352314 0.01682406 0.009752537 -0.34796977 -0.07709441
0.0053592636 -0.16540773 0.035623595 -0.008766102 -0.08976517 -0.07193906 -0.072836705 -0.29840183
-0.23163259 0.028499747 -0.16909982 -0.11021005 0.11221344 0.1617727 0.018036898 0.19255033
0.3984993 0.025356706 0.11502894 0.14384425 -0.03844271 -0.09200747 -0.03299898 0.117929816
-0.09863482 -0.20396335 0.32297727 -0.029437162 -0.2102907 0.12726782 0.08099772 -0.255677
0.11937336 -0.24179158 0.4216781 -0.13123058 0.15189303 -0.16832478 0.018432552 -0.04252612
0.04407615 -0.03772155 0.073373005 -0.4182055 0.3186874 -0.051152088 0.34800023 -0.3109828
-0.070610784 -0.08024741 0.14436148 0.047601413 -0.1565831 -0.29041657 0.06182172 0.2952918
0.10433891 0.035186283 0.1171961 0.0539982 0.111946434 0.3183282 0.15236236 0.1552005
0.26209906 0.12053617 0.0030961707 -0.06588787 -0.03055144 0.15698849 0.3457299 0.16606878
-0.029757269 -0.060501713 -0.013134941 0.03502829 0.1235197 0.1144424 0.03310639 0.15580678
0.16580397 -0.027553681 0.06678586 0.06600373 0.08758396 0.1607718 0.083743244 0.11522518

backbone.2.conv.1.1.weight f4 [48]
00000000: c937 0a3f 715a 9a3e e98f b93e 48ca 833e
00000010: 9fbb ab3e b290 af3e beb0 453e 235e ab3e
00000020: f222 863e f045 8e3e e8d2 023e 3ee7 e03e
00000030: 1401 c03e 8d4e 8a3e b6ea 7d3e 81da e53e
00000040: f0a9 913e d315 613e b1e6 ff3e 2349 e63e
00000050: 0b83 8b3e 4428 813e 0b3a d73e 6dd8 e73e
00000060: 54c3 ab3e fd1f aa3e ff14 9f3e 63e1 163e
00000070: 3d32 763e d5ee a23e 0bb0 063f 2045 5c3e
00000080: d562 a93e a937 533e db95 663e c0a5 b53e
00000090: 0934 3d3e 5b9b a93e a6c5 cb3e 700f 9b3e
000000a0: 0e2c df3e 93d1 713e 8aaf b53e 92b3 c03e
000000b0: 1ae2 b33e 410b 953e 0030 b03e e869 763e
0.5399137 0.30147126 0.36242607 0.25740266 0.3354158 0.3429008 0.19305703 0.33470258
0.26198536 0.27787733 0.12775767 0.43926424 0.37500823 0.27013054 0.24796566 0.44893268
0.28449965 0.21980982 0.4998069 0.44977674 0.27248415 0.25226033 0.4203647 0.45282307
0.3354746 0.3322753 0.31070706 0.14734416 0.24042602 0.3182284 0.5261237 0.21510744
0.33083215 0.20626701 0.22518103 0.3547802 0.18476881 0.3312634 0.3979923 0.30285215
0.435883 0.23615102 0.35485488 0.37637 0.3513344 0.2911015 0.3441162 0.24063838

backbone.2.conv.1.1.bias f4 [48]
00000000: 77b6 11bd 1beb 023e 4440 dc3c 8c3d 173f
00000010: 223c e83d 825a a93d 12ef 3a3f 8410 debe
00000020: 41a2 533e b2b0 983b 266e 6b3d f21a c03d
00000030: 7a7c 87bc 773a a0bc 6af8 8ebc d1d8 523d
00000040: 177b 853d 33d8 073c cdc5 a53c 6db1 0cbc
00000050: 657c 2f3f 9fe6 523c 77e3 a8bb 9c86 33bb
00000060: 68de 4cbc 08b2 293e 20b2 c23c 19a0 013d
00000070: 17bf e03d 1b24 d5bc 81c1 a23c 35a4 8fbb
00000080: ffdf db3c e525 233f 9990 893f c9e9 76bb
00000090: db17 c13e 44ac 413e efa6 39bb e9f1 593e
000000a0: 3cdf 183e fa18 263d 8913 a63c 265a bb3c
000000b0: 0716 1bbc aa15 8d3e 66e4 113d ae18 0dbb
-0.035574403 0.12784998 0.026886113 0.5907829 0.113395944 0.08269216 0.7302104 -0.43371975
0.20667364 0.0046597356 0.057478093 0.093801394 -0.016538847 -0.019559128 -0.017452437 0.051476303
0.06517618 0.008291292 0.02023592 -0.0085872235 0.68549186 0.012872367 -0.005154069 -0.0027393466
-0.012504198 0.1657182 0.023766577 0.03164682 0.109739475 -0.026018193 0.01986766 -0.0043835887
0.026840208 0.637297 1.0747253 -0.0037675968 0.37713513 0.1891337 -0.002832826 0.21283688
0.14928907 0.040551163 0.020272987 0.022870135 -0.009465701 0.2755559 0.03561821 -0.0021529603

backbone.2.conv.1.1.running_mean f4 [48]
00000000: ebad 02be 9da3 9cbd b063 c83c f365 db3e
00000010: 96b3 5cbb 0963 d93b d4da 03be f97c 01bd
00000020: bdfe 1a3e 23e3 8fbc 2049 c03c a6e9 0bbe
00000030: 8650 f3bb 7907 2c3d 56dd eabb f0a9 25be
00000040: 1225 373c bdd4 843e bbc4 c7bd ce0a c4be
00000050: 4f16 e73e 20af 94bc 5245 06ba 66f3 b1bc
00000060: b730 f53b b2d9 423e 9240 5e3d bbb9 9f3b
00000070: 8524 523e 1899 413d a982 33be f676 2e3d
00000080: 5780 853d e45d 98bd b3c9 22be 5926 0b3c
00000090: 1c80 20be d36a ffbd 34ce 59bb 8dc2 353e
000000a0: 513f 2bbe 8f61 3b3e 3617 05bd 29cb 313d
000000b0: 395f 243d 09ef 623e 3596 74be 5a5d 573c
-0.12761657 -0.07648394 0.024461597 0.4285122 -0.0033676377 0.0066341204 -0.12876445 -0.031613324
0.15136237 -0.017564362 0.023472369 -0.13663349 -0.0074253706 0.041999314 -0.0071674986 -0.16178107
0.011178272 0.25943556 -0.0975432 -0.38289493 0.45134208 -0.018149912 -0.0005122024 -0.021722507
0.007482614 0.19028357 0.054260798 0.0048744357 0.20521744 0.047265142 -0.17530312 0.04259392
0.065186195 -0.07439783 -0.15897255 0.0084930295 -0.1567387 -0.12471547 -0.003323448 0.17749996
-0.16723372 0.18298934 -0.03249284 0.04340664 0.040129874 0.22161497 -0.23885424 0.013144815

backbone.2.conv.1.1.running_var f4 [48]
00000000: effa d43c 2431 1a3c cfea 8a3b d96a c33c
00000010: bfab 573c 15c2 c03b 80eb b73c 9aa4 003b
00000020: ee40 5a3d 2f3b b53a 4a12 063b 818c 1a3d
00000030: 2df5 153a abf3 e73a 99fb c13a d3d0 dd3c
00000040: 69d9 ad3b ec5f de3b 092e c73c f20e a23c
00000050: 869c 073c fdce 6c3b 731a 353b 5ee2 353a
00000060: 03fc 623b ec9a 923d 980e 853b b6fb a139
00000070: f5fb 423b 10e8 f939 811f b93c a6ff 503a
00000080: 70c8 7d3b 813f 443c e58e 203d 155c e53b
00000090: 1e03 f83b 07d7 9c3c 8e80 fc3a f670 7b3d
000000a0: 9ed3 563d f5d7 f73a 440b b23b 2a27 6b3b
000000b0: ec4d 8c3b 8507 093d b9f4 853c 26ad 9c3a
0.02599856 0.00941113 0.004239417 0.02385466 0.013163506 0.0058825114 0.022451162 0.001962936
0.053284578 0.0013826842 0.0020457678 0.03773165 0.0005720433 0.001769652 0.0014799713 0.027077114
0.0053054583 0.006786337 0.024313943 0.019782517 0.008277064 0.0036134117 0.0027634173 0.00069383334
0.0034635074 0.07158455 0.0040605776 0.00030895852 0.002975223 0.0004766588 0.02259803 0.0007972665
0.0038724206 0.011978031 0.039198775 0.0069995024 0.007568731 0.019145502 0.0019264387 0.061387025
0.052447908 0.0018908965 0.005433472 0.0035881498 0.00428175 0.033454437 0.016352044 0.0011953458

backbone.2.conv.2.weight f4 [8, 48, 1, 1]
00000000: 74f0 3c3e 2a89 2f3e e3a6 9bbc d57f 87bc
00000010: d373 bb3e 29e1 40bc 3bff 6b3e ef6e 84be
00000020: 5211 3fbe 3868 0a3d 84ff a13d 7b85 863e
00000030: 7bd7 17bd 7d43 5ebd 9076 ccba ff54 a73e
00000040: 1695 39be 489c bbbd 4c28 3cbd 47d7 af3e
00000050: cf3e 523d 148d 743d c770 5d3c 6a21 b13c
00000060: 0a11 913d 0442 973d 10d1 5f3e b338 c4bd
00000070: 820d 24be 6acb e8bb a11e 0bbe e5f3 15bd
00000080: 5918 48bd d800 a63e 1ac0 3c3e a9e6 12bb
00000090: 6c51 1d3c cd70 ea3d 5535 dd3d b8be 923d
000000a0: f957 983e 6033 093c e143 983d 58aa a63d
000000b0: 1457 bcbd 49c5 26be 8ab9 2a3e 7fef c2bc
000000c0: 1a29 db3c e1d7 6e3e f790 4c3e c344 debe
000000d0: 4b46 2d3d d0bd 0b3e 23bc 9c3d 161c 19be
000000e0: 86b8 dc3d 9381 9bbd ef90 333d 5f3d 66bd
000000f0: 16e4 f6bd e6d0 f5bd fe0a 90bd 074d 1e3e
00000100: 6f41 cbbd 7cb4 033e 4a0d 14be a96d 6e3d
00000110: 9768 c5bc 3f76 0c3d feda 2b3d 67cc 08bb
00000120: bab6 febd b7d8 cb3d 3419 b63d 70f9 a2bc
00000130: 542f 1a3e a287 debd e808 863d 61ec 06be
00000140: c0d4 04be 9e3e e23b 0f83 79be ebae 2f3d
00000150: d914 9a3e 9c34 a4be 4bf2 173d b06e 48be
00000160: 8227 bbbd c1de 833d 2bc9 0d3d 42d1 e4bd
00000170: b218 a8bb aa13 7fbe 957c d7bb 31d4 58be
00000180: d40d 273e f284 d23c 8ccc 2bbe 1aae 0fbe
00000190: 6d08 843e b8e0 c8be 513c 34be 2987 813d
000001a0: a835 debc 0c11 0a3e eefb a0bc db89 8cbe
000001b0: e961 8e3e 031d 37be 151a 5fbd c205 4bbd
000001c0: b364 183d 6e78 db3b 07e6 b23d f655 f13a
000001d0: cb41 113e d110 5b3d 152e 9c3e 9093 8d3e
000001e0: 6d35 c7bd f9ec 45be f0ab 72be c14c a13c
000001f0: 3841 223e 638d 5d3e a61e d13d 08fa b53c
00000200: 2fa4 39be 3dab 2f3e d524 c93d 8cca 17be
00000210: e1c5 f1bd fc9d 263e 2905 943e 2790 45be
00000220: 4d62 053e 0831 33be 705b 603e 9ea2 45be
00000230: 5ec4 1ebe 403f 333e ad01 b1bd d6b3 873d
00000240: 2f72 00bd cd77 423e e09a f23d fa7b 883e
00000250: 32f9 51be ec1f 543d 8f1d c2bd f066 60bd
00000260: 23e0 12be 0bbb a33d d8df 293e 6f8b 47be
00000270: 51fe bebd 888b ea3c b945 043e 3dee b63d
00000280: 9d23 703b 7636 0e3d 2503 cf3d d95b 8dbe
00000290: 3ff6 b1bd d5a1 213e cf84 033e 0d5c f73d
000002a0: 96ad e23d 594b c8bd f352 8d3d d6ca bf3d
000002b0: 36c8 f5bd c020 99bd 0683 293e 3a2f 053e
000002c0: 70cb 4ebe 56d7 0dbe 6c62 593e cf17 b2bd
000002d0: 9b0a 713d f3f1 133e 1628 ab3d 9134 82bd
000002e0: 7322 dfbd 7b53 8b3e 373e 883e d21e 80bc
000002f0: 655c 08be 824d 6a3c a476 5dbe e939 f53d
00000300: ebf6 ff3b 888e babd e9d2 e13b 7c2e a63d
00000310: 634c 5a3c a1bb 893c d760 42be 278a 15bd
00000320: 28e8 56bd 6b60 593b d20d 603d 0477 343e
00000330: 4bb0 ca3d 1a6c a8bd 1a4b 9abd 3744 88be
00000340: 4d94 2bbd d32b cdbd 19d2 983d 7d84 54be
00000350: 8634 34be 727b 1c3e d9a0 0e3d 71e9 9e3d
00000360: e698 8f3e 0cce e0bd 619b e33d f1b8 49bd
00000370: f0ee c1bd 528e 9dbd 2d81 82be c318 94bb
00000380: 36d1 e43d 8e1e 6dbd dcf3 e23d 6110 fa3d
00000390: ac0d 943d b6f3 ce3d e4a0 4dbc d0e5 41bd
000003a0: b1ed 6abd efc7 88bd 9acc 49bd 3deb 923d
000003b0: 876e bf3d 8c62 7f3e 062d b9be 2e16 dcbd
000003c0: 06ff cf3b 87d4 b1bd d5e5 3c3e 9781 793a
000003d0: a0f3 b13d f1d6 333e d15e 383e 19fe 36be
000003e0: 5c15 9fbe 7fdb e03d da5b 2dbc 9a6f 7dbe
000003f0: 55bc 7a3e 2993 2a3d 05dc 92bd 6b97 97bd
0.184511 0.17142168 -0.019000476 -0.016540447 0.36611804 -0.011772432 0.23046581 -0.25865886
-0.18658951 0.033790797 0.07910064 0.26273713 -0.037070733 -0.05426358 -0.0015599299 0.32682034
-0.18123278 -0.09160668 -0.045936868 0.3434393 0.05132943 0.059704855 0.013515658 0.021622378
0.07083328 0.07385638 0.21857095 -0.09581127 -0.16020778 -0.007104327 -0.13585903 -0.03660955
-0.048851345 0.3242252 0.18432656 -0.0022415316 0.009601932 0.11447296 0.10801188 0.07165283
0.29754618 0.008374065 0.07434822 0.08137959 -0.09196296 -0.16286196 0.1667234 -0.023795841
0.026752997 0.23324539 0.19977175 -0.43411836 0.042303365 0.13646626 0.07653072 -0.1495212
0.107773826 -0.07593074 0.04383939 -0.05621087 -0.12055223 -0.12002735 -0.070333466 0.15459071
-0.0992459 0.12861818 -0.14458194 0.05821005 -0.024097724 0.034292456 0.041956894 -0.0020873786
-0.12437196 0.099534445 0.08891526 -0.019894332 0.15057117 -0.10865714 0.065446675 -0.13176109
-0.12971783 0.006904437 -0.24366401 0.042891424 0.3009403 -0.32071388 0.037096303 -0.19573474
-0.09138395 0.06438971 0.034615677 -0.11172725 -0.005129897 -0.24909845 -0.0065761306 -0.21174695
0.16313869 0.025698159 -0.16777247 -0.14031258 0.25787678 -0.39233947 -0.17601134 0.06324608
-0.027125195 0.13483065 -0.01965138 -0.27448925 0.27809075 -0.17882161 -0.054468233 -0.049566038
0.03720541 0.006697706 0.087352805 0.0018412459 0.14185254 0.053482834 0.30503908 0.27651644
-0.09726987 -0.19328679 -0.23698401 0.01968992 0.15845191 0.21635966 0.10210924 0.02221395
-0.18129037 0.17155166 0.09821478 -0.14823359 -0.118053205 0.16271204 0.28910187 -0.19293271
0.1302578 -0.17499173 0.2190988 -0.19300315 -0.15504596 0.17504597 -0.08642898 0.06626098
-0.031358894 0.18991013 0.11845946 0.26657087 -0.20505217 0.051788256 -0.09478294 -0.05478567
-0.14343314 0.0799466 0.16589296 -0.19486783 -0.09325851 0.028630987 0.12917222 0.08932159
0.003664232 0.034719907 0.10108022 -0.27609137 -0.08689546 0.1578439 0.12843631 0.12078104
0.11068265 -0.097799964 0.06900587 0.0936486 -0.12001078 -0.0747695 0.16553888 0.13006297
-0.20194793 -0.13851675 0.21228951 -0.086959474 0.058848005 0.14447765 0.08357255 -0.063576825
-0.108952425 0.27212128 0.26609966 -0.015639696 -0.13316496 0.014300706 -0.21627289 0.11973936
0.0078114173 -0.09109217 0.0068915975 0.08114335 0.013323876 0.016813101 -0.18982254 -0.036508705
-0.052467495 0.0033169042 0.05470068 0.17623526 0.098969065 -0.08223744 -0.07533856 -0.26614544
-0.041889478 -0.100181244 0.07461948 -0.20753665 -0.17598161 0.15281466 0.034821365 0.07759369
0.2804634 -0.109768 0.111136205 -0.04924864 -0.09469402 -0.07693161 -0.25489178 -0.0045195534
0.11172716 -0.057890467 0.11081669 0.12210155 0.0722917 0.10105078 -0.012550566 -0.047338307
-0.057355586 -0.06678759 -0.04926739 0.071737744 0.09347253 0.24939936 -0.36167163 -0.10746418
0.00634754 -0.086831145 0.18447049 0.00095179066 0.08689046 0.17562462 0.1800492 -0.17870368
-0.31070983 0.109793656 -0.010580981 -0.24749604 0.24485905 0.04164425 -0.07170872 -0.074019276

backbone.2.conv.3.weight f4 [8]
00000000: a7a0 0c3f a9dd e13e ceb9 f33e 8b08 d63e
00000010: 2cf1 ba3e c000 073f a240 a13e d2d1 1e3f
0.54932636 0.44114426 0.47602695 0.41803393 0.36512125 0.5273552 0.31494623 0.6203891

backbone.2.conv.3.bias f4 [8]
00000000: 31e0 c138 dc5a ecb7 14fa e5b8 58f7 29b9
00000010: 2da1 76b9 c182 3438 41f4 51b9 5e0d d9b8
9.244716e-05 -2.8175702e-05 -0.000109661516 -0.00016209239 -0.00023520431 4.303712e-05 -0.00020022785 -0.00010349856

backbone.2.conv.3.running_mean f4 [8]
00000000: 4a68 733f 1732 eabe d3bf ec3d cfd9 563e
00000010: 0527 24be e2be 043f 2934 cbbd f9b3 a03d
0.9508101 -0.4574134 0.11560025 0.20981525 -0.1603051 0.51853764 -0.09922058 0.07846827

backbone.2.conv.3.running_var f4 [8]
00000000: e92c a43d 81c1 443d aba5 ac3d 13f4 b23c
00000010: 239d 213d 7bbb 983d d03c 0c3d 9184 d63d
0.080163784 0.048036102 0.08430036 0.0218449 0.039456498 0.07457634 0.034237683 0.10474504
