ML Model/tv_detection_epoch_150/e-26-0.927.pth (torch, 508349 bytes, 205 tensors)

backbone.0.0.weight f4 [16, 3, 3, 3]
00000000: 45f5 0000 2252 0380 eadd 0280 6462 0180
00000010: 2430 0180 fa92 0100 e9c9 0300 06a3 0000
00000020: cde7 0380 7c95 0100 9007 0300 c401 0280
00000030: 04fb 0180 2088 0200 31ef 0100 a704 0180
00000040: 7813 0100 9c0a 0180 72f6 0100 0098 0100
00000050: fcd2 0080 3451 0380 97b9 0180 8c8e 0100
00000060: d27f 0080 b733 0100 ea7d 0200 5a51 253c
00000070: 5003 603c 899b 363d 4f57 0a3e 080b c13e
00000080: 72a9 513d 64a6 3abe c30f 80be 478b 2dbd
00000090: 9098 1bbd cc78 443d bde0 0bbc 5bca 853e
000000a0: 426c 3c3f 04ea c83d 02d9 aabe 1cd8 17bf
000000b0: cbb4 d9bd b197 933d 1eea 253d f9ef 903d
000000c0: db64 fa3d 4576 873e 8e72 c33d 852b 92bd
000000d0: 1766 0dbe 2356 b2bc 0848 b8bd 4a80 f13d
000000e0: 810c db3c 9aa6 c7be ad15 423f a6a0 8cbe
000000f0: 88fa 28bf 53f8 6e3f ebf6 89be d806 e1bd
00000100: 789a 513e 5a8d 86bc 317d 4fbf 9a83 ad3f
00000110: f3c9 00bf 8455 85bf c8bd be3f 44f3 e5be
00000120: 17b5 a5bc 582f 7ebb c26a 743d 7885 47be
00000130: 7a3e cd3e f735 0ebe e456 87be 28d4 e83e
00000140: a951 08be 3800 5bbc 6bf9 f4bc d8f7 813d
00000150: 9ef7 063d f46f 3f3e ed72 9dbe 712c d9ba
00000160: e71e 953e 85d9 adbe 3709 303c a766 fbbc
00000170: bc60 d93d 9ecb 6d3d 7c7a 0c3f 6654 17bf
00000180: 9171 5b3d e58e 283f 98c2 2dbf 4a5b e93c
00000190: 72c0 33ba d6c6 a838 1ccf a33d c44a cd3d
000001a0: 1fd6 13be a1f9 613c c7ed ac3d 3f30 32be
000001b0: b6cc babd 403b d739 6498 eabc 5726 2bbc
000001c0: 601d d2bc beb9 02be 5a1d 293e 94fe cbbb
000001d0: dcaf 6ebe 02b0 273d 483b 763d bc97 24bd
000001e0: b9d2 be3d 720e 1abe 454e 92be 0f79 4b3e
000001f0: 88be e5bd d1b5 eebe a4fc 18bb f65c 4abc
00000200: d42c f2bd 0a5a c5bc 42c3 aebd 7771 25be
00000210: bc13 77bc 506e bcbd 5cb7 69be a031 3c3e
00000220: 8e71 333e 8aeb 53be 854c fc3d 178b 213f
00000230: e775 7e3e bd77 3bbe 0ef7 113f 2832 213f
00000240: 5e68 863d 075c b5bd bb8c 3b3d 77d0 4a3c
00000250: 804a 55be 7f58 e0bd d47c 33bc 1ec4 3abe
00000260: c471 f5bd 1c85 62be 01bb efbd 6302 313e
00000270: f2a3 fcbd 7e9e e6be 984e 38be b3b8 843d
00000280: 308f eebe 5bbc 0abf 399f 673c af03 95bb
00000290: e9d1 353c cfb8 f33e 6816 efbd a15b 38be
000002a0: e8b4 0f3e 99f5 b2bd efef 60bd 5714 1cbd
000002b0: 47c3 5bbc 2731 b13c 049a 703f e32a 70be
000002c0: c45b d7be 6552 853e 4d80 52be 02d2 94bd
000002d0: bf91 1a3d 6792 863b 7d84 063b 264a 813e
000002e0: 8f75 22bd 281c 99bd 2e59 4a3d afa5 ffbc
000002f0: 698b 95bc 8175 c1bc bd65 94bd 7509 11be
00000300: 11e0 58bd f04a 303d 6f44 673e 6880 83bd
00000310: 4008 773d 00bd a33e 677b 95bd 860d 44be
00000320: be9d 69be 4478 16bd f1bf 813d 85f9 a73e
00000330: c266 22bd 1463 403e 869b df3e dc8f 6cb8
00000340: 5e5d 983c 1b22 2b3b 8f27 863c 5783 f03d
00000350: 43af 6f3e 94db 043d 0298 253e e377 a23e
00000360: 04cc 703d 8a76 4f3d e12c 03be 0cc3 2dbe
00000370: 1dcf 313f c8cd 01bf 895c 113d 5f2f 3d3f
00000380: b406 2abf d9e3 02bd 01e0 2d3e d3ee 53be
00000390: 2f07 f9bd 59fd 8a3f 68c1 69bf 9141 933c
000003a0: 1658 863f 325a 78bf d587 763d 25ed cebb
000003b0: 025b 14bc 09bf d7bd 7422 ce3e f63a abbe
000003c0: de93 603c 1c33 ce3e c03c c8be f8d0 0200
000003d0: 751c 0180 0197 0200 fd24 0180 7826 0200
000003e0: 0884 0380 ffbc 0180 a247 0280 6f40 0180
000003f0: 5bb5 0280 959a 0100 369e 0200 daf9 0280
8.7986e-41 -3.0497e-40 -2.63279e-40 -1.27131e-40 -1.09105e-40 1.44561e-40 3.47938e-40 5.8482e-41
-3.58661e-40 1.4546e-40 2.7822e-40 -1.84304e-40 -1.81883e-40 2.32503e-40 1.77641e-40 -9.3504e-41
9.882e-41 -9.5641e-41 1.80243e-40 1.46363e-40 -7.5687e-41 -3.04637e-40 -1.58413e-40 1.42972e-40
-4.5853e-41 1.10387e-40 2.2884e-40 0.0100901965 0.013672665 0.044581924 0.13509868 0.3770373
0.051186986 -0.18227535 -0.25012025 -0.042369153 -0.03798729 0.047966763 -0.0085374685 0.26130947
0.7360269 0.0981026 -0.3336869 -0.5931413 -0.10630187 0.07206667 0.040506475 0.07077021
0.12226268 0.2645742 0.09543334 -0.07137207 -0.13808475 -0.021769589 -0.08998114 0.11792047
0.02673936 -0.38994294 0.75814325 -0.27466315 -0.6600728 0.9334766 -0.26946196 -0.109876335
0.20469081 -0.016424824 -0.810504 1.3555787 -0.5030815 -1.0416722 1.4901667 -0.4491216
-0.020227952 -0.0038785543 0.059672125 -0.19484508 0.40086728 -0.13887773 -0.2643348 0.45474362
-0.13312401 -0.013366751 -0.029904088 0.063461006 0.03295099 0.1869505 -0.30751744 -0.0016569031
0.2912514 -0.33955017 0.0107443845 -0.030688597 0.10614154 0.058055513 0.54874396 -0.59113157
0.053575102 0.6584304 -0.6787505 0.028485913 -0.00068569847 8.0479e-05 0.07998487 0.10024026
-0.1443715 0.013792426 0.0844379 -0.17401217 -0.09121077 0.0004105214 -0.028637119 -0.010446153
-0.025648773 -0.12766168 0.16515103 -0.0062254164 -0.23309273 0.04093934 0.06011513 -0.040183768
0.09317536 -0.15044573 -0.2857534 0.19870399 -0.112179816 -0.4662309 -0.0023343945 -0.012351265
-0.118249565 -0.024090786 -0.08533336 -0.16156565 -0.015080389 -0.09200728 -0.22823852 0.18378305
0.17523786 -0.2069532 0.123192824 0.6310286 0.24849664 -0.18307395 0.570176 0.6296716
0.06562875 -0.088554434 0.045788508 0.012378803 -0.208292 -0.10954379 -0.010955054 -0.18238875
-0.1198459 -0.2212109 -0.1170559 0.17286067 -0.123359576 -0.45042795 -0.17998731 0.06480541
-0.46593618 -0.5419366 0.014137083 -0.0045475583 0.01109741 0.47601935 -0.116741955 -0.18003704
0.14033854 -0.0873825 -0.05491632 -0.038105335 -0.013413257 0.021629883 0.9398501 -0.2345386
-0.420622 0.26039425 -0.20556755 -0.07266618 0.03773665 0.004106808 0.0020525747 0.25251883
-0.039662894 -0.074760735 0.049401455 -0.031206934 -0.018254953 -0.0236156 -0.072459675 -0.14163764
-0.05294806 0.043040216 0.22584699 -0.06420976 0.060310602 0.31980133 -0.07298928 -0.19145784
-0.2281408 -0.036735788 0.06335438 0.32807556 -0.03964878 0.18787795 0.43673342 -5.6400764e-05
0.018599208 0.0026112858 0.016376285 0.11743801 0.23406701 0.03243597 0.16171268 0.3173209
0.058788314 0.050650157 -0.12810089 -0.16968936 0.69456655 -0.5070462 0.03548864 0.7390041
-0.6641648 -0.031955574 0.16979982 -0.20696573 -0.12159573 1.0858566 -0.9131074 0.0179756
1.0495632 -0.9701263 0.060188133 -0.006314891 -0.009054901 -0.10534484 0.4026066 -0.3344342
0.013707129 0.40273368 -0.3910885 2.58635e-40 -1.02044e-40 2.37841e-40 -1.05104e-40 1.97471e-40
-3.2287e-40 -1.59635e-40 -2.09368e-40 -1.1495e-40 -2.48729e-40 1.47289e-40 2.40426e-40 -2.73301e-40

backbone.0.1.weight f4 [16]
00000000: ec9b 0180 bb22 033e d497 f13d 91a1 833e
00000010: 4734 1d3e f039 533e af90 543d e0f2 953e
00000020: c5d8 de3d fe1c 0080 2a1b b73e 7486 f53d
00000030: d70b 823e a840 963e cdb1 0100 6fb6 9b3d
-1.4777e-40 0.12806217 0.11796537 0.25709203 0.15351973 0.2062757 0.051895794 0.2928686
0.10881189 -1.04e-41 0.35762912 0.119885355 0.25399658 0.29346204 1.55618e-40 0.07603156

backbone.0.1.bias f4 [16]
00000000: f32e 0100 ff3d 1b3f 684d d53e 5236 8a3e
00000010: 8e09 703f 06a8 163f 6bac 093f 3756 033f
00000020: aa1f 143f 20f5 0080 d4bf b4be c736 703f
00000030: 9b2c d03e ea9d c4be 1738 0300 703e ba3d
1.08678e-40 0.60641474 0.4166062 0.26994568 0.9376458 0.58850133 0.53778714 0.5130343
0.57860816 -8.7934e-41 -0.35302603 0.93833584 0.4065903 -0.3840173 2.95628e-40 0.0909394

backbone.0.1.running_mean f4 [16]
00000000: b030 8d00 6231 8c42 6ff1 4442 67f0 d3c0
00000010: 3d66 30c3 64d4 85c2 e111 6f42 378b 2d43
00000020: effa a841 cad3 5301 6738 3bc2 392c 2043
00000030: 5ec7 bec0 7822 b742 f33f 4800 5ac7 8dc1
1.2966271e-38 70.09645 49.235775 -6.623096 -176.39937 -66.914825 59.76746 173.54381
21.122526 3.890653e-38 -46.80508 160.17274 -5.961837 91.56732 6.635096e-39 -17.72234

backbone.0.1.running_var f4 [16]
00000000: 0400 0000 67a5 6545 ef3c 1d46 e99c d544
00000010: 1bef 5a46 56af 0546 058a 8645 12d1 5946
00000020: a6ae cc45 0400 0000 9c07 3945 7350 3246
00000030: faa8 0445 7758 b745 0400 0000 ad28 5b44
6e-45 3674.3376 10063.233 1708.9034 14011.776 8555.834 4305.2524 13940.268
6549.831 6e-45 2960.4756 11412.112 2122.561 5867.058 6e-45 876.63556

backbone.1.conv.0.0.weight f4 [16, 1, 3, 3]
00000000: c3c5 0480 20b4 0100 5b4c 0480 8e5d 0200
00000010: 7a1c 0180 0d30 0100 81ef 0300 8311 0300
00000020: 4dc0 0400 9897 773b 5167 85bd e787 1f3d
00000030: fce1 9fbb fb46 08be e38c 393f 051f 263c
00000040: 7303 333d ea6d 54bf 87a7 dd3a 7a43 0bbd
00000050: 415d 26be f2dc a4bc a3f6 933d 6456 8f3f
00000060: 6127 7dbc 4df5 32bd eff0 88bd a835 03bd
00000070: 9918 15bd b759 bdbd a625 593d eba1 4b3f
00000080: 2162 9abe 5c82 75bd eb6b dfbc 9f5c 18be
00000090: f9f1 173f 6ffc f73f 820d e93e edee 6e3e
000000a0: 78a5 e33e 487e 3a3e 5526 5abf 1e10 09c0
000000b0: 4495 42bf e0d1 abbd 3c32 ae3d 377a 4ebe
000000c0: 5888 3b3e 84c5 b23e 3657 debf 75c2 513d
000000d0: 11a6 9f3f 2a97 993e 9300 74ba df6e be3d
000000e0: 62e1 8abd d157 ee3c 7356 c83c 2f91 50bf
000000f0: c264 de3b 07bd 0dbd 4b93 803f 632c 03bf
00000100: dd65 90be a9ed 3c3f 1eed 1ac0 4eee b9be
00000110: 3953 2840 28aa f9be beba 33be 7025 243f
00000120: e940 11bd 15ac 973d 4ca6 b9bd 6a4c 103d
00000130: fa09 89bf 9795 393e c678 0b3d 8298 443c
00000140: c5d4 3dbd d31c 0080 fd5b 0100 2355 0080
00000150: 24d2 0080 3c30 0180 c13a 0080 9982 0100
00000160: b182 0100 4e37 0280 a407 f13d 45d9 cfbd
00000170: 682d debe 5d67 0fbe 35ba 4c3e 791e d23e
00000180: e69f b8be 5b91 a63e 4dcd e93e cc49 2f3e
00000190: 34f5 ca3f 8290 803f 709a 943d e8a1 463d
000001a0: 9106 02be 91f0 afbe fab4 d0bf 91e6 7dbf
000001b0: 3680 0139 4a91 363d 4058 19bd e348 aabc
000001c0: 4e31 9ebc d1b1 2fbf 5e6f c23a 2bd2 433d
000001d0: 8a38 4e3f 87f7 ecbc 683a 463d aa70 00be
000001e0: 24cc 3e3d 0702 c33d 735e ebbd 33d4 b9bd
000001f0: 0ff0 a0bd d21e 3a3f 905e 0100 4897 0100
00000200: da10 0100 3647 0280 1d31 0500 6dbf 0280
00000210: e990 0280 a3a3 0300 a2de 0080 a3a4 903d
00000220: 571a 4c3c d8ef d33c 6a40 a23d f58e 70bc
00000230: 18d0 adbd 1a8e 59bc 0daf 69be 8299 78be
-4.38286e-40 1.56452e-40 -3.94733e-40 2.17232e-40 -1.02051e-40 1.09073e-40 3.61424e-40 2.81789e-40
4.36327e-40 0.0037779566 -0.06513847 0.038947966 -0.0048792344 -0.13308327 0.724806 0.010139232
0.04370446 -0.82980216 0.0016910889 -0.033999898 -0.16246511 -0.020124886 0.072247766 1.1198239
-0.015451283 -0.04369097 -0.066865794 -0.032033592 -0.03640041 -0.092456274 0.05301442 0.7954394
-0.3015299 -0.059938774 -0.027273139 -0.14879082 0.59353596 1.9373912 0.45518118 0.2333333
0.4446218 0.18212235 -0.8521474 -2.1416087 -0.7600901 -0.0838964 0.08505675 -0.20163809
0.1831373 0.34916317 -1.7370365 0.05121084 1.2472554 0.29998142 -0.0009307947 0.09298491
-0.067812696 0.029094609 0.024455285 -0.8147153 0.0067869136 -0.0346041 1.004495 -0.51239604
-0.28202716 0.7380014 -2.4207225 -0.36314625 2.6300795 -0.4876263 -0.17551705 0.64119625
-0.035462294 0.07405869 -0.09064922 0.035229124 -1.070617 0.1812347 0.034050725 0.011999251
-0.04634549 -1.034e-41 1.24835e-40 -3.0541e-41 -7.5384e-41 -1.09139e-40 -2.1077e-41 1.38685e-40
1.38719e-40 -2.0351e-40 0.117690355 -0.10148863 -0.43394017 -0.14004274 0.19992907 0.41038874
-0.36059493 0.32532772 0.45664445 0.17117995 1.585608 1.00441 0.07256019 0.04849425
-0.12697817 -0.34363225 -1.630523 -0.9917994 0.00012350161 0.044572152 -0.037437677 -0.020786708
-0.01931062 -0.686307 0.0014834215 0.047807854 0.8055502 -0.028926624 0.048395544 -0.12542978
0.046581402 0.09521871 -0.11492624 -0.09073677 -0.078582875 0.7270328 1.25758e-40 1.46105e-40
9.788e-41 -2.09217e-40 4.76796e-40 -2.52342e-40 -2.35655e-40 3.34208e-40 -7.9866e-41 0.07062652
0.012457452 0.025871202 0.07922442 -0.014682521 -0.08486956 -0.013278509 -0.22820683 -0.24277309

backbone.1.conv.0.1.weight f4 [16]
00000000: ab87 0100 3a91 043f 3e77 263f b1c7 023f
00000010: cb31 963f 47e0 f73e cc74 0e3f 05f7 593f
00000020: 5880 f23e fd9c 0000 e36d 723e 334d 853f
00000030: 40ec 513f 0332 8d3e 7085 0200 66f3 a23e
1.40504e-40 0.517841 0.650257 0.51085955 1.1733946 0.48413298 0.5564697 0.85142547
0.47363544 5.6317e-41 0.23674731 1.0414184 0.82001114 0.27577218 2.3154e-40 0.31826323

backbone.1.conv.0.1.bias f4 [16]
00000000: a6b3 7480 3614 4f3f ef62 bd3f 1ede c43e
00000010: 3b42 493e b19c 523f b645 4c3f b0b5 e63e
00000020: 54e0 e63e ba74 2200 3085 a73e 658b de3d
00000030: 3c7b 733f da03 a9be 9564 0600 cf8e 6b3e
-1.0717363e-38 0.80890214 1.4795817 0.38450712 0.19654171 0.8227034 0.7979387 0.45060492
0.45093024 3.16428e-39 0.32718801 0.10866431 0.95109916 -0.3301075 5.87095e-40 0.23003696

backbone.1.conv.0.1.running_mean f4 [16]
00000000: 0400 0000 66c8 07be 4f37 b13e a08c 443d
00000010: dd43 bb3d 7739 043e bf74 fa3d 0d95 02be
00000020: be76 06bf 0400 0080 b158 353c d840 4ebe
00000030: 1da7 4b3d d718 2a3c 0400 0080 4224 1bbd
6e-45 -0.1326004 0.3461251 0.047985673 0.09143803 0.12912546 0.12229299 -0.12752171
-0.52524936 -6e-45 0.011068509 -0.20141923 0.04971992 0.010381899 -6e-45 -0.037876375

backbone.1.conv.0.1.running_var f4 [16]
00000000: 0400 0000 4be1 2b3c 12fb 303c 4fc7 fa3c
00000010: 0376 623e ce0f 413d 4cdd 4d3b c532 ed3e
00000020: 1a4c 403c 0400 0000 6875 9e3b ac08 153e
00000030: 531b 4e3d 1fec ae3a 0400 0000 f19a 433a
6e-45 0.010490726 0.010802047 0.030612616 0.2211533 0.047134213 0.003141242 0.46327797
0.011736894 6e-45 0.0048357733 0.1455409 0.050319027 0.0013345516 6e-45 0.0007461748

backbone.1.conv.1.weight f4 [8, 16, 1, 1]
00000000: 3dcc 1200 2fe9 dfbd b762 14bd ac27 423e
00000010: 4c88 17bd d351 233f 3810 8a3e 828b 80bd
00000020: 4b96 44bd 37a4 0400 4989 803d acf9 8a3e
00000030: 91a6 cc3d 73a4 a7bd 5c6c 1780 b5ed 3cbe
00000040: fba2 0280 b383 93bc 8315 10bf e4d8 f7bc
00000050: 61ea 1c3e bd81 8b3c 0d9c c1b9 46b6 783c
00000060: c532 983d b50f 0980 6a6f 0bbd 79ea 413d
00000070: 1114 27be 3f5b 2f3e 8dca 0800 0345 9bbe
00000080: 41d3 0300 9ab1 033f 475d d83d fc93 e63e
00000090: 7a43 27be 5e56 37be 47c9 5ebe 9cff 8a3d
000000a0: a47e 31be 71e0 0080 4544 1abe 5c38 b33e
000000b0: 063c d83d 5fc4 03be ff44 1580 66de a4be
000000c0: b984 1680 b817 53be 86cf 2dbe 2878 82bd
000000d0: f7ff f13e 85e9 c7be fe9c 9d3d 9447 a63a
000000e0: 37ec 80be fd24 0500 5cb0 5c3d c020 c5be
000000f0: a6ee bb3e 8f1f ac3e dd3f 1800 25ed 89be
00000100: b095 3880 b004 b5be cc68 8c3e 47b9 9dba
00000110: ab1d 083e 128a 26bf 4e2a f93d 0465 7fbe
00000120: 6384 c63d 679e 0480 ff83 123e 788f 05be
00000130: f5be 83be b9fa f539 9118 1300 5294 f73c
00000140: 71ee 3080 de1a ccbd eb93 be3b 26bb f9be
00000150: 4a0f afbe 19bf 57be 3689 803e 28bd 093f
00000160: e875 d83e 6b68 0080 b39a 863d 30b4 f13e
00000170: 1337 5d3d f5fc 343d ea31 1880 0368 2cbe
00000180: 9463 0c00 7987 963e ec48 39bd 13e2 cabe
00000190: 7986 dbbe 6810 8c3d 690a 613d 8d61 52bf
000001a0: 4180 0c3e 1c2a 0180 e307 1bbe 1f55 733e
000001b0: f1f1 0dbe b1c4 943e 7475 2080 f1c3 08be
000001c0: 365c 1c00 e50a ca3b 2b62 5f3e 0236 22b9
000001d0: 6531 fa3e f87c 143f 5646 18be fa98 3a3e
000001e0: 19a2 5cbd 52fa 0080 11ba 2b3e a44b f3be
000001f0: ca7e 60be 38fc 393d b2c5 0080 58d7 37be
1.726306e-39 -0.10933148 -0.036226954 0.18960446 -0.036995217 0.6379673 0.269655 -0.06276609
-0.047994893 4.26251e-40 0.06276185 0.2714361 0.099927075 -0.08185663 -2.151088e-39 -0.18450053
-2.42137e-40 -0.018007135 -0.56282824 -0.030254789 0.15323783 0.017029637 -0.00036928096 0.015180176
0.074315585 -8.32154e-40 -0.0340418 0.04734275 -0.16316248 0.17124651 8.07345e-40 -0.3032609
3.5129e-40 0.51442873 0.10564666 0.45034778 -0.16334334 -0.1790404 -0.21756469 0.06787035
-0.17333466 -8.0514e-41 -0.15065105 0.35003936 0.105583236 -0.12867878 -1.953297e-39 -0.32200927
-2.067993e-39 -0.20614517 -0.16973695 -0.06370574 0.47265598 -0.3904535 0.076959595 0.0012686127
-0.25180218 4.72446e-40 0.053879127 -0.3850155 0.36705512 0.33617827 2.226962e-39 -0.2693874
-5.196486e-39 -0.3535514 0.27423704 -0.0012033366 0.13292567 -0.6505443 0.12166272 -0.24940878
0.096932195 -4.24166e-40 0.14308165 -0.1304301 -0.25731626 0.00046916844 1.753687e-39 0.030222092
-4.49364e-39 -0.09966062 0.005815973 -0.48775595 -0.34191352 -0.21068992 0.25104684 0.53804255
0.42277455 -3.7458e-41 0.06572475 0.47207785 0.0540076 0.04418655 -2.221958e-39 -0.16836552
1.137748e-39 0.29400232 -0.04523556 -0.39625606 -0.42876032 0.06839067 0.05494157 -0.821801
0.137208 -1.06941e-40 -0.15139727 0.2376294 -0.13861825 0.29056314 -2.98087e-39 -0.13355996
2.604473e-39 0.0061658495 0.21814792 -0.00015469643 0.4886581 0.5800319 -0.14870581 0.18222418
-0.053865526 -8.9798e-41 0.16770197 -0.47518647 -0.21923366 0.04540655 -7.092e-41 -0.17953241

backbone.1.conv.2.weight f4 [8]
00000000: 2093 ff3e ed9b f23e 3f01 323f 543c 083f
00000010: f5ae 0c3f 9a69 1a3f 85f7 133f 9a13 063f
0.49916935 0.47384587 0.6953315 0.53217053 0.54954463 0.60317385 0.5779956 0.5237366

backbone.1.conv.2.bias f4 [8]
00000000: adac cc39 8a78 adb9 5d8e 30ba 620d 9b39
00000010: 28f0 de37 5267 8c38 591a 36ba 01e5 8638
0.00039038566 -0.0003308694 -0.0006735081 0.00029573875 2.6576294e-05 6.694965e-05 -0.0006946675 6.432273e-05

backbone.1.conv.2.running_mean f4 [8]
00000000: ebfc 443f 6622 7ebf f5ff cd3e 7d0b dfbe
00000010: 75d3 1ebf 0972 983e 69a9 19bf a540 1d3f
0.7694842 -0.9927124 0.40234342 -0.43563452 -0.6204141 0.29774502 -0.60024124 0.61426765

backbone.1.conv.2.running_var f4 [8]
00000000: ce98 df3d 20df 033e 2eaa 6c3e 3521 893e
00000010: ee1f 553e 2318 9b3e 91d8 be3e fa42 3c3e
0.10917817 0.12878084 0.23111793 0.26783147 0.20812961 0.30291852 0.37274602 0.18384925

backbone.2.conv.0.0.weight f4 [48, 8, 1, 1]
00000000: 88a2 083e d661 3dbd ce3a 2f3e 914c 84be
00000010: 9ecf 2ebe 9802 a73d 5492 5a3e 1f83 473d
00000020: cb37 c83d 0697 b23d 2b11 aa3d 4ea6 9c3d
00000030: 83a3 23be 0ca6 a8be d226 1abe 8e70 94bd
00000040: 92c6 b5bd 4cc8 7c3d cb60 7fbe 7a1d dc3d
00000050: f49c 663d 01f3 89bd e115 39be 86f8 203e
00000060: cd81 a0bd 3f6c 333e 942b 2c3e 24e7 0fbf
00000070: eca3 ff3b e01b 08be 4f45 71be 61be e5be
00000080: dd7e d93b 72ac 28bd 99d8 233e 025c 87be
00000090: 9afb 04be 34c7 fc3d e7a6 e23d fc52 3cbe
000000a0: 7267 4e3d c86f 3cbd 9d35 0e3e ba2a 03be
000000b0: 13f6 08bd 5bfc 593d 8e34 6c3e 95f7 05be
000000c0: 2e07 353d e44e 103e 9859 003e 3af9 d33d
000000d0: 647a d2bd f2d6 b3be bebf 16be ae2c a73b
000000e0: 24e1 a33c 84b5 403e 37d7 a73d bf32 24bc
000000f0: 841a 2f3d 294b ba3d dbff 8fbd 2b06 2b3e
00000100: b301 68bd 9c08 17bd 09d5 e83e 0a49 1cbc
00000110: a4a0 05be 5f94 e7bc 991c ffbd 5603 5b3b
00000120: 01a9 92bb 3a8c 973e b584 f6bc 8a14 463e
00000130: b531 25be de61 513a eba3 0c3c 0ab4 babc
00000140: 7d71 d6bb 5501 efbd ea30 8e3b fd99 dabe
00000150: a376 973d cceb 20ba 1479 80bd aee1 913d
00000160: 2ae1 a0bd 178e de3b 5da7 64be 812a 973e
00000170: 051a 06bb a656 1abe 7d70 0dbe bc71 653e
00000180: 6fa1 fb3d 8be0 1e3e 84d6 09be 8c7d 603d
00000190: abd2 0f3d ff99 063e bbe9 773c 317c f83c
000001a0: 39a8 353e 7181 43be d364 f4bc 2ca6 06be
000001b0: e802 66be 7a48 133e 9080 d83d dec8 513e
000001c0: 6ecd 04be 04cb 04be 359a cc3d 6169 b73e
000001d0: 157a 963d 80ab eb3d 4845 f1bb 91c0 bfbe
000001e0: c2ee 803b 587e df3d 7781 343e 0b98 403e
000001f0: fdd9 9cbe fd9d 1abe 91c3 b33c 558c 4bbe
00000200: 8f3c 9f3e 71ca 393e 0cfc 1b3e 32e8 283e
00000210: 8331 2c3e 0645 cb3d 9f28 f03d 83b6 583d
00000220: c789 c73c 8792 58bc 9385 713d 3124 b1be
00000230: 26a0 fabd 7251 e13d 1baf 0a3d 69d4 4abd
00000240: 9b55 66be d6b8 b43d 628e 52be caa5 033e
00000250: ef4f 2fbe 86d6 c5bd d8ca 6bbe 0890 4b3e
00000260: 4a87 a2bd 82a2 013e bc55 7fbe 3b3c 933e
00000270: b877 0a3e ac71 4ebe bb6b 4ebe 444b d13e
00000280: d7bf a63d c800 2c3e b841 463e 82fc 833e
00000290: 7e27 b2bc ee63 313d 1374 f63d dc4a ed3d
000002a0: 2416 903d a9bb 25bd 11e4 d13d 287c a2be
000002b0: 605b 273e 5a0a 96bd c064 b4be dfe0 25be
000002c0: 11df 9c3d 73b9 9a3d 47c4 273d 0214 d73d
000002d0: c94c efbd 1db9 7abd 198e 0c3c a44c dfbd
000002e0: a675 783e 28ab 023d 8d78 b33d 524a b93d
000002f0: 2d2e c23d 290b 2fbc 5397 c9bb 835b b43b
00000300: 96a2 98bd 3ef5 c4bc a9f7 c23d bdf0 4e3e
00000310: 83f6 10be 6c18 b7bd c57a cf3c d8a3 cabd
00000320: 9577 87bc 70d3 a5be 4414 5c3e 9f37 3e3d
00000330: c12d 203e 61b4 0bbe 088f 06be 4515 a43e
00000340: ed7d 9ebd 7c67 f93c bfb8 813e 9853 643d
00000350: 628c c5bd f85b a63c e5ca 523e a8f1 133e
00000360: 0c5e 95be ea28 03bb aa4e fcbd da8b 5f3e
00000370: e231 57bd 2a3e e23c 0b40 a03e a1d6 0c3e
00000380: 4ae6 c53e 6c80 123d 6d9d 30be 56a5 b7bd
00000390: ad42 9dbc f7b0 7ebe 09cf 2d3c 1213 0a3e
000003a0: 9588 243d 5c2d e43c a69c 3b3e c4ad 373e
000003b0: ed53 c13c f5a7 0b3e bc81 913c 0e29 563a
000003c0: eba0 5fbe e25d b4bd 84d7 b2be 2a1f 9abd
000003d0: 18a0 0abe 335a ea3e d28e 903d 2562 9c3d
000003e0: 32e0 393e c095 8dbd 82fd ecba f41a 59be
000003f0: 46e5 90be 6321 12bb 1677 2e3d 0112 833e
0.13343251 -0.04623588 0.17112276 -0.25839666 -0.17071387 0.081547916 0.21344882 0.04870903
0.09776267 0.08720212 0.08304056 0.076489076 -0.15980344 -0.32939184 -0.15053871 -0.072480306
-0.08875765 0.061714455 -0.24939267 0.1074781 0.056302026 -0.067358024 -0.18074752 0.15719804
-0.078372575 0.17521761 0.16813499 -0.5621207 0.0078015234 -0.13291883 -0.23561595 -0.4487181
0.0066374377 -0.04118008 0.16000594 -0.26437384 -0.12986603 0.123426825 0.1106699 -0.18391031
0.050391622 -0.04600504 0.1388764 -0.12809268 -0.0334378 0.05321918 0.23066923 -0.13082726
0.0441963 0.14092594 0.12534177 0.103502706 -0.102772504 -0.35124928 -0.14721581 0.005101762
0.020004816 0.18819243 0.08195346 -0.010021864 0.042749897 0.09096367 -0.070312224 0.16701572
-0.056642246 -0.036873445 0.45475033 -0.009538898 -0.13049561 -0.028268991 -0.124566264 0.0033418736
-0.0044757132 0.29599172 -0.030092577 0.19343773 -0.16132243 0.00079873006 0.008584003 -0.022790927
-0.0065442906 -0.11670176 0.004339327 -0.4269561 0.07395675 -0.0006138652 -0.06273094 0.07123123
-0.07855447 0.006791841 -0.22329469 0.29524615 -0.0020462286 -0.15072116 -0.13812442 0.22406667
0.122866504 0.15515344 -0.13460737 0.05480723 0.035113018 0.13144682 0.015131409 0.030332657
0.17739953 -0.19092347 -0.029833233 -0.13149327 -0.22462046 0.14383116 0.10571396 0.20486781
-0.1296899 -0.1296807 0.0999035 0.35822585 0.07347504 0.115073204 -0.0073629953 -0.37451604
0.003934712 0.1091277 0.17627512 0.18808 -0.30635062 -0.1509933 0.02194384 -0.19877751
0.3110089 0.18143632 0.15232867 0.16494825 0.16815762 0.099252746 0.11726498 0.05290843
0.02435769 -0.013218529 0.058965277 -0.34597924 -0.12237577 0.110018626 0.0338584 -0.049518976
-0.22493593 0.08824317 -0.20562127 0.12856212 -0.17120336 -0.09660058 -0.23026597 0.19879162
-0.079359606 0.12659648 -0.24935049 0.2875689 0.13522232 -0.2016055 -0.20158283 0.40877736
0.08142059 0.16797173 0.19361007 0.25778586 -0.021747347 0.04330819 0.12033858 0.11586544
0.07035473 -0.04046217 0.10248578 -0.3173535 0.1634345 -0.07326193 -0.35233116 -0.16199063
0.07659734 0.07554903 0.04095867 0.10501863 -0.116845675 -0.061211694 0.008578801 -0.1090329
0.2426363 0.03190151 0.087632276 0.090473786 0.094814636 -0.010683813 -0.0061520725 0.005504073
-0.07452886 -0.024042722 0.09519894 0.20209022 -0.14156537 -0.08940205 0.025327096 -0.09894532
-0.016536513 -0.32387877 0.21492106 0.046439763 0.15642454 -0.13643028 -0.131405 0.32047477
-0.07738862 0.030444853 0.25336263 0.055743784 -0.096459165 0.020307526 0.2058521 0.14447653
-0.29173315 -0.00200134 -0.123196915 0.21830693 -0.052537806 0.027617533 0.3129886 0.1375375
0.3865226 0.035767004 -0.17247553 -0.08967082 -0.019196833 -0.24872194 0.010608443 0.13483837
0.040169317 0.02785366 0.18321475 0.1793738 0.02359959 0.1363829 0.017762057 0.000816957
-0.21838729 -0.08806969 -0.3493005 -0.07525475 -0.13537633 0.45771942 0.07058491 0.07635907
0.1815193 -0.06913328 -0.0018080922 -0.21201688 -0.28299922 -0.0022297732 0.042594038 0.25599673

backbone.2.conv.0.1.weight f4 [48]
00000000: 82f5 d63e 7197 a63e 59c1 f33d a366 193e
00000010: cd81 ca3d b84a b53d 6390 993e 22a5 fd3d
00000020: 06b8 ce3e aa03 323e 8ad1 723e c72d c13e
00000030: d2d8 7c3d 0bac 013e a3b3 2d3e e31b d73e
00000040: b4ed 403e 7a6d 573e 823a b63e 2483 803e
00000050: 20c6 433e 9990 ce3d 91ff a73d 538e 9d3d
00000060: 63e2 2e3e 18bd 2c3e b18c 253e 8f61 873e
00000070: ad2f cc3d 2d63 f53c c884 dd3e 86c4 9a3d
00000080: 11bf 3d3e 60a0 ad3e 656d a93e 3675 453e
00000090: 2277 ab3e 86ca b53e 2f40 013e 7339 c23e
000000a0: 41e6 e73e b813 3e3e 1359 b13d 48d0 253e
000000b0: c6bc 2b3e 2f50 c53e b9da 933e cc6b 273e
0.41984183 0.32537416 0.119021125 0.14980559 0.09888039 0.08852142 0.2999297 0.12385012
0.40374774 0.1738421 0.23712745 0.37730238 0.061730213 0.12663285 0.16963057 0.42013463
0.18840677 0.21037856 0.35591513 0.25100052 0.19118547 0.100861736 0.08203042 0.07693162
0.17078547 0.16869009 0.16166951 0.2644162 0.09970031 0.029954517 0.43265367 0.07557015
0.18529917 0.3391142 0.33091274 0.19282994 0.3348933 0.35506076 0.1262214 0.37934455
0.45292857 0.1856221 0.08659568 0.16192734 0.1677123 0.38537738 0.2887781 0.16349715

backbone.2.conv.0.1.bias f4 [48]
00000000: fe13 37bd 53fb 1cbd 4fc9 773e 548a d03e
00000010: cad1 a63e 18d5 853e 2ed6 893d 5cb1 713d
00000020: 7b8d 97bd 0195 ea3d a833 303c 63dd 793d
00000030: 814e 5b3e 44db 453e b0ca 313e aadb afbc
00000040: ade5 44bd 3669 3e3e f949 633d f028 a03e
00000050: c91e b63e f235 343e b2a0 933e f127 983e
00000060: 3ba0 fe3d e9ed 5a3c 2b79 ea3d 6ddc b0be
00000070: 9221 923e cba0 9c3e 5b9e d43c 0bec 753e
00000080: 92bf 043e d3d0 b03b 76e7 3f3d 8f4a 403e
00000090: e11b 5fbc a15a b23d 3926 773e 8f29 503d
000000a0: 73f1 0b3d 686b 043e aff8 a23e 3a4d 293e
000000b0: 82ac 263e 4acc d7bb 5c84 703e 438a 253e
-0.0446968 -0.03832562 0.24197887 0.40730536 0.3258193 0.2613914 0.06730305 0.059007034
-0.07400032 0.114542015 0.010754503 0.061002146 0.21416666 0.19321924 0.17362475 -0.021467049
-0.0480706 0.18594822 0.055490468 0.31281233 0.35570362 0.17598704 0.28833538 0.29717973
0.12432905 0.013362386 0.11448892 -0.34543172 0.28541237 0.30591425 0.025954416 0.24015824
0.12963703 0.0053959875 0.046851598 0.18778442 -0.013617487 0.08708692 0.24135675 0.050820883
0.03416581 0.12931597 0.31830356 0.16533366 0.16276744 -0.0065856325 0.23487991 0.16166024

backbone.2.conv.0.1.running_mean f4 [48]
00000000: 25a6 a7b8 da29 b638 83b8 aa38 5aec 4a38
00000010: cf3a 44b8 4e56 c2b8 32be 9038 0dea 97b7
00000020: 5249 b237 4427 8336 3dce a636 3785 b838
00000030: 3d98 a1b7 60b1 6eb6 fd83 eb36 9bdc 0238
00000040: a937 d7b8 ad2d 94b7 e761 0639 d131 aa38
00000050: e009 97b8 7f9b bd38 b2c2 5837 0301 b2b7
00000060: e251 a737 da6e 1138 421d bcb8 5f74 b3b8
00000070: c172 c237 a309 12b8 0709 a236 cb39 a537
00000080: f165 9cb8 14e3 15b5 32b3 18b9 c3cf 9435
00000090: 333a 0eb9 6ccb 9238 7b48 3c37 a081 9b38
000000a0: fc33 a138 2f06 54b8 d04e beb7 1b8c f5b8
000000b0: c5c3 24b8 5349 b9b8 011d 0cb9 9a25 4ab8
-7.9941274e-05 8.686232e-05 8.1406e-05 4.8380673e-05 -4.678481e-05 -9.2667164e-05 6.901882e-05 -1.8109591e-05
2.1253396e-05 3.9086754e-06 4.971195e-06 8.798617e-05 -1.9263587e-05 -3.556801e-06 7.018911e-06 3.119987e-05
-0.000102623664 -1.7664244e-05 0.00012815707 8.115511e-05 -7.2020805e-05 9.041186e-05 1.2919934e-05 -2.1219725e-05
1.9946081e-05 3.4673933e-05 -8.969988e-05 -8.557061e-05 2.3180039e-05 -3.4818087e-05 4.829027e-06 1.9696445e-05
-7.457648e-05 -5.583727e-07 -0.00014562605 1.1087326e-06 -0.00013563856 6.999713e-05 1.1222549e-05 7.4151205e-05
7.686761e-05 -5.0550498e-05 -2.2686465e-05 -0.00011708607 -3.928297e-05 -8.835145e-05 -0.00013362245 -4.8195572e-05

backbone.2.conv.0.1.running_var f4 [48]
00000000: 7960 df3d 2327 9f3d 33f1 b63d 600c 073e
00000010: 5ff9 c83d 509b 813d 2db0 b03d 494e a73c
00000020: 2b48 f63d e70f 363d 9725 603d 69f8 013e
00000030: 1619 a33c 26ab 943d 5d70 d43d 4c34 c73d
00000040: cb24 033d 495c 913d cfb0 bc3d afbd 6f3e
00000050: f536 0f3d 3287 273d 01d5 b53c 541d 823c
00000060: c142 d33c 9cc9 b13d 771f 043d 882d 6c3d
00000070: 525a be3d 1212 9b3c bcd9 383e 4932 c63d
00000080: 1855 813d 2c50 903d f134 d43d 3211 b03d
00000090: 60af d83d cf59 2e3e 2063 a53c 2203 033e
000000a0: b43c 023d 2483 9f3d 9200 1b3d 94c0 ac3d
000000b0: 1f21 a83d 6675 433e 00df fd3d 871b ee3d
0.109070726 0.077711366 0.08932724 0.13188314 0.09813189 0.06328452 0.08627353 0.020423071
0.12025484 0.04444876 0.05472335 0.12692417 0.019909423 0.072592065 0.10372994 0.09726772
0.03201751 0.0709768 0.09213411 0.23412202 0.03496452 0.040900417 0.022196295 0.015883125
0.025788667 0.08681032 0.03225657 0.05766061 0.09294571 0.018929515 0.18051809 0.0967756
0.063150585 0.070465416 0.1036166 0.0859703 0.10580325 0.17026447 0.020188868 0.12794164
0.031796172 0.07788685 0.03784234 0.08435169 0.08209442 0.19087753 0.123960495 0.11626344

backbone.2.conv.1.0.weight f4 [48, 1, 3, 3]
00000000: 6e9b a3bd 99db 1fbe 63de d4bd 93ef aebd
00000010: d73e 29be 30b9 b8bd e2c7 29bd 9a2a 0fbe
00000020: 6d6f afbd 0e31 ffbd d911 dcbc f064 6dbc
00000030: a21e eebd 395e 05be 0a71 52bd 79f7 a6bd
00000040: b6f2 34be 88a6 dabd 8fd4 13be 9f58 9dbd
00000050: 93bb 90bb 0da6 413e b0d0 be3e c56c 4b3e
00000060: 0485 abbd bf6c 1fbe 160a 9abe 1f92 083e
00000070: 0d9c 823e 9a67 813c 4d96 5f3e 2b48 f63e
00000080: 6e31 c83c aace 743d c51e 0e3e a97e 38bd
00000090: 11b2 f8bd 4176 a0be 4977 39be e3c5 a5bd
000000a0: 6195 cfbd dcc2 51bc ba41 ef3d 9a5a a63e
000000b0: 645d 1c3e 42d8 9c3d b19d 723e 4668 383e
000000c0: d710 55bd 3cd5 c8bd 7977 d43c 33b2 b2bd
000000d0: a3aa 5fbe 4c28 6bbe 8f30 c0ba ce2f 82bd
000000e0: 9924 cfbd b3f4 1b3d f6ae 40be e90c 8fbe
000000f0: 587f 843c 8c5a 10be e94e 82be 76cc 41be
00000100: 2045 373d cc8e d5bd 1bd3 2abe e9a9 003e
00000110: ff54 0fbe b630 4cbe af13 ab3d 72b7 f9bd
00000120: aaee 24bc a106 183e a342 a43d 1876 273d
00000130: 8a96 8b3e 188d 173e 243e b43d 3112 953e
00000140: efc8 223e 7560 0abe 3c97 4c3e d3fb c2bd
00000150: f022 593c 91c5 f73d 864c a6bd f379 c33d
00000160: 7507 c6be e783 573d c9f8 ab3d 3d8f e03c
00000170: b0a7 c63c 903e f53d a3bf 1c3e 1c88 313d
00000180: 02bc ba3d ea84 e23d 4b7b d03d bec0 f9bd
00000190: 18e6 40be 2a90 0dbe ce1a 03be 921a 55be
000001a0: 2472 00be 34c2 bfbc 4532 34bd 2a86 93bd
000001b0: 3c60 97bd 87f7 d53d 2bc2 023d 47d2 2b3e
000001c0: 053c c5be 7d68 b13c bae4 dbbd 6ee2 783e
000001d0: 8310 bcbc 708f 5abd b570 803d 1405 793b
000001e0: 0065 8cbe 3ecc a03e b390 8abd 2467 8e3c
000001f0: 0db1 4c3e 4914 51be 533c 93bd 6476 8bbd
00000200: 3f48 b4bc 508e 0b3e c6e6 b63e 054e e83d
00000210: a6e1 88bd 38dc 91be 94dd f0bd 051e eabd
00000220: cd97 b6bd c311 2a3d 4d8c 58be 71d6 34be
00000230: f57a 85bd c931 afbd 3085 67be 363a 1bbd
00000240: f583 afbc 833a 1fbd 9b77 4b3d 8c28 82bd
00000250: 5598 943d 3b69 113e 7ece c13d 162e 483e
00000260: f601 833e 7cab 8f3d 3241 c23d 67d9 07bd
00000270: 674f 2e3e 62c2 623e e38b 593d ec2b d53d
00000280: 3203 213e ccff 313d 92ad 70bd c8df 9dbd
00000290: cdce 3e3d ecaf 2abc bc1e b2be 9a3b 85bd
000002a0: 8ca1 2d3d d9f8 36be ec07 dbbc 1dd6 49bd
000002b0: 04d6 cdbd bb1e 82bd 0994 2abd 262f 81be
000002c0: e38f 5bbe 4830 733d 3452 24be 850a 46be
000002d0: 0fc0 f43d d5a3 f13d 91e5 e03c e44e 323e
000002e0: 1451 c53e 7736 2d3c 5596 093e 7fd1 643e
000002f0: 93eb 94bc bbd0 cabd 2e45 41bd af19 eb3d
00000300: 9757 f6bd 1bd3 3cbe 9a56 973e 9a4d 92bd
00000310: 2db0 7cbe e1c3 9b3d 03f4 873d 484f 7ebe
00000320: a2b4 8f3d 2b60 67be a3e8 ec3e 4ce0 cdbd
00000330: 71eb 253e 2d48 39be aabc a73c bbbb f8bc
00000340: 8eaf d63d 16e4 28bd 0ea3 903d 9e0f e5be
00000350: ec8a 903e eb0f bcbc c7ca bd3e 14d7 97be
00000360: 5e9b 19bc 3fb2 00bd 65d1 ff3d 9927 1ebd
00000370: f02f 66be 4e9f 8fbe 93a0 df3d 6476 933e
00000380: d906 e43d 4670 0d3c f2d0 ca3d 2d96 bd3d
00000390: 6c49 623d e52f a73e 0646 4a3e e5a4 f93d
000003a0: 13ad 7b3e eca5 e13d b659 393a bc03 1fbe
000003b0: bd66 b1bd 92f3 df3d 5fe3 923e e035 ff3d
000003c0: 7bd6 c6bd 95ec 29be 235d 2dbd 98ec 273d
000003d0: 6a2e 123e 5363 ed3d ba70 7d3d 8901 523e
000003e0: f620 163e 0bdb bbbc bffa c03d eb83 abbb
000003f0: 46f2 c43d 3d0f 543e 0d8b cd3d de47 a53d
-0.0798863 -0.15611114 -0.103939794 -0.08541789 -0.16527878 -0.09019697 -0.04145039 -0.13981095
-0.08566175 -0.12460528 -0.02686398 -0.014489397 -0.116269365 -0.13024224 -0.051377334 -0.081526704
-0.17670712 -0.106762946 -0.14436553 -0.07682919 -0.004416892 0.18911 0.3726859 0.19865711
-0.0837498 -0.15568827 -0.3008582 0.13336991 0.25509682 0.015796471 0.21834679 0.48101935
0.024437632 0.059767403 0.13878925 -0.045042668 -0.121433385 -0.3134022 -0.1811191 -0.080943845
-0.10135914 -0.012802806 0.11682458 0.32490999 0.1527 0.076584354 0.23692967 0.18008527
-0.052018013 -0.09806296 0.025935875 -0.08725395 -0.21842436 -0.22964591 -0.0014662909 -0.06356774
-0.10114402 0.03807516 -0.18816742 -0.27939537 0.016174003 -0.14097041 -0.2545083 -0.18925652
0.044743657 -0.10427627 -0.16682093 0.12564816 -0.13997267 -0.19940457 0.08353364 -0.121931925
-0.010066668 0.14846279 0.080205224 0.040884107 0.2726329 0.14799917 0.08800915 0.2911544
0.15896963 -0.13513358 0.19979566 -0.09520688 0.013252959 0.1209823 -0.081200644 0.09544744
-0.38677564 0.052616026 0.083970614 0.027412051 0.024249882 0.119748235 0.15307479 0.043342695
0.09117891 0.110605076 0.10179766 -0.12194966 -0.18837774 -0.13824525 -0.12803194 -0.20810917
-0.12543541 -0.023408033 -0.043993253 -0.07203324 -0.07391402 0.10447603 0.031923454 0.16779433
-0.38522354 0.02165627 -0.107369855 0.24305126 -0.022957092 -0.05335945 0.06271497 0.0037997412
-0.27420807 0.31405824 -0.067658804 0.017383166 0.19989415 -0.20417894 -0.0718924 -0.068096906
-0.022007106 0.13628507 0.3572294 0.11343006 -0.06683664 -0.28488326 -0.11761013 -0.11431507
-0.089156725 0.041520845 -0.2114727 -0.17659928 -0.06517593 -0.08554418 -0.22609401 -0.03789731
-0.021425227 -0.03887416 0.04967461 -0.0635539 0.072556175 0.14200298 0.094632134 0.1954883
0.25587434 0.0701513 0.09485091 -0.033166315 0.17022477 0.22144464 0.053111922 0.10408768
0.15723875 0.043456838 -0.05875928 -0.077086985 0.04658394 -0.01041792 -0.34789073 -0.06505509
0.04239039 -0.17868365 -0.026737176 -0.04927646 -0.10050586 -0.063535176 -0.041645084 -0.25231284
-0.21441607 0.059372216 -0.16046983 -0.1933995 0.11950695 0.117988266 0.027453216 0.17412907
0.3853842 0.010572067 0.13436253 0.22345541 -0.018178737 -0.099030934 -0.047185116 0.11479508
-0.12028425 -0.18439905 0.2955826 -0.071437076 -0.2467658 0.0760572 0.066383384 -0.24834931
0.07016875 -0.22595279 0.46271238 -0.10052547 0.16203095 -0.18093939 0.020475704 -0.030362954
0.10482703 -0.041233145 0.0706235 -0.44738477 0.2823099 -0.022956809 0.3706877 -0.2965628
-0.009375421 -0.03141999 0.12491111 -0.038611982 -0.22479224 -0.28051227 0.10919299 0.28801262
0.111341186 0.008632725 0.099031344 0.092571594 0.0552458 0.32653728 0.19753274 0.12189654
0.24577741 0.11017975 0.0007070558 -0.15528768 -0.08662174 0.10935129 0.28689095 0.12461448
-0.09708878 -0.16594155 -0.04232515 0.040997118 0.14275518 0.1159121 0.061875083 0.20508398
0.14661011 -0.022931596 0.09422826 -0.0052342317 0.096165225 0.20708938 0.100362875 0.08070348

backbone.2.conv.1.1.weight f4 [48]
00000000: 6fa4 113f f666 9f3e 400e ab3e 4990 6a3e
00000010: 95fc c03e 0cda b33e f709 203e dd60 9d3e
00000020: 4722 603e 6241 883e 1594 013e 37c1 f73e
00000030: 3c33 8f3e 97c3 823e 210b b13e eb56 d23e
00000040: 15f5 a13e fe11 843e 5ce5 ff3e 3f83 0d3f
00000050: 247e 843e bc22 5a3e 9806 ac3e cd70 b93e
00000060: e4ab b13e e661 683e 31ae ad3e 9fdf 5f3e
00000070: 03eb 773e baf2 843e 16f6 f73e 9319 693e
00000080: 699f a73e 8d8a 4a3e d1db 613e a1f9 b53e
00000090: 21e4 443e 988a c73e e119 b23e 7f05 b03e
000000a0: 1874 e53e 9eeb 843e 34a1 c33e d74c bf3e
000000b0: 4092 ac3e 985f 593e 3d34 a73e e2c0 8d3e
0.5689153 0.3113324 0.3340931 0.22906603 0.37692705 0.35127294 0.15628801 0.30737963
0.21888076 0.26612383 0.12654145 0.483896 0.27968776 0.25539848 0.34578803 0.41081938
0.31632295 0.25794977 0.49979675 0.5527839 0.25877488 0.21302313 0.3359878 0.36218873
0.34701455 0.22693595 0.3392196 0.21862648 0.24210744 0.25966436 0.48429936 0.22763662
0.32738808 0.19779415 0.2205651 0.35542014 0.1922765 0.38972926 0.3478537 0.34379193
0.44815135 0.25961012 0.38208926 0.37363312 0.3370533 0.21227872 0.32657042 0.2768622

backbone.2.conv.1.1.bias f4 [48]
00000000: 015b d137 db15 393d cc20 a93a 782a 2d3f
00000010: fa03 0f3d 0436 fd3b 86cc 373f a765 dabe
00000020: c1ec 1f3e fb37 11bd 6e25 a23d ee03 143e
00000030: e10a 46bc 30a8 c2bc d95e 32bc 6c3c 633d
00000040: dbd1 b93d 694b adbc 1fe7 903d 6478 b6bc
00000050: 0c0a 283f 9581 dabc 6be1 bdbc ae26 47bd
00000060: 2ec6 3f3b bdea 63bc c633 4cbb f5cf 9e3d
00000070: baca 5b3e e5a3 5abd 053a 05bd e399 73bc
00000080: 559e 59bc 7d89 203f b7c1 4f3f 144b 1cbd
00000090: fa6d f93e 6cad a93e c97d 8fbc c51a 643e
000000a0: 3d3c 4f3e 723d 0f3d cce1 063c 2036 22bd
000000b0: 8529 debd 2fa2 963e 8967 893d da7a 02bd
2.4957119e-05 0.04518686 0.0012903451 0.6764293 0.0349159 0.0077273864 0.71796453 -0.4265568
0.15617658 -0.035453778 0.079172954 0.14454624 -0.012087555 -0.023761839 -0.010886871 0.055477545
0.0907323 -0.021154122 0.07075333 -0.022274204 0.6564033 -0.026673118 -0.023178777 -0.048620872
0.0029262411 -0.013910946 -0.003115879 0.077545084 0.21464053 -0.05337896 -0.032526035 -0.014868232
-0.013282378 0.6270979 0.8115496 -0.038157538 0.48716718 0.33140123 -0.017516034 0.22275837
0.20237823 0.03497071 0.008232545 -0.0396024 -0.10847763 0.2942061 0.06709201 -0.03185544

backbone.2.conv.1.1.running_mean f4 [48]
00000000: 501a d2bd 570f 8abd 0529 8a3b fb36 043f
00000010: b164 7cbd 1d4b 46bd 26b6 04be be68 30bd
00000020: 1ed4 023e 417d f5bc b4ea 6f3d 7e3e 20be
00000030: 9c53 a8bb f8f9 e639 3266 abbb 9b16 f5bd
00000040: bdea 083d fed4 353e c1a5 c6bd b666 aabe
00000050: f988 cf3e 6559 53bd 758f e03b 1f42 48bb
00000060: 7f20 033c 0991 983d d1e5 a3bb 9c9f 613b
00000070: 5d8e 823e 70ac 093d ffc5 26be 001e b43d
00000080: ae17 7f3d a688 b7bd e8aa 2dbe 0ff0 0ebc
00000090: de6d c4bd db09 16be 45b6 bfbb c709 3b3e
000000a0: f4eb 1dbe 62e2 1a3e 0365 23bc 6abc d93c
000000b0: e1d1 293d 69bd 3f3e 69ce 8dbe 560c 723d
-0.10258925 -0.06741207 0.0042163157 0.51646394 -0.061619464 -0.048411477 -0.12960109 -0.04306864
0.12776229 -0.029966952 0.05857344 -0.15648839 -0.00513692 0.0004405526 -0.0052306885 -0.11967202
0.03342699 0.17757031 -0.09699584 -0.33281487 0.4053419 -0.051598925 0.006853039 -0.003055699
0.008003353 0.07449538 -0.0050017615 0.003442741 0.2549924 0.033611715 -0.16286467 0.087947845
0.062278442 -0.089616105 -0.16959727 -0.008724227 -0.09591268 -0.14652197 -0.0058505856 0.18265449
-0.1542204 0.1512542 -0.009972814 0.0265791 0.04145992 0.18724598 -0.2769654 0.059093796

backbone.2.conv.1.1.running_var f4 [48]
00000000: 89b3 b93c af86 113c fc3a 913b c1cd 933c
00000010: f6f6 f43b 32d6 663b 65e6 c63c 4284 1b3b
00000020: 2ddc 383d 55fc 093b d1b5 8b3b fe6e 183d
00000030: e941 e439 03d5 273b aeb2 b93b a0a7 9d3c
00000040: f3a6 fb3b 41b3 283c 1973 983c 654e c73c
00000050: a339 a73c fa03 383b c468 a63a c287 8c3a
00000060: 1edb d63b 2823 263c 8964 963b 8440 5639
00000070: c1f4 643b cd6b a239 2dbb d83c d857 8c3a
00000080: 44d4 9b3b fe66 783c 59a5 043d add3 fc3b
00000090: 4fd8 ef3b 86e1 063d c30c 133b 5fe6 a03d
000000a0: 21ad 293d 832c 843b c64d 763b 3247 a93b
000000b0: 4b8c 833b 97b9 d63c 79cd 8b3c f38b f73a
0.022668617 0.008882209 0.0044320803 0.018042447 0.007475729 0.0035222885 0.024279783 0.0023729955
0.04513185 0.0021054943 0.0042636176 0.037215225 0.00043536656 0.0025609143 0.005667052 0.019244969
0.007679814 0.010296644 0.01860957 0.024329374 0.020413226 0.0028078542 0.0012696018 0.0010721611
0.0065568825 0.010140218 0.0045896214 0.00020432664 0.0034935924 0.00030979366 0.02645644 0.0010707332
0.0047555286 0.015161274 0.03238425 0.0077156634 0.007319487 0.03292992 0.0022438026 0.0785644
0.041424874 0.0040336265 0.0037582978 0.005165958 0.004014527 0.026211543 0.01706575 0.0018886313

backbone.2.conv.2.weight f4 [8, 48, 1, 1]
00000000: 1a00 443e 388e 263e cc16 e43b 520b 883d
00000010: c6fa c53e 5eac bcbc e292 6c3e ed3b 84be
00000020: 4ad8 22be 836e e3bc e353 953d 24d5 8d3e
00000030: ae01 70bb 47f9 8abd ab87 b43d a284 8f3e
00000040: df94 57be fa89 1fbd 03d4 d43d 5c06 d23e
00000050: d4a0 4639 d823 bbbc ac2d c4bc e09b 243d
00000060: 9e52 b93d 5885 043d 10a9 493e 0f5c 19be
00000070: b096 03be 98ce 86bc e591 99bd b1bb 98bd
00000080: 59c0 88bd c091 883e a776 433e 4f89 6abd
00000090: 32a9 a4bb d6a6 3f3e 74d5 643d 39fb 6f3b
000000a0: 4f7b 8f3e a110 54bc 3a89 d13d 7a77 933c
000000b0: 7e28 55bd a058 34be 4384 fa3d ad93 5fbd
000000c0: e22b 2d3d 48a5 4d3e 8464 803e db8d cbbe
000000d0: 622c a53d 1198 3b3e baed d43d 837d cabd
000000e0: 0f38 553d bbde a03b c483 ff3b 1cc2 9fbd
000000f0: e9ce 9fbd e47c 12be 4570 e03c 5550 163e
00000100: 2d92 96bd 168e a53d b928 06be dbd0 d03c
00000110: dc77 0fbd 14d1 f8bd c307 533d d8c0 a43a
00000120: d323 03bd 9492 aa3c 1d24 2e3e e81f 8cbc
00000130: b0c1 233e cc97 c6bd 7946 843d fdbf 23be
00000140: 4e6e fdbd 95bf ab3d c128 20be 40af 78bd
00000150: b67a bd3e 7036 afbe 2d7c 683c 1a68 8abe
00000160: 9b56 bdbd 5103 a63d a379 393d 7fef 12be
00000170: 22af 74bd 3805 45be d743 4abd b6be 4ebe
00000180: a19a 133e 8899 a93d e067 92bd e7ae 87be
00000190: 97cb 623e 08fe afbe 5fd2 eabd f586 5c3d
000001a0: ce51 cbbd 5183 2f3e 5e9b 1ebd 7372 8bbe
000001b0: 97fa 603e 2701 3abe 1d6f 06be 9659 8f3a
000001c0: c05b c33d fe0e 8ebd 248d b73d 7f53 f0bb
000001d0: 494a e83d 8c22 3f3d fecd 633e c438 9b3e
000001e0: 402e c6bd 16be 03be e99c 54be 4554 ec3d
000001f0: 2cdc 423e 09c2 493e caea bc3d 752d 273d
00000200: 8e57 81be b9b6 623e 945a 0b3e 4e7b 45be
00000210: 3a5c aabd 578a 523e 04d8 943e 3871 11be
00000220: 19a0 073e 3873 4fbe 6a5f 163e 0d91 44be
00000230: 5f21 56be 985c 623e fb07 3cbe 319e 5b3e
00000240: 53d3 60bc 9dfc 473e 0782 3a3e ed1a 8f3e
00000250: 5fbc 39be e0b0 183e 7225 52bd 21a4 81b9
00000260: 57c4 ffbd da8d 223d 65d6 373e 4399 60be
00000270: 1a3b 68bd 6415 de3c 4fb3 493e e93b 833d
00000280: 1f8d 05bc dd9e 343c 003e 7b3d 0c6c 89be
00000290: 339a 14be b764 b43d 07e8 803d 6269 6d3d
000002a0: da5e 043e 05e9 c0bd d538 e33d dfc7 873d
000002b0: faac 04be a095 b7bd aed0 4c3e 918c a73d
000002c0: fdb1 eebd 2e71 01be db61 743e 4f74 9ebd
000002d0: 9e83 4f3d 0823 723e efc7 9f3d 84ad 92bd
000002e0: 45f5 ecbd a3b6 8d3e 6050 a63e 071b debc
000002f0: dbb2 abbd 84ed 043d ef14 86be 7c5b 0f3d
00000300: 675b 2fbc ee64 1abe 2e65 f23d 329d c13d
00000310: 650c 7e3d 5aba 9f3d fd99 37be 0150 c43c
00000320: 207e 23bd baac 5aba 8a28 053e 5838 223e
00000330: 4145 053e 4855 3bbc 1f18 0d3e 4ab1 8bbe
00000340: 3990 abbd 50b1 33be 7998 043d caf4 5ebe
00000350: e7bf 43be 344c 233d 2a69 f73c a706 a73d
00000360: 87f7 813e 2136 68bd 01e0 643e 1ce3 c0bd
00000370: bfde acbd 670f d8bd a22d 56be ea4c 3ebd
00000380: 2460 3c3e f16e 99bd 8b30 133e 96bd 123e
00000390: 8f25 613c c0ce dd3c 1727 083e 11a7 bcbd
000003a0: f2ea c1bd 1086 763c a051 5c3a 7597 943d
000003b0: caf0 fa3d 23b5 633e ec09 9abe e93a 2ebe
000003c0: d4a3 983d 9b87 c8bd 6e90 493e ede7 d03c
000003d0: 2ae9 4b3e 357d fc3d 0b57 4d3e 4b1a 0fbe
000003e0: fa52 95be 953c 133e 3e4b 6bbc aea8 bfbe
000003f0: f64f 873e cff9 0e3c 8cd3 123e 3891 c0bd
0.19140664 0.1626519 0.0069607254 0.06642784 0.38667887 -0.02303141 0.23102906 -0.2582697
-0.1590282 -0.027762657 0.07291391 0.27701676 -0.0036622095 -0.06785827 0.08814939 0.28030878
-0.21052884 -0.038949944 0.103920005 0.41020477 0.00018942665 -0.02284424 -0.02394756 0.040187716
0.09048961 0.03235373 0.19693398 -0.14976524 -0.12850451 -0.016455933 -0.0749853 -0.07457674
-0.066773124 0.26673698 0.19088231 -0.057259854 -0.0050250525 0.18715987 0.055867627 0.0036618246
0.28023764 -0.012943418 0.10231252 0.018001307 -0.05204057 -0.17611933 0.12232258 -0.054584194
0.042278178 0.20082581 0.25076687 -0.39756665 0.08065106 0.18319727 0.10396905 -0.09887221
0.052055415 0.004909364 0.00779769 -0.07800695 -0.07803137 -0.14305454 0.027397284 0.14679082
-0.073520996 0.08083741 -0.13101472 0.025490215 -0.035026416 -0.121492535 0.051521074 0.0012569679
-0.032016587 0.020821847 0.17005964 -0.017105058 0.15991855 -0.09696922 0.06458754 -0.15991206
-0.123745546 0.08386151 -0.15640546 -0.060714006 0.37007684 -0.3422122 0.014189762 -0.27032548
-0.09245034 0.08106101 0.045282017 -0.14349173 -0.059737332 -0.19240272 -0.049381103 -0.20189938
0.14414455 0.08281237 -0.07148719 -0.26500627 0.22147976 -0.34373498 -0.11465906 0.053839643
-0.099277124 0.17139937 -0.03872239 -0.27235755 0.21970592 -0.18164502 -0.13128324 0.0010936733
0.09538984 -0.06936453 0.08962467 -0.0073341723 0.11342294 0.046663806 0.22246549 0.30316746
-0.0967679 -0.12865481 -0.20762981 0.11539511 0.19029301 0.19702925 0.0922447 0.040814836
-0.2526211 0.22140016 0.13608772 -0.19285318 -0.08318372 0.20560585 0.29071057 -0.14203346
0.13244666 -0.20258796 0.14684835 -0.19195957 -0.20911168 0.22105634 -0.1836242 0.21447064
-0.013722259 0.19529958 0.18213664 0.2795023 -0.18138264 0.14911222 -0.051305242 -0.00024727083
-0.12488621 0.03968606 0.17952879 -0.21933465 -0.05669699 0.02710981 0.19697307 0.06407911
-0.008151322 0.011024204 0.061338425 -0.26840246 -0.14511947 0.08808272 0.06294256 0.05796183
0.12926808 -0.09419445 0.11094824 0.06629919 -0.1295661 -0.089640856 0.2000148 0.08181108
-0.11655042 -0.12640831 0.23865454 -0.07737028 0.05066263 0.23646176 0.07801806 -0.07162002
-0.11570219 0.27678403 0.32483196 -0.027112497 -0.08383723 0.032453075 -0.26187846 0.034999356
-0.010702944 -0.15077564 0.11835705 0.09453811 0.06202354 0.077992156 -0.17929836 0.02396393
-0.039915204 -0.00083417783 0.13003746 0.15841806 0.130147 -0.011433907 0.13778733 -0.27283698
-0.08377118 -0.17548108 0.03237197 -0.21773067 -0.19116174 0.039867595 0.030201513 0.08155566
0.2538416 -0.056692246 0.22351076 -0.09418318 -0.08440923 -0.10549813 -0.20915845 -0.04646007
0.1839605 -0.074918635 0.14373986 0.14330134 0.013741865 0.027076125 0.13296162 -0.09211553
-0.094686404 0.015046611 0.0008404497 0.07255451 0.12252958 0.22237067 -0.30085695 -0.1701466
0.07453123 -0.0979149 0.19684002 0.025501216 0.19913164 0.12328569 0.20052736 -0.13974874
-0.2916487 0.14378579 -0.014361201 -0.3743338 0.26428193 0.008726551 0.14338511 -0.09402698

backbone.2.conv.3.weight f4 [8]
00000000: a4f4 053f be7f e53e 7022 eb3e 05d1 ee3e
00000010: 798f ba3e f252 0f3f 58d7 b33e 5971 1f3f
0.52326417 0.44824022 0.4592471 0.46643844 0.36437586 0.5598594 0.35125232 0.6228233

backbone.2.conv.3.bias f4 [8]
00000000: aacd a639 4431 cbb8 f21b 87b9 82b8 aab9
00000010: 095c 0bb9 e313 6b39 7a68 6fb8 389e 2039
0.0003181522 -9.688971e-05 -0.00025770027 -0.00032562396 -0.00013290359 0.00022418755 -5.707934e-05 0.0001531773

backbone.2.conv.3.running_mean f4 [8]
00000000: 1034 6c3f 6420 a2be ed13 233e f8b2 8a3e
00000010: 4d4f 0bbe daad fa3e 0460 d4bd 514e b93d
0.9226694 -0.31665337 0.1592557 0.27089667 -0.1360447 0.48960763 -0.10369876 0.09048141

backbone.2.conv.3.running_var f4 [8]
00000000: ccc5 c63d a5d7 7e3d 36c7 d63d 858c 2c3d
00000010: 91c5 2f3d 8f6c aa3d 3b8b 5e3d 64d2 1c3e
0.097056955 0.062217373 0.10487215 0.042126197 0.042913023 0.08321487 0.054332 0.15314633
