ML Model/tv_detection_epoch_150/e-36-0.872.pth (torch, 508349 bytes, 205 tensors)

backbone.0.0.weight f4 [16, 3, 3, 3]
000000 c7 5e 01 80 a9 8a 02 80 d4 c6 01 00 ab 01 02 00
       -1.25835e-40 -2.33413e-40 1.63162e-40 1.8427e-40
000010 87 f6 01 80 b4 18 05 80 61 fa 02 80 20 08 03 80
       -1.80273e-40 -4.68039e-40 -2.7349e-40 -2.78421e-40
000020 49 ef 04 80 33 54 01 80 68 b3 03 00 09 0f 02 80
       -4.53181e-40 -1.2204e-40 3.39865e-40 -1.89065e-40
000030 14 10 03 00 18 54 02 00 fd ac 00 00 11 86 01 00
       2.81274e-40 2.13838e-40 6.2057e-41 1.3993e-40
000040 52 99 00 00 3b c5 04 80 38 b4 00 80 ea 9f 02 00
       5.5001e-41 -4.38095e-40 -6.465e-41 2.41037e-40
000050 51 1a 04 00 3a 9b 02 80 76 7f 01 80 c7 50 02 00
       3.76783e-40 -2.39356e-40 -1.3756e-40 2.12648e-40
000060 a7 5f 01 00 3b c7 01 80 86 dd 02 00 6f 67 8e 3c
       1.26149e-40 -1.63306e-40 2.63139e-40 0.017383305
000070 12 d2 48 3c 69 98 f3 3c 43 c8 1c 3e 71 13 c5 3e
       0.012257116 0.02973576 0.15310769 0.38491395
000080 4c 2c 6c 3d 72 1f 43 be a0 4b 75 be 72 d4 00 bd
       0.057659432 -0.19054964 -0.2395463 -0.031452604
000090 8d 9e 86 bd 83 4c 24 3c 45 76 7a bd 50 80 82 3e
       -0.0657321 0.010028007 -0.061147947 0.2548852
0000a0 f7 00 35 3f e6 ae 8f 3d 39 3a b4 be 7c a2 19 bf
       0.707046 0.07015781 -0.3520067 -0.60013556
0000b0 8b 2c f0 bd 9f b9 aa 3d 68 ca 54 3d 9f 08 88 3d
       -0.11727246 0.08336186 0.051950842 0.06642269
0000c0 41 63 08 3e df 1e 87 3e b9 d5 aa 3d 52 ae d8 bd
       0.13319112 0.2639074 0.083415456 -0.10580124
0000d0 a5 07 29 be c9 fb 3c bd 0d 1b bd bd dc 37 01 3e
       -0.16506822 -0.04613856 -0.09233675 0.12618965
0000e0 ab c8 2f 3d 9d f1 c9 be e8 7b 43 3f 6d 0a 81 be
       0.04291598 -0.3944215 0.7636094 -0.25203267
0000f0 46 50 28 bf e2 e6 6e 3f 87 c3 82 be 3c 55 f3 bd
       -0.6574749 0.9332105 -0.255398 -0.118814915
000100 d7 84 4c 3e 22 41 40 bc 2b 09 52 bf b7 96 ac 3f
       0.1997255 -0.011734279 -0.8204524 1.3483495
000110 6a f9 fa be 85 43 85 bf 61 ef bc 3f 4f d4 e5 be
       -0.49018413 -1.041123 1.4760553 -0.4488854
000120 2c bc 0a bd be c4 3b bc 91 90 68 3d ff ec 58 be
       -0.03387086 -0.011460481 0.056778494 -0.21184157
000130 b9 cd ca 3e 53 9b 09 be 21 df 8c be 36 d6 e2 3e
       0.3961008 -0.13438158 -0.27513984 0.44304055
000140 50 03 13 be e3 eb af bc 09 29 c6 bb 46 ec 9d 3d
       -0.14356732 -0.021474784 -0.0060473722 0.07711081
000150 33 5d 6a 3d d6 05 51 3e 5c ae 9d be e2 90 41 3c
       0.057217788 0.20412382 -0.30797088 0.011814328
000160 f0 31 96 3e da 2f a9 be 71 8d 29 3a 4c 94 97 bc
       0.29334974 -0.3304432 0.0006467915 -0.01850333
000170 38 c5 e1 3d 6d ff 88 3d 4c 71 0c 3f 8e 3a 17 bf
       0.110239446 0.066893436 0.5486038 -0.5907372
000180 c8 ca 64 3d fe 90 26 3f 58 e8 2c bf 2b 0e 83 3c
       0.05585745 0.6506499 -0.6754203 0.015997967
000190 af 4d 42 3c 35 03 f8 3b 06 3c bb 3d 25 57 f2 3d
       0.0118593415 0.0075687417 0.09142308 0.11833028
0001a0 50 e6 18 be 3d 59 a1 3c f0 6e c4 3d 78 cd 34 be
       -0.14931607 0.019695872 0.09591472 -0.17656505
0001b0 65 64 99 bd 75 bc 48 bc 99 7f 3a bd d6 fc cf 3c
       -0.07489852 -0.012251963 -0.045531843 0.025389116
0001c0 08 ec 98 bc d6 c9 ba bd 5a 46 28 3e 82 06 92 bb
       -0.018667236 -0.091205284 0.16433087 -0.004456342
0001d0 c3 2c 67 be 99 66 60 3d f4 d1 45 3d 79 56 73 bd
       -0.22575669 0.054785345 0.04829593 -0.05940864
0001e0 87 ce f5 3d a7 44 15 be 03 11 8b be 15 07 2e 3e
       0.120022826 -0.1457697 -0.27161416 0.16994889
0001f0 13 45 07 be 7e 5c fd be e0 7c ae 3c 6e c8 ab bc
       -0.13209943 -0.49484628 0.02129978 -0.020969596
000200 71 07 1b be 8e 41 3b 3c 5e 61 b9 bd ca 0c 29 be
       -0.15139557 0.011429204 -0.090517744 -0.16508785
000210 ef 3f d5 bc 1d 29 de bd b2 6c 77 be 79 91 4b 3e
       -0.026031462 -0.108476855 -0.24162558 0.19879712
000220 03 02 38 3e d8 eb 37 be 1d 54 e7 3d 60 c9 1d 3f
       0.17969517 -0.17961061 0.1129534 0.616354
000230 09 4f 80 3e 72 f7 3f be a8 7d 0f 3f f7 b2 1f 3f
       0.250603 -0.18746737 0.5605111 0.62382454
000240 3b e7 db 3d cb 2b 7e bd b4 77 98 3d b1 4d e8 3c
       0.10737463 -0.062053483 0.074447066 0.028357359
000250 b7 00 42 be 72 1d b6 bd 50 d8 3e ba 6a d2 2d be
       -0.18945585 -0.08892335 -0.0007280158 -0.16974798
000260 bf 57 e1 bd ab a5 67 be 72 eb 0a be 6c 4a 16 3e
       -0.11003064 -0.22621791 -0.13566378 0.14676827
000270 7a 10 14 be 13 84 f5 be 6f a7 54 be 17 5b 64 3d
       -0.1445941 -0.47952327 -0.20766996 0.055750933
000280 d0 67 f2 be bc 7d 0e bf 84 36 31 3d e8 14 97 3c
       -0.47344828 -0.55660605 0.04326488 0.018442586
000290 e0 19 e8 3c 3f 3d 04 3f a6 fa 9b bd 0d a4 0c be
       0.02833265 0.51655954 -0.07616167 -0.13734455
0002a0 64 25 0a 3e 90 e9 99 bd cc 72 a8 bc 0f 6f 17 bd
       0.13490826 -0.07515252 -0.020562552 -0.036971148
0002b0 0a 5b 73 bc 8e dd 48 3c ef e8 73 3f a3 b1 47 be
       -0.014853248 0.012259854 0.95277303 -0.19501357
0002c0 5e 7c c5 be 8a e1 71 3e 85 89 51 be 0c ca 5f bd
       -0.38571447 0.23621193 -0.20462616 -0.054636046
0002d0 94 5a 07 3d e5 4e bf 3b 8c 0d 6c bb f3 d7 87 3e
       0.033045366 0.0058382624 -0.0036018817 0.26531944
0002e0 bb 6c 6e bc a6 8a 68 bd c9 8a 81 3c 7d 8d 55 bd
       -0.014552291 -0.05677285 0.015813248 -0.052136887
0002f0 39 1d 9a bc ea a3 7c 3c 70 01 2b bd 72 39 f3 bd
       -0.018812763 0.0154199395 -0.041749418 -0.11876191
000300 69 15 c1 bc fa cd 92 3d 75 2b 7e 3e 74 cb d4 bc
       -0.02356978 0.07168193 0.24821265 -0.02597592
000310 e3 e7 80 3d 2e 86 a7 3e bf e5 6c bd 42 df 40 be
       0.06294229 0.32719558 -0.05783629 -0.18835166
000320 74 26 68 be d9 43 06 bd 71 b7 78 3d 93 40 a3 3e
       -0.22670919 -0.03277955 0.06072182 0.31885204
000330 76 e2 ad bc 4e f5 2a 3e 5f 3a cc 3e 04 2f d1 bb
       -0.021226149 0.16695139 0.39888284 -0.0063837785
000340 cc 8f 92 3c 57 c6 1f 3d 6a b1 1c 3c bf 97 17 3e
       0.017890833 0.03900751 0.009563783 0.1480398
000350 44 af 9c 3e 22 31 22 3d 3f 08 2d 3e a6 3d b7 3e
       0.30602467 0.039597638 0.16897677 0.35789222
000360 51 92 8d 3d f9 7f 87 3d 2d 27 f4 bd b3 ab 1f be
       0.06912673 0.06616206 -0.11921535 -0.15592842
000370 a7 1f 33 3f 2e 70 00 bf 9c d8 29 3d dc b3 3e 3f
       0.6997017 -0.5017117 0.04146634 0.74493194
000380 72 24 28 bf fe 1d fc bc de 8d 32 3e 32 e7 53 be
       -0.6568061 -0.03077602 0.1743693 -0.20693663
000390 92 90 f8 bd 9d 12 8a 3f 4a f4 69 bf 4e 94 41 3c
       -0.121369496 1.078693 -0.9138838 0.011815144
0003a0 f2 76 85 3f 67 a3 78 bf 9f 07 80 3d 46 3b 68 3b
       1.0426924 -0.9712433 0.062514536 0.003543572
0003b0 dc 5d 04 bc 25 f6 d4 bd 1e 15 ce 3e d5 4d ad be
       -0.008079018 -0.10398511 0.40250486 -0.33848444
0003c0 c1 b8 ee 3b 74 12 cd 3e 7f b4 c9 be c0 f3 02 00
       0.007285208 0.4005314 -0.3939552 2.71112e-40
0003d0 6c ca 01 80 fc 80 02 00 9b 6c 03 00 3c 8b 00 80
       -1.64451e-40 2.29942e-40 3.14467e-40 -4.9948e-41
0003e0 9f 7f 02 80 19 f2 01 00 03 6d 00 00 40 3a 00 00
       -2.29453e-40 1.78684e-40 3.9106e-41 2.0896e-41
0003f0 85 69 00 00 1c 6f 02 00 0c ed 00 00 6c bd 03 00
       3.7853e-41 2.2353e-40 8.5036e-41 3.43458e-40

backbone.0.1.weight f4 [16]
000000 fb c9 01 80 b4 ef 18 3e 35 a7 17 3e 6e ce 8c 3e
       -1.64292e-40 0.1493519 0.14809878 0.27501243
000010 cc 7f 38 3e 9f aa 64 3e 3a 6b 89 3d 2d 90 94 3e
       0.180175 0.22330712 0.06709905 0.29016247
000020 31 0b ae 3d 70 b9 00 00 9c b5 bc 3e 3c 9a f5 3d
       0.08498228 6.6522e-41 0.36857307 0.119923085
000030 5c c6 8b 3e a8 56 a7 3e dd 73 01 80 c9 a6 94 3d
       0.27299774 0.326833 -1.334e-40 0.07258374

backbone.0.1.bias f4 [16]
000000 1f 04 01 80 24 b6 14 3f c0 f7 c3 3e ee 5e 80 3e
       -9.3314e-41 0.58090425 0.38274956 0.25072426
000010 a3 05 67 3f 82 d6 10 3f 24 12 06 3f d2 86 03 3f
       0.90242976 0.5657731 0.5237143 0.51377594
000020 10 e9 18 3f fc a7 00 00 30 e4 ad be 58 30 6f 3f
       0.59730625 6.0261e-41 -0.33963156 0.9343314
000030 2c c4 c4 3e ca c5 b1 be f2 8c 01 00 76 87 e1 3d
       0.38430917 -0.34721214 1.42397e-40 0.11012165

backbone.0.1.running_mean f4 [16]
000000 93 0b 4a 01 94 e2 32 42 7d 10 3a 42 b7 ef 5b 41
       3.7109845e-38 44.721268 46.5161 13.746024
000010 97 b2 36 c3 68 d6 8d c2 57 0d a7 42 e1 20 51 43
       -182.69762 -70.91876 83.526054 209.12843
000020 e2 81 cf 41 b8 66 16 00 f5 ba db c0 a2 7f 40 43
       25.93842 2.05723e-39 -6.866572 192.49857
000030 2a b7 97 c0 16 33 91 42 75 2b 74 80 51 e7 be c1
       -4.741109 72.59978 -1.0668507e-38 -23.862947

backbone.0.1.running_var f4 [16]
000000 04 00 00 00 e2 a4 1a 45 63 2c 1e 46 f3 98 e1 44
       6e-45 2474.3052 10123.097 1804.7797
000010 dc 63 69 46 b0 34 12 46 53 8b b9 45 e8 0c 99 46
       14936.965 9357.172 5937.4155 19590.453
000020 25 a7 cd 45 04 00 00 00 e1 bb 3c 45 dd 36 78 46
       6580.893 6e-45 3019.7424 15885.716
000030 05 4e 18 45 45 58 90 45 04 00 00 00 59 8f 90 44
       2436.8762 4619.0337 6e-45 1156.4796

backbone.1.conv.0.0.weight f4 [16, 1, 3, 3]
000000 13 26 03 80 13 bd 02 80 ef 44 05 00 b8 70 04 00
       -2.89165e-40 -2.51498e-40 4.83906e-40 4.07778e-40
000010 05 0b 00 00 7a 7e 01 00 0b 1c 00 00 48 a3 00 00
       3.953e-42 1.37207e-40 1.006e-41 5.8574e-41
000020 26 2e 03 80 60 f6 9b 3b 95 a3 69 bd 93 0e d4 3c
       -2.92061e-40 0.004759595 -0.05704077 0.025885856
000030 3a 44 a9 3a 97 9b eb bd 13 c5 39 3f 95 78 1b 3c
       0.001291401 -0.11504286 0.72566336 0.009489198
000040 7c c0 35 3d c5 23 56 bf 95 c3 00 bc 70 bd 1b bd
       0.04437302 -0.8364833 -0.00785913 -0.03802246
000050 d9 46 e3 bd 60 4f b9 bc 02 5e 8f 3d 9d f6 90 3f
       -0.110974975 -0.022620857 0.070003524 1.132526
000060 1d 57 97 bc 7b 95 52 bd a6 ab be bd 87 6e 5c bd
       -0.018474156 -0.051412087 -0.09310083 -0.053816345
000070 54 e9 e4 bc f4 83 b3 bd b4 6c 16 3d 21 07 45 3f
       -0.02794329 -0.087654024 0.03672476 0.76964
000080 e8 37 b1 be 56 29 28 bd e4 65 8d bd a5 35 34 be
       -0.34612966 -0.041055046 -0.069042 -0.17598589
000090 1c 17 16 3f 68 21 f8 3f 82 b7 f0 3e 4f fc 6a 3e
       0.5862901 1.9385195 0.47015005 0.2294781
0000a0 6e f5 e4 3e 71 48 4c 3e 5b c0 59 bf f9 8f 08 c0
       0.44718498 0.19949509 -0.85059136 -2.1337874
0000b0 29 f9 3d bf bd ed f6 bd dc ad 94 3d 89 7f 4d be
       -0.74208313 -0.12057064 0.072597235 -0.20068182
0000c0 36 1c 34 3e 5f 71 ba 3e 9a 56 da bf a0 8f 80 3d
       0.17588887 0.3641462 -1.7057679 0.06277394
0000d0 15 31 a3 3f 7d 02 ab 3e 03 79 46 bb 39 20 cb 3d
       1.2749354 0.33400336 -0.003028453 0.09918255
0000e0 de 0b 65 bd d1 e2 13 3d a0 98 06 3d 3b 83 4e bf
       -0.05591952 0.03610498 0.0328604 -0.8066899
0000f0 6f 0c 87 3c 98 9a 6a bc 61 f1 80 3f 31 66 01 bf
       0.016485421 -0.014319085 1.0073663 -0.50546557
000100 01 90 90 be ed d1 3c 3f f7 f9 19 c0 9b 00 b9 be
       -0.28234866 0.7375782 -2.4058816 -0.36133274
000110 9e e3 27 40 e2 b7 f1 be aa c6 25 be 41 d4 27 3f
       2.6232677 -0.47210604 -0.16189066 0.6555825
000120 45 6c 45 bc 51 f3 53 3d 31 6d de bd 14 65 55 3d
       -0.012049739 0.051745716 -0.1086067 0.05209835
000130 c9 54 85 bf f0 9a 26 3e e7 50 25 3d 5a e5 fd 3c
       -1.0416499 0.16270041 0.040360358 0.030993152
000140 b9 6c 82 bd 70 a0 00 00 d4 00 02 00 88 af 02 00
       -0.063683935 5.7554e-41 1.83968e-40 2.4664e-40
000150 50 cf 01 00 43 99 01 80 e2 41 02 80 7d 48 00 00
       1.66205e-40 -1.46815e-40 -2.07305e-40 2.6004e-41
000160 5d 9b 00 00 c5 d5 02 80 ed ae 8c 3d 1d d4 01 be
       5.5734e-41 -2.60357e-40 0.06869302 -0.12678571
000170 e7 d9 d8 be 8d 26 23 be 8d 94 36 3e 77 34 cf 3e
       -0.42353746 -0.15932675 0.17830105 0.40469715
000180 fc fd b7 be 57 72 a2 3e fd 9a f3 3e 47 3e 38 3e
       -0.35935962 0.3172786 0.47579184 0.17992507
000190 6e c4 ca 3f 2b 2e 7e 3f 79 9f ad 3d f0 c8 4e 3d
       1.5841196 0.99289197 0.084776826 0.050484598
0001a0 1c bc 06 be 90 07 a9 be ea 39 d0 bf 92 eb 7e bf
       -0.13157696 -0.33013582 -1.6267674 -0.995782
0001b0 6d d8 7c bc cf b0 48 3d 64 bb 00 bd 05 14 09 bd
       -0.015432459 0.048996743 -0.03142871 -0.033466358
0001c0 1b d8 3c bd fc 92 37 bf d5 4f a1 bc 9a 60 6e 3c
       -0.04610453 -0.71708655 -0.019691387 0.014549399
0001d0 bc 67 45 3f 5c 1d f5 bc f0 c1 41 3d 1d 8a 13 be
       0.7711141 -0.029921226 0.047304094 -0.14408155
0001e0 ca c5 5c 3d 6d 5c d9 3d cb d8 ce bd da b9 bd bd
       0.053899564 0.10613332 -0.10099944 -0.09263964
0001f0 59 76 9a bd 60 54 37 3f e0 ba 03 80 97 ed 00 80
       -0.07542104 0.7161312 -3.42545e-40 -8.5231e-41
000200 30 de 05 80 87 a9 03 00 3e fa 02 00 c3 36 01 00
       -5.38883e-40 3.36321e-40 2.73441e-40 1.1148e-40
000210 d6 ec 00 00 ea 15 00 00 d3 fc 00 80 6a 29 da 3d
       8.4961e-41 7.861e-42 -9.0696e-41 0.1065243
000220 42 e5 ca 3c e8 69 86 3c d3 31 cd 3d d9 76 a5 bc
       0.024767522 0.016407922 0.10019269 -0.020198273
000230 ab cc e8 bd 0d 64 a8 3c 7c 02 54 be 25 2a 6d be
       -0.11367162 0.02055552 -0.20704073 -0.23160608

backbone.1.conv.0.1.weight f4 [16]
000000 16 ed 01 00 dd 31 08 3f 3a 6c 2a 3f 5f 3c 07 3f
       1.76886e-40 0.53201085 0.6657139 0.52826494
000010 6d 44 96 3f 24 fd ef 3e 4d 5a 0f 3f 5d e9 52 3f
       1.1739632 0.46872818 0.55997163 0.82387334
000020 89 60 e5 3e e9 da 00 00 31 c6 81 3e 4c 28 84 3f
       0.44800213 7.853e-41 0.2534652 1.0324798
000030 6e 48 52 3f d9 14 8d 3e 5e 0b 03 00 12 e8 aa 3e
       0.8214177 0.27554968 2.79584e-40 0.3338018

backbone.1.conv.0.1.bias f4 [16]
000000 e1 3a 38 00 87 16 3c 3f 5f 62 b6 3f 95 46 b8 3e
       5.16391e-39 0.73471874 1.424877 0.3599135
000010 fd 79 33 3e bd c5 4f 3f 3c 86 2f 3f 96 eb 00 3f
       0.17527004 0.811611 0.685642 0.50359476
000020 d8 41 ea 3e da f7 de 00 f3 98 bb 3e 20 07 03 3e
       0.4575336 2.0476393e-38 0.36640128 0.12795687
000030 ff 13 65 3f 8f d9 a0 be b7 c5 76 00 14 20 7c 3e
       0.89483637 -0.31415984 1.0907515e-38 0.24621612

backbone.1.conv.0.1.running_mean f4 [16]
000000 04 00 00 00 ba 5d e8 bd 83 d7 a3 3e 73 87 35 3b
       6e-45 -0.11346002 0.3200036 0.0027699142
000010 2b 72 0c 3e 3f 26 27 3e 12 09 20 3e 4d c1 bd bd
       0.13715427 0.16323183 0.1562846 -0.09265385
000020 78 25 08 bf 04 00 00 80 86 51 3b 3c 94 28 40 be
       -0.5318217 -6e-45 0.011433011 -0.1876548
000030 5a 81 93 bc 06 75 88 3c 04 00 00 80 2b 76 11 bd
       -0.018006016 0.016657364 -6e-45 -0.035513084

backbone.1.conv.0.1.running_var f4 [16]
000000 04 00 00 00 c0 a7 8e 3c 35 c7 74 3c 09 3d 08 3d
       6e-45 0.017413974 0.014940073 0.033261333
000010 63 2b 6e 3e 73 79 4d 3d 99 a4 6f 3b 01 0a d8 3e
       0.23258738 0.05016465 0.0036566614 0.42195132
000020 9c 5b ee 3b 04 00 00 00 4c 16 b6 3b 88 10 11 3e
       0.0072741043 6e-45 0.005556857 0.14166462
000030 46 40 65 3d 73 c4 2b 3b 04 00 00 00 f2 4d 0d 3a
       0.0559695 0.0026209622 6e-45 0.0005390338

backbone.1.conv.1.weight f4 [8, 16, 1, 1]
000000 98 83 07 80 a5 55 3a be 75 d4 f4 bc aa 0e 39 3e
       -6.90055e-40 -0.18196733 -0.029886464 0.18072
000010 f6 ec 00 bd 1c 76 1f 3f 53 30 81 3e 6f 77 9e bd
       -0.031475984 0.62289596 0.2523218 -0.07737624
000020 21 98 89 bd dd de 00 00 37 f2 55 3d f5 20 8b 3e
       -0.067184694 7.9948e-41 0.052232947 0.27173582
000030 46 5f f5 3d aa d6 bf bd ad 8f 10 00 bd 41 4b be
       0.119810626 -0.09367116 1.520909e-39 -0.19849296
000040 0e 70 18 80 e7 a7 d9 bc 3e 7c 10 bf 4d 89 19 bc
       -2.24425e-39 -0.02656932 -0.5643958 -0.009371114
000050 31 c6 46 3e f5 38 be bb a7 b4 2f bd 38 e1 f7 3b
       0.19411542 -0.0058051297 -0.042896893 0.00756469
000060 aa ac 2d 3d d9 3e 11 80 e3 77 02 bd 95 b3 7f 3d
       0.042400993 -1.583749e-39 -0.031852614 0.062427122
000070 0b 4e 45 be 11 95 d2 3d 32 0b 2c 80 71 72 91 be
       -0.19268052 0.102823384 -4.044778e-39 -0.28407624
000080 bb ba 25 00 7e 20 f2 3e c9 fd 04 3e 25 90 dc 3e
       3.4649e-39 0.47290415 0.12987436 0.43078724
000090 eb 6c 36 be 26 8b 49 be df a0 71 be d0 5b c2 3d
       -0.17814986 -0.19681987 -0.23596524 0.09490168
0000a0 e7 ee 41 be 1f 44 0c 80 54 4c 27 be 36 15 b9 3e
       -0.1893879 -1.126463e-39 -0.1633771 0.36148995
0000b0 a5 e3 6f 3d 6f e2 20 be 6d eb 16 80 7e 7d a9 be
       0.058566708 -0.15711378 -2.104836e-39 -0.33103555
0000c0 5f 83 10 80 be 3c 5e be 74 4c 1a be 6d 15 a7 bd
       -1.516495e-39 -0.21702859 -0.15068227 -0.081583835
0000d0 3f e3 ec 3e 89 04 c2 be af 65 bc 3d 7c e0 bb bc
       0.46267125 -0.37894085 0.09199082 -0.02293419
0000e0 a7 c5 64 be f6 07 14 00 19 8e 9f 3d dc dc cf be
       -0.22341023 1.839566e-39 0.07790775 -0.4059819
0000f0 c3 15 c2 3e bf 34 9f 3e cf ec 05 80 6e 84 9b be
       0.37907228 0.3109493 -5.44128e-40 -0.30374473
000100 ed e9 0f 80 8c e0 c0 be 5b b7 8f 3e 93 18 24 3c
       -1.461449e-39 -0.37671316 0.28069577 0.010015625
000110 c0 dd e2 3d a3 8f 2a bf 5b 6f 24 3e 91 45 65 be
       0.11077452 -0.6662542 0.16058104 -0.22389819
000120 a7 f3 a6 3d 1b 77 0c 80 11 86 53 3e ec 4e 00 be
       0.08151942 -1.144753e-39 0.20656611 -0.12530106
000130 bf d3 59 be a6 2f 42 3d 73 e2 24 00 a7 72 f0 3b
       -0.21272181 0.047408722 3.387313e-39 0.0073378864
000140 63 05 0e 00 ae f8 a9 bd a3 ad 68 3c 30 c2 04 bf
       1.28763e-39 -0.08299385 0.0142015545 -0.51858807
000150 fa ec a7 be 51 02 3a be a0 38 66 3e 23 ce 0a 3f
       -0.32797986 -0.18164946 0.22482538 0.5422079
000160 bd c4 dc 3e 5b c5 00 80 a5 26 02 3e 32 d1 e8 3e
       0.4311885 -7.0798e-41 0.12710054 0.45472103
000170 d4 0c a9 3d 4a 05 82 3d 61 78 13 80 39 04 37 be
       0.082544 0.06348665 -1.788058e-39 -0.17872705
000180 e7 51 23 80 92 40 89 3e a8 a6 42 bd 96 8d d5 be
       -3.243623e-39 0.26807076 -0.047522217 -0.41709584
000190 c7 42 d9 be c3 6b be 3d 47 60 9b 3c b4 da 53 bf
       -0.4243376 0.09297898 0.018966807 -0.8275559
0001a0 02 8e b7 3d 4b 81 17 80 81 83 00 be 21 0f 6a 3e
       0.08962633 -2.158598e-39 -0.12550165 0.22857334
0001b0 52 af 00 be 7a 94 a0 3e 49 06 65 80 3b d9 18 be
       -0.1256688 0.3136328 -9.27764e-39 -0.14926617
0001c0 44 34 21 80 31 43 66 3c 7e 91 61 3e c6 2b 90 bc
       -3.049321e-39 0.014054106 0.22028157 -0.017598998
0001d0 43 e2 00 3f 40 ee 11 3f b8 3f 09 be 89 60 32 3e
       0.5034525 0.57004166 -0.13403213 0.17419638
0001e0 5a 81 41 bd fc 7e 12 80 25 21 22 3e 30 38 ef be
       -0.0472425 -1.698592e-39 0.15832956 -0.46722555
0001f0 2a ee 6f be 4b 5e 08 3d f9 17 22 00 68 e5 50 be
       -0.23430696 0.03329305 3.131007e-39 -0.20400012

backbone.1.conv.2.weight f4 [8]
000000 f0 8d 03 3f 89 3c f4 3e ba f8 35 3f db 2f 02 3f
       0.51388454 0.47702435 0.7108265 0.5085427
000010 83 3a 0b 3f 6d 56 1e 3f 27 4c 12 3f 25 78 02 3f
       0.54386157 0.61850625 0.5714745 0.50964576

backbone.1.conv.2.bias f4 [8]
000000 5f c3 dc b9 eb 91 7b 38 54 2b 6d b9 4c b9 6b b9
       -0.00042107233 5.997896e-05 -0.00022618222 -0.00022480375
000010 ca bf 62 39 85 7e cb 39 e5 75 ef b9 ed 09 7a b7
       0.00021624487 0.00038813442 -0.0004567347 -1.4903472e-05

backbone.1.conv.2.running_mean f4 [8]
000000 9f 4d 25 3f ac d0 84 bf da 4b 8f 3e 01 91 d1 be
       0.64571565 -1.0376182 0.27987558 -0.40930942
000010 d7 1f 07 bf 5e 79 c3 3e 78 b1 33 bf ab 5e 1c 3f
       -0.5278296 0.38178533 -0.7019267 0.6108195

backbone.1.conv.2.running_var f4 [8]
000000 76 97 dd 3d 84 c3 24 3e 09 26 6a 3e b2 cc 89 3e
       0.108199045 0.16090208 0.22866072 0.26913983
000010 27 a6 55 3e 9a 2a 9b 3e 1b 86 bd 3e e1 8a 50 3e
       0.20864163 0.3030594 0.37016377 0.20365478

backbone.2.conv.0.0.weight f4 [48, 8, 1, 1]
000000 34 2f 15 3e ec e5 5e bd bf 49 0d 3e af b2 92 be
       0.14568788 -0.05441849 0.13797663 -0.2865195
000010 a4 b2 35 be 86 28 cc 3d e3 22 4b 3e 91 90 90 3d
       -0.17743927 0.09968667 0.19837527 0.07058824
000020 e2 f5 f6 3d 21 04 a1 3d f5 01 b6 3d 9f b7 89 3d
       0.12058617 0.07862116 0.08887092 0.06724476
000030 b3 c4 ea bd 94 e0 b1 be 02 90 17 be ad f1 e1 bd
       -0.11463299 -0.34741652 -0.14801028 -0.11032424
000040 9c fd c9 bd b2 50 28 3d 93 90 75 be a4 76 ba 3d
       -0.09862825 0.041092582 -0.23980932 0.0910466
000050 63 d8 6f 3d 6d e8 d2 bd 51 58 41 be 6a dc 38 3e
       0.05855597 -0.10298238 -0.18881346 0.18052831
000060 15 58 d8 bd 7e 35 28 3e ae e2 3d 3e d6 1b 07 bf
       -0.10563675 0.16426656 0.18543503 -0.5277685
000070 bf ef 02 3d fc 3b 0c be b1 00 6c be fa 1d f3 be
       0.03196692 -0.13694757 -0.23047139 -0.47483808
000080 6d 60 8d 3d 3c f5 b0 bd 24 e4 1b 3e 21 bb 84 be
       0.069031574 -0.08640525 0.15223747 -0.25924018
000090 d0 0b e1 bd 83 da 18 3e a8 5f 9f 3d ec 26 3e be
       -0.10988581 0.14927106 0.07781917 -0.18569535
0000a0 0b d7 ae 3d 14 cf 77 bd 2e 88 1c 3e d8 ee fb bd
       0.0853711 -0.06050022 0.15286323 -0.12301415
0000b0 cc 08 8d bd 61 98 3a 3c d7 f7 6b 3e b1 3b f3 bd
       -0.068864435 0.011388869 0.23043762 -0.118766196
0000c0 6e 73 60 3c 7b cf df 3d 46 f8 1d 3e 9e a7 00 3e
       0.013699396 0.10928246 0.1542674 0.12563941
0000d0 05 66 7a bd 31 e9 b5 be 65 85 26 be d6 6b 10 bd
       -0.06113245 -0.35529473 -0.16261823 -0.03525909
0000e0 bf 80 bd 3c 00 4e 41 3e f1 41 9d 3d 2f 23 5f ba
       0.02313268 0.18877411 0.07678593 -0.00085120177
0000f0 2c ba 68 3d 1f ab a9 3d 8b 6c 88 bd 6b 55 2d 3e
       0.056818172 0.08284592 -0.06661328 0.16927116
000100 b6 49 3e bd 72 a0 0f bd b9 1c f3 3e cf ad eb 3b
       -0.046457015 -0.035065122 0.4748285 0.0071923505
000110 24 5e ff bd a4 ec a9 bc 9e 6a e2 bd eb 77 3f 3c
       -0.12469128 -0.020742722 -0.11055492 0.0116863055
000120 ef 3e 68 bd 37 80 c3 3e ba a9 ac bc 5a c6 06 3e
       -0.056700643 0.38183758 -0.021077026 0.13161603
000130 5c c0 ff bd 61 e3 37 bc 19 60 36 3d 4a 46 1f bd
       -0.124878615 -0.011223645 0.04452524 -0.038885392
000140 9b 9b 7a bd 8e 89 0b be c4 5f 3a 3b ad f0 d3 be
       -0.061183553 -0.13626692 0.0028438428 -0.4139456
000150 49 ab af 3d 61 e4 85 3c b7 ce 8e bd 1a f6 5d 3d
       0.08577592 0.016344251 -0.069730215 0.05418978
000160 80 9f a1 bd 03 04 f6 3c 36 17 91 be 55 f9 94 3e
       -0.0789175 0.03003121 -0.2833802 0.29096475
000170 d4 bb ca 3c bc f2 1b be 3d c5 da bd b9 3b 4c 3e
       0.024747767 -0.15229315 -0.106821515 0.19944657
000180 c9 a4 12 3e 21 81 0e 3e 0f c7 12 be 29 b1 b5 3d
       0.14320673 0.13916446 -0.14333747 0.08871681
000190 2b fc 15 3d c4 b7 eb 3d 1e 47 50 bd f1 60 59 3c
       0.03661744 0.1150966 -0.050849073 0.013267742
0001a0 33 17 7c 3e ea f1 44 be 27 a5 54 bd 13 7b b1 bd
       0.24618225 -0.19232908 -0.051915314 -0.08666053
0001b0 bc 53 47 be 38 b4 be 3d 9f ac 12 3e e5 f8 45 3e
       -0.19465536 0.09311718 0.14323662 0.19333227
0001c0 6d 5b 93 bd ef 9a 1c be f7 9a de 3d 4b 84 b5 3e
       -0.071951725 -0.15293477 0.10869401 0.35452494
0001d0 53 c7 86 3c 97 3f f9 3d 08 f0 07 bd e7 ae ca be
       0.016452467 0.12170332 -0.033187896 -0.39586565
0001e0 13 14 96 3a a4 97 02 3e bb 30 4d 3e da a3 45 3e
       0.0011450074 0.12753159 0.2003812 0.19300786
0001f0 87 6a 98 be 18 06 45 be ab 2e 37 3c 0d 72 13 be
       -0.29768774 -0.19240606 0.01118056 -0.14398976
000200 1e 36 a0 3e 4f 72 1f 3e 98 a8 23 3e e6 c4 36 3e
       0.31291288 0.15570949 0.15982282 0.17848548
000210 af 90 2b 3e 82 6e d3 3d 3d 2a 02 3e 5c 13 4c 3d
       0.16754411 0.10323812 0.12711425 0.04982315
000220 6d e4 e1 3c 3e 78 65 3d 5b 02 d5 3c 44 a8 92 be
       0.027574742 0.056022875 0.0260021 -0.28644
000230 c0 5e 2e be 2e 28 12 3e 9c 0b db 3b 8b 51 b8 bc
       -0.17028332 0.1427314 0.0066847336 -0.02249982
000240 e7 89 66 be fa 9c ff 3d 51 4b 17 be a1 bf ee 3d
       -0.22513543 0.12481113 -0.14774825 0.11657644
000250 1e 5f 45 be 20 3e 0d be 39 78 5b be f4 c5 65 3e
       -0.19274566 -0.1379323 -0.2143258 0.22438794
000260 a0 30 87 bd f4 3d db 3d 6a 93 73 be 74 ee 9b 3e
       -0.06601071 0.10705176 -0.23786703 0.30455363
000270 be de 05 3e 36 fb 4d be b6 b4 43 be b3 86 de 3e
       0.1307325 -0.2011536 -0.19111905 0.43462142
000280 c3 4a b8 3d d9 bb 3d 3e 9e 4a 3f 3e b3 72 85 3e
       0.08998635 0.1852869 0.18680808 0.2606407
000290 45 cb 80 3a c7 bf 5c 3d 4d f0 ff 3d f6 3e e7 3d
       0.0009826204 0.05389383 0.124970056 0.11291306
0002a0 86 11 aa 3d 00 04 0c bd a0 4d 9f 3d 7e 02 ab be
       0.083041236 -0.034183502 0.07778478 -0.3340034
0002b0 5e af 1f 3e 5b cc 7d bd 5a bc bc be b3 99 c8 bd
       0.15594241 -0.061962467 -0.3686245 -0.09794941
0002c0 4f 1b 51 3d 03 71 e9 3d 6c 82 08 3d 12 42 9f 3d
       0.051051434 0.113985084 0.033327505 0.07776274
0002d0 5e 79 22 be 67 5c c5 bc fe 33 89 3c b1 d1 f1 bd
       -0.1586661 -0.024091912 0.016748425 -0.118075736
0002e0 1c b4 8a 3e bb 7a 75 3c d0 55 c4 3d 00 91 40 3d
       0.27090538 0.0149828745 0.0958668 0.047013283
0002f0 3a fd b7 3d a3 78 bd 3a b1 e1 6b bd 0d 0f f6 3c
       0.08983846 0.0014455508 -0.057588283 0.030036474
000300 f1 0d cc bd 3a d3 99 bd e8 44 b7 3d 1d cb 49 3e
       -0.099635966 -0.075109914 0.0894869 0.19706388
000310 a3 09 38 be 97 8b 81 bd 5c 9e 2a 3d 9f 2a 9f bd
       -0.17972426 -0.06325453 0.04165493 -0.07771801
000320 1d 9b fb bc 5c cb b0 be 57 e5 4b 3e d0 d7 17 3d
       -0.030713612 -0.3453015 0.19911705 0.03707105
000330 5a 6e 23 3e 3f 3b 0e be 0c c5 f5 bd 2d a1 a1 3e
       0.15960065 -0.13889788 -0.12000474 0.3156828
000340 4b 73 11 be 80 61 37 ba c5 f0 82 3e 96 a3 91 3c
       -0.14204137 -0.00069954246 0.25574318 0.0177782
000350 59 43 c7 bd a4 a5 85 3d 34 f8 53 3e 91 3c ef 3d
       -0.097296424 0.06525734 0.2070015 0.11681474
000360 57 b4 99 be 36 aa 0c 38 e2 b8 ef bd 81 b8 4e 3e
       -0.300204 3.3537122e-05 -0.117051855 0.2018757
000370 f2 18 4b bb 9c 9b ea 3c 4c 4e ad 3e d4 a7 03 3e
       -0.003099021 0.028638653 0.33848798 0.1285699
000380 5b 96 bd 3e 3b 2d ce 3c d9 c5 4f be 0d 34 56 bd
       0.37028775 0.025168052 -0.20290317 -0.052295733
000390 12 d9 c4 bc f5 b6 7f be 0d 50 85 bb 74 1c 1d 3e
       -0.024029288 -0.24972136 -0.0040683807 0.15342885
0003a0 5d 88 2e 3d 81 49 79 3b 59 0c 3f 3e 5d ad 46 3e
       0.042610515 0.0038038197 0.18657054 0.1940207
0003b0 b7 c8 1c 3d a8 41 02 3e 9f cd a9 3a 9e 91 82 3c
       0.038277354 0.12720358 0.0012954957 0.015938576
0003c0 30 f7 68 be 08 f5 bc bd d0 4c 9d be 86 80 98 bd
       -0.22750545 -0.092264235 -0.30722666 -0.07446389
0003d0 47 a8 32 be c0 73 f3 3e a4 b9 8e 3d 4d 01 cf 3d
       -0.17447005 0.47549248 0.06969002 0.1010767
0003e0 67 0d 29 3e 8b 50 b2 bc 43 7c d0 3c e2 d6 47 be
       0.16509019 -0.021766922 0.025449878 -0.19515565
0003f0 2f 36 9c be 41 a3 58 3c 3f e1 91 3c c1 ac 87 3e
       -0.3051009 0.0132225165 0.017807601 0.26498988

backbone.2.conv.0.1.weight f4 [48]
000000 ae b3 d9 3e 5e 2a b1 3e 4a 9a 04 3e 91 8e f9 3d
       0.42519897 0.34602636 0.12949482 0.121853955
000010 5f 0c ff 3d 73 ee b9 3d 37 48 9c 3e 61 49 0d 3e
       0.124535315 0.09078684 0.30523846 0.13797523
000020 ab 75 c5 3e 12 42 32 3e 0f 1a 7d 3e 31 3a c0 3e
       0.38566336 0.17408016 0.24716972 0.37544397
000030 37 6d 8b 3d 19 a5 f0 3d c9 85 49 3e 72 a7 d3 3e
       0.068079405 0.1175024 0.19679941 0.41338688
000040 d2 ab 33 3e 3d 35 45 3e 32 fd bb 3e cb ae 86 3e
       0.17546013 0.1925859 0.3671661 0.2630523
000050 d2 0b 43 3e 33 7c e5 3d 22 e0 a0 3d c7 fc 02 3e
       0.19047478 0.1120533 0.0785525 0.1279174
000060 cc 38 3f 3e 3d 11 e0 3d ed 67 30 3e 09 72 7c 3e
       0.1867401 0.10940788 0.17227145 0.24652876
000070 e5 af cf 3d 3d 75 3a 3d a0 a5 e4 3e d2 c3 a4 3d
       0.10140971 0.045521963 0.44657612 0.08045162
000080 d6 2d 57 3e b8 91 b9 3e e2 7e a9 3e 0f 64 7a 3e
       0.21013579 0.36243987 0.33104616 0.24452232
000090 d5 7c b2 3e 84 04 b5 3e 3e 18 da 3d f6 78 bf 3e
       0.34860864 0.35355008 0.10649155 0.37396973
0000a0 9c 0d e4 3e 36 21 45 3e e6 48 ee 3d ac 95 2f 3e
       0.44541633 0.1925095 0.11634998 0.17146939
0000b0 3f ac 56 3e a9 f4 b7 3e c2 ff 9a 3e 3a 5a 39 3e
       0.20964144 0.35928848 0.30273253 0.18100825

backbone.2.conv.0.1.bias f4 [48]
000000 eb d4 38 bd 9a 2f bd bc 0b 14 72 3e 62 af da 3e
       -0.04512493 -0.023093987 0.23640458 0.4271193
000010 81 57 9b 3e 7d e2 86 3e 6e 4a 7d 3d f0 2d d7 3c
       0.30340198 0.26344672 0.06183856 0.026267022
000020 82 45 a8 bd a4 3b ed 3d c9 f3 be bb b9 c7 8c 3d
       -0.082163826 0.11583641 -0.0058274013 0.068740316
000030 dc a7 57 3e 01 4d 53 3e 5d d6 16 3e 94 39 0a bd
       0.21060127 0.20634843 0.1473021 -0.033746317
000040 f8 db 8d bd 55 3e 4d 3e 44 db 51 3d c5 48 9a 3e
       -0.06926721 0.20043309 0.0512345 0.30133644
000050 ec c4 b4 3e a8 7c 29 3e 14 78 94 3e b4 65 79 3e
       0.3530649 0.16551459 0.28997862 0.24355203
000060 e3 7d e8 3d f1 1a 40 3d 7c 14 de 3d 11 cd b9 be
       0.11352136 0.046900693 0.10843751 -0.36289266
000070 5d 25 90 3e 0d 64 95 3e b0 3c fd ba b9 a2 6c 3e
       0.28153506 0.29177895 -0.0019320454 0.23108949
000080 99 41 c3 3d 8a 09 3c 3c a0 90 5b 3d 43 95 08 3e
       0.09533996 0.011476884 0.053604722 0.13338189
000090 54 8d 41 bc 27 d4 ba 3d 79 14 86 3e 07 89 83 3d
       -0.01181348 0.09122496 0.26187494 0.0642262
0000a0 79 85 16 3d 58 5c 02 3e bc 8a 92 3e 05 2f 22 3e
       0.036748383 0.12730539 0.2862147 0.15838249
0000b0 2b 06 f1 3d f0 28 11 bc 98 fb 63 3e 78 ae 0e 3e
       0.117687546 -0.008859858 0.22263944 0.13933742

backbone.2.conv.0.1.running_mean f4 [48]
000000 9a 23 5e b7 98 4d 5d 38 67 e1 28 38 7e 9c 96 b8
       -1.324052e-05 5.276277e-05 4.0264244e-05 -7.181706e-05
000010 51 43 5b b8 19 a0 1a b7 73 3c 07 38 17 18 90 b7
       -5.2276362e-05 -9.216391e-06 3.2242806e-05 -1.7177355e-05
000020 07 58 ba b8 2a d5 2d 38 8c 65 51 b8 23 87 a0 38
       -8.8855675e-05 4.144494e-05 -4.9924056e-05 7.654566e-05
000030 8d 35 01 38 67 40 0c 38 24 8a 54 b8 64 c7 f8 37
       3.080587e-05 3.343858e-05 -5.0673392e-05 2.9656752e-05
000040 d2 78 28 37 f9 a8 cb b7 a6 a6 1d 38 c5 45 9d 38
       1.0041711e-05 -2.427817e-05 3.758692e-05 7.499339e-05
000050 fd dc df 36 df 2d 6f b8 67 4e c7 37 22 fd ce 36
       6.6716443e-06 -5.702476e-05 2.3759158e-05 6.168747e-06
000060 f3 af e9 35 23 b0 52 b8 94 e2 39 b8 52 9b d0 37
       1.7411061e-06 -5.023194e-05 -4.4318454e-05 2.4867859e-05
000070 f2 b0 f9 38 8e fa 27 b8 a3 54 11 b8 5b 6a e4 37
       0.00011906204 -4.004925e-05 -3.4649518e-05 2.7229244e-05
000080 39 46 dd 37 b4 76 2c b7 44 6b fe b7 3f 55 9c 38
       2.6377953e-05 -1.0279637e-05 -3.0329109e-05 7.454538e-05
000090 da 30 9e 38 0d 3d ed 38 a5 15 34 b7 c1 31 f9 b8
       7.5431264e-05 0.00011312412 -1.0733876e-05 -0.000118825126
0000a0 b8 f2 94 37 05 5e 7e b8 5b fa 5a b8 5d 34 9a 37
       1.7756e-05 -6.064588e-05 -5.2208412e-05 1.8382614e-05
0000b0 e3 25 a5 38 f2 38 93 b7 33 b1 c1 38 0a 3b 75 b8
       7.87487e-05 -1.7550283e-05 9.235963e-05 -5.8467536e-05

backbone.2.conv.0.1.running_var f4 [48]
000000 00 83 e7 3d cd ac 9d 3d 74 a4 cb 3d 3a 02 15 3e
       0.11304283 0.07698975 0.09943476 0.1455163
000010 8b 57 d8 3d a6 ec 97 3d d2 1c a5 3d 55 5c 9b 3c
       0.105635725 0.07418184 0.08062138 0.018964926
000020 97 df 06 3e c2 37 4d 3d 5c 50 52 3d c4 d6 1c 3e
       0.1317123 0.050102003 0.051346168 0.15316302
000030 a0 7a d7 3c 34 e9 7f 3d c9 a9 a7 3d c2 3f ca 3d
       0.02630359 0.06247826 0.08186681 0.09875442
000040 03 95 02 3d 6b 95 81 3d e0 da b1 3d 48 95 83 3e
       0.03188039 0.06327327 0.08684325 0.2569983
000050 e5 c5 ed 3c 0e a8 38 3d f3 c3 c8 3c 60 8a a4 3c
       0.029025028 0.045082144 0.024507498 0.020085514
000060 1d 61 a2 3c 58 07 b1 3d 9f 36 25 3d 26 5e 86 3d
       0.019821698 0.08643979 0.040335294 0.06560926
000070 ae 66 ce 3d 5b 32 91 3c 9c 56 2e 3e f3 de b8 3d
       0.10078178 0.017724207 0.17025226 0.09026899
000080 d7 1a 77 3d 56 df 91 3d 02 f7 c2 3d a6 b0 c3 3d
       0.06032833 0.07122676 0.09519769 0.095551774
000090 78 a7 fb 3d f7 89 1e 3e e1 8d e6 3c be 12 10 3e
       0.122878015 0.15482317 0.028143825 0.1406965
0000a0 76 6b eb 3c 04 0f bd 3d 5c 7f 3c 3d 0c 1d b4 3d
       0.028737765 0.0923138 0.046019897 0.08794603
0000b0 ef 65 c3 3d 6c 03 42 3e fe b1 04 3e 4e 2d d7 3d
       0.09540927 0.18946618 0.12958524 0.10506688

backbone.2.conv.1.0.weight f4 [48, 1, 3, 3]
000000 36 df ae bc 98 32 10 be 70 71 0c be a4 89 9c bd
       -0.02134667 -0.140818 -0.13715148 -0.0764344
000010 af dc 36 be 0a f7 f3 bd 8e a9 c1 b9 3a aa 0c be
       -0.17857622 -0.11912353 -0.00036938157 -0.13736811
000020 30 65 ce bd cf 5c c5 bd ca cb 63 bd b4 f9 14 bd
       -0.10077894 -0.096368425 -0.05561427 -0.036370948
000030 fd 8e 08 be d0 82 1a be 6a f5 a1 bd 4a 58 b6 bd
       -0.13335796 -0.15088964 -0.07908137 -0.089035586
000040 10 f7 1f be 91 41 d1 bd d3 47 0b be e7 2f a7 bd
       -0.1562159 -0.10217584 -0.13601618 -0.081634335
000050 73 c4 06 bd 6a 72 4a 3e 0c c9 c8 3e db 13 5f 3e
       -0.032902192 0.19770208 0.39215887 0.21784918
000060 6f a0 94 bd 6a d9 f7 bd 8d 9f 97 be c2 aa 0d 3e
       -0.07257163 -0.12102015 -0.29613915 0.1383467
000070 49 18 71 3e 25 ba 2c 3d 7c 12 5d 3e ac 4b f3 3e
       0.2354442 0.04216971 0.21589082 0.4751867
000080 52 05 6b 3d ec c7 93 3d c2 6c 26 3e 13 10 c1 bb
       0.05737812 0.072158664 0.16252425 -0.005891809
000090 98 6a 0b be 33 8f 9e be 11 8d 4d be fa 44 65 bd
       -0.13614881 -0.30968627 -0.20073344 -0.055973984
0000a0 b7 c6 b0 bd b8 dc 04 bb 34 b3 f5 3d 79 26 9d 3e
       -0.08631652 -0.002027316 0.11997071 0.30693415
0000b0 a7 5e 36 3e b1 e6 96 3d 09 24 7e 3e 86 a5 29 3e
       0.17809545 0.0736822 0.24818434 0.16567048
0000c0 f4 c2 39 bd 1b b0 b9 bd 84 55 db 3b 1c e3 c5 bd
       -0.045351937 -0.090667926 0.006693544 -0.09662458
0000d0 6a 78 73 be bf 52 71 be 67 18 88 3c 89 80 9d bd
       -0.23776403 -0.23566721 0.016613198 -0.07690532
0000e0 25 49 e1 bd 69 5c 62 3d 0c 60 48 be 92 72 94 be
       -0.11000279 0.05526391 -0.19567889 -0.2899366
0000f0 46 a1 e9 3c 5d 8b da bd 6c 63 7e be 2d c3 4f be
       0.028519284 -0.10671113 -0.24842614 -0.20289297
000100 4a fe fb 3c ac 31 ca bd 98 53 37 be 55 ee d7 3d
       0.030760903 -0.098727554 -0.17902982 0.10543505
000110 17 f2 0f be e6 10 60 be 26 93 7f 3d e8 4a 07 be
       -0.14057194 -0.21881446 0.06239619 -0.13212168
000120 b5 48 64 bc 49 9c e6 3d 50 ce 87 3d 26 58 d3 3d
       -0.01393335 0.11260278 0.06631148 0.10319547
000130 5d 7b 86 3e a4 b9 24 3e 89 0a 18 3e 66 85 93 3e
       0.26265994 0.16086441 0.14847769 0.28812712
000140 34 fe 12 3e 33 61 1b be 0b d3 69 3e d2 bd 8d bd
       0.14354783 -0.15173797 0.22834413 -0.06920971
000150 74 78 08 3d 4b 48 0d 3e e2 a8 57 bd d5 90 95 3d
       0.033317998 0.13797109 -0.052651294 0.07303015
000160 45 bd c1 be dc 9f 2b 3d 18 ae cb 3d df 4a 26 3d
       -0.37839714 0.0419005 0.09945315 0.040598746
000170 df f0 73 3d d6 63 ae 3d 59 cc 0b 3e e0 5d 8a 3d
       0.059555884 0.08515136 0.13652171 0.067561865
000180 c0 59 b1 3d ca 60 0b 3e be c6 e4 3d 61 60 33 be
       0.086596966 0.13611141 0.111707196 -0.17517234
000190 77 45 53 be 00 60 de bd 7e 2e 28 be b1 c6 2e be
       -0.20631967 -0.10858154 -0.16423985 -0.17067982
0001a0 8e 7d bb bd db cc f8 bc 74 ab 4a bd 18 ef 85 bd
       -0.09154807 -0.03037112 -0.049479917 -0.06539744
0001b0 9e 21 7e bd 1d a4 e9 3d 65 fe 2b 3d e0 33 2b 3e
       -0.06204378 0.11408255 0.041990656 0.16719007
0001c0 1c e4 bc be 31 00 43 bc 71 c3 db bd 6e 4a 88 3e
       -0.36892784 -0.011901901 -0.10730637 0.26619285
0001d0 17 c2 b7 bc 16 48 dd bd 62 18 89 3d b7 d3 c6 3b
       -0.022431416 -0.10804765 0.06694104 0.006067719
0001e0 21 92 90 be 88 27 a3 3e e1 5b 4d bd 64 5d 42 3c
       -0.28236488 0.31866097 -0.05013645 0.011863086
0001f0 82 69 44 3e f6 41 3a be 63 d3 67 bd 51 39 7f bd
       0.19180873 -0.18189225 -0.05659808 -0.06231052
000200 cf e5 a8 bb e9 4a 12 3e f2 da ae 3e 87 b2 13 3e
       -0.0051543484 0.14286388 0.34151417 0.14423572
000210 2a 65 86 bd a1 bf 97 be d8 29 11 be 68 3b d2 bd
       -0.06562264 -0.2963839 -0.14176118 -0.10265237
000220 6b 19 29 bd 63 f4 ce 3d 33 db 38 be 93 12 71 be
       -0.041284006 0.10105207 -0.18052368 -0.23542242
000230 48 bf fa bc 9d fc 3b bd 09 c6 81 be da 46 b8 bc
       -0.030608788 -0.045895208 -0.253464 -0.022494722
000240 de a9 10 bd b4 45 08 bd 42 d5 b6 3d 4c bd b0 bc
       -0.035318248 -0.0332696 0.089273944 -0.021574639
000250 f8 b7 c3 3d 03 e0 28 3e ae 42 15 3e 34 0c 3c 3e
       0.09556574 0.16491704 0.14576218 0.1836403
000260 37 8a 47 3e ec 74 48 3d b9 cb df 3d 5e 7c 2c bb
       0.19486319 0.04893963 0.10927529 -0.0026319246
000270 3f 2f 29 3e ea 17 78 3e 2b 4e 68 3d b6 e8 a1 3d
       0.16521929 0.24227872 0.05671517 0.07905714
000280 49 be 2e 3e 13 c6 46 3d 5b d3 97 bd 89 cb 74 bd
       0.17064776 0.048528742 -0.0741336 -0.05976442
000290 c7 79 b7 3d 94 55 3b bd 14 71 ab be 94 90 5a bd
       0.08958774 -0.04573591 -0.3348471 -0.053360537
0002a0 37 25 8c 3d 82 4e 3a be ba 2f 2f bd d8 ac c3 bc
       0.06843036 -0.18194011 -0.042770125 -0.02388613
0002b0 47 1a d1 bd 3e f8 28 bd 74 96 4d bd e8 cc 80 be
       -0.1021009 -0.041252367 -0.05019231 -0.2515633
0002c0 f4 5b 72 be fc 37 7d 3d d8 b0 21 be 3c 70 59 be
       -0.2366789 0.06182097 -0.15790117 -0.2123422
0002d0 3f 43 bb 3d e4 67 02 3e 70 7a 96 3c 29 f5 29 3e
       0.091436855 0.12734944 0.01836893 0.16597427
0002e0 f8 19 c1 3e 58 2a 47 bc 21 f1 09 3e 66 56 75 3e
       0.37715125 -0.012156092 0.1347089 0.2395874
0002f0 e1 b5 7a bd 78 29 eb bd a2 4b 70 bd f5 ab d4 3d
       -0.06120861 -0.11482519 -0.05866588 0.10384361
000300 15 20 1b be 14 73 59 be c5 18 85 3e ea 98 c9 bd
       -0.15148957 -0.21235305 0.2599546 -0.09843619
000310 45 1c 75 be f4 7d 63 3d 03 ac 74 3d 52 48 81 be
       -0.23936565 0.05554004 0.059734356 -0.2525049
000320 ff 96 79 3d 3a 72 60 be f3 d3 f7 3e 71 0b b2 bd
       0.060935017 -0.21918574 0.48403892 -0.086935885
000330 23 07 1a 3e 1d 4b 30 be 4f 69 f0 3c b1 43 9a bc
       0.15041785 -0.17216153 0.02934709 -0.018831106
000340 d7 f4 80 3d 67 bf 54 bd cb 6d 88 3d 24 5c ef be
       0.062966995 -0.051940348 0.06661566 -0.46749985
000350 15 93 98 3e 3f cd ce bc 1b 0a b9 3e 96 6d 8f be
       0.29799715 -0.025244353 0.36140522 -0.28013295
000360 aa 5b e0 bc b3 06 17 bc 9e 29 14 3e f8 59 8f bd
       -0.027387459 -0.009217906 0.14469 -0.06999582
000370 37 f0 6f be e0 51 8a be 2f da f4 3d 4f c6 92 3e
       -0.23431478 -0.2701559 0.11955678 0.28666922
000380 0f 0f c5 3d f4 90 69 3b e1 1a e2 3d 0b df b4 3d
       0.09622013 0.0035639377 0.11040283 0.088316046
000390 82 94 50 3d 42 65 aa 3e 97 82 4c 3e 1c 48 c5 3d
       0.050922878 0.3328038 0.19971691 0.096328944
0003a0 3d 8b 6c 3e be 5d f2 3d 4b 39 84 bc 64 aa 22 be
       0.2309999 0.11834286 -0.0161406 -0.15885311
0003b0 71 09 c4 bd 97 6e d7 3d 18 c2 93 3e e5 b2 fa 3d
       -0.09572113 0.1051914 0.2885902 0.12241153
0003c0 72 15 f1 bd 74 42 32 be 66 c4 08 bd 16 ff 76 3d
       -0.117716685 -0.17408162 -0.033390425 0.060301863
0003d0 7a 94 10 3e b9 1a 09 3e 88 82 80 3d 8b d9 70 3e
       0.1411914 0.133891 0.06274897 0.23520486
0003e0 54 2e af 3d 91 97 49 bd b0 4d bd 3d 4b 4b 35 bd
       0.08553758 -0.04921681 0.09243333 -0.044261258
0003f0 3c ab a5 3d af 78 43 3e 23 52 d2 3d ce 24 a2 3d
       0.08089301 0.19089006 0.102695726 0.07917176

backbone.2.conv.1.1.weight f4 [48]
000000 f0 9e 11 3f 1f cc a2 3e ea cb ad 3e 5a cd 61 3e
       0.56883144 0.31796357 0.33944637 0.22050992
000010 2f 1f b8 3e c1 4c ba 3e d9 ac 2c 3e 81 ba 91 3e
       0.3596129 0.36386684 0.16862811 0.28462604
000020 a8 1b 4d 3e e0 93 95 3e 22 af 19 3e 8c 06 03 3f
       0.20030081 0.29214382 0.15008214 0.51181865
000030 fe 20 8e 3e 93 39 86 3e 30 39 bf 3e 77 84 c2 3e
       0.27759546 0.262158 0.37348318 0.37991688
000040 95 63 98 3e 65 1e 81 3e c6 82 0b 3f 50 73 10 3f
       0.29763475 0.25218502 0.5449642 0.5642595
000050 66 94 81 3e 38 b4 46 3e b8 9d a5 3e 88 c8 ba 3e
       0.25308532 0.19404685 0.32346892 0.36481118
000060 33 bb b5 3e 0b 6a 51 3e 01 e6 ad 3e c3 91 4e 3e
       0.35494384 0.20450608 0.33964542 0.20172791
000070 34 87 7f 3e 60 8e 81 3e c0 64 fd 3e 1a a1 5a 3e
       0.2495392 0.25303936 0.4949093 0.21350518
000080 be d0 a0 3e dd 87 5b 3e d3 52 68 3e e1 3f bb 3e
       0.31409258 0.21438546 0.22687845 0.36572173
000090 5e 4b 48 3e b6 45 ca 3e e5 50 b1 3e 37 71 ae 3e
       0.1956 0.3950631 0.3463203 0.3407075
0000a0 91 e2 e2 3e 99 67 8a 3e 4d a4 ba 3e 64 88 ba 3e
       0.4431348 0.27032164 0.36453477 0.36432183
0000b0 21 a2 b4 3e cf 1f 3b 3e b2 ed a2 3e 45 7d 96 3e
       0.35279945 0.18273853 0.31821972 0.29392448

backbone.2.conv.1.1.bias f4 [48]
000000 be 2d a7 bc 33 1c dd 3c 2f ee 1e 3c ae c3 30 3f
       -0.020407554 0.026990985 0.009700342 0.69048584
000010 38 4c c9 3c 14 d6 60 3c 21 34 34 3f 65 cd e2 be
       0.024572477 0.013722915 0.7039204 -0.4429733
000020 4a e9 1a 3e 3a 04 ad bc 13 53 8b 3d 13 b0 0d 3e
       0.15128055 -0.02112018 0.068029545 0.13836698
000030 a3 4c 02 bd eb e6 07 ba 68 36 69 bc 12 65 22 3d
       -0.031811368 -0.0005184251 -0.014234163 0.03964717
000040 4f 1a b1 3d f4 bf 19 bd fb 51 93 3d c2 d5 dd bc
       0.08647596 -0.037536576 0.07193371 -0.027079467
000050 53 f6 10 3f 9e 5e 1a bd 6f 51 db bc f4 bb 0a bd
       0.5662586 -0.03768789 -0.026772229 -0.033870652
000060 42 a0 a2 3b f2 02 bb bc 6c b9 8f bc 39 f1 8e 3c
       0.004962952 -0.022828553 -0.01754447 0.017449008
000070 a0 eb 69 3e c5 28 56 bd 85 2e cd bc 6b 7a 92 3b
       0.2284379 -0.052284975 -0.025046596 0.0044701598
000080 1f 39 a0 bb 21 bd 25 3f b1 34 37 3f c1 fc 2a bd
       -0.004889622 0.6474171 0.71564776 -0.04174495
000090 1b a5 09 3f d2 e6 b0 3e 4a c4 d7 bc c5 4a 5a 3e
       0.53767556 0.34551102 -0.026338715 0.21317585
0000a0 5f 63 2b 3e db d0 ef 3c 72 25 8c 3c 14 7c e0 bc
       0.16737126 0.029274395 0.017107699 -0.027402915
0000b0 ab 00 f0 bd 96 ab 94 3e fb 5e b5 3d 8a 4f 73 bd
       -0.117188774 0.2903716 0.08856007 -0.059402026

backbone.2.conv.1.1.running_mean f4 [48]
000000 f1 a0 cd bd a2 70 a9 bd df 1f 8f 3c 6b 0d 16 3f
       -0.10040463 -0.08273436 0.017471252 0.58614224
000010 13 58 50 bd 65 16 66 bd 5a ad f5 bd c0 dd 1b bd
       -0.050865244 -0.0561737 -0.11995955 -0.038053274
000020 22 74 f9 3d 0f 74 a0 bc 1f fc 79 3d 2f a2 23 be
       0.12180354 -0.019586591 0.061031457 -0.15979837
000030 c5 e7 0b 3b 85 5b e4 bb 68 4b 8e ba 09 8b c0 bd
       0.0021347862 -0.006968918 -0.0010856213 -0.09401519
000040 e0 2a d6 3c 8e be 41 3e 41 ff ba bd 42 84 a5 be
       0.026143491 0.18920347 -0.09130717 -0.32327467
000050 b7 80 bd 3e b4 68 a0 bd f6 82 68 3c a7 73 2c bc
       0.37012264 -0.078324705 0.01419138 -0.010525621
000060 65 b8 73 3b c1 8e 9e 3d 99 4e 3b bc a7 5e f6 3a
       0.0037188765 0.07742072 -0.011432313 0.0018796519
000070 eb 6a 84 3e 5f c0 10 3a 87 e9 17 be aa 29 d7 3d
       0.25862822 0.00055218296 -0.14835177 0.10505994
000080 de 04 2d 3d 3f 04 cf bd 88 37 36 be c0 00 1f bc
       0.04224097 -0.10108232 -0.17794621 -0.009704769
000090 52 07 dc bd 5e ad 25 be 6f 0d 18 bb 89 0d 44 3e
       -0.10743584 -0.16179416 -0.0023201366 0.19145788
0000a0 be 3d 1a be fd e1 22 3e 5e 08 e3 bc 44 18 6a 3d
       -0.15062615 0.1590652 -0.02771395 0.057152048
0000b0 f7 15 1a 3d f3 07 2e 3e 91 3f 80 be cf fd 99 3d
       0.037618604 0.1699522 -0.25048497 0.07519113

backbone.2.conv.1.1.running_var f4 [48]
000000 dc 94 bc 3c 36 4c 42 3c 14 75 a5 3b db 57 62 3c
       0.0230202 0.01185899 0.005049357 0.013814892
000010 83 ef 27 3c 72 c8 80 3b e7 69 b5 3c 05 82 3d 3b
       0.010249975 0.003930145 0.022145225 0.002891661
000020 f2 d7 2f 3d e5 d2 f2 3a 8f 0d a7 3b 46 e9 1d 3d
       0.04293055 0.0018525986 0.005098052 0.038552545
000030 a0 73 1c 3a af eb f5 3a ef a3 1d 3c 56 25 85 3c
       0.0005968157 0.0018762256 0.009621604 0.016253155
000040 a1 94 9f 3b 2b f1 2e 3c 67 b6 9d 3c e5 84 ea 3c
       0.004870013 0.010677616 0.019252015 0.028627822
000050 d8 d0 a4 3c 32 2a 82 3b 97 2e 8f 3a 49 a4 3b 3b
       0.020119116 0.003972315 0.0010923919 0.0028631857
000060 90 bc 0e 3c a0 a0 a2 3b 53 a1 bb 3b f3 d1 bb 38
       0.008711949 0.0049629956 0.0057260185 8.955961e-05
000070 36 32 89 3b 5c d6 aa 39 0b a5 01 3d e4 5e ba 3a
       0.004186894 0.00032584637 0.031651538 0.0014218953
000080 60 af a0 3b e2 c8 a9 3c dc 53 08 3d 9d 10 30 3c
       0.004903719 0.020725671 0.0332831 0.010746148
000090 4f 7a 26 3c f4 59 15 3d 9e d2 f3 3a 02 48 a6 3d
       0.010160997 0.03646274 0.0018602198 0.08119203
0000a0 0c 57 32 3d 0f 30 c8 3b 50 a3 b3 3b 75 e3 b9 3b
       0.043540046 0.0061092447 0.005482115 0.005672867
0000b0 e2 46 9a 3b b2 cd c9 3c bd 58 81 3c e6 c2 36 3b
       0.004708157 0.024634216 0.015789384 0.0027887165

backbone.2.conv.2.weight f4 [8, 48, 1, 1]
000000 80 20 3a 3e 87 6c 42 3e 2c d9 07 3c ec db b0 3d
       0.1817646 0.18986712 0.008291524 0.08635697
000010 98 22 b9 3e ad cd 06 bd 3b cb 73 3e 16 db 81 be
       0.36159205 -0.03291099 0.23807995 -0.25362462
000020 ca 33 26 be 0c 27 62 bd 87 86 9f 3d 99 1f a5 3e
       -0.16230693 -0.05521302 0.07789331 0.3225067
000030 fc da f8 bb 3a d5 94 bd 44 ba e6 3d 62 90 7c 3e
       -0.0075944643 -0.07267232 0.11265996 0.24664453
000040 da 9d 60 be 96 59 4e bd 1a a8 5d 3e c2 14 dd 3e
       -0.21935216 -0.050378405 0.21646157 0.431799
000050 bb 8d 5d bc ef 6f 09 3d 37 c1 c2 bc 7a 13 a9 3b
       -0.013522561 0.033554014 -0.023773773 0.0051597925
000060 39 8d 06 3e e8 24 ba 3c aa 18 23 3e 27 f8 12 be
       0.1313981 0.022722676 0.15927377 -0.14352475
000070 81 54 cc bd ef 68 8a bc 9e 49 75 bd a2 a7 88 bd
       -0.09977055 -0.01689574 -0.05988466 -0.066725984
000080 f1 16 86 bd 60 4a a3 3e 00 ea 43 3e 0b 64 74 bd
       -0.065473445 0.3189268 0.19132233 -0.05966572
000090 a5 da 83 3d a0 a4 47 3e d0 bd 13 3d d0 78 58 bc
       0.064381875 0.19496393 0.03606969 -0.013212398
0000a0 0c e2 65 3e 1d b8 1d bc 74 f8 cb 3d 1a 7a 4e bd
       0.22449511 -0.009626416 0.09959498 -0.050409414
0000b0 e8 77 94 bd b7 17 38 be f0 5f 92 3d b9 ec 46 bd
       -0.07249433 -0.17977796 0.07147205 -0.0485656
0000c0 d8 45 3d 3d a7 6e 46 3e 27 d5 81 3e 4c 02 c0 be
       0.046209186 0.19378148 0.25357935 -0.37501752
0000d0 d2 73 ae 3d b9 5c 46 3e fd ec f0 3d 2b 76 b9 bd
       0.08518185 0.19371308 0.11763952 -0.09055742
0000e0 c4 96 10 3d e3 4c 76 bc 6a 12 1a 3c 85 dd c1 bd
       0.03530003 -0.01503298 0.009403804 -0.094660796
0000f0 6f e5 83 bd db b4 fc bd d0 f5 83 3d e9 5a 1b 3e
       -0.06440245 -0.12339183 0.064433694 0.15171398
000100 16 8b b8 bd 67 0f 8b 3d 12 7c 0a be d0 57 62 3c
       -0.090109035 0.06790047 -0.13523892 0.013814881
000110 c2 31 66 bd 5e 8f 12 be 3f a6 39 3c d6 43 43 bd
       -0.056199796 -0.14312503 0.01133114 -0.047672115
000120 4f c9 24 bc 73 a1 1e 3c fb 0b 36 3e aa ca 21 bd
       -0.010057761 0.009682047 0.17778008 -0.039499916
000130 91 5e 2b 3e 58 13 a6 bd 9a 3f 89 3d 51 34 13 be
       0.16735293 -0.08109158 0.06701584 -0.14375426
000140 f2 d5 d9 bd c1 f8 e7 3d 4f bd 09 be 85 f8 a6 bd
       -0.1063651 0.11326743 -0.13451122 -0.0815287
000150 4b 11 ca 3e 43 cd b1 be 6c ee a9 3b 54 c0 8e be
       0.39466318 -0.34726915 0.005185893 -0.2788111
000160 66 af d4 bd be 7c ad 3d 71 62 bb 3c 79 9c 1a be
       -0.10385017 0.08471058 0.022874089 -0.15098752
000170 9a e3 ad bd 71 26 4b be ef 21 62 bd 15 dc 54 be
       -0.08490677 -0.19838883 -0.055208143 -0.2078708
000180 f5 58 18 3e 24 0b 91 3d be 9d c6 bc d2 b7 84 be
       0.14877684 0.07082203 -0.02424514 -0.25921494
000190 da a9 5f 3e 70 c8 b9 be 88 de b8 bd 65 f4 60 3d
       0.21842137 -0.36285734 -0.090268195 0.054920573
0001a0 e6 c0 bb bd 77 9c 61 3e 61 8c 63 bd 82 55 8f be
       -0.09167652 0.22032343 -0.055553798 -0.27994925
0001b0 a8 3e 72 3e e1 f6 4f be e0 e5 02 be b7 aa f0 3c
       0.23656714 -0.2030902 -0.12783003 0.029378278
0001c0 0d ec c8 3d d7 a1 84 bd 7c c7 c8 3d 62 66 15 3b
       0.09810648 -0.06476181 0.098036736 0.002279662
0001d0 42 d6 d0 3d 0d 75 43 3d 15 2f 6e 3e 39 c1 9a 3e
       0.101971164 0.04771905 0.23260148 0.30225542
0001e0 1a 21 b0 bd c2 04 0f be f4 50 3e be 7d 1a 04 3e
       -0.086000636 -0.13966659 -0.18585569 0.1290073
0001f0 3a c0 3a 3e bf 65 47 3e 7d ec 82 3d 85 88 07 3d
       0.18237391 0.19472407 0.06392763 0.03308918
000200 6a 0a 85 be 10 39 83 3e ae 43 04 3e 7f b4 35 be
       -0.25984508 0.25629473 0.12916443 -0.17744635
000210 e8 f9 58 bd 91 44 47 3e 78 1d 86 3e 1e f7 13 be
       -0.052972704 0.1945975 0.26194358 -0.14449736
000220 1f 99 dc 3d 67 8f 2c be db 3c fa 3d 6c 87 38 be
       0.10771393 -0.16851579 0.122186385 -0.1802041
000230 d0 6c 89 be fa 82 5b 3e 67 8e 63 be bd dd 5e 3e
       -0.2684083 0.21436682 -0.22222291 0.21764274
000240 3e c3 a3 bc e9 d4 60 3e bc 0e 35 3e c6 00 9b 3e
       -0.01999056 0.21956219 0.17681402 0.30274028
000250 ca d3 3a be 81 07 09 3e 67 32 f4 bc 32 d6 e8 3b
       -0.18244854 0.13381769 -0.02980919 0.007105612
000260 36 d7 fd bd f2 6b 03 3d 99 ab 40 3e 09 5c 59 be
       -0.12394564 0.032085367 0.1881546 -0.21226515
000270 c9 85 f1 bc 87 7a 38 3d c4 05 40 3e df 3b 80 3d
       -0.029482739 0.045038726 0.187522 0.062614195
000280 7d 0b 65 bc 15 b9 03 3c 1a 36 29 3d b7 23 82 be
       -0.01397979 0.008039732 0.04131136 -0.25417873
000290 33 3a 0e be 26 d7 93 3d ae cf 8a 3d 3c 59 6d 3d
       -0.13889389 0.07218771 0.06777893 0.05794643
0002a0 ae 59 1b 3e 1c b7 c3 bd 89 8f 06 3e e3 14 36 3d
       0.15170929 -0.0955641 0.13140692 0.044453513
0002b0 10 d0 10 be 44 5a de bd fc 1c 6a 3e 6d 29 b6 3d
       -0.1414187 -0.108570606 0.22862619 0.0889462
0002c0 27 66 d1 bd 08 cf e4 bd c9 49 81 3e 56 5d 95 bd
       -0.10224562 -0.111723006 0.25251606 -0.07293193
0002d0 6a 0e 7f 3d 0e 9a 75 3e b5 36 79 3d 05 f4 b0 bd
       0.062269606 0.23984548 0.06084319 -0.08640293
0002e0 41 d7 fa bd e2 e5 9a 3e 82 fc 9d 3e d2 93 42 bc
       -0.12248088 0.30253512 0.3085671 -0.011876063
0002f0 37 82 79 bd eb e4 a1 3c 7f 9d 94 be d7 8a 29 3d
       -0.0609152 0.019762477 -0.2902641 0.041392174
000300 0b 0d 98 bc 24 02 21 be ec 04 1c 3e ae f5 b0 3d
       -0.018560907 -0.15723473 0.15236253 0.0864061
000310 bc 06 43 3d a2 13 89 3d 92 26 54 be 3d f7 11 3d
       0.047613844 0.06693198 -0.20717838 0.035636175
000320 9d 46 e3 bc 62 30 be 3c 09 0a 27 3e 78 83 28 3e
       -0.027743632 0.02321643 0.16312422 0.16456401
000330 51 8e 20 3e ab e4 80 3c 97 e9 60 3e 6b 32 7d be
       0.1567929 0.015734037 0.21964107 -0.24726264
000340 cb dc 89 bd dc 04 51 be 81 ad 0b bc 5c 5e 5e be
       -0.06731566 -0.2041201 -0.008525253 -0.21715683
000350 2a 6d 45 be 04 57 98 3a c8 3f cd 3d e0 81 c7 3d
       -0.19279924 0.0011622612 0.10021931 0.097415686
000360 e3 fd 5b 3e 5e 5e ab bb 56 b4 87 3e 81 10 d9 bd
       0.21483569 -0.0052297553 0.26504773 -0.10598851
000370 34 b9 9b bd 8a a3 d5 bd 6c 34 43 be 04 28 65 bd
       -0.07603684 -0.10431583 -0.19062966 -0.055946365
000380 55 ca 34 3e 9b f4 1e be ad 1b 1f 3e 90 d6 25 3e
       0.17655309 -0.15522997 0.15537901 0.1619513
000390 9b 86 66 bc 6f 63 b5 bc f5 5f 28 3e 5c eb 9c bd
       -0.014070178 -0.02214214 0.16442855 -0.07662079
0003a0 0d f0 d7 bd 1c a3 2b 3b 11 f9 da bc 8a 3f c9 3d
       -0.10543833 0.002618975 -0.026730092 0.09826572
0003b0 74 17 16 3e 8f 6f 4a 3e c3 a4 85 be 09 c1 3d be
       0.14657384 0.19769119 -0.26102266 -0.18530668
0003c0 dd 8c 92 3d c6 b6 8c bd 9a 8e 5f 3e 86 ad c7 3c
       0.07155774 -0.06870799 0.21831742 0.024374735
0003d0 9f 34 75 3e 45 07 07 3e bb e8 49 3e e0 14 01 be
       0.23945855 0.13186367 0.19717686 -0.1260562
0003e0 85 c6 95 be df 91 18 3e 2b 2c a5 bc a7 ad c8 be
       -0.2925302 0.14899395 -0.020162662 -0.39194986
0003f0 37 a6 8b 3e f7 bc 31 3d 33 06 3d 3e 91 d4 f1 bd
       0.2727525 0.0433931 0.18459396 -0.11808122
