ML Model/tv_detection_epoch_150/e-40-0.838.pth (torch, 508349 bytes, 205 tensors)

backbone.0.0.weight f4 [16, 3, 3, 3]
000000 8b 86 01 80 a1 56 05 80 52 07 00 00 69 78 02 00
       -1.401e-40 -4.90254e-40 2.626e-42 2.26866e-40
000010 a4 c5 01 00 34 5b 03 00 8c 9f 05 00 ea f6 02 00
       1.62736e-40 3.08224e-40 5.16412e-40 2.72247e-40
000020 5c 2e 02 00 cb fb 00 00 0c 40 01 80 45 7c 02 00
       2.00302e-40 9.0326e-41 -1.14811e-40 2.2825e-40
000030 45 c6 02 00 74 d6 02 00 cc 30 02 80 26 ad 01 00
       2.54797e-40 2.60602e-40 -2.01176e-40 1.5395e-40
000040 33 f0 00 80 c7 62 03 00 83 92 01 80 e1 03 03 00
       -8.6167e-41 3.10941e-40 -1.44394e-40 2.76898e-40
000050 d5 9c 04 80 08 66 00 00 07 00 00 00 b8 13 03 80
       -4.23603e-40 3.6602e-41 1e-44 -2.8258e-40
000060 ee b0 01 00 25 20 02 80 a5 ab 02 00 09 16 36 3b
       1.55306e-40 -1.95202e-40 2.45245e-40 0.002778413
000070 63 9c e8 3b 42 be 67 3c 93 16 25 3e d0 23 c8 3e
       0.007098721 0.014144482 0.16121893 0.39089823
000080 72 96 49 3d 96 9c 37 be 8c 8e 71 be f9 da bc bc
       0.04921574 -0.17930827 -0.23589534 -0.023053633
000090 3d b3 a6 bd 65 88 2b 3b f2 d7 91 bd ad e2 87 3e
       -0.08139656 0.0026173827 -0.071212664 0.26540127
0000a0 b8 9f 36 3f 45 bc 94 3d 76 28 ad be 0e 41 17 bf
       0.7133746 0.07262472 -0.33819932 -0.5908364
0000b0 6e b6 d1 bd 46 93 af 3d 83 67 88 3d 25 4b 94 3d
       -0.10239874 0.08573012 0.06660368 0.07240895
0000c0 14 d2 1b 3e 0a eb 91 3e 3d 95 cf 3d ed 94 c1 bd
       0.15216857 0.28499633 0.10135887 -0.094522335
0000d0 e9 a2 24 be 62 22 0c bd ee 32 c9 bd b6 9c f5 3d
       -0.1607777 -0.034212478 -0.09824167 0.11992781
0000e0 6b 10 12 3d eb 66 ca be df dc 43 3f be a3 7b be
       0.03566019 -0.39531645 0.765089 -0.24574181
0000f0 97 ce 27 bf 95 46 6e 3f 78 14 81 be c9 44 06 be
       -0.65549606 0.9307645 -0.2521093 -0.13112177
000100 d1 e8 40 3e 70 dc cd bc 1d 47 53 bf f0 a6 ab 3f
       0.18838812 -0.025129527 -0.82530385 1.341032
000110 04 a1 fa be 0f 82 85 bf f3 fc bb 3f 8e 9f e7 be
       -0.4895097 -1.0430316 1.4686569 -0.45238918
000120 15 75 28 bd 21 47 4a bc 25 41 53 3d 95 7c 5b be
       -0.041127283 -0.01234606 0.0515758 -0.21434243
000130 0b 56 cd 3e 22 16 05 be 09 99 8c be f2 74 e5 3e
       0.40104708 -0.12996724 -0.27460507 0.44815785
000140 21 2c 12 be 46 33 aa bc 6a 89 aa bc 69 b5 7a 3d
       -0.14274646 -0.020776402 -0.020817477 0.061208162
000150 e3 43 79 3d d1 cc 42 3e 9c ac a1 be 7f 91 e8 3c
       0.060855757 0.19023444 -0.31577003 0.02838969
000160 79 42 9b 3e 63 f2 a5 be d3 a9 bc 3b be c3 23 bd
       0.30324152 -0.3241149 0.0057575493 -0.039981596
000170 f3 ec ba 3d 63 29 96 3d 81 62 08 3f 77 2b 18 bf
       0.09127226 0.07332113 0.53275305 -0.5944132
000180 6e a5 9c 3d 6c 28 28 3f 74 bf 2a bf 2e ff f7 3c
       0.07648741 0.6568668 -0.66698384 0.030273046
000190 c6 9b 1c bb 02 f5 88 bc 37 d3 e2 3d 8c 04 ec 3d
       -0.002389656 -0.016718391 0.11075442 0.11524305
0001a0 08 32 24 be 00 fa 62 3d ce 3a eb 3d 00 5d 39 be
       -0.1603471 0.0554142 0.114858255 -0.18101883
0001b0 77 a1 c2 bd 94 48 f3 bc ee 72 8a bd bb 69 3f 3c
       -0.09503453 -0.029697694 -0.06760202 0.011682923
0001c0 46 6f 2f bd 0d 7d eb bd 6b 19 2b 3e 8f 5b 47 3c
       -0.042830728 -0.11498461 0.16708915 0.012167825
0001d0 bb 0d 51 be 3e ce 85 3d 22 d6 7f 3d 3a fa 28 bd
       -0.20415394 0.06533478 0.062460072 -0.04125426
0001e0 f0 10 06 3e b4 61 17 be 01 0a 8b be 17 cb 41 3e
       0.13092399 -0.14783365 -0.2715607 0.18925129
0001f0 f3 5d d0 bd af 12 e9 be db f5 2e 3c 3c f4 fa bc
       -0.101741694 -0.45522067 0.010678734 -0.030634038
000200 9d 87 2a be 0a 59 88 3b c3 d6 fd bd 90 0c 4b be
       -0.16653295 0.004161005 -0.12394478 -0.19829011
000210 31 66 d8 bc ce d2 d8 bd a2 1b 76 be 8c 0f 4b 3e
       -0.026415916 -0.10587083 -0.24033979 0.1983015
000220 8a 1d 3e 3e 71 8b 3c be 4d 77 d8 3d eb 46 1c 3f
       0.18565956 -0.18412568 0.1056963 0.6104571
000230 aa e5 7d 3e 7f f2 45 be 4c e6 0e 3f dc 2d 1f 3f
       0.24794641 -0.19330786 0.55820155 0.6217935
000240 ce d9 e3 3d 45 f0 48 bd ea ac a0 3d b7 86 f4 3c
       0.11125527 -0.049057264 0.07845481 0.029849393
000250 56 d0 37 be ef 23 a0 bd b1 43 45 bb b7 de 25 be
       -0.17950568 -0.07819354 -0.0030100162 -0.1619824
000260 a0 f7 c4 bd 62 81 6e be c8 10 0a be 1c cb 04 3e
       -0.09617543 -0.23291543 -0.13482964 0.12968105
000270 7b c0 22 be 87 a6 fa be 14 36 61 be 84 9d 3e 3d
       -0.15893738 -0.48955175 -0.21993285 0.046536937
000280 7e d5 f4 be eb 25 10 bf 31 6a fa 3c 99 5e 9a 3c
       -0.47819132 -0.5630786 0.030568214 0.018843936
000290 e7 bd 70 3c 2a a5 02 3f 46 58 98 bd 91 b2 1b be
       0.014693714 0.5103327 -0.07438712 -0.15204836
0002a0 7c 29 04 3e d1 af b0 bd 3e ea ac bc ee b1 60 bd
       0.1290645 -0.08627284 -0.02110779 -0.054857187
0002b0 a4 e9 b3 bc 91 56 87 bb 49 ca 71 3f 6b 6c 44 be
       -0.021961994 -0.0041301926 0.9444929 -0.19181983
0002c0 d0 26 c6 be 3f df 6b 3e 4f a6 58 be a8 d5 47 bd
       -0.38701487 0.2303438 -0.21157192 -0.048787743
0002d0 4f e9 d1 3c 7f a6 3c 3c c4 af d7 bb 6d 07 89 3e
       0.025623946 0.011514305 -0.006582232 0.26763478
0002e0 79 0a 1f 38 db 32 31 bd 7a d8 2c 3c 9e ec 6b bd
       3.7918307e-05 -0.04326139 0.010549659 -0.057598703
0002f0 b4 39 0f bc 2d ac 5d 3c 1c c7 3b bd fd 1c 0b be
       -0.008741785 0.013529819 -0.045844182 -0.13585277
000300 2d 9a c3 bc 80 a1 84 3d 6a 54 6c 3e 25 a5 db bc
       -0.023877228 0.06476116 0.23079076 -0.026812145
000310 27 f6 96 3d b7 11 a3 3e 1b 3b 61 bd 31 3d 33 be
       0.073711686 0.31849453 -0.054988008 -0.17503811
000320 69 7f 68 be 6a 9a 03 bd 84 3e 89 3d 8c ed 9d 3e
       -0.22704853 -0.032129683 0.06701377 0.30845296
000330 0e a2 a3 bc 71 9c 44 3e 5d 03 c6 3e 83 b8 42 3b
       -0.019974735 0.19200303 0.3867444 0.0029712028
000340 7f 66 02 3d fd e3 41 3d ff 94 73 3c 27 d1 1f 3e
       0.03183603 0.047336567 0.014867066 0.15607129
000350 04 61 9f 3e ce 60 30 3d eb ce 43 3e 56 cb b8 3e
       0.31128705 0.04306107 0.19121902 0.36092633
000360 26 4a 8d 3d 6e aa 86 3d 36 7b fb bd 3b ef 20 be
       0.06898908 0.06575476 -0.1227936 -0.15716259
000370 98 c7 31 3f 2f 79 01 bf 9e 4a 2b 3d 03 44 3e 3f
       0.6944518 -0.50575536 0.041819207 0.7432253
000380 58 49 28 bf dd d9 ef bc 47 78 32 3e 38 74 55 be
       -0.65736914 -0.02927869 0.17428695 -0.20845115
000390 b1 0d fb bd 23 5e 89 3f f6 5b 6a bf d1 c5 40 3c
       -0.12258471 1.0731853 -0.9154657 0.011765913
0003a0 f7 08 85 3f 62 a7 78 bf 6c 3a 7f 3d f7 f5 44 3b
       1.0393361 -0.97130406 0.062311575 0.0030053833
0003b0 b7 e0 52 bc 2a b4 da bd 06 7d cb 3e e8 6a b0 be
       -0.012870959 -0.10678895 0.39743823 -0.34456563
0003c0 bd d2 ce 3b af 68 cb 3e 5d 33 cc be 96 57 03 00
       0.006311743 0.39728305 -0.39882937 3.06926e-40
0003d0 06 35 04 00 4a 0b 02 00 3b 20 01 80 99 d6 03 00
       3.86363e-40 1.87721e-40 -1.03398e-40 3.5249e-40
0003e0 6d e3 02 80 c6 14 02 80 a9 4c 02 00 a1 db 04 80
       -2.65256e-40 -1.91123e-40 2.11171e-40 -4.4613e-40
0003f0 ca 05 04 00 86 c3 02 00 92 17 01 00 b0 4b 04 00
       3.69419e-40 2.53812e-40 1.00291e-40 3.94494e-40

backbone.0.1.weight f4 [16]
000000 9d 14 03 80 50 a7 0d 3e d0 83 05 3e 65 94 93 3e
       -2.82901e-40 0.13833356 0.13038564 0.28824154
000010 f8 83 33 3e 92 55 72 3e ba df 9c 3d c1 68 93 3e
       0.17530811 0.23665455 0.0765986 0.28790858
000020 54 48 a1 3d b3 e8 00 00 91 9e c0 3e 64 24 ed 3d
       0.078751236 8.3477e-41 0.37620977 0.115792066
000030 cb ed 88 3e d3 96 a9 3e 75 b1 01 80 1e eb ae 3d
       0.26743922 0.33122882 -1.55495e-40 0.08540939

backbone.0.1.bias f4 [16]
000000 08 53 01 00 12 6d 17 3f e5 4a cd 3e 51 fb 71 3e
       1.21621e-40 0.59150803 0.40096202 0.23631026
000010 18 c8 67 3f f7 11 0d 3f 08 20 03 3f 57 f0 03 3f
       0.90539694 0.5510554 0.5122075 0.51538604
000020 06 c4 19 3f de 7a 00 00 64 8f a9 be 7d f5 6f 3f
       0.60064733 4.4076e-41 -0.3311721 0.9373396
000030 41 ee c7 3e eb 51 ae be 14 c5 01 00 df 4e d0 3d
       0.3904896 -0.34046873 1.62534e-40 0.101712935

backbone.0.1.running_mean f4 [16]
000000 f4 96 ba 80 7d 80 75 42 9c c5 1b 42 81 8f 64 41
       -1.7135554e-38 61.375477 38.942978 14.285035
000010 6a a8 3c c3 fc f5 8f c2 34 6b a5 42 9a 01 55 43
       -188.65787 -71.98044 82.70938 213.00626
000020 37 52 9e 41 a6 37 71 00 f3 aa 1f c2 8b 9b 48 43
       19.790144 1.0397374e-38 -39.916943 200.60759
000030 61 58 ff 3f 98 87 74 42 f4 d2 20 81 9e 2b 0d c2
       1.9948846 61.132416 -2.953871e-38 -35.292595

backbone.0.1.running_var f4 [16]
000000 04 00 00 00 3c d3 44 45 b8 1a 11 46 e9 f3 e7 44
       6e-45 3149.2021 9286.68 1855.6222
000010 9c e5 70 46 6c 4f 17 46 14 3c ad 45 cc 70 99 46
       15417.402 9683.855 5543.51 19640.398
000020 02 27 bf 45 04 00 00 00 23 c2 55 45 c8 fe 82 46
       6116.876 6e-45 3420.1335 16767.39
000030 55 4f 1d 45 9e 89 65 45 04 00 00 00 6a 35 b1 44
       2516.9583 3672.601 6e-45 1417.6692

backbone.1.conv.0.0.weight f4 [16, 1, 3, 3]
000000 3f 44 01 00 45 b1 04 00 99 df 04 80 58 bd 01 80
       1.16318e-40 4.30934e-40 -4.47554e-40 -1.59759e-40
000010 59 28 04 00 90 8a 01 80 53 3f 03 80 f1 b5 01 80
       3.81816e-40 -1.41542e-40 -2.98223e-40 -1.57104e-40
000020 d3 2d 05 00 9d 02 01 3b 22 22 61 bd a6 65 bb 3c
       4.75616e-40 0.0019685396 -0.054964192 0.022875618
000030 23 14 5e ba f8 66 f5 bd 23 7b 38 3f 62 44 1e 3c
       -0.00084716285 -0.1198253 0.7206289 0.009659858
000040 25 40 14 3d 46 08 58 bf 48 b3 b9 bb 74 6b 77 bd
       0.036193985 -0.84387624 -0.005667124 -0.06040521
000050 9c 4b e3 bd e0 c5 ba bc 5d 00 44 3d 6c 55 90 3f
       -0.11098406 -0.022799432 0.04785191 1.1276069
000060 c0 e7 76 bc fc 79 8a bd df cf a3 bd cf d2 1c bd
       -0.015069902 -0.06761548 -0.07998633 -0.03828698
000070 70 44 71 bc f6 14 8e bd 59 52 d2 3c 38 d0 47 3f
       -0.014725789 -0.06937592 0.025674032 0.7805209
000080 f1 9c ab be 8e a0 57 bd d0 ea a1 bd 78 92 2f be
       -0.33518174 -0.05264335 -0.07906115 -0.17145717
000090 d6 c4 16 3f da cc f7 3f 9a b0 eb 3e 0d e1 6c 3e
       0.588941 1.9359391 0.46033174 0.23132725
0000a0 e8 0d e4 3e 52 42 44 3e 83 21 59 bf 89 81 08 c0
       0.4454186 0.19165924 -0.8481676 -2.1329062
0000b0 68 42 3f bf 95 43 10 be 9d f1 82 3d 1a cf 4e be
       -0.747107 -0.1408828 0.0639374 -0.2019619
0000c0 a9 aa 25 3e b2 e0 ba 3e 99 61 d9 bf 89 6d 6f 3d
       0.16178383 0.36499554 -1.698291 0.05845407
0000d0 34 00 a4 3f 7e f1 af 3e 6f 17 80 bc 85 b9 c7 3d
       1.2812562 0.3436393 -0.015636174 0.09752182
0000e0 f9 36 5d bd 4f 39 01 3d a6 08 f6 3c 6d ce 4d bf
       -0.054007504 0.031548794 0.03003342 -0.80393106
0000f0 71 60 23 3c bd 79 1c bb 8e 26 81 3f 7c 1a 00 bf
       0.009971724 -0.0023876273 1.0089891 -0.5004041
000100 5f b0 8e be b9 af 3d 3f 44 57 19 c0 fe 6b b7 be
       -0.27868935 0.74096256 -2.3959513 -0.3582458
000110 fc ec 27 40 ea 6a eb be 8b b4 19 be 81 e4 2a 3f
       2.6238394 -0.45980006 -0.15010278 0.6675492
000120 ce 92 b3 bc 15 63 f0 3c 45 24 c8 bd 00 f0 4e 3d
       -0.021920588 0.029344121 -0.09772543 0.05052185
000130 a2 5e 83 bf 1e df 32 3e 9b 4a 36 3d 88 67 18 3d
       -1.0263255 0.17467925 0.044504743 0.03720811
000140 4a 97 58 bd 41 4c 00 80 6f ab 01 80 28 55 00 00
       -0.052878655 -2.7355e-41 -1.53334e-40 3.0548e-41
000150 20 e9 01 80 4b 0c 00 80 a0 b1 01 80 60 55 00 00
       -1.75465e-40 -4.41e-42 -1.55555e-40 3.0627e-41
000160 db b0 00 00 b3 e6 02 00 d6 6b 78 3d e1 3d 01 be
       6.3444e-41 2.6643e-40 0.060649715 -0.12621261
000170 d0 c0 cc be b8 79 27 be 11 9e 30 3e 81 40 d7 3e
       -0.39990854 -0.16355026 0.17247798 0.420414
000180 ce 6c b2 be e8 fb a1 3e 03 4e 00 3f 85 b0 2d 3e
       -0.34848636 0.31637502 0.50119036 0.16961868
000190 2b 13 ca 3f 9f 87 7e 3f 4f bd 9b 3d 7a 34 44 3d
       1.57871 0.9942569 0.07604467 0.047901608
0001a0 ca 4a 01 be e8 05 ae be 47 b3 d0 bf e6 5e 7d bf
       -0.12626186 -0.3398888 -1.6304711 -0.9897293
0001b0 94 29 76 bb df cb 5d 3d d8 61 24 bd 61 27 49 bc
       -0.0037561404 0.054149505 -0.040132374 -0.012277455
0001c0 7e 5f 20 bd 36 db 39 bf 42 9f d2 bc e6 50 59 3c
       -0.03915357 -0.72600114 -0.025710706 0.013263917
0001d0 c7 43 43 3f 9f e3 22 bd d7 11 19 3d 1a 91 10 be
       0.76275295 -0.039767858 0.03737053 -0.14117852
0001e0 2d 08 33 3d 22 1c b5 3d 4e 34 c9 bd fe 39 e2 bd
       0.04370897 0.088432565 -0.098244295 -0.110462174
0001f0 2c 7c b0 bd fb 02 36 3f ed 1c 01 80 8d 3d 03 00
       -0.08617434 0.710983 -1.02212e-40 2.97587e-40
000200 cd 2e 01 00 36 7f 01 80 9b 0b 03 00 55 1b 04 00
       1.08624e-40 -1.3747e-40 2.7967e-40 3.77147e-40
000210 ee 01 05 00 65 11 04 80 90 32 03 00 50 18 d6 3d
       4.5987e-40 -3.73582e-40 2.93645e-40 0.10453856
000220 c1 67 53 3c f6 5d 02 bc d4 ef da 3d 78 59 cc bc
       0.012903155 -0.007956972 0.10690275 -0.024945006
000230 bf 10 09 be 7d 91 13 3d 42 ee 4a be 9f 3c 7b be
       -0.13385294 0.03602742 -0.1981745 -0.24534844

backbone.1.conv.0.1.weight f4 [16]
000000 25 49 02 00 12 0d 08 3f bd 3f 22 3f 31 03 0c 3f
       2.0991e-40 0.53144944 0.63378507 0.5469237
000010 ad 7c 94 3f 76 37 eb 3e 43 b3 10 3f 9f 46 53 3f
       1.1600548 0.4594075 0.5652353 0.82529634
000020 71 18 ec 3e 94 03 01 00 44 79 83 3e a6 3b 82 3f
       0.46112397 9.3119e-41 0.25678456 1.0174453
000030 9e 99 53 3f 47 fa 8b 3e ef e8 01 80 9d 6a b5 3e
       0.82656276 0.27339384 -1.75396e-40 0.35432902

backbone.1.conv.0.1.bias f4 [16]
000000 e6 89 dc 00 32 05 38 3f e8 5c b8 3f cc 7a b7 3e
       2.0253278e-38 0.7188293 1.4403353 0.35835874
000010 08 89 2c 3e 8e 36 4f 3f 95 80 27 3f 49 09 01 3f
       0.16849148 0.8094262 0.65430576 0.50404793
000020 39 58 e2 3e da 68 83 80 14 58 c5 3e 10 a2 e7 3d
       0.44207934 -1.2068064e-38 0.3854376 0.11310208
000030 9e 90 62 3f b7 74 9f be 1a e4 ee 00 25 3d 82 3e
       0.8850192 -0.31143734 2.1938676e-38 0.25437275

backbone.1.conv.0.1.running_mean f4 [16]
000000 04 00 00 00 af b9 0b be 93 c9 a0 3e 68 b2 5a 3c
       6e-45 -0.13645051 0.3140379 0.013348199
000010 35 61 ee 3d 05 7b 07 3e 7d 58 1a 3e 35 9f 8b bd
       0.116396345 0.13230522 0.15072818 -0.06817476
000020 20 22 04 bf 04 00 00 80 8f 85 3d 3c 3c fe 4e be
       -0.5161457 -6e-45 0.011567487 -0.2021417
000030 03 78 83 bc 35 58 81 3c 04 00 00 80 56 1b 17 bd
       -0.016048437 0.01578913 -6e-45 -0.036891304

backbone.1.conv.0.1.running_var f4 [16]
000000 04 00 00 00 62 c8 58 3c 84 33 54 3c cd 30 0f 3d
       6e-45 0.013231369 0.012951735 0.03495865
000010 4f 52 68 3e 94 51 50 3d a6 e0 87 3b 0a 07 d0 3e
       0.22687648 0.05085905 0.004146653 0.4063037
000020 64 af bf 3b 04 00 00 00 75 04 b5 3b 0b 2a 10 3e
       0.0058497656 6e-45 0.005524213 0.14078538
000030 ee d3 59 3d d9 10 2e 3b 04 00 00 00 db 9e 5a 3a
       0.053180628 0.0026560335 6e-45 0.00083397113

backbone.1.conv.1.weight f4 [8, 16, 1, 1]
000000 45 15 01 00 fe 25 48 be 4a 50 8d bc e4 af 51 3e
       9.9466e-41 -0.19545743 -0.017250199 0.20477253
000010 11 36 58 bd 5a 2b 20 3f 25 c4 7f 3e 3d 77 98 bd
       -0.052785937 0.6256615 0.24977167 -0.07444618
000020 38 9e bb bd f4 6f 01 00 7f 7a 59 3d aa 0f 79 3e
       -0.09161037 1.31997e-40 0.053095337 0.24322382
000030 0d 5d ff 3d 2c 8f b2 bd aa 35 34 00 01 2e 4e be
       0.1246892 -0.08718714 4.794697e-39 -0.20134737
000040 b0 20 00 80 99 51 07 bd 94 65 0b bf 89 96 2d 3c
       -1.1726e-41 -0.033036802 -0.5445187 0.010594972
000050 38 e1 5b 3e 64 5b f8 bc 5d aa cc bc 26 72 75 3c
       0.21472633 -0.030317016 -0.02498358 0.014980828
000060 fd fa 39 3d cb c7 24 80 d6 11 39 bd 79 ec 96 3d
       0.045405377 -3.37775e-39 -0.045183025 0.07369322
000070 12 79 35 be 1c 3e f8 3d 83 89 0f 80 3f 11 97 be
       -0.17721966 0.121212214 -1.426862e-39 -0.29505345
000080 59 24 4b 00 83 ad e0 3e 0e e3 f7 3d fb 53 de 3e
       6.900701e-39 0.4388238 0.12103854 0.43423447
000090 4f 49 43 be 0a eb 3b be 7c 4a 79 be 37 32 cd 3d
       -0.19070934 -0.18351379 -0.2434482 0.10019343
0000a0 86 e0 56 be 23 71 06 80 a0 99 38 be c5 c6 b8 3e
       -0.20984086 -5.91599e-40 -0.18027353 0.3608915
0000b0 f7 fd 1c 3d 27 9a fa bd 3a 22 0b 00 3c e4 b5 be
       0.038328137 -0.122364335 1.022469e-39 -0.35525692
0000c0 8d 4c 08 00 e1 63 62 be 15 87 15 be e8 df c3 bd
       7.62145e-40 -0.22108413 -0.14602311 -0.09564191
0000d0 5f 1f e0 3e 5b 73 be be 2f bf df 3d a6 bb 32 bd
       0.43773934 -0.37197384 0.10925137 -0.043635987
0000e0 d4 fc 5c be f1 b9 0a 80 ff d8 d0 3d 28 da ce be
       -0.21580821 -9.85058e-40 0.10197639 -0.40400815
0000f0 b4 b2 d2 3e f4 27 96 3e b5 9c 31 80 9b ce a3 be
       0.41151965 0.29327357 -4.556155e-39 -0.31993565
000100 0a af 06 00 58 3d ca be 36 7d 8c 3e 7a df 57 3c
       6.13805e-40 -0.39499927 0.27439278 0.01317584
000110 57 b3 e2 3d 8a 3f 28 bf 07 e0 31 3e fb d7 6a be
       0.110693626 -0.6572195 0.17370616 -0.22933953
000120 ad 8f 87 3d fc 65 00 00 32 af 4c 3e 8c 30 00 be
       0.06619201 3.6585e-41 0.19988707 -0.12518519
000130 90 16 57 be 3e f1 96 3d ed bf 29 80 57 4a b2 bb
       -0.210047 0.07370232 -3.834105e-39 -0.005440991
000140 0c 45 02 00 2b 04 71 bd 1d cb b8 3c 41 a1 08 bf
       2.0844e-40 -0.058841866 0.02255779 -0.53371054
000150 3a c0 a6 be f9 53 2c be cd 6a 5f 3e 57 32 0f 3f
       -0.32568532 -0.16828908 0.21818085 0.5593619
000160 f1 19 db 3e 40 34 03 00 a4 4b 07 3e 95 92 df 3e
       0.4279323 2.9425e-40 0.13212448 0.4366652
000170 8b a7 b1 3d 9f 7b 62 3d 8f 54 44 80 31 2d 36 be
       0.086745344 0.055293676 -6.275148e-39 -0.17790677
000180 16 2e 05 00 d7 f8 93 3e 6f 67 35 bd 3f 5a d2 be
       4.7571e-40 0.28900787 -0.044288095 -0.41084477
000190 fe b0 d4 be fc 95 bf 3d 3d 6c 82 3b 7e d9 4f bf
       -0.41541284 0.09354779 0.003980188 -0.8119124
0001a0 6d e8 ce 3d 82 ff 29 80 88 c2 f1 bd 46 b8 7b 3e
       0.101029254 -3.856914e-39 -0.11804682 0.24582013
0001b0 35 03 00 be ad 56 b1 3e 6a d8 16 00 a9 1c 26 be
       -0.12501223 0.3463644 2.098016e-39 -0.1622187
0001c0 52 54 07 80 a9 1f ea 3c 8a 2c 76 3e c4 28 4a bc
       -6.73097e-40 0.02857955 0.24040428 -0.012338821
0001d0 f4 b3 fd 3e c7 99 13 3f 28 b6 13 be 60 c2 32 3e
       0.49551356 0.5765652 -0.14424956 0.1745696
0001e0 26 73 3e bd 12 a7 0a 00 2a de 1f 3e 16 ce f0 be
       -0.046496533 9.78288e-40 0.15612093 -0.4703223
0001f0 ac a2 5e be 29 7d 1c 3c b7 3d 2e 00 9a 4e 46 be
       -0.21741742 0.009551325 4.246572e-39 -0.19365922

backbone.1.conv.2.weight f4 [8]
000000 22 1b 03 3f d9 b8 f6 3e 46 dc 35 3f ff d3 05 3f
       0.51213276 0.48187903 0.71039236 0.52276605
000010 95 a3 0a 3f 60 3e 1b 3f 4a ac 10 3f 3e a9 03 3f
       0.54155856 0.6064205 0.5651289 0.5143012

backbone.1.conv.2.bias f4 [8]
000000 34 51 25 38 05 a0 02 39 a1 0a 11 ba 10 5f 68 ba
       3.9414692e-05 0.00012457378 -0.0005532895 -0.0008864263
000010 20 f8 a7 36 5b f0 eb 38 fe 7d 86 b9 3d 7f fa 39
       5.0058734e-06 0.00011250443 -0.00025652343 0.00047778516

backbone.1.conv.2.running_mean f4 [8]
000000 58 72 22 3f 05 62 81 bf 62 cb 51 3e fd 4f c1 be
       0.63455725 -1.0108038 0.2048774 -0.3775634
000010 40 fa 09 bf d3 a7 d3 3e a8 ee 2d bf 1a d1 2c 3f
       -0.53897476 0.41338977 -0.67942286 0.67506564

backbone.1.conv.2.running_var f4 [8]
000000 f8 58 d7 3d f4 c9 15 3e 8e a1 6e 3e c1 25 8b 3e
       0.10515016 0.1462782 0.23303816 0.2717724
000010 40 dc 54 3e f6 ef a2 3e 85 c8 b5 3e 77 79 3e 3e
       0.20787144 0.318237 0.35504547 0.18601023

backbone.2.conv.0.0.weight f4 [48, 8, 1, 1]
000000 a2 af 1c 3e 2e a5 80 bd da 74 25 3e 95 b7 90 be
       0.15301374 -0.062815055 0.16157857 -0.28265062
000010 e1 07 35 be 64 b2 9b 3d a7 4c 4a 3e fd f9 9f 3d
       -0.17678787 0.07602385 0.19755803 0.07811353
000020 e3 58 b9 3d 00 bf ae 3d b5 3b c6 3d 41 a1 94 3d
       0.09050157 0.08532524 0.09679357 0.07257319
000030 a4 ac d6 bd a1 5e b7 be 52 b2 20 be 98 67 ce bd
       -0.10482147 -0.35814384 -0.15693024 -0.10078353
000040 ab 41 ba bd 55 cf 70 3d c6 a8 77 be b4 44 de 3d
       -0.090945564 0.058791477 -0.24185476 0.10852948
000050 df 21 16 3d fb 34 f4 bd a7 f9 3f be a7 c4 2d 3e
       0.036653396 -0.11924168 -0.18747579 0.16969548
000060 b9 84 ee bd f0 b2 39 3e 22 ec 42 3e 43 03 04 bf
       -0.116464086 0.18134665 0.1903539 -0.51567477
000070 76 cf c8 3c 8d c9 00 be c0 a4 5d be 28 f4 fb be
       0.024512988 -0.12576886 -0.21644878 -0.49209714
000080 30 e7 9a 3d be f5 65 bd c0 f6 13 3e a4 16 74 be
       0.07563627 -0.05614256 0.14449596 -0.23836762
000090 79 16 02 be c5 ac 05 3e ce 51 bc 3d 17 31 67 be
       -0.12703885 0.13054188 0.091952905 -0.2257732
0000a0 be 99 a8 3d cc 55 00 bd 87 95 26 3e 10 19 00 be
       0.08232449 -0.031331822 0.16267978 -0.1250956
0000b0 62 36 7e bd 1d 29 6b ba 9c 00 70 3e 4d 59 03 be
       -0.062063582 -0.0008970665 0.23437732 -0.12827034
0000c0 c3 d9 b4 3c e8 85 c8 3d 63 2e 26 3e a0 a4 ff 3d
       0.022076493 0.097911656 0.16228633 0.124825716
0000d0 f4 09 91 bd 50 90 b8 be 2c 6f 16 be 10 72 49 bd
       -0.070819765 -0.36047602 -0.14690846 -0.049181044
0000e0 b3 e4 e1 3c 79 ec 41 3e b2 55 97 3d 8f ef 48 bb
       0.027574873 0.18937863 0.07389392 -0.0030660366
0000f0 e7 f2 69 3d 64 03 9f 3d 35 6e 7e bd d8 8f 30 3e
       0.057116415 0.077643186 -0.06211682 0.17242372
000100 e1 e2 3c bd 24 e8 10 bd 68 0f f9 3e ed 1c 3d 3c
       -0.046114806 -0.035377637 0.48644567 0.011542541
000110 0a 28 fa bd 23 d8 1a bc 82 26 c8 bd 36 cc 52 ba
       -0.12214668 -0.009450945 -0.0977297 -0.0008041294
000120 e4 73 09 bd 2c ef b2 3e ff 06 25 bb d3 cd 0f 3e
       -0.033557788 0.349481 -0.0025181172 0.1404336
000130 1c b3 25 be bb ed 2f bc c8 57 3a 3d b8 bc 82 bd
       -0.16181606 -0.010737832 0.04549387 -0.063836515
000140 c7 55 97 bd 50 7f db bd 7f 57 b9 3c c2 9d dc be
       -0.073894076 -0.10717642 0.02262473 -0.4308911
000150 bd a4 8e 3d 8e f7 1c 3d d3 01 88 bd c1 64 63 3d
       0.06965015 0.038322024 -0.06640973 0.05551601
000160 04 87 8b bd 4b 7a 83 3c 56 4c 97 be 10 d7 99 3e
       -0.068128616 0.016049525 -0.29550427 0.30046892
000170 70 81 37 3d 75 0b 27 be b6 dc ca bd 66 11 38 3e
       0.044801176 -0.16312964 -0.099053785 0.17975387
000180 f8 a1 2d 3e dc d0 de 3d 9a 52 1f be 4d 30 cd 3d
       0.16956317 0.108796805 -0.15558854 0.10018978
000190 0a 10 5d 3d e3 84 b8 3d 66 85 49 bd 25 67 5c bb
       0.053970374 0.09009721 -0.049199484 -0.0033630815
0001a0 c7 15 89 3e 17 db 5b be 68 50 a2 bc d2 38 f0 bd
       0.26774427 -0.21470295 -0.019813731 -0.117295876
0001b0 04 73 44 be 8e 1c 58 3d 80 24 17 3e 92 80 29 3e
       -0.191845 0.052761607 0.14760017 0.16552952
0001c0 6c b1 e0 bc 7b 3b 09 be e8 e5 ad 3d 2d 83 c6 3e
       -0.027428351 -0.13401596 0.08491117 0.38771954
0001d0 98 37 8c bb 4d bf e0 3d 36 95 e4 bc 1a 0c c9 be
       -0.004279088 0.10973988 -0.02790318 -0.39267045
0001e0 d9 21 d6 3c a8 8d 19 3e 8e cb 42 3e 39 ff 3f 3e
       0.026139187 0.14995444 0.19022962 0.18749703
0001f0 6a f5 95 be 83 cc 4e be 18 7a 1a 3d 83 5e 09 be
       -0.292888 -0.20195203 0.037714094 -0.1341496
000200 3b aa 9f 3e 1c ef 1f 3e 82 8d 25 3e fc 40 3d 3e
       0.31184563 0.15618557 0.16167262 0.18481821
000210 42 c4 28 3e 94 b3 cd 3d 74 37 02 3e bb 85 76 3d
       0.16481116 0.100440174 0.12716466 0.06018613
000220 3f f5 09 3d cb 3e 49 3d 69 ee f9 3c 77 98 8d be
       0.03368115 0.04913215 0.03050919 -0.27655384
000230 30 cf 3b be 00 69 18 3e 05 d3 34 bc 7f 84 57 bb
       -0.18340755 0.14883804 -0.011036639 -0.003288537
000240 03 a2 55 be 73 b0 f7 3d 67 ce 27 be c1 97 0a 3e
       -0.20862584 0.12094202 -0.1638733 0.13534452
000250 3e 1c 53 be 10 0b 05 be 64 c2 56 be b0 b9 63 3e
       -0.20616242 -0.12992501 -0.20972592 0.22238803
000260 01 ed 92 bd 0f 17 e2 3d a5 a9 70 be 5f 13 a5 3e
       -0.07174111 0.11039554 -0.23502214 0.3224134
000270 1d 98 04 3e 7a 5a 49 be b9 fb 40 be f7 b7 dd 3e
       0.12948652 -0.1966342 -0.18846025 0.43304417
000280 55 46 b3 3d d6 96 3a 3e 7a ba 40 3e 71 3e 82 3e
       0.08753649 0.18221602 0.18821135 0.25438264
000290 34 65 72 3c 67 ca 63 3d 00 54 10 3e de bc ed 3d
       0.0147946365 0.055612948 0.14094543 0.11608289
0002a0 78 85 cc 3d c6 21 29 bd 29 9b 75 3d dc da af be
       0.09986395 -0.041291974 0.059962425 -0.34346664
0002b0 8d 18 20 3e 0c ba 83 bd cb 63 b8 be ba 20 8d bd
       0.15634365 -0.0643197 -0.36013636 -0.06891008
0002c0 ab f5 9f 3d 59 1a d4 3d d4 4a 29 3d 45 ce c6 3d
       0.07810529 0.10356588 0.041331127 0.097073115
0002d0 65 6b 26 be b5 b3 ba bc a6 67 20 bd 73 99 ba bd
       -0.16251905 -0.02279077 -0.039161347 -0.09111299
0002e0 29 5d 7d 3e 2b b9 81 3b 61 d9 f8 3d e8 b5 5b 3d
       0.24742569 0.0039588413 0.12150837 0.053640276
0002f0 72 e1 93 3d c4 1d e4 bc 37 5f 8b bd 01 af b3 3c
       0.07220735 -0.027846225 -0.0680527 0.021934034
000300 57 c9 04 be f7 cb b5 bd 3f e7 c8 3d 69 34 3f 3e
       -0.1296743 -0.08876794 0.09809732 0.18672337
000310 e7 02 40 be 51 8b 9c bc d6 48 07 3d c5 63 99 bd
       -0.18751107 -0.0191094 0.033028446 -0.07489733
000320 51 fa 2b 3a 47 02 b5 be c1 f5 77 3e b8 48 c2 3c
       0.00065604324 -0.353533 0.24214841 0.023716316
000330 59 b8 0b 3e 04 cd 11 be 91 e5 cf bd 7a 6a 94 3e
       0.13644542 -0.14238364 -0.10151208 0.28987485
000340 e4 41 02 be 1b 50 b7 3c 86 d7 7f 3e fb 6d 9d 3c
       -0.12720448 0.022377064 0.2498456 0.019217482
000350 e1 30 02 be 69 de 59 3d b1 45 53 3e c9 7a 02 3e
       -0.12713958 0.053190622 0.20632054 0.12742151
000360 af 34 a1 be 48 c1 66 bc 08 25 c0 bd b2 32 44 3e
       -0.31485507 -0.014084168 -0.09382063 0.19159964
000370 e4 95 cf bb 88 16 40 3d 6b 33 b1 3e 4d b1 fd 3d
       -0.006335007 0.046896487 0.3460954 0.12387333
000380 3b 46 bc 3e 42 c0 0a 3c 5b 2c 52 be 2c 10 46 bd
       0.36772332 0.008468689 -0.20524733 -0.048355266
000390 d4 30 69 bc f2 ed 85 be 1c f2 5b bc bb e8 17 3e
       -0.014232833 -0.261581 -0.013424423 0.14834873
0003a0 d9 11 83 3d 0f 11 3c 3c b5 6e 38 3e b7 7d 67 3e
       0.063998885 0.011478676 0.18010981 0.2260655
0003b0 ed ee 75 3d 1e 27 ed 3d f3 ac df bb ba 63 9d 3b
       0.06004231 0.11579727 -0.006826037 0.004803148
0003c0 a0 8d 6c be 80 0e c0 bd 5a a0 9b be 65 72 a0 bd
       -0.231009 -0.09377766 -0.30395776 -0.07834319
0003d0 b8 ea 3f be 37 ef e9 3e 91 73 b9 3d 7f ea fe 3d
       -0.18741882 0.4569032 0.09055246 0.1244707
0003e0 5e 6d 17 3e ca 0a c0 bc 98 59 19 3d fe e0 58 be
       0.14787814 -0.023442645 0.03743896 -0.21179578
0003f0 72 0a 97 be 02 f6 19 3d 04 46 44 3c 8e 55 88 3e
       -0.29500157 0.037588127 0.011979584 0.26627773

backbone.2.conv.0.1.weight f4 [48]
000000 91 58 dc 3e 93 ea b6 3e 66 91 03 3e f6 23 09 3e
       0.4303632 0.3572584 0.12848434 0.13392624
000010 e0 3e 11 3e d8 8c 9b 3d 9d 77 98 3e cf 4e 0c 3e
       0.14184141 0.07595223 0.29778758 0.13701938
000020 87 fa c6 3e 90 00 53 3e ff 19 72 3e c3 d3 c2 3e
       0.38863012 0.20605683 0.23642729 0.38052186
000030 db 9b 8e 3d eb dd 06 3e bc 9d 5a 3e 73 7a c3 3e
       0.06963321 0.13170592 0.21349233 0.3817936
000040 f9 d3 3e 3e 81 7c 45 3e 36 26 c0 3e b0 e1 82 3e
       0.18635549 0.19285776 0.37529153 0.2556281
000050 3f 26 46 3e 1b 4a dc 3d 24 e1 a1 3d 3e a7 01 3e
       0.19350527 0.10756322 0.0790427 0.12661454
000060 5d 2a 39 3e ef 6d 0a 3e 1d 22 17 3e 8c d2 85 3e
       0.18082567 0.13518499 0.14759107 0.26137197
000070 be 9b bc 3d e8 2f 46 3d 5f b2 e4 3e fc 0c 74 3d
       0.09209393 0.04838553 0.44667336 0.059582695
000080 09 60 59 3e 54 3f bc 3e 3f 25 a8 3e 84 69 6a 3e
       0.21228041 0.36767066 0.32840917 0.22891814
000090 f5 10 b5 3e ab 92 c2 3e fe 9a 02 3e 8f be c4 3e
       0.353645 0.38002524 0.12754437 0.38426635
0000a0 bc 30 df 3e 0d f4 4d 3e 07 4a bf 3d 40 2e 3a 3e
       0.4359187 0.20112629 0.093402915 0.18181705
0000b0 e6 6b 53 3e 53 fd b5 3e 33 8c a6 3e 84 65 45 3e
       0.20646629 0.35544834 0.3252884 0.19277006

backbone.2.conv.0.1.bias f4 [48]
000000 85 2d 2b bd 70 71 9c bb 08 12 74 3e 9c 21 d5 3e
       -0.041791458 -0.004774265 0.23835003 0.41627204
000010 9a eb 91 3e a3 7e 8f 3e 71 1b 8e 3d cc f9 9d 3c
       0.28500062 0.28026304 0.06938828 0.019284151
000020 02 d6 9b bd 48 d8 7c 3d 9d 1e 91 bc d4 24 86 3d
       -0.07609178 0.0617297 -0.017714793 0.06549993
000030 3d 71 57 3e 35 0a 45 3e f9 10 02 3e ed de 67 bd
       0.2103929 0.19242175 0.12701787 -0.056609083
000040 fe 93 7e bd 62 41 4a 3e 84 91 2f 3d cd bf 9e 3e
       -0.062152855 0.19751504 0.042863384 0.31005707
000050 aa 27 b2 3e 80 60 2f 3e 8f 96 93 3e 2f 32 7a 3e
       0.34795886 0.17126656 0.28825805 0.24433206
000060 0c e7 fa 3d e5 05 ed 3c 5a bf 07 3e 1b dc b1 be
       0.122511 0.028933475 0.13256589 -0.3473824
000070 9d 22 94 3e a8 22 93 3e 62 56 29 3c 2f 18 7e 3e
       0.28932658 0.28737378 0.010335537 0.24813913
000080 31 fd c2 3d 17 66 8c 3b a1 a6 6e 3d 3d e3 1b 3e
       0.09520949 0.004284631 0.05826438 0.15223403
000090 e0 cd 31 b9 28 e5 78 3d 2e 05 79 3e dc 2d 56 3d
       -0.0001695673 0.060765415 0.24318382 0.05228983
0000a0 5b 0d 3e 3d af 34 f5 3d 77 c0 9e 3e c9 ed 17 3e
       0.046399456 0.11972939 0.31006214 0.14836802
0000b0 0b 51 fb 3d 9f ed 32 3b 64 fe 4b 3e 62 db fe 3d
       0.12271317 0.0027302278 0.19921261 0.12444188

backbone.2.conv.0.1.running_mean f4 [48]
000000 f9 aa 62 b7 7d 66 b7 b5 6b f1 d5 38 c2 93 88 b7
       -1.3510457e-05 -1.366439e-06 0.00010201599 -1.6281268e-05
000010 a3 a9 a4 b8 18 bb 93 b8 14 d6 97 b6 0d d5 5a 38
       -7.851727e-05 -7.044355e-05 -4.5250727e-06 5.217367e-05
000020 8b d7 ae b8 f5 31 8f b7 2e 05 95 38 ad eb 9e 38
       -8.3371146e-05 -1.7070191e-05 7.1058384e-05 7.577925e-05
000030 ee a8 be 37 cd 6e 2a 36 83 46 41 b9 46 10 b1 b8
       2.2728429e-05 2.5396469e-06 -0.00018432182 -8.443049e-05
000040 91 67 04 b8 e1 98 5a 37 74 ed b6 38 93 3e 1e 39
       -3.1567706e-05 1.30294075e-05 8.7226654e-05 0.00015091365
000050 0d bd 2a b8 fe 70 a2 38 a9 57 23 b8 cb 83 c7 b6
       -4.0707226e-05 7.7458084e-05 -3.894387e-05 -5.946005e-06
000060 cd 3a b7 b8 67 75 ca 37 12 5f 49 b8 05 88 e4 b7
       -8.7370725e-05 2.4134946e-05 -4.8010676e-05 -2.7243057e-05
000070 8b 33 d4 38 18 56 88 b8 2c 08 69 37 e2 14 6e 38
       0.000101185484 -6.5010216e-05 1.3889785e-05 5.676307e-05
000080 b3 18 c2 b6 73 1b f1 35 62 42 86 38 b2 a7 05 b8
       -5.784526e-06 1.7963888e-06 6.401983e-05 -3.186585e-05
000090 98 ae 8c b7 3b d7 85 38 74 be 91 b6 a1 48 2a 38
       -1.6770602e-05 6.382024e-05 -4.3435084e-06 4.05988e-05
0000a0 6d c5 bd b8 62 cb 07 39 18 3a fd b7 82 59 d3 35
       -9.048996e-05 0.0001295037 -3.0187002e-05 1.5746775e-06
0000b0 c7 2d c1 b7 d1 1c b6 38 0b 0a df b6 ac 9b d8 b8
       -2.302871e-05 8.683804e-05 -6.647087e-06 -0.00010328679

backbone.2.conv.0.1.running_var f4 [48]
000000 27 01 f8 3d 07 9d 9e 3d bc 98 c3 3d 9b cd 1c 3e
       0.12109595 0.07744794 0.09550616 0.15312807
000010 b3 b9 d0 3d 8c 29 9f 3d a5 dc ab 3d 24 a2 9e 3c
       0.10191669 0.07771596 0.08391694 0.019364424
000020 b8 2e 0a 3e 85 25 4d 3d 36 5a 76 3d 97 25 1f 3e
       0.13494384 0.05008461 0.060144626 0.15541683
000030 2e 8a dd 3c 2d 25 92 3d bd f3 a9 3d 6f de d8 3d
       0.027043428 0.07135997 0.082984425 0.10589301
000040 51 d5 07 3d 7b 0b 88 3d 62 b6 a9 3d c7 01 7e 3e
       0.03316242 0.06642815 0.0828674 0.24805366
000050 12 b6 f5 3c 2e 09 3a 3d ff 11 be 3c 46 a0 b9 3c
       0.029994044 0.04541891 0.02320194 0.022659432
000060 d0 26 97 3c d3 16 98 3d 55 92 42 3d 4e 9f 79 3d
       0.018451124 0.074262284 0.047502834 0.06094294
000070 2c 4e c7 3d a9 72 8f 3c 25 67 34 3e 94 4c c5 3d
       0.09731707 0.017510729 0.17617472 0.09633747
000080 f2 1b 6d 3d 94 c4 a0 3d d4 77 ed 3d 25 7e c7 3d
       0.05788798 0.07849994 0.11595121 0.09740857
000090 41 7d 06 3e 71 9a 15 3e fb e0 04 3d 77 92 0c 3e
       0.13133718 0.14609696 0.03244112 0.13727747
0000a0 94 75 f3 3c c1 74 ea 3d a4 8a 35 3d 26 6a b7 3d
       0.029719152 0.1144805 0.04432167 0.08955793
0000b0 1b 4c c2 3d a0 50 41 3e d8 af 00 3e 4e 4c d5 3d
       0.09487172 0.18878412 0.12567079 0.104149446

backbone.2.conv.1.0.weight f4 [48, 1, 3, 3]
000000 5d 9d 9d bb d7 1e f2 bd c7 38 15 be e5 6b d0 bd
       -0.004810019 -0.118222885 -0.1457244 -0.10176829
000010 63 5a 4d be d1 13 fb bd 83 e6 0b bc 34 12 0b be
       -0.20054011 -0.12259639 -0.008538845 -0.13581163
000020 34 a2 a6 bd fe 40 c3 bd 21 a6 62 bd d3 a5 01 bd
       -0.081364065 -0.09533881 -0.055334214 -0.031652283
000030 e2 25 13 be ee 2a 00 be 15 87 95 bd cf 64 d9 bd
       -0.1436992 -0.12516376 -0.073011555 -0.10614931
000040 9f da 21 be 72 05 f5 bd 59 c4 fb bd 2f b8 88 bd
       -0.15806054 -0.11963929 -0.1229331 -0.06675755
000050 43 f5 03 bc 35 d6 4d 3e a0 d5 d5 3e 07 6c 73 3e
       -0.00805408 0.20101245 0.41764545 0.23771678
000060 bb 01 83 bd c9 fd e2 bd ec e8 8a be 7d 09 0c 3e
       -0.063968144 -0.11083562 -0.2713083 0.13675494
000070 cc 91 7f 3e 0f fc 0f 3d f1 18 7e 3e 79 2b e7 3e
       0.24957961 0.03515249 0.24814202 0.45150355
000080 51 37 27 3d 07 f0 9a 3d d2 f7 16 3e d3 1f d2 bc
       0.04082424 0.07565313 0.14742973 -0.02564994
000090 18 2d fe bd b2 f3 9b be 05 fd 59 be de 1a 62 bd
       -0.12410945 -0.30459362 -0.21287926 -0.055201404
0000a0 72 9c 92 bd 8f da 9e 3c 02 8b f3 3d 85 29 9e 3e
       -0.07158746 0.019391326 0.11891748 0.30891052
0000b0 1c 88 3f 3e e2 b7 8d 3d 0d e7 7b 3e 5a 35 22 3e
       0.18704265 0.069198385 0.24599858 0.15840665
0000c0 0d 22 01 bd da f4 b0 bd 2d 41 03 3c f3 94 d3 bd
       -0.031526614 -0.08640452 0.008011145 -0.10331144
0000d0 0f 37 75 be a8 54 82 be f7 72 37 3d c6 d7 b1 bd
       -0.23946784 -0.25455213 0.044787373 -0.08683734
0000e0 e4 0e d9 bd 7f aa 18 3d 4f d3 27 be 67 4d 99 be
       -0.10598543 0.037271973 -0.16389202 -0.29941866
0000f0 5c 5a 89 3d f2 ac c0 bd cc 99 87 be 02 41 4d be
       0.06706688 -0.09407987 -0.26484525 -0.2004433
000100 03 69 ba 3c dc e6 cf bd 1a 5f 36 be 66 08 cc 3d
       0.022755152 -0.10151455 -0.17809716 0.099625394
000110 dc 09 0a be f6 dd 63 be 9d 66 68 3d 61 20 0b be
       -0.13480324 -0.2225264 0.056738485 -0.1358657
000120 f6 0e 08 3c df 18 ea 3d 54 46 ab 3d 27 f8 ea 3d
       0.008304348 0.11430525 0.083630234 0.114731126
000130 c1 16 85 3e 85 06 36 3e be 96 1a 3e 25 33 89 3e
       0.25993922 0.17775925 0.15096566 0.26796833
000140 64 13 13 3e 5e a4 1d be 29 bb 58 3e b0 1e 51 bd
       0.14362866 -0.15394732 0.21165146 -0.051054657
000150 16 cd 16 3d a0 00 23 3e 63 55 34 bd d8 0c a0 3d
       0.03681668 0.15918207 -0.044026744 0.0781495
000160 d3 58 c4 be 29 51 52 3d 85 25 dd 3d dc 9b 2c 3d
       -0.38349018 0.05134693 0.10798172 0.042140827
000170 2b b9 99 3d a6 a9 94 3d 43 ae 03 3e 9e 49 7f 3d
       0.07506021 0.0725892 0.12859444 0.062326066
000180 1f da 92 3d 6a b7 14 3e e1 07 fc 3d 63 41 41 be
       0.071705095 0.14523092 0.1230619 -0.188726
000190 e6 79 70 be 32 09 f2 bd 43 bf 20 be b6 83 31 be
       -0.23484 -0.1181816 -0.1569796 -0.173354
0001a0 8f cd 63 bd 0a 0e 08 bd c2 f4 0c bd 99 56 26 bd
       -0.055615958 -0.033216514 -0.034413107 -0.04060993
0001b0 d9 33 48 bd 2a 92 db 3d 4a 0a 4b 3d 43 fe 2b 3e
       -0.04887757 0.10721238 0.04957036 0.16796212
0001c0 8a 94 c8 be 27 4a 11 bd ab e1 ec bd 33 da 72 3e
       -0.39175826 -0.035471108 -0.1156648 0.23716049
0001d0 9b 57 2e bd f5 41 c3 bd 49 5d b1 3d 1f dd 75 3c
       -0.042564016 -0.09534065 0.08660371 0.015006333
0001e0 67 23 8b be 62 6b a9 3e e9 bd 8a bd 27 f0 6e 3b
       -0.27175447 0.3308974 -0.06774504 0.003645906
0001f0 6e ab 3d 3e 75 24 3d be 88 2d 7a bd 67 18 65 bd
       0.18522426 -0.18470939 -0.06107858 -0.055931475
000200 09 9b 89 3c c0 0c 11 3e df e3 b2 3e 03 47 20 3e
       0.01679756 0.1416502 0.34939477 0.15652089
000210 e4 b9 86 bd 92 7d 96 be d4 f4 05 be fa 83 be bd
       -0.065784246 -0.29392678 -0.13081676 -0.09302516
000220 e5 1c 1f bd 75 5e c1 3d 1c 97 45 be 4c 26 85 be
       -0.038845915 0.094418444 -0.19295925 -0.2600578
000230 2c c9 2e bd 1f 3f e6 bc c2 48 7f be 71 20 13 bd
       -0.04267232 -0.02810627 -0.24930099 -0.03591961
000240 f2 b3 02 bd 81 2a a6 bc 23 f4 e2 3d 94 29 bc bc
       -0.03190989 -0.02028394 0.11081722 -0.022969045
000250 7c d8 d8 3d 9a a9 34 3e 9f 84 08 3e ab 84 34 3e
       0.10588166 0.17642823 0.13331841 0.17628734
000260 25 d4 43 3e 20 4d ae 3d 37 01 cd 3d 19 b0 f7 bc
       0.19123895 0.08510804 0.10009997 -0.030235337
000270 d0 af 2b 3e a5 7d 6c 3e e0 f7 f9 3c 2e d8 c0 3d
       0.16766286 0.23094805 0.030513704 0.09416233
000280 00 74 37 3e fd a1 15 3d bc 7b 98 bd f4 8c 2b bd
       0.17915344 0.036531437 -0.074454755 -0.04188247
000290 7c bb da 3d 57 e9 2c bd b9 7b ba be be d2 bb bc
       0.10680291 -0.042214718 -0.36422518 -0.022927638
0002a0 a2 48 63 3d ca 40 2f be bd 77 58 bd 4b ca 4b bd
       0.05548919 -0.17114559 -0.052848566 -0.04975347
0002b0 b4 23 e4 bd c5 e5 6d bd ba a6 82 bd 3d 52 84 be
       -0.11139622 -0.058080453 -0.06379457 -0.25843993
0002c0 f3 ff 53 be ad 24 9c 3d cc 76 2e be fc 9f 4d be
       -0.20703106 0.07624183 -0.17037505 -0.2008056
0002d0 42 a3 bd 3d 15 87 f4 3d 84 1a 3c 3d 46 0c 2c 3e
       0.092596546 0.11939827 0.045923725 0.16801557
0002e0 34 20 c8 3e af 55 2f 3c 27 0c 0e 3e 3c a4 51 3e
       0.3908707 0.010701581 0.13871823 0.20472807
0002f0 17 5a a2 bd 90 f9 02 be c3 88 68 bd 97 96 e3 3d
       -0.079273395 -0.12790513 -0.05677105 0.11112707
000300 94 93 3d be 13 15 3f be 2d 09 7d 3e 07 e9 f3 bd
       -0.18513328 -0.18660383 0.24710532 -0.11909681
000310 e1 8d 6e be 2a d6 38 3d 2d 6f a6 3d f4 10 86 be
       -0.2329631 0.045126118 0.08126674 -0.2618481
000320 e8 66 41 3d 9a 62 51 be fa 74 f1 3e 6d 86 df bd
       0.04721728 -0.2044777 0.4715956 -0.109143116
000330 e6 c6 1a 3e 0f ec 42 be 84 59 c8 3c e9 2f 22 bd
       0.15114936 -0.19035362 0.024456747 -0.039596472
000340 62 e0 56 3d 7b 23 1a bd 6f da 88 3d f2 2c f1 be
       0.052460082 -0.037631493 0.06682288 -0.47104603
000350 16 a1 9e 3e d2 89 a8 bc 77 3a b8 3e b0 6f 88 be
       0.30982274 -0.02057353 0.35982105 -0.2664771
000360 ec 98 31 bd b2 d1 1c bd 01 05 0b 3e 35 62 9a bd
       -0.04335873 -0.03828592 0.13576128 -0.07538263
000370 b5 89 78 be d9 49 8a be f1 96 f6 3d cc 2d 90 3e
       -0.24271281 -0.27009466 0.120405085 0.2815994
000380 bf 02 d5 3d 88 6a 7f bb 3e 37 1a 3e 19 e3 d8 3d
       0.104009144 -0.003897341 0.15060136 0.105901904
000390 fb 1c 43 3d 83 19 a9 3e e6 f9 47 3e 66 d3 82 3d
       0.04763506 0.33027276 0.19528922 0.06387977
0003a0 75 c7 63 3e 0e 07 e4 3d ae 3e d6 3b 96 a2 1e be
       0.22244056 0.11134158 0.0065382337 -0.15491709
0003b0 8e e9 d1 bd b2 ec d5 3d 07 95 9e 3e 51 3f ff 3d
       -0.10249625 0.10445537 0.30973074 0.124632485
0003c0 e7 f8 bb bd ad 3d 28 be 7d 43 e2 bc 66 5c 61 3d
       -0.09178334 -0.16429777 -0.027620072 0.05501976
0003d0 1f 8f d8 3d 1a 61 13 3e ab ba 90 3d ad 4c 75 3e
       0.10574173 0.1439251 0.07066854 0.2395503
0003e0 b7 74 0a 3e 0c e9 28 bd 50 db 78 3d cd 96 34 bd
       0.13521086 -0.041237876 0.060756028 -0.044089127
0003f0 ef af bc 3d 77 c6 4e 3e c1 04 d0 3d dc b4 b2 3d
       0.09213244 0.20192896 0.10157157 0.087259024

backbone.2.conv.1.1.weight f4 [48]
000000 c2 21 11 3f 32 9c 9e 3e e1 e1 ab 3e ce 0d 66 3e
       0.56692135 0.30978543 0.3357077 0.22466204
000010 f5 ba b3 3e d7 e7 b3 3e 23 75 3d 3e 69 e7 8d 3e
       0.35103574 0.35137817 0.18501715 0.27715614
000020 ad cb 55 3e 81 6e 90 3e 04 56 17 3e 6d ce 02 3f
       0.20878477 0.28209308 0.14778906 0.5109623
000030 93 00 89 3e 31 db 70 3e 1f a1 c8 3e f8 fa b6 3e
       0.2675825 0.23521115 0.39185426 0.3573835
000040 6e fe 99 3e 82 42 80 3e 1e 6d 07 3f e0 3d 16 3f
       0.30076927 0.2505074 0.52900875 0.58688164
000050 35 23 7f 3e 01 51 4c 3e 13 4a 9e 3e 95 a7 af 3e
       0.24915774 0.19952776 0.3091589 0.34307542
000060 c3 6d bb 3e cf 1a 55 3e 2b b3 ac 3e e0 03 51 3e
       0.3660718 0.20811008 0.33730444 0.20411634
000070 35 b5 77 3e e1 da 7f 3e eb 9c ff 3e 14 62 51 3e
       0.24190219 0.2498584 0.49924406 0.2044757
000080 db 5b 9e 3e fc 31 5b 3e 7e 7d 71 3e 40 c2 bb 3e
       0.30929455 0.21405786 0.23583028 0.36671638
000090 be 40 39 3e ae 53 c1 3e ae 97 b4 3e d1 ca af 3e
       0.18091103 0.37759155 0.35271972 0.34334424
0000a0 0f 81 e3 3e 11 43 85 3e 8e fb c5 3e c3 45 bb 3e
       0.444344 0.2602773 0.38668483 0.3657666
0000b0 c8 24 b0 3e 53 60 36 3e 68 15 a8 3e 86 85 98 3e
       0.34403062 0.17810182 0.32828832 0.2978937

backbone.2.conv.1.1.bias f4 [48]
000000 1a 89 93 39 3e a7 95 bb c4 29 1f 3d 60 10 36 3f
       0.00028140174 -0.004567056 0.03885819 0.71118736
000010 1f 9e 0b 3d 5d 84 47 3c f5 83 36 3f 62 95 e4 be
       0.034086343 0.012177554 0.712951 -0.4464522
000020 64 58 17 3e 41 6c b1 bc fc 57 82 3d d9 71 21 3e
       0.14779812 -0.021658065 0.06364438 0.15766086
000030 b4 ec 0c bd 4f 6c 0e bc 12 77 39 bb 35 4d 1f 3d
       -0.034405425 -0.008692815 -0.0028299731 0.03889199
000040 16 a6 a7 3d 7a e7 81 bd d1 40 b0 3d 8e a1 ae bc
       0.08185975 -0.06342979 0.08606113 -0.02131727
000050 d3 0f 05 3f ae 85 0f bd 2b 9a a2 bc 08 5f cf bc
       0.5197727 -0.035039596 -0.019848904 -0.02531387
000060 59 92 1b 3b 3f 71 ef bb 78 18 19 bc e1 11 03 3d
       0.0023738353 -0.007307201 -0.009344213 0.031999473
000070 38 f5 6b 3e 77 88 51 bd 96 ad da bc aa 8e c8 bc
       0.23042762 -0.051155534 -0.0266941 -0.02448209
000080 0b b1 86 bc 89 82 23 3f 29 d2 2d 3f 1c 5e 1c bd
       -0.016441843 0.63871056 0.67898804 -0.038175687
000090 ab 04 0d 3f 27 02 be 3e 74 27 41 bc c5 05 67 3e
       0.5508525 0.37111017 -0.0117891915 0.22560795
0000a0 40 21 26 3e 4f 83 a4 3c e4 07 0e 3d f1 10 16 bd
       0.16223621 0.020082144 0.034675494 -0.03663725
0000b0 5c a7 fd bd 1c 65 93 3e 51 7c d6 3d d4 25 7a bd
       -0.12385437 0.28788078 0.1047293 -0.061071232

backbone.2.conv.1.1.running_mean f4 [48]
000000 88 4b da bd f1 4d b9 bd 34 0b 56 3d 3a ff 0d 3f
       -0.10658938 -0.09048069 0.052256778 0.5546757
000010 fc e7 19 bd 0b 30 8c bd 81 96 e5 bd 46 8b 16 bd
       -0.037574753 -0.06845101 -0.11210347 -0.036753915
000020 c4 38 05 3e 6c 42 50 bc bd ef 56 3d 06 d0 21 be
       0.13009936 -0.012711149 0.052474726 -0.15802011
000030 e5 aa 6d bc 2b 1f 0d ba c2 e0 0d 3c 71 df a1 bd
       -0.014506076 -0.00053833675 0.0086595435 -0.07903946
000040 44 af 08 3d b4 54 3c 3e 21 ad af bd f6 a9 ad be
       0.03337027 0.18391687 -0.085779436 -0.33918732
000050 6e 72 be 3e 3e 92 b3 bd 3a 50 97 3b 47 b7 e3 bb
       0.37196678 -0.08768128 0.004617718 -0.0069493386
000060 a3 dd 6d bb b3 05 8a 3d 5f ad f3 ba ab 56 5d 3b
       -0.0036295436 0.06739368 -0.0018591097 0.0033773582
000070 b2 99 90 3e 74 83 ed 3b a8 9a 1f be 90 f5 cf 3d
       0.2824226 0.0072483364 -0.1558634 0.10154259
000080 05 8e 6c 3d 6d e5 d6 bd 94 7a 3a be 72 14 02 bc
       0.057752628 -0.10492978 -0.18210822 -0.007939445
000090 05 99 f4 bd 0d cd 19 be bd 85 11 3b eb 9d 3d 3e
       -0.11943249 -0.15019627 0.0022204958 0.18517272
0000a0 8e 95 22 be 3d 7d 15 3e 45 4d 71 bd cb 0d 34 3d
       -0.15877363 0.14598556 -0.05891158 0.043958467
0000b0 49 28 32 3d b2 4f 36 3e 21 be 6d be 76 5e 7d 3d
       0.04349545 0.17803839 -0.2321706 0.061857663

backbone.2.conv.1.1.running_var f4 [48]
000000 30 e7 c4 3c 0e b0 63 3c 1e 13 b6 3b ff 45 7a 3c
       0.02403602 0.013896955 0.005556478 0.015275477
000010 d1 ae 4a 3c cd 20 47 3b ee 08 ad 3c 6e c0 39 3b
       0.012370781 0.003038454 0.021122422 0.0028343457
000020 90 1b 33 3d f8 97 19 3b 58 b1 8d 3b a8 c8 20 3d
       0.043727458 0.0023436528 0.0043241195 0.03925386
000030 e7 27 36 3a b6 32 00 3b 43 97 51 3c 4f 6e 58 3c
       0.0006948695 0.0019561476 0.012792411 0.013209893
000040 0b 37 98 3b 38 7e 2a 3c c4 f7 a6 3c c3 3d eb 3c
       0.0046452335 0.010406069 0.020381816 0.028715974
000050 d6 a8 b0 3c e6 61 82 3b 78 5f 98 3a 85 11 67 3b
       0.021564882 0.0039789556 0.0011625132 0.0035258245
000060 54 7f 16 3c 98 4b d6 3b 4f 7a 86 3b b0 1e 4a 39
       0.009185631 0.006539773 0.004103936 0.00019275653
000070 be 81 70 3b bd f0 bc 39 e9 ca 04 3d 30 cb 5d 3a
       0.0036698426 0.00036037518 0.032420073 0.0008460758
000080 41 fa b9 3b 54 f8 c2 3c 95 be 0e 3d 8f c1 33 3c
       0.0056755845 0.023800053 0.034849722 0.010971441
000090 5d db 3d 3c 9a 6b 29 3d 74 d3 1d 3b 41 e9 a9 3d
       0.011587945 0.041362382 0.0024082335 0.08296443
0000a0 d9 7a 24 3d 54 80 ba 3b 68 bd 81 3b fc 86 cf 3b
       0.04015622 0.0056915674 0.0039593466 0.00633323
0000b0 cd 37 a9 3b 69 62 cf 3c 62 26 81 3c 98 cf 33 3b
       0.0051641227 0.02531548 0.015765373 0.0027436968

backbone.2.conv.2.weight f4 [8, 48, 1, 1]
000000 37 15 36 3e 82 9d 49 3e 62 31 01 3d 9c f0 d2 3d
       0.1778153 0.1968899 0.031541236 0.10299799
000010 b2 0b b6 3e a2 f3 1c bc 94 b5 80 3e 2b 79 81 be
       0.35555798 -0.009579571 0.25138533 -0.25287756
000020 6a 62 22 be 78 56 84 bd c2 89 92 3d bb 96 ab 3e
       -0.15857854 -0.06461805 0.071551815 0.33513436
000030 e2 55 de 3b 9d a1 72 bd 31 95 04 3e e9 7f 80 3e
       0.0067851404 -0.059236158 0.12947537 0.25097588
000040 38 47 5a be 90 0a 15 bd 13 ec 60 3e 2c 23 e0 3e
       -0.2131623 -0.036387026 0.21965055 0.43776834
000050 5f d7 6f 39 b3 49 48 3c 03 52 a8 bc 5e bc 2f 3c
       0.00022873048 0.0122246025 -0.020546919 0.010726063
000060 c3 26 f5 3d fc 01 18 3c a9 8b 23 3e f8 d7 18 be
       0.11970284 0.009277817 0.15971245 -0.14926136
000070 05 79 d6 bd 26 a7 54 bd be df 6f bd 81 83 4d bd
       -0.104723014 -0.051917218 -0.058562987 -0.05017424
000080 0c b6 91 bd ee 24 a7 3e f4 b1 3b 3e 54 21 60 bd
       -0.07114801 0.32645363 0.18329602 -0.054719284
000090 59 cf bf 3d 2b 8a 56 3e c3 d0 05 3d 78 e2 c6 bc
       0.0936572 0.20951144 0.032669794 -0.02427791
0000a0 64 9b 42 3e 83 62 b6 3c a0 86 d0 3d 62 87 82 bc
       0.1900459 0.02226377 0.10181928 -0.015933696
0000b0 60 ed 7d bd 5d 09 3b be cd 67 9d 3d 27 32 32 bd
       -0.061993957 -0.1826529 0.07685814 -0.04350486
0000c0 cc 59 70 3d 32 26 40 3e e9 83 7a 3e 84 e3 bf be
       0.058679387 0.1876457 0.24464382 -0.37478268
0000d0 43 6a e4 3d fa a5 3b 3e ac be 01 3e a0 aa b8 bd
       0.1115308 0.18325034 0.12670392 -0.09016919
0000e0 c0 20 e0 3c 60 7b 6b bd 50 a3 72 3c 20 14 c9 bd
       0.027359366 -0.057490706 0.014809445 -0.09818292
0000f0 c0 a3 87 bd 82 95 f6 bd 1b 21 90 3d 02 42 1e 3e
       -0.0662303 -0.12040235 0.07037564 0.15454867
000100 46 6b a9 bd 5f 4f 77 3d 29 c3 03 be d8 c4 3d 3c
       -0.08272414 0.06037843 -0.12867416 0.011582576
000110 16 a6 88 bd b4 f1 22 be a0 a0 0a 3d 04 a8 50 bd
       -0.066723034 -0.15912515 0.03384459 -0.050941482
000120 d7 21 f7 3c 3e ca be bb e4 0a 1f 3e ff 44 64 bd
       0.030167503 -0.005822449 0.15531498 -0.055729862
000130 3e e5 37 3e e3 fb c1 bd 26 75 83 3d e1 25 0d be
       0.17958543 -0.09471872 0.06418829 -0.13783981
000140 12 9b f3 bd e4 f1 f2 3d 77 c5 03 be 77 42 bc bd
       -0.11894812 0.11862543 -0.12868296 -0.09192365
000150 b2 45 c7 3e 75 36 b5 be fb 5a 26 3b e7 9a 8c be
       0.3892036 -0.3539311 0.0025383818 -0.2746193
000160 da 25 d5 bd 7a 7b ad 3d ad 3f 04 3d 9a 73 23 be
       -0.1040761 0.08470817 0.03228729 -0.15962067
000170 40 69 cb bd a5 ef 42 be 52 08 8b bd 56 66 6b be
       -0.09932184 -0.1903673 -0.06788696 -0.22988257
000180 05 12 1f 3e fa 69 39 3d f1 5e 53 bc 4d cf 87 be
       0.15534218 0.045267083 -0.012901054 -0.26525345
000190 8d 5b 71 3e 06 c5 b6 be 96 9b d2 bd 13 a1 5e 3d
       0.2357008 -0.35697192 -0.10283582 0.05435283
0001a0 04 f7 e7 bd f8 18 49 3e 4c 2e 84 bd 5c 4a 95 be
       -0.11326411 0.19638431 -0.06454143 -0.29158294
0001b0 7e db 5c 3e 5d 9e 49 be f8 5f fb bd 7e 52 c0 3c
       0.21568105 -0.19689317 -0.12274164 0.023476835
0001c0 0c 33 e6 3d 54 0d cf bd 27 b1 d8 3d 14 79 b7 3a
       0.11240205 -0.10109964 0.10580664 0.0013997876
0001d0 5c 50 c8 3d 29 74 24 3d 57 58 62 3e 56 0d 8b 3e
       0.09780952 0.04014984 0.22104011 0.27158612
0001e0 e9 54 bd bd b8 3f 20 be d6 09 57 be 2d bf 0d 3e
       -0.09244711 -0.15649307 -0.20999846 0.13842459
0001f0 1a 87 38 3e c7 1d 43 3e 95 46 68 3d 8a 60 da 3c
       0.18020287 0.19054328 0.056707937 0.026657362
000200 0b ee 83 be 6f 8c 84 3e b8 74 17 3e 0a 1b 1d be
       -0.2576755 0.25888392 0.14790618 -0.15342346
000210 73 08 87 bd b1 43 3b 3e 6c 3a 83 3e 37 9c 11 be
       -0.065934084 0.18287541 0.2563051 -0.14219747
000220 05 11 c8 3d 97 98 32 be 68 20 00 3e a4 33 2b be
       0.09768871 -0.17441021 0.12512362 -0.16718918
000230 34 bf 90 be 2b 9c 5c 3e 6b e0 86 be 58 45 47 3e
       -0.28270876 0.21543948 -0.26343092 0.19460046
000240 48 1e 9c 3b d3 51 5e 3e 7c 39 35 3e d3 c1 9c 3e
       0.004764352 0.21710901 0.1769771 0.30616626
000250 97 cb 20 be 61 83 15 3e 0e 5b 17 bd df fa 10 3c
       -0.15702663 0.14600898 -0.03695207 0.008848875
000260 b6 ae 02 be b5 f2 c3 3c dd 0d 3a 3e b6 65 5c be
       -0.1276196 0.023919443 0.18169351 -0.21523175
000270 05 a5 18 bd 3b cd 25 3d 69 9c 46 3e fa 91 7d 3d
       -0.03726675 0.040478926 0.19395603 0.061906792
000280 a0 27 71 3c 32 91 85 3c 2b ae 43 3d 15 49 80 be
       0.01471892 0.016304586 0.04777352 -0.25055757
000290 ef fb e2 bd 73 da 55 3d 8f c3 a2 3d 33 72 90 3d
       -0.11083209 0.052210283 0.07947456 0.07053032
0002a0 22 61 39 3e bd 63 e4 bd 41 f4 04 3e b5 aa 88 3d
       0.1810346 -0.11151836 0.129838 0.06673185
0002b0 90 73 02 be 25 62 e3 bd 3b 43 68 3e 8c 93 b4 3d
       -0.12739396 -0.11102704 0.22681896 0.08817205
0002c0 88 00 b6 bd 3c d8 dd bd 86 35 81 3e 69 f0 d0 bc
       -0.0888682 -0.10832259 0.25236148 -0.025505261
0002d0 e7 c5 48 3d 51 c4 6c 3e 09 d5 80 3d f9 f7 c3 bd
       0.04901686 0.23121764 0.06290633 -0.095687814
0002e0 ca ab 13 be b2 34 97 3e 8b 84 ac 3e 9b eb 34 3c
       -0.14421001 0.2953239 0.33694872 0.011042501
0002f0 1b 2a 40 bd 24 95 a2 3b fa 5a 9f be 7e cd 15 3d
       -0.046915155 0.0049616266 -0.31124097 0.036572926
000300 4e 6a ef bc 15 37 12 be f5 b5 06 3e 25 da b5 3d
       -0.029225495 -0.14278825 0.13155349 0.088794984
000310 60 4d 50 3d 0e 62 8f 3d 06 b7 5c be f2 25 26 3d
       0.05085504 0.07001124 -0.21554193 0.04056353
000320 cd 30 c5 bc 80 0a 8e 3c b1 f0 28 3e ac a1 33 3e
       -0.024071122 0.017338991 0.16498066 0.17542142
000330 45 50 1f 3e 0a b6 47 3c 5a 55 77 3e 1b 57 6d be
       0.15557964 0.012189398 0.24153653 -0.2317776
000340 b5 df 91 bd 5d 04 55 be 61 17 09 bd ac 85 64 be
       -0.07122747 -0.20802446 -0.03346956 -0.22316617
000350 71 82 46 be a6 0b 49 3a 46 1e e2 3d 65 f1 c2 3d
       -0.19385697 0.0007669277 0.110409304 0.095186986
000360 99 6d 79 3e e9 0c 54 3c d7 0f 81 3e db 4a 04 be
       0.24358214 0.012942531 0.25207397 -0.1291918
000370 eb 00 a4 bd b0 77 95 bd 19 ea 57 be 0d 91 6d bd
       -0.080079876 -0.07298219 -0.21085395 -0.05799966
000380 11 c9 2b 3e 4a 14 21 be d4 33 12 3e 7b aa 40 3e
       0.1677592 -0.15730396 0.14277583 0.18815033
000390 b9 e8 3b bb 70 4d 08 bd 37 85 3a 3e 4d 84 8a bd
       -0.002867265 -0.033276975 0.1821488 -0.067635156
0003a0 52 ac 00 be 4c d7 02 3c 97 d6 c3 bc f7 f2 be 3d
       -0.12565735 0.007985901 -0.023906035 0.093236856
0003b0 a4 e4 0d 3e 41 09 47 3e b0 19 6c be a8 0a 44 be
       0.1385675 0.19437124 -0.23056674 -0.1914469
0003c0 72 b7 90 3d c4 1a 81 bd 99 7d 61 3e 33 ee 70 3c
       0.070662394 -0.06303933 0.22020568 0.014705229
0003d0 1f e9 67 3e 9f 9c 09 3e aa ca 57 3e 6a b8 fd bd
       0.22647522 0.13438652 0.21073404 -0.1238869
0003e0 7d 6d 90 be 24 98 23 3e ff b7 f3 bc 04 39 c6 be
       -0.28208533 0.15976006 -0.029750822 -0.38715374
0003f0 31 74 90 3e ca e7 73 3d 90 1e 33 3e 7e c0 d2 bd
       0.28213647 0.059547223 0.17492127 -0.10290621
