ML Model/tv_detection_epoch_150/e-60-0.775.pth (torch, 508349 bytes, 205 tensors)

backbone.0.0.weight f4 [16, 3, 3, 3]
0	0x0003623c	3.10746e-40
1	0x00048282	4.1416e-40
2	0x000416f4	3.75576e-40
3	0x0003d4f3	3.51898e-40
4	0x00030d21	2.80216e-40
5	0x80064500	-5.75766e-40
6	0x0002decb	2.63594e-40
7	0x8001e62c	-1.74406e-40
8	0x800509be	-4.62672e-40
9	0x0002a5db	2.43169e-40
10	0x00046da3	4.06672e-40
11	0x00022264	1.96008e-40
12	0x80033be2	-2.96988e-40
13	0x80052efe	-4.76035e-40
14	0x80024acc	-2.10503e-40
15	0x00022bce	1.99385e-40
16	0x80050183	-4.5972e-40
17	0x8001bddb	-1.59943e-40
18	0x800073fb	-4.1606e-41
19	0x0004afc9	4.30402e-40
20	0x00014cda	1.19405e-40
21	0x8000e8f9	-8.3575e-41
22	0x8003612b	-3.10364e-40
23	0x8005a9f5	-5.20147e-40
24	0x00030fe2	2.81204e-40
25	0x0000195c	9.097e-42
26	0x80016b30	-1.30287e-40
27	0x3bea27fc	0.00714588
28	0x3ca7d172	0.020485613
29	0xbce99405	-0.028512964
30	0x3df5c62d	0.1200069
31	0x3eb436f7	0.35198185
32	0x3be0c3cc	0.0068592783
33	0xbe367e9c	-0.17821735
34	0xbe5f1661	-0.2178588
35	0xbce8f0c5	-0.02843512
36	0xbd8659f1	-0.06560124
37	0x3c542ce5	0.012950157
38	0xbdfbcfca	-0.12295492
39	0x3e881797	0.26580498
40	0x3f342ed0	0.7038393
41	0x3d911997	0.07084959
42	0xbeafdac2	-0.34346586
43	0xbf12b9a3	-0.5731451
44	0xbdedef79	-0.116179414
45	0x3e031375	0.12800391
46	0x3e10af4b	0.14129369
47	0x3d88d582	0.066813484
48	0x3e217ca9	0.1577021
49	0x3e99973e	0.299982
50	0x3dd31029	0.10305817
51	0xbe09729f	-0.1342263
52	0xbe4f0922	-0.20218328
53	0xbdb34b41	-0.08754588
54	0xbdb134ae	-0.08652626
55	0x3df381b6	0.11889975
56	0x3d261341	0.040545706
57	0xbec3bcf2	-0.3823009
58	0x3f456f78	0.7712321
59	0xbe5a8dad	-0.21343108
60	0xbf2615ec	-0.648772
61	0x3f6cedd9	0.92550427
62	0xbe783b72	-0.24241427
63	0xbe02cce6	-0.12773475
64	0x3e309ce2	0.17247346
65	0xbd0b8a4a	-0.03406743
66	0xbf50f495	-0.816232
67	0x3faa19f8	1.3289175
68	0xbef0358e	-0.4691586
69	0xbf84416a	-1.0332463
70	0x3fb9a4c3	1.4503406
71	0xbee96509	-0.45584896
72	0xbd2dcd91	-0.04243237
73	0xbc53cac0	-0.012926757
74	0x3d609fb6	0.054839812
75	0xbe5c16ee	-0.21493122
76	0x3ed4431a	0.41457444
77	0xbde023c2	-0.1094432
78	0xbe8ff975	-0.28120008
79	0x3ee741ad	0.45167294
80	0xbe129603	-0.14315037
81	0xbd3a37ba	-0.0454633
82	0xbc77ad1e	-0.015116958
83	0x3d44a607	0.0480099
84	0x3cef79fb	0.02923297
85	0x3e4f02de	0.20215937
86	0xbea44e50	-0.32090998
87	0x3c0829a0	0.008310705
88	0x3ea0b301	0.3138657
89	0xbea60a80	-0.32429886
90	0xbc8297a3	-0.015941447
91	0xbce22d19	-0.027609395
92	0x3db62e28	0.08895522
93	0x3d15eaa0	0.03660071
94	0x3f0c067e	0.54697406
95	0xbf15ed73	-0.58565444
96	0x3d5dd708	0.054160148
97	0x3f285f8d	0.657708
98	0xbf27a4f3	-0.6548607
99	0x3be75c01	0.0070605283
100	0x3ca53840	0.020168424
101	0xbd2997e6	-0.041404627
102	0x3dc08b7d	0.09401605
103	0x3e1886fa	0.1489524
104	0xbe41d5c1	-0.18929197
105	0x3d268395	0.04065283
106	0x3e11549d	0.14192434
107	0xbe4d0fc1	-0.20025541
108	0xbdcfd7eb	-0.10148605
109	0xbd35aea7	-0.044356015
110	0xbdb58d2e	-0.088648185
111	0x3cbceff5	0.02306364
112	0xbcc2cd2a	-0.02377947
113	0xbe0832d8	-0.13300645
114	0x3e27626d	0.1634614
115	0x3c31831b	0.010834481
116	0xbe465354	-0.19367725
117	0x3d719cea	0.058987536
118	0x3d223bb1	0.039607707
119	0xbd871590	-0.065959096
120	0x3e21d70e	0.15804693
121	0xbdf41679	-0.11918349
122	0xbe8e3ef5	-0.27782407
123	0x3e3debc9	0.18546976
124	0xbe045201	-0.12921907
125	0xbeec71ae	-0.4618048
126	0x3d7818a8	0.06057039
127	0xbd382940	-0.044961214
128	0xbe3c1395	-0.18366845
129	0x3d465c79	0.048428033
130	0xbdddd409	-0.10831458
131	0xbe62850d	-0.22121067
132	0xbc85386f	-0.016262261
133	0xbe059f9d	-0.13049169
134	0xbe752a3a	-0.2394189
135	0x3e4b2c8b	0.1984121
136	0x3e3b8cca	0.18315426
137	0xbe0d45ac	-0.13796109
138	0x3dbc4128	0.09192115
139	0x3f14b686	0.5809101
140	0x3e8d0d0e	0.27549022
141	0xbe57c0ea	-0.21069685
142	0x3f02bcc4	0.51069283
143	0x3f2317f7	0.6370844
144	0x3e013b7b	0.12620346
145	0xbd06cee3	-0.032912146
146	0x3ddefc56	0.10887973
147	0x3cf7c07e	0.030243155
148	0xbe35fc58	-0.17772043
149	0xbd2b51e1	-0.041826133
150	0xba2905b5	-0.0006447689
151	0xbe276cc5	-0.16350086
152	0xbd407f4f	-0.04699641
153	0xbe798bc4	-0.24369723
154	0xbe2bbb33	-0.1677063
155	0x3dbed1f1	0.09317387
156	0xbe471104	-0.19440085
157	0xbf0acf9a	-0.54223025
158	0xbe805320	-0.2506342
159	0x3d215e22	0.039396413
160	0xbf01ebec	-0.50750613
161	0xbf0c8bb1	-0.5490065
162	0x3e00f924	0.1259504
163	0x3dfb7f42	0.12280132
164	0x3d7c2e00	0.061567307
165	0x3f0634d3	0.52424353
166	0x3bc21a9e	0.005923583
167	0xbdc6640e	-0.09687053
168	0x3dec5bd6	0.11540954
169	0xbdaabbe2	-0.08336617
170	0x3b16dab7	0.0023018548
171	0xbbc437db	-0.005988104
172	0x3c999e11	0.01875213
173	0xbb123d0c	-0.0022314219
174	0x3f6b5566	0.9192718
175	0xbddd4d9f	-0.10805821
176	0xbe9eb5b6	-0.3099801
177	0x3e2d2105	0.16907127
178	0xbe6bed91	-0.23039843
179	0xbd6b3fde	-0.057433955
180	0x3d92ac04	0.071617156
181	0x3d87fa49	0.06639535
182	0x3c7d45a3	0.015458497
183	0x3e8da6b1	0.27666238
184	0x3d90ed35	0.07076494
185	0x3ca10b8d	0.019658828
186	0xbd46c2fe	-0.048525803
187	0xbdd135cf	-0.10215341
188	0xbcd5479f	-0.026035128
189	0x3c1994f7	0.009373895
190	0x3b76872b	0.0037617187
191	0xbdb29bc7	-0.087211184
192	0xbcb4c5d4	-0.022066988
193	0x3dba0b9d	0.09084246
194	0x3e82c277	0.2553899
195	0xbcb2869c	-0.021792702
196	0x3dc2d3c0	0.09513044
197	0x3eb7c58a	0.35892898
198	0xbdac476b	-0.084120594
199	0xbe33f645	-0.17574413
200	0xbe593782	-0.21212581
201	0xbd6145db	-0.05499826
202	0x3d833249	0.064060755
203	0x3e922f29	0.28551605
204	0xbcaf7064	-0.021415897
205	0x3e23dc62	0.16002038
206	0x3ec024cd	0.37528077
207	0xbce846b7	-0.028354032
208	0x3cb2c091	0.021820338
209	0x3caad2a4	0.020852394
210	0x3cff954d	0.031199122
211	0x3e3708af	0.17874406
212	0x3e9c841a	0.30569535
213	0x3d925e13	0.071468495
214	0x3e65e57e	0.22450826
215	0x3ebc658c	0.36796224
216	0x3d706848	0.0586932
217	0x3d4dc75b	0.05023895
218	0xbe1644c6	-0.14674672
219	0xbe2e60f5	-0.17029174
220	0x3f2a4eb7	0.6652636
221	0xbf075f13	-0.52879447
222	0x3cebbde0	0.028777063
223	0x3f39fa38	0.7264743
224	0xbf2bee2f	-0.67160314
225	0xbd138383	-0.03601409
226	0x3e2c518b	0.16827981
227	0xbe5b60e6	-0.21423683
228	0xbe0bc7b0	-0.13650393
229	0x3f861d17	1.0477628
230	0xbf6b6ebe	-0.91965854
231	0xb90ef0f1	-0.00013631933
232	0x3f83242d	1.0245415
233	0xbf783a1f	-0.96963686
234	0x3d8b9311	0.0681516
235	0x3c976372	0.018480036
236	0xbc208969	-0.009798386
237	0xbdd9b1b7	-0.106295995
238	0x3ecbbf4e	0.3979439
239	0xbeb2be63	-0.3491088
240	0x3bb0e93c	0.0053988975
241	0x3ed0f71c	0.4081353
242	0xbeca60ba	-0.39526922
243	0x0003b4d7	3.4038e-40
244	0x80059c4e	-5.15249e-40
245	0x000315dc	2.83348e-40
246	0x0004bc8a	4.34977e-40
247	0x0005a00b	5.1659e-40
248	0x80031829	-2.84174e-40
249	0x800319ab	-2.84714e-40
250	0x0004a1bd	4.25363e-40
251	0x8004bc01	-4.34785e-40
252	0x00020973	1.87061e-40
253	0x800538e3	-4.79585e-40
254	0x8004e29e	-4.48637e-40
255	0x00051c49	4.69324e-40

backbone.0.1.weight f4 [16]
0	0x000244f4	2.08407e-40
1	0x3defe2ba	0.117131665
2	0x3ddc9e6d	0.10772405
3	0x3e8a0f2b	0.26964697
4	0x3e4a556b	0.19759147
5	0x3e60366c	0.2189576
6	0x3dc51e6c	0.09624943
7	0x3e98e683	0.29863366
8	0x3da93bdc	0.082633704
9	0x00013d55	1.13837e-40
10	0x3ed33af5	0.41255918
11	0x3df960c9	0.121766634
12	0x3e969cc2	0.29416472
13	0x3eb006c1	0.34380153
14	0x000345ea	3.00587e-40
15	0x3daae6ba	0.08344789

backbone.0.1.bias f4 [16]
0	0x0002f3a7	2.71077e-40
1	0x3f1a5354	0.602834
2	0x3ed5f37e	0.41787332
3	0x3e8259a3	0.25459012
4	0x3f5e596f	0.86855215
5	0x3f116125	0.56788856
6	0x3efdbdeb	0.49558958
7	0x3f00b591	0.5027705
8	0x3f132004	0.57470727
9	0x80025849	-2.15342e-40
10	0xbe92e29e	-0.2868852
11	0x3f6bde7c	0.9213636
12	0x3eb90701	0.36138156
13	0xbea274d3	-0.31729755
14	0x00013b86	1.13188e-40
15	0x3dff33b6	0.12461035

backbone.0.1.running_mean f4 [16]
0	0x00851473	1.2221457e-38
1	0x4225db50	41.464172
2	0x422aa455	42.66048
3	0x3f41a947	0.7564892
4	0xc33eb220	-190.6958
5	0xc294a09d	-74.3137
6	0x4312d60e	146.83615
7	0x436502f6	229.01157
8	0xbff791bf	-1.9341353
9	0x014b8d34	3.738652e-38
10	0xc20ae6d3	-34.725414
11	0x433b5e06	187.36728
12	0xc0963f62	-4.695237
13	0x4279fbff	62.49609
14	0x806b3d15	-9.84831e-39
15	0xc22196f9	-40.397434

backbone.0.1.running_var f4 [16]
0	0x00000004	6e-45
1	0x4514c24e	2380.144
2	0x4616c703	9649.753
3	0x44ddda3a	1774.8196
4	0x467ee1fa	16312.494
5	0x46184b6b	9746.8545
6	0x464354c0	12501.1875
7	0x46b60b8d	23301.775
8	0x45bb342d	5990.522
9	0x00000004	6e-45
10	0x4543970a	3129.44
11	0x46735eb5	15575.677
12	0x451e3538	2531.3262
13	0x4554b70c	3403.4404
14	0x00000004	6e-45
15	0x44e5e778	1839.2334

backbone.1.conv.0.0.weight f4 [16, 1, 3, 3]
0	0x8002b795	-2.49528e-40
1	0x80053907	-4.79635e-40
2	0x00040dd0	3.72297e-40
3	0x00051bfc	4.69216e-40
4	0x00000afc	3.94e-42
5	0x00003ba9	2.1402e-41
6	0x0005cc66	5.32502e-40
7	0x80009e12	-5.6705e-41
8	0x000337bf	2.95504e-40
9	0xbcd2fe63	-0.025756067
10	0xbd4e9e9d	-0.050444234
11	0x3ce9f09c	0.028557114
12	0x3d1885dd	0.037237037
13	0xbd975db2	-0.07390918
14	0x3f3bbfd4	0.7333958
15	0xbbc0c31a	-0.005882633
16	0x3d0a0cd3	0.033703636
17	0xbf55a02d	-0.83447534
18	0x3bd4eae1	0.0064977263
19	0xbd6e0558	-0.058110565
20	0xbe3ee8dd	-0.18643518
21	0xbb757b27	-0.0037457438
22	0x3d492738	0.049109668
23	0x3f88852c	1.0665641
24	0x3cbed007	0.023292555
25	0xbdbb0849	-0.0913244
26	0xbd7c82ea	-0.061648287
27	0xbd532c72	-0.05155606
28	0xbd2f6265	-0.042818446
29	0xbd95516f	-0.07290923
30	0x3c5af7db	0.013364757
31	0x3f50a7cf	0.81506056
32	0xbe8dedc0	-0.2772045
33	0xbd70c46e	-0.05878108
34	0xbd07fa5b	-0.033197742
35	0xbe2cb65b	-0.16866438
36	0x3f13d997	0.5775389
37	0x3ff84636	1.9396427
38	0x3eefd89e	0.46844953
39	0x3e6485f1	0.2231672
40	0x3ee7fd8e	0.45310634
41	0x3e54b9d9	0.2077402
42	0xbf58d844	-0.84704995
43	0xc0073cb8	-2.113081
44	0xbf3973bd	-0.7244223
45	0xbe463db5	-0.19359477
46	0x3d0f00cf	0.03491288
47	0xbe497635	-0.19673999
48	0x3e0d3c84	0.13792616
49	0x3ec2b489	0.38028362
50	0xbfd2eeab	-1.6479086
51	0x3d9395d0	0.07206309
52	0x3fa91bf0	1.3211651
53	0x3ecc803f	0.39941594
54	0xbd1883eb	-0.03723518
55	0x3dd3c225	0.103397645
56	0xbd626a0b	-0.05527691
57	0x3becd55f	0.0072275843
58	0x3d5d2e36	0.05399915
59	0xbf4924e6	-0.7857193
60	0x3c1030dc	0.0088007115
61	0x3d54303b	0.05180381
62	0x3f8257f9	1.0183097
63	0xbefd3461	-0.49454024
64	0xbe8ff102	-0.28113562
65	0x3f3b12d4	0.73075604
66	0xc0186256	-2.381002
67	0xbebb24be	-0.3655147
68	0x4026d5d0	2.6068
69	0xbee508e4	-0.44733346
70	0xbe1b9602	-0.15193942
71	0x3f2952ff	0.66142267
72	0xbd12d7a6	-0.03585019
73	0x3b906556	0.0044066114
74	0xbddb27c3	-0.10700943
75	0x3d627b32	0.05529327
76	0xbf771135	-0.9651063
77	0x3e264a5a	0.162393
78	0x3d94af3c	0.07259986
79	0x3cccf5d8	0.025019571
80	0xbd8fb98b	-0.070178114
81	0x0000495c	2.6316e-41
82	0x00023d45	2.0565e-40
83	0x80003ab3	-2.1057e-41
84	0x000013fb	7.168e-42
85	0x8001eaf8	-1.76126e-40
86	0x0000566c	3.1002e-41
87	0x800316d2	-2.83693e-40
88	0x80020275	-1.84552e-40
89	0x80038782	-3.24118e-40
90	0x3ca18ce0	0.019720495
91	0xbe15e427	-0.14637814
92	0xbeccd699	-0.40007475
93	0xbe252c2c	-0.16130131
94	0x3e26ad7d	0.16277118
95	0x3ecefa61	0.404254
96	0xbeaa6078	-0.33276725
97	0x3eab34b2	0.3343864
98	0x3efd77f4	0.4950558
99	0x3e410a99	0.18851699
100	0x3fc7f0eb	1.5620397
101	0x3f78a25c	0.9712274
102	0x3dd69b4c	0.10478839
103	0x3d22cb5a	0.039744712
104	0xbe0b0a3b	-0.13578121
105	0xbe98d723	-0.29851636
106	0xbfd1d3b2	-1.6392729
107	0xbf7ef7bb	-0.99596757
108	0x3c3e556e	0.011617048
109	0x3d46e74f	0.048560437
110	0xbcb2a190	-0.021805555
111	0xba653cc4	-0.00087447115
112	0xbd43fd91	-0.04784924
113	0xbf38dd46	-0.72212636
114	0xbcc65742	-0.02421153
115	0x3cb03866	0.021511268
116	0x3f435de8	0.76315165
117	0xbbce262d	-0.006291172
118	0x3d85b9c3	0.06529572
119	0xbe301815	-0.17196687
120	0x3d7d4aa5	0.061838765
121	0x3dddd5c5	0.10831789
122	0xbdbcaf08	-0.09213072
123	0xbdf04a05	-0.11732868
124	0xbd71c239	-0.059023116
125	0x3f294a90	0.661294
126	0x00033c02	2.97033e-40
127	0x0001f1fa	1.7864e-40
128	0x80064385	-5.75234e-40
129	0x80061333	-5.579e-40
130	0x00033642	2.9497e-40
131	0x00015091	1.20737e-40
132	0x8004db59	-4.46029e-40
133	0x000015e0	7.847e-42
134	0x80011cf1	-1.02218e-40
135	0x3e04f5f4	0.12984449
136	0x3c0b4f5b	0.008502807
137	0xbb17b0e7	-0.0023146213
138	0x3e13b481	0.14424326
139	0xbd25fb3d	-0.040522803
140	0xbe267441	-0.16255285
141	0x3dc5d311	0.09659398
142	0xbe38fc08	-0.18064892
143	0xbe6592ec	-0.22419327

backbone.1.conv.0.1.weight f4 [16]
0	0x00040d22	3.72053e-40
1	0x3f00a43e	0.50250614
2	0x3f188c29	0.5958887
3	0x3f12b2cd	0.5730408
4	0x3f945334	1.1587892
5	0x3eeb43fb	0.45950302
6	0x3f0be592	0.5464717
7	0x3f4fb5ed	0.8113697
8	0x3edbc776	0.42925614
9	0x00002db3	1.6394e-41
10	0x3e6b354e	0.22969553
11	0x3f7f2340	0.9966316
12	0x3f5ea926	0.8697685
13	0x3e83daba	0.25752813
14	0x0003cfa9	3.50001e-40
15	0x3eabf8af	0.33588168

backbone.1.conv.0.1.bias f4 [16]
0	0x010a1b71	2.5366285e-38
1	0x3f3b93af	0.7327222
2	0x3fb07421	1.378544
3	0x3e9fda0a	0.31221038
4	0x3e2ae5d3	0.16689233
5	0x3f4a8806	0.79113805
6	0x3f0e9b3e	0.5570563
7	0x3f09c397	0.5381407
8	0x3eeb6e26	0.45982474
9	0x015dc48d	4.0732308e-38
10	0x3ef43897	0.47699425
11	0x3d96a20b	0.07355126
12	0x3f3e2b80	0.74285126
13	0xbea02cf2	-0.3128429
14	0x81181e74	-2.793984e-38
15	0x3eaeac57	0.3411586

backbone.1.conv.0.1.running_mean f4 [16]
0	0x00000004	6e-45
1	0xbdb79b9d	-0.08965228
2	0x3e986de0	0.29771328
3	0x3d1ca243	0.038240682
4	0x3e2db13b	0.1696214
5	0x3e399f41	0.18127157
6	0x3e3e554b	0.18587224
7	0xbd8e98df	-0.069627516
8	0xbefec537	-0.49759838
9	0x80000004	-6e-45
10	0x3c7fb964	0.015608165
11	0xbe3bc03d	-0.18335052
12	0xba25ee7f	-0.0006329789
13	0x3ca618ab	0.020275434
14	0x80000004	-6e-45
15	0xbcf660fa	-0.030075539

backbone.1.conv.0.1.running_var f4 [16]
0	0x00000004	6e-45
1	0x3c5b4e0b	0.013385306
2	0x3c043291	0.008068697
3	0x3d0729f3	0.03299899
4	0x3e6c6a50	0.2308743
5	0x3d572200	0.05252266
6	0x3bab995d	0.005236788
7	0x3ed53235	0.41639867
8	0x3bd28e5b	0.0064256615
9	0x00000004	6e-45
10	0x3bf27ccb	0.0074001304
11	0x3e0f4c8c	0.13994044
12	0x3d7b3bf9	0.06133649
13	0x3b5f60bd	0.003408476
14	0x00000004	6e-45
15	0x3a1eb516	0.00060542056

backbone.1.conv.1.weight f4 [8, 16, 1, 1]
0	0x80238f98	-3.265754e-39
1	0xbe47e32c	-0.19520253
2	0xbca60862	-0.02026767
3	0x3e3f19de	0.18662211
4	0xbd06b0f1	-0.03288359
5	0x3f26c95f	0.6515102
6	0x3e7e75cd	0.24849625
7	0xbdeb2f7f	-0.114836685
8	0xbd4f2a57	-0.050577488
9	0x0005f7ee	5.48118e-40
10	0x3cad5501	0.021158697
11	0x3e89f1c3	0.26942262
12	0x3dd95bc1	0.10613204
13	0xbd6b5d90	-0.057462275
14	0x0016905a	2.072164e-39
15	0xbe592d2b	-0.21208636
16	0x00037562	3.17616e-40
17	0xbd5cbf5c	-0.053893432
18	0xbf04f2be	-0.51932895
19	0xbae80361	-0.0017701202
20	0x3e7cafff	0.24676512
21	0xbd8df58e	-0.069316015
22	0xbc49b1ec	-0.012310486
23	0x3d162b04	0.036662117
24	0x3d8e7253	0.06955399
25	0x002b3fb2	3.971776e-39
26	0xbcd64f7f	-0.026160954
27	0x3ddc0978	0.107439935
28	0xbe3aec61	-0.18254234
29	0x3be92ca6	0.007115918
30	0x00173be2	2.133698e-39
31	0xbea0b499	-0.31387785
32	0x002c9b4d	4.096473e-39
33	0x3ee74324	0.45168412
34	0x3dffc2ef	0.124883525
35	0x3ed4bb42	0.41549116
36	0xbe40e5d5	-0.18837674
37	0xbe2f47d5	-0.17117245
38	0xbe8c4991	-0.27399877
39	0x3dd98729	0.10621483
40	0xbe692f12	-0.22771862
41	0x803105c9	-4.502015e-39
42	0xbe3e4d5f	-0.18584202
43	0x3ebc737f	0.36806867
44	0x3cc80c10	0.024419814
45	0xbe0170ea	-0.1264073
46	0x0014acd1	1.898705e-39
47	0xbeb58850	-0.3545556
48	0x000ef6a7	1.374179e-39
49	0xbe40810a	-0.18799224
50	0xbe0748b0	-0.13211322
51	0xbdca373c	-0.09873816
52	0x3ee9de80	0.45677567
53	0xbea39e8b	-0.31956896
54	0x3e00638f	0.12537979
55	0xbd429087	-0.047501113
56	0xbe3535e4	-0.17696339
57	0x8008ca2c	-8.0721e-40
58	0x3e1262e3	0.14295535
59	0xbec8a806	-0.39190692
60	0x3edc804b	0.4306663
61	0x3e98e032	0.29858547
62	0x8022e3c7	-3.204118e-39
63	0xbeb710e9	-0.3575509
64	0x802930ba	-3.782735e-39
65	0xbeb063aa	-0.34451038
66	0x3e83aa68	0.25715947
67	0x3d1024f4	0.03519149
68	0x3de3c04a	0.111206606
69	0xbf303131	-0.6882506
70	0x3e24f007	0.16107188
71	0xbe4ce877	-0.20010553
72	0xbd0e9736	-0.034812175
73	0x8007c64a	-7.13981e-40
74	0x3e8b5359	0.27212027
75	0xbdb58b1a	-0.08864422
76	0xbe840f57	-0.25792953
77	0x3d8eaf1a	0.06966992
78	0x002ca1e8	4.098843e-39
79	0x3c88d9bd	0.016705388
80	0x8040639a	-5.913202e-39
81	0xbdfdb6ae	-0.12388359
82	0x3d095636	0.033529483
83	0xbf101315	-0.56279117
84	0xbe9ffd01	-0.31247714
85	0xbe02fb67	-0.12791215
86	0x3e24cde0	0.1609416
87	0x3f152e3a	0.5827366
88	0x3ee11794	0.439633
89	0x8008aeb2	-7.97353e-40
90	0x3ddafcae	0.10692726
91	0x3ed1f8f4	0.4101025
92	0x3db704a3	0.08936431
93	0x3d05def9	0.032683346
94	0x802875af	-3.715637e-39
95	0xbe5523ad	-0.2081439
96	0x0052d268	7.60599e-39
97	0x3e93af5f	0.28844735
98	0xbd745193	-0.059648108
99	0xbee3918d	-0.44446984
100	0xbecfb760	-0.40569592
101	0x3db36ba9	0.08760769
102	0x3c200430	0.009766623
103	0xbf50567d	-0.8138197
104	0x3dbd645f	0.0924766
105	0x001b753e	2.521617e-39
106	0xbd1bd5ac	-0.03804557
107	0x3e5fe85c	0.21865982
108	0xbdd0636b	-0.101752125
109	0x3eaefe8f	0.34178588
110	0x000c8ab4	1.151783e-39
111	0xbe4ff511	-0.20308329
112	0x800b12bb	-1.01691e-39
113	0x3dab9ddd	0.083797194
114	0x3e7aff33	0.24511413
115	0xbd54bc18	-0.051937193
116	0x3f034948	0.51283693
117	0x3f0ef646	0.55844533
118	0xbe0329b7	-0.12808882
119	0x3e2d7db5	0.16942485
120	0xbd8fc96c	-0.0702084
121	0x80650469	-9.276967e-39
122	0x3e05cc27	0.13066159
123	0xbeea3139	-0.4574068
124	0xbe60e296	-0.21961436
125	0x3d08e427	0.033420708
126	0x8024b18a	-3.369767e-39
127	0xbe7145eb	-0.23561828

backbone.1.conv.2.weight f4 [8]
0	0x3f007bb2	0.50188744
1	0x3eec64bd	0.46170607
2	0x3f312900	0.69203186
3	0x3f0d5ade	0.5521678
4	0x3f060f6c	0.5236728
5	0x3f190d6e	0.5978612
6	0x3f145fd3	0.57958716
7	0x3f06545b	0.52472466

backbone.1.conv.2.bias f4 [8]
0	0x38f4a7ed	0.00011666105
1	0xb982bf11	-0.00024937888
2	0x396112fa	0.00021464741
3	0xb90711b9	-0.00012881205
4	0xba1eca1b	-0.0006057338
5	0xb9ce0cb9	-0.0003930086
6	0xb9232991	-0.00015560376
7	0x38d38e0a	0.00010087721

backbone.1.conv.2.running_mean f4 [8]
0	0x3f09d38e	0.5383843
1	0xbf71c7be	-0.9444541
2	0x3e0d55e5	0.13802297
3	0xbe8ddff0	-0.27709913
4	0xbf0e248f	-0.55524534
5	0x3eb76ebe	0.35826677
6	0xbf3109a5	-0.6915534
7	0x3f371daa	0.7152964

backbone.1.conv.2.running_var f4 [8]
0	0x3ddc4147	0.10754638
1	0x3e07c36f	0.13258146
2	0x3e7d73e1	0.24751236
3	0x3e91b96f	0.28461787
4	0x3e4a5e30	0.19762492
5	0x3eb0085c	0.34381378
6	0x3ebd74f4	0.3700329
7	0x3e420d9e	0.18950507

backbone.2.conv.0.0.weight f4 [48, 8, 1, 1]
0	0x3e0c2d0b	0.13689058
1	0xbd5f1aa0	-0.05446875
2	0x3e16a313	0.14710645
3	0xbe9689e8	-0.2940209
4	0xbe1f6384	-0.15565306
5	0x3da9c02b	0.08288606
6	0x3e73ff97	0.23827969
7	0x3dd7b43f	0.10532426
8	0x3e09e962	0.13467935
9	0x3d9ac5cf	0.0755726
10	0x3d9a6bc8	0.07540089
11	0x3d806c91	0.062707074
12	0xbdb5d1d8	-0.08877915
13	0xbeb8d90e	-0.361031
14	0xbe2ae93a	-0.16690531
15	0xbe087502	-0.13325885
16	0xbdcb0541	-0.099131115
17	0x3da2f06f	0.07956015
18	0xbe489800	-0.19589233
19	0x3e0df1f4	0.13861829
20	0x3cbabea7	0.022795988
21	0xbe1b88a0	-0.15188837
22	0xbe6f016d	-0.23340388
23	0x3e1823d1	0.14857413
24	0xbe2344dc	-0.15944237
25	0x3e35714a	0.17718998
26	0x3e3b23ad	0.18275328
27	0xbefaf66e	-0.49016136
28	0x3cdf88af	0.027286856
29	0xbdb07773	-0.08616533
30	0xbe5801a8	-0.21094382
31	0xbf054fae	-0.52074707
32	0x3d941dbe	0.07232235
33	0xbdd2c51a	-0.102915004
34	0x3e0910e3	0.13385348
35	0xbe764585	-0.24049957
36	0xbdc82cbe	-0.09774159
37	0x3dd5037c	0.10401055
38	0x3d9b0be2	0.07570626
39	0xbe89c05a	-0.26904565
40	0x3dea6972	0.11445893
41	0xbb919641	-0.0044429605
42	0x3e5c86f2	0.21535853
43	0xbdd1bccc	-0.10241088
44	0xbda8a4a2	-0.08234526
45	0xbb7b8dae	-0.0038384008
46	0x3e714645	0.23561962
47	0xbdc036d0	-0.09385455
48	0x3c5a16a8	0.013311066
49	0x3e06d8cd	0.1316864
50	0x3e43b7c9	0.19113077
51	0x3e0dd092	0.13849095
52	0xbd889424	-0.066688806
53	0xbeb8697f	-0.36017987
54	0xbdad40ec	-0.084596485
55	0xbd9b77c9	-0.075912066
56	0x3d1dad17	0.03849515
57	0x3e36be7e	0.17846105
58	0x3d8bf42a	0.0683368
59	0x3b0c11b9	0.0021372868
60	0x3d8b7948	0.06810242
61	0x3d414b58	0.047190994
62	0xbd51c5c7	-0.051214006
63	0x3e1a2254	0.15052158
64	0xbcf29801	-0.029613497
65	0x3adafc87	0.0016707339
66	0x3f090293	0.5351955
67	0x3d21cb24	0.03950037
68	0xbdf48326	-0.11939077
69	0xbbbef989	-0.0058280868
70	0xbd38014d	-0.044923116
71	0xbb184654	-0.0023235278
72	0xbd463b16	-0.048396192
73	0x3eb990be	0.36243242
74	0xbd581ede	-0.052763812
75	0x3df364c6	0.118844554
76	0xbe11c127	-0.14233838
77	0x3da9e67b	0.08295914
78	0x3db0feb5	0.086423315
79	0xbd649db6	-0.055814467
80	0xbe27ab6c	-0.16373986
81	0xbdb68a76	-0.08913128
82	0x3cf8242d	0.030290687
83	0xbed5a2b8	-0.41725707
84	0x3db7161f	0.08939766
85	0x3d9c5d6a	0.07635005
86	0xbbd825a5	-0.0065962845
87	0xbc6db167	-0.014507628
88	0xbd79c650	-0.06098014
89	0x3d6970d5	0.05699237
90	0xbe9a60ff	-0.30152127
91	0x3e9dca02	0.30818182
92	0x3d73fa6b	0.05956499
93	0xbe18cc79	-0.1492175
94	0xbde87190	-0.11349785
95	0x3e50a4ba	0.20375338
96	0x3e26c160	0.16284704
97	0x3db4c7e7	0.08827191
98	0xbe2247f1	-0.15847756
99	0x3e1baad6	0.15201887
100	0x3d6748db	0.056465965
101	0x3dfc1791	0.123091824
102	0xbd67c51c	-0.056584463
103	0xbd1736a6	-0.03691735
104	0x3e847e3a	0.25877553
105	0xbe69dab6	-0.22837338
106	0xbd9056ca	-0.07047804
107	0xbd24e46d	-0.040256906
108	0xbe2fa40a	-0.1715242
109	0x3c96fece	0.018432047
110	0x3e209a1e	0.15683791
111	0x3e54a828	0.20767272
112	0x3d186bad	0.037212063
113	0xbe1188e6	-0.14212379
114	0x3c1f2af6	0.0097148325
115	0x3ecd74e9	0.40128258
116	0x3cb28fe2	0.021797124
117	0x3e04e27a	0.12977019
118	0xbdb9f88b	-0.09080609
119	0xbec3c2c9	-0.38234547
120	0x3cfefe1b	0.031127026
121	0x3e6e2dbd	0.23259635
122	0x3e3185e8	0.17336237
123	0x3e63df65	0.22253187
124	0xbea16882	-0.31525046
125	0xbe2186b7	-0.15774046
126	0xbc0803e3	-0.008301708
127	0xbcf5ea14	-0.030018844
128	0x3e9a8df4	0.30186427
129	0x3e44be5a	0.19213238
130	0x3e0aa86c	0.1354081
131	0x3e45fc39	0.19334497
132	0x3e32ab5f	0.17448185
133	0x3deb7056	0.11496036
134	0x3e19a151	0.15002944
135	0x3dbf11a0	0.093295336
136	0x3be158e1	0.0068770503
137	0x3d5ce76c	0.05393164
138	0x3d9db7c8	0.07701069
139	0xbe15958e	-0.14607832
140	0xbe3ec597	-0.18630062
141	0x3e6a8a3b	0.22904293
142	0xbd433e99	-0.04766712
143	0x3cd6401e	0.02615362
144	0xbe8653e8	-0.2623589
145	0x3d921c56	0.07134311
146	0xbe206794	-0.15664512
147	0x3e1dab3c	0.15397352
148	0xbe31c5de	-0.17360637
149	0xbda7f416	-0.082008526
150	0xbe61de80	-0.22057533
151	0x3e893820	0.26800632
152	0xbda4bb1d	-0.080435015
153	0x3dec57c3	0.11540177
154	0xbe579990	-0.21054673
155	0x3ebfaf99	0.37438658
156	0x3dd8201e	0.10553001
157	0xbe3f73f2	-0.18696573
158	0xbe30b5fd	-0.17256923
159	0x3eea7a42	0.457964
160	0x3da2f5b4	0.079570204
161	0x3e3ff244	0.18744761
162	0x3e54c8c8	0.20779717
163	0x3e878f75	0.26476637
164	0x3c5c395c	0.01344141
165	0x3db2f703	0.0873852
166	0x3e0bbf6a	0.13647237
167	0x3de11671	0.109906085
168	0x3d8a6716	0.06757943
169	0xbd094bff	-0.03351974
170	0x3df8c988	0.12147814
171	0xbebdf50f	-0.37101027
172	0x3e03440b	0.12818925
173	0xbd1b10e2	-0.037857898
174	0xbeb9b79c	-0.36272895
175	0xbd07b5ca	-0.033132352
176	0x3dd58fb6	0.10427801
177	0x3da6d4bf	0.08146047
178	0x3d63495d	0.055489887
179	0x3d99a5c9	0.07502324
180	0xbe29e272	-0.16590288
181	0xbd8f3d17	-0.06994074
182	0xbd177d12	-0.03698451
183	0xbe297508	-0.1654855
184	0x3e866871	0.26251557
185	0xbd1095ae	-0.035298996
186	0x3e0d8553	0.1382039
187	0x3d55a8c1	0.05216289
188	0x3d51e175	0.051240403
189	0xbcb2d508	-0.021830097
190	0xbde4f448	-0.111794055
191	0x3caf8d41	0.02142966
192	0xbe0bc3d3	-0.1364892
193	0xbde14b3c	-0.11000678
194	0x3d87afce	0.06625329
195	0x3e5763f9	0.2103423
196	0xbe61d60d	-0.2205431
197	0xbd1fb8a3	-0.038994443
198	0x3cec22b0	0.028825134
199	0xbd2a25f7	-0.041540112
200	0xbc6046e3	-0.013688776
201	0xbed7e6c8	-0.4216826
202	0x3e778ec8	0.2417556
203	0xbd79c2b1	-0.060976688
204	0x3de03f03	0.109495185
205	0xbe0a9a1c	-0.1353535
206	0xbc5fa318	-0.013649724
207	0x3e884843	0.2661763
208	0xbe2e5b87	-0.17027102
209	0xbc02862a	-0.0079665575
210	0x3e5e379e	0.21700904
211	0x3c51d9d3	0.012808281
212	0xbe3b352c	-0.18282002
213	0x3d6b57cc	0.057456776
214	0x3e5028f7	0.20328127
215	0x3dffc79f	0.124892466
216	0xbe8303f2	-0.25588948
217	0x3cb2109f	0.021736441
218	0xbe18ea58	-0.14933145
219	0x3e78302f	0.2423713
220	0x3ddefc8d	0.10888014
221	0x3d91392a	0.07090981
222	0x3ea8979f	0.32928178
223	0x3e005522	0.12532476
224	0x3eab2017	0.3342292
225	0xbd045545	-0.03230788
226	0xbe76e266	-0.24109802
227	0xbd0056cb	-0.031332772
228	0xbca5510b	-0.020180246
229	0xbe82c0a6	-0.25537604
230	0xbc552715	-0.013009806
231	0x3e4687d0	0.19387746
232	0x3da21f46	0.07916121
233	0xbbadc4ef	-0.0053030173
234	0x3e5a7158	0.213323
235	0x3e4c2b66	0.1993843
236	0x3d224c94	0.03962381
237	0x3dd1bdb5	0.10241262
238	0xbcd8dd26	-0.02647264
239	0x3d675644	0.056478754
240	0xbe67c646	-0.22634229
241	0xbda9a528	-0.08283454
242	0xbe97715e	-0.2957868
243	0xbd4286bc	-0.047491774
244	0xbe50501e	-0.20343062
245	0x3eea2dd6	0.45738095
246	0x3da4dd4f	0.08050024
247	0x3e404243	0.18775277
248	0x3e2c6889	0.16836752
249	0xbbf733bb	-0.0075440085
250	0x3d168c2a	0.036754765
251	0xbe4f6b2b	-0.20255725
252	0xbe748fa7	-0.23882924
253	0x3db3351d	0.08750365
254	0x3c94cd5c	0.01816433
255	0x3e8cf24e	0.27528614

backbone.2.conv.0.1.weight f4 [48]
0	0x3eeabf8b	0.4584926
1	0x3ebd34d2	0.3695436
2	0x3de469ab	0.11152967
3	0x3e12e8d6	0.14346632
4	0x3e1731d3	0.147651
5	0x3d9b2ef9	0.07577319
6	0x3ea2b256	0.31776685
7	0x3dd1fcdb	0.102533065
8	0x3eba404e	0.36377186
9	0x3df5a63d	0.11994598
10	0x3e807e15	0.25096193
11	0x3ed0fab9	0.40816286
12	0x3de13689	0.1099673
13	0x3e28676d	0.16445704
14	0x3e3e4be2	0.18583634
15	0x3ec40b1d	0.3828973
16	0x3e40c2dd	0.18824334
17	0x3e645466	0.2229782
18	0x3ec60138	0.38672805
19	0x3e8a27c8	0.26983476
20	0x3e844aee	0.25838417
21	0x3e02b806	0.12765512
22	0x3e21b0f0	0.15790153
23	0x3e33b0dc	0.17547935
24	0x3e195ab1	0.14976002
25	0x3e2abc5b	0.16673414
26	0x3e2392f9	0.15974034
27	0x3e8373ae	0.25674194
28	0x3dc1eaab	0.094685875
29	0x3d539243	0.051653158
30	0x3ef37d35	0.47556463
31	0x3db6fa35	0.08934442
32	0x3e782cb3	0.24235801
33	0x3eba2ee4	0.363639
34	0x3eaeff0e	0.34178966
35	0x3e7df8f7	0.24802004
36	0x3eb7c634	0.35893404
37	0x3ecf9234	0.40541232
38	0x3e3a477f	0.18191336
39	0x3ec8ffd9	0.39257696
40	0x3eed6bd4	0.4637133
41	0x3e17508e	0.14776823
42	0x3de5e5bd	0.1122546
43	0x3e50a534	0.2037552
44	0x3e41e33b	0.18934338
45	0x3e9f051f	0.31058595
46	0x3eaadc8c	0.3337139
47	0x3d8ad164	0.06778219

backbone.2.conv.0.1.bias f4 [48]
0	0xbcab4a2c	-0.020909391
1	0x3c11ca2d	0.0088983
2	0x3e82fd11	0.255837
3	0x3ecff210	0.40614367
4	0x3e902dc9	0.2815993
5	0x3e958801	0.29205325
6	0x3d175155	0.0369428
7	0xbc0bf8c2	-0.008543195
8	0xbdae8aef	-0.08522593
9	0x3e205577	0.15657602
10	0xbc73623a	-0.014854962
11	0x3d45ff3b	0.04833911
12	0x3e34740b	0.17622392
13	0x3e20c366	0.15699539
14	0x3e27f776	0.16402993
15	0xbd7d76e8	-0.061880976
16	0xbd9e7c77	-0.077385835
17	0x3e182641	0.14858343
18	0x3d365999	0.04451904
19	0x3e98cde0	0.2984457
20	0x3e841006	0.25793475
21	0x3e26eec7	0.16302024
22	0x3e247242	0.16059211
23	0x3e4318ba	0.19052401
24	0x3e1f3861	0.1554885
25	0x3cb8dbcd	0.022565747
26	0x3e029525	0.12752207
27	0xbeb51537	-0.35367748
28	0x3e8dd01e	0.27697843
29	0x3e9175f4	0.28410304
30	0xbbf344bf	-0.0074239667
31	0x3e5eeb02	0.21769336
32	0x3d90297f	0.07039165
33	0x3c8efe21	0.017455162
34	0x3d6b9125	0.057511467
35	0x3e0b7fe3	0.13623004
36	0xbcee3999	-0.0290802
37	0x3d0ea330	0.034823596
38	0x3e312fa3	0.17303328
39	0x3d5ccb93	0.05390508
40	0x3cbcd8f9	0.02305268
41	0x3e3135ef	0.1730573
42	0x3e976123	0.29566297
43	0x3e099fc0	0.13439846
44	0x3e197021	0.1498418
45	0xbcdf8abb	-0.027287832
46	0x3e463b2d	0.19358511
47	0x3e6b21ad	0.22962065

backbone.2.conv.0.1.running_mean f4 [48]
0	0xb79125e7	-1.7302997e-05
1	0xb70cf41a	-8.401485e-06
2	0x3831bf77	4.2378404e-05
3	0x3813c447	3.523033e-05
4	0xb7b10704	-2.1103311e-05
5	0xb8067ee2	-3.206626e-05
6	0x37845756	1.5776295e-05
7	0x365e91a5	3.3165354e-06
8	0x38196c07	3.657865e-05
9	0x380d9064	3.3751494e-05
10	0x37cb90ae	2.4266858e-05
11	0x3791e4b8	1.7391852e-05
12	0xb82dc0fc	-4.1426145e-05
13	0xb839372f	-4.415883e-05
14	0xb80bb60c	-3.3309727e-05
15	0x38422b7f	4.6293713e-05
16	0xb8b69c61	-8.707564e-05
17	0x381777d0	3.611279e-05
18	0x38e733e8	0.00011024607
19	0x38190ff0	3.6492886e-05
20	0xb771f2f3	-1.4421285e-05
21	0xb5ab14de	-1.2746566e-06
22	0xb5e4ae51	-1.7038057e-06
23	0xb85de0a7	-5.289973e-05
24	0x3851abea	4.998959e-05
25	0xb7258c45	-9.867425e-06
26	0x386ec548	5.6927354e-05
27	0x378ed18b	1.7025295e-05
28	0xb889ef27	-6.577215e-05
29	0xb777cd15	-1.4770097e-05
30	0x389a4a28	7.357105e-05
31	0x374efd77	1.2337571e-05
32	0x37d27dd5	2.5092546e-05
33	0xb848d767	-4.7884325e-05
34	0x375eb9c2	1.3275481e-05
35	0x37ebf7d2	2.8129583e-05
36	0xb8cb8adf	-9.705661e-05
37	0xb7e1b93b	-2.6908345e-05
38	0x389f6b91	7.6017466e-05
39	0x38389af1	4.401332e-05
40	0x35855bfc	9.936043e-07
41	0x3901d350	0.00012381119
42	0xb7527002	-1.2543054e-05
43	0x37ce29c7	2.4576568e-05
44	0x380d0213	3.361895e-05
45	0xb88e59c2	-6.787806e-05
46	0xb8d6e4b4	-0.000102469145
47	0x37820e9c	1.550401e-05

backbone.2.conv.0.1.running_var f4 [48]
0	0x3df12489	0.11774547
1	0x3d9cc2f7	0.07654374
2	0x3dc60bcd	0.096702196
3	0x3e320814	0.17385894
4	0x3dd3ed96	0.1034805
5	0x3db6866d	0.089123584
6	0x3dc49f20	0.09600663
7	0x3c988075	0.01861594
8	0x3e197fe6	0.14990196
9	0x3d199d55	0.03750356
10	0x3d9574a4	0.07297638
11	0x3e2d1955	0.16904195
12	0x3d05b8fe	0.032647125
13	0x3d7fbd64	0.062436476
14	0x3da0175e	0.07816957
15	0x3db74ad7	0.089498214
16	0x3d1e1f50	0.03860408
17	0x3d71041f	0.05884182
18	0x3ddd4b11	0.108053334
19	0x3e889799	0.2667816
20	0x3d0b8ed6	0.034071766
21	0x3d8b67ff	0.06806945
22	0x3cee49fb	0.029088011
23	0x3cdbe584	0.02684284
24	0x3cabc63c	0.020968549
25	0x3d858bfc	0.065208405
26	0x3d3090c9	0.043106828
27	0x3da8a312	0.08234228
28	0x3dc1c9f6	0.09462349
29	0x3ca7460f	0.020419149
30	0x3e4019ea	0.18759885
31	0x3daa837e	0.083258614
32	0x3d876476	0.06610958
33	0x3db9b84b	0.09068354
34	0x3df62410	0.12018597
35	0x3da71874	0.08158961
36	0x3e1dfb66	0.15427932
37	0x3e1826c6	0.14858541
38	0x3d267455	0.040638287
39	0x3e0fa74f	0.14028667
40	0x3d1ed9dd	0.03878199
41	0x3e001eff	0.12511824
42	0x3d59d3af	0.053180393
43	0x3dcb79ab	0.09935316
44	0x3da86812	0.08222975
45	0x3e2b4d88	0.16728795
46	0x3e0cd5c4	0.1375342
47	0x3dbe6364	0.09296301

backbone.2.conv.1.0.weight f4 [48, 1, 3, 3]
0	0x3bc25e80	0.0059316754
1	0xbe171632	-0.1475456
2	0xbe68fddc	-0.2275309
3	0xbbb10399	-0.00540204
4	0xbe5ffe3f	-0.21874331
5	0xbe27f8b4	-0.16403466
6	0x3d34dca7	0.044155743
7	0xbdc34734	-0.09535065
8	0xbc5ec468	-0.013596632
9	0xbd6af468	-0.05736199
10	0xbb9807e0	-0.0046396106
11	0x3c117946	0.0088790115
12	0xbe30a2b3	-0.17249565
13	0xbe328078	-0.1743182
14	0xbdef2351	-0.11676658
15	0xbdb83f2c	-0.08996424
16	0xbe11fd08	-0.1425668
17	0xbe0ed767	-0.13949357
18	0xbdeb71e9	-0.11496336
19	0xbd920ed6	-0.07131736
20	0xbd01a134	-0.031647876
21	0x3e4507a9	0.19241203
22	0x3edbdbd1	0.42941144
23	0x3e79c909	0.24393095
24	0xbd83372e	-0.06407009
25	0xbdf4bce6	-0.11950092
26	0xbe8f30df	-0.27966973
27	0x3deda8be	0.11604451
28	0x3e4c2394	0.19935447
29	0x3dbc45b2	0.09192981
30	0x3e87422c	0.26417673
31	0x3edf79e8	0.43647695
32	0x3dd8d2a0	0.105870485
33	0x3e0cb6c5	0.13741596
34	0x3e0c2d55	0.13689168
35	0x3c142beb	0.009043674
36	0xbddab5aa	-0.10679181
37	0xbeb415d3	-0.351729
38	0xbe7eb859	-0.2487501
39	0xbd5eb460	-0.054371238
40	0xbd906cf9	-0.07052035
41	0x3d086897	0.03330287
42	0x3d9f8b5e	0.07790254
43	0x3e8cdaef	0.27510783
44	0x3e4ebc86	0.20189103
45	0x3d9aa47e	0.07550906
46	0x3e86ffc0	0.26366997
47	0x3e074174	0.13208562
48	0xbbe7178b	-0.007052367
49	0xbd8c3730	-0.06846464
50	0xbd0e8772	-0.03479714
51	0xbde1f518	-0.11033076
52	0xbe6632e1	-0.22480346
53	0xbe9c265d	-0.3049802
54	0x3d83de13	0.06438842
55	0xbda882e0	-0.082280874
56	0xbdadaeab	-0.08480581
57	0x3dbb7d0c	0.0915471
58	0xbe25ee8c	-0.1620428
59	0xbe989a1a	-0.2980507
60	0x3dc0c0ac	0.09411749
61	0xbd571a95	-0.052515585
62	0xbe8b50b9	-0.27210024
63	0xbe11468a	-0.14187065
64	0x3a6754c3	0.0008824581
65	0xbdac32b3	-0.084081076
66	0xbe097306	-0.13422784
67	0x3d8dd0fd	0.06924627
68	0xbded4d08	-0.11586958
69	0xbe56d2f4	-0.2097891
70	0x3cec2a43	0.028828746
71	0xbe08a3f0	-0.13343787
72	0xbd595c7a	-0.05306671
73	0x3d8f44c3	0.06995537
74	0x3dd25ed4	0.10271993
75	0x3d512973	0.05106492
76	0x3e738daf	0.23784517
77	0x3e4e656f	0.20155881
78	0x3e4f87e0	0.20266676
79	0x3e973192	0.29530007
80	0x3db7edd8	0.08980912
81	0xbe382403	-0.17982487
82	0x3e3a7fa7	0.18212758
83	0xbdc729ea	-0.09724791
84	0x3d19fdea	0.037595667
85	0x3e023d0c	0.127186
86	0xbca07faa	-0.019592125
87	0x3e0109c1	0.12601377
88	0xbecd7cbe	-0.40134233
89	0x3d3ab413	0.04558189
90	0x3e0f4083	0.13989453
91	0x3da22b7c	0.0791845
92	0x3d308bbd	0.043102015
93	0x3d4a0a67	0.049326327
94	0x3e0ab782	0.13546565
95	0x3d447f98	0.047973245
96	0x3d971b09	0.073782034
97	0x3e0246c5	0.12722309
98	0x3e466e2b	0.19377963
99	0xbe0a55be	-0.1350927
100	0xbe81c262	-0.25343615
101	0xbd9405e3	-0.07227685
102	0xbe66d3d3	-0.22541742
103	0xbe6541f2	-0.22388437
104	0xbcf7cc9a	-0.030248929
105	0xbd853a1a	-0.065052226
106	0xbd0b140f	-0.033954676
107	0x3b98b55c	0.0046602916
108	0xbc9b0f43	-0.018928176
109	0x3dae2a6b	0.08504184
110	0x3ce821c4	0.028336413
111	0x3e25d1aa	0.16193262
112	0xbedd6035	-0.43237463
113	0xbceef22b	-0.029168209
114	0xbda541c8	-0.080691874
115	0x3e82f904	0.2558061
116	0x3cae39f3	0.021267867
117	0xbdaa1ff6	-0.08306877
118	0x3ddae08d	0.10687361
119	0xbd38a9f1	-0.045083944
120	0xbe7f0617	-0.24904667
121	0x3e9ea51e	0.3098535
122	0xbdde175c	-0.10844299
123	0x3ca4b672	0.020106528
124	0x3e610da5	0.21977861
125	0xbe50d391	-0.20393206
126	0xbd1fd0d1	-0.039017502
127	0xbd5d0754	-0.053962067
128	0x3cde640d	0.027147317
129	0x3e226bc4	0.15861422
130	0x3eb40d7f	0.35166547
131	0x3e088bca	0.13334575
132	0xbded09a5	-0.11574105
133	0xbe92166f	-0.2853274
134	0xbe30eeb9	-0.17278565
135	0xbd679e90	-0.0565477
136	0xbd187811	-0.03722388
137	0x3df2b28b	0.118504606
138	0xbe2c26ae	-0.1681163
139	0xbe988dd0	-0.29795694
140	0xbd015ac1	-0.03158069
141	0xbd00f612	-0.03148467
142	0xbe886084	-0.26636136
143	0xbd778c7f	-0.060436722
144	0xbd27e91f	-0.040993806
145	0xbce3328b	-0.027734062
146	0x3e0beef6	0.13665375
147	0xbc5cd228	-0.0134778395
148	0x3e3a96ce	0.1822159
149	0x3e35b02a	0.17742983
150	0x3de89253	0.11356034
151	0x3e2ec053	0.17065553
152	0x3e173c2a	0.14769045
153	0x3e2e1e8c	0.1700384
154	0x3e2c5679	0.16829862
155	0x3cd921e0	0.02650541
156	0x3e1b4b60	0.15165472
157	0x3e487ec8	0.19579613
158	0x3d090062	0.03344763
159	0x3d75d374	0.06001611
160	0x3e17a1bb	0.14807789
161	0x3c920c57	0.01782815
162	0xbddbbb98	-0.1072914
163	0xbc922157	-0.017838163
164	0x3da97627	0.08274489
165	0xbdb6e5b5	-0.08930532
166	0xbeaec35c	-0.34133422
167	0xbd8799ae	-0.06621109
168	0x3dbfc50e	0.09363757
169	0xbe0d9889	-0.13827719
170	0xbde27549	-0.110575266
171	0xbc1b1877	-0.009466282
172	0xbdac2743	-0.08405926
173	0xbd65df6d	-0.05612128
174	0xbd752d26	-0.05985751
175	0xbe97b44f	-0.29629752
176	0xbe0c8fd7	-0.13726746
177	0x3de54e83	0.111966155
178	0xbe7c7018	-0.24652135
179	0xbe3a3be6	-0.18186912
180	0x3d5a9750	0.05336696
181	0x3daf875d	0.0857074
182	0x3d258f42	0.040419824
183	0x3e0939d7	0.1340097
184	0x3ec2dbd7	0.3805835
185	0x3d0b646b	0.034031313
186	0x3e105608	0.14095318
187	0x3e1f17bc	0.15536398
188	0xbe49ca8a	-0.19706169
189	0xbe2fb98f	-0.17160629
190	0xbd6ac376	-0.057315312
191	0x3e09f916	0.13473925
192	0xbe5de0dc	-0.21667808
193	0xbe393f41	-0.18090536
194	0x3e640c1c	0.22270244
195	0xbe170f48	-0.14751923
196	0xbe434ad8	-0.1907152
197	0x3d38f61e	0.04515659
198	0x3cca45cc	0.024691485
199	0xbe8bbdd7	-0.27293274
200	0x3d88913b	0.066683255
201	0xbe71474d	-0.23562355
202	0x3ef4d522	0.47818857
203	0xbdf978fa	-0.121812776
204	0x3df6775d	0.120344855
205	0xbe2995a7	-0.16560994
206	0x3ca3461e	0.019930895
207	0xbd453b54	-0.048152283
208	0x3dc46a15	0.09590546
209	0xbd90cec9	-0.07070691
210	0x3d1a923f	0.037737127
211	0xbefaa5fb	-0.48954758
212	0x3ea03104	0.31287396
213	0xbc0d9811	-0.0086422125
214	0x3eb0dbd4	0.34542716
215	0xbe7f86d6	-0.2495378
216	0xbcce91c9	-0.025216
217	0xbd29c31f	-0.041445848
218	0x3e059b4b	0.13047521
219	0xbdace042	-0.08441211
220	0xbe8ea643	-0.27861223
221	0xbe6b841e	-0.22999617
222	0x3e48ccb2	0.19609335
223	0x3e8e8115	0.27832857
224	0x3d9b6554	0.07587686
225	0xbca2328a	-0.01979949
226	0x3e17a737	0.14809881
227	0x3e1effd5	0.1552728
228	0x3b596f3d	0.0033177875
229	0x3e842403	0.25808725
230	0x3e5d948d	0.21638699
231	0x3d25aaae	0.040445976
232	0x3e80395c	0.25043762
233	0x3deb7ddd	0.11498616
234	0xbbb53c3c	-0.005530862
235	0xbe379137	-0.17926489
236	0xbdc4276d	-0.09577832
237	0x3e05b2ad	0.1305644
238	0x3ea28e80	0.31749344
239	0x3e030a03	0.12796788
240	0xbddd3be4	-0.10802439
241	0xbe19d43f	-0.15022372
242	0xbd11f712	-0.035636015
243	0x3de91f72	0.11382951
244	0x3e2ab888	0.16671956
245	0x3d929118	0.07156581
246	0x3da2d863	0.07951429
247	0x3e835b87	0.25655767
248	0x3df99f30	0.12188566
249	0x3c4ff3ee	0.012692435
250	0x3d87af0a	0.06625183
251	0xbd3b838a	-0.045779742
252	0x3d76e024	0.06027235
253	0x3e328d41	0.17436697
254	0x3e1f5125	0.15558298
255	0x3d9df012	0.077118054

backbone.2.conv.1.1.weight f4 [48]
0	0x3f0938fa	0.53602564
1	0x3ea391e8	0.31947255
2	0x3eab5bb7	0.3346841
3	0x3e5ac6fb	0.21364968
4	0x3ebf2640	0.3733387
5	0x3ebbd991	0.36689427
6	0x3e1882db	0.14893667
7	0x3e76626d	0.24060984
8	0x3e30c764	0.17263561
9	0x3e961746	0.2931463
10	0x3e4160bc	0.18884557
11	0x3efd4a2d	0.49470654
12	0x3e95c3ec	0.2925104
13	0x3e757d0b	0.23973481
14	0x3ecb6b64	0.3973037
15	0x3e9cdd33	0.30637512
16	0x3e901d0c	0.2814716
17	0x3e84026f	0.25783107
18	0x3f0ff04b	0.5622603
19	0x3f1729b3	0.59048
20	0x3e659863	0.22421412
21	0x3e8110af	0.2520804
22	0x3e9077f2	0.2821651
23	0x3ea843fa	0.32864362
24	0x3ec04a25	0.37556568
25	0x3e4c7b65	0.19968946
26	0x3eb31218	0.34974742
27	0x3e4465a2	0.19179395
28	0x3e8206b3	0.25395736
29	0x3e53b56e	0.20674679
30	0x3f0d059e	0.55086696
31	0x3e603804	0.21896368
32	0x3ea69758	0.3253734
33	0x3e57d2fe	0.21076581
34	0x3e6dd022	0.23223928
35	0x3eb7a767	0.35869905
36	0x3e5b9a9e	0.214457
37	0x3ec4d442	0.3844319
38	0x3eaa13b5	0.3321816
39	0x3eb5004a	0.35351783
40	0x3ed6dc5e	0.41965002
41	0x3e7d3f84	0.2473126
42	0x3ec9ad6e	0.3939013
43	0x3eb77aa5	0.35835758
44	0x3eac45b3	0.33646926
45	0x3e21c01a	0.15795937
46	0x3ebed7d4	0.3727404
47	0x3ea68915	0.3252646

backbone.2.conv.1.1.bias f4 [48]
0	0xbc9f19f1	-0.01942155
1	0xbd3caa95	-0.046061117
2	0x3c695867	0.014242268
3	0x3f3d33c0	0.7390709
4	0x3cadbecc	0.021209143
5	0x3c94affe	0.018150326
6	0x3f20b57f	0.6277694
7	0xbed041ca	-0.40675193
8	0x3e064516	0.13112292
9	0xbd67c1fd	-0.056581486
10	0x3d5e4658	0.054266304
11	0x3e267eee	0.16259357
12	0xbc994dde	-0.018713888
13	0xbd10bc2e	-0.035335712
14	0xbb5656da	-0.0032705576
15	0x3c9277f2	0.01787946
16	0x3dd18900	0.10231209
17	0xbdf8f9e2	-0.12157036
18	0x3df4ae93	0.1194736
19	0xbca8d3d1	-0.020608814
20	0x3ee70025	0.45117298
21	0xbd4a2f8c	-0.04936175
22	0xbcc85f1c	-0.024459414
23	0xbc1eba82	-0.009688022
24	0xbc70f9e7	-0.014708019
25	0x3bbbe7b2	0.0057344073
26	0xbc811ec2	-0.015761737
27	0x3d90c205	0.07068256
28	0x3e696b1e	0.22794768
29	0xbd4b8947	-0.049691465
30	0xbd510996	-0.051034532
31	0xbc5280d2	-0.012848096
32	0x3c856623	0.016284054
33	0x3f258f42	0.6467172
34	0x3f23c5a5	0.63973457
35	0xbd6d56f4	-0.057944253
36	0x3f1589fa	0.5841366
37	0x3eb9beff	0.3627853
38	0xbcbdd895	-0.023174563
39	0x3e761b36	0.24033818
40	0x3e60f755	0.2196935
41	0x3cbfa6f4	0.02339504
42	0xbc45e774	-0.0120791085
43	0xbcf3f3c3	-0.02977932
44	0xbd5a785a	-0.053337432
45	0x3e823e90	0.25438356
46	0x3dbfb1ab	0.09360059
47	0xbdaa9b48	-0.08330399

backbone.2.conv.1.1.running_mean f4 [48]
0	0xbdde144f	-0.10843717
1	0xbdc979ef	-0.0983771
2	0x3d3ee39f	0.046603795
3	0x3f1954e5	0.59895164
4	0xbd834702	-0.06410028
5	0xbdacc518	-0.0843603
6	0xbdade9a6	-0.084918305
7	0xbc918b5d	-0.017766649
8	0x3dd7b63c	0.10532805
9	0xbcedb736	-0.029018026
10	0x3d7a6065	0.061127085
11	0xbe182187	-0.1485654
12	0xbae5110b	-0.0017476393
13	0xbc4808de	-0.012209145
14	0xbaf84fff	-0.0018944739
15	0xbdaea701	-0.08527947
16	0x3cf26291	0.029588016
17	0x3e241b3b	0.16026013
18	0xbdd31c49	-0.10308129
19	0xbe9b16cb	-0.30290827
20	0x3e5e19ad	0.21689482
21	0xbdbae5c8	-0.091258585
22	0xbc689953	-0.014196712
23	0xbc367681	-0.011136652
24	0xba2b4c16	-0.000653447
25	0x3d8dc289	0.0692187
26	0x3a1d9b42	0.000601221
27	0x3b603330	0.0034210198
28	0x3e8ae469	0.27127388
29	0xbcf143e0	-0.02945131
30	0xbe258c3b	-0.16166775
31	0x3e051a25	0.12998255
32	0x3d3c372c	0.045951054
33	0xbdeb0aa4	-0.11476639
34	0xbe3deada	-0.1854662
35	0x3baf5e66	0.0053518293
36	0xbddbad82	-0.10726453
37	0xbe169223	-0.14704184
38	0xbbaf67ff	-0.0053529735
39	0x3e3d2e38	0.18474662
40	0xbe213e9e	-0.15746543
41	0x3e523d52	0.20531204
42	0xbd4e124b	-0.050310414
43	0x3d811135	0.0630211
44	0x3d6d6287	0.05795529
45	0x3e099b25	0.13438089
46	0xbe6708b1	-0.2256191
47	0x3d8dddfc	0.06927106

backbone.2.conv.1.1.running_var f4 [48]
0	0x3cd3f235	0.02587233
1	0x3c8c7201	0.017144205
2	0x3b8f8d7b	0.0043808795
3	0x3ca92150	0.020645767
4	0x3c4b023e	0.012390671
5	0x3b578394	0.0032884823
6	0x3ca1a77b	0.019733181
7	0x3aa1ccad	0.0012344323
8	0x3d0d1d88	0.03445199
9	0x3aa9e04d	0.0012960524
10	0x3b95c5a2	0.004570679
11	0x3d49c8b6	0.04926368
12	0x3af2c211	0.0018520971
13	0x3b7ef3e0	0.0038902685
14	0x3c737c74	0.014861215
15	0x3c8bebe3	0.017080253
16	0x3b9a0285	0.0047000074
17	0x3c830eaf	0.015998213
18	0x3cc94b6f	0.024572102
19	0x3cf4c416	0.029878657
20	0x3ca0de53	0.019637262
21	0x3bb346a1	0.005471066
22	0x3b7674eb	0.003760631
23	0x3ba99453	0.0051751523
24	0x3c1faceb	0.009745817
25	0x3bfc78d8	0.0077048354
26	0x3bb7278f	0.0055894325
27	0x39821e3a	0.00024818053
28	0x3b8ca262	0.0042918185
29	0x39802b64	0.0002444639
30	0x3d2398e4	0.03994073
31	0x3b17da5d	0.0023170926
32	0x3bc89778	0.006121572
33	0x3ce91097	0.028450293
34	0x3d147119	0.03624067
35	0x3c3641e9	0.011124113
36	0x3c431a91	0.011908189
37	0x3d4365ad	0.047704387
38	0x3b57f547	0.0032952593
39	0x3db32991	0.087481625
40	0x3d41145a	0.04713855
41	0x3bc13b27	0.005896944
42	0x3b961e58	0.004581254
43	0x3bec394e	0.0072089797
44	0x3bb6ba92	0.00557644
45	0x3c80f3ff	0.015741346
46	0x3c8697e5	0.01642985
47	0x3a102881	0.00054991996

backbone.2.conv.2.weight f4 [8, 48, 1, 1]
0	0x3e1da40f	0.15394615
1	0x3e723fd1	0.23657157
2	0x3cb0561e	0.021525439
3	0x3e25a10c	0.16174716
4	0x3ec41550	0.3829751
5	0xbd5d555b	-0.05403648
6	0x3e40c3c1	0.18824674
7	0xbe6f904b	-0.23394887
8	0xbe023299	-0.12714614
9	0xbdac119d	-0.08401797
10	0x3d93b047	0.072113566
11	0x3eb4e1a1	0.3532839
12	0xbc4106b9	-0.011781388
13	0xbc2ee9c7	-0.010675854
14	0x3dcd96aa	0.100385025
15	0x3e830164	0.25586998
16	0xbe425554	-0.18977863
17	0xbc9870f6	-0.018608551
18	0x3e9f69cb	0.311354
19	0x3eda4553	0.42631015
20	0xbcdd362f	-0.027003376
21	0xbc6dc3d1	-0.014512018
22	0x3cda7e9c	0.0266717
23	0x3d0605cc	0.032720372
24	0x3e100da4	0.14067703
25	0xbcbebded	-0.023283923
26	0x3e12cb5c	0.14335388
27	0xbe0039e8	-0.1252209
28	0xbe048daa	-0.12944666
29	0xbc91c396	-0.017793458
30	0xbd757601	-0.05992699
31	0xbbb0b4e3	-0.005392657
32	0xbd206929	-0.03916279
33	0x3e9c155b	0.30485043
34	0x3e318ac1	0.17338087
35	0xbd4ba6ca	-0.04971961
36	0x3e39b93b	0.18137066
37	0x3e877b8a	0.2646144
38	0x3cb7a68a	0.02241828
39	0xbd57af25	-0.052657265
40	0x3e11ed46	0.14250669
41	0xbc1f6120	-0.009727746
42	0x3df7e879	0.121048875
43	0xbdf2e1ea	-0.11859496
44	0xbdad537b	-0.08463188
45	0xbe2aca2d	-0.16678686
46	0x3d33addf	0.04386699
47	0xbc91ee17	-0.017813725
48	0x3d97af5b	0.07406493
49	0x3e3a2400	0.18177795
50	0x3e810775	0.25201002
51	0xbeafefe6	-0.34362715
52	0x3e247c34	0.16063005
53	0x3e4a9dbe	0.19786736
54	0x3e12f524	0.14351326
55	0xbd9f0cb8	-0.07766098
56	0x3c2a2fbb	0.010387356
57	0xbd0da391	-0.034579817
58	0x3d080bc0	0.03321433
59	0xbe10d2dc	-0.14142936
60	0xbd6c006e	-0.057617597
61	0xbdf81026	-0.12112455
62	0x3d9d0c33	0.076683424
63	0x3e09b898	0.13449323
64	0xbdc8b495	-0.09800068
65	0x3d6f5bcf	0.058437165
66	0xbdf3cd57	-0.119044
67	0xbc9fe080	-0.01951623
68	0xbdb0b7a4	-0.08628777
69	0xbe69f87c	-0.22848696
70	0xbb875d8b	-0.0041310242
71	0xbd173d85	-0.036923904
72	0x3d9237ac	0.07139525
73	0xbd10d938	-0.035363406
74	0x3e26c796	0.16287073
75	0xbd3481da	-0.04406915
76	0x3e4b4901	0.19852068
77	0xbda83f27	-0.0821517
78	0x3d74c745	0.05976035
79	0xbe3512b8	-0.17682922
80	0xbdf0e7b0	-0.11762941
81	0x3dfe83f8	0.12427515
82	0xbdb043cd	-0.08606682
83	0xbdf26cb4	-0.1183714
84	0x3eda5821	0.42645362
85	0xbea97e99	-0.331044
86	0x3caa293d	0.020771617
87	0xbe91e1a5	-0.28492466
88	0xbe0b9259	-0.13630046
89	0x3dd8039f	0.10547566
90	0xbc9b2500	-0.018938541
91	0xbe2abf15	-0.16674455
92	0xbdbda48a	-0.09259899
93	0xbe40b141	-0.18817617
94	0xbdad3539	-0.08457417
95	0xbe703ebd	-0.23461433
96	0x3e194788	0.14968693
97	0xbc48b86e	-0.012251003
98	0x3ce447f5	0.027866343
99	0xbe8e1eb2	-0.27757794
100	0x3e3a6214	0.18201476
101	0xbe989474	-0.2980076
102	0xbdf74cf1	-0.12075222
103	0x3d537abb	0.051630717
104	0xbdec5eb1	-0.115414985
105	0x3e38500b	0.17999284
106	0xbd90b7b0	-0.070662856
107	0xbea29d41	-0.317606
108	0x3e92d095	0.2867476
109	0xbe69cf73	-0.22833042
110	0xbde62ae7	-0.11238652
111	0x3cf49b5b	0.029859236
112	0x3e25e4bb	0.16200535
113	0xbdcc79ef	-0.099841945
114	0x3db8590c	0.09001359
115	0x3d5ac16c	0.053407118
116	0x3da20a80	0.07912159
117	0x3d12f531	0.035878364
118	0x3e5038ec	0.20334214
119	0x3e8918fd	0.26776877
120	0xbdf2255a	-0.118235305
121	0xbe1e4d57	-0.1545919
122	0xbe1aa0a7	-0.15100347
123	0x3e0b0851	0.13577391
124	0x3e30aa88	0.17252553
125	0x3e5ac511	0.21364237
126	0x3c7a0c03	0.015261653
127	0x3cfe6078	0.03105186
128	0xbe9925f4	-0.29911768
129	0x3e695500	0.22786331
130	0x3e1e3436	0.15449604
131	0xbe2783a6	-0.16358814
132	0xbe03ff68	-0.12890399
133	0x3e414a08	0.18875897
134	0x3e88642e	0.2663893
135	0xbe22910e	-0.15875646
136	0x3c9bcc26	0.019018244
137	0xbe2b5544	-0.16731745
138	0x3d0c7319	0.034289453
139	0xbde53fad	-0.11193786
140	0xbea16d77	-0.31528828
141	0x3e491c98	0.19639814
142	0xbeb02789	-0.34405163
143	0x3e67cd03	0.226368
144	0x3d12d863	0.035850894
145	0x3e76a473	0.2408617
146	0x3de88e12	0.11355223
147	0x3ea43d32	0.32077938
148	0xbe054810	-0.13015771
149	0x3dfa0484	0.122078925
150	0xbd1894cd	-0.037251282
151	0x3c478664	0.012178037
152	0xbe0a0a57	-0.13480507
153	0xbce0c016	-0.027435344
154	0x3e68b2ed	0.22724505
155	0xbe407bda	-0.18797246
156	0x3c92751d	0.01787811
157	0x3d964ff3	0.07339468
158	0x3e51a1f2	0.20471933
159	0x3d6a6aa5	0.05723061
160	0x3c50b3cd	0.01273818
161	0x3d1a573e	0.037680857
162	0x3cf0ad9c	0.029379658
163	0xbe8576a2	-0.26067072
164	0xbdd8d36f	-0.10587203
165	0x3cff8868	0.031192973
166	0x3d9c8ec3	0.07644417
167	0x3d9a8b59	0.0754611
168	0x3e382986	0.1798459
169	0xbdc99600	-0.09843063
170	0x3e1b677d	0.15176196
171	0x3daf9b5a	0.08574553
172	0xbe33ecb4	-0.17570764
173	0xbd631636	-0.055441104
174	0x3e950a4c	0.29109418
175	0x3ddaca16	0.10683076
176	0xbd95b95d	-0.07310746
177	0xbdc5772d	-0.096418716
178	0x3e80f16e	0.25184196
179	0xbd2ea1bf	-0.04263472
180	0x3d9ebdef	0.07751071
181	0x3e72f9ad	0.23728056
182	0x3d71737a	0.058948018
183	0xbdab5990	-0.08366692
184	0xbe217211	-0.15766169
185	0x3e9ae455	0.3025233
186	0x3eaf52d4	0.3424288
187	0x3d05a568	0.032628447
188	0xbcf11ae4	-0.029431768
189	0xbcd8236d	-0.02638408
190	0xbeb03fa3	-0.3442355
191	0x3da75b20	0.081716776
192	0xbd642e93	-0.05570848
193	0xbe0d81de	-0.13819072
194	0x3e28820d	0.1645586
195	0x3da6047a	0.081063226
196	0x3e026ee0	0.12737608
197	0x3cbf7021	0.023368897
198	0xbe6bb079	-0.23016538
199	0x3cd13dea	0.025542218
200	0xbc4a453b	-0.012345607
201	0xbd3bab57	-0.0458177
202	0x3e44d991	0.1922362
203	0x3e5dcb7e	0.21659657
204	0x3e1e8e81	0.15484048
205	0x3b8f8e2c	0.004380962
206	0x3e7de2af	0.24793504
207	0xbe429564	-0.190023
208	0xbdb179cd	-0.0866581
209	0xbe80a061	-0.2512236
210	0xbbaacfab	-0.005212744
211	0xbe5ae77e	-0.2137737
212	0xbe436254	-0.19080478
213	0x3d3f596f	0.04671615
214	0x3d84b741	0.064802654
215	0x3dce60a9	0.1007703
216	0x3e9815f3	0.29704246
217	0x3d9bd1d4	0.07608381
218	0x3e89becf	0.26903388
219	0xbe1fa30b	-0.1558954
220	0xbd8990b1	-0.06717051
221	0xbdabdd6f	-0.083918445
222	0xbe4e7b5a	-0.20164242
223	0xbdf1098c	-0.11769399
224	0x3e2a129c	0.16608661
225	0xbe22d526	-0.15901622
226	0x3e0e960a	0.13924423
227	0x3e388ce7	0.180225
228	0xbd1f8c34	-0.038952067
229	0xbd688b65	-0.056773562
230	0x3e567c35	0.20945819
231	0xbda03af9	-0.07823748
232	0xbe22caec	-0.15897721
233	0x3c86017c	0.01635813
234	0xba69dca1	-0.0008921121
235	0x3e0197fb	0.12655632
236	0x3dc0b6f1	0.09409893
237	0x3e3d1472	0.1846483
238	0xbe1e2d84	-0.1544705
239	0xbe8165ec	-0.25273073
240	0x3d6c7ccc	0.057736203
241	0xbcc5914c	-0.024117135
242	0x3e69083e	0.2275705
243	0x3d5a59a7	0.053308155
244	0x3e816a92	0.2527662
245	0x3e2f4d9c	0.1711945
246	0x3e408d96	0.18804011
247	0xbdd913f7	-0.10599511
248	0xbe814d44	-0.25254261
249	0x3e6b7386	0.22993287
250	0xbc119e69	-0.008887866
251	0xbebadc90	-0.364964
252	0x3e922e3d	0.28550902
253	0x3db302fd	0.08740804
254	0x3e45c371	0.19312836
255	0xbdcb362f	-0.09922444

backbone.2.conv.3.weight f4 [8]
0	0x3f0b3d72	0.54390633
1	0x3ee7f691	0.45305303
2	0x3ee7e2eb	0.45290312
3	0x3edfb3c1	0.4369183
4	0x3eca36bf	0.39494893
5	0x3f147483	0.5799028
6	0x3ed2fcdf	0.4120855
7	0x3f26ede9	0.6520677

backbone.2.conv.3.bias f4 [8]
0	0xba1d3d22	-0.0005998184
1	0xb7edf9e5	-2.8368968e-05
2	0x394db2c7	0.00019616923
3	0xb984b5bc	-0.00025312405
4	0x39970fdf	0.0002881279
5	0x392c3af1	0.00016425156
6	0x36750101	3.650843e-06
7	0xb829f6b8	-4.0522515e-05

backbone.2.conv.3.running_mean f4 [8]
0	0x3f89df15	1.0771204
1	0xbe63de4f	-0.22252773
2	0xbd8f587f	-0.06999301
3	0x3ec03151	0.37537625
4	0xbe386723	-0.18008094
5	0x3ef15fd8	0.47143435
6	0xbd986a85	-0.07442192
7	0x3d8d7d40	0.06908655

backbone.2.conv.3.running_var f4 [8]
0	0x3de8b264	0.1136215
1	0x3d9ed11b	0.077547275
2	0x3df52d3d	0.11971519
3	0x3d52bcf4	0.05144973
4	0x3d6351c6	0.055497907
5	0x3deebc82	0.11657049
6	0x3d8633c4	0.06552842
7	0x3e1ec46b	0.15504615
