ML Model/tv_detection_epoch_150/e-66-0.775.pth (torch, 508349 bytes, 205 tensors)

backbone.0.0.weight f4 [16, 3, 3, 3]
000000 42 61 01 00 6a 8e 04 00 5e 76 01 00 74 13 00 00
       1.26725e-40 4.1843e-40 1.34298e-40 6.978e-42
000010 09 88 00 80 89 33 01 80 e3 61 01 80 66 6e 02 00
       -4.88e-41 -1.10323e-40 -1.2695e-40 2.23274e-40
000020 20 2b 03 00 43 3d 01 00 1a c8 00 00 a9 ab 02 80
       2.90977e-40 1.13812e-40 7.1783e-41 -2.45251e-40
000030 cf f1 01 00 3b ca 03 00 71 ca 00 80 d5 0f 02 80
       1.7858e-40 3.48053e-40 -7.2622e-41 -1.8935e-40
000040 0d c5 02 00 a4 a2 02 00 6e 1d 02 00 74 c3 03 80
       2.5436e-40 2.42015e-40 1.94228e-40 -3.45622e-40
000050 47 56 01 00 f4 a8 01 80 38 77 02 00 98 06 01 80
       1.22786e-40 -1.52444e-40 2.26439e-40 -9.4201e-41
000060 30 63 02 80 5b 1d 00 00 58 7c 03 80 f1 0d 78 3c
       -2.19253e-40 1.0531e-41 -3.20113e-40 0.015140043
000070 7a bd 97 3c 5b 82 49 bd 85 15 13 3e 40 46 b9 3e
       0.018522967 -0.049196582 0.14363678 0.3618641
000080 95 d7 96 3b 31 94 1c be 54 89 5c be 06 7d a0 bc
       0.004603336 -0.15290906 -0.21536762 -0.019590866
000090 83 0d 8d bd 38 51 51 bc 47 4e 1a be 09 f3 88 3e
       -0.06887343 -0.012775712 -0.15068923 0.2674792
0000a0 ba e3 33 3f 7f 19 5d 3d f5 97 a8 be 5b 36 11 bf
       0.7026936 0.053979393 -0.32928434 -0.56723565
0000b0 22 49 f3 bd 77 a3 0b 3e 06 65 0b 3e 86 94 54 3d
       -0.11879183 0.13636576 0.13612756 0.051899455
0000c0 db 82 3c 3e 6c 59 9f 3e f4 14 c1 3d 4e 27 fe bd
       0.18409292 0.3112291 0.094278246 -0.124098405
0000d0 1f 1e 4d be 04 bb bf bd 02 bd b6 bd cf c1 02 3e
       -0.20031022 -0.09361842 -0.08922769 0.12769245
0000e0 65 71 3c 3d 30 6e c3 be a7 d5 45 3f 31 ca 4b be
       0.04600658 -0.38170004 0.7727913 -0.19901349
0000f0 4f 68 26 bf 0d 71 6b 3f 76 2a 71 be 2d e8 08 be
       -0.6500291 0.91969377 -0.23551354 -0.13369818
000100 47 2c 30 3e f1 69 12 bd 47 97 50 bf 80 ca a9 3f
       0.1720439 -0.035745565 -0.8148083 1.3264923
000110 51 3c e9 be e8 a5 84 bf c4 51 b8 3f 01 e4 e7 be
       -0.4555383 -1.036313 1.4399953 -0.4529114
000120 75 af 57 bd f8 c9 50 bc c2 24 5e 3d c8 82 65 be
       -0.052657563 -0.012743466 0.054234274 -0.2241317
000130 bc 84 d3 3e 1d bc cb bd 83 f5 96 be 01 77 e1 3e
       0.41312206 -0.09947989 -0.29484186 0.44036105
000140 e9 5b 17 be bc 76 11 bd 0d c9 a0 bc 6e 46 54 3d
       -0.14781155 -0.035513625 -0.019627118 0.05182498
000150 11 ed 4f 3d ce 7e 58 3e 85 5d a1 be 8e 07 b7 3c
       0.050763194 0.21142122 -0.31516662 0.02234247
000160 f5 36 9d 3e 5b aa a4 be 44 c6 73 bc d6 e1 0e bd
       0.3070599 -0.3216122 -0.014878813 -0.034883343
000170 54 b2 9a 3d 99 7a 41 3d 7d 0a 0e 3f dd 11 16 bf
       0.07553545 0.04723606 0.55484754 -0.5862101
000180 a4 49 84 3d 8e 18 28 3f 6e 4f 26 bf b7 f9 21 3c
       0.06459358 0.6566247 -0.6496495 0.009886197
000190 b0 39 09 3c 3b 5a 83 bd cc bc d2 3d 48 ac 20 3e
       0.00837557 -0.064136945 0.102899164 0.1569072
0001a0 fc 1e 46 be 6e 69 54 3d 49 32 10 3e a2 03 4c be
       -0.19347757 0.051858358 0.14081682 -0.19923261
0001b0 38 8e f5 bd 53 a9 92 bd 08 f8 d0 bd ad 99 07 3c
       -0.11990017 -0.07161202 -0.10203558 0.008276385
0001c0 f1 e6 d8 bc 65 79 16 be 5d 2b 0f 3e 65 96 65 3c
       -0.026477309 -0.14694746 0.13981386 0.014012908
0001d0 7a 5e 69 be 3e ee 91 3d 07 29 1d 3d b7 00 5b bd
       -0.22789946 0.07125519 0.038369205 -0.05346748
0001e0 5a 7a 36 3e 0a df c9 bd a4 d9 81 be 8d a7 42 3e
       0.17820111 -0.098569945 -0.2536136 0.19009228
0001f0 44 ad c0 bd fc d8 e3 be e3 c4 7a 3d 7e a9 52 bd
       -0.09408048 -0.44501483 0.061222922 -0.05143117
000200 02 e6 33 be 3c 10 2b 3d 79 f8 f3 bd 55 43 60 be
       -0.1756821 0.04176353 -0.11912627 -0.21900685
000210 99 7d 38 bd a4 1a 07 be bc e9 87 be 07 ca 3e 3e
       -0.045041654 -0.13193756 -0.26545513 0.18631755
000220 cf 60 3e 3e 5e 18 18 be db e3 b8 3d 87 81 17 3f
       0.18591617 -0.14853045 0.09027835 0.5918202
000230 7a 74 8f 3e a0 f9 54 be a1 53 05 3f cd 6d 20 3f
       0.28018552 -0.2079835 0.5208073 0.6266754
000240 fa c7 f9 3d 0c de e5 bc 35 50 c0 3d 7a 50 f2 3c
       0.121963456 -0.028059982 0.09390298 0.02957939
000250 79 89 28 be cf 45 3a bd 0b d8 03 3c 2d 46 18 be
       -0.16458692 -0.04547673 0.008047114 -0.1487052
000260 b8 89 64 bd 6b 6c 83 be df 7a 38 be 1c d2 73 3d
       -0.0557954 -0.25668654 -0.18015622 0.059526548
000270 9a 17 49 be 7b bc 09 bf 5e 5a 8a be 63 df 67 3d
       -0.1963791 -0.53803223 -0.2702207 0.056609523
000280 28 e6 f8 be 7f 5b 10 bf 04 aa 17 3e 35 d7 f9 3d
       -0.48613095 -0.5638961 0.1481095 0.121992506
000290 b1 c7 53 3d a6 63 0b 3f 10 70 8a 3c cc d4 c3 bd
       0.051704112 0.54448926 0.016899139 -0.09562072
0002a0 98 42 06 3e 2c 4c a6 bd 3a 8e bf 3b 6b 5f 8c bc
       0.13111341 -0.081199974 0.005845812 -0.017135343
0002b0 1c c0 9c bc f0 83 f8 bc de bf 61 3f 62 88 d8 bd
       -0.019134574 -0.03033635 0.8818339 -0.10572888
0002c0 4a 2c a1 be 1d fa 29 3e 21 1f 6b be 88 72 6b bd
       -0.31479102 0.16599317 -0.22961093 -0.057482272
0002d0 f9 80 72 3d 69 0b 26 3d 56 8d 20 bb 9e 17 8d 3e
       0.05920503 0.040538225 -0.0024498305 0.2755708
0002e0 21 7b 8c 3d 36 be 6d 3c 29 5f 4b bd 93 a3 db bd
       0.068594225 0.014510682 -0.0496513 -0.10724559
0002f0 99 05 0a bd d4 ce 63 3c d1 67 e7 3b ae db 80 bd
       -0.033696745 0.013904292 0.0070619364 -0.062919006
000300 72 46 3a bc be 7a d5 3d 9d 30 95 3e 2e 4a 38 bc
       -0.0113693345 0.10423802 0.29138651 -0.011248155
000310 21 b1 c6 3d 5d df ba 3e a0 c7 ad bd aa ab 40 be
       0.097017534 0.36498538 -0.08485341 -0.18815485
000320 5c 44 64 be 8a 83 2a bd 94 4c 94 3d 6b 2e 94 3e
       -0.22291702 -0.04162935 0.072411686 0.28941664
000330 5a 6f 62 ba 76 27 28 3e 83 9e bd 3e c0 27 08 bd
       -0.00086378085 0.16421303 0.37034997 -0.033241034
000340 fa 3a 7a bc c2 45 29 bc 85 8a 2d 3d 9f 95 2e 3e
       -0.01527285 -0.010331573 0.04236843 0.17049263
000350 37 08 a1 3e 1d 8e b9 3d 63 0e 47 3e 74 48 a8 3e
       0.3145158 0.09060309 0.19439082 0.32867777
000360 b1 dc 71 3d b8 fc 44 3d c7 e9 16 be 6a 72 34 be
       0.05904836 0.048092574 -0.14737616 -0.1762177
000370 99 53 29 3f ac 5f 07 bf 5b 3c c5 3c 35 0a 39 3f
       0.66143185 -0.5288036 0.024076631 0.722812
000380 cc 1a 2b bf 51 04 03 bd f3 4c 2d 3e 41 86 5b be
       -0.66837764 -0.03198654 0.16923885 -0.21437933
000390 db ae 0e be 03 df 85 3f d4 58 6b bf e0 bb 9e 3a
       -0.1393389 1.0458683 -0.91932416 0.0012110434
0003a0 6e 55 83 3f 7e 63 76 bf 7c 44 9c 3d 5f 02 de 3c
       1.0260446 -0.96245563 0.0763025 0.02710074
0003b0 56 a8 d1 bb 1f b3 d4 bd bb 13 d0 3e 0e 01 b0 be
       -0.006398241 -0.10385727 0.40640053 -0.34375805
0003c0 4e e4 2e 3c a3 13 d5 3e ba e6 c5 be 43 8d 02 00
       0.010674549 0.41616544 -0.38652593 2.34346e-40
0003d0 3c 0d 03 00 93 38 01 00 9b d7 03 80 7e 0b 03 80
       2.80254e-40 1.1213e-40 -3.52851e-40 -2.79629e-40
0003e0 c2 de 02 00 dc 84 01 00 c6 07 02 80 fc 46 02 80
       2.63581e-40 1.39496e-40 -1.8646e-40 -2.09135e-40
0003f0 f6 f8 01 80 df 71 01 00 c4 7e 04 00 fd 55 03 00
       -1.81146e-40 1.32685e-40 4.12817e-40 3.06353e-40

backbone.0.1.weight f4 [16]
000000 54 b9 03 00 64 a8 ca 3d e2 71 e5 3d a1 f4 8f 3e
       3.4199e-40 0.09895399 0.11203362 0.28116325
000010 0f c7 57 3e f4 10 61 3e 54 7c c6 3d b0 e5 9b 3e
       0.21072029 0.21979123 0.096916825 0.30448675
000020 1d 6d 82 3d b3 80 01 00 d0 31 d7 3e ae 3c 0d 3e
       0.06368468 1.38004e-40 0.4203019 0.13792679
000030 9e 1f 99 3e 1f db b6 3e 17 61 02 80 57 82 b3 3d
       0.29906934 0.3571405 -2.185e-40 0.08765095

backbone.0.1.bias f4 [16]
000000 cb eb 02 80 51 de 1d 3f c5 e3 d3 3e e2 ab 78 3e
       -2.68258e-40 0.6166735 0.41384712 0.24284318
000010 95 99 59 3f 51 e6 10 3f f9 a8 fd 3e 04 d0 fe 3e
       0.8499997 0.56601435 0.49542978 0.49768078
000020 f6 56 16 3f 21 79 00 00 76 e3 8d be d3 f1 66 3f
       0.5872644 4.3453e-41 -0.277126 0.90212744
000030 37 27 b6 3e 0d aa 98 be 81 2c 02 80 4c 3c 00 3e
       0.35576794 -0.29817238 -1.99636e-40 0.12523001

backbone.0.1.running_mean f4 [16]
000000 6b 55 b2 80 40 7a 25 42 64 9d 2a 42 6c ce f7 40
       -1.637736e-38 41.369385 42.6537 7.743948
000010 98 e5 41 c3 a8 64 a6 c2 d8 21 03 43 34 4e 5f 43
       -193.89685 -83.196594 131.1322 223.30548
000020 35 67 03 41 6d 3d 99 80 97 53 bb c1 af 76 3a 43
       8.212697 -1.4072866e-38 -23.415815 186.46361
000030 25 7d 7f 41 f0 38 6b 42 94 73 30 00 e1 b0 18 c2
       15.968053 58.805603 4.449565e-39 -38.172733

backbone.0.1.running_var f4 [16]
000000 04 00 00 00 13 d6 13 45 98 c3 14 46 87 95 e4 44
       6e-45 2365.3796 9520.898 1828.6727
000010 9e 12 86 46 d9 9f 2b 46 1c d8 29 46 2a 50 b4 46
       17161.309 10983.962 10870.027 23080.082
000020 71 8e b6 45 04 00 00 00 f0 60 59 45 d9 da 74 46
       5841.805 6e-45 3478.0586 15670.712
000030 77 85 34 45 d0 a1 46 45 04 00 00 00 60 0a ff 44
       2888.3416 3178.1133 6e-45 2040.3242

backbone.1.conv.0.0.weight f4 [16, 1, 3, 3]
000000 e8 96 01 00 52 f2 03 80 a4 27 04 00 63 4d 01 00
       1.4597e-40 -3.62435e-40 3.81562e-40 1.19597e-40
000010 3d f5 02 80 e1 a8 02 00 a2 0f 03 00 a2 c4 03 00
       -2.71646e-40 2.44253e-40 2.81114e-40 3.46045e-40
000020 af 02 04 00 a6 10 19 bd d1 55 02 bd ed 8c d1 3c
       3.68305e-40 -0.037369393 -0.031820122 0.025579894
000030 b4 57 f1 3c 49 2b 88 bd a7 a8 3c 3f d1 af da bc
       0.029460765 -0.06648881 0.73694843 -0.026695164
000040 02 19 34 3d 6a d2 54 bf 0e 5c 23 3c 7b f2 75 bd
       0.04396916 -0.83133566 0.009970678 -0.0600457
000050 51 01 1e be a3 49 70 bc b6 b1 3c 3d 3a c5 8a 3f
       -0.1543019 -0.014665994 0.046067916 1.0841439
000060 5b 50 a8 3b 3d 18 ab bd 69 ee 56 bd 5d 06 89 bd
       0.0051365322 -0.083542325 -0.05247346 -0.06690667
000070 b1 9e 24 bd 2d 79 ac bd a0 b5 71 3b 32 a1 4d 3f
       -0.040190402 -0.0842155 0.0036881939 0.8032409
000080 52 7b 91 be f5 ee 5b bd 19 77 c2 bc a1 cb 46 be
       -0.28414398 -0.053694684 -0.02373843 -0.19413616
000090 82 43 12 3f 31 f3 f6 3f 84 01 eb 3e 0f e0 5c 3e
       0.5713426 1.9292966 0.45899594 0.21569847
0000a0 65 e8 e2 3e 38 c4 4d 3e 5c 34 5a bf 80 9a 07 c0
       0.44317928 0.20094383 -0.85236144 -2.118805
0000b0 77 ba 3a bf 21 48 53 be a5 14 c3 3c 29 e9 53 be
       -0.7294077 -0.20632984 0.023813555 -0.20694412
0000c0 f6 e2 07 3e 65 53 c1 3e 83 48 d3 bf 53 e2 8e 3d
       0.13270172 0.37758937 -1.6506504 0.06976762
0000d0 61 50 a8 3f cd c7 c7 3e 39 63 25 bd 2b cf cc 3d
       1.314953 0.39019623 -0.04037783 0.10000452
0000e0 ef 91 3e bd 78 7a 1f 3b fe 77 5e 3d 15 b8 46 bf
       -0.046525892 0.0024334472 0.054313652 -0.77624637
0000f0 33 69 10 3c f3 1c 6a 3d 6f 87 83 3f 12 69 f8 be
       0.008814144 0.057156514 1.0275706 -0.48517662
000100 0a da 8c be cb ee 3b 3f 20 b0 17 c0 dc cb b7 be
       -0.275101 0.73411244 -2.3701248 -0.3589772
000110 ce 1f 27 40 11 1c e3 be a2 74 19 be ab 78 28 3f
       2.6113162 -0.4435735 -0.14985898 0.65809125
000120 ab 98 16 bd cb 50 3b 3c d9 45 de bd 10 93 39 3d
       -0.03676669 0.011432837 -0.10853166 0.045306265
000130 a4 1a 79 bf 7f 99 17 3e bd 4c 8e 3d 4c 1e 97 3c
       -0.97306275 0.14804648 0.069482304 0.018447064
000140 38 92 9f bd 43 71 02 00 f7 28 03 80 e2 c9 00 80
       -0.07791561 2.24302e-40 -2.90202e-40 -7.2422e-41
000150 04 70 00 80 9a 08 02 00 84 b7 01 80 07 e5 02 00
       -4.0184e-41 1.86757e-40 -1.57668e-40 2.6583e-40
000160 8c eb 00 00 e6 d7 01 00 18 70 74 3c 52 a7 12 be
       8.4498e-41 1.69285e-40 0.014919303 -0.1432164
000170 91 fa c8 be c6 11 2a be 98 0b 2a 3e e6 38 ce 3e
       -0.39253667 -0.16608343 0.16605985 0.40277785
000180 d6 3f ae be 42 c2 a9 3e bc d0 f9 3e 4d c0 3d 3e
       -0.34033078 0.3315602 0.48792064 0.18530388
000190 f8 dd c7 3f 11 4b 7a 3f c4 ed d1 3d cf 01 1b 3d
       1.5614614 0.9777079 0.10250428 0.03784352
0001a0 b8 d1 00 be 70 79 98 be a9 a4 d1 bf 6d b4 7b bf
       -0.12580001 -0.2978015 -1.6378375 -0.9832218
0001b0 f3 61 84 bc 00 0e 24 3d 7d 9d 0a bd 48 e1 41 bc
       -0.016159987 0.040052414 -0.0338416 -0.011833496
0001c0 05 07 59 bd 91 88 3f bf e8 e1 bf bc 77 e3 1b 3c
       -0.05298521 -0.7481776 -0.02342315 0.009514681
0001d0 f2 59 3c 3f eb b2 01 bc 88 c4 99 3d cf 3e 36 be
       0.73574746 -0.0079161925 0.075081885 -0.17797397
0001e0 ca 5c 62 3d 64 04 f1 3d 91 ae c3 bd 11 9a 21 be
       0.05526427 0.117684156 -0.0955478 -0.15781428
0001f0 a4 ec 95 bd c9 6e 1e 3f 24 03 04 00 3a 76 03 00
       -0.07320526 0.61887795 3.68469e-40 3.17918e-40
000200 a2 01 01 80 2b ec 00 80 36 0c 02 80 9c 74 02 80
       -9.2421e-41 -8.4721e-41 -1.88051e-40 -2.25503e-40
000210 54 15 01 00 dc d7 03 00 73 e0 01 80 db 40 06 3e
       9.9487e-41 3.52942e-40 -1.72353e-40 0.13110678
000220 27 52 fe 3b 8d 91 81 3b 5d d9 10 3e 43 c6 43 bd
       0.007761258 0.0039541186 0.14145418 -0.0477965
000230 8f 00 2d be 38 2c cb 3d 91 1a 42 be c3 8a 6d be
       -0.16894744 0.099205434 -0.18955447 -0.23197465

backbone.1.conv.0.1.weight f4 [16]
000000 c4 d8 01 00 0c 5d 08 3f 91 90 14 3f cb 20 12 3f
       1.69596e-40 0.5326698 0.5803309 0.5708129
000010 55 0c 93 3f d5 3a f1 3e b4 c2 09 3f c7 fa 4f 3f
       1.1488138 0.47115198 0.5381272 0.8124203
000020 bd 1e d5 3e c8 ae 00 80 53 39 63 3e ac 04 81 3f
       0.41625014 -6.27e-41 0.22189836 1.0079551
000030 f9 ab 5e 3f b0 a8 79 3e 49 50 03 00 42 35 aa 3e
       0.8698116 0.24380755 3.04307e-40 0.33243757

backbone.1.conv.0.1.bias f4 [16]
000000 ee 38 81 00 94 fa 31 3f b4 3e ae 3f 67 69 9d 3e
       1.1867202e-38 0.69522977 1.3612885 0.30744478
000010 73 c9 2d 3e 74 df 46 3f 7f d7 14 3f 96 29 09 3f
       0.16971378 0.7768471 0.5814132 0.5357908
000020 33 a9 e7 3e da 47 0c 80 a5 4b ee 3e b1 2f 98 3d
       0.45246276 -1.127801e-39 0.46542087 0.074309714
000030 02 c9 37 3f 90 c7 a0 be 42 71 8d 80 47 80 af 3e
       0.7179109 -0.31402254 -1.2989434e-38 0.34277555

backbone.1.conv.0.1.running_mean f4 [16]
000000 04 00 00 00 94 3b c3 bd 3b f2 a0 3e f3 b4 9b 3c
       6e-45 -0.09532848 0.31434807 0.019007182
000010 f1 51 d2 3d 48 a6 13 3e a8 61 41 3e d8 e5 36 bd
       0.10269535 0.144189 0.18884909 -0.04465279
000020 5f da 06 bf 04 00 00 80 d4 44 8c 3c c6 4d 25 be
       -0.5267696 -6e-45 0.017122664 -0.1614295
000030 39 76 3c bd e0 a5 99 3c 04 00 00 80 3a a6 0a bd
       -0.046011183 0.018755853 -6e-45 -0.033849932

backbone.1.conv.0.1.running_var f4 [16]
000000 04 00 00 00 48 92 25 3c cb 44 15 3c 54 94 14 3d
       6e-45 0.010105677 0.00911064 0.03627427
000010 b4 c9 72 3e f1 03 49 3d 63 59 af 3b 83 a6 ce 3e
       0.23709756 0.049076024 0.005351232 0.40361413
000020 03 b2 80 3b 04 00 00 00 e9 64 1a 3c 02 fd 12 3e
       0.0039274707 6e-45 0.009423473 0.14354327
000030 7c 80 80 3d 28 6e 44 3b 04 00 00 00 95 48 42 3a
       0.062745064 0.0029972885 6e-45 0.0007411328

backbone.1.conv.1.weight f4 [8, 16, 1, 1]
000000 eb 23 2c 00 df 7f 5f be 36 1b b3 bc 8d 10 3f 3e
       4.053647e-39 -0.21826123 -0.021863561 0.18658657
000010 bd 9a 4f bd 1c da 25 3f 29 f2 83 3e b1 b5 dd bd
       -0.05068468 0.64785933 0.2577069 -0.108256705
000020 fe 8c 93 bd 58 62 12 00 44 fb 96 3c ec 2d 83 3e
       -0.072046265 1.688318e-39 0.01843036 0.25620973
000030 f6 0d f6 3d 97 ea 00 bd 01 76 14 00 f1 69 57 be
       0.120143816 -0.031473722 1.879042e-39 -0.21036507
000040 d3 a6 17 00 2a 77 95 bd 06 de 04 bf dc 43 8e 3b
       2.172062e-39 -0.07298119 -0.5190128 0.0043415856
000050 eb 53 85 3e cc 5e 9a bd d1 34 7a 3c 44 4a b0 3c
       0.26040587 -0.07537612 0.0152713815 0.021519788
000060 b1 12 c2 3d ed e0 0d 00 c9 3b 75 bd bc c9 d4 3d
       0.09476221 1.27455e-39 -0.05987147 0.1039004
000070 eb 78 3e be b3 5a 7f bc 68 34 00 00 f0 f6 97 be
       -0.18600814 -0.015585589 1.88e-41 -0.29680586
000080 3d 0e 12 80 d0 5e e7 3e aa ab 07 3e be 64 d3 3e
       -1.658147e-39 0.45189524 0.13249078 0.41287798
000090 31 00 34 be 0f 27 30 be 5e c9 8a be 0c 84 ce 3d
       -0.17578198 -0.172024 -0.27106756 0.1008378
0000a0 1e cd 66 be ba 5f 02 80 05 51 43 be 58 e0 c4 3e
       -0.22539183 -2.18011e-40 -0.19073875 0.3845241
0000b0 1a 15 3e 3d ec 7c dd bd e1 3b 25 00 1b 6e b6 be
       0.046406843 -0.108148426 3.419394e-39 -0.3563088
0000c0 b7 9a 12 00 27 dd 38 be ca 78 f6 bd cf ef c0 bd
       1.70854e-39 -0.18053113 -0.120347574 -0.0942074
0000d0 a7 fa e8 3e f3 ef a5 be d9 7e 06 3e 0b 80 5f bd
       0.45503733 -0.3240963 0.13134326 -0.05456547
0000e0 d3 9a 22 be 7c 9b 26 80 f7 d6 cd 3d 39 15 cf be
       -0.15879373 -3.545526e-39 0.10050767 -0.4044588
0000f0 b2 04 d9 3e ef 73 9d 3e e4 09 48 80 2d 33 be be
       0.42386395 0.30752513 -6.615704e-39 -0.3714842
000100 56 7f 08 00 61 c9 b8 be 2f a2 67 3e 30 c7 ae 3c
       7.80363e-40 -0.3609114 0.22620462 0.021335214
000110 96 9e f4 3d a8 5a 2f bf 03 21 2e 3e 15 a5 71 be
       0.1194431 -0.68497705 0.1700478 -0.2359813
000120 de 6b 36 bd 5e b5 00 00 be 55 90 3e 3e 25 66 bd
       -0.044536464 6.5062e-41 0.28190416 -0.05618786
000130 26 5a 71 be 9a 2b a7 3d 61 18 0e 00 c1 43 0d bc
       -0.23569545 0.08162613 1.294442e-39 -0.008622111
000140 42 03 10 00 3d 7a cc bd 36 b2 29 3d 64 58 13 bf
       1.470537e-39 -0.099842526 0.04142972 -0.5755675
000150 f3 bd 9a be ff 0f 07 be c5 61 20 3e 13 2b 12 3f
       -0.30223045 -0.13189696 0.15662296 0.57096976
000160 5f 95 da 3e 3c 4a 28 80 7c 41 01 3e 53 dc dc 3e
       0.42692086 -3.70005e-39 0.12622637 0.43136844
000170 94 2c ad 3d 7f f7 35 3d fa 0c 12 80 77 90 58 be
       0.08455768 0.044425484 -1.657694e-39 -0.21148859
000180 e3 c4 06 00 f5 6a a3 3e e0 2b 5c bd ea 97 dc be
       6.21643e-40 0.3191754 -0.05375278 -0.4308465
000190 77 e5 d0 be c8 b5 86 3d 8a 6f b8 3b e0 8c 52 bf
       -0.40800068 0.06577641 0.005628531 -0.8224621
0001a0 67 71 bc 3d 34 8f 12 80 46 75 4f bd e6 4d 5d 3e
       0.09201317 -1.70441e-39 -0.05064895 0.21611747
0001b0 99 17 a3 bd 26 56 9e 3e a7 d9 08 80 02 41 57 be
       -0.07963485 0.309251 -8.12763e-40 -0.21020892
0001c0 74 58 28 00 62 15 b8 3d 6e db 7f 3e 0c 05 1f bd
       3.705151e-39 0.089884534 0.2498605 -0.038823172
0001d0 89 52 02 3f 81 c1 12 3f ac bf fc bd b7 bd 20 3e
       0.5090719 0.57326514 -0.12341246 0.1569737
0001e0 ca e0 81 bd b9 ca 09 80 f8 80 e5 3d b0 84 e9 be
       -0.06341703 -8.99243e-40 0.112062395 -0.45609045
0001f0 59 6d 7b be fd ff 74 3d df 2f 09 80 b4 eb 61 be
       -0.24553432 0.059814442 -8.43692e-40 -0.2206257

backbone.1.conv.2.weight f4 [8]
000000 43 88 03 3f 0e e0 f2 3e 0e 68 32 3f 43 a2 04 3f
       0.51379794 0.47436565 0.69690025 0.5181009
000010 fc 79 05 3f a2 f4 1b 3f 01 cc 14 3f 8e 9d 04 3f
       0.5213926 0.60920155 0.58123785 0.5180291

backbone.1.conv.2.bias f4 [8]
000000 5a 33 98 39 9a 14 8f 39 dd 1a 0a b9 89 e3 00 39
       0.0002902996 0.00027290435 -0.00013170713 0.00012291795
000010 1b 04 15 b9 2e 47 75 b9 5e a2 83 38 a4 d7 00 b8
       -0.00014211277 -0.00023391537 6.27681e-05 -3.071841e-05

backbone.1.conv.2.running_mean f4 [8]
000000 4e 68 06 3f d0 c0 6c bf e1 42 1e 3e c5 b5 91 be
       0.52502906 -0.9248171 0.154552 -0.28458992
000010 ce 61 15 bf 0b 1d c1 3e 63 e7 2e bf a3 45 33 3f
       -0.58352363 0.3771747 -0.6832182 0.7002813

backbone.1.conv.2.running_var f4 [8]
000000 55 36 e1 3d 8d 16 04 3e ee a7 87 3e b1 93 9a 3e
       0.10996691 0.12899227 0.26495308 0.30190805
000010 3b 8f 54 3e a1 29 af 3e 2d c0 bd 3e 6b 71 47 3e
       0.20757763 0.34211448 0.3706068 0.1947686

backbone.2.conv.0.0.weight f4 [48, 8, 1, 1]
000000 0e 3b 08 3e 48 60 06 bd 2a db 23 3e 3e c9 9f be
       0.13303778 -0.032806665 0.16001573 -0.31208223
000010 51 ef 2d be 87 36 46 3d 9e 9a 70 3e 96 46 c2 3d
       -0.16985823 0.048391845 0.23496482 0.094861194
000020 20 03 f8 3d 75 33 8a 3d 74 63 97 3d 03 e8 5a 3d
       0.12109971 0.06748096 0.07392016 0.05344392
000030 e3 0e 6d bd 6d 89 c7 be 55 b8 0f be de cb 2d be
       -0.057875525 -0.38972035 -0.14035161 -0.169723
000040 49 d3 02 be 24 79 7c 3d 28 45 24 be 6c 0a 10 3e
       -0.12775911 0.061638966 -0.16042006 0.14066476
000050 b6 57 aa 3c 84 f2 1f be 7a a8 7b be 79 a3 2b 3e
       0.020793777 -0.15619856 -0.24575987 0.16761579
000060 87 b5 2c be af 00 4a 3e 29 ce 36 3e 82 ae ee be
       -0.16866122 0.19726823 0.17852081 -0.46617514
000070 bf b4 db 3c 4c 1b c3 bd 4d 12 57 be 7d 9a 06 bf
       0.026819585 -0.09526691 -0.21003075 -0.5257948
000080 c1 ec af 3d 5a aa 24 be ea 78 16 3e f6 4a 6b be
       0.08590079 -0.16080609 0.14694563 -0.22977814
000090 c9 86 d5 bd 8b f5 ac 3d 5d 66 9d 3d d2 31 7c be
       -0.10426099 0.08445271 0.0768554 -0.2462838
0000a0 10 c5 ab 3d a9 e9 cd bb 1c 05 73 3e 4e 57 ac bd
       0.08387196 -0.006283958 0.23732418 -0.084150895
0000b0 22 01 8f bd 19 21 79 3b a6 e3 73 3e 7a 8f fc bd
       -0.06982638 0.0038014113 0.2381731 -0.123320535
0000c0 05 bc 8d 3c 2a fd 0f 3e 4d 13 4c 3e f6 df 16 3e
       0.017301569 0.14061418 0.19929238 0.14733872
0000d0 ce b1 98 bd 3a e5 b4 be 9c 83 9b bd eb 33 6f bd
       -0.074557886 -0.35331136 -0.07593462 -0.058399122
0000e0 45 01 1a 3d 81 b4 2e 3e 50 7c 79 3d c3 80 7a 3b
       0.037598867 0.17061044 0.06090957 0.003822372
0000f0 e5 38 80 3d 70 0f 33 3d 7c 38 45 bd e8 51 08 3e
       0.06260852 0.043715894 -0.04814957 0.13312495
000100 37 88 34 bb e1 ab 03 bb 39 37 0d 3f 32 62 da 3c
       -0.002754701 -0.0020091461 0.5516239 0.026658151
000110 36 81 d1 bd a3 5e 16 bb 23 4d eb bc 13 7c a4 bc
       -0.10229723 -0.0022944591 -0.028723305 -0.020078694
000120 7c 8a 9b bd 24 2c b1 3e b2 42 92 bd 9d 72 17 3e
       -0.07594773 0.3460399 -0.07141627 0.14789815
000130 d5 d1 f8 bd bc fd b0 3d 6a 91 96 3d e7 6a 53 bd
       -0.12149397 0.08642146 0.07351954 -0.051615622
000140 c5 fc 18 be 4e e7 c8 bd 0f 84 5a 3d 1b 3b d9 be
       -0.14940174 -0.09809743 0.053348597 -0.42427906
000150 94 4c b7 3d a4 47 ab 3d 4a 6c 4d bb 93 43 e4 bc
       0.08950153 0.08363274 -0.0031345063 -0.027864253
000160 76 30 76 bd 35 4f 8f 3d d9 e0 9c be 89 c3 91 3e
       -0.06010481 0.069975294 -0.30640295 0.28469494
000170 1e bb 98 3d ad 33 1b be e8 6b ec bd 2a 5d 56 3e
       0.07457565 -0.15156431 -0.11544019 0.20933977
000180 94 a8 1b 3e 91 6c 9c 3d 56 fe 27 be f8 a0 05 3e
       0.15201026 0.07637895 -0.16405615 0.13049686
000190 af 37 8e 3d db 5f 23 3e 96 64 31 bd 47 af 1b bd
       0.069442146 0.15954535 -0.043308817 -0.038008954
0001a0 f4 02 92 3e 62 42 52 be 63 72 37 bd 7b ea 93 bd
       0.28517878 -0.20533136 -0.044786822 -0.07222458
0001b0 aa eb 48 be c8 40 51 3a dd 70 0f 3e 0a 59 52 3e
       -0.19621149 0.00079823704 0.14007898 0.20541778
0001c0 4a 4b 19 3d e3 84 33 be 3c ec f4 3c e8 1e b8 3e
       0.037425317 -0.17531161 0.029897802 0.3596108
0001d0 40 76 d0 3b 51 7d 32 3e 8e 22 b5 bd 07 8f ca be
       0.0063617527 0.17430617 -0.088444814 -0.39562246
0001e0 14 17 14 3d ce 22 7f 3e 95 54 4f 3e d1 6f 2f 3e
       0.03615482 0.2491562 0.20247109 0.17132498
0001f0 f7 2b a5 be a2 26 28 be 4f a2 6c bb a4 cc aa bc
       -0.32260105 -0.16420987 -0.0036107486 -0.020849533
000200 b9 8c 99 3e c9 94 53 3e ce 51 10 3e 21 0a 4e 3e
       0.29990175 0.20662226 0.14093706 0.20121051
000210 8d ed 22 3e 3b c0 df 3d 36 a3 2a 3e 60 80 9a 3d
       0.15910931 0.10925337 0.16663823 0.07544017
000220 50 90 cc 3c ce b5 68 3d 43 19 d7 3d ac b1 fc bd
       0.024971157 0.056814007 0.10502865 -0.12338576
000230 7a dc 3f be 03 e5 6a 3e 69 a6 3b bd b9 1b 17 3d
       -0.18736449 0.22938924 -0.045812998 0.036891673
000240 e0 02 8d be 50 77 73 3d 83 aa 3a be 4e d5 14 3e
       -0.27541256 0.059439957 -0.18229108 0.14534494
000250 40 97 1c be 9c fb e4 bd d8 b3 56 be 81 7b 84 3e
       -0.15292072 -0.11180803 -0.20967042 0.25875476
000260 85 a3 92 bd f2 a6 f6 3d f9 b4 5e be 10 f7 b4 3e
       -0.07160095 0.12043561 -0.21748723 0.35344744
000270 e2 e5 b7 3d e6 ef 56 be 08 5c 2c be e4 bf eb 3e
       0.089793935 -0.20989951 -0.16831982 0.46044838
000280 49 62 b4 3d 12 d9 2e 3e 9e b4 5c 3e ac 6b 81 3e
       0.08807809 0.17074993 0.21553275 0.2527746
000290 42 0a f0 3c 70 a3 d5 3d c1 75 1f 3e 1b 3e cd 3d
       0.029301766 0.10431564 0.15572263 0.10021611
0002a0 1b df 89 3d bd 15 90 bd d2 3a c0 3d 60 e3 c8 be
       0.06732007 -0.07035396 0.09386219 -0.39235973
0002b0 9d f8 03 3e 04 20 03 bd 1c 7c b4 be 9c 56 5c bc
       0.12887807 -0.032012954 -0.35250938 -0.013448384
0002c0 0b ed 9e 3d 33 10 e0 3d 1f 5c b0 3c 4d 31 80 3d
       0.07760056 0.1094059 0.021528302 0.062594034
0002d0 c8 27 65 be b1 6c 5f bd 28 74 1d bd 4e 95 12 be
       -0.22378457 -0.054547016 -0.038440853 -0.14314768
0002e0 6c c0 8c 3e b9 c5 09 bd b3 12 f7 3d 3b e9 a4 3d
       0.27490556 -0.03363583 0.120641135 0.08052298
0002f0 5c b6 98 3d 3c a7 8a bd 85 39 b6 bd e1 17 0e bb
       0.07456657 -0.06770179 -0.0889769 -0.0021681713
000300 f6 9e 18 be e1 11 11 be 29 ba 99 3d 33 31 43 3e
       -0.14904389 -0.14166977 0.0750621 0.19061737
000310 82 ac 68 be 77 f9 09 bd d0 bb 40 3d 3a 11 de bc
       -0.22722057 -0.033685174 0.047054112 -0.027107824
000320 38 e5 c5 bc 83 a2 d4 be 96 45 7f 3e 81 a2 78 bd
       -0.024157152 -0.41530237 0.24928889 -0.06070185
000330 48 13 c0 3d 40 c6 05 be 00 e8 46 bc d6 b2 8e 3e
       0.093786776 -0.13063908 -0.012140274 0.27870816
000340 d7 44 4c be c1 ab a7 bc 25 11 61 3e 8c 08 ed 3c
       -0.19948135 -0.02046764 0.21979196 0.02893474
000350 40 31 40 be cd ef ed 3b 28 80 2e 3e 36 ae 06 3e
       -0.18768787 0.0072612525 0.17041075 0.13152394
000360 e7 ad 7d be 6f 45 d3 3c 16 d5 f1 bd ed 76 72 3e
       -0.2477337 0.025789944 -0.11808221 0.23678179
000370 4a 4a cb 3d 5d b3 9a 3d 04 e5 b6 3e 29 c7 dc 3d
       0.09926279 0.07553742 0.357216 0.10780174
000380 e0 e2 ad 3e 77 b8 72 bd a9 ce 7b be bb 24 2b bd
       0.33962154 -0.05925795 -0.24590553 -0.041783076
000390 bf d7 d8 bc 39 e6 72 be 3a eb 45 bb d9 b0 4f 3e
       -0.026470063 -0.23720635 -0.003020002 0.20282306
0003a0 27 16 6a 3d bf 59 25 bc c2 6f 76 3e 9e ef 2f 3e
       0.057150032 -0.010092198 0.2406607 0.1718125
0003b0 80 2a 75 3d 4b 27 b1 3d 1a 09 a9 bc 28 a2 94 3d
       0.059854984 0.08650073 -0.020634223 0.07257491
0003c0 ae e6 80 be f7 c4 c1 bd c1 24 8f be ef 83 9e bd
       -0.25175995 -0.09461396 -0.27957729 -0.07740008
0003d0 c9 d3 52 be b6 c6 ea 3e 41 95 ab 3d e7 b4 2e 3e
       -0.20588602 0.4585473 0.08378077 0.17061196
0003e0 c3 ed 23 3e 76 ec f4 bc f0 fc 6f 3d 18 8b 59 be
       0.16008668 -0.02989791 0.05859083 -0.21244466
0003f0 d4 6e 6e be 08 a0 dc 3d 80 1b f7 3b 39 73 84 3e
       -0.23284465 0.10772711 0.00754112 0.25869158

backbone.2.conv.0.1.weight f4 [48]
000000 d3 bd e6 3e d0 c5 bb 3e 39 f3 ee 3d be 44 1e 3e
       0.450667 0.36674356 0.11667485 0.1545591
000010 60 df 08 3e c6 79 94 3d 24 9a 9d 3e 80 bc aa 3d
       0.13366461 0.07249789 0.30781662 0.08336735
000020 13 87 a5 3e 47 e4 15 3e 55 cb 80 3e 7b 0a c5 3e
       0.32329616 0.14637862 0.2515513 0.38484558
000030 54 3c d3 3d 8b 28 32 3e 8d 0c 2a 3e a7 ed c7 3e
       0.10314241 0.17398278 0.1660635 0.39048502
000040 73 aa 32 3e 59 fe 74 3e 01 a3 c7 3e ee 85 8b 3e
       0.17447834 0.23925151 0.3899155 0.27250618
000050 19 52 8d 3e cf b5 00 3e 81 ba 2c 3e 3a 2d 2e 3e
       0.27601698 0.12569354 0.1686802 0.1700944
000060 a9 c8 0d 3e fb 24 31 3e 5f 5d 34 3e b8 9a 8b 3e
       0.13846077 0.17299263 0.17613743 0.2726648
000070 b7 e4 a2 3d 8b 30 43 3d a2 ca f3 3e b2 c3 b6 3d
       0.0795378 0.047653716 0.47615534 0.08924045
000080 4b ab 86 3e 47 a7 bc 3e 13 bc a2 3e 23 c4 5b 3e
       0.2630256 0.36846372 0.31784114 0.21461539
000090 79 81 b7 3e 32 34 ce 3e 82 3b 3a 3e 91 93 d2 3e
       0.35840967 0.40274197 0.18186763 0.4112821
0000a0 b4 70 f0 3e b0 5b 11 3e aa 89 fb 3d 68 c2 43 3e
       0.46960986 0.14195132 0.12282117 0.19117129
0000b0 fa 0a 4c 3e c9 87 95 3e e5 a1 ae 3e 54 12 b3 3d
       0.19926062 0.29205158 0.3410789 0.0874373

backbone.2.conv.0.1.bias f4 [48]
000000 29 98 ed bc 82 86 aa 3c 0c 9b 80 3e cc 48 ca 3e
       -0.02900322 0.020816091 0.2511829 0.39508665
000010 b0 dc 97 3e 9d f8 98 3e 67 33 43 3d 34 45 01 bc
       0.2966056 0.29877177 0.047656443 -0.0078900345
000020 c2 20 ed bd d7 90 0a 3e db 6c 99 bc 57 4b 96 3d
       -0.11578514 0.13531815 -0.018728664 0.07338589
000030 d4 69 3f 3e b7 28 15 3e 05 87 3c 3e 5d 67 63 bd
       0.18692714 0.14566313 0.18410881 -0.055518497
000040 57 56 c2 bd 62 5a fd 3d ba ee 38 3d 29 9b 97 3e
       -0.09489124 0.12370755 0.045149542 0.29610565
000050 15 75 73 3e ba 2f 30 3e 51 a3 19 3e 9a 63 47 3e
       0.23775132 0.17205706 0.15003707 0.19471589
000060 b4 69 2d 3e 29 0c db 3c ad 0d ea 3d 46 d7 ab be
       0.16934854 0.026739197 0.1142839 -0.33562678
000070 1f dd 94 3e f0 01 90 3e 64 23 53 bc 28 00 5b 3e
       0.29074952 0.28126478 -0.012886856 0.21386778
000080 eb 00 2d 3d 2f 2b a5 3c ad e0 a9 3d a8 8b 30 3e
       0.042237204 0.020162193 0.08294807 0.17240775
000090 23 82 0c bd 00 1b 25 3d f6 c0 33 3e a4 c6 1d 3d
       -0.034303796 0.040308952 0.17554078 0.038519517
0000a0 a4 02 ca 3c 3b 00 36 3e 5e bd 91 3e b7 6d 1a 3e
       0.024659462 0.17773525 0.28464788 0.15080915
0000b0 24 7d 11 3e 7b d6 33 bd c1 0f 3f 3e 1e 89 5f 3e
       0.14207894 -0.043905716 0.18658353 0.2182965

backbone.2.conv.0.1.running_mean f4 [48]
000000 47 52 11 38 42 7a 23 37 f8 8e 51 b8 ed 37 cd b7
       3.464732e-05 9.7440225e-06 -4.9962633e-05 -2.4463947e-05
000010 14 9b 87 37 18 bb 3a 38 ec ff 7c 36 24 fb 89 36
       1.6165468e-05 4.45201e-05 3.7699892e-06 4.112155e-06
000020 52 61 09 b7 10 fa a1 37 e7 49 f6 b7 d5 47 ab b7
       -8.1884955e-06 1.930914e-05 -2.9359899e-05 -2.0418238e-05
000030 bb 7f cc 37 c1 f7 07 38 19 2e 6d 36 ef a4 55 37
       2.4378174e-05 3.2417247e-05 3.5342584e-06 1.2734191e-05
000040 41 fa a3 38 bd 72 25 b7 31 79 9c b8 49 ea 12 b8
       7.819059e-05 -9.861481e-06 -7.461233e-05 -3.5027308e-05
000050 d8 cd 2c 38 3c ea 34 b8 16 30 4a 37 b7 87 e4 37
       4.1199703e-05 -4.3133492e-05 1.2051334e-05 2.7242915e-05
000060 0a 44 d2 b7 cf ef 1a b8 b0 50 8e b7 5e bf 8c 37
       -2.5065634e-05 -3.69398e-05 -1.6965292e-05 1.6778413e-05
000070 30 2c 16 38 67 c7 8f 36 f2 54 3b b8 df 09 5e 33
       3.580394e-05 4.2849456e-06 -4.4663386e-05 5.169738e-08
000080 a7 b1 96 37 b6 0a a1 37 76 47 ef 37 30 f0 19 38
       1.796412e-05 1.9197683e-05 2.8524297e-05 3.6701735e-05
000090 2d 45 c6 38 99 0f 04 38 4a d6 e3 b7 fa 48 95 b8
       9.454261e-05 3.148578e-05 -2.7160295e-05 -7.1184666e-05
0000a0 3f d0 03 b6 12 da 8a b8 f2 db a3 36 28 39 00 38
       -1.9641736e-06 -6.6209715e-05 4.8833836e-06 3.057081e-05
0000b0 ab 7b 1d 38 c9 3b ce 37 73 ba c0 38 4f f2 e8 b7
       3.754689e-05 2.4584953e-05 9.190002e-05 -2.7769389e-05

backbone.2.conv.0.1.running_var f4 [48]
000000 af 11 03 3e 2c 76 a3 3d 45 d6 d4 3d 1b 64 1f 3e
       0.12799715 0.07981524 0.10392431 0.15565531
000010 91 8a e0 3d 66 ec c6 3d 5f 71 b9 3d 25 0c 83 3c
       0.109639294 0.09713058 0.09054827 0.015997002
000020 0a e4 23 3e 3a b5 15 3d 55 73 90 3d 40 0e 35 3e
       0.16004959 0.036549784 0.07053248 0.17681217
000030 f3 b5 00 3d b0 39 96 3d ce dc 91 3d 23 65 b5 3d
       0.03142352 0.07335222 0.07122193 0.08857181
000040 76 00 2c 3d 0c 8b 81 3d 4d b0 f2 3d 44 37 8b 3e
       0.041992627 0.06325349 0.11850033 0.27190602
000050 7e 48 00 3d 03 d9 74 3d d7 d7 d1 3c 1f 72 e5 3c
       0.031319134 0.05977727 0.025615616 0.028008519
000060 29 89 a3 3c b8 ea 84 3d a2 68 2a 3d 54 29 93 3d
       0.019962864 0.064900815 0.041603692 0.07185617
000070 c1 b1 cc 3d d7 5d ae 3c 27 21 3a 3e ee 68 b1 3d
       0.09994841 0.02128498 0.18176709 0.08662592
000080 35 75 70 3d 08 fd c7 3d 8d 7f 01 3e d0 bc 9f 3d
       0.058705527 0.09765059 0.12646313 0.07799685
000090 ba 79 28 3e 96 89 19 3e eb b3 2e 3d 5f 7e 15 3e
       0.16452685 0.14993891 0.042652052 0.14598988
0000a0 c2 09 05 3d b4 54 03 3e b2 85 71 3d 7c 16 c7 3d
       0.03248001 0.1282528 0.058965392 0.097210854
0000b0 21 3b a8 3d fd eb 18 3e 94 af 12 3e c9 ab c2 3d
       0.08214403 0.14933772 0.1432479 0.09505422

backbone.2.conv.1.0.weight f4 [48, 1, 3, 3]
000000 c0 b6 60 3c d6 da 15 be 9b 19 48 be f7 13 f1 bb
       0.013715446 -0.1463426 -0.19541018 -0.0073571163
000010 e0 1f 54 be db e0 3c be b3 55 45 3d ea f3 02 be
       -0.20715284 -0.1844515 0.048177432 -0.12788358
000020 88 ba 33 bd 07 0c 7b bd 65 d9 e9 bc 3d 59 2e 3d
       -0.043879062 -0.061290767 -0.028546045 0.042565573
000030 1f 58 4c be aa 95 30 be 7f 3f 06 be 20 ca c4 bd
       -0.1995549 -0.17244592 -0.1311016 -0.09608865
000040 ec da cf bd 88 97 f8 bd fa e0 ec bd f4 06 ae bd
       -0.10149178 -0.12138277 -0.115663484 -0.0849742
000050 f8 45 5c bd 42 c8 51 3e be cf de 3e c2 cc 83 3e
       -0.053777665 0.20486549 0.4351787 0.25742155
000060 12 6e 28 bd 77 0c d8 bd cd bf 85 be 52 af f1 3d
       -0.041120596 -0.105492525 -0.26122895 0.11801018
000070 f1 e3 56 3e f8 01 ad 3d 52 a4 84 3e 7a 28 dc 3e
       0.2098539 0.08447641 0.25906616 0.4299963
000080 13 4e bf 3d 7d 0d 1a 3e da 77 0f 3e 5c 0b 03 3c
       0.09341063 0.15044208 0.14010563 0.007998314
000090 48 5f bf bd 0e 82 b5 be a8 d7 85 be 71 2f a3 bc
       -0.09344345 -0.35450786 -0.26141095 -0.019920083
0000a0 23 88 28 bd 5c 82 06 3d b3 30 af 3d 5a 66 92 3e
       -0.041145455 0.032839164 0.085542105 0.28593713
0000b0 e1 2c 4c 3e 7c 76 ae 3d 99 70 82 3e ab 64 08 3e
       0.19938995 0.08518693 0.2547653 0.13319652
0000c0 de f2 1c bc bc 60 a4 bd 3d 2d 2b bd 01 8c e9 bd
       -0.009579388 -0.08026263 -0.04179119 -0.11403657
0000d0 0f b4 69 be bb 8f 9e be c7 20 09 3d a4 fc c1 bd
       -0.22822593 -0.30969033 0.033478525 -0.094720155
0000e0 b0 fb a9 bd af 8e ab 3d e0 ea 1b be ed 19 98 be
       -0.08299959 0.08376824 -0.15226316 -0.2970728
0000f0 2e 77 ab 3d e2 69 70 bd c1 98 99 be 95 3d df bd
       0.08372341 -0.058694728 -0.29999354 -0.10900418
000100 ba d7 96 ba f3 02 98 bd 5e 06 db bd 15 20 84 3d
       -0.0011508383 -0.074224375 -0.10694574 0.06451432
000110 a2 0b d1 bd b0 0c 42 be d7 a9 cc 3c 42 0b fb bd
       -0.10207297 -0.18950152 0.02498333 -0.12258007
000120 a1 3f 52 bd 0f 88 8b 3d 8f 06 ba 3d 44 44 69 3d
       -0.051330213 0.068130605 0.09083282 0.05694987
000130 1e 73 6d 3e 91 cf 56 3e 56 4c 4b 3e bf 83 98 3e
       0.23188445 0.20977618 0.19853339 0.29788014
000140 dc 90 ce 3d 0f ce 36 be 2a 95 3c 3e 07 3a c9 bd
       0.100862235 -0.17852043 0.18416277 -0.09825521
000150 84 cf 02 3d b6 ed e6 3d cd 2a 90 bc 90 1e fe 3d
       0.031936184 0.112758085 -0.017598534 0.12408173
000160 75 7c d1 be 0a 85 4f 3d ac 01 e6 3d a4 47 bf 3d
       -0.40915266 0.050663985 0.11230788 0.09339836
000170 da 05 74 3d 07 18 02 3d 7e 68 0f 3e 7d 7d b8 3d
       0.059575893 0.031761196 0.14004704 0.0900831
000180 3e 05 3a 3d 55 3e 08 3e 44 17 4c 3e 90 c3 16 be
       0.045415156 0.13305028 0.1993075 -0.14723039
000190 0d dc 7c be 7c c6 97 bd a2 ab 4e be 30 78 76 be
       -0.24693318 -0.07410905 -0.2018266 -0.24069285
0001a0 01 4e b0 bc 9e b0 ac bd 7f 73 2c bd cd 0b 23 bb
       -0.02152157 -0.084321246 -0.042102333 -0.002487886
0001b0 6e 04 4a bd 5c 1c cb 3d 88 66 be 3c fd 11 1c 3e
       -0.04932063 0.099175185 0.02324225 0.15241237
0001c0 ef 56 d9 be 01 3a c4 bc 2e 19 d4 bd de d7 84 3e
       -0.42449138 -0.02395344 -0.10356365 0.25945944
0001d0 d0 52 12 3d 0d 59 b4 bd 6d 8e d2 3d e2 71 6b bd
       0.035723507 -0.088060476 0.10281072 -0.057481654
0001e0 ed 7b 70 be 61 b3 9c 3e f3 23 f4 bd 8c 59 6f 3c
       -0.23484774 0.30605605 -0.11920919 0.014608752
0001f0 d2 24 5b 3e 29 0a 63 be cc fc 12 bd 8f 00 7e bd
       0.21400765 -0.22171845 -0.035885617 -0.06201225
000200 fb f0 25 3d 6d bc 1a 3e 44 fc b3 3e d1 0f 03 3e
       0.04051302 0.15110941 0.351534 0.12799002
000210 a0 01 10 be 04 ec 97 be e8 2c 19 be ac a5 1a bd
       -0.1406312 -0.29672253 -0.14958537 -0.037755653
000220 e6 76 3a bd f9 9b 16 3e 57 1e 18 be 8f 8d 8a be
       -0.045523547 0.14707936 -0.14855324 -0.27061126
000230 91 1e 58 3a 2d f7 e5 3c eb 46 97 be 0a e6 e5 bc
       0.0008244301 0.028071964 -0.29546294 -0.028063793
000240 db c7 93 bd 94 47 64 bd ee 01 fa 3d 56 9a 1e 3b
       -0.07215854 -0.055732325 0.12207399 0.0024200878
000250 92 25 46 3e 13 90 49 3e 2f 3e d2 3d 33 20 21 3e
       0.1935027 0.19683866 0.10265767 0.1573494
000260 29 bb 0c 3e 4b e7 43 3e f8 43 1b 3e da e0 f3 3c
       0.13743271 0.191312 0.15162647 0.029770304
000270 c7 2c 32 3e 7b 81 3c 3e 2c 67 90 3c e2 7a 91 3d
       0.17399894 0.18408768 0.017627321 0.07103516
000280 f7 21 09 3e 34 4f d4 ba f6 7f f2 bd ee 60 da bb
       0.13391863 -0.0016197921 -0.11840813 -0.006664387
000290 fb 3f a5 3d e0 84 d7 bd 53 9e a9 be b7 9c af bd
       0.08068844 -0.10523391 -0.33128604 -0.08574813
0002a0 4c 8d 04 3e 78 8a c8 bd 07 8a d1 bd d9 c3 07 bd
       0.12944525 -0.09792036 -0.10231405 -0.03314576
0002b0 27 af fd bd 0a 20 94 bd c3 a2 a8 bd c7 49 97 be
       -0.12386923 -0.072326735 -0.08234169 -0.29548475
0002c0 27 52 d7 bd 02 57 e9 3d 55 70 75 be c7 5f 27 be
       -0.10513716 0.113935485 -0.23968633 -0.1634513
0002d0 fd 26 12 3d ca 66 9c 3d 62 b0 c8 3c 37 d3 15 3e
       0.035681713 0.07636793 0.024498168 0.14631353
0002e0 ab 38 b5 3e e7 29 39 3d 50 d9 1f 3e da ab 2c 3e
       0.35394797 0.045205977 0.15610242 0.16862431
0002f0 83 5e 50 be f1 af 30 be 4c 9e 45 bd 9b 46 05 3e
       -0.20348553 -0.17254616 -0.048246667 0.13015215
000300 72 00 78 be 8b 82 1c be 53 1b 5e 3e ee 26 3f be
       -0.2421892 -0.15284173 0.21690111 -0.18667194
000310 5b a9 3b be 73 df 11 3d 25 bc 5a 3d f7 e1 9b be
       -0.18326323 0.03561349 0.053402085 -0.30445835
000320 bd 6c 3c 3d 26 d6 61 be 71 07 ef 3e 46 5b f1 bd
       0.04600214 -0.22054347 0.46685365 -0.11784987
000330 15 6e 0a 3e d8 a0 29 be 85 e3 71 3c 5d 0c 60 bc
       0.13518555 -0.16565263 0.014763718 -0.013674823
000340 03 7d b0 3d 5a 0d 93 bd 2e d2 f5 3c ee 64 00 bf
       0.08617594 -0.07180281 0.030007448 -0.50154006
000350 dd 2a 9e 3e 49 0a ac bc 76 b6 b0 3e ac 69 7d be
       0.30892077 -0.021000998 0.34514207 -0.24747342
000360 19 12 2b bc 9e e6 e7 bc e3 98 0d 3e 26 8c f8 bd
       -0.010441327 -0.028308209 0.13827853 -0.12136106
000370 09 1f 98 be 4c 5b 6e be cf c7 3f 3e ff f0 88 3e
       -0.29711178 -0.23277014 0.18728565 0.26746365
000380 27 fa 1c 3d ff 44 23 bc db 2f 31 3e 0f 9e 21 3e
       0.0383245 -0.00996518 0.17303412 0.15782951
000390 36 7d da bc 29 87 6f 3e 66 34 43 3e 6c 41 88 3c
       -0.026671033 0.23391403 0.19062957 0.016632758
0003a0 4a 9e 96 3e 00 41 ca 3d 97 7e 3d 3c 1d 4a 37 be
       0.2941764 0.09875679 0.011565826 -0.17899366
0003b0 06 eb 9a bd e5 67 00 3e c7 2b a0 3e 03 51 14 3e
       -0.075643584 0.12539633 0.312834 0.14484029
0003c0 b2 5f 00 be 96 6c 24 be 11 71 87 bd fd 08 e8 3d
       -0.12536505 -0.16057047 -0.066133626 0.113298394
0003d0 a5 f0 37 3e b5 b7 50 3d f6 9a 92 3d 65 ac 81 3e
       0.17962892 0.050956447 0.07158463 0.2532684
0003e0 ea 8e 03 3e 4f 83 e6 3c 48 9c 42 3d 71 75 83 bd
       0.12847486 0.028138785 0.047512323 -0.064188845
0003f0 96 51 5e 3d 36 d3 3c 3e dd 72 0d 3e cd d4 93 3d
       0.054277025 0.18439946 0.13813348 0.07218323

backbone.2.conv.1.1.weight f4 [48]
000000 f8 15 06 3f f8 74 a9 3e b0 75 ad 3e 13 a4 5c 3e
       0.5237727 0.33097053 0.3387885 0.21546964
000010 f3 4c c3 3e 36 d3 bb 3e 8f ae 1a 3e 27 ff 6b 3e
       0.38144645 0.3668458 0.15105651 0.23046552
000020 e6 6f 33 3e 49 24 8d 3e 52 21 3a 3e f1 b8 01 3f
       0.17523155 0.27566746 0.18176773 0.50672823
000030 0c 3a 96 3e 7a 31 74 3e ea ac c2 3e 9b fc 96 3e
       0.2934116 0.23846999 0.38022548 0.29489598
000040 86 41 8a 3e 9c 3d 91 3e 82 55 0e 3f e2 85 15 3f
       0.27003115 0.28367317 0.55599225 0.58407414
000050 46 2c 5d 3e fb cd 80 3e c2 37 9c 3e 70 d8 98 3e
       0.2159892 0.2515715 0.3051129 0.2985263
000060 a1 e2 c3 3e b3 59 4f 3e 7d 23 c0 3e c6 93 3a 3e
       0.38258842 0.20249061 0.37527075 0.18220434
000070 64 0f 6d 3e 09 c4 47 3e d0 c1 11 3f 01 a1 5c 3e
       0.23150402 0.19508375 0.5693636 0.21545793
000080 98 83 a4 3e 83 ea 5b 3e ba 63 5c 3e 27 d3 b7 3e
       0.32131648 0.21476178 0.21522418 0.35903284
000090 f9 bc 62 3e 24 bc cb 3e 7f fc a2 3e de 79 b2 3e
       0.221424 0.39791977 0.31833264 0.34858602
0000a0 73 34 d6 3e a2 53 85 3e f3 a8 d0 3e a5 08 b1 3e
       0.4183689 0.2604037 0.40753898 0.34576908
0000b0 81 0a ac 3e 13 2e 1c 3e 53 f2 c2 3e a2 3b 9f 3e
       0.33601764 0.15251951 0.38075504 0.31100184

backbone.2.conv.1.1.bias f4 [48]
000000 b8 ef c2 bc 3e 0f 93 bd 75 f5 87 3c 7c 81 35 3f
       -0.023795947 -0.071806416 0.016596535 0.709007
000010 90 f0 41 3c 62 9a bd 3c 37 f5 20 3f 59 08 bd be
       0.01183714 0.023144905 0.6287417 -0.3692043
000020 48 91 08 3e f2 bb 8c bd 4c 83 1d 3d 23 8b 38 3e
       0.1333667 -0.06871785 0.038455293 0.18021826
000030 c8 43 ca bc 8a 7d 0a bd 08 84 4a bc 46 62 99 3c
       -0.024690524 -0.03381113 -0.01236058 0.018723618
000040 45 c8 b8 3d 36 6c 04 be fd a6 e9 3d 7b 84 24 bc
       0.090225734 -0.12931904 0.114088036 -0.010041351
000050 2b 0c d5 3e f6 1f 62 bd 59 e2 cf bb 0b b4 be bc
       0.41610846 -0.05520626 -0.0063441214 -0.02327921
000060 88 6b 2d bc fa a4 7f 3d 72 6b 8f bc 5d 59 52 3d
       -0.0105847195 0.062413193 -0.017507289 0.051354755
000070 ee a6 84 3e 30 ed 67 bd 4f 34 99 bd bd fb d9 39
       0.25908607 -0.056622684 -0.0748068 0.00041577025
000080 29 fa bb 3b f8 b3 24 3f 48 ae 21 3f 4b 86 4c bd
       0.0057366085 0.6433711 0.6315656 -0.04993276
000090 b6 33 1b 3f cd 38 c7 3e a4 62 f0 bb ad a9 6f 3e
       0.6062578 0.38910523 -0.0073359776 0.2340457
0000a0 ee 29 54 3e c8 09 f1 3c 68 36 67 3b 8b 0f a2 bc
       0.2071912 0.02942361 0.0035280231 -0.019782802
0000b0 00 69 a1 bd 01 34 73 3e 8d b0 bc 3d 72 a3 c3 bd
       -0.07881355 0.23750307 0.09213362 -0.09552659

backbone.2.conv.1.1.running_mean f4 [48]
000000 ba 81 d8 bd da b1 c6 bd c0 30 74 3d 64 e8 14 3f
       -0.105716184 -0.09701891 0.059616804 0.581671
000010 41 76 37 bd b2 63 c3 bd f9 04 c4 bd b7 35 45 bc
       -0.04479051 -0.095405 -0.09571261 -0.012036732
000020 46 f9 a1 3d 8d 83 fe bc cc cd 77 3d 75 cc 27 be
       0.07908873 -0.031068588 0.060498998 -0.16386588
000030 6d 30 8e bb 4c 77 8f bc b3 4d 25 bb 21 f0 82 bd
       -0.004339269 -0.01751294 -0.0025223314 -0.06393457
000040 bc 25 af 3c 5a 64 0e 3e fe 69 be bd d6 54 9f be
       0.021380298 0.13905469 -0.0929756 -0.31119412
000050 89 3b 4a 3e 28 46 d6 bd 98 1f 81 bc 3b b7 83 bc
       0.19749273 -0.104626 -0.015762135 -0.016078582
000060 8f c3 3e bc cf e9 92 3d 9a b3 b2 bb c8 a9 95 3b
       -0.0116433045 0.07173502 -0.005453539 0.0045673586
000070 c1 22 90 3e 8b f5 1a bb 6c cf 1c be c7 56 ef 3d
       0.28151515 -0.002364489 -0.153135 0.11686473
000080 15 94 1f 3d 07 fa f7 bd f0 ef 38 be 11 93 44 bc
       0.03895958 -0.12108236 -0.18060279 -0.011997954
000090 c1 d8 d8 bd 7f c3 11 be 00 5d 40 bc d3 83 3a 3e
       -0.105882175 -0.14234732 -0.011740923 0.1821435
0000a0 ec 99 17 be 2b 0a 4a 3e 5c ec 12 bd 8a 2d 65 3d
       -0.1480481 0.19730441 -0.03586994 0.055951633
0000b0 02 dc 32 3d ba 3b e0 3d ba 7d 6f be 45 2b 3a 3d
       0.043666847 0.10948892 -0.23387805 0.04545142

backbone.2.conv.1.1.running_var f4 [48]
000000 b5 b6 d5 3c 32 d6 83 3c a9 5b 9a 3b ec 1f b7 3c
       0.026088098 0.016093347 0.004710634 0.022354089
000010 1c 07 39 3c aa 74 64 3b e5 86 b1 3c 30 12 30 3a
       0.011293199 0.0034859576 0.021670768 0.00067165773
000020 be 2a f0 3c 8c ff e3 3a 76 0f ac 3b b6 88 32 3d
       0.029317256 0.0017394884 0.0052508665 0.04358741
000030 08 bc d4 3a c2 a2 87 3b c5 a5 40 3c 00 8c 77 3c
       0.0016230354 0.0041392753 0.011758273 0.015109062
000040 29 20 3a 3b 78 27 8c 3c df b0 a7 3c 60 c2 f7 3c
       0.0028400517 0.017108664 0.02047008 0.030244052
000050 cc 6c 9f 3c 1a 1c bf 3b 88 ec 5d 3b 39 39 bc 3b
       0.019461058 0.0058322074 0.0033862907 0.005744126
000060 48 5a 10 3c f7 75 0c 3c eb f4 fb 3b f6 18 a2 39
       0.008810587 0.008573047 0.0076891086 0.00030917645
000070 31 ec 34 3b 6c 52 4d 39 3d 79 20 3d 32 59 1f 3b
       0.0027606601 0.00019581028 0.03917812 0.002431464
000080 d2 3c cf 3b 1d 92 f7 3c b6 3c 0a 3d d0 31 2b 3c
       0.006324389 0.03022104 0.033749305 0.010448888
000090 5b 6f 3e 3c 4a dd 42 3d 09 12 78 3b 6e b0 c0 3d
       0.011623229 0.04757432 0.0037852547 0.09408651
0000a0 f6 db 37 3d a3 9a a2 3b f4 08 b3 3b 71 47 de 3b
       0.044887505 0.004962282 0.005463714 0.006783419
0000b0 7c c6 bb 3b 00 1f 3f 3c 06 2e 8f 3c 2c 81 26 3a
       0.0057304483 0.011665106 0.017478 0.00063516456

backbone.2.conv.2.weight f4 [8, 48, 1, 1]
000000 26 f5 0c 3e 16 6e 87 3e 2e d3 0c 3c 8e ef 31 3e
       0.13765392 0.26451176 0.008595271 0.17376539
000010 64 19 c7 3e 79 5c 6f bd e7 81 37 3e b3 51 64 be
       0.3888656 -0.0584378 0.17920648 -0.22296791
000020 f1 44 ca bd 6d 2b 8a bd f0 3e 91 3d 6e f5 b7 3e
       -0.09876431 -0.06746564 0.070920825 0.35929435
000030 94 d2 a3 3c 30 70 50 bc a2 3f d5 3d 82 6a 84 3e
       0.019997872 -0.01272206 0.104125276 0.2586251
000040 1b dd 3e be 85 67 bd bc a9 8e a2 3e d7 6c d2 3e
       -0.18639033 -0.023120651 0.31749466 0.41098663
000050 d8 35 da bc 82 8c 4b bb 04 fe e1 3b c3 b9 15 3d
       -0.026637003 -0.003105909 0.006896736 0.03655411
000060 d2 b0 19 3e 2c bd f1 3b a1 f6 22 3e db 15 df bd
       0.15008858 0.0073772874 0.15914394 -0.108928405
000070 38 1f 15 be b7 81 c8 bc fc 5e 8e bd e0 27 e5 bc
       -0.1456269 -0.024475915 -0.069517106 -0.027973115
000080 fb d0 a8 bd 22 c7 94 3e b0 16 2a 3e 07 2e 85 bd
       -0.08242985 0.29058176 0.16610217 -0.0650292
000090 91 97 45 3e 30 57 8d 3e f1 9a 46 3d 77 a8 68 bd
       0.19296099 0.2760558 0.048487607 -0.056801286
0000a0 7b da 01 3e 54 58 d3 bc 36 d7 1d 3e 63 bb e9 bd
       0.12681 -0.025798954 0.15414128 -0.11412694
0000b0 55 cb a3 bd c2 90 34 be d3 18 31 3d 59 61 07 bd
       -0.07997767 -0.17633346 0.043236565 -0.033051822
0000c0 27 4c a3 3d ed ef 44 3e f7 df 6d 3e 6a 47 a8 be
       0.07973509 0.1923215 0.23229967 -0.32866985
0000d0 70 2e 2b 3e 3e 31 59 3e 11 58 19 3e b9 0b 98 bd
       0.16716933 0.2121019 0.14975001 -0.07424111
0000e0 b1 44 b8 3b f9 ff 3a bd 2c 04 45 3d 6e 9a 0e be
       0.005623423 -0.04565427 0.04809968 -0.13926098
0000f0 9f e1 51 bd a0 b0 05 be be f6 b3 3d 4d 89 08 3e
       -0.05124056 -0.13055658 0.08787297 0.13333626
000100 8e 2b da bd aa cd 96 3d 3f 75 f1 bd 67 91 8d bc
       -0.10652839 0.07363446 -0.11789941 -0.017281247
000110 7e d4 c4 bd 61 b7 61 be 1d 9d dd 3c 75 75 49 bd
       -0.09610842 -0.2204261 0.027052457 -0.04918428
000120 69 6b b7 3d 07 d6 2e bd 14 31 2a 3e 74 f8 2b bd
       0.08956034 -0.04268458 0.16620284 -0.04198499
000130 bf fa 3f 3e 87 4f 95 bd 3e 68 59 3d b5 2d 34 be
       0.18747996 -0.07290559 0.05307793 -0.17595561
000140 01 73 04 be 71 33 13 3e ab 93 a7 bd 35 a8 c0 bd
       -0.12934496 0.14375092 -0.08182462 -0.09407083
000150 58 ea e1 3e 0a 06 b7 be fc 13 79 3b d3 57 8c be
       0.44124103 -0.35746795 0.0038006296 -0.27410755
000160 97 8c 04 be a6 43 f2 3d 50 d6 d5 bc 07 3f 26 be
       -0.12944256 0.11829309 -0.026103169 -0.1623498
000170 f2 8d f8 bd 81 a1 41 be 6c 4e a6 bd 3e a9 4f be
       -0.12136449 -0.18909265 -0.081204265 -0.20279405
000180 00 d5 10 3e af 53 ce ba 0f 7c a1 3c 68 76 88 be
       0.14143753 -0.0015741492 0.019712476 -0.26652837
000190 d6 72 3f 3e ec e8 89 be 2a ab f4 bd 89 27 43 3d
       0.1869615 -0.26935518 -0.119467095 0.047645126
0001a0 a4 d7 d1 bd bf 03 45 3e 31 1f 75 bd f6 ed a4 be
       -0.10246208 0.1923971 -0.0598442 -0.322128
0001b0 9d b6 8f 3e e5 38 5f be 21 cc f7 bd 08 cb 1b 3c
       0.2806901 -0.21799047 -0.120994814 0.009508856
0001c0 c5 c6 12 3e a6 c3 cd bd 30 52 bd 3d cd 11 43 3d
       0.14333637 -0.100470826 0.09244192 0.047624398
0001d0 0b 18 93 3d 06 f4 54 3c a6 62 65 3e 12 e0 83 3e
       0.0718232 0.012997633 0.22400913 0.2575689
0001e0 fd 28 c1 bd 3f eb 19 be 9d 29 23 be 4c 79 18 3e
       -0.09431646 -0.15031146 -0.15933843 0.14890021
0001f0 6d 3c 2f 3e 98 3d 6c 3e 1b 1f fb 3c d4 56 a7 3c
       0.17112894 0.23070371 0.03065448 0.020427145
000200 6e 6d 91 be bd 8f 6d 3e 23 50 19 3e 67 d5 39 be
       -0.284038 0.23199363 0.14971976 -0.18147813
000210 d5 05 12 be 02 1d 4d 3e 1c 50 89 3e d5 84 29 be
       -0.14260037 0.20030597 0.2681893 -0.16554578
000220 7f ad bd 3c f3 4d 26 be 50 ac a3 3c 89 b2 04 be
       0.023154018 -0.16240673 0.019979626 -0.12958731
000230 a3 b1 a3 be 22 0e 54 3e d3 7b ba be be 15 64 3e
       -0.31971464 0.20708516 -0.36422595 0.22273919
000240 8e 17 19 3d 77 67 79 3e a3 06 df 3d 26 0a a4 3e
       0.03737598 0.24355875 0.10889938 0.32038993
000250 82 c0 f2 bd 85 1a 0a 3e 12 95 28 bd 94 29 39 3c
       -0.11853124 0.13486679 -0.04115779 0.011301417
000260 fe 27 0c be e3 d4 97 bc d2 cf 5d 3e 9d af 43 be
       -0.13687131 -0.01853413 0.21661308 -0.1910996
000270 bb 3d 4f 3d f3 a5 b9 3d 1c 88 41 3e 98 86 44 3d
       0.05059598 0.090648554 0.18899578 0.04797992
000280 eb 35 c3 3a f4 a2 2e 3d b4 91 91 3c 1d f9 84 be
       0.0014893388 0.042635873 0.017769672 -0.25971308
000290 14 1a cb bd 88 25 5f 3d e9 17 9e 3d b9 ef a6 3d
       -0.099170834 0.054479152 0.07719404 0.08151192
0002a0 f0 b6 24 3e 2f 40 c9 bd e1 10 33 3e da 23 d7 3d
       0.1608541 -0.09826695 0.17486908 0.10504885
0002b0 2e 2d 35 be 0f 11 9e bc a5 aa 9e 3e 57 10 e4 3d
       -0.17693016 -0.019295244 0.30989566 0.11135929
0002c0 95 16 6b bd fc 7d bc bd 0a 79 6f 3e 54 ce 06 bd
       -0.057394583 -0.09203717 0.23386016 -0.032911614
0002d0 eb b9 ae 3d ea 19 7d 3e 2c b4 5f 3d 1f 45 a9 bd
       0.08531555 0.24716917 0.054615185 -0.08265137
0002e0 1d ad 21 be 7f d5 a2 3e 58 92 b3 3e 7d 20 d4 3c
       -0.15788694 0.3180351 0.3507259 0.025894398
0002f0 17 cf ac bc f7 c0 60 bd 0f 6c b5 be 68 3c a9 3d
       -0.021094842 -0.054871526 -0.35434005 0.08263475
000300 d0 d0 3d bd 32 db 10 be ae c8 3a 3e a8 29 9c 3d
       -0.046341717 -0.14146116 0.18240616 0.07625133
000310 ff 3a 14 3e 2f de dd ba ee bf 6d be f9 b3 af 3c
       0.1447563 -0.0016927178 -0.23217747 0.021448122
000320 9d ce 92 bc fd 50 83 bd f6 f1 3f 3e 03 e1 5d 3e
       -0.017920787 -0.06411932 0.18744645 0.21667866
000330 e3 c3 25 3e b4 60 2a 3b 2a 17 83 3e 6a 1b 2c be
       0.16188006 0.002599758 0.2560361 -0.16807333
000340 3e b2 82 bd ba 82 8a be ed 01 a3 bb c8 ba 46 be
       -0.06381653 -0.2705286 -0.004974595 -0.19407189
000350 db 26 45 be 41 4a 4e 3d 76 56 d8 3d fd 42 cf 3d
       -0.19253103 0.050363783 0.10563366 0.10120199
000360 26 68 a3 3e 24 a1 9f 3d a8 15 81 3e de 4a 2d be
       0.31915396 0.07794407 0.25211835 -0.16923091
000370 95 59 5d bd d7 af c1 bd a2 1b 54 be 8d bc c2 bd
       -0.05404051 -0.09457367 -0.20713666 -0.095086195
000380 61 4e 1b 3e 27 6c 23 be 4c 10 07 3e 74 06 33 3e
       0.15166618 -0.15959226 0.1318981 0.1748293
000390 82 22 3a bd cb 6d b2 bd 31 af 5d 3e d6 1d c0 bd
       -0.045443065 -0.087123476 0.21648861 -0.09380691
0003a0 94 e3 2b be 7b 71 1a 3d e7 d5 fd 3b 9b b7 16 3e
       -0.16786033 0.03770588 0.0077464464 0.14718477
0003b0 71 33 e4 3d 1a 71 20 3e 3b 3a 2e be 0a 55 82 be
       0.11142624 0.15668145 -0.170144 -0.25455505
0003c0 43 57 95 3d bd 81 59 bc 1e 19 73 3e 50 c0 75 3d
       0.072920345 -0.013275561 0.2374005 0.059997857
0003d0 74 2f 83 3e 3d b3 2e 3e 8e 54 5a 3e 0c af c7 bd
       0.2562214 0.17060561 0.21321318 -0.097501844
0003e0 92 51 81 be 23 ee 55 3e 5c 16 f9 bc 91 5c c1 be
       -0.25257546 0.20891623 -0.03040617 -0.37765935
0003f0 5f 4d 8e 3e 84 ec 81 3d 04 fa 47 3e d9 5b ef bd
       0.27793404 0.0634394 0.19528967 -0.116874404
