ML Model/tv_detection_epoch_150/e-69-0.737.pth (torch, 508349 bytes, 205 tensors)

backbone.0.0.weight f4 [16, 3, 3, 3]
00000000: 035c 0480 ee70 0480 aa80 0380 ed34 0300
00000010: 4a89 0280 96c3 0100 a395 0380 c63f 0280
00000020: 7f34 0380 0173 0280 cb32 0280 cad9 0000
00000030: c6fc 0100 a8b4 0200 c64e 0280 83a0 0080
00000040: 0523 0400 a4c8 0180 1183 0100 fd08 0300
00000050: 159d 0000 853b 0100 baa6 0080 a1cc 0100
00000060: 77d4 0000 a41f 0180 d641 0480 54ce 863c
00000070: 9858 ee3c 2bf5 4fbd 4b2c 1d3e ad8d bb3e
00000080: 1222 483c 9861 0fbe 5b89 51be 1df5 05bc
00000090: 0c44 86bd 809b d4bb c946 20be 25fb 8c3e
000000a0: 7b44 353f 0d94 7a3d 9e2f a6be c0b1 0ebf
000000b0: 3e0e e4bd 67db 0d3e 8252 123e af32 463d
000000c0: 20b3 453e c457 a23e fc98 d03d 30a4 f0bd
000000d0: f0a6 42be 58fe b1bd 2e85 aebd 9d37 073e
000000e0: 28c6 463d 1f48 c2be 1a97 463f dbc7 46be
000000f0: 11ef 24bf 2667 6c3f 529e 6ebe 4900 06be
00000100: 738c 323e 66f6 10bd eee4 4fbf 0cda a93f
00000110: d7a7 e7be e10a 84bf fb57 b83f 516d e7be
00000120: f267 58bd adc1 46bc 4db1 573d f359 66be
00000130: 0484 d33e d263 cabd 3438 96be 99af e13e
00000140: c3c6 17be cb18 21bd 65bb 71bc baff 763d
00000150: 0d0f 323d a27a 573e 3d47 a2be f057 103c
00000160: 56a5 973e b8b7 a5be 0cdb 4abc 3d8d cfbc
00000170: 87ac aa3d b834 3c3d 4583 0f3f b5da 15bf
00000180: a94f 663d 6111 273f 6072 26bf b838 673c
00000190: 7a3b 993c 927f 6cbd c608 d53d 5545 283e
000001a0: ed79 45be 22d3 433d f5ef 0f3e 5abd 50be
000001b0: b70c f2bd 44a1 97bd db79 ebbd 9920 e43b
000001c0: 6d87 b6bc 7a99 18be 5f9b 053e 3d5e d33b
000001d0: 4711 73be d69a 8d3d 7229 033d ae95 86bd
000001e0: a1e1 303e c27d cebd 6f48 85be 2341 3e3e
000001f0: c34a cabd e018 e4be 462e 893d 9a4c 4fbd
00000200: a95c 37be 7d79 393d a89e ecbd 7c5f 5ebe
00000210: 7a57 27bd b510 00be 531b 84be 3828 4b3e
00000220: 216c 423e 84b9 18be 452b d53d 6cb9 183f
00000230: c4f7 8d3e 2aad 4ebe ce41 053f 79ea 1f3f
00000240: fc6d 0e3e 0736 89bc 7bd5 c43d fea7 3d3d
00000250: 7abe 20be 7ba2 4bbd a631 8a3c 9c5b 17be
00000260: 7a50 68bd 9352 7cbe 5526 34be 209c 603d
00000270: 1b38 39be 780b 08bf 9766 8cbe 77f9 863d
00000280: 731a f9be 46ca 10bf 56fc 183e 7b1b 033e
00000290: 7939 3b3d e86f 0b3f bcf3 573c c0cb c4bd
000002a0: b600 063e 7726 b0bd 52d9 123c 20c4 17bc
000002b0: 3cee 59bc 5614 15bd 85c2 603f baef d3bd
000002c0: 8357 a0be 56b6 263e 092d 6bbe e341 51bd
000002d0: 17f5 6c3d 0771 213d 1657 30bc 6546 8b3e
000002e0: 16a9 853d 7678 423c 1485 4abd f1c4 dcbd
000002f0: c19c f7bc 1bf8 983c a787 6d3c e99b 4ebd
00000300: 92f4 37bc 8a88 d13d 3b9a 963e d18b 73bc
00000310: 116d ba3d 0283 ba3e bee1 abbd ea63 3abe
00000320: 4350 57be 5e6e 36bd 9033 863d 0ce7 963e
00000330: 277b d0bb f8cf 1e3e 1409 be3e 0e91 f6bc
00000340: e125 83bb 9d08 a83b 6dfb 353d c7b8 2e3e
00000350: 44ac a53e 9c7b bc3d 4e74 493e afe4 ac3e
00000360: 931c 6f3d 97f0 483d ac34 16be e6fb 35be
00000370: 8f2a 293f a89a 07bf 37dd af3c b1b9 383f
00000380: d5d5 2abf 2c52 00bd 055f 2f3e f8c3 59be
00000390: 027b 0fbe e9e2 853f 1230 6bbf abeb 33ba
000003a0: 7747 833f 49d4 75bf c8a5 a33d 06b4 043d
000003b0: d1b6 dbba cc5e d0bd 12dc d13e 59ff aebe
000003c0: f567 433c b84b d63e 6eac c4be 9637 0100
000003d0: ede9 0380 d952 0480 7f71 0080 05a1 0400
000003e0: a288 0100 16f0 0180 e5a6 0080 bb3f 0300
000003f0: 8181 0100 dae1 0200 d4d7 0380 b596 0380
-4.0035e-40 -4.07854e-40 -3.21662e-40 2.94493e-40 -2.32921e-40 1.61999e-40 -3.29186e-40 -2.06549e-40
-2.94339e-40 -2.24927e-40 -2.01892e-40 7.8128e-41 1.82514e-40 2.48478e-40 -2.1193e-40 -5.7581e-41
3.79905e-40 -1.63812e-40 1.38853e-40 2.78731e-40 5.635e-41 1.13187e-40 -5.981e-41 1.65243e-40
7.6218e-41 -1.03186e-40 -3.9096e-40 0.016455807 0.02909498 -0.05077092 0.15348928 0.36631528
0.012215154 -0.14002073 -0.20462553 -0.008176115 -0.06555948 -0.0064882636 -0.15652002 0.27535358
0.7080762 0.06117635 -0.32458204 -0.55739975 -0.11135529 0.13853227 0.14289287 0.04838818
0.19306612 0.31707585 0.101854295 -0.11750066 -0.19008994 -0.0869109 -0.08521496 0.13204809
0.04852882 -0.3794565 0.7757431 -0.19412176 -0.64427286 0.9234489 -0.23302582 -0.13086046
0.1743639 -0.035391234 -0.81208694 1.3269668 -0.4524524 -1.031582 1.440185 -0.4520059
-0.052833505 -0.012131137 0.05265932 -0.2249525 0.41311657 -0.098823205 -0.29339755 0.44079283
-0.14821915 -0.039330285 -0.014754151 0.060302474 0.043471385 0.21042874 -0.31694975 0.008810028
0.2961833 -0.3236673 -0.012381326 -0.025335902 0.08333688 0.045948714 0.56059676 -0.58536845
0.056228314 0.65260893 -0.6501827 0.014112644 0.018705118 -0.057738848 0.10402064 0.16432698
-0.19284792 0.047808774 0.1405638 -0.20384732 -0.118188314 -0.07403806 -0.114978515 0.0069618938
-0.022281373 -0.14902297 0.1304755 0.006450443 -0.2373706 0.06914298 0.032021947 -0.06571518
0.1727357 -0.1008258 -0.26031825 0.18579535 -0.09877541 -0.44550228 0.06698279 -0.050610162
-0.17906441 0.045281876 -0.11553699 -0.21716112 -0.04085491 -0.12506373 -0.25802097 0.19839561
0.1898656 -0.14914519 0.10408644 0.5965793 0.27728093 -0.20183244 0.52053535 0.6246715
0.13909143 -0.016749395 0.09611031 0.046302788 -0.15697661 -0.0497155 0.016869377 -0.1478104
-0.056717373 -0.24640875 -0.17592748 0.054836392 -0.18087809 -0.531425 -0.2742202 0.065905504
-0.48652992 -0.56558645 0.14940009 0.12803452 0.045709107 0.5446763 0.013180669 -0.09609175
0.13086209 -0.086010866 0.008962946 -0.009263068 -0.013301428 -0.036396347 0.87796813 -0.103484586
-0.31316766 0.16280493 -0.22966398 -0.051088225 0.057850923 0.039414432 -0.01076295 0.27202144
0.06526391 0.01186954 -0.04944332 -0.10779751 -0.030226113 0.018672993 0.014497674 -0.050441656
-0.011227744 0.10231121 0.29414544 -0.014864878 0.09102834 0.36428076 -0.08392666 -0.18202177
-0.21026711 -0.044538848 0.065528035 0.2947315 -0.006362337 0.15509021 0.371163 -0.030098464
-0.0040023183 0.00512798 0.04442923 0.17062674 0.3235799 0.09203264 0.19673273 0.33768222
0.05837686 0.04905757 -0.1466853 -0.17771873 0.66080564 -0.5297036 0.021467788 0.7215834
-0.6673253 -0.031328365 0.17126091 -0.21266162 -0.14011768 1.0459872 -0.91870224 -0.00068634254
1.0256184 -0.96027046 0.07990605 0.032398246 -0.0016762858 -0.10174331 0.40988213 -0.3417919
0.011926641 0.41854644 -0.38412803 1.11776e-40 -3.59423e-40 -3.97062e-40 -4.0715e-41 4.25105e-40
1.4085e-40 -1.77962e-40 -5.987e-41 2.98369e-40 1.38293e-40 2.64691e-40 -3.52931e-40 -3.2957e-40

backbone.0.1.weight f4 [16]
00000000: f444 0080 fe3f b83d 6418 de3d 3540 8e3e
00000010: 0df5 483e b5e0 5f3e 1e3d cd3d c0f2 993e
00000020: 470f 603d 03fc 0100 7e17 db3e 9451 193e
00000030: 1591 9c3e 345b aa3e bbed 0000 d8c7 b53d
-2.4736e-41 0.089965805 0.10844496 0.2778336 0.1962473 0.21863063 0.10021423 0.30068016
0.05470207 1.8224e-40 0.4279136 0.14972526 0.3057944 0.33272707 8.5282e-41 0.08876008

backbone.0.1.bias f4 [16]
00000000: 9a71 0300 a991 1f3f a673 d53e 440f 7c3e
00000010: ee18 5d3f d214 113f fba4 fb3e 4e53 003f
00000020: acb8 173f 4b88 0200 0c69 89be eb51 633f
00000030: d945 b23e 735f a5be 3917 0080 621e 003e
3.16259e-40 0.62331635 0.41689795 0.24615198 0.86366165 0.56672394 0.49149308 0.5012711
0.5926616 2.32564e-40 -0.26837957 0.8879687 0.34818915 -0.32299384 -8.331e-42 0.1251159

backbone.0.1.running_mean f4 [16]
00000000: 6a3a 7780 82c9 6942 5bf8 4d42 e4d8 0b41
00000010: 9939 4ec3 98c9 9cc2 5403 0243 6130 7343
00000020: d169 0b41 1095 ee80 9087 a4c1 8f48 4343
00000030: 710f 7e41 0c09 9e42 2031 2681 db67 0cc2
-1.0949379e-38 58.446785 51.492535 8.740452 -206.22499 -78.39374 130.013 243.18898
8.713334 -2.1910322e-38 -20.566193 195.28343 15.87877 79.01767 -3.052463e-38 -35.10142

backbone.0.1.running_var f4 [16]
00000000: 0400 0000 6198 3745 16a5 1f46 3e01 ec44
00000010: d744 8946 2f6e 2946 a428 1c46 2681 be46
00000020: a0e2 be45 0400 0000 0035 5c45 4e30 7146
00000030: 3838 3545 673d 8145 0400 0000 908a fd44
6e-45 2937.5237 10217.271 1888.0388 17570.42 10843.546 9994.16 24384.574
6108.328 6e-45 3523.3125 15436.076 2899.5137 4135.6753 6e-45 2028.3301

backbone.1.conv.0.0.weight f4 [16, 1, 3, 3]
00000000: b356 0180 a806 0400 3ba5 0480 eab9 0200
00000010: 754d 0200 2c57 0200 9e7d 0380 22d8 0280
00000020: b45f 0380 4b2a 17bd 8a9b fabc 3b06 bc3c
00000030: a73b e83c 58fd 90bd b55f 3c3f eb29 9fbc
00000040: ad66 463d 21f8 54bf ab81 a53b 7852 64bd
00000050: ad6d 1cbe 8a90 b3bc 7914 423d 3b8f 8a3f
00000060: 48d9 11bb 40f3 a3bd 6a50 79bd 4ae4 3fbd
00000070: 6076 e3bc 29f8 adbd b5f4 8d3c a608 4f3f
00000080: 2f2e 90be 665e 3dbd ed6f 7cbc 6151 45be
00000090: 2eda 113f 0e55 f73f 78fa eb3e 9fd1 5b3e
000000a0: 0554 e43e 0ac5 4e3e 841a 5abf 1256 07c0
000000b0: a640 3abf e7a1 58be 7879 983c 481e 56be
000000c0: 10fa 033e c718 c03e 5852 d3bf 8b83 8d3d
000000d0: 0029 a83f 1666 c73e 9556 1ebd cec3 d43d
000000e0: 9929 27bd 6fcf 153c 9543 7c3d fff9 44bf
000000f0: bae3 833c 4d4d 883d 292d 843f 7124 fbbe
00000100: 4c48 8fbe ecad 3a3f 1fc4 17c0 05e0 b8be
00000110: d7e9 2640 bcbe e2be a636 19be 8105 283f
00000120: d2d5 2fbd fd97 f53b 6a2e c3bd d4e2 313d
00000130: abf1 78bf 9791 1d3e 5ab0 973d bd00 863c
00000140: 53d9 90bd fc9d 0200 4fc7 0200 c36a 0180
00000150: 3097 0180 eca9 0080 4cb9 0080 98a5 0300
00000160: 0d4e 0180 91e6 0080 bd6d 7a3c 7b05 0abe
00000170: d801 c3be cf22 2cbe 4a2a 2c3e b65d d13e
00000180: 7ce0 aebe 467a aa3e 1929 fc3e d19b 3f3e
00000190: b680 c73f aabb 793f 87af d73d a734 113d
000001a0: 3ae9 02be e531 96be bcea d1bf d2ed 7bbf
000001b0: f4fb cabb ae4d 4c3d 659d c9bc 8a18 db3b
000001c0: 8208 22bd 2313 3dbf 0323 09bd 1ac3 1a3c
000001d0: e19a 3e3f 229d 57bc e598 8e3d e44f 3abe
000001e0: 3132 5d3d a11a f43d 89fb c0bd ee64 21be
000001f0: ccb2 89bd 0a1c 1e3f af80 0380 2813 0480
00000200: fc04 0200 e411 0200 d0f8 0000 af14 0200
00000210: 4d2a 0180 aaed 0280 5a62 0000 aa54 083e
00000220: 5b93 2e3c 08ba d53b 138d 103e 626b 46bd
00000230: 407d 2ebe b6d5 ca3d 3ea9 41be 43dc 6cbe
-1.22937e-40 3.6973e-40 -4.26616e-40 2.50364e-40 2.11457e-40 2.14942e-40 -3.2057e-40 -2.61205e-40
-3.09838e-40 -0.036905568 -0.030591745 0.02295219 0.028348757 -0.070795715 0.7358354 -0.019429168
0.048437763 -0.83191115 0.005050858 -0.05574271 -0.15276213 -0.021919508 0.047382805 1.082496
-0.0022254754 -0.08005381 -0.060867704 -0.046848573 -0.027766407 -0.084945984 0.0173286 0.8087257
-0.28160235 -0.046232603 -0.015407545 -0.19269325 0.5697354 1.9322832 0.4608953 0.21466683
0.44595352 0.20192352 -0.8519671 -2.1146283 -0.72754896 -0.21155511 0.018612608 -0.20909989
0.1288836 0.37518904 -1.6509504 0.069098555 1.3137512 0.38945073 -0.03865679 0.10388909
-0.040811155 0.009143694 0.06158789 -0.76943964 0.0160998 0.06655369 1.0326282 -0.4905124
-0.27984846 0.72921634 -2.3713453 -0.36108413 2.6080225 -0.44286144 -0.14962253 0.656334
-0.042928524 0.007494925 -0.09530337 0.04342921 -0.97243756 0.1538757 0.07406683 0.016357774
-0.07072701 2.40345e-40 2.5517e-40 -1.30134e-40 -1.46071e-40 -6.0956e-41 -6.6472e-41 3.3491e-40
-1.19835e-40 -8.2712e-41 0.015284953 -0.13478653 -0.38087344 -0.16810153 0.16813007 0.40891808
-0.34155643 0.33296412 0.49250105 0.18711783 1.5586154 0.9755198 0.10531526 0.035450604
-0.12784281 -0.29334942 -1.639976 -0.9840976 -0.006194586 0.04987877 -0.024611184 0.006686275
-0.039558895 -0.73857325 -0.033480655 0.00944593 0.74455076 -0.013160022 0.06962756 -0.18194538
0.054002944 0.119191416 -0.094229765 -0.15761158 -0.06723556 0.61761534 -3.2167e-40 -3.74214e-40
1.85459e-40 1.90089e-40 8.9257e-41 1.91091e-40 -1.0701e-40 -2.68929e-40 3.5282e-41 0.13313547
0.0106552495 0.006522421 0.14116316 -0.048442252 -0.17039967 0.099040434 -0.18912217 -0.23130898

backbone.1.conv.0.1.weight f4 [16]
00000000: af3b 0300 7be3 063f a3c9 133f ff30 133f
00000010: f10c 913f 9d82 eb3e c36c 0a3f 2282 503f
00000020: 4d49 d93e 3a66 0180 f152 6b3e 5a6e 813f
00000030: ba24 613f 7b9e 833e 9aab 0380 54b5 a83e
2.96917e-40 0.5269086 0.5772955 0.5749664 1.1332074 0.45998088 0.5407221 0.81448567
0.42438737 -1.28507e-40 0.22980858 1.0111802 0.87946665 0.25706849 -3.37066e-40 0.32950842

backbone.1.conv.0.1.bias f4 [16]
00000000: b923 2b00 2244 303f 4771 ae3f 4f1f 9b3e
00000010: 67ba 2a3e 0833 453f 8d03 153f 256a 093f
00000020: d43b eb3e 0054 aa80 66c4 ec3e 368e 8a3d
00000030: 016f 353f 7ff2 9dbe 280d 3680 bf05 b23e
3.961741e-39 0.6885396 1.362832 0.30297324 0.1667267 0.7703099 0.58208543 0.5367759
0.45944083 -1.5642168e-38 0.4624359 0.06765406 0.70872504 -0.30849072 -4.963836e-39 0.3477001

backbone.1.conv.0.1.running_mean f4 [16]
00000000: 0400 0000 0ebf aebd 0487 9e3e 4f43 123d
00000010: 3384 043e 5974 0b3e 1ddb 513e ec78 47bd
00000020: 008d 06bf 0400 0080 0fa2 9d3c 2d04 1cbe
00000030: 7edb 9ebc 4720 593c 0400 0080 c43e 05bd
6e-45 -0.085325345 0.30962384 0.03570872 0.12941055 0.13618602 0.20493741 -0.048699304
-0.525589 -6e-45 0.019242315 -0.15235968 -0.019391771 0.013252324 -6e-45 -0.03253056

backbone.1.conv.0.1.running_var f4 [16]
00000000: 0400 0000 c407 f33b ae51 0f3c 9cf8 153d
00000010: 9327 6d3e 9521 463d 4e6d bf3b a81e d43e
00000020: 195f 443b 0400 0000 dfd8 1c3c fc5a 163e
00000030: 3537 7f3d 3d03 e93a 0400 0000 c74d 373a
6e-45 0.007416697 0.008747501 0.036614046 0.23159628 0.04837187 0.0058418876 0.4142964
0.002996391 6e-45 0.0095731905 0.14683145 0.06230851 0.0017777454 6e-45 0.0006992486

backbone.1.conv.1.weight f4 [8, 16, 1, 1]
00000000: 4c2d 1680 794c 60be 274b ddbc 7b39 433e
00000010: c59f 69bd 3de5 243f 4373 833e d99d efbd
00000020: 6408 8ebd be43 2480 50a9 613c 7780 833e
00000030: 95f0 eb3d 44de b3bc f3cf 1880 e65e 56be
00000040: 3825 1f00 caf8 88bd 3206 06bf 315b b13b
00000050: 400c 803e 5c46 a6bd 9a09 073c 30cf a93c
00000060: 21b8 bc3d ecef 0d00 5d02 9fbd 660f d53d
00000070: 9e13 47be ab3d 43bc fc8f 0680 ce33 98be
00000080: f54b 4f00 7472 e23e 035f 083e 002b d13e
00000090: 085d 3abe 3c7f 22be 4a6e 8cbe 777d c43d
000000a0: 277d 71be 2ffe 3100 8efb 4bbe 4312 c83e
000000b0: 9585 233d aa36 ddbd 8c7e 0900 abc8 b5be
000000c0: f5d9 3180 8710 30be 27e0 e6bd fca7 dcbd
000000d0: 20a0 e63e a286 a1be eeec 043e 7352 46bd
000000e0: affa 29be 6f2c 0600 4939 d03d 70c1 cdbe
000000f0: 3325 df3e 71c0 a13e c9a6 1400 0a4e bebe
00000100: 4152 0280 1df3 b9be 5a9a 6f3e 5aa5 4d3c
00000110: 10f8 e03d cea5 2cbf 6f68 363e 8fb6 72be
00000120: 0e94 50bd 1f09 0e80 85a8 8f3e 4d28 5ebd
00000130: fb73 75be 75af c93d dab0 2780 b3cb 5ebc
00000140: 0861 0500 ba2f cfbd 4cd8 3f3d 25ce 15bf
00000150: aabd 95be c43f 11be f967 223e 360b 123f
00000160: befa dd3e ea59 1b00 9797 033e 861a d73e
00000170: 9a7d a83d aed5 5c3d 5072 0180 7af9 5abe
00000180: 6df5 1200 e9a3 a23e 2857 5fbd 986e d8be
00000190: c570 d0be 3257 7c3d c826 143c e379 53bf
000001a0: 8c83 b63d a7ef 1380 6c83 3fbd 3b98 643e
000001b0: 44db 87bd 63ed a43e 1bbc 3b80 0895 4ebe
000001c0: 070b 2b80 b715 c23d 2e39 7a3e 51b6 2cbd
000001d0: b452 003f 7e94 123f d68a fdbd 7e8e 1d3e
000001e0: 07fc 7abd baba 0980 f139 ef3d a038 edbe
000001f0: 9dbd 7cbe e761 903d fb39 0c80 7875 6bbe
-2.03663e-39 -0.21904172 -0.027013374 0.19064896 -0.057037134 0.6441229 0.25673875 -0.11700029
-0.06935194 -3.330379e-39 0.013773277 0.25683948 0.11520497 -0.02195657 -2.27865e-39 -0.20934638
2.860252e-39 -0.06688078 -0.52353203 0.005412482 0.25009346 -0.08118889 0.008242035 0.020728678
0.09214807 1.279929e-39 -0.07764123 0.10403328 -0.19441077 -0.011916558 -6.02665e-40 -0.29727024
7.282252e-39 0.44227946 0.13317494 0.4085312 -0.18199551 -0.15868849 -0.27427894 0.09594243
-0.23582898 4.591123e-39 -0.19920179 0.39076433 0.039922316 -0.10801442 8.71916e-40 -0.3550466
-4.578128e-39 -0.17193805 -0.112732224 -0.10774228 0.4504404 -0.3154803 0.12981007 -0.048418473
-0.16599534 5.66953e-40 0.10167176 -0.40186644 0.43583068 0.31592134 1.896541e-39 -0.37168914
-2.13178e-40 -0.36318293 0.23398724 0.01255163 0.10984814 -0.674405 0.17813276 -0.23702453
-0.050922446 -1.288969e-39 0.28058258 -0.054237653 -0.23970024 0.09847919 -3.645027e-39 -0.01359837
4.93986e-40 -0.10116525 0.046837136 -0.58517677 -0.29246265 -0.14184481 0.15859975 0.57048357
0.43355364 2.511813e-39 0.12850796 0.42012423 0.082270816 0.05391472 -1.32843e-40 -0.2138423
1.741081e-39 0.3176568 -0.054526478 -0.42271876 -0.40711036 0.061606593 0.009042449 -0.8260786
0.08911809 -1.830845e-39 -0.046756193 0.22323696 -0.066336185 0.32212362 -5.485774e-39 -0.20174038
-3.952882e-39 0.09476798 0.24435875 -0.042166058 0.50126195 0.5725783 -0.123799965 0.15386388
-0.06127551 -8.93504e-40 0.11680973 -0.46332264 -0.24681707 0.070499234 -1.122825e-39 -0.2299403

backbone.1.conv.2.weight f4 [8]
00000000: ac8d 043f d9ba f03e 2fcd 323f 734c 053f
00000010: e420 063f c7db 1b3f 1d5c 123f e49c 053f
0.51778674 0.47017553 0.69844335 0.5206978 0.5239394 0.6088223 0.57171804 0.5219252

backbone.1.conv.2.bias f4 [8]
00000000: de18 80b9 1d10 2f3a c756 16b9 f569 dcb8
00000010: 83a8 5a39 b972 0ab9 e5c9 a1b9 838f a339
-0.0002443259 0.0006678121 -0.00014337442 -0.000105101535 0.00020852876 -0.00013203443 -0.00030858736 0.00031196707

backbone.1.conv.2.running_mean f4 [8]
00000000: 1701 ff3e 0830 74bf 3a2a 0c3e 0cde 88be
00000010: 872a 11bf 8bc8 c83e 0fee 2abf e56e 2d3f
0.4980552 -0.9538579 0.13687983 -0.26731908 -0.56705517 0.39215502 -0.667695 0.67747337

backbone.1.conv.2.running_var f4 [8]
00000000: c098 ea3d 8dab ff3d fdd0 8b3e 24a5 9a3e
00000010: 16cc 4a3e eace b63e 1b02 bc3e da85 473e
0.11454916 0.124838926 0.27307883 0.30204117 0.19804415 0.35704738 0.36720356 0.19484654

backbone.2.conv.0.0.weight f4 [48, 8, 1, 1]
00000000: fe4d fe3d ddc1 01bd 9722 293e 21cf a4be
00000010: 4611 30be 2b7a 5a3d afea 693e c302 b33d
00000020: 9f21 eb3d 7915 9a3d a621 bf3d aab3 083d
00000030: 0f5d 89bd 282b bdbe 49b8 13be 04c4 3abe
00000040: ea68 05be d35e 7c3d 14ad 29be 6ce5 093e
00000050: 957d ad3b f069 16be 7619 78be d6e8 393e
00000060: a18c 2cbe fd5d 3f3e da6b 343e e153 f0be
00000070: 8c24 a03c ef48 bcbd 1c7d 5fbe 84ef 05bf
00000080: 68d0 ce3d ad6b 26be e284 0f3e 1164 6cbe
00000090: d0ed bfbd aff3 9e3d 6889 973d 9900 80be
000000a0: 1f39 ab3d 8944 a8bb 926f 6f3e 5631 b9bd
000000b0: b27a 9ebd 3703 a739 ecae 7b3e d612 e3bd
000000c0: 0a2b ca3c 4108 143e 0839 4f3e 3204 143e
000000d0: ca57 a9bd faf2 afbe 6579 abbd 76dc 68bd
000000e0: 5dd9 153d cb8a 2b3e f759 723d 0053 653b
000000f0: 0d73 753d f809 2f3d 6d07 43bd bbc5 013e
00000100: dd4a 93bb 8a85 353c c127 0d3f d0ad c53c
00000110: 449f d0bd a490 c839 3eea c4bc 7fde 28bc
00000120: 9e25 8cbd 5745 ae3e f6bf 87bd 098d 203e
00000130: 0dc8 05be ffda a03d 10d0 8d3d d2c9 82bd
00000140: bb06 19be 8eeb c0bd 20a6 483d 9da0 d8be
00000150: fb84 c33d b947 b53d 0387 b4bb a2d1 b8bc
00000160: 86bc 60bd 3575 9c3d 9504 99be 532d 913e
00000170: f221 8c3d b3de 19be 4093 f0bd 102a 633e
00000180: 3c51 083e c621 a83d 1835 38be a5a7 043e
00000190: 1f32 9e3d be2d 263e f6f9 07bd af5f fabc
000001a0: 2092 973e f3fa 47be f949 24bd 0b08 6fbd
000001b0: 08c5 56be c20e 33bc d9c1 0a3e 6f4a 473e
000001c0: e890 353d fb60 39be a8d3 ac3c ea50 bf3e
000001d0: 95ea 063b f457 2b3e 0c48 bfbd c817 c2be
000001e0: 46d8 ea3c d580 763e 67a7 5e3e da2d 2a3e
000001f0: 0918 a9be 93d6 16be 85bb 69bb 25b0 ffbc
00000200: a7a3 9a3e 752a 4f3e f253 103e 2e44 4f3e
00000210: 85d1 1b3e d791 d83d 8459 373e 6368 8b3d
00000220: 06d8 9c3c 1cc6 8b3d 984c de3d e204 f0bd
00000230: 38f7 4abe 7c4e 643e 1cd8 16bd da7b 2c3d
00000240: 0806 93be 9c88 4b3d 9a92 33be 3f5c 0c3e
00000250: b638 1dbe 13a2 e3bd caff 5bbe 54bd 803e
00000260: 8928 9abd 66bd e93d 847e 63be 7111 b63e
00000270: aad2 af3d 02f2 51be 161a 2dbe 4286 ec3e
00000280: 281a bf3d 6c71 2b3e afbe 5b3e 8fce 803e
00000290: 7d14 db3c 3043 e03d cb20 1e3e afea d43d
000002a0: c6a1 8a3d ebdc 8ebd e6df cd3d 0c66 c5be
000002b0: 24e8 0c3e 955a 20bd 8ef1 b2be 3571 c3bc
000002c0: 401e 9a3d dc95 d23d 6c82 fb3c 8dbe 7c3d
000002d0: db0b 69be cbab 86bd 3b83 07bd 1377 0ebe
000002e0: 5bfc 8d3e be35 40bd 2103 df3d 1cd4 a63d
000002f0: 81f6 a43d 7030 59bd 45a4 d4bd 5f91 873b
00000300: 55f2 0ebe 2c5c 1ebe 4d2b 9c3d 86cd 423e
00000310: e63f 6cbe e1af f9bc 2cef 293d 3da7 d3bc
00000320: fa69 32bd df73 dcbe db8a 6e3e d90e 62bd
00000330: b7a2 d73d 8a46 f8bd 9eaa bebc 5bdc 8d3e
00000340: b965 44be 2ff1 9dbc 46d0 693e 0ff1 f43c
00000350: 07a6 3fbe 511c 98bb 3bbb 303e 716c 073e
00000360: 85f3 63be 063e be3c 2bc9 fcbd 82ef 7d3e
00000370: 61e1 ce3d 4f1a 9f3d d239 b63e 764e ef3d
00000380: 1e6f b03e 3959 74bd 0f4f 76be 1ed7 14bd
00000390: 39d1 e6bc 7f19 73be 4a7e df3b f36b 503e
000003a0: 8c74 5b3d c6eb 94bc 325e 6c3e 52de 2f3e
000003b0: c7db 813d 5a14 c33d c5bb c1bc d323 b03d
000003c0: 6385 82be 443a b1bd 7254 94be d6ce 82bd
000003d0: 6380 49be e9a4 e83e ee54 a03d c922 353e
000003e0: 0038 263e bf80 06bd 6d71 9f3d b289 5bbe
000003f0: f46e 6abe 8611 cb3d 3b18 6d3b e5a3 823e
0.124172196 -0.031679023 0.16517101 -0.32189277 -0.1719409 0.053339165 0.22843431 0.08740761
0.11481022 0.07523627 0.0933259 0.033374466 -0.06707203 -0.36946988 -0.14425768 -0.18238837
-0.13028303 0.06161387 -0.1656993 0.13466424 0.0052945116 -0.1468885 -0.24228463 0.18155226
-0.1685052 0.18688197 0.17619267 -0.46938995 0.019548677 -0.091935985 -0.21825069 -0.52318597
0.10098344 -0.16252013 0.14015535 -0.23085047 -0.09371531 0.07761323 0.07399255 -0.25000456
0.08360504 -0.005135123 0.23382404 -0.09042613 -0.07738246 0.00031855117 0.24578446 -0.11087577
0.024678726 0.14456274 0.202366 0.14454725 -0.082686976 -0.34365064 -0.083727635 -0.056850873
0.036584247 0.16752164 0.05916783 0.0034992099 0.059924174 0.042734116 -0.047614504 0.12673084
-0.0044950084 0.0110792015 0.55138785 0.024130732 -0.101866275 0.00038254738 -0.024037477 -0.010306953
-0.068431124 0.34037277 -0.066284105 0.156788 -0.13064595 0.0785427 0.069244504 -0.063861504
-0.14943974 -0.094199285 0.048986554 -0.42310038 0.095468484 0.08851571 -0.0055092587 -0.022560898
-0.05486729 0.07639543 -0.29886308 0.28354892 0.06842412 -0.1502636 -0.11746836 0.22184014
0.13312238 0.08209567 -0.17989004 0.12954576 0.077244036 0.16228387 -0.033197366 -0.030563204
0.29603672 -0.19529323 -0.04010961 -0.05835728 -0.20973599 -0.0109288115 0.1355051 0.19461988
0.044327646 -0.18103401 0.02109702 0.3736642 0.00205866 0.1673277 -0.09339914 -0.3790877
0.02866758 0.24072583 0.21743546 0.16619053 -0.3302615 -0.14730291 -0.003566475 -0.031211922
0.30202982 0.2023104 0.14094523 0.20240852 0.15216644 0.10574692 0.17905241 0.068070196
0.019145977 0.06824896 0.10854453 -0.11719681 -0.19820869 0.22295564 -0.03682719 0.0421103
-0.2871554 0.049690828 -0.17536393 0.13707064 -0.15353665 -0.111148976 -0.21484295 0.25144446
-0.07527263 0.11413078 -0.2221623 0.35560182 0.08585103 -0.20502475 -0.16904482 0.4619618
0.09331161 0.16742486 0.21459459 0.25157592 0.026743168 0.10950315 0.15442197 0.10396325
0.06769137 -0.069757305 0.10052471 -0.38554418 0.1376043 -0.039148886 -0.34949917 -0.023857692
0.07525301 0.1028249 0.030701838 0.06170516 -0.22758429 -0.06575736 -0.033084136 -0.1391261
0.27731594 -0.046926253 0.10889269 0.081459254 0.080548294 -0.05302471 -0.103828944 0.0041372026
-0.1395963 -0.15464848 0.076254465 0.19023713 -0.2307125 -0.030479373 0.041487858 -0.025836581
-0.0435581 -0.43057153 0.23295157 -0.05518994 0.10529082 -0.12122829 -0.023274716 0.2770718
-0.19179429 -0.019280044 0.22833356 0.029900102 -0.18715678 -0.0046420475 0.17258923 0.13224961
-0.22260864 0.023222934 -0.12343057 0.24798396 0.10101581 0.0776869 0.35590988 0.11684887
0.34459776 -0.0596554 -0.24053596 -0.036337964 -0.028175937 -0.23740195 0.0068204748 0.2035368
0.053577945 -0.018178832 0.23082808 0.17174652 0.06340747 0.09525366 -0.023649106 0.08600583
-0.2549239 -0.086536914 -0.28970677 -0.06387107 -0.19677882 0.45438316 0.07828699 0.1768905
0.162323 -0.032837626 0.07785306 -0.21439245 -0.22893888 0.09915452 0.0036177773 0.25515667

backbone.2.conv.0.1.weight f4 [48]
00000000: 7802 e13e be26 b93e 93f3 e93d 7136 1f3e
00000010: bb65 fe3d 50e1 903d 25d7 a43e 5149 9e3d
00000020: 5d8c ac3e c911 073e b78a 7c3e 3bb1 c63e
00000030: e5ba d23d 8263 373e 52e0 1a3e 6ad8 c83e
00000040: fe46 273e d13d 753e b72c bf3e 9507 8b3e
00000050: ace2 873e 8702 0a3e 1975 303e 2ae8 363e
00000060: a551 243e 3b9f 253e a8fc 303e 71b3 8d3e
00000070: fa3a 9a3d 4fc0 0f3d 5629 f23e 35fd b93d
00000080: 3d42 863e fbca bc3e 30cd a63e e257 5d3e
00000090: 465b b63e d195 d23e 9973 443e 8272 d23e
000000a0: 438c f43e 44d2 0f3e b898 043e 9534 4e3e
000000b0: 23d3 433e 07b6 943e 972b ac3e c2fa a93d
0.43947196 0.3616237 0.11423411 0.15548111 0.12421747 0.07074225 0.32195392 0.07728828
0.3370084 0.13190378 0.2466229 0.3880709 0.102895536 0.17909053 0.15124634 0.3922761
0.16335675 0.23949362 0.37338802 0.27154222 0.26540124 0.13477527 0.17232169 0.17862001
0.1604677 0.16174023 0.1728388 0.27675965 0.0753078 0.03509551 0.47297162 0.090814985
0.2622241 0.36873612 0.3257842 0.21615556 0.3561651 0.41129926 0.19184722 0.41102988
0.4776326 0.14045054 0.12948883 0.20137246 0.19123511 0.29045126 0.33627006 0.082997814

backbone.2.conv.0.1.bias f4 [48]
00000000: ed10 1bbd aee5 c43c 57e8 813e a784 c93e
00000010: a255 9c3e bde6 993e dde2 df3c 15f2 e7bb
00000020: 63a2 d2bd 54e4 183e 0714 cebc 24db 903d
00000030: f7ce 3f3e 1862 0d3e 8e1c 4a3e 41a1 57bd
00000040: 2e41 d5bd db6e f83d 6087 753d 9b21 983e
00000050: 5f08 7e3e 437f 263e a41d 163e b2cc 3e3e
00000060: 7a81 173e 59b9 173d 4c0e f23d 6b73 a9be
00000070: 671e 963e b259 943e d1ab 6fbc 3e77 583e
00000080: fcaf 363d c981 993c 6c69 9b3d 3405 2f3e
00000090: 2789 16bd c509 f63c 5871 283e c45c 1f3d
000000a0: f8bc 6c3c eb48 373e 9007 8e3e 23fd 0f3e
000000b0: 389b 193e c18d 39bd db96 443e 5aba 633e
-0.03785794 0.024035301 0.25372574 0.39359018 0.30534083 0.30058852 0.027329857 -0.007078419
-0.10284879 0.1493085 -0.025156034 0.07073048 0.18731295 0.13806951 0.19737455 -0.052644018
-0.10412823 0.12130519 0.059943557 0.2971314 0.24807881 0.16259484 0.14659745 0.18632773
0.14795485 0.037041996 0.11819133 -0.3309587 0.2932007 0.28974682 -0.014628367 0.21139237
0.044601426 0.018738644 0.07588467 0.17091829 -0.036751892 0.030033955 0.16449487 0.038906828
0.014449351 0.1789891 0.27740145 0.14061408 0.15000618 -0.045301203 0.19198172 0.22239056

backbone.2.conv.0.1.running_mean f4 [48]
00000000: 30e2 c837 5d7d 27b7 78c8 0038 6190 b637
00000010: 854f 15b8 3cc2 0b37 9ec9 4b38 b8e8 3438
00000020: dd21 ff38 ff1e 2d38 47e3 3a37 b007 71b7
00000030: 9ff4 4db8 b74f 27b8 ce7e 85b8 514b c038
00000040: fa48 e5b6 6f73 8238 8ec1 9c38 19c4 2d38
00000050: cb74 6238 3955 e836 d3ea 3137 95f9 e7b7
00000060: 1a78 0738 31e6 cd37 fc63 c838 4238 65b6
00000070: 038f b2b8 894c 4238 7795 cb37 54e0 4338
00000080: 53b9 a335 2c03 36b7 e0ce 0b39 869a a437
00000090: ea67 9fb8 ee4d 4bb8 b4a9 8d38 8f85 9538
000000a0: 2a63 84b7 8841 2e39 365d 7437 6503 06b7
000000b0: 6a39 db37 e5da e1b8 7d7e e6b8 022a 1538
2.3947185e-05 -9.983164e-06 3.070428e-05 2.1763322e-05 -3.5598427e-05 8.330269e-06 4.8586742e-05 4.313208e-05
0.00012165655 4.127528e-05 1.1139381e-05 -1.4366509e-05 -4.910363e-05 -3.9890143e-05 -6.3655534e-05 9.169302e-05
-6.8332274e-06 6.220384e-05 7.474712e-05 4.1429044e-05 5.399137e-05 6.92406e-06 1.0604696e-05 -2.7653567e-05
3.229836e-05 2.4545096e-05 9.555367e-05 -3.4156405e-06 -8.5143394e-05 4.6324483e-05 2.4269086e-05 4.6700545e-05
1.2198383e-06 -1.0848784e-05 0.0001333314 1.9622279e-05 -7.601066e-05 -4.847155e-05 6.7550136e-05 7.129751e-05
-1.5781803e-05 0.00016618345 1.4565236e-05 -7.987813e-06 2.613357e-05 -0.00010769608 -0.00010990815 3.556349e-05

backbone.2.conv.0.1.running_var f4 [48]
00000000: 757c 023e 5cfd a03d ea16 ce3d a706 253e
00000010: 6816 d73d cb5b c83d f662 b93d 7ba8 6d3c
00000020: 4389 243e 692c 133d 028f 913d 7476 303e
00000030: 68e3 123d 19ec 913d 9366 983d a29e c23d
00000040: d14a 333d e986 7a3d 62b1 ef3d 6942 893e
00000050: d014 fb3c 8307 6e3d d634 ea3c 8537 df3c
00000060: 57ad a83c d409 803d 8b3f 323d bea3 8f3d
00000070: de98 d13d 8957 9d3c c59a 3d3e dd74 a93d
00000080: 7956 783d 8f7a ca3d faed fe3d 41fe a03d
00000090: 27ca 2c3e 2d30 133e c63a 1f3d 4a01 1a3e
000000a0: 9732 103d 70e0 0c3e 21b4 643d e447 c93d
000000b0: 940b a93d e252 243e 63ab 143e ad40 bc3d
0.12742789 0.078608245 0.10062964 0.16115819 0.105023205 0.09783133 0.090520784 0.014505501
0.16067986 0.035931025 0.07107355 0.17232686 0.035861403 0.0712511 0.074414395 0.09502913
0.043772522 0.061163817 0.11703755 0.2680848 0.030649573 0.058112632 0.028589647 0.027248153
0.020590467 0.062518746 0.04351763 0.07013653 0.10234235 0.01920678 0.18516071 0.08274243
0.06062934 0.098866574 0.12447734 0.07860995 0.1687399 0.14373846 0.03887441 0.15039554
0.035204496 0.13757491 0.055835847 0.09828165 0.082541615 0.16047242 0.14518504 0.091920234

backbone.2.conv.1.0.weight f4 [48, 1, 3, 3]
00000000: 7ca8 ca3c 4b74 14be 7930 44be 1821 d5bb
00000010: 413c 53be 40f0 47be 39cb 3a3d df24 02be
00000020: c1be 1bbd 71ef 9bbd 804f 46bc 5a83 2b3d
00000030: 10ed 4abe 81fd 45be d282 ffbd fa24 cabd
00000040: 4b30 cdbd d700 cabd e95c f9bd eb7a b8bd
00000050: c897 54bd d572 4f3e 79a8 dd3e 9d6f 853e
00000060: b858 15bd a64f dabd d013 84be 5961 f33d
00000070: 7dd4 6d3e e776 b83d 84c7 763e ceca e13e
00000080: d9ca bf3d 794c 003e b080 0a3e 3b8b 103b
00000090: b2de c0bd 6721 b4be 2a70 83be 9e12 a6bc
000000a0: e984 31bd 26df f93c 011f a83d c3a2 943e
000000b0: 3566 503e f8ec 9f3d ea87 853e dd85 0b3e
000000c0: f8c2 7ebc 2608 99bd c40f 33bd 202e f5bd
000000d0: 8f6f 66be c507 9cbe 7909 2f3d d8f0 a6bd
000000e0: 9aa1 c0bd cc84 9b3d 3385 15be d98f 9fbe
000000f0: ceb4 af3d f0a5 2ebd 0b12 98be 9b62 c9bd
00000100: 2cf2 59ba 2a83 8fbd c130 c8bd 61bc 833d
00000110: df16 c7bd 668a 39be 6c43 cf3c 3d30 f1bd
00000120: 3c4a 72bd 0315 653d 4678 a03d 764f 733d
00000130: 512d 613e 2731 523e 54cb 4f3e 7e46 a03e
00000140: 2e69 c83d bb91 24be 56e9 4b3e 80d5 a6bd
00000150: 8929 323d e6af e43d 0adb 02bc 4ad8 0c3e
00000160: a494 cebe 1915 7a3d 1ae3 043e 6ea6 af3d
00000170: 4594 773d 76e3 133d 612a 083e 20ff b93d
00000180: 3cab 553d d4cc 003e 7822 4c3e 4359 1ebe
00000190: 7012 81be 2224 9cbd 5668 43be 8258 6dbe
000001a0: c3a0 95bc 14a8 adbd 4456 60bd 9ccd 39bc
000001b0: 114f 73bd 1982 d53d a8d6 b73c 6b45 173e
000001c0: f74c d2be 0261 90bc dbf1 f1bd ed08 8a3e
000001d0: 7019 bd3c b06b a4bd 85a1 d23d 55ee 82bd
000001e0: bc22 5fbe df84 9f3e ae9e 04be ca20 4c3c
000001f0: 506d 563e 571e 6bbe b38d 4cbd 2c0e 83bd
00000200: 6efd 033d d4fc 1a3e 6814 b13e 7ab4 013e
00000210: 869a 0dbe 320a 9bbe 8f79 1bbe f8d9 28bd
00000220: fc1f 51bd 2d72 0a3e a353 1dbe 823f 8ebe
00000230: 0cbb a0bc 7fc5 b93c 68df 99be adf9 22bd
00000240: 9329 92bd 5e3c 0dbd 5926 0d3e e44f bc3b
00000250: e7fa 403e 3bea 443e 9c48 c73d 6de9 223e
00000260: 04bc 163e 8ae9 483e 83f9 163e a8f1 e23c
00000270: fed2 393e 7116 283e c65d 533c c693 a43d
00000280: 58f7 0d3e 9711 3c3c 85c7 07be 7a2c 2cbc
00000290: 598c 9a3d 1f41 cabd c4eb 98be f663 b5bd
000002a0: d881 083e 9d6c c8bd 0e2a fabd 996a d1bc
000002b0: 4fbc e8bd 58a8 8abd 3fb5 9ebd 1ca9 94be
000002c0: 059e e1bd 18c4 d33d 9834 85be 62cd 29be
000002d0: 8da3 0d3d a926 993d 7bd4 033d 760a 163e
000002e0: bd19 ad3e affa 2f3d 4e96 2f3e e57d 3e3e
000002f0: 6ab4 44be ac2b 2cbe 1ef0 44bd 2224 063e
00000300: acc8 7dbe 9267 26be 5dfd 553e 3a14 41be
00000310: a434 3bbe c27a f63c 57a5 423d 5e75 96be
00000320: 7da6 3f3d edff 62be 42f6 f33e 8e49 edbd
00000330: 2683 0e3e e6a5 1dbe 8cd2 e43c 0952 ddbc
00000340: 3ba8 a63d 8cda 99bd f24b c73c dcee ffbe
00000350: 1e47 a33e d9d1 d1bc 8f5c ab3e bc7b 7ebe
00000360: cd7f 0abc 134a 07bd 249a 0e3e 0abc ffbd
00000370: fecb 9bbe 3c9f 6bbe 843d 3a3e a530 873e
00000380: bcdc 313d 792a a0bb fec9 393e 477b 203e
00000390: 48d6 90bc 6d6f 743e 07f3 3d3e dafe a73c
000003a0: af7b 963e eb5f b93d b008 9a3c 02d3 2dbe
000003b0: fd41 69bd 13b8 0d3e b234 a33e 7e30 1d3e
000003c0: 9cd1 f5bd 1112 1ebe 9295 84bd d65f f43d
000003d0: be5d 413e e96b 743d 7342 903d 1bdb 773e
000003e0: daca 003e fa2d 043d bd89 2c3d 7077 81bd
000003f0: f770 643d ac71 4a3e 683c 103e 7ac1 453d
0.024738543 -0.14497487 -0.19159116 -0.006504189 -0.20628454 -0.19525242 0.045603964 -0.12709378
-0.038023714 -0.07614029 -0.012103915 0.041873313 -0.19816995 -0.19334985 -0.12476124 -0.09870334
-0.10018977 -0.098634414 -0.12175924 -0.0900782 -0.051902562 0.20258649 0.43292597 0.26061717
-0.036461562 -0.10659723 -0.25796366 0.11883802 0.23225589 0.09007054 0.24099547 0.4410004
0.09364862 0.12529172 0.13525653 0.0022055644 -0.09417476 -0.35181734 -0.25671512 -0.02027255
-0.043339644 0.030501913 0.082090385 0.29030427 0.20351489 0.0780887 0.26080257 0.13625284
-0.015549414 -0.07472257 -0.043716207 -0.11971688 -0.22503494 -0.30474678 0.042733643 -0.08151406
-0.09405823 0.07593688 -0.14601593 -0.31164435 0.08579408 -0.04263872 -0.29701266 -0.098332606
-0.00083139795 -0.070074394 -0.09774924 0.06432415 -0.09721159 -0.18119201 0.025300704 -0.11776779
-0.059152827 0.05592824 0.0783544 0.05940195 0.21989943 0.20526563 0.20292407 0.3130378
0.097856864 -0.16071217 0.1991323 -0.08146191 0.043496642 0.111663625 -0.007986793 0.13754383
-0.4034778 0.061055277 0.12977257 0.08576666 0.060444135 0.036105596 0.13297416 0.09081864
0.052165255 0.12578136 0.19935024 -0.15463738 -0.2520938 -0.07624079 -0.1908277 -0.23178294
-0.018265134 -0.08479324 -0.05476977 -0.011340525 -0.059401575 0.10425205 0.022441223 0.14772575
-0.41074345 -0.017624382 -0.118137084 0.26959935 0.023083419 -0.08028352 0.10284714 -0.063931145
-0.21790594 0.3115606 -0.12951156 0.012458989 0.20940137 -0.22960792 -0.049939822 -0.063991874
0.03222411 0.15135509 0.3458588 0.12666503 -0.13828477 -0.30281216 -0.1518309 -0.041223496
-0.051055893 0.13520117 -0.15363936 -0.27782828 -0.01962044 0.022677181 -0.30053258 -0.03978889
-0.07136836 -0.0344814 0.1378416 0.0057468284 0.18845712 0.19229977 0.09730646 0.15909357
0.1472016 0.19620338 0.14743619 0.027703121 0.18146893 0.1641481 0.012900775 0.08035998
0.13863885 0.011478803 -0.13259704 -0.010508651 0.075463004 -0.09875702 -0.29867375 -0.08856957
0.13330781 -0.09786341 -0.122150525 -0.025563525 -0.11364042 -0.0677039 -0.07749414 -0.2903527
-0.11016468 0.10340136 -0.26016688 -0.16582254 0.034579802 0.07478077 0.03218506 0.14652428
0.338087 0.04296368 0.1714718 0.18602712 -0.19209448 -0.16813534 -0.048080556 0.13099721
-0.24783581 -0.16250446 0.20897432 -0.18855372 -0.182818 0.030087832 0.04752096 -0.2938642
0.046789635 -0.2216794 0.47648817 -0.11586295 0.13917217 -0.15395316 0.027932428 -0.027016656
0.08137556 -0.07512388 0.024328206 -0.49986923 0.31890196 -0.025612758 0.33469054 -0.24851888
-0.008453322 -0.033029627 0.13925987 -0.124870375 -0.3042907 -0.23009962 0.18187529 0.264043
0.0434234 -0.0048878756 0.1814346 0.15672027 -0.017680302 0.2387063 0.18549739 0.020507265
0.29391238 0.09051498 0.01880297 -0.16975024 -0.056947697 0.1383975 0.3187614 0.1535053
-0.120028704 -0.1543658 -0.06473841 0.11932342 0.18883416 0.059673224 0.07043924 0.24204676
0.12577382 0.03227041 0.042123545 -0.06321609 0.055771794 0.19769925 0.14085543 0.048280217

backbone.2.conv.1.1.weight f4 [48]
00000000: 182f 073f 6cde ac3e 860c ae3e fb5e 633e
00000010: 00ce c23e 5676 bd3e 14a0 283e 99e9 683e
00000020: 9eeb 333e 0281 8f3e 33c2 383e 2930 023f
00000030: 1ce7 943e 6359 663e 8ff1 c33e ed2c 993e
00000040: 498a 923e f04c 913e e7fa 103f 3503 153f
00000050: 8e20 623e 229c 773e ccf9 9c3e c07d 963e
00000060: bf09 bb3e 5d7e 4d3e a3c0 b83e 7e3e 3f3e
00000070: aa04 6b3e d181 383e 2166 133f ca2d 643e
00000080: cb45 a23e a2ed 5f3e 7c1d 5e3e b4b9 b53e
00000090: c908 583e 92c2 c93e 77c0 a63e 9506 b43e
000000a0: 5b21 d63e 9947 813e c81d d33e e4f8 b33e
000000b0: ce96 ac3e 8928 153e 9eb5 c43e 0770 9d3e
0.52806234 0.33763444 0.3399393 0.22204201 0.3804779 0.37004346 0.16467315 0.2274536
0.1757035 0.28028113 0.18042831 0.50854737 0.29082572 0.22495036 0.38270232 0.29917088
0.28621128 0.2837901 0.56632847 0.5820802 0.22082731 0.24180654 0.3065933 0.29392815
0.36530873 0.20067735 0.3608447 0.18676183 0.22950998 0.18018271 0.5757771 0.22283092
0.31693873 0.21867993 0.21690935 0.35493243 0.21097101 0.39406258 0.32568714 0.35161272
0.41822323 0.25249937 0.4123366 0.35150826 0.33708805 0.14566244 0.38419813 0.30749533

backbone.2.conv.1.1.bias f4 [48]
00000000: 1234 69bc 60e6 94bd 43f3 4d3c 9d81 323f
00000010: 9dee b23c 79b6 b53c 20f2 1c3f ea99 b5be
00000020: b719 f33d dc69 9abd 427f 053d 4ae4 363e
00000030: 8f83 eabc f858 0dbd f539 ebbb d30b e13c
00000040: 7e80 cb3d 9069 01be baa0 db3d 590a a2bc
00000050: e380 d63e 2d91 71bd 9f21 1f3b 18e7 76bc
00000060: 0787 80bb 25e7 4c3d 823e b0bc a040 7f3d
00000070: f0c7 8c3e 5a12 81bd c0ea 82bd d61e 13bc
00000080: c44d ec3a a655 223f 6e3c 233f 00c4 2cbd
00000090: 64e5 1d3f b7f2 c43e 7850 e2bb 4fd8 653e
000000a0: 85c6 573e 956a 023d baa5 033c 8500 29bc
000000b0: 693b 9ebd e474 6d3e b80e bf3d f877 cebd
-0.014233606 -0.07270503 0.012570205 0.69729024 0.021842295 0.022181736 0.61306953 -0.3546899
0.11870139 -0.07539722 0.032592066 0.17860523 -0.028627185 -0.034508675 -0.00717854 0.027471459
0.09936617 -0.12637925 0.107240155 -0.019780325 0.41895208 -0.05897634 0.0024281514 -0.0150697455
-0.0039223465 0.050025124 -0.021514181 0.06231749 0.2749629 -0.063023284 -0.06392431 -0.00897952
0.0018028547 0.6341194 0.63764083 -0.042179108 0.6167815 0.38466427 -0.0069065653 0.22445796
0.21071823 0.031839926 0.008035118 -0.010315065 -0.07726175 0.23189121 0.09328979 -0.10081476

backbone.2.conv.1.1.running_mean f4 [48]
00000000: 5390 c9bd 1f0e c6bd bcb9 7f3d 9994 133f
00000010: cd0d 36bd 4e91 c9bd 65e2 b7bd 0ef7 2bbc
00000020: 2a62 b03d 5237 91bc e60d 6f3d 18e8 29be
00000030: 7b7f fabb 542a a4bc ca86 18bc 49a9 95bd
00000040: 0635 973c 5198 0c3e e584 c6bd f4dd a2be
00000050: f8fd 573e a7c7 d2bd 92ac f4bb b56b aabc
00000060: 33b5 64bc 9842 a13d dfa5 633b 501e a53b
00000070: 93a8 8e3e b27c a2bb cd49 1cbe 84d7 ff3d
00000080: 4a10 403d e5ef febd 1be2 33be e21a e9bb
00000090: ff0c d8bd 1bb8 0ebe 9761 0cbc 5c4e 3d3e
000000a0: 05ee 18be 8cb5 493e 19e8 20bd fbbe 6a3d
000000b0: 16cc 0f3d fddb da3d 6cbb 78be de8d 453d
-0.09841981 -0.09670662 0.06243299 0.5764862 -0.044446755 -0.09842168 -0.08978728 -0.010495914
0.08612473 -0.017726574 0.058362864 -0.16592443 -0.0076445914 -0.020039715 -0.00930948 -0.07307679
0.0184579 0.13729979 -0.09693316 -0.31809962 0.21092975 -0.10291987 -0.007466861 -0.020803312
-0.013959217 0.0787403 0.0034736318 0.005039014 0.27862987 -0.0049587125 -0.15262528 0.12492278
0.046890534 -0.124481 -0.17566721 -0.0071138004 -0.10549354 -0.13937418 -0.008568189 0.18486923
-0.14934547 0.19698161 -0.039283846 0.05731104 0.03510674 0.10686491 -0.24290246 0.048231

backbone.2.conv.1.1.running_var f4 [48]
00000000: 4b3d cd3c 9568 773c 5f34 903b 2f38 bf3c
00000010: 9580 2c3c d087 573b a27e be3c 085b 043a
00000020: 07e9 0c3d fac5 b63a 7fc2 a23b 73de 2d3d
00000030: 9371 b23a 5f45 9a3b 152b 353c 2b36 883c
00000040: 3396 063b 9f3a 8d3c f432 8b3c fba1 ed3c
00000050: f7d3 a43c 9637 d63b 5076 6b3b b277 ce3b
00000060: e74b 2e3c 543c f53b 0151 ec3b 09e3 bb39
00000070: b01f 213b 9a27 0639 303e 203d deaa 243b
00000080: 50d4 d03b 1b96 f63c af36 0a3d e1e0 263c
00000090: a302 433c d752 4d3d c958 863b 82af c03d
000000a0: aa0b 493d 2152 9b3b 3395 bd3b 4c5e f03b
000000b0: a0c1 af3b 17fe 3b3c b614 953c 7ba7 1a3a
0.02505364 0.015100618 0.0044007744 0.02334222 0.010528703 0.0032887347 0.023253743 0.0005048965
0.03440192 0.00139445 0.0049670334 0.042448472 0.001361417 0.0047079767 0.011057635 0.016627392
0.0020536303 0.017239867 0.01699207 0.029007902 0.020120604 0.006537388 0.0035928674 0.00630089
0.010638214 0.0074839983 0.007211805 0.00035836574 0.0024585538 0.00012793989 0.039121807 0.002512626
0.006372966 0.030100873 0.033743557 0.010185451 0.011902484 0.05012783 0.0040999395 0.094084755
0.04908339 0.004740015 0.005785608 0.00733546 0.005363658 0.011474154 0.018198352 0.00058995903

backbone.2.conv.2.weight f4 [8, 48, 1, 1]
00000000: 9222 0d3e 98ec 8d3e db49 ad3c b744 2e3e
00000010: a932 c33e 6838 9bbd 24c1 313e 8f35 60be
00000020: 6e59 d8bd 08ba 8fbd 1092 8e3d 80c8 b73e
00000030: 9811 493b a229 09bd d900 e03d 37ad 8f3e
00000040: d18c 4bbe 1124 82bc 3a93 a53e fbe6 cf3e
00000050: 7de0 1fbd 69fb 17bc 429b 303c 607c de3c
00000060: 1ba8 193e 86ca a2bb 585b 093e 94c2 febd
00000070: 0eaa 11be a05f d3bc 3347 8bbd 8577 edbc
00000080: ab06 9cbd 6a99 953e 85e5 283e f97b 75bd
00000090: 3df9 403e 919c 8b3e cf4b 733d 0068 6fbd
000000a0: 5a09 093e bbd9 03bd e6a4 223e 2bc5 eebd
000000b0: 2987 b6bd 07a2 32be 631c 243d 63d0 35bd
000000c0: 974d a13d 7077 443e dd7d 6f3e d0ca aabe
000000d0: 670f 283e a02a 5c3e e2c1 243e 977e 95bd
000000e0: 972b 97ba 7631 39bd b5c4 1a3d 5508 14be
000000f0: 2fe6 1cbd 1f42 03be 53cb 993d 15d5 133e
00000100: e90c e2bd 86d9 8e3d 9699 02be 6649 ebbc
00000110: 6420 c2bd 4a63 58be 62d0 0c3d cf5c 3dbd
00000120: 4616 b23d b607 56bd 05f7 293e aaee 7dbd
00000130: cdfb 453e ad72 98bd cd0e 4c3d aaf1 3abe
00000140: 7a88 e8bd 9a6d 133e 8b53 98bd 712c d1bd
00000150: e227 e03e f5c9 b7be 391a 453c c4d2 8cbe
00000160: 1b14 09be ed16 dc3d df16 e1bc 73ed 26be
00000170: 0c14 e8bd 6d2e 44be 0ca3 afbd 9b97 43be
00000180: 63ae 133e ef73 b33b 37a8 533c b739 86be
00000190: de19 3b3e 7fa4 8abe e3ee d8bd 3e4e 3d3d
000001a0: a8ae cdbd f47d 3d3e e544 77bd 1cf6 a2be
000001b0: b8fd 913e cc3f 5bbe aeba edbd da2a af3c
000001c0: fc0e 1a3e fd37 c1bd 0495 c43d 020c 673d
000001d0: f652 943d 4a7f 203c 7c8f 783e 1a52 833e
000001e0: feb9 afbd 4df1 1ebe 404d 24be 9c3c 0e3e
000001f0: 4317 283e 1e3c 5d3e d57e de3c a4ee 953c
00000200: 771a 90be 6788 723e d025 193e 34ab 3dbe
00000210: 6791 0cbe fd14 543e 4441 893e ed84 2abe
00000220: e63b 9e3c 279d 2abe a701 413c a8e5 f9bd
00000230: fb5a a5be e905 4d3e ffce bcbe 91d3 653e
00000240: 9f09 203d e7e9 803e 9134 df3d eef0 a53e
00000250: 68b3 03be 5a7c 0d3e d642 24bd e2a6 313c
00000260: fa4c 08be c8e3 b2bc 7f89 603e b75c 3ebe
00000270: ae53 463d a919 973d 9eb1 3d3e 4e6e 673d
00000280: 2360 1bbb 0874 6c3d a63c 993c e0f5 84be
00000290: b0d1 d2bd 106d 923d 7343 ad3d 92c2 963d
000002a0: fe1d 1b3e 2bb7 c8bd b803 303e 1f67 b83d
000002b0: 1b0a 3abe d424 a2bc de78 a33e 5c62 ed3d
000002c0: beac 69bd a843 acbd c456 6d3e 186a f8bc
000002d0: e7a9 bc3d 039a 793e b6f3 5e3d e969 aebd
000002e0: 0036 20be f6ac 9f3e 5541 b13e d29e b73c
000002f0: 3ed1 1fbd c032 6ebd f77e b7be 3115 913d
00000300: 7e45 32bd cce5 0ebe 1386 3a3e b0ba a73d
00000310: a7f6 0c3e 0ada 533a a219 79be e5a6 a43c
00000320: 3f07 f6bc 292d 44bd 2ed7 383e 7608 693e
00000330: a478 363e f314 373b 3f28 883e 831c 26be
00000340: 5a75 9bbd 6f2f 89be 7776 58bc f606 4bbe
00000350: b13d 47be 7da7 833d 0b73 c43d 937f e03d
00000360: 3703 953e d402 aa3d 1509 8a3e 9295 27be
00000370: 5bc7 88bd bdd6 c4bd d5e5 52be eb3a d8bd
00000380: 1d03 253e 0e86 1abe 5bd7 0b3e f30e 403e
00000390: fb03 16bd b00a aabd 9518 483e c480 b7bd
000003a0: bd9e 31be 7d29 5f3d 6571 503c 5827 1d3e
000003b0: 83da bc3d be25 1a3e 5984 1fbe c7e0 7fbe
000003c0: fcf1 923d 72e6 14bb d0ec 773e 4f44 673d
000003d0: 1872 883e f6fc 233e bc58 593e a438 c1bd
000003e0: 078c 7abe afa4 643e e651 cabc d7d5 bfbe
000003f0: ec47 8b3e d6ce 943d 4cd4 393e c020 f0bd
0.13782719 0.2771957 0.021153381 0.170184 0.38124588 -0.07579118 0.17358834 -0.21895431
-0.10563932 -0.070179045 0.06961453 0.35895157 0.0030680653 -0.03348697 0.10937662 0.2806184
-0.19877936 -0.015886338 0.32338887 0.40605912 -0.039032448 -0.009276249 0.010779204 0.027158916
0.15005533 -0.0049679903 0.13413751 -0.124394566 -0.14225027 -0.025802433 -0.068006895 -0.028987655
-0.07618459 0.29218608 0.16493805 -0.059932683 0.18845077 0.27267888 0.05939847 -0.05844879
0.13382474 -0.032190066 0.15883216 -0.116587006 -0.089124985 -0.17444621 0.040066134 -0.044388186
0.07876127 0.19186187 0.23387857 -0.3335786 0.16412126 0.21500635 0.16089585 -0.07299536
-0.0011533377 -0.045213185 0.03778525 -0.14456303 -0.038305458 -0.12818192 0.07509484 0.14436753
-0.11037619 0.06975083 -0.12753901 -0.028721523 -0.09478834 -0.21131626 0.034378417 -0.046231087
0.086956546 -0.052253447 0.16598137 -0.061995186 0.19334336 -0.07443748 0.049818803 -0.1825625
-0.11354156 0.14397278 -0.074378096 -0.10213555 0.43780428 -0.35896268 0.012030178 -0.2750455
-0.13386576 0.1074656 -0.027476726 -0.16301517 -0.11331949 -0.19158335 -0.085760206 -0.19100802
0.14421992 0.005476467 0.0129185235 -0.26215908 0.18271586 -0.27078626 -0.10592439 0.046217196
-0.10043079 0.18505079 -0.060368437 -0.31828392 0.28513885 -0.21411055 -0.11607872 0.021382738
0.15044779 -0.09434507 0.09598735 0.056407936 0.07242386 0.009795973 0.24273485 0.25648576
-0.08580397 -0.15521736 -0.16045094 0.13890308 0.16415124 0.21604964 0.027160088 0.01830227
-0.2814519 0.23684846 0.1495583 -0.1852234 -0.13727342 0.20711131 0.26807606 -0.1665227
0.019315671 -0.16661511 0.011780179 -0.122020066 -0.32295975 0.20021786 -0.36876675 0.22443987
0.039071675 0.25178453 0.10898698 0.32410377 -0.12861407 0.13816968 -0.040102802 0.010843011
-0.13310614 -0.02183713 0.2192745 -0.18590055 0.048419647 0.07377941 0.18524787 0.05650168
-0.0023708425 0.057727844 0.018705677 -0.25968838 -0.10293901 0.07149708 0.084601305 0.0736133
0.1514816 -0.098005615 0.17188919 0.09004044 -0.18167917 -0.019792952 0.31928152 0.11591026
-0.057049505 -0.08411342 0.2317763 -0.030324027 0.09212094 0.24375157 0.05443164 -0.085162945
-0.156456 0.31186646 0.34620157 0.022414599 -0.03901791 -0.058153868 -0.35839054 0.0708412
-0.043523304 -0.13954848 0.18215208 0.08189905 0.13765965 0.00080815016 -0.24326184 0.020099113
-0.030032752 -0.04789463 0.18050835 0.22757134 0.17819458 0.002793607 0.26593205 -0.16221814
-0.075907424 -0.26794 -0.013211838 -0.19826874 -0.19457127 0.0642843 0.09592255 0.10961833
0.29104015 0.08301321 0.26960054 -0.1636565 -0.06678649 -0.096112706 -0.20595486 -0.10558113
0.16114469 -0.150902 0.1365637 0.18755703 -0.03662489 -0.0830282 0.19540627 -0.08960107
-0.1734571 0.054482926 0.012722348 0.1534704 0.09221365 0.1505346 -0.1557783 -0.2498809
0.07175061 -0.0022720364 0.2421143 0.05646163 0.26649547 0.16014466 0.21225256 -0.094346315
-0.24467479 0.22328447 -0.024697255 -0.37467834 0.2720331 0.07266013 0.18147391 -0.117249966

backbone.2.conv.3.weight f4 [8]
00000000: 4448 0f3f 083b ea3e fd29 e33e 7014 df3e
00000010: 9e78 d13e 39b7 133f c5c3 d83e 9b95 263f
0.55969644 0.45748162 0.44367972 0.4357028 0.40912336 0.5770145 0.4233686 0.6507203

backbone.2.conv.3.bias f4 [8]
00000000: 52a6 4d39 59de 4038 cad1 cd38 c537 e738
00000010: 6b34 3038 9091 0cb8 cf35 0fb9 3011 ab39
0.00019612283 4.5983445e-05 9.814238e-05 0.00011025326 4.2010488e-05 -3.3514167e-05 -0.00013657588 0.00032628467

backbone.2.conv.3.running_mean f4 [8]
00000000: 29bb 873f f886 18be e57c 4dbd bf49 bf3e
00000010: 780f 3bbe 6cb6 f03e c4de 82bd 6bba a03d
1.0603992 -0.14895236 -0.050167937 0.3736095 -0.1826762 0.47014177 -0.063901454 0.078480564

backbone.2.conv.3.running_var f4 [8]
00000000: e2ab e73d 690b a23d f4e6 f53d 065b 3f3d
00000010: a4db 5b3d 09a1 f73d 3c0b 863d 9820 213e
0.11312081 0.079123326 0.120069414 0.046717666 0.053676262 0.12091262 0.065451115 0.1573509
