ML Model/tv_detection_epoch_150/e-82-0.699.pth (torch, 508349 bytes, 205 tensors)

backbone.0.0.weight f4 [16, 3, 3, 3]
-2.77754e-40 1.45539e-40 -2.66219e-40 2.00827e-40 -5.3657e-41 3.7252e-40 2.82943e-40 -3.00105e-40
-1.0256e-40 -1.60065e-40 -2.73781e-40 1.5098e-40 -3.45496e-40 1.48808e-40 -7.328e-41 7.926e-41
3.61492e-40 3.8716e-40 -1.80567e-40 2.30463e-40 4.01513e-40 -4.3358e-40 -6.4439e-41 3.75998e-40
1.51539e-40 1.1737e-41 1.10251e-40 0.009886358 0.020616084 -0.058933035 0.14536603 0.3481744
0.0049128924 -0.13681377 -0.20383428 -0.008904517 -0.070234455 -0.016795749 -0.1671673 0.27976212
0.697748 0.06404192 -0.32298324 -0.55387944 -0.10886343 0.15202565 0.15550426 0.050565235
0.19456272 0.30533352 0.09165971 -0.13686422 -0.2053929 -0.0931934 -0.08430757 0.13036318
0.053151976 -0.38689536 0.76718545 -0.18836793 -0.637731 0.9191667 -0.23482834 -0.13690637
0.16478738 -0.0363941 -0.822609 1.3117887 -0.4528923 -1.0283207 1.4271138 -0.45985013
-0.053979516 -0.010616728 0.05894855 -0.23491585 0.41119534 -0.09477191 -0.29047295 0.443883
-0.1478012 -0.043367747 -0.011955904 0.068177864 0.0433368 0.21422084 -0.31382415 0.0094411345
0.29180118 -0.32268274 -0.014274012 -0.03222908 0.08176512 0.04756878 0.55527645 -0.5882985
0.051460657 0.63873607 -0.65299857 0.006592488 0.0075117573 -0.072319835 0.11640777 0.16229732
-0.20807916 0.05555515 0.13273507 -0.21814324 -0.10601686 -0.06329482 -0.10932284 -0.002298576
-0.027071627 -0.15587458 0.13326415 0.03044225 -0.21295081 0.07663116 0.033665378 -0.06626913
0.15501861 -0.119815014 -0.30208495 0.19081 -0.07612778 -0.42673746 0.074140295 -0.059504475
-0.19572262 0.031333335 -0.13889287 -0.2631256 -0.022669317 -0.09863375 -0.23584239 0.18844731
0.18408637 -0.14970899 0.1084936 0.6021189 0.2858036 -0.20458604 0.52269423 0.62565684
0.1360531 -0.020685961 0.08957997 0.055616606 -0.1465098 -0.045390755 0.017694106 -0.1392326
-0.052759185 -0.24723537 -0.18719955 0.04093543 -0.17576963 -0.5338218 -0.2850293 0.068770625
-0.47666404 -0.5593127 0.15891911 0.13357484 0.056251626 0.524359 0.017794196 -0.09067927
0.1046301 -0.097586095 -0.0031707329 0.0032549847 -0.014048658 -0.03314463 0.8694605 -0.08653973
-0.29190254 0.13238907 -0.23743081 -0.05238645 0.076967604 0.05554138 0.009611193 0.2695347
0.07038905 0.021863094 -0.073444575 -0.118008494 -0.02816202 0.02480749 0.021179328 -0.053884555
-0.008807306 0.10371777 0.29542688 0.00048003314 0.10455725 0.3393607 -0.09240004 -0.17974819
-0.20797704 -0.052062195 0.06735801 0.29902577 -0.0054552956 0.15342443 0.32850534 -0.043545898
0.00051671814 0.012543038 0.040717013 0.18277703 0.35304496 0.097191945 0.21058246 0.32591647
0.050113738 0.043931946 -0.15103942 -0.1837211 0.65424585 -0.5337715 0.01528904 0.7177285
-0.6652771 -0.036955714 0.16720384 -0.21664914 -0.14406443 1.039612 -0.92114896 -0.006498963
1.0213101 -0.9567803 0.08296227 0.036563758 4.5096378e-05 -0.097131535 0.41187575 -0.3426388
0.015086742 0.42264655 -0.3794875 -1.6729e-41 3.01681e-40 3.91918e-40 -1.76653e-40 -9.7397e-41
1.4832e-40 -2.53786e-40 7.4859e-41 3.13821e-40 1.47146e-40 1.41374e-40 1.70139e-40 3.97539e-40
00000000: 4406 0380 b495 0100 1ce6 0280 d32f 0200
00000010: 9395 0080 6f0e 0400 bb14 0300 9244 0380
00000020: e51d 0180 32be 0180 31fb 0280 dfa4 0100
00000030: 1ac3 0380 d19e 0100 46cc 0080 f2dc 0000
00000040: b1ef 0300 3f37 0400 59f7 0180 7082 0200
00000050: 415f 0400 a5b8 0480 a1b3 0080 2118 0400
00000060: 6ea6 0100 b820 0000 5633 0100 64fa 213c
00000070: 10e3 a83c c463 71bd d5da 143e ea43 b23e
00000080: 54fc a03b e918 0cbe efb9 50be 40e4 11bc
00000090: 15d7 8fbd 3d97 89bc e82d 2bbe fb3c 8f3e
000000a0: 9d9f 323f 6928 833d 0f5e a5be 0bcb 0dbf
000000b0: caf3 debd 9dac 1b3e 823c 1f3e 7e1d 4f3d
000000c0: 733b 473e ad54 9c3e 16b8 bb3d 2226 0cbe
000000d0: 8452 52be 2edc bebd 72a9 acbd ed7d 053e
000000e0: e3b5 593d 2617 c6be 4466 443f 86e3 40be
000000f0: 5742 23bf 824e 6b3f d776 70be 2f31 0cbe
00000100: 06be 283e fb11 15bd 8196 52bf b1e8 a73f
00000110: 80e1 e7be 03a0 83bf aaab b63f 7a71 ebbe
00000120: a019 5dbd c9f1 2dbc 0974 713d c88d 70be
00000130: 3288 d23e c617 c2bd dfb8 94be a244 e33e
00000140: 3359 17be 61a2 31bd b2e2 43bc d6a0 8b3d
00000150: ee81 313d b55c 5b3e 8fad a0be fdae 1a3c
00000160: f766 953e ac36 a5be 8cdd 69bc a402 04bd
00000170: 7974 a73d 7bd7 423d 9926 0e3f bb9a 16bf
00000180: 69c8 523d 3584 233f ea2a 27bf cc05 d83b
00000190: 3025 f63b 6c1c 94bd 3267 ee3d 4531 263e
000001a0: b412 55be cc8d 633d b4eb 073e f160 5fbe
000001b0: 5e1f d9bd b7a0 81bd a7e4 dfbd b5a3 16bb
000001c0: 51c5 ddbc 969d 1fbe 6676 083e 0762 f93c
000001d0: c70f 5abe ccf0 9c3d b5e4 093d 1cb8 87bd
000001e0: 33bd 1e3e 9361 f5bd e1aa 9abe b263 433e
000001f0: e2e8 9bbd 557d dabe ded6 973d f7ba 73bd
00000200: 836b 48be 6257 003d ef39 0ebe 66b8 86be
00000210: 01b5 b9bc 7e00 cabd ab80 71be 55f8 403e
00000220: 2381 3c3e 504d 19be e431 de3d 7724 1a3f
00000230: d954 923e 017f 51be 4acf 053f 0c2b 203f
00000240: 8151 0b3e 9b75 a9bc b475 b73d 3dce 633d
00000250: aa06 16be a8eb 39bd 3bf3 903c fe92 0ebe
00000260: 041a 58bd 452b 7dbe 3db1 3fbe e9ab 273d
00000270: f4fc 33be 8ca8 08bf 5cef 91be 9dd7 8c3d
00000280: 4f0d f4be 1e2f 0fbf b1bb 223e d8c7 083e
00000290: 1b68 663d 643c 063f 22c5 913c 0eb6 b9bd
000002a0: 4e48 d63d 38db c7bd 12cc 4fbb 9551 553b
000002b0: 582c 66bc aac2 07bd f794 5e3f be3b b1bd
000002c0: 4074 95be 0091 073e 1021 73be 2d93 56bd
000002d0: 31a1 9d3d 5c7f 633d 4478 1d3c 7400 8a3e
000002e0: 2228 903d 3b1a b33c 1c6a 96bd 70ae f1bd
000002f0: 09b4 e6bc 1439 cb3c 4580 ad3c 0db6 5cbd
00000300: 854c 10bc fb69 d43d 3142 973e f5ac fb39
00000310: 1d22 d63d b0c0 ad3e 3b3c bdbd e90f 38be
00000320: eff7 54be 2b3f 55bd fff2 893d e819 993e
00000330: 56c2 b2bb 4b1b 1d3e da31 a83e 2f5d 32bd
00000340: 5e74 073a 5181 4d3c e2c6 263d e729 3b3e
00000350: 4fc2 b43e 920c c73d eea2 573e 86de a63e
00000360: 1044 4d3d fcf1 333d 14aa 1abe 6221 3cbe
00000370: a87c 273f 40a5 08bf e27e 7a3c 0ebd 373f
00000380: 9a4f 2abf e05e 17bd 7c37 2b3e 46d9 5dbe
00000390: a085 13be 0212 853f 6bd0 6bbf 41f5 d4bb
000003a0: 4aba 823f 8eef 74bf 1fe8 a93d e1c3 153d
000003b0: de25 3d38 e6ec c6bd 61e1 d23e 5a6e afbe
000003c0: 622e 773c 2165 d83e 304c c2be a22e 0080
000003d0: f748 0300 8244 0400 70ec 0180 810f 0180
000003e0: 759d 0100 74c3 0280 add0 0000 ce6a 0300
000003f0: 2f9a 0100 188a 0100 47da 0100 2d54 0400

backbone.0.1.weight f4 [16]
3.5673e-41 0.1008046 0.10273001 0.2911903 0.19688614 0.22657588 0.11382388 0.2941995
0.07211562 -2.40841e-40 0.41831142 0.14836895 0.2923012 0.3333873 1.59881e-40 0.09519939
00000000: 7163 0000 a472 ce3d 1d64 d23d e516 953e
00000010: 859c 493e 8203 683e 7f1c e93d 51a1 963e
00000020: 5bb1 933d 5e9f 0280 ea2c d63e 08ee 173e
00000030: 81a8 953e bdb1 aa3e afbd 0100 e6f7 c23d

backbone.0.1.bias f4 [16]
-3.27779e-40 0.6069539 0.42085007 0.23154612 0.8575963 0.5574007 0.47470665 0.50659055
0.5711142 3.6807e-41 -0.27537587 0.8851496 0.36024034 -0.3170527 1.94601e-40 0.12201538
00000000: b791 0380 5561 1b3f a979 d73e 6d1a 6d3e
00000010: 6e8b 5b3f d0b1 0e3f c00c f33e ebaf 013f
00000020: 8a34 123f 9a66 0000 11fe 8cbe 2a99 623f
00000030: 6c71 b83e bb54 a2be 781e 0200 33e3 f93d

backbone.0.1.running_mean f4 [16]
2.457124e-38 46.905464 39.527737 1.331055 -197.3925 -63.84536 129.05344 230.14638
7.558347 -1.6029228e-38 -23.810041 186.1323 8.15529 74.30937 -7.759296e-39 -38.659622
00000000: 4fc7 0501 329f 3b42 671c 1e42 0360 aa3f
00000010: 7b64 45c3 a661 7fc2 ae0d 0143 7925 6643
00000020: fbdd f140 f78a ae80 f77a bec1 de21 3a43
00000030: 117c 0241 669e 9442 c37d 5480 74a3 1ac2

backbone.0.1.running_var f4 [16]
6e-45 2573.1506 9309.276 1815.805 17666.943 9546.902 10207.226 24092.219
5852.486 6e-45 3404.1196 15615.161 2700.7678 3940.7288 6e-45 2002.3231
00000000: 0400 0000 69d2 2045 1b75 1146 c3f9 e244
00000010: e305 8a46 9c2b 1546 e77c 1f46 7038 bc46
00000020: e3e3 b645 0400 0000 eac1 5445 a5fc 7346
00000030: 49cc 2845 a94b 7645 0400 0000 574a fa44

backbone.1.conv.0.0.weight f4 [16, 1, 3, 3]
4.26934e-40 -2.3983e-40 1.16986e-40 -1.41072e-40 2.13311e-40 -2.38309e-40 -1.22113e-40 3.56112e-40
3.07865e-40 -0.02684397 -0.022755817 0.034938335 0.020320121 -0.06690442 0.7198941 -0.020533571
0.037394438 -0.84866405 0.000708019 -0.04696265 -0.15734032 -0.029266793 0.056375626 1.0715933
-0.010440161 -0.062011052 -0.049494848 -0.06289238 -0.04014274 -0.08751505 0.0050499663 0.8008702
-0.28862223 -0.024082936 -0.019438792 -0.20164087 0.5741911 1.9275118 0.45917434 0.21984658
0.44164282 0.20051455 -0.8441301 -2.1143267 -0.72609764 -0.21672624 0.011983934 -0.20705996
0.12770744 0.37827864 -1.6384944 0.075941786 1.3221745 0.40077385 -0.060739994 0.083751686
-0.05698562 -0.0063205725 0.045436636 -0.77367204 0.0086129885 0.062477347 1.0256068 -0.47956905
-0.2726175 0.73542994 -2.361805 -0.35841817 2.6077342 -0.43276116 -0.14094974 0.66363716
-0.04648056 0.022605944 -0.09523112 0.03776464 -0.96332955 0.14983965 0.05592433 0.0033099062
-0.08091723 -3.22101e-40 1.8395e-40 -9.8326e-41 -2.97972e-40 -1.37637e-40 3.8302e-41 -3.5047e-40
-2.00922e-40 2.1189e-40 0.0056252177 -0.13969503 -0.37343463 -0.17120242 0.15587267 0.4045652
-0.32854897 0.33716372 0.5034984 0.18972726 1.5628748 0.97850287 0.106965706 0.04225455
-0.12180885 -0.28658238 -1.6314361 -0.9761702 -0.0055342237 0.03505134 -0.03431931 0.02402674
-0.018123386 -0.73709035 -0.016180316 0.014701007 0.74380475 -0.024242774 0.05483259 -0.19095087
0.05226613 0.10621565 -0.102041714 -0.15774049 -0.061580833 0.60968643 3.02964e-40 3.21005e-40
3.95774e-40 4.00519e-40 -4.68527e-40 -3.66958e-40 3.79678e-40 3.5673e-40 1.74991e-40 0.13083939
0.013889385 0.009113179 0.13731997 -0.05081756 -0.1805366 0.09766273 -0.1896629 -0.23904707
00000000: 1ea6 0400 8c9c 0280 1c46 0100 4089 0180
00000010: a052 0200 4f98 0280 6754 0180 b2e0 0300
00000020: 345a 0300 e3e7 dbbc 686a babc 801b 0f3d
00000030: 6276 a63c 2f05 89bd fb4a 383f 0536 a8bc
00000040: e92a 193d 0c42 59bf 5a9a 393a e85b 40bd
00000050: d21d 21be eac0 efbc 21ea 663d f829 893f
00000060: 360d 2bbc 4dff 7dbd 1cbb 4abd b8cd 80bd
00000070: b76c 24bd 173b b3bd 307a a53b d405 4d3f
00000080: 4bc6 93be 9449 c5bc 1a3e 9fbc f27a 4ebe
00000090: 30fe 123f b5b8 f63f e618 eb3e 761f 613e
000000a0: 021f e23e b053 4d3e e918 58bf 2151 07c0
000000b0: 89e1 39bf 7ced 5dbe 4358 443c 8707 54be
000000c0: bdc5 023e bdad c13e 2fba d1bf 5e87 9b3d
000000d0: 043d a93f 3b32 cd3e 80ca 78bd 0186 ab3d
000000e0: c169 69bd ce1c cfbb c41b 3a3d 5f0f 46bf
000000f0: 7e1d 0d3c 3fe8 7f3d 1547 833f 138a f5be
00000100: 8594 8bbe 2345 3c3f d027 17c0 9682 b7be
00000110: 1ee5 2640 df92 ddbe 2155 10be 20e4 293f
00000120: 6662 3ebd 1a30 b93c 8908 c3bd 18af 1a3d
00000130: c49c 76bf 916f 193e e910 653d 03eb 583b
00000140: efb7 a5bd e381 0380 c700 0200 1812 0180
00000150: a03e 0380 ad7f 0180 c56a 0000 f8d0 0380
00000160: 1730 0280 aa4e 0200 bf53 b83b 370c 0fbe
00000170: d332 bfbe b04f 2fbe 169d 1f3e 2b23 cf3e
00000180: 9237 a8be b9a0 ac3e 45e5 003f dd47 423e
00000190: 480c c83f 2a7f 7a3f d610 db3d 1b13 2d3d
000001a0: eb76 f9bd edba 92be e6d2 d0bf 4ae6 79bf
000001b0: 6f58 b5bb fe91 0f3d 6892 0cbd bad3 c43c
000001c0: 7f77 94bc f4b1 3cbf 958c 84bc 7edc 703c
000001d0: fd69 3e3f c898 c6bc 2398 603d a088 43be
000001e0: 0215 563d 9787 d93d 3ffb d0bd b986 21be
000001f0: 2f3c 7cbd 6914 1c3f 8a4c 0300 d57e 0300
00000200: 424f 0400 7c5c 0400 101a 0580 eefe 0380
00000210: 6322 0400 6be2 0300 cee7 0100 c3fa 053e
00000220: 4e90 633c 714f 153c 9b9d 0c3e 1326 50bd
00000230: 96de 38be 6603 c83d fe36 42be c1c8 74be

backbone.1.conv.0.1.weight f4 [16]
1.91038e-40 0.5184691 0.5638684 0.5883851 1.1387908 0.47342473 0.55091834 0.8147029
0.40955478 1.56309e-40 0.22941627 0.9941761 0.8698964 0.25397572 2.57699e-40 0.34386235
00000000: 8914 0200 64ba 043f ae59 103f 68a0 163f
00000010: e6c3 913f ba64 f23e fc08 0d3f 5f90 503f
00000020: 2ab1 d13e bab3 0100 19ec 6a3e 5382 7e3f
00000030: 88b1 5e3f 1b09 823e 5cce 0200 ba0e b03e

backbone.1.conv.0.1.bias f4 [16]
-1.4994489e-38 0.6607464 1.3571681 0.28277597 0.17570199 0.7432873 0.5606709 0.5187553
0.47769934 -1.8424963e-38 0.50933534 0.062392447 0.69790506 -0.3072423 1.7971422e-38 0.33526137
00000000: 8946 a380 ad26 293f afb7 ad3f 03c8 903e
00000010: 39eb 333e 1448 3e3f 2188 0f3f 26cd 043f
00000020: 0295 f43e 4da1 c880 cd63 023f 398f 7f3d
00000030: e8a9 323f dd4e 9dbe 03b1 c300 61a7 ab3e

backbone.1.conv.0.1.running_mean f4 [16]
6e-45 -0.098976746 0.3170098 0.024063246 0.13421893 0.1456459 0.15250409 -0.033688184
-0.5243707 -6e-45 0.017260693 -0.11957041 -0.0071670455 0.012434278 -6e-45 -0.033874664
00000000: 0400 0000 52b4 cabd 1c4f a23e 4920 c53c
00000010: b070 093e 3324 153e 082a 1c3e 9ffc 09bd
00000020: 283d 06bf 0400 0080 4c66 8d3c 55e1 f4bd
00000030: 89d9 eabb 24b9 4b3c 0400 0080 29c0 0abd

backbone.1.conv.0.1.running_var f4 [16]
6e-45 0.009631821 0.008158809 0.039474264 0.23177221 0.05030566 0.006246749 0.39763072
0.004835636 6e-45 0.008462561 0.14735615 0.056974553 0.0018097087 6e-45 0.0008299686
00000000: 0400 0000 c9ce 1d3c 86ac 053c c4af 213d
00000010: b255 6d3e 4f0d 4e3d 87b1 cc3b 4196 cb3e
00000020: 4174 9e3b 0400 0000 8ea6 0a3c 88e4 163e
00000030: 265e 693d bf33 ed3a 0400 0000 4092 593a

backbone.1.conv.1.weight f4 [8, 16, 1, 1]
-3.396907e-39 -0.2040313 -0.027345702 0.19623928 -0.0411905 0.64618355 0.25699583 -0.10864377
-0.06022439 7.02912e-40 0.0055188774 0.26339823 0.12591042 -0.0147836935 -8.96391e-40 -0.2147226
3.2039e-39 -0.069747455 -0.52137434 -0.010015472 0.2549064 -0.07093254 -0.0015951967 0.007820739
0.08918013 1.467291e-39 -0.069243684 0.11907613 -0.19285323 -0.03584266 5.77175e-40 -0.29629594
3.15736e-39 0.42981595 0.12225118 0.42049068 -0.19144699 -0.16355151 -0.28706503 0.090860315
-0.22199406 9.78614e-40 -0.2112896 0.37339336 0.033723935 -0.10540527 -1.186779e-39 -0.3569269
-6.51277e-40 -0.18781112 -0.1312879 -0.1064932 0.4628945 -0.28941607 0.1390259 -0.05385634
-0.15898545 -7.8862e-41 0.120688416 -0.4005389 0.42890987 0.29997918 -3.325278e-39 -0.36590123
1.07953e-40 -0.35008788 0.22778048 0.02253974 0.113764845 -0.68722963 0.17117761 -0.22057271
-0.06399116 -1.707411e-39 0.29237226 -0.053112637 -0.23989041 0.1246104 -1.712362e-39 0.0045807427
-1.814197e-39 -0.09966762 0.04071686 -0.5795015 -0.29478297 -0.14243154 0.1538211 0.5714109
0.44086695 -1.413153e-39 0.112584114 0.41445893 0.10634393 0.03357142 4.126779e-39 -0.21754862
8.32576e-40 0.31876627 -0.055921387 -0.4201695 -0.39755294 0.058048625 -0.008906254 -0.82358086
0.08459542 -3.30269e-40 -0.034104288 0.23892978 -0.06913626 0.3262042 2.716584e-39 -0.21075566
1.981049e-39 0.10629572 0.2513184 -0.016462991 0.5105348 0.57418007 -0.1326686 0.15833971
-0.078583874 -2.106586e-39 0.1107149 -0.4453136 -0.2311065 0.059400983 -7.81946e-40 -0.23339397
00000000: 32fd 2480 95ed 50be 1804 e0bc f3f2 483e
00000010: 5fb7 28bd 496c 253f f594 833e a080 debd
00000020: daad 76bd 6fa7 0700 b3d7 b43b 22dc 863e
00000030: a9ee 003e 4e37 72bc c6c2 0980 3ee0 5bbe
00000040: 2be3 2200 c1d7 8ebd ca78 05bf ef17 24bc
00000050: 1783 823e 1445 91bd eb15 d1ba 8f22 003c
00000060: 12a4 b63d 36fa 0f00 a2cf 8dbd 30de f33d
00000070: 517b 45be c1cf 12bd ee48 0600 1ab4 97be
00000080: 6f61 2200 d610 dc3e d45e fa3d 8e4a d73e
00000090: ae0a 44be 0c7a 27be 30fa 92be f914 ba3d
000000a0: 6952 63be faa7 0a00 4d5c 58be 6a2d bf3e
000000b0: 1c22 0a3d b8de d7bd 42ec 0c80 1fbf b6be
000000c0: 7f17 0780 8f51 40be 5670 06be 1b19 dabd
000000d0: 8200 ed3e 582e 94be ce5c 0e3e 7798 5cbd
000000e0: 15cd 22be d6db 0080 7d2b f73d 6f13 cdbe
000000f0: 139a db3e df96 993e 8635 2480 6857 bbbe
00000100: ee2c 0100 b83e b3be 493f 693e 43a5 b83c
00000110: 8bfd e83d 48ee 2fbf 2f49 2f3e d0dd 61be
00000120: cc0d 83bd 9197 1280 d1b1 953e a38c 59bd
00000130: d5a5 75be bd33 ff3d 5ea5 1280 0e1a 963b
00000140: 3ec1 1380 8a1e ccbd b9c6 263d 365a 14bf
00000150: cbed 96be 93d9 11be 4783 1d3e fc47 123f
00000160: 50b9 e13e 4c63 0f80 8092 e63d f633 d43e
00000170: d9ca d93d 2f82 093d c8ef 2c00 11c5 5ebe
00000180: e210 0900 5535 a33e d30d 65bd 7520 d7be
00000190: 0f8c cbbe 65c4 6d3d 89eb 11bc 32d6 52bf
000001a0: 5d40 ad3d a898 0380 f0b0 0bbd 02aa 743e
000001b0: 5097 8dbd 3d04 a73e bb94 1d00 55d0 57be
000001c0: 5c92 1500 92b1 d93d ceac 803e 65dd 86bc
000001d0: 69b2 023f 77fd 123f 47da 07be ce23 223e
000001e0: 95f0 a0bd 4ef0 1680 7ebe e23d 2500 e4be
000001f0: 2fa7 6cbe 724e 733d bf83 0880 d4fe 6ebe

backbone.1.conv.2.weight f4 [8]
0.515987 0.46883553 0.69102603 0.5247103 0.5211061 0.5953391 0.5846593 0.5227418
00000000: b917 043f 360b f03e 15e7 303f 6a53 063f
00000010: 3667 053f 2568 183f 3bac 153f 68d2 053f

backbone.1.conv.2.bias f4 [8]
0.0003642336 -0.00020050482 -1.2699155e-05 -0.00030424877 0.0003727245 -0.00011869906 0.00037656756 0.00017379528
00000000: 9bf6 be39 9a3e 52b9 750e 55b7 9483 9fb9
00000010: 3c6a c339 13ee f8b8 0b6e c539 d13c 3639

backbone.1.conv.2.running_mean f4 [8]
0.5133769 -0.94455606 0.06505218 -0.2423871 -0.5124436 0.39829683 -0.6657267 0.70234174
00000000: ab6c 033f 6dce 71bf 143a 853d 5334 78be
00000010: 812f 03bf 90ed cb3e 116d 2abf abcc 333f

backbone.1.conv.2.running_var f4 [8]
0.11963878 0.12750982 0.2642761 0.30259228 0.19704148 0.35005015 0.37400958 0.1924393
00000000: 2d05 f53d ef91 023e 324f 873e 60ed 9a3e
00000010: 3ec5 493e c639 b33e 2f7e bf3e cf0e 453e

backbone.2.conv.0.0.weight f4 [48, 8, 1, 1]
0.119085915 -0.040080518 0.15559031 -0.3246906 -0.1506461 0.06296774 0.2515449 0.05942677
0.12287192 0.07005564 0.09334389 0.03245668 -0.061565753 -0.3636408 -0.16588472 -0.17103249
-0.15432306 0.06899533 -0.17219684 0.14086734 -0.0015629607 -0.13078775 -0.2185872 0.18995227
-0.17794414 0.17985496 0.17036891 -0.4504649 0.03078101 -0.08666693 -0.22111623 -0.53410983
0.08150894 -0.1299452 0.12668768 -0.24314083 -0.10349902 0.10060912 0.051995683 -0.26575336
0.07740457 0.02284541 0.23285381 -0.10704905 -0.080446176 0.0025670626 0.25066242 -0.097659476
0.020402474 0.1725438 0.20143962 0.16834144 -0.08182723 -0.31311184 -0.088303894 -0.0594489
0.032591626 0.14941485 0.043350574 0.0047457246 0.04949869 0.03762546 -0.040951453 0.08786167
-0.018394098 0.034952458 0.53485495 0.015541258 -0.10193832 -0.004825705 -0.019693134 0.012002734
-0.05634835 0.3312462 -0.07914078 0.13026449 -0.12608947 0.11576259 0.0825539 -0.050956048
-0.17238714 -0.09337335 0.06169242 -0.39340383 0.123390235 0.07013931 0.01368041 -0.043513518
-0.06994151 0.08410271 -0.29424965 0.27175695 0.07382536 -0.16329286 -0.1365498 0.20678782
0.11282199 0.11509175 -0.18623304 0.14704813 0.089455925 0.13766114 -0.04006583 -0.03730459
0.32182437 -0.17051499 -0.023982164 -0.03471258 -0.2159994 -0.032936998 0.09369811 0.21944673
0.08946284 -0.16218738 -0.015446672 0.39421946 -0.0027021607 0.16410534 -0.09778084 -0.3498954
0.08223691 0.26091644 0.1794126 0.1872757 -0.3055123 -0.16857444 0.009941176 -0.022173177
0.29888692 0.2072634 0.15483637 0.21850775 0.12740915 0.10030805 0.16462673 0.072433636
0.03949389 0.05729552 0.11708615 -0.10908753 -0.21908998 0.21213332 -0.019327426 0.044918135
-0.23413526 0.063298 -0.18888547 0.15649368 -0.1628521 -0.11048251 -0.22021048 0.27974886
-0.06944518 0.107748315 -0.2306531 0.34347636 0.09032408 -0.2021948 -0.17077678 0.46540993
0.097609445 0.18408991 0.2195538 0.24147074 0.01544046 0.11016746 0.15671457 0.09885971
0.04568352 -0.07250471 0.09925645 -0.38807485 0.13747194 -0.05418115 -0.34557176 -0.010617804
0.08219227 0.117310286 0.024092274 0.057173956 -0.23712537 -0.07125626 -0.017077154 -0.12125028
0.2652053 -0.046012912 0.095906034 0.109255426 0.061416596 -0.059219662 -0.1277229 0.00063930056
-0.15365073 -0.15306166 0.07964863 0.19161303 -0.22023703 -0.047812134 0.04074944 -0.021830657
-0.05367285 -0.4413548 0.22400029 -0.04755733 0.10887885 -0.11605503 -0.014775769 0.27366874
-0.1916075 -0.012893117 0.23210967 0.008819118 -0.19412313 -0.010196511 0.18224254 0.12061564
-0.21810117 0.024340529 -0.10518534 0.26847056 0.12215476 0.07474645 0.34240115 0.12467957
0.34659755 -0.055157263 -0.24070437 -0.039958436 -0.03158545 -0.23461418 0.0036396007 0.20406489
0.06531143 0.009220851 0.21108596 0.1953286 0.09013088 0.08604582 -0.06327165 0.064524665
-0.2594284 -0.0744479 -0.27255592 -0.06876286 -0.19643506 0.47892052 0.065090664 0.17838039
0.16967458 -0.021553166 0.04476525 -0.17223485 -0.24476191 0.09852484 0.004905902 0.2702498
00000000: 51e3 f33d 782b 24bd 1153 1f3e d93d a6be
00000010: f942 1abe 3bf5 803d 7eca 803e 7c69 733d
00000020: 46a4 fb3d 5579 8f3d 152b bf3d 4cf1 043d
00000030: 5f2c 7cbd 202f babe afdd 29be 2423 2fbe
00000040: dd06 1ebe 6c4d 8d3d 5e54 30be 873f 103e
00000050: 42dc ccba 39ed 05be 53d5 5fbe d982 423e
00000060: fd36 36be e62b 383e 3075 2e3e 56a3 e6be
00000070: 7528 fc3c 6e7e b1bd 4b6c 62be 6cbb 08bf
00000080: 29ee a63d 5b10 05be 6aba 013e e9f9 78be
00000090: 4bf7 d3bd 280c ce3d 6df9 543d d310 88be
000000a0: 4a86 9e3d 4c26 bb3c 3b71 6e3e 883c dbbd
000000b0: f7c0 a4bd 2a3c 283b d356 803e b101 c8bd
000000c0: 1723 a73c 52af 303e 3046 4e3e b361 2c3e
000000d0: 0995 a7bd 3250 a0be acd8 b4bd b180 73bd
000000e0: cc7e 053d 3500 193e 5f90 313d 0682 9b3b
000000f0: 23bf 4a3d 281d 1a3d b6bc 27bd d2f0 b33d
00000100: 38af 96bc 4f2a 0f3d 41ec 083f c3a0 7e3c
00000110: 0ac5 d0bd f320 9ebb 7f53 a1bc 1da7 443c
00000120: 87cd 66bd 1a99 a93e 9014 a2bd 0e64 053e
00000130: 991d 01be f014 ed3d 0512 a93d 4ab7 50bd
00000140: 4186 30be 873a bfbd 31b1 7c3d 3a6c c9be
00000150: 05b4 fc3d 33a5 8f3d cc23 603c 3b3b 32bd
00000160: 7f3d 8fbd 0b3e ac3d e4a7 96be ba23 8b3e
00000170: c031 973d 3e36 27be b6d3 0bbe 30c0 533e
00000180: 370f e73d 39b5 eb3d e0b3 3ebe c993 163e
00000190: ab34 b73d 0bf7 0c3e 111c 24bd b3cc 18bd
000001a0: 2ac6 a43e 7b9b 2ebe 3e76 c4bc c72e 0ebd
000001b0: f22e 5dbe f2e8 06bd cbe4 bf3d a5b6 603e
000001c0: 4b38 b73d 7314 26be 0a14 7dbc 22d7 c93e
000001d0: bc16 31bb 3b0b 283e 5241 c8bd 7d25 b3be
000001e0: d36b a83d d796 853e f0b7 373e 33c5 3f3e
000001f0: 1c6c 9cbe c79e 2cbe 50e0 223c 86a4 b5bc
00000200: b507 993e db3c 543e 6d8d 1e3e 7fc0 5f3e
00000210: 8b77 023e 4f6e cd3d e993 283e 1658 943d
00000220: 58c4 213d b5ae 6a3d ddca ef3d 4869 dfbd
00000230: 2059 60be 7a39 593e 8d54 9ebc 14fc 373d
00000240: 27c1 6fbe 62a2 813d 316b 41be e13f 203e
00000250: b3c2 26be a744 e2bd db7e 61be 3e3b 8f3e
00000260: 4639 8ebd 26ab dc3d 5430 6cbe 22dc af3e
00000270: d5fb b83d 270c 4fbe 1ce0 2ebe 364a ee3e
00000280: 76e7 c73d 1182 3c3e b6d2 603e 1b44 773e
00000290: fcf9 7c3c 7a9f e13d c979 203e f676 ca3d
000002a0: a51e 3b3d 597d 94bd f746 cb3d bfb1 c6be
000002b0: 72c5 0c3e 0eed 5dbd c8ee b0be 4cf6 2dbc
000002c0: 6c54 a83d 6040 f03d 295d c53c 3d2f 6a3d
000002d0: fed0 72be cdee 91bd 63e5 8bbc 1152 f8bd
000002e0: fdc8 873e 0978 3cbd 626a c43d 4fc1 df3d
000002f0: f88f 7b3d 5190 72bd cbc9 02be bc96 273a
00000300: 9e56 1dbe 32bc 1cbe d21e a33d 3536 443e
00000310: d185 61be a8d6 43bd e3e8 263d 35d6 b2bc
00000320: 10d8 5bbd 42f9 e1be 5560 653e 7acb 42bd
00000330: e0fb de3d 42ae edbd 1116 72bc 4f1e 8c3e
00000340: c234 44be a73d 53bc 28ae 6d3e 107e 103c
00000350: 37c8 46be 440f 27bc ca9d 3a3e 5505 f73d
00000360: ea55 5fbe ca65 c73c 696b d7bd f974 893e
00000370: 462c fa3d ab14 993d 344f af3e 0158 ff3d
00000380: 3c75 b13e 95ec 61bd 357b 76be 75ab 23bd
00000390: bf5f 01bd b33e 70be 5e86 6e3b 63f6 503e
000003a0: 00c2 853d 0d13 173c eb26 583e 3804 483e
000003b0: 8a96 b83d ca38 b03d 9194 81bd 8225 843d
000003c0: cdd3 84be 2478 98bd 738c 8bbe 8bd3 8cbd
000003d0: 4626 49be 1235 f53e 414e 853d 59a9 363e
000003e0: 2cbf 2d3e 4490 b0bc c45b 373d 555e 30be
000003f0: dea2 7abe 64c7 c93d b0c1 a03b 2f5e 8a3e

backbone.2.conv.0.1.weight f4 [48]
0.44831333 0.35100827 0.11261876 0.15781564 0.14461671 0.07814323 0.3182785 0.04209448
0.3700028 0.1346069 0.24868107 0.4020087 0.09246377 0.16036095 0.16521467 0.38426545
0.16161828 0.22411758 0.3789696 0.27041095 0.24116431 0.14460082 0.18102473 0.16497973
0.16669415 0.17220698 0.16195193 0.27690274 0.078546986 0.057840127 0.46389362 0.10027532
0.253491 0.3683507 0.33748496 0.21782446 0.36534116 0.41002157 0.19105725 0.40258265
0.46521688 0.14640783 0.10178541 0.20415856 0.20545039 0.2821242 0.33406293 0.07525981
00000000: 5389 e53e 5bb7 b33e aaa4 e63d 6c9a 213e
00000010: 6716 143e 8f09 a03d 66f5 a23e 436b 2c3d
00000020: 0271 bd3e 64d6 093e 40a6 7e3e 16d4 cd3e
00000030: a55d bd3d a935 243e 092e 293e 71be c43e
00000040: 437f 253e 147f 653e 4e08 c23e 4e73 8a3e
00000050: c7f3 763e 3d12 143e 8c5e 393e 72f0 283e
00000060: dfb1 2a3e 0757 303e bad6 253e 32c6 8d3e
00000070: 3edd a03d c5e9 6c3d 7783 ed3e 265d cd3d
00000080: 93c9 813e 7798 bc3e d4ca ac3e 600d 5f3e
00000090: ff0d bb3e 59ee d13e 83a4 433e 501f ce3e
000000a0: e830 ee3e efeb 153e de74 d03d f10e 513e
000000b0: 9661 523e 9572 903e 4c0a ab3e d121 9a3d

backbone.2.conv.0.1.bias f4 [48]
-0.030102247 0.028645609 0.25532112 0.38957384 0.28196135 0.29362464 0.01745488 -0.009858881
-0.057506286 0.14639173 -0.02182705 0.05642402 0.19520308 0.1555696 0.18333758 -0.058406916
-0.107774556 0.13196187 0.05301853 0.29809517 0.26810807 0.15351672 0.13698171 0.19789293
0.14220455 0.031894293 0.13029999 -0.32967424 0.28600594 0.2567125 -0.019913498 0.20073095
0.054571673 0.0155531475 0.062346015 0.16934276 -0.025948465 0.028906088 0.16317669 0.047541086
0.022744428 0.17396373 0.30358168 0.13844499 0.13541158 -0.05212313 0.19393806 0.23084208
00000000: fd98 f6bc 32aa ea3c 73b9 823e 3976 c73e
00000010: 3d5d 903e f855 963e 89fd 8e3c 2587 21bc
00000020: b68b 6bbd b7e7 153e a4ce b2bc e01c 673d
00000030: 51e3 473e a34d 1f3e d9bc 3b3e 173c 6fbd
00000040: e8b8 dcbd 0321 073e f529 593d ee9f 983e
00000050: 7645 893e 7d33 1d3e ef44 0c3e 72a4 4a3e
00000060: 129e 113e 97a3 023d 5c6d 053e 10cb a8be
00000070: 5f6f 923e d26f 833e a221 a3bc 6a8c 4d3e
00000080: 8c86 5f3d a1d2 7e3c 895e 7f3d 3068 2d3e
00000090: e091 d4bc 76cc ec3c ca17 273e 71ba 423d
000000a0: 8652 ba3c 8c23 323e 0f6f 9b3e 86c4 0d3e
000000b0: 55a9 0a3e 107f 55bd b397 463e de61 6c3e

backbone.2.conv.0.1.running_mean f4 [48]
-1.802048e-05 -5.8649257e-06 1.35176815e-05 -8.787758e-05 -4.53952e-05 -1.9364848e-05 -2.6194204e-05 -2.03276e-05
-8.3111125e-05 -7.7045894e-05 1.9258938e-05 5.7820318e-05 -7.03831e-06 1.1676922e-05 -3.71486e-05 -9.334648e-05
-6.600076e-06 -0.00010236293 -1.630017e-05 7.140953e-05 -3.5136283e-05 -8.531524e-06 -6.890423e-05 3.590526e-06
-2.2326578e-05 9.7729884e-05 -3.0886655e-05 7.5507065e-05 7.7745426e-05 -2.0687025e-05 -6.25064e-05 -5.2923577e-05
-2.4837653e-05 6.701736e-05 -6.207121e-05 -9.266148e-05 0.00014510157 -3.221376e-05 -3.8896713e-05 -6.95312e-05
-2.8937387e-05 -4.903889e-05 -6.834265e-05 -3.324705e-05 -5.9602542e-05 0.000109240034 0.00013438465 3.9747792e-06
00000000: b02a 97b7 54cb c4b6 00ca 6237 eb4a b8b8
00000010: ba66 3eb8 b271 a2b7 a0bb dbb7 3085 aab7
00000020: f24b aeb8 b393 a1b8 418e a137 1884 7238
00000030: 9f2a ecb6 00e8 4337 01d0 1bb8 03c3 c3b8
00000040: 3976 ddb6 aeab d6b8 59bc 88b7 b3c1 9538
00000050: 4c5f 13b8 9e22 0fb7 ad80 90b8 c4f4 7036
00000060: f649 bbb7 55f4 cc38 4b8c 01b8 8c59 9e38
00000070: 420b a338 0c89 adb7 de15 83b8 42fa 5db8
00000080: 745a d0b7 ac8b 8c38 3a2c 82b8 4153 c2b8
00000090: 6826 1839 431d 07b8 0725 23b8 47d1 91b8
000000a0: 91be f2b7 1baf 4db8 2e53 8fb8 c072 0bb8
000000b0: befd 79b8 cc17 e538 9be9 0c39 185f 8536

backbone.2.conv.0.1.running_var f4 [48]
0.13189967 0.07019257 0.10081337 0.15872812 0.103094526 0.10239812 0.08218999 0.009678574
0.14808258 0.034628 0.07234696 0.17350052 0.041781474 0.07657211 0.07261553 0.09229499
0.048827767 0.06111053 0.12299973 0.27339858 0.035615202 0.06109483 0.029168077 0.028964126
0.020019786 0.06417243 0.050189413 0.06922534 0.1004009 0.01996172 0.18234237 0.0780251
0.061711293 0.09642825 0.1320965 0.07671515 0.16357902 0.15243454 0.04081613 0.14503486
0.03675244 0.13215876 0.057057187 0.099205345 0.08008751 0.1426388 0.13761929 0.09148919
00000000: b510 073e 1fc1 8f3d 3d77 ce3d a089 223e
00000010: 3923 d33d 1bb6 d13d 3a53 a83d e292 1e3c
00000020: f6a2 173e 17d6 0d3d a52a 943d 1faa 313e
00000030: 0d23 2b3d d7d1 9c3d 73b7 943d 2805 bd3d
00000040: a0ff 473d 094f 7a3d 48e7 fb3d e6fa 8b3e
00000050: 3fe1 113d 933e 7a3d e4f1 ee3c 2d46 ed3c
00000060: 8900 a43c d66c 833d 6a93 4d3d 04c6 8d3d
00000070: fd9e cd3d c386 a33c f5b7 3a3e a0cb 9f3d
00000080: fbc4 7c3d 2d7c c53d 4e44 073e d51c 9d3d
00000090: 4281 273e cd17 1c3e d02e 273d 0584 143e
000000a0: ba89 163d a054 073e ccb4 693d 2c2c cb3d
000000b0: ec04 a43d e80f 123e 12ec 0c3e af5e bb3d

backbone.2.conv.1.0.weight f4 [48, 1, 3, 3]
-0.0071648033 -0.2017348 -0.20055376 -0.014852338 -0.19092877 -0.16170137 0.04432161 -0.10820421
-0.05498068 -0.06379433 -0.014901986 0.06755205 -0.18711405 -0.1972238 -0.13318764 -0.09051262
-0.08259906 -0.1029999 -0.12130727 -0.0808801 -0.02889507 0.19824609 0.4320339 0.26342773
-0.033994563 -0.10070248 -0.27033922 0.11704733 0.21344912 0.09074179 0.2527735 0.44324803
0.074436836 0.13873972 0.12445835 -0.010861769 -0.079360254 -0.34714106 -0.27216035 -0.0058307867
-0.034171645 0.046915986 0.07236536 0.27789184 0.21837556 0.08237119 0.27650777 0.12932295
-0.017924672 -0.07339943 -0.053307075 -0.115655 -0.23099336 -0.28578866 0.03625507 -0.07660956
-0.1028955 0.0813639 -0.16840287 -0.32698828 0.07173787 -0.04467223 -0.2672092 -0.04543403
-0.0054282066 -0.05208311 -0.050871585 0.058763642 -0.07315574 -0.1449724 0.018451333 -0.097873054
-0.06063258 0.06377251 0.10770772 0.07066952 0.21282956 0.21337615 0.20241903 0.29690254
0.082905345 -0.16491064 0.2234955 -0.069322556 0.03840289 0.13338359 0.009611994 0.120246
-0.38424635 0.061501544 0.13139124 0.09441095 0.038820073 0.048101455 0.1515474 0.09097083
0.050160173 0.13962205 0.1771105 -0.12261015 -0.22494735 -0.03144649 -0.22112751 -0.27275327
0.018255517 -0.0828642 -0.05259797 0.02481915 -0.026194196 0.106337816 0.020418212 0.14337248
-0.41581485 -0.03718711 -0.111205906 0.27681315 0.0056751855 -0.09021754 0.11043348 -0.07076652
-0.200218 0.31764153 -0.12791705 -0.0021509053 0.20607226 -0.22948946 -0.055048812 -0.073400036
0.028823443 0.16161825 0.34548715 0.10632091 -0.115769595 -0.32411996 -0.13326825 -0.06908178
-0.08028311 0.12278278 -0.1489083 -0.286914 -0.011822879 0.04839417 -0.289849 -0.040068176
-0.064627975 -0.008062645 0.13831483 0.01594293 0.20458786 0.1815862 0.11180173 0.15225738
0.14383242 0.18853594 0.14503948 0.034221444 0.1757044 0.1605516 0.03859545 0.08261337
0.14842603 0.03372622 -0.1494075 -0.0070671067 0.08972639 -0.13186112 -0.27754313 -0.09012517
0.114509106 -0.11366689 -0.105645925 -0.03227056 -0.12512098 -0.06297081 -0.09815056 -0.30337486
-0.12452454 0.11278998 -0.24015705 -0.14659265 0.016927844 0.07949527 0.024094477 0.11278035
0.35281047 0.033409454 0.15658227 0.16623202 -0.21689428 -0.1806165 -0.07120231 0.12308908
-0.2424618 -0.15318736 0.20920704 -0.17288356 -0.18885879 0.03740876 0.053827602 -0.29416004
0.03983858 -0.20538554 0.4870823 -0.10625437 0.1372098 -0.14643043 0.042985983 -0.011562781
0.080064535 -0.06665761 0.03606031 -0.5011518 0.3219971 -0.0124034975 0.33292884 -0.24099053
-0.017275862 -0.0088431025 0.1481337 -0.11796141 -0.31587523 -0.23222324 0.17088407 0.2600532
0.040218003 -0.0026945416 0.18544866 0.13555552 0.026656644 0.24731112 0.19113258 0.016800325
0.2975688 0.06117039 0.0058445963 -0.18430896 -0.065972574 0.12866743 0.3203871 0.13650492
-0.11768778 -0.17101744 -0.063628666 0.12570362 0.1984684 0.0709141 0.04291123 0.25467384
0.09762 0.015556586 0.05923024 -0.051369507 0.057576112 0.19961095 0.12576434 0.07135185
00000000: bac6 eabb 9193 4ebe f75d 4dbe 3857 73bc
00000010: d582 43be 0b95 25be 948a 353d 2b9a ddbd
00000020: 6c33 61bd 9aa6 82bd 7627 74bc bb58 8a3d
00000030: d39a 3fbe 09f5 49be 5762 08be ae5e b9bd
00000040: b229 a9bd 9df1 d2bd f26f f8bd 77a4 a5bd
00000050: 5bb5 ecbc 0601 4b3e 8c33 dd3e 00e0 863e
00000060: e23d 0bbd 1a3d cebd e769 8abe 83b6 ef3d
00000070: 6892 5a3e d5d6 b93d 876b 813e 68f1 e23e
00000080: 5772 983d c911 0e3e 05e4 fe3d 90f5 31bc
00000090: a187 a2bd 79bc b1be 9a58 8bbe 2f10 bfbb
000000a0: 91f7 0bbd fa2a 403d 4a34 943d d747 8e3e
000000b0: d89d 5f3e 3ab2 a83d 6d92 8d3e 3c6d 043e
000000c0: c3d6 92bc 7152 96bd 8558 5abd 87dc ecbd
000000d0: 8689 6cbe e452 92be 3280 143d 79e5 9cbd
000000e0: e0ba d2bd 1ea2 a63d cd71 2cbe 026b a7be
000000f0: 4eeb 923d 3afa 36bd a5cf 88be 0919 3abd
00000100: 19df b1bb 1955 55bd b95e 50bd 25b2 703d
00000110: add2 95bd a573 14be 4027 973c ab71 c8bd
00000120: de59 78bd 299b 823d dd95 dc3d 2ebb 903d
00000130: feef 593e 477f 5a3e ef46 4f3e 9c03 983e
00000140: 47ca a93d 56de 28be 01dc 643e fcf8 8dbd
00000150: 594c 1d3d b595 083e a07b 1d3c 8943 f63d
00000160: f0bb c4be 0be9 7b3d 6d8b 063e 875a c13d
00000170: cc01 1f3d 0806 453d 3e2f 1b3e ea4e ba3d
00000180: c174 4d3d 15f9 0e3e 745c 353e 081b fbbd
00000190: 9958 66be 09ce 00bd 406f 62be 51a6 8bbe
000001a0: 988c 953c b5b4 a9bd f870 57bd 8851 cb3c
000001b0: 3695 d6bc a4c7 d93d 1844 a73c 3cd0 123e
000001c0: afe5 d4be 8351 18bd ecbf e3bd 74ba 8d3e
000001d0: e8f6 b93b f9c3 b8bd f32a e23d 0aee 90bd
000001e0: f305 4dbe e9a1 a23e b0fc 02be 34f6 0cbb
000001f0: 9b04 533e 49ff 6abe dd7a 61bd c252 96bd
00000200: 241f ec3c 417f 253e b1e3 b03e c7be d93d
00000210: 9c18 edbd 0df3 a5be 7977 08be c07a 8dbd
00000220: 796b a4bd 8a75 fb3d 6b7b 18be 64e6 92be
00000230: c0b4 41bc f738 463d 1767 94be 871e 24bd
00000240: ac5b 84bd 2f19 04bc 67a2 0d3e bf9a 823c
00000250: 7b7f 513e bcf1 393e 4ef8 e43d 5ce9 1b3e
00000260: ce48 133e 910f 413e 3b85 143e c92b 0c3d
00000270: dbeb 333e a367 243e 4316 1e3d 3331 a93d
00000280: fefc 173e 8124 0a3d 48fe 18be 3093 e7bb
00000290: 78c2 b73d 9a06 07be 221a 8ebe 8c93 b8bd
000002a0: c083 ea3d 30ca e8bd e45c d8bd 222e 04bd
000002b0: b71f 00be d7f6 80bd 2903 c9bd f353 9bbe
000002c0: b906 ffbd 6ffe e63d bbeb 75be 621c 16be
000002d0: 43ac 8a3c 6bce a23d c861 c53c 62f9 e63d
000002e0: 93a3 b43e 5ad8 083d 1a57 203e ba38 2a3e
000002f0: 8919 5ebe 88f3 38be 84d2 91bd 2116 fc3d
00000300: e847 78be 26dd 1cbe 5f3a 563e 6308 31be
00000310: 3364 41be ee39 193d 557a 5c3d 259c 96be
00000320: c72d 233d 9650 52be da62 f93e e49b d9bd
00000330: ba80 0c3e dcf1 15be 1212 303d d271 3dbc
00000340: e0f8 a33d c983 88bd fab3 133d 7c4b 00bf
00000350: cedc a43e 0a38 4bbc a675 aa3e 39c6 76be
00000360: 1c86 8dbc a9e2 10bc 5cb0 173e c095 f1bd
00000370: 66ba a1be eecb 6dbe 3cfc 2e3e b125 853e
00000380: a2bb 243d e896 30bb 41e6 3d3e 11cf 0a3e
00000390: 095f da3c 203f 7d3e 42b8 433e d6a0 893c
000003a0: f05a 983e ce8d 7a3d 0784 bf3b 7dbb 3cbe
000003b0: a11c 87bd 65c1 033e c709 a43e f2c7 0b3e
000003c0: 4a06 f1bd 321f 2fbe bf4f 82bd 73b8 003e
000003d0: 4d3b 4b3e 693b 913d b0c3 2f3d 9c64 823e
000003e0: ffec c73d 0de1 7e3c 689b 723d d568 52bd
000003f0: eed4 6b3d d066 4c3e 5ec8 003e eb20 923d

backbone.2.conv.1.1.weight f4 [48]
0.52530247 0.3382638 0.36560714 0.21513557 0.38360247 0.37004736 0.16998081 0.20247045
0.18987082 0.2760659 0.18755287 0.5002499 0.30316338 0.24411936 0.37741235 0.2948779
0.27534395 0.28610066 0.5519544 0.5760364 0.21109134 0.2542214 0.2969678 0.26825705
0.35492396 0.22325762 0.35930613 0.19888815 0.22901802 0.20285583 0.57429 0.24984756
0.30653003 0.21617907 0.21121424 0.3472761 0.20586507 0.39753953 0.32810795 0.35923493
0.41113496 0.24822626 0.4133272 0.35114437 0.34339374 0.14222436 0.3635598 0.32639438
00000000: 397a 063f ea30 ad3e dc30 bb3e 804c 5c3e
00000010: 8b67 c43e d976 bd3e 730f 2e3e 6a54 4f3e
00000020: 7f6d 423e 8258 8d3e dc0d 403e 6110 003f
00000030: 3b38 9b3e 6dfa 793e 313c c13e 3cfa 963e
00000040: e2f9 8c3e c97b 923e e24c 0d3f 1f77 133f
00000050: 5428 583e 4f29 823e 2a0c 983e fd58 893e
00000060: 98b8 b53e a59d 643e f9f6 b73e 56a9 4b3e
00000070: b383 6a3e 70b9 4f3e ab04 133f 0ad8 7f3e
00000080: 81f1 9c3e 0c5e 5d3e 8c48 583e 2cce b13e
00000090: 4bce 523e 4d8a cb3e c4fd a73e a4ed b73e
000000a0: 4880 d23e 062f 7e3e 9f9f d33e 32c9 b33e
000000b0: 4ed1 af3e 43a3 113e 8324 ba3e 2a1d a73e

backbone.2.conv.1.1.bias f4 [48]
-0.02438599 -0.08622908 0.007561193 0.73175085 0.0095703285 0.019976487 0.5944888 -0.28448373
0.10066962 -0.061981387 0.045101438 0.20055343 -0.025211621 -0.026438717 -0.0019877707 0.027669584
0.09187444 -0.11489201 0.10532448 -0.012782558 0.42465118 -0.05403373 -0.0051601636 -0.016784377
-0.0008930584 0.042393 -0.020898692 0.087280855 0.28558648 -0.040464465 -0.07616181 -0.0041534426
-0.005755893 0.653333 0.62953115 -0.037860267 0.6132757 0.37885922 0.003440199 0.22711387
0.23401192 0.018030316 0.009054527 -0.023643631 -0.080410965 0.1860765 0.08193633 -0.07314976
00000000: 21c5 c7bc df98 b0bd e2c3 f73b 0654 3b3f
00000010: decc 1c3c bba5 a33c 6b30 183f daa7 91be
00000020: e02b ce3d 32e0 7dbd 49bc 383d e15d 4d3e
00000030: 9a88 cebc 0296 d8bc 4245 02bb 53ab e23c
00000040: ab28 bc3d 814c ebbd 5cb4 d73d ef6d 51bc
00000050: e16b d93e 7952 5dbd 9716 a9bb 647f 89bc
00000060: 221c 6aba 48a4 2d3d bc33 abbc 4ec0 b23d
00000070: 6438 923e 11be 25bd b9fa 9bbd 9a19 88bb
00000080: ee9b bcbb d540 273f f428 213f 5e13 1bbd
00000090: a3ff 1c3f d6f9 c13e f674 613b 8a90 683e
000000a0: d2a0 6f3e 50b4 933c 7059 143c 4ab0 c1bc
000000b0: 81ae a4bd d78a 3e3e 3cce a73d 8bcf 95bd

backbone.2.conv.1.1.running_mean f4 [48]
-0.10998458 -0.08798123 0.06754531 0.55565786 -0.029875314 -0.08789778 -0.08834258 -0.0033191142
0.11721175 -0.007246248 0.059761718 -0.14385155 -0.007987209 -0.021170126 -0.012232595 -0.06887467
0.018024435 0.15121849 -0.097676024 -0.3205321 0.19085234 -0.102393106 0.0021314633 -0.011176853
-0.012594782 0.07932337 -0.0029588079 0.0058102817 0.2854305 -0.00040460646 -0.14633141 0.09930099
0.056777425 -0.12198152 -0.17507212 0.009962024 -0.112955436 -0.15116554 -0.0125756 0.17909984
-0.15435472 0.19190203 -0.059188377 0.058165822 0.030692277 0.10138521 -0.22940858 0.04395606
00000000: 983f e1bd 812f b4bd 3255 8a3d 983f 0e3f
00000010: 13bd f4bc c003 b4bd f4ec b4bd 7f85 59bb
00000020: b70c f03d ef71 edbb b4c8 743d d24d 13be
00000030: c8dc 02bc f96c adbc 396b 48bc 2a0e 8dbd
00000040: fba7 933c 05d9 1a3e 5e0a c8bd c91c a4be
00000050: cc6e 433e 7ab3 d1bd 05b0 0b3b 1f1f 37bc
00000060: 585a 4ebc 4a74 a23d 8fe8 41bb 2d64 be3b
00000070: f223 923e 5c21 d4b9 e7d7 15be 515e cb3d
00000080: 728f 683d 72d1 f9bd 1b46 33be c237 233c
00000090: 2e55 e7bd 24cb 1abe e409 4ebc f365 373e
000000a0: 2a0f 1ebe f781 443e 836f 72bd 493f 6e3d
000000b0: 5f6e fb3c 0da3 cf3d 15ea 6abe 450b 343d

backbone.2.conv.1.1.running_var f4 [48]
0.027174534 0.013744756 0.0044306004 0.023613434 0.0120860385 0.003667114 0.02118126 8.9827125e-05
0.039617434 0.001451543 0.004694604 0.040297877 0.001293107 0.004274313 0.012914434 0.014754183
0.0022459587 0.015831143 0.019354694 0.030770909 0.014994906 0.0072415657 0.0035806436 0.006181738
0.010575717 0.00830994 0.006021923 0.0005050679 0.003009482 0.00025386777 0.039176345 0.002709055
0.005475132 0.031246198 0.034301057 0.009749407 0.0123257395 0.055068858 0.0041961567 0.09158159
0.04782375 0.004662504 0.0038925519 0.006939694 0.005251608 0.011198714 0.015842224 0.0005583247
00000000: 219d de3c af31 613c 922e 913b f670 c13c
00000010: 8504 463c f753 703b 5284 ad3c 9261 bc38
00000020: e445 223d b341 be3a 31d5 993b 630f 253d
00000030: 797d a93a 890f 8c3b 1097 533c 87bb 713c
00000040: ef30 133b 50b0 813c bc8d 9e3c 4613 fc3c
00000050: 32ad 753c a84a ed3b 3ba9 6a3b 2d90 ca3b
00000060: c645 2d3c 6a26 083c 8d53 c53b 8866 043a
00000070: bb3a 453b 8e19 8539 6077 203d 678a 313b
00000080: bc68 b33b 07f8 ff3c 447f 0c3d fabb 1f3c
00000090: e6f1 493c e28f 613d ea7f 893b 218f bb3d
000000a0: d6e2 433d ebc7 983b 2f1a 7f3b 5f66 e33b
000000b0: ae15 ac3b d07a 373c 8dc7 813c 895c 123a

backbone.2.conv.2.weight f4 [8, 48, 1, 1]
0.14045434 0.2636391 0.004362287 0.1789335 0.37379307 -0.066022284 0.17253014 -0.18796884
-0.11195998 -0.083566196 0.07023972 0.35444665 0.00602282 -0.03357548 0.1190078 0.27717835
-0.20846967 -0.014824396 0.3189184 0.39107138 -0.06065616 -0.03143185 0.015292051 0.027930867
0.15072942 -0.02459137 0.13075729 -0.1606047 -0.17554179 -0.046625655 -0.0645435 -0.026654078
-0.08131995 0.29435137 0.16934505 -0.076949984 0.19364822 0.27631906 0.07820254 -0.055562887
0.11747377 -0.032383095 0.15477632 -0.13492844 -0.06276199 -0.17615882 0.035203822 -0.025849823
0.055670578 0.21223022 0.2581169 -0.33220074 0.1638662 0.22671999 0.13636756 -0.06301175
-0.020077886 -0.04318424 0.048894845 -0.15622726 -0.040294338 -0.14500403 0.09855212 0.16403565
-0.0980063 0.05878997 -0.10626301 -0.033595525 -0.10561779 -0.221482 0.022189923 -0.030721992
0.07609482 -0.06422536 0.16325688 -0.050368015 0.19285564 -0.06954761 0.040703755 -0.19706681
-0.111250244 0.1389578 -0.06376684 -0.10387025 0.43375587 -0.3539279 0.025235886 -0.2828308
-0.14902617 0.09848092 -0.03245417 -0.14410284 -0.124614716 -0.18314557 -0.06426976 -0.1887969
0.1352945 0.0055578263 0.0135546215 -0.2615353 0.1813331 -0.25158292 -0.13183248 0.034863103
-0.121611804 0.18767788 -0.056407098 -0.3142977 0.28334323 -0.22536772 -0.09810927 0.023247417
0.15192631 -0.091998234 0.09493124 0.06801157 0.06588144 -0.002077546 0.23878159 0.25086248
-0.103087254 -0.16153172 -0.15778638 0.14943789 0.16358803 0.24193941 0.030164199 0.026437871
-0.2811286 0.23672579 0.16056414 -0.1717427 -0.13923098 0.20555842 0.24521007 -0.16865353
-0.005298572 -0.17836176 0.0027580413 -0.10892508 -0.34032023 0.18717445 -0.36788362 0.24387239
0.039759412 0.26378778 0.093564086 0.326169 -0.12460775 0.13178276 -0.05123547 0.009966621
-0.15166375 -0.027263077 0.22541988 -0.19091271 0.03573721 0.058008134 0.18240646 0.07125255
0.013424312 0.04112328 0.014180852 -0.25405928 -0.11298637 0.053214625 0.07620237 0.059074942
0.15644643 -0.09707423 0.14088288 0.098545074 -0.17973498 -0.009622889 0.33053094 0.121157475
-0.062222417 -0.085164465 0.25475562 -0.024341926 0.09398319 0.24018842 0.07029921 -0.095538534
-0.16587159 0.31038097 0.34414932 0.016426524 -0.022210255 -0.064456426 -0.35685915 0.0887786
-0.040840406 -0.1273773 0.1978677 0.07994227 0.15788 -0.024689429 -0.25125316 0.00703201
-0.0066832285 -0.051682994 0.18484479 0.22605847 0.18816487 0.01316301 0.25234607 -0.13323337
-0.082011625 -0.2866533 -0.008501343 -0.19703199 -0.18424015 0.049255148 0.08297958 0.11802554
0.2697492 0.12090904 0.29620594 -0.14821585 -0.06034875 -0.111639604 -0.19000565 -0.12359579
0.16033445 -0.15853435 0.1271514 0.1994202 -0.052474428 -0.06595994 0.21171549 -0.09177161
-0.17115079 0.07898974 0.0125049455 0.13995093 0.08616501 0.1506014 -0.12918013 -0.27385587
0.05336472 0.019539325 0.24594444 0.06744896 0.27704045 0.13170989 0.22752585 -0.07571008
-0.23068964 0.21064626 -0.00970445 -0.3772952 0.2901215 0.0774343 0.16926014 -0.104024924
00000000: 43d3 0f3e b4fb 863e 84f1 8e3b 583a 373e
00000010: ce61 bf3e b136 87bd beab 303e e77a 40be
00000020: 464b e5bd c124 abbd d8d9 8f3d 087a b53e
00000030: 135b c53b 7186 09bd 5dba f33d 52ea 8d3e
00000040: 1379 55be 06e2 72bc 4649 a33e 823a c83e
00000050: 9872 78bd afbe 00bd 838b 7a3c 46cf e43c
00000060: d058 1a3e d773 c9bc 3de5 053e 8f75 24be
00000070: 3ac1 33be 8bfa 3ebd 622f 84bd a759 dabc
00000080: 138b a6bd 39b5 963e ca68 2d3e f497 9dbd
00000090: b84b 463e b179 8d3e a728 a03d e995 63bd
000000a0: 1796 f03d 23a4 04bd af7d 1e3e ae2a 0abe
000000b0: 5c89 80bd fa62 34be e231 103d 02c3 d3bc
000000c0: d506 643d e152 593e e627 843e 3716 aabe
000000d0: 8bcc 273e 4929 683e f0a3 0b3e 4e0c 81bd
000000e0: 617a a4bc f5e1 30bd f645 483d 0afa 1fbe
000000f0: ad0b 25bd f07b 14be b2d5 c93d f6f8 273e
00000100: 87b7 c8bd c0cd 703d 6ca0 d9bd 769b 09bd
00000110: 244e d8bd 2dcc 62be a4c7 b53c b0ac fbbc
00000120: 9ad7 9b3d 9688 83bd d02c 273e b14e 4ebd
00000130: f37b 453e fa6e 8ebd fbb8 263d e2cb 49be
00000140: 2bd7 e3bd f44a 0e3e 3098 82bd edb9 d4bd
00000150: 4015 de3e 0a36 b5be 7dbb ce3c 33cf 90be
00000160: 519a 18be 5db0 c93d aaee 04bd b28f 13be
00000170: 0036 ffbd 838a 3bbe dd9f 83bd f953 41be
00000180: a48a 0a3e 6d1e b63b 3414 5e3c f4e7 85be
00000190: 62af 393e 7acf 80be 18ff 06be 9dcc 0e3d
000001a0: 9c0f f9bd a12e 403e 210b 67bd a1eb a0be
000001b0: 5d12 913e ccc6 66be 83ed c8bd 5e71 be3c
000001c0: 9292 1b3e 9269 bcbd 4f6b c23d a649 8b3d
000001d0: d9ec 863d 7027 08bb 2983 743e 0c71 803e
000001e0: 691f d3bd 9268 25be c192 21be 3f06 193e
000001f0: 9f83 273e f7be 773e e91a f73c 3c94 d83c
00000200: 16f0 8fbe 3f68 723e ed6a 243e 51dd 2fbe
00000210: 9192 0ebe e87d 523e 5918 7b3e 83b3 2cbe
00000220: a59f adbb 77a4 36be 41c0 343b 1d14 dfbd
00000230: 743e aebe a9aa 3f3e 3e5b bcbe afb9 793e
00000240: c4da 223d 310f 873e 879e bf3d a0ff a63e
00000250: 5932 ffbd 0ff2 063e 49dc 51bd 0a4b 233c
00000260: be4d 1bbe d156 dfbc 78d4 663e 9f7e 43be
00000270: 2e61 123d f099 6d3d c2c8 3a3e dbec 913d
00000280: a5f1 5b3c e270 283d ce56 683c 0f14 82be
00000290: 6665 e7bd 94f7 593d fd0f 9c3d 91f8 713d
000002a0: 7e33 203e dbce c6bd 9a43 103e 00d2 c93d
000002b0: 720c 38be 52a9 1dbc 5a3b a93e 6921 f83d
000002c0: efdc 7ebd b56a aebd 546f 823e b868 c7bc
000002d0: 427a c03d f4f3 753e 08f9 8f3d b5a9 c3bd
000002e0: 3eda 29be 41ea 9e3e 5734 b03e eb90 863c
000002f0: 48f2 b5bc bb01 84bd 3eb6 b6be 8ed1 b53d
00000300: 4548 27bd 326f 02be d59d 4a3e c6b8 a33d
00000310: 4bab 213e 7c41 cabc 41a4 80be c66c e63b
00000320: fcfe dabb 8cb1 53bd f447 3d3e df7b 673e
00000330: 4bae 403e aaa9 573c 8133 813e 546e 08be
00000340: b6f5 a7bd 39c4 92be 3849 0bbc c1c2 49be
00000350: 73a9 3cbe c4bf 493d 33f1 a93d 60b7 f13d
00000360: 911c 8a3e 299f f73d 4ea8 973e e5c5 17be
00000370: 4030 77bd 4ea3 e4bd d790 42be ca1f fdbd
00000380: b72e 243e d456 22be fa33 023e cf34 4c3e
00000390: 6def 56bd 0116 87bd f2cb 583e c1f2 bbbd
000003a0: 2742 2fbe 5fc5 a13d 8be1 4c3c 4c4f 0f3e
000003b0: 4877 b03d 4137 1a3e cc47 04be d636 8cbe
000003c0: f794 5a3d ef10 a03c dcd8 7b3e ae22 8a3d
000003d0: 3fd8 8d3e f5de 063e 89fc 683e e30d 9bbd
000003e0: e839 6cbe a7b3 573e 6aff 1ebc d62c c1be
000003f0: ce8a 943e e095 9e3d 8852 2d3e 050b d5bd

backbone.2.conv.3.weight f4 [8]
0.5550871 0.44916978 0.4415441 0.4484242 0.4169394 0.5643423 0.43104845 0.6545623
00000000: 301a 0e3f 95f9 e53e 1112 e23e db97 e53e
00000010: 1579 d53e bd78 103f 62b2 dc3e 6591 273f

backbone.2.conv.3.bias f4 [8]
0.000218611 -1.7866008e-05 -7.117042e-05 0.00018880871 0.00015492961 0.00018024776 0.00022249082 7.420575e-05
00000000: f23a 6539 f6de 95b7 5441 95b8 f4fa 4539
00000010: 9a74 2239 e400 3d39 6d4c 6939 e99e 9b38

backbone.2.conv.3.running_mean f4 [8]
1.0489078 -0.17343868 -0.06994794 0.3810085 -0.18227355 0.46733698 -0.07491481 0.114196114
00000000: 9c42 863f e999 31be de40 8fbd 8c13 c33e
00000010: eba5 3abe cb46 ef3e f06c 99bd a7df e93d

backbone.2.conv.3.running_var f4 [8]
0.124676295 0.07980807 0.10880017 0.04851464 0.058124512 0.12954167 0.06761069 0.1554661
00000000: 4956 ff3d 6a72 a33d a0d2 de3d 4ab7 463d
00000010: f813 6e3d 92a6 043e 7977 8a3d 8132 1f3e
