ML Model/tv_detection_epoch_150/e-88-0.718.pth (torch, 508349 bytes, 205 tensors)

backbone.0.0.weight f4 [16, 3, 3, 3]
000000 3c cd 03 80 bc 1b 03 00 dc ac 00 80 89 88 03 80
       -3.49131e-40 2.85456e-40 -6.201e-41 -3.24486e-40
000010 c0 cc 02 80 ff cb 01 00 24 59 02 00 42 a1 01 00
       -2.57121e-40 1.65016e-40 2.15649e-40 1.49684e-40
000020 f0 5e 00 00 96 3c 00 80 aa cd 00 00 a8 15 02 80
       3.4057e-41 -2.1734e-41 7.3778e-41 -1.9144e-40
000030 70 d2 03 80 b1 1c 03 00 5e 7c 01 00 a8 e5 02 80
       -3.50997e-40 2.85799e-40 1.3645e-40 -2.66056e-40
000040 b8 0a 04 00 ef 3b 04 00 fc 33 00 00 c0 4a 03 00
       3.71187e-40 3.88842e-40 1.8648e-41 3.02322e-40
000050 f1 64 04 00 80 ff 03 80 66 bd 00 00 5f e2 01 00
       4.03553e-40 -3.67163e-40 6.7943e-41 1.73042e-40
000060 64 fa 01 80 d1 c2 02 80 0c 40 00 80 2d e1 a3 3c
       -1.81659e-40 -2.53558e-40 -2.2976e-41 0.020004833
000070 c0 6c ad 3c 9c 09 84 bd 3b 1b 19 3e 40 0b ae 3e
       0.02117002 -0.06447145 0.14951794 0.33992958
000080 b8 df 87 bb 2e 7d 09 be 72 e4 4b be ed 8e 74 bb
       -0.0041465424 -0.13426659 -0.19911364 -0.0037316636
000090 f2 59 5d bd f5 23 04 bc 5e 0a 2f be 84 b9 94 3e
       -0.054040857 -0.008065213 -0.17093799 0.29047787
0000a0 25 04 33 3f 85 9a 62 3d 90 52 a4 be bb f4 0b bf
       0.699282 0.055323143 -0.3209424 -0.54670304
0000b0 a1 be d2 bd 0a 25 2b 3e 03 86 2b 3e e0 30 4c 3d
       -0.10290266 0.16713348 0.1675034 0.0498513
0000c0 86 df 48 3e 1e a9 9a 3e e4 8a 9c 3d 2e c5 13 be
       0.19616517 0.3020715 0.07643679 -0.14430687
0000d0 e2 74 50 be 1c cc bf bd e0 ba a4 bd 61 2e 0d 3e
       -0.20357087 -0.09365103 -0.08043456 0.13787223
0000e0 df e6 64 3d c1 70 c5 be ab 85 44 3f 80 78 3f be
       0.05588424 -0.38562587 0.7676646 -0.18698311
0000f0 d6 83 22 bf f7 6b 6b 3f 71 c4 6f be 64 3e 0d be
       -0.63482416 0.91961616 -0.2341478 -0.13793331
000100 88 e5 29 3e 90 b1 20 bd 4b ce 52 bf d6 fb a6 3f
       0.16591465 -0.039231837 -0.8234603 1.3045604
000110 80 e4 e9 be dd 9b 83 bf 68 af b5 3f 93 4a ed be
       -0.45682144 -1.0281941 1.4194155 -0.46345958
000120 ae 3b 60 bd 14 57 fb bb 0b 1e 77 3d 8b 84 72 be
       -0.054744415 -0.0076702926 0.060331386 -0.23683374
000130 c0 05 d2 3e e5 46 c1 bd 4b fc 94 be 01 e3 e2 3e
       0.41020012 -0.0943735 -0.29098734 0.44313815
000140 b8 6c 16 be 14 23 32 bd f5 e7 38 bc 1d 81 89 3d
       -0.1468991 -0.043490484 -0.011285772 0.067140795
000150 19 7f 4b 3d 5a 04 65 3e 73 d4 9c be d2 a9 3d 3c
       0.049681757 0.22364941 -0.30630836 0.011576133
000160 02 e7 99 3e 13 33 a0 be 3f e5 a1 bc 97 73 12 bd
       0.30059057 -0.31288967 -0.019762633 -0.035754766
000170 26 3e a1 3d 25 48 55 3d b2 5a 10 3f 8c ea 14 bf
       0.07873182 0.052070756 0.5638839 -0.5817039
000180 06 d4 46 3d 7a b7 23 3f ef b8 25 bf 5a 43 e5 b9
       0.048542045 0.6395184 -0.6473531 -0.00043728465
000190 f9 53 65 3b ea e0 9b bd ec 8b f0 3d d8 e5 2f 3e
       0.0034992679 -0.07611258 0.11745438 0.17177522
0001a0 16 23 52 be 50 ea 4b 3d c7 2b 0c 3e 89 a3 5d be
       -0.20521197 0.049784005 0.13688575 -0.21644415
0001b0 a5 40 ce bd 9e 8e 90 bd a4 11 e5 bd c1 1b a1 3b
       -0.10070924 -0.07058452 -0.11185005 0.0049166386
0001c0 06 28 b3 bc 78 c4 12 be 08 1a 02 3e dc 60 ba 3c
       -0.02186967 -0.1433276 0.12705243 0.022751264
0001d0 5e 8d 5f be 54 54 ab 3d 26 98 b0 3c 04 17 92 bd
       -0.21831271 0.08365694 0.021556925 -0.07133296
0001e0 7e df 31 3e b5 b6 de bd 87 0b 90 be d6 85 54 3e
       0.17370412 -0.10874692 -0.28133795 0.2075418
0001f0 b2 ec 88 bd 76 ca d2 be ca 23 9e 3d c2 ed 9b bd
       -0.06685771 -0.4117009 0.0772167 -0.07613708
000200 a8 ba 58 be 45 f9 48 3d 25 02 0e be 16 b3 85 be
       -0.21164954 0.049065847 -0.13868006 -0.26113194
000210 da 28 b0 bb 5b 58 c7 bd a7 16 6e be 1a 48 32 3e
       -0.0053759636 -0.09733649 -0.23250829 0.17410317
000220 32 51 3f 3e 9e 8e 08 be 5f 6d ca 3d 77 39 1c 3f
       0.18683317 -0.13335654 0.09884142 0.61025184
000230 66 5d 98 3e a6 65 5b be 85 2c 06 3f e4 d7 20 3f
       0.29758757 -0.21425495 0.5241168 0.6282942
000240 2f 2a f1 3d 3b 64 be bc 61 51 be 3d 09 4b 42 3d
       0.11775624 -0.023241153 0.092928655 0.04743484
000250 49 3e 10 be 82 61 28 bd bb 9c 8c 3b b1 86 12 be
       -0.1408626 -0.041108616 0.0042911447 -0.14309193
000260 b6 85 65 bd 7a fd 85 be a2 ff 42 be 53 d2 38 3d
       -0.05603572 -0.2616995 -0.19042829 0.045122456
000270 65 bb 36 be b7 2a 06 bf de 3e 8d be f3 d6 81 3d
       -0.17844923 -0.5240893 -0.27587026 0.063398264
000280 59 a6 f2 be 4d 40 0e bf de ef 31 3e ce a5 f2 3d
       -0.47392538 -0.55566865 0.17376658 0.11848031
000290 17 4d 29 3d a6 c0 05 3f 8b b7 25 3b af 55 c8 bd
       0.041333284 0.52247083 0.0025286402 -0.09781968
0002a0 d0 da c9 3d 48 c1 bf bd f8 36 d9 3b f6 8a 06 3c
       0.09856188 -0.09363037 0.0066288672 0.008211842
0002b0 29 b2 02 bd 4b e7 58 bd 5c eb 5a 3f 58 88 c8 bd
       -0.031908188 -0.052954953 0.8551538 -0.097916305
0002c0 1e 53 9b be c4 42 f6 3d af 02 70 be 9f aa 3a bd
       -0.3033685 0.12024453 -0.23438524 -0.045572873
0002d0 02 d2 b7 3d d9 df 47 3d 66 3e 09 3b 64 df 88 3e
       0.08975603 0.048797462 0.0020941733 0.26732934
0002e0 75 57 7f 3d a8 4b 44 3c e7 e0 ab bd a3 92 e9 bd
       0.062339265 0.0119809285 -0.08392506 -0.11404922
0002f0 62 51 ac bc 33 07 09 3d 9c 9b 03 3d 80 62 21 bd
       -0.0210349 0.03345413 0.032130823 -0.039400578
000300 2e f1 f8 bb 95 00 da 3d c3 c3 98 3e c2 15 f3 ba
       -0.0075971102 0.10644642 0.29836854 -0.0018545913
000310 f9 68 c8 3d 18 24 b3 3e 61 eb a0 bd 28 14 29 be
       0.09785647 0.34988475 -0.07857395 -0.16511595
000320 bd 84 42 be f2 b1 43 bd 4b 68 a1 3d 75 b8 9e 3e
       -0.18995948 -0.047777124 0.078812204 0.31000105
000330 72 d8 3d bb dd 6f 12 3e dc af ab 3e 55 97 ff bc
       -0.0028968123 0.14300485 0.33532608 -0.03120009
000340 22 34 c1 3b 92 d5 96 3c ee d1 4c 3d 49 d8 43 3e
       0.0058961073 0.018412385 0.050004892 0.19125475
000350 ed 87 b8 3e 9d 39 d5 3d 44 f5 4e 3e 66 8d a2 3e
       0.36041203 0.104113795 0.20210749 0.31748503
000360 e4 43 44 3d 5a d6 30 3d bf 47 1c be 4b f1 3e be
       0.047916308 0.04317317 -0.15261744 -0.18646733
000370 71 cd 26 3f a8 1c 09 bf 65 e7 49 3c c7 ec 36 3f
       0.6515723 -0.5355935 0.012323235 0.71455044
000380 cc ae 2a bf 6e fa 13 bd 29 5b 2d 3e 71 53 5c be
       -0.6667297 -0.0361275 0.16929306 -0.21516205
000390 93 01 12 be da 27 85 3f f2 12 6b bf b8 d9 cc bb
       -0.14258413 1.0402787 -0.91825783 -0.00625154
0003a0 b4 a8 82 3f cf 3a 74 bf 54 7d a8 3d 7f 67 18 3d
       1.0207734 -0.95402235 0.082270294 0.037208077
0003b0 3f ab 89 ba 2e fa c7 bd 0e 6f d3 3e 92 92 af be
       -0.0010503306 -0.09764515 0.41295666 -0.34291512
0003c0 cc 19 5d 3c 66 f1 d7 3e 3d 7b c2 be bd ac 01 80
       0.01349492 0.4217636 -0.37984648 -1.53802e-40
0003d0 88 12 04 00 63 52 04 00 55 6f 03 80 ca 91 02 80
       3.7399e-40 3.96897e-40 -3.15445e-40 -2.3597e-40
0003e0 fa e3 00 00 78 ef 00 00 93 e8 02 80 17 45 00 80
       8.1783e-41 8.5905e-41 -2.67103e-40 -2.4785e-41
0003f0 6b 9d 00 80 97 0d 03 00 8f 5d 03 00 75 a2 03 00
       -5.6471e-41 2.80382e-40 3.09069e-40 3.33785e-40

backbone.0.1.weight f4 [16]
000000 df 8b 02 00 25 ec b5 3d 42 89 d9 3d 7f c4 97 3e
       2.33847e-40 0.088829316 0.10621883 0.29642102
000010 cd e9 51 3e fc 1c 69 3e 7e 60 e4 3d 2a 47 9a 3e
       0.20499344 0.22764963 0.11151217 0.3013242
000020 6a 8e b3 3d e3 d4 00 80 af ef d9 3e 29 db 19 3e
       0.08767398 -7.637e-41 0.42565677 0.15025009
000030 f5 8e 97 3e f0 75 a8 3e 1a eb 01 80 b1 22 a3 3d
       0.29601255 0.3290248 -1.76174e-40 0.07965601

backbone.0.1.bias f4 [16]
000000 9f 4e 03 80 0d db 1d 3f 7d 21 d5 3e 7e 8e 67 3e
       -3.0371e-40 0.6166237 0.41627112 0.2261295
000010 cc c7 58 3f c2 40 0e 3f 14 e3 f3 3e f4 75 ff 3e
       0.84679866 0.5556756 0.47634184 0.4989468
000020 45 f4 0c 3f 76 3e 02 80 a2 72 88 be e4 94 61 3f
       0.55060226 -2.06078e-40 -0.26649958 0.88117814
000030 88 0e b6 3e de 89 a3 be b3 1a 00 80 67 33 0d 3e
       0.3555796 -0.31941122 -9.578e-42 0.1378914

backbone.0.1.running_mean f4 [16]
000000 74 7a a6 80 e7 df 4c 42 6b 52 24 42 f3 3e d5 40
       -1.528862e-38 51.218655 41.080486 6.663934
000010 ef 07 3c c3 97 76 91 c2 09 37 e6 42 81 ee 75 43
       -188.03099 -72.73162 115.10749 245.93166
000020 02 8d f3 40 88 ca 5f 80 9f 09 1d c2 cd 8d 49 43
       7.610963 -8.797027e-39 -39.259396 201.55391
000030 8a 20 0a 41 0e 38 43 42 bf e6 cb 00 90 fb 1d c2
       8.632944 48.80474 1.8725382e-38 -39.495667

backbone.0.1.running_var f4 [16]
000000 04 00 00 00 ca 14 2a 45 b7 f4 0c 46 5d f7 d9 44
       6e-45 2721.2993 9021.179 1743.7301
000010 48 03 81 46 48 ea 20 46 43 b1 09 46 9e f7 d8 46
       16513.64 10298.57 8812.315 27771.809
000020 94 4d ac 45 04 00 00 00 3d b9 68 45 34 da 90 46
       5513.6973 6e-45 3723.5774 18541.102
000030 9e b2 26 45 bd 70 18 45 04 00 00 00 2c 47 07 45
       2667.1636 2439.0461 6e-45 2164.4482

backbone.1.conv.0.0.weight f4 [16, 1, 3, 3]
000000 af ea 03 00 2b 62 03 80 ee ca 02 00 3f 0c 03 80
       3.59695e-40 -3.10723e-40 2.56468e-40 -2.799e-40
000010 29 3c 02 80 c5 0a 04 00 14 2c 00 00 f7 a6 04 00
       -2.05252e-40 3.71205e-40 1.5812e-41 4.27238e-40
000020 63 1f 04 00 58 de ec bc 4b 8d cc bc f7 c0 1d 3d
       3.78601e-40 -0.028914616 -0.024969717 0.038514104
000030 51 35 cb 3c ac 4f 6d bd b3 d4 38 3f c1 fd c7 bc
       0.024805697 -0.05793731 0.72199553 -0.024412991
000040 3b 0e 0a 3d 80 89 58 bf bd c0 74 3c b6 f1 5d bd
       0.033704977 -0.8458481 0.0149385305 -0.05418559
000050 f5 8f 04 be 4b 51 9f bc f3 46 3e 3d 63 32 89 3f
       -0.1294554 -0.019447943 0.04645438 1.0718502
000060 f1 76 d3 39 30 60 91 bd 44 ff a3 bd ae 47 86 bd
       0.00040333674 -0.070984244 -0.080076724 -0.065566406
000070 4e 6c 75 bd c5 6e a7 bd c3 0d 91 ba 9f 38 4c 3f
       -0.05991774 -0.081754245 -0.0011066723 0.79773897
000080 5a 6a 94 be bb 3f cc bc b4 60 db bc a1 81 50 be
       -0.2898739 -0.024932733 -0.02677951 -0.2036195
000090 67 c4 11 3f de 75 f7 3f 8b 45 ef 3e 38 bd 5b 3e
       0.5694031 1.9332845 0.46732745 0.214589
0000a0 b5 fe e4 3e 62 9c 55 3e c4 a9 58 bf 44 d6 06 c0
       0.44725576 0.20860437 -0.8463404 -2.1068277
0000b0 4a 25 37 bf a6 ec 5f be dd 87 22 3c d8 5e 56 be
       -0.71541274 -0.21867618 0.009920088 -0.20934618
0000c0 c9 7e 01 3e 61 54 c2 3e 31 90 d1 bf ae f1 99 3d
       0.12646021 0.37955 -1.6372129 0.075168
0000d0 ba 2c a9 3f df 05 cc 3e 02 c8 73 bd 59 a4 ae 3d
       1.3216774 0.3984823 -0.059516914 0.085274406
0000e0 cd da 5a bd e8 43 42 bb b4 81 3d 3d ab a6 45 bf
       -0.05343132 -0.0029642526 0.046266273 -0.7720744
0000f0 7b ea 9c 3c 76 79 84 3d 4e 3e 83 3f 70 62 f7 be
       0.019154778 0.06468479 1.0253389 -0.4831729
000100 9b 00 8e be 2f fb 3a 3f cd 66 17 c0 90 ce ba be
       -0.27734837 0.73039526 -2.3656495 -0.3648572
000110 a2 66 26 40 1b e7 dd be e7 e2 13 be 24 ae 28 3f
       2.6000142 -0.43340382 -0.14442025 0.6589072
000120 cd a1 37 bd 39 0b 0b 3d ae 06 bf bd de 44 42 3d
       -0.04483204 0.03394625 -0.09327446 0.047428958
000130 32 b2 6d bf 56 ea 1b 3e 5b 4b 99 3d a8 af 8d 3b
       -0.9285003 0.15226111 0.07485076 0.0043239184
000140 b9 e2 a4 bd d9 2c 00 80 6e ca 02 80 d9 5f 02 00
       -0.080510564 -1.6088e-41 -2.56289e-40 2.18055e-40
000150 55 1b 00 00 f1 86 00 00 ef ab 01 80 73 c3 03 00
       9.805e-42 4.8408e-41 -1.53514e-40 3.4562e-40
000160 8b 2a 00 80 a3 85 02 80 0d 30 4b bb 91 ee 10 be
       -1.5262e-41 -2.31611e-40 -0.0031003982 -0.14153506
000170 20 8b bf be e3 68 36 be 40 f0 18 3e 6b 81 cb 3e
       -0.3741083 -0.17813449 0.14935398 0.39747176
000180 dd 05 a8 be 0c 2d af 3e 3d c0 fe 3e 42 42 42 3e
       -0.32816973 0.34214056 0.4975604 0.18970588
000190 2d 9e c7 3f 07 cd 79 3f 6e c0 dd 3d ed 3f 28 3d
       1.5595146 0.9757847 0.10827719 0.04107659
0001a0 1a ab f9 bd eb 4f 91 be a2 02 d1 bf 61 0c 7a bf
       -0.12190838 -0.28381285 -1.6328928 -0.9767514
0001b0 c3 60 93 bb 94 84 15 3d fe c2 d4 bc 21 8e 8b 3c
       -0.004497619 0.03650339 -0.025971886 0.017035546
0001c0 83 6c 98 bc f1 7e 3f bf 51 0d b6 bc f4 46 1a 3b
       -0.01860643 -0.7480307 -0.022223147 0.0023540827
0001d0 0f 38 3b 3f 30 e8 eb bc 90 7e 7b 3d 32 46 35 be
       0.73132414 -0.028797239 0.061399996 -0.17702559
0001e0 00 cb 3d 3d c6 6d de 3d 87 c7 b1 bd 51 43 2e be
       0.046336174 0.10860781 -0.08680635 -0.17017867
0001f0 f2 42 77 bd df 2f 1d 3f b7 10 04 00 f1 42 04 00
       -0.06036658 0.6140117 3.73338e-40 3.91356e-40
000200 8f 07 02 00 98 17 02 00 c0 58 04 80 2a 00 04 80
       1.86383e-40 1.92135e-40 -3.9918e-40 -3.67401e-40
000210 2d 62 03 00 d3 a6 04 00 a7 e5 01 80 49 b4 07 3e
       3.10725e-40 4.27187e-40 -1.74219e-40 0.13252367
000220 eb c0 91 3c 6d a7 74 3c c8 65 0e 3e 63 f9 53 bd
       0.017792186 0.014932496 0.13906014 -0.051751506
000230 da 43 36 be 17 54 cd 3d 0c d7 44 be 3d 9a 73 be
       -0.17799321 0.100258045 -0.19222659 -0.23789306

backbone.1.conv.0.1.weight f4 [16]
000000 30 1d 02 00 50 69 01 3f 07 b8 0e 3f 83 9e 14 3f
       1.94141e-40 0.5055132 0.55749553 0.5805437
000010 64 c0 91 3f a2 1e f3 3e 59 b9 0b 3f 5b db 53 3f
       1.1386838 0.47484308 0.54579693 0.82756585
000020 2d 72 dc 3e c8 fe 00 80 db 10 5b 3e 2d 79 7f 3f
       0.4305586 -9.1398e-41 0.21393149 0.99794275
000030 c1 0b 62 3f 9b 0f 82 3e 7e 57 01 00 d4 bc ab 3e
       0.88299185 0.2540253 1.23222e-40 0.33542502

backbone.1.conv.0.1.bias f4 [16]
000000 d0 ce 82 00 df 78 26 3f 1b a2 ab 3f 0f a6 8d 3e
       1.2012805e-38 0.65028185 1.3408846 0.27665755
000010 49 54 41 3e ca 51 3f 3f f8 c8 10 3f 2e 23 f9 3e
       0.18879808 0.74734175 0.56556654 0.48659652
000020 f7 e4 e4 3e 89 75 6a 00 5c fb 07 3f 2d 19 69 3d
       0.44705936 9.776726e-39 0.5311792 0.056908775
000030 2f 33 35 3f a1 04 9d be 7d 10 08 00 53 26 b1 3e
       0.70781225 -0.30667594 7.40599e-40 0.34599552

backbone.1.conv.0.1.running_mean f4 [16]
000000 04 00 00 00 60 5a c8 bd 4c eb a0 3e 45 64 71 3c
       6e-45 -0.09782863 0.31429517 0.014733379
000010 53 95 1b 3e 2c 4e 15 3e 74 fa 27 3e 93 0c 3c bd
       0.15193681 0.14580601 0.16404134 -0.04591043
000020 79 6c eb be 04 00 00 80 91 35 87 3c 6b 25 03 be
       -0.45981196 -6e-45 0.016505035 -0.12807243
000030 31 b5 a5 bc 93 bd 3f 3c 04 00 00 80 8e bf 15 bd
       -0.020228 0.011702913 -6e-45 -0.036559634

backbone.1.conv.0.1.running_var f4 [16]
000000 04 00 00 00 bc d3 02 3c 12 aa 07 3c bb 3a 1e 3d
       6e-45 0.007985052 0.008280294 0.03863023
000010 fb 51 70 3e 1f 43 4a 3d 6a c8 cc 3b 2e b9 c9 3e
       0.23468773 0.049380418 0.006249477 0.39399093
000020 d9 87 ca 3b 04 00 00 00 91 fd f7 3b 95 02 13 3e
       0.006180745 6e-45 0.0075680693 0.14356454
000030 c3 04 6f 3d 7f c6 00 3b 04 00 00 00 e0 7d 32 3a
       0.05835415 0.0019649563 6e-45 0.0006808918

backbone.1.conv.1.weight f4 [8, 16, 1, 1]
000000 af 05 0d 80 65 3d 66 be 94 c4 26 bd 2b 2d 38 3e
       -1.1959e-39 -0.22484358 -0.040714815 0.1798598
000010 1a d5 43 bd 1c 29 27 3f 8a 8a 83 3e bf 2f dc bd
       -0.04781065 0.652971 0.25691634 -0.10751294
000020 af bf 8f bd 8a 11 0b 80 d0 5e 1b 3b 3e ac 83 3e
       -0.070189826 -1.016482e-39 0.0023707636 0.25717348
000030 25 9b f3 3d 39 d6 b5 3b 7b d1 0c 80 58 fd 58 be
       0.11894826 0.005549219 -1.177173e-39 -0.21190393
000040 31 4b 1d 00 ef 8d 9e bd df ee 02 bf 7f 7e f2 3b
       2.690203e-39 -0.077419154 -0.5114574 0.0074003334
000050 42 38 84 3e 55 06 8b bd 0d 08 4a 3b 9a 47 87 3c
       0.2582417 -0.06788317 0.0030827553 0.016513634
000060 d5 ff b6 3d 94 24 1e 00 55 e9 95 bd 08 94 e4 3d
       0.08935515 2.768187e-39 -0.07319895 0.11161047
000070 87 a9 4e be b8 04 09 bd ba 18 0a 00 ec 7b 9a be
       -0.20181857 -0.033451766 9.27225e-40 -0.3017267
000080 a7 2d 12 80 96 de d9 3e 24 83 01 3e 39 9a d7 3e
       -1.669416e-39 0.42552632 0.12647682 0.4210985
000090 cc ae 37 be 8d 3c 2f be 5e 71 96 be a5 5e c5 3d
       -0.17937773 -0.17112942 -0.29383367 0.09637193
0000a0 5b 3f 60 be 52 02 0d 00 5c d4 59 be 20 08 c1 3e
       -0.21899168 1.194694e-39 -0.21272415 0.3770151
0000b0 8f 45 10 3d 97 97 c3 bd 4f ca 12 00 d3 a0 b3 be
       0.035222586 -0.09550398 1.725614e-39 -0.35083637
0000c0 79 78 15 00 28 f7 2a be 1f 58 f8 bd 85 56 c7 bd
       1.971763e-39 -0.16695845 -0.12126183 -0.09733299
0000d0 b8 c7 ee 3e 7c d1 8d be 15 65 02 3e 1a 90 70 bd
       0.46636748 -0.27698886 0.12733872 -0.058731176
0000e0 3d 47 28 be 36 15 17 00 c0 b6 ef 3d cb e2 c9 be
       -0.16433425 2.119825e-39 0.11704779 -0.39430842
0000f0 01 f7 e8 3e ce a3 92 3e ee ab 0c 80 f4 01 bc be
       0.4550095 0.28640598 -1.163703e-39 -0.3672024
000100 82 5a 09 00 cf 4c a8 be fd 4f 70 3e c4 d4 8a 3c
       8.58988e-40 -0.328711 0.23468013 0.016947158
000110 ca b5 05 3e b9 4f 2f bf 26 38 2f 3e 28 74 5f be
       0.13057628 -0.6848102 0.17111263 -0.21821654
000120 0d 0a 84 bd 7b b8 06 00 94 16 94 3e d1 59 46 bd
       -0.064472295 6.17192e-40 0.28923476 -0.0484255
000130 e6 18 80 be 9c f8 02 3e 58 59 12 00 0d c0 78 3b
       -0.25018996 0.1279015 1.68509e-39 0.0037956268
000140 e4 27 06 00 55 b1 c3 bd 3e 3a 1c 3d 7f b3 11 bf
       5.65323e-40 -0.09555308 0.03814148 -0.56914514
000150 26 28 93 be f3 9b 14 be 24 26 16 3e d8 10 13 3f
       -0.28741568 -0.14512615 0.14662987 0.57447577
000160 b4 54 ea 3e 4f 34 17 00 e4 60 d5 3d 58 f2 d7 3e
       0.45767748 2.130981e-39 0.10418871 0.4217708
000170 a6 56 e1 3d a6 4b 1a 3d b4 29 06 00 b9 4a 5d be
       0.11002855 0.0376698 5.65973e-40 -0.21610536
000180 47 1d 20 80 46 e9 9c 3e 0f 18 51 bd 7c 39 d9 be
       -2.949239e-39 0.30646724 -0.051048335 -0.4242667
000190 43 fd cd be 09 c0 8e 3d 10 0b 49 bb 66 31 51 bf
       -0.40232286 0.069702215 -0.003067676 -0.81716
0001a0 a8 fc af 3d 2e c7 1d 00 3d f6 39 bd 83 70 75 3e
       0.08593112 2.734682e-39 -0.045400847 0.23968701
0001b0 f8 f0 54 bd 9e cf ab 3e f7 14 0c 80 3a 89 5e be
       -0.05198762 0.33556837 -1.109547e-39 -0.21732035
0001c0 fc ed 17 00 06 7e be 3d 54 c0 75 3e b2 5b 2b bd
       2.197589e-39 0.09301381 0.23999149 -0.041835494
0001d0 b5 df 03 3f 9e e6 12 3f 8a 29 08 be 72 90 1d 3e
       0.51513225 0.57383144 -0.13297096 0.15387133
0001e0 ae 04 7c bd d7 92 0b 80 0f d1 ac 3d 0f 0f e8 be
       -0.0615279 -1.062867e-39 0.08438312 -0.4532399
0001f0 fa 44 6a be 7f 2b ac 3d 83 e2 38 00 c0 aa 71 be
       -0.22877875 0.08406734 5.224045e-39 -0.23600292

backbone.1.conv.2.weight f4 [8]
000000 1a 35 02 3f ca 28 f3 3e 0d 43 2f 3f 99 36 05 3f
       0.50862277 0.47492057 0.68461686 0.52036434
000010 d9 dc 06 3f 19 e8 1b 3f 4e 22 15 3f c2 75 04 3f
       0.52680737 0.6090103 0.5825547 0.51742184

backbone.1.conv.2.bias f4 [8]
000000 b5 2a 87 38 f5 2c f2 39 9a 92 80 b8 cf d5 1c 39
       6.4452564e-05 0.00046191333 -6.130822e-05 0.00014956969
000010 db ed a5 39 84 6e 28 ba 18 72 fb b8 6b 1e 23 b9
       0.0003164847 -0.00064251595 -0.00011989864 -0.00015556223

backbone.1.conv.2.running_mean f4 [8]
000000 50 ff f4 3e 0a ea 6c bf 70 53 60 3d 78 51 30 be
       0.47851038 -0.92544615 0.054767072 -0.17218578
000010 7e 5b f6 be 5c 5c c5 3e 0a 75 23 bf 3f 41 2a 3f
       -0.48116678 0.38547027 -0.6385046 0.6650581

backbone.1.conv.2.running_var f4 [8]
000000 75 dd ee 3d 09 cb f6 3d ba cd 87 3e 32 b9 9c 3e
       0.11663333 0.12050445 0.26524144 0.30610043
000010 32 5f 4f 3e 8f 04 b6 3e 8a f7 bb 3e 69 ca 49 3e
       0.20251158 0.35550353 0.36712295 0.1970612

backbone.2.conv.0.0.weight f4 [48, 8, 1, 1]
000000 2c 00 ee 3d 80 d9 6c bd 4d c7 1b 3e ab 97 b0 be
       0.116211265 -0.05782461 0.15212746 -0.34490713
000010 d5 3c 23 be c1 5a 85 3d bb cc 70 3e fc 81 1a 3d
       -0.15941174 0.065114506 0.23515598 0.03772162
000020 ae da e4 3d 3f 50 7c 3d da 95 9f 3d 30 5d f2 3c
       0.11174522 0.061599966 0.07792254 0.02958545
000030 18 aa 07 bd 09 03 c1 be 05 31 22 be 3d 9f 43 be
       -0.0331212 -0.37697628 -0.15839012 -0.19103713
000040 f3 17 1b be 6a ec a7 3d 0f 8d 1d be 3f 39 1d 3e
       -0.15145855 0.08199389 -0.15385841 0.15353869
000050 fa ca a3 bc a1 46 06 be e4 2a 61 be 5d 3b 45 3e
       -0.019994248 -0.1311288 -0.21989018 0.19260927
000060 fd d1 3c be 60 c3 30 3e 79 86 27 3e cc 67 e9 be
       -0.18439479 0.1726203 0.16359891 -0.45587003
000070 3d 20 07 3d c4 66 b6 bd 29 d3 62 be c9 65 07 bf
       0.03298973 -0.0890632 -0.22150864 -0.52889687
000080 d8 a8 68 3d 04 d6 ff bd 8f d4 ec 3d f7 76 75 be
       0.056801647 -0.12491992 0.1156398 -0.23971163
000090 9b dc ae bd 83 9f bf 3d e1 e8 88 3d 28 a8 94 be
       -0.08538171 0.09356596 0.06685043 -0.29034543
0000a0 94 9f ac 3d 95 cc 08 3d 74 66 6f 3e 41 4e c9 bd
       0.084288746 0.03339823 0.23378927 -0.09829379
0000b0 64 e0 93 bd 40 c8 e4 bb 16 64 81 3e e0 7f cf bd
       -0.072205335 -0.0069818795 0.25271672 -0.10131812
0000c0 8b 45 c8 3c 3d 61 38 3e a9 b8 4e 3e ad 5d 24 3e
       0.024447223 0.18005843 0.2018763 0.1605136
0000d0 af 83 ae bd 4f ab a2 be 70 e1 a1 bd 7d 6c 59 bd
       -0.085212104 -0.31771323 -0.07904327 -0.053081978
0000e0 73 71 66 3c d0 26 df 3d 50 e6 e1 3c 5a 93 d6 bb
       0.014065134 0.10896075 0.027575642 -0.0065483274
0000f0 38 64 81 3d 78 51 18 3d e7 e9 81 bd 1b bf 25 3e
       0.06317943 0.03718707 -0.063434415 0.16186182
000100 e1 d3 ca bc 49 49 4f 3d 56 dd 06 3f fd 67 e0 3c
       -0.024759235 0.050607 0.5268148 0.027393335
000110 10 0e c6 bd 99 97 10 bb 5f 69 7f bc 3c b2 32 3c
       -0.09670651 -0.0022063015 -0.015589087 0.010906752
000120 c6 0b 86 bd 03 95 ab 3e 3b bc ac bd fd f0 c7 3d
       -0.06545214 0.33512124 -0.084343396 0.09762762
000130 8e d6 02 be 0d a9 02 3e 63 20 b9 3d 94 58 c8 bc
       -0.12777159 0.127598 0.090393804 -0.0244563
000140 7f 8d 2a be 8c 80 bd bd 51 a1 8a 3d 91 41 cd be
       -0.16655539 -0.09253034 0.0676905 -0.40089086
000150 d6 bd f4 3d 7a 12 90 3d 20 c0 8d 3c 2a a7 1a bd
       0.11950271 0.07034774 0.017303526 -0.037757076
000160 f9 63 ad bd a1 8a bb 3d 16 98 99 be 78 36 84 3e
       -0.08466334 0.09157301 -0.29998845 0.25822806
000170 2c a3 94 3d 66 d1 25 be eb fa 07 be e8 c7 52 3e
       0.07257685 -0.1619316 -0.13279311 0.2058407
000180 91 2c f8 3d 08 45 d2 3d 38 0f 49 be bf 49 03 3e
       0.12117875 0.10267073 -0.19634712 0.128211
000190 68 a0 ca 3d 16 2c 16 3e b0 0f f7 bc 8e c7 0c bd
       0.09893876 0.14665255 -0.030158848 -0.034369998
0001a0 56 4a a2 3e 11 bc 17 be a0 45 48 bd 90 e6 e2 bc
       0.3169734 -0.14817835 -0.048894525 -0.027697831
0001b0 d0 aa 65 be fd 98 f2 bc 62 50 e0 3d 2f 29 5d 3e
       -0.22428441 -0.029613966 0.10952832 0.21597742
0001c0 e6 88 bf 3d dc 1c 45 be 6b 9f 86 3c 9f e8 c4 3e
       0.09352283 -0.1924929 0.016433438 0.38458726
0001d0 a0 f2 2d bd 02 ae 1b 3e c5 a0 c6 bd 21 d9 b1 be
       -0.042467713 0.15203097 -0.09698633 -0.3473597
0001e0 5c 00 bd 3d bd ca 78 3e b9 1f 46 3e 5a ce 35 3e
       0.09228584 0.24296089 0.19348039 0.17754498
0001f0 58 64 9b be 59 c4 34 be 95 1a 49 3c 83 ae b5 bc
       -0.30349994 -0.17653026 0.012274404 -0.02217794
000200 f3 4e 9c 3e 0f 26 57 3e 32 e5 13 3e 1b 55 5d 3e
       0.30528983 0.21010612 0.144429 0.21614496
000210 49 32 f5 3d 04 f1 e5 3d e7 47 31 3e bc 7f 8f 3d
       0.11972482 0.11227611 0.17312585 0.07006785
000220 9d 17 12 3d ab e9 5b 3d 80 90 e8 3d 99 4f c2 bd
       0.03566705 0.05368964 0.11355686 -0.09487838
000230 a5 1e 6a be 7d 95 56 3e be e1 eb bc 8d 2a 74 3d
       -0.22863252 0.20955463 -0.028794166 0.059610892
000240 cb 80 65 be 7d e7 75 3d 50 a6 49 be 57 37 25 3e
       -0.22412412 0.060035218 -0.1969235 0.16134392
000250 38 b8 2b be 34 a3 f6 bd 4f da 51 be e9 76 92 3e
       -0.16769493 -0.12042847 -0.20493434 0.28606346
000260 e6 73 87 bd 54 73 ca 3d ac 50 73 be e4 c1 b1 3e
       -0.06613903 0.09885278 -0.23761243 0.3471824
000270 15 82 bb 3d b9 44 5c be 40 0c 27 be 76 d6 e9 3e
       0.091556706 -0.2151059 -0.16313267 0.45671433
000280 97 4b b7 3d 44 1b 45 3e 82 a0 62 3e 92 1c 76 3e
       0.089499645 0.19248682 0.22131541 0.24034336
000290 7f c5 a8 3c eb a4 db 3d 81 11 1d 3e bb 82 de 3d
       0.020601986 0.10724815 0.15338708 0.108647786
0002a0 0a 0f 43 3d b6 00 a9 bd bc 49 b9 3d a0 f6 c9 be
       0.047621764 -0.08252089 0.09047267 -0.39445972
0002b0 61 e5 14 3e 94 10 4d bd 18 e6 ab be 41 0b 33 bc
       0.14540626 -0.05006464 -0.33573985 -0.010927976
0002c0 49 ab ba 3d 42 df ea 3d ff 70 9b 3c 5b 87 6a 3d
       0.09114701 0.11468364 0.01897478 0.05725799
0002d0 08 f9 74 be 9c e8 83 bd 9b 0c c3 bc a2 48 fc bd
       -0.23923123 -0.06440851 -0.023809722 -0.12318541
0002e0 4b 34 8e 3e df 2b 26 bd c0 98 bf 3d 62 01 e4 3d
       0.2777427 -0.040569182 0.093553066 0.11133076
0002f0 fb 20 2f 3d c8 0a 76 bd 4b 83 fb bd ee 6d 73 bc
       0.042756062 -0.060068876 -0.122809015 -0.014857752
000300 47 4d 19 be c1 40 14 be 3a b7 9b 3d 94 cb 45 3e
       -0.14970885 -0.14477827 0.07603307 0.1931594
000310 eb 93 62 be 87 d8 47 bd da 99 72 3d e4 ff 4d bd
       -0.22126739 -0.04879048 0.059228756 -0.050292864
000320 46 13 66 bd 1d 69 e9 be 47 d1 4f 3e 0d 0f 3c bd
       -0.056170724 -0.45588008 0.20294677 -0.04591279
000330 d2 95 ea 3d a0 3c e0 bd 33 a9 27 3b a3 31 8e 3e
       0.11454357 -0.10949063 0.0025583028 0.27772245
000340 93 a2 43 be 07 a1 d5 bc 58 5e 67 3e a7 c8 9d 3c
       -0.19104986 -0.02607776 0.22594583 0.019260718
000350 8d 82 55 be 1a ab 41 3b 3f fb 32 3e f5 c4 f1 3d
       -0.20850582 0.0029551447 0.17478655 0.11805145
000360 45 0c 61 be c6 85 9d 3b a2 39 a0 bd dd 18 8c 3e
       -0.21977337 0.004807207 -0.078234926 0.2736272
000370 cd cc e6 3d be 8d b9 3d 38 7d b3 3e 32 93 d7 3d
       0.112695314 0.09060238 0.35056472 0.10526122
000380 51 36 b0 3e d1 e5 55 bd 70 b8 6d be 7d be 19 bd
       0.3441644 -0.052221123 -0.23214889 -0.03753518
000390 61 57 1c bd 6c af 7d be ef 92 06 3c 36 36 51 3e
       -0.03816927 -0.2477395 0.008213743 0.20430836
0003a0 b5 33 8d 3d a2 93 1d 3a 78 cc 51 3e 37 ab 4e 3e
       0.06894628 0.0006011074 0.20488155 0.20182501
0003b0 25 e2 c8 3d 13 85 b0 3d 7c f0 79 bd db ee 84 3d
       0.09808759 0.08619132 -0.06102036 0.064908706
0003c0 8f 29 80 be c3 1f 85 bd 88 4f 8d be f4 ec 93 bd
       -0.25031707 -0.06500199 -0.2759974 -0.072229296
0003d0 84 73 4a be 7b c3 f9 3e 45 65 86 3d 27 2e 31 3e
       -0.19770628 0.48781952 0.065622844 0.17302762
0003e0 9e b5 19 3e 7f 45 8c bc 99 e6 33 3d 60 e8 2d be
       0.15010688 -0.017122982 0.043921087 -0.16983175
0003f0 ec 69 82 be 7e 6c d3 3d 95 8a 7a 3b 90 04 8d 3e
       -0.25471437 0.103234276 0.0038229574 0.27542543

backbone.2.conv.0.1.weight f4 [48]
000000 69 02 e3 3e 40 32 b2 3e 6e 9e 00 3e f7 f4 24 3e
       0.44337776 0.34803963 0.12560436 0.16109072
000010 67 f8 18 3e 70 6b 9a 3d 7f 9a a2 3e ad 8c 2e 3d
       0.14938508 0.07540023 0.31758496 0.042614628
000020 45 55 bc 3e f0 5c 01 3e 99 a0 7b 3e ad 09 cf 3e
       0.36783805 0.12633109 0.24572982 0.4043707
000030 f9 5d ca 3d 3b 23 28 3e a3 72 1f 3e 7b b3 c1 3e
       0.09881205 0.1641969 0.15571074 0.37832245
000040 7a 29 25 3e 2a a0 5b 3e 53 dd bf 3e 86 e9 86 3e
       0.16129103 0.21447816 0.37473544 0.2635004
000050 b1 44 79 3e 21 e5 0a 3e 48 7c 1f 3e c5 6f 2c 3e
       0.2434261 0.13563968 0.15574753 0.16839512
000060 a9 ab 11 3e 70 ce 3a 3e 51 f2 2a 3e dd fc 8c 3e
       0.1422564 0.18242812 0.16693999 0.2753667
000070 45 e5 9f 3d 55 0e 67 3d a8 24 e8 3e f6 1e bd 3d
       0.078074016 0.056410152 0.45340466 0.09234421
000080 dc a3 84 3e 96 3d ba 3e 95 63 a6 3e ce ee 71 3e
       0.25906265 0.3637511 0.3249785 0.23626253
000090 08 6c ad 3e 69 b5 cb 3e 37 b1 3c 3e 4d fa cf 3e
       0.33871484 0.39786842 0.18426977 0.40620652
0000a0 05 08 f0 3e 8c 39 1c 3e 2a 74 d8 3d 9a 7b 4e 3e
       0.46881118 0.15256327 0.105690315 0.20164338
0000b0 1f e5 55 3e 26 85 8b 3e 50 d0 ae 3e b5 fa 8a 3d
       0.20888184 0.27250022 0.34143305 0.067861

backbone.2.conv.0.1.bias f4 [48]
000000 be f9 0d bd 6f b3 fa 3c 04 8f 76 3e 34 77 c5 3e
       -0.034662 0.030603139 0.24077994 0.38567507
000010 50 d7 8d 3e 21 27 98 3e 13 cc 18 3c 8b 08 58 3d
       0.27703333 0.29717353 0.009325999 0.052742522
000020 63 f5 69 bd 5a 8b 1d 3e 6e 10 d2 bc 64 0c 5c 3d
       -0.057118785 0.1538519 -0.0256426 0.053722754
000030 94 e8 42 3e a7 75 1b 3e 35 09 45 3e 9d 7d 80 bd
       0.19034034 0.151816 0.19241793 -0.06273959
000040 68 54 df bd 7c 12 0f 3e 84 14 66 3d 93 05 9c 3e
       -0.10904771 0.13971895 0.05617191 0.30473003
000050 90 b0 87 3e 29 e1 27 3e 06 61 23 3e cd b8 46 3e
       0.26501894 0.16394486 0.1595498 0.19406433
000060 9f 88 29 3e c6 5b 9e 3c 49 5d 01 3e f6 63 a9 be
       0.16556023 0.01933087 0.12633242 -0.33084077
000070 70 8b 91 3e 42 41 81 3e 6a 38 e7 bc 59 68 55 3e
       0.28426695 0.252451 -0.028225143 0.20840587
000080 c0 62 46 3d 9e 7e ab 3c 51 83 9a 3d 65 67 19 3e
       0.04843402 0.0209344 0.07544578 0.14980848
000090 18 09 4b bd d3 94 24 3d 8a 12 2d 3e 0f fa 34 3d
       -0.04956922 0.040180992 0.16901603 0.044183787
0000a0 5e 24 83 3c 9f 60 2b 3e 37 a9 99 3e b0 4b 10 3e
       0.016008552 0.16736077 0.30011913 0.14091372
0000b0 91 f7 06 3e 7a 96 77 bd 99 aa 3e 3e c4 a3 74 3e
       0.13180377 -0.06044624 0.18619765 0.23890597

backbone.2.conv.0.1.running_mean f4 [48]
000000 46 8f 2d 38 b6 4d df b7 3e a7 48 b8 fa e1 86 38
       4.1379848e-05 -2.6619859e-05 -4.7839472e-05 6.431709e-05
000010 0a 1c b5 37 d5 f7 48 38 c1 78 63 b7 61 01 3d 37
       2.1589938e-05 4.7914527e-05 -1.355837e-05 1.1265599e-05
000020 cd da ed 37 1d 94 5e 37 60 78 86 38 8b 96 4f b8
       2.8354489e-05 1.3266716e-05 6.4120395e-05 -4.949285e-05
000030 d3 83 20 b7 80 5c 54 b8 06 b8 87 b8 1c 66 f8 b7
       -9.567436e-06 -5.0630886e-05 -6.471579e-05 -2.9611452e-05
000040 ec e5 0f 38 90 23 23 b7 74 36 93 b8 a4 eb 79 b8
       3.430799e-05 -9.723837e-06 -7.019649e-05 -5.9585684e-05
000050 13 90 f5 37 aa cd 6d 37 b6 f8 0c b8 41 d2 f8 b7
       2.9273366e-05 1.4174186e-05 -3.361023e-05 -2.9661811e-05
000060 16 f2 33 b8 40 15 0e b7 5e 72 4a 37 71 40 16 38
       -4.2902386e-05 -8.468807e-06 1.2066766e-05 3.5822803e-05
000070 4d 94 4c b8 a9 66 81 35 cb c2 96 b7 04 3f d2 b7
       -4.8775506e-05 9.641127e-07 -1.7972101e-05 -2.5063295e-05
000080 01 ee 6f 37 05 50 3e 37 48 37 8b 38 a6 3e f0 36
       1.4300925e-05 1.13435135e-05 6.6383334e-05 7.1598506e-06
000090 2a 6a a0 38 3d 80 94 b8 d3 c3 bc b6 33 a1 66 b7
       7.649169e-05 -7.081076e-05 -5.6256335e-06 -1.37466e-05
0000a0 6d ed 95 b8 cb fc be 38 4b 9c 3c 34 15 dd c4 37
       -7.149098e-05 9.1069924e-05 1.7565723e-07 2.346797e-05
0000b0 36 46 b7 37 e3 27 7e 38 b2 3b 7a 38 74 02 56 38
       2.1847995e-05 6.0595466e-05 5.966024e-05 5.102386e-05

backbone.2.conv.0.1.running_var f4 [48]
000000 42 33 09 3e c6 90 93 3d 49 47 cb 3d 6d 0d 21 3e
       0.1339846 0.07205348 0.09925706 0.15727778
000010 5b b5 d4 3d 97 17 ca 3d d8 27 ae 3d 62 ba 83 3c
       0.10386153 0.09867781 0.08503693 0.016080085
000020 eb f3 0c 3e c9 73 09 3d 68 11 96 3d 50 ce 2f 3e
       0.13764922 0.033557687 0.07327539 0.17168546
000030 4b c6 1f 3d f9 14 9b 3d b3 c2 8c 3d 43 ce bb 3d
       0.039007466 0.075723596 0.068730734 0.09170201
000040 54 e3 40 3d f9 6e 7c 3d e1 dc fc 3d 1f cb 8d 3e
       0.047091797 0.06162927 0.12346817 0.27694032
000050 10 69 13 3d e0 07 71 3d 29 ea eb 3c 1e ac e6 3c
       0.035988867 0.0588454 0.02879818 0.028158244
000060 63 c1 b6 3c 54 da 70 3d 7d 31 3e 3d d1 e3 7a 3d
       0.02230901 0.058801964 0.046433914 0.06125242
000070 9b 13 d4 3d 9e 49 a6 3c 75 bc 3e 3e 17 3e 9e 3d
       0.10355302 0.020298775 0.18626578 0.077266864
000080 05 8f 75 3d ab c1 c8 3d 7b 35 00 3e dd a3 97 3d
       0.059950847 0.09802564 0.12520401 0.07404301
000090 84 13 2b 3e f9 d9 20 3e 0a e3 2b 3d 8e 4f 1a 3e
       0.16706663 0.1570815 0.04196457 0.1506941
0000a0 a5 5f 17 3d 2d 7e 0e 3e 79 1d 77 3d ba 1c bf 3d
       0.036956448 0.1391532 0.06033084 0.09331651
0000b0 44 b0 9f 3d 74 38 0f 3e 73 6d 10 3e 7f d0 bc 3d
       0.07797292 0.13986379 0.14104252 0.09219455

backbone.2.conv.1.0.weight f4 [48, 1, 3, 3]
000000 03 f9 38 bb ab b4 49 be e2 e6 63 be 7e 7e cd b9
       -0.0028224594 -0.19697826 -0.22256044 -0.0003919489
000010 b7 02 3e be 39 76 24 be 50 cd 61 3d 69 26 b6 bd
       -0.18555723 -0.16060723 0.055127442 -0.08894045
000020 24 85 6c bd 8a 17 82 bd 84 f9 7e bc 86 40 30 3d
       -0.05774416 -0.06352146 -0.015562419 0.043030284
000030 ca 1c 3e be 92 04 4b be 7e 1c 13 be 32 95 b4 bd
       -0.1856567 -0.19825962 -0.14366338 -0.08817519
000040 f7 1d b1 bd 03 ac fe bd ec 27 f6 bd 03 3a 8b bd
       -0.086482935 -0.124351524 -0.12019333 -0.06798174
000050 e7 d4 ab bc d1 6f 46 3e c9 bd e6 3e 39 0e 82 3e
       -0.020975543 0.19378592 0.4506667 0.25401476
000060 3d 34 04 bd f3 dc ac bd f9 23 8b be d5 3e f7 3d
       -0.03227638 -0.0844058 -0.27175882 0.12072531
000070 51 ea 52 3e 9e cd ca 3d 2b fe 81 3e 04 b1 da 3e
       0.20597197 0.099024996 0.25389227 0.42713177
000080 51 6d 99 3d 8d b7 1d 3e 00 03 09 3e 91 67 0d 3b
       0.074915536 0.1540205 0.1338005 0.0021576623
000090 5a 1c b0 bd 6a 82 b6 be ca 81 90 be a4 71 35 bc
       -0.08599158 -0.35646373 -0.2822402 -0.011074457
0000a0 08 6c 00 bd 64 92 5e 3d 6f 05 57 3d 91 68 84 3e
       -0.031353027 0.054338828 0.052495416 0.25861028
0000b0 30 1e 62 3e 75 48 ac 3d ef 28 90 3e 76 16 01 3e
       0.22081828 0.084122576 0.2815623 0.12606224
0000c0 27 65 a5 bc 3a 28 94 bd 38 01 68 bd 73 a8 ec bd
       -0.020189835 -0.07234235 -0.056641787 -0.11555567
0000d0 56 c6 6b be 8e 7d 90 be e3 1f 08 3d 54 da 8a bd
       -0.23024878 -0.2822079 0.033233535 -0.06779924
0000e0 0a 6c e1 bd 4b cb a3 3d 23 59 21 be 28 4a ab be
       -0.11006935 0.079977594 -0.15756659 -0.33455014
0000f0 ee 6a 8a 3d 4b e7 1a bd dc 16 8b be cb 1f c3 bd
       0.067586765 -0.037818234 -0.27165878 -0.095275484
000100 b2 38 9c 3b 79 d4 8c bc e2 2b e6 bd 27 db 8d 3d
       0.004767501 -0.017191159 -0.11238839 0.069265656
000110 35 42 52 bd f4 29 11 be 16 58 d3 3c 1e 9b a6 bd
       -0.05133267 -0.1417616 0.025798839 -0.08135055
000120 a9 4c 5e bd 20 51 70 3d 12 13 d5 3d e5 ac a7 3d
       -0.054272328 0.058671117 0.10404028 0.08187274
000130 63 64 5e 3e 3a 3b 55 3e e1 8a 54 3e 70 1f 96 3e
       0.21717982 0.20823374 0.20756103 0.2932086
000140 21 9f a7 3d af fb 2d be a6 27 63 3e 15 b0 88 bd
       0.08184648 -0.16990541 0.22183093 -0.0667421
000150 85 8a 28 3d 33 0c 03 3e 93 cf 1b 3c 5c 8a 02 3e
       0.041147728 0.12797622 0.009509939 0.12748092
000160 e5 4c c3 be c6 70 79 3d bd 01 f9 3d 80 ba ba 3d
       -0.38144603 0.060898565 0.12158535 0.09117603
000170 52 f5 0b 3d 55 5f 21 3d b2 86 1f 3e fa 6e be 3d
       0.034169503 0.039397556 0.15578726 0.09298511
000180 dd 41 f2 3c ec 0e 11 3e 0c 39 43 3e aa 5e ea bd
       0.029572422 0.14165848 0.1906473 -0.11443837
000190 a3 99 6e be ee 80 6f bc 50 9f 5d be d6 49 8f be
       -0.23300795 -0.014618142 -0.21642804 -0.2798602
0001a0 85 39 82 3c 21 59 9e bd 9a f6 70 bd 6e 80 d8 3c
       0.015896568 -0.07731844 -0.058828928 0.026428428
0001b0 4f 1f a8 bc 09 b2 d9 3d 5f 8b 06 3d 2b de 08 3e
       -0.020522742 0.10629661 0.03284776 0.13366
0001c0 a1 69 db be 1a bb a7 bc 86 c9 dd bd d6 a4 8a 3e
       -0.42854026 -0.02047496 -0.10829453 0.27078885
0001d0 0a c1 d8 3b d8 1c 88 bd ea 4e d9 3d f4 c7 9f bd
       0.006614809 -0.066461265 0.10610755 -0.0780181
0001e0 14 53 29 be bb f1 a9 3e 33 a2 00 be ec df 1d 3d
       -0.16535598 0.33192238 -0.12561874 0.038543627
0001f0 a9 ea 66 3e 95 d7 65 be b1 ec 65 bd 15 27 8c bd
       0.22550453 -0.2244552 -0.05613393 -0.06843392
000200 50 8b 1a 3d 0a 87 27 3e fb f1 b4 3e f8 c8 dc 3d
       0.037730515 0.16360107 0.35340866 0.10780519
000210 96 87 e2 bd bf 34 a3 be a1 06 01 be ee 55 b4 bd
       -0.11061017 -0.3187618 -0.12600185 -0.08805452
000220 4c 26 90 bd 0f ec fb 3d fa 6a 16 be 21 57 8f be
       -0.070385545 0.12300884 -0.14689246 -0.27996162
000230 56 2b ef 3a 6a 6a 1c 3d 2d b8 98 be ab cd 08 bd
       0.0018247168 0.03818742 -0.29828015 -0.033399265
000240 a0 15 7a bd 8c 1e af bc 2f 78 11 3e 55 cc c7 3c
       -0.06105578 -0.02137687 0.14206003 0.024389425
000250 6b 80 40 3e 36 c5 45 3e 22 f5 fc 3d 7f 31 15 3e
       0.18798988 0.19313511 0.12351443 0.14569663
000260 82 88 12 3e 95 6f 5c 3e 6f f6 14 3e 44 a0 56 3d
       0.14309886 0.2152694 0.14547132 0.052398935
000270 ad 4a 3d 3e 11 b2 0a 3e f1 29 46 3d 9c 08 97 3d
       0.18485518 0.1354449 0.048379842 0.07374689
000280 4b 1a f3 3d 9c 0a e2 3c 3f 36 14 be 78 78 bb 3a
       0.11870249 0.02759295 -0.14473818 0.001430287
000290 38 df a0 3d ac 13 10 be 8e 9f 99 be 9b da ca bd
       0.078550756 -0.14070004 -0.30004543 -0.09904977
0002a0 0c 8b 02 3e 1f 09 c3 bd e6 22 b2 bd 84 5d bc bc
       0.12748355 -0.09523224 -0.086980626 -0.02299381
0002b0 53 d4 0b be 89 a7 9a bd 39 c4 a8 bd be d2 96 be
       -0.13655214 -0.07551486 -0.082405515 -0.2945766
0002c0 85 7d d6 bd 6b 1d e2 3d 68 eb 7d be d8 4d 1c be
       -0.1047316 0.11040767 -0.24796832 -0.1526407
0002d0 cf 80 03 3d f2 4c a3 3d c0 2b ff 3c 65 f3 ed 3d
       0.032105263 0.079736605 0.031148791 0.116186894
0002e0 e0 ed ab 3e 35 4b f3 3c 0f c2 20 3e 0a 31 22 3e
       0.33579922 0.029698947 0.15699027 0.1583902
0002f0 94 13 69 be 36 63 3c be 62 d3 a2 bd c2 cc f2 3d
       -0.22761375 -0.18397221 -0.07950474 0.11855461
000300 55 1b 83 be 4e 81 16 be 65 89 58 3e 68 68 27 be
       -0.2560679 -0.14697763 0.21146162 -0.16348422
000310 67 bb 37 be 70 e6 05 3d 71 30 2e 3d bd b9 a1 be
       -0.17942582 0.032690465 0.042526666 -0.3158702
000320 1d 3c 05 3d d8 3a 50 be 87 ce f2 3e 94 cb e0 bd
       0.03252803 -0.20334947 0.47423193 -0.109763294
000330 67 a4 08 3e 41 d3 1b be 6a a5 17 3d 1e 53 86 bc
       0.13343965 -0.15217306 0.037022986 -0.016397055
000340 c5 90 bc 3d bc 09 93 bd eb 3c 21 3d fc d1 fb be
       0.092073 -0.07179591 0.039364737 -0.49183643
000350 92 67 a7 3e f3 4f 96 bc 2c 2a a8 3e 28 d1 78 be
       0.32696205 -0.01834867 0.32844675 -0.24298537
000360 a6 4a 5a bc d1 47 86 b9 25 7f 26 3e 6c 19 f1 bd
       -0.013323462 -0.0002561198 0.1625944 -0.11772427
000370 a3 cb a0 be 6c 6d 68 be fe 75 25 3e 7c bd 86 3e
       -0.31405362 -0.22697991 0.16158292 0.2631644
000380 7b 17 29 3d 42 52 76 3c f9 79 22 3e 2f b6 1c 3e
       0.04128216 0.01503426 0.15866841 0.15303873
000390 22 86 21 3d 1f 96 74 3e 63 b3 40 3e e1 c8 ce 3c
       0.03943456 0.23885392 0.1881843 0.02524227
0003a0 6c 50 9b 3e 91 37 92 3d c2 9f 96 bb d7 d5 3c be
       0.30334795 0.07139505 -0.0045966813 -0.18440948
0003b0 61 2c 94 bd 24 73 0e 3e d0 3c a5 3e 53 68 0c 3e
       -0.07235027 0.1391111 0.3227296 0.13711672
0003c0 ef d4 f5 bd e4 c4 23 be d4 cf 5b bd 72 9e c3 3d
       -0.120035045 -0.15993077 -0.053664997 0.095517054
0003d0 b8 b1 4c 3e e0 11 85 3d e8 b1 37 3d 30 52 89 3e
       0.1998967 0.0649755 0.0448474 0.26820517
0003e0 a5 e8 f2 3d 0d c9 41 3b 54 94 77 3d 49 cd 17 bd
       0.1186078 0.0029569298 0.06044419 -0.03706101
0003f0 8e 23 4f 3d 8f 4d 41 3e aa d2 0b 3e c6 61 5e 3d
       0.050571017 0.18877243 0.1365458 0.054292463

backbone.2.conv.1.1.weight f4 [48]
000000 9e 08 05 3f a9 4d b0 3e 26 ee bc 3e 57 62 54 3e
       0.51966274 0.3443425 0.36900443 0.20740639
000010 82 21 bf 3e 7b 72 b9 3e 98 26 25 3e 62 ff 50 3e
       0.37330252 0.36220154 0.16128004 0.20409921
000020 7e b9 3b 3e 54 d3 87 3e 58 64 43 3e 02 31 fd 3e
       0.18332478 0.26528418 0.19081247 0.49451452
000030 ec f0 9c 3e f6 b5 7d 3e 95 83 c7 3e 39 d5 8f 3e
       0.3065256 0.24776444 0.38967577 0.28092363
000040 86 0b 8c 3e ce 2c 95 3e 36 76 0a 3f 2d 15 14 3f
       0.27352542 0.29135746 0.54086626 0.5784481
000050 90 dd 58 3e 92 3c 85 3e aa ea 98 3e b6 fb 87 3e
       0.2117827 0.26022774 0.29866534 0.26559228
000060 27 d8 b3 3e 2d ab 6b 3e ce 70 be 3e 57 59 57 3e
       0.3512585 0.23014517 0.37195438 0.21030174
000070 b5 d1 6c 3e 01 49 49 3e 87 ab 14 3f 53 04 7b 3e
       0.23126872 0.19656755 0.5807423 0.24513368
000080 ce de 9d 3e 8b 31 5f 3e cf 47 4c 3e 84 b9 b2 3e
       0.3083405 0.21796243 0.19949268 0.34907162
000090 55 c0 69 3e ca 8c cf 3e 53 a0 a4 3e 64 c4 b5 3e
       0.22827275 0.405371 0.32153568 0.35501397
0000a0 b4 1a c9 3e 81 da 7d 3e a3 ac d7 3e ce 49 b1 3e
       0.39278185 0.24790384 0.421239 0.3462662
0000b0 a2 95 ac 3e 52 1c 12 3e 0a f9 ba 3e 1e 42 ac 3e
       0.3370791 0.14268616 0.36518127 0.33644193

backbone.2.conv.1.1.bias f4 [48]
000000 a9 37 ab bc c6 11 b0 bd e0 9a 94 3c a1 5a 3c 3f
       -0.020900564 -0.0859714 0.018140256 0.7357579
000010 a8 d8 4b 3c 41 1d 64 3b 5e 02 1e 3f ca d6 68 be
       0.012441792 0.0034807476 0.6172236 -0.22738186
000020 a2 54 ad 3d 57 83 a7 bd be 63 29 3d 88 37 59 3e
       0.08463408 -0.08179348 0.041354887 0.2121259
000030 53 f2 33 bc 21 b7 bc bc c3 64 8a 3a 64 89 9c 3c
       -0.010983068 -0.023036541 0.0010558594 0.019108482
000040 15 6f c6 3d 77 7b dd bd 01 0f cc 3d 0d 48 6a bc
       0.09689156 -0.10814565 0.09963799 -0.014299405
000050 aa 72 da 3e 5b 4c 67 bd 16 0b b4 bb 1a 81 92 bc
       0.42665607 -0.056469303 -0.0054944856 -0.017883826
000060 8d 28 19 bb e5 f8 32 3d 57 7d a0 bc ca bd c4 3d
       -0.0023370117 0.043694396 -0.019591017 0.09606512
000070 b2 d4 88 3e bc 2b 3a bd ce 2e 94 bd 59 14 e9 3a
       0.26724774 -0.045451865 -0.0723549 0.0017782553
000080 6f 54 95 3b 41 e8 2a 3f 2a fd 1e 3f a0 91 4c bd
       0.0045571844 0.6676064 0.6210505 -0.049943566
000090 1b 42 15 3f 37 a8 c1 3e 90 5d 4d 3b 7e be 78 3e
       0.58303994 0.3782365 0.0031336285 0.24291417
0000a0 d2 a0 7a 3e 87 75 cb 3b 53 fe 08 3b 1b fa b8 bc
       0.2447541 0.0062090787 0.0020903542 -0.022580197
0000b0 ce 9f a0 bd e7 51 29 3e 73 13 b5 3d 2d a9 9b bd
       -0.0784298 0.1653515 0.088416 -0.07600627

backbone.2.conv.1.1.running_mean f4 [48]
000000 69 1b cf bd 3f 1e c5 bd 20 13 97 3d 3c f2 0f 3f
       -0.1011265 -0.096249096 0.07376695 0.56228995
000010 c5 aa 44 bd 88 e9 b7 bd ec 9f ae bd b2 33 a4 bc
       -0.04801442 -0.089800894 -0.085265964 -0.020044181
000020 96 39 ea 3d b6 f3 c4 bb a6 f4 66 3d b7 c2 0f be
       0.11436765 -0.006010498 0.05638566 -0.14039122
000030 62 34 ca bb 7c 03 39 ba 10 23 2d bb d6 f1 87 bd
       -0.0061707953 -0.0007057709 -0.0026418604 -0.066379234
000040 b6 59 94 3c 1c 98 1b 3e 2f 0e c5 bd 87 ca a4 be
       0.018109184 0.15194744 -0.09621846 -0.32185766
000050 53 32 40 3e e4 ed dd bd 8f 8d 25 bc 12 24 2b bc
       0.18769197 -0.1083639 -0.010104551 -0.010445612
000060 f6 81 14 bc 33 07 9d 3d c3 9b 20 bb 83 99 b5 3b
       -0.009064188 0.07667389 -0.0024506904 0.0055419817
000070 7f 9a 92 3e a9 bb 6c 3c 45 91 0d be f9 58 ca 3d
       0.28633496 0.014449039 -0.13824947 0.098802514
000080 98 6c 74 3d d1 95 01 be f6 37 36 be 7c c5 73 3c
       0.059673876 -0.12654807 -0.17794785 0.014878627
000090 52 03 b0 bd 77 66 20 be 10 73 fd bb c1 7c 39 3e
       -0.08594383 -0.15664087 -0.007734664 0.18113996
0000a0 53 88 1c be 87 cb 3d 3e ca 6c 84 bd 21 59 a0 3d
       -0.15286379 0.18534671 -0.06466062 0.078295
0000b0 22 0a 00 3d b6 0f bd 3d 16 6d 71 be 1b f2 56 3d
       0.031259663 0.09231512 -0.23576769 0.052476984

backbone.2.conv.1.1.running_var f4 [48]
000000 6d ac d0 3c 42 f6 6a 3c ab 5c ad 3b 48 be c9 3c
       0.025472844 0.014340939 0.005290588 0.024626866
000010 9f be 43 3c e7 a1 5b 3b c9 6c ae 3c 6b b5 14 39
       0.011947303 0.003351325 0.021292107 0.00014181963
000020 51 7e 2a 3d 13 56 b1 3a 6e 58 98 3b 17 be 21 3d
       0.04162437 0.001352968 0.0046492135 0.039487924
000030 2c 9c c1 3a a1 92 88 3b ff 05 50 3c e2 87 68 3c
       0.0014771274 0.00416787 0.012696742 0.014192553
000040 a3 b6 10 3b 4d d6 76 3c f0 d5 9f 3c e0 24 eb 3c
       0.0022081516 0.015065742 0.019511193 0.028704107
000050 90 ed 65 3c eb 32 ca 3b b6 e6 4c 3b dd d1 d3 3b
       0.01403369 0.0061706207 0.0031265444 0.0064642266
000060 4a d2 13 3c 60 4c 0d 3c f5 de cf 3b bf 5d f0 39
       0.009022305 0.008624166 0.006343717 0.00045846213
000070 d3 d3 3f 3b 50 b1 83 39 04 2d 24 3d bc 05 21 3b
       0.0029270544 0.00025118375 0.040081993 0.0024570068
000080 99 29 c8 3b 71 83 ee 3c 32 33 05 3d 1b 38 39 3c
       0.0061084745 0.02911541 0.032519527 0.0113048805
000090 51 7b 14 3c 12 e3 4c 3d 97 93 73 3b 70 82 c8 3d
       0.009062604 0.05002124 0.0037166828 0.09790504
0000a0 30 e6 4d 3d d7 26 a6 3b 0f 9b 89 3b 24 90 eb 3b
       0.050268352 0.005070548 0.0041993926 0.0071888138
0000b0 ea c6 be 3b fb 66 1e 3c 17 a9 8f 3c 56 cf 07 3a
       0.0058220522 0.009668107 0.017536683 0.0005180737

backbone.2.conv.2.weight f4 [8, 48, 1, 1]
000000 9c 57 09 3e 98 27 8a 3e b1 47 3b 3c 06 30 36 3e
       0.13412327 0.26983333 0.011430667 0.17791757
000010 28 23 bf 3e 00 43 8c bd 50 a0 25 3e 10 e3 2c be
       0.3733151 -0.06848717 0.16174436 -0.16883492
000020 34 2b d0 bd 8f 53 c7 bd 60 40 94 3d 6d c4 b2 3e
       -0.1016449 -0.097327344 0.07238841 0.34915486
000030 57 9b 8a 3c e3 32 88 bd 92 66 e9 3d 4b d1 8f 3e
       0.016919775 -0.06650331 0.11396517 0.28089365
000040 3b 3e 50 be f8 f7 86 3b ea 10 9c 3e 8a a1 c6 3e
       -0.20336239 0.0041189156 0.30481654 0.3879512
000050 75 42 5d bd 0b fb 33 bd cb ad a8 3b 53 9f 16 3d
       -0.054018456 -0.043940585 0.005147671 0.036773037
000060 20 20 18 3e 42 dc 03 bd 4f af 18 3e 20 6a 2c be
       0.14856005 -0.032192476 0.14910625 -0.16837358
000070 3f 86 37 be 14 c2 08 bd 9a 42 8f bd 91 d4 f7 39
       -0.17922305 -0.033388212 -0.06995125 0.00047269886
000080 28 7a a2 bd f0 09 97 3e bf dd 1e 3e 46 80 c9 bd
       -0.07933456 0.2949977 0.15514277 -0.09838919
000090 eb 24 55 3e c1 39 94 3e 09 02 79 3d 7d e8 40 bd
       0.20814864 0.28950313 0.060792957 -0.047096718
0000a0 30 1d f0 3d 4d ad aa bc 81 cf 23 3e ae 3d 0b be
       0.11724317 -0.02083459 0.15997125 -0.13597748
0000b0 5a bd 83 bd 81 ed 32 be fd 62 22 3d 24 d1 c9 bc
       -0.064326 -0.17473413 0.039645184 -0.024635859
0000c0 50 46 5f 3d 32 26 69 3e f9 db 83 3e 5c 7c a4 be
       0.054510415 0.22768477 0.25753763 -0.3212613
0000d0 b8 1c 1f 3e d0 87 5d 3e d9 35 01 3e e6 bb 93 bc
       0.15538299 0.2163384 0.12618198 -0.018033933
0000e0 17 84 b0 bc 96 7a 4d bd a0 55 6e 3d 29 e7 18 be
       -0.02154736 -0.050165735 0.058187127 -0.1493193
0000f0 fd 1f 4b bd d1 24 1d be 22 d5 dd 3d d3 8e 24 3e
       -0.049591053 -0.15346076 0.108316675 0.16070108
000100 67 23 cf bd e5 6e 90 3d 44 48 d3 bd 98 f5 f7 bc
       -0.10114174 0.070524015 -0.10316518 -0.030268475
000110 cb a2 d2 bd e1 be 6d be c1 1d 72 3c 17 19 19 bd
       -0.102849565 -0.23217346 0.014777602 -0.037377443
000120 cb 8d 9a 3d 7b 2a 99 bd 16 65 30 3e 42 7a 48 bd
       0.07546576 -0.07478806 0.17226061 -0.04894472
000130 9a 0c 48 3e b6 7f 6e bd 9c 6e 4a 3d 57 05 44 be
       0.19536057 -0.058227263 0.04942189 -0.19142662
000140 c2 0b f5 bd 33 5b 08 3e f5 07 7e bd 98 6d f3 bd
       -0.11965133 0.1331604 -0.062019307 -0.11886138
000150 92 8c dd 3e 77 d7 b5 be 96 1d b0 3c 2d c5 93 be
       0.4327131 -0.3551595 0.021498483 -0.2886137
000160 0d e4 0e be 78 fd df 3d 0a c9 36 bd f2 64 15 be
       -0.13954182 0.10937017 -0.04462532 -0.14589289
000170 e3 c5 f5 bd 94 1d 38 be 13 bb 76 bd 33 0f 48 be
       -0.120006345 -0.17980033 -0.060237 -0.19537048
000180 5c 8d 13 3e 34 86 0e bc 47 a6 c0 3c 49 37 81 be
       0.14409393 -0.008698989 0.023516787 -0.25237492
000190 be 6d 39 3e 7d 9c 82 be 68 71 04 be d8 ed e3 3c
       0.1810827 -0.25510016 -0.12933886 0.027823374
0001a0 d3 cb f9 bd 4e e5 44 3e b7 38 31 bd 58 21 a0 be
       -0.121970795 0.19228098 -0.043266978 -0.3127544
0001b0 e7 94 97 3e a9 45 51 be b3 5c cc bd 5b 66 99 3c
       0.2960579 -0.2043673 -0.099786185 0.018725565
0001c0 32 1d 26 3e 4f d6 a8 bd 5a 91 9d 3d 58 64 a3 3d
       0.16222075 -0.08244001 0.07693739 0.079781234
0001d0 dc 4e 83 3d 7f ea 2c bc 2b b3 81 3e 17 07 84 3e
       0.064115256 -0.010553955 0.25332007 0.2578666
0001e0 dc d9 ef bd c1 ed 1f be e2 3d 0e be dc 59 2f 3e
       -0.11711475 -0.1561804 -0.13890794 0.17124122
0001f0 5f 30 22 3e 5b 75 6c 3e ab 56 17 3d 6f b8 0b 3d
       0.15838765 0.23091643 0.036947887 0.034111436
000200 43 32 8c be 72 92 6f 3e 29 27 27 3e 37 07 2e be
       -0.27382097 0.23395708 0.16323532 -0.1699494
000210 d2 22 17 be f8 77 58 3e eb 97 71 3e 27 1d 28 be
       -0.14759377 0.21139514 0.23593108 -0.1641737
000220 57 2c 04 bc 48 00 33 be 11 a1 7c 3c da e7 f3 bd
       -0.008067212 -0.17480576 0.015419261 -0.119094566
000230 98 4f a9 be 2e c2 44 3e 88 50 bd be 43 b4 81 3e
       -0.33068538 0.19214699 -0.36975503 0.2533284
000240 52 79 3d 3d 45 fc 82 3e 82 e0 b4 3d b5 d8 a4 3e
       0.04625828 0.2558309 0.08831884 0.32196584
000250 5b 6a e8 bd f1 3a f8 3d 48 b5 5e bd ee 2b 11 3d
       -0.11348411 0.12120617 -0.054372102 0.035442285
000260 4c ff 1b be 1b 48 cc bc 6c ec 6e 3e b6 7c 49 be
       -0.15234107 -0.024936726 0.23332375 -0.1967648
000270 6d 19 22 3d 3c a3 39 3d 02 f1 45 3e 5b 28 8a 3d
       0.03957503 0.045321688 0.19330218 0.067459784
000280 be 16 f0 3b 3a f4 1f 3d 34 50 84 3c 9d 45 81 be
       0.00732693 0.039051272 0.016151525 -0.25248423
000290 2d a0 ee bd 54 0a 6d 3d 3e 41 ac 3d ca 89 8e 3d
       -0.11651645 0.057871178 0.084108815 0.06959875
0002a0 93 d7 21 3e a2 af c7 bd 4c 27 0e 3e 18 81 b8 3d
       0.15804891 -0.09750296 0.13882178 0.09008998
0002b0 d0 ce 36 be 72 f9 3e bc ce 3f ad 3e 43 3f ff 3d
       -0.1785233 -0.011656152 0.33837742 0.12463238
0002c0 30 77 4c bd 3d 7b b0 bd 76 4b 7b 3e 21 c3 bb bc
       -0.049918354 -0.08617256 0.24540505 -0.022920193
0002d0 b6 e0 bc 3d fb ad 6a 3e 67 db 8c 3d 4a 40 c4 bd
       0.09222548 0.22917931 0.06877785 -0.09582575
0002e0 67 4a 1d be d5 bc 9e 3e e8 4d b9 3e 8c 00 ce 3b
       -0.15360413 0.31003442 0.3619225 0.0062866863
0002f0 ed b9 04 bd 75 47 81 bd 1e 3e ba be e5 2d ad 3d
       -0.032403875 -0.063124575 -0.36375517 0.08456019
000300 c6 8c 34 bd cf 48 05 be b7 98 3f 3e b7 62 9d 3d
       -0.044079565 -0.13016056 0.187106 0.07684844
000310 dc 75 1c 3e 2e 03 9f bc 6c 97 80 be e7 d4 4c 3d
       0.15279335 -0.019410696 -0.25115526 0.050007727
000320 d4 8e df ba c3 f8 99 bd e9 c6 3b 3e 32 bb 6b 3e
       -0.0017056116 -0.07518151 0.18337597 0.23020628
000330 1c a6 37 3e 60 8e 58 3c b4 71 96 3e 38 f4 02 be
       0.1793446 0.013217539 0.29383624 -0.12788475
000340 64 cd d3 bd 2a 3e 92 be 22 4f 03 3c ec f7 3f be
       -0.103419095 -0.28563052 0.008014472 -0.18746918
000350 b6 1e 38 be 16 5d 58 3d ba eb ad 3d 39 de e1 3d
       -0.17980465 0.05282315 0.08492227 0.11028714
000360 b1 59 88 3e e4 3f f7 3d 5d 31 95 3e 4c ca 29 be
       0.2663093 0.12072733 0.29139224 -0.16581076
000370 97 91 8a bd b9 3d e1 bd 5e bc 39 be 6e e6 08 be
       -0.0676605 -0.10998101 -0.18138263 -0.13369152
000380 96 53 1a 3e 26 df 2a be 48 67 ff 3d 2d 69 47 3e
       0.15070948 -0.16686687 0.12470871 0.19473715
000390 10 7e 5c bd 7c 97 a7 bd d4 ce 60 3e 1b 28 ba bd
       -0.05383116 -0.0818319 0.21953899 -0.09089681
0003a0 6f f2 29 be a2 8d 88 3d 66 32 df b9 c7 75 15 3e
       -0.16596387 0.06667639 -0.00042571424 0.1459571
0003b0 49 2d 85 3d cb ff 15 3e 69 92 fb bd cc b1 8f be
       0.06502778 0.14648359 -0.12283785 -0.28065336
0003c0 8b 34 3c 3d dd 03 1c 3d 08 75 7b 3e 1b 71 93 3d
       0.045948546 0.03808962 0.24556363 0.071993075
0003d0 9e 39 8c 3e 05 ef 19 3e e1 24 69 3e 7b 9f 3c bd
       0.27387708 0.15032585 0.22767974 -0.04605053
0003e0 10 02 62 be 1a f7 3f 3e 7d d5 aa 38 1e bc c2 be
       -0.220711 0.18746606 8.145997e-05 -0.38034147
0003f0 d5 4a 92 3e 29 ca 93 3d 75 e4 2b 3e 2f 0b c0 bd
       0.28572717 0.07216293 0.16786368 -0.09377133
