ML Model/tv_detection_epoch_150/e-91-0.665.pth (torch, 508349 bytes, 205 tensors)

backbone.0.0.weight f4 [16, 3, 3, 3]
000000 ba f8 02 00 3f f8 01 00 53 ef 02 80 42 02 03 00
       2.72897e-40 1.8089e-40 -2.69524e-40 2.76316e-40
000010 86 83 00 00 a3 2d 02 00 8e d7 00 00 af b2 02 80
       4.7182e-41 2.00042e-40 7.7326e-41 -2.4777e-40
000020 bd c1 00 80 de 21 02 80 a0 da 01 80 9f 0b 02 00
       -6.95e-41 -1.9582e-40 -1.70263e-40 1.8784e-40
000030 f1 21 02 00 43 b4 02 80 78 b9 00 00 73 40 01 00
       1.95847e-40 -2.48337e-40 6.6534e-41 1.14956e-40
000040 c3 6d 00 00 46 57 03 80 a9 04 02 80 00 4b 02 80
       3.9375e-41 -3.06814e-40 -1.85343e-40 -2.10576e-40
000050 90 9e 00 00 84 e7 00 00 d8 17 01 80 ca bd 00 80
       5.6882e-41 8.3052e-41 -1.00389e-40 -6.8083e-41
000060 cd 12 02 00 a5 96 01 00 e8 b7 02 00 f3 36 bc 3c
       1.90415e-40 1.45877e-40 2.49644e-40 0.02297542
000070 f0 72 97 3c 0e ee 85 bd 22 29 1d 3e 82 0a af 3e
       0.018487424 -0.06539546 0.15347722 0.34187704
000080 db c1 0e bb b6 64 07 be b2 9e 46 be 08 ea 9f 3b
       -0.0021783027 -0.13222012 -0.19396475 0.0048801936
000090 13 67 5f bd e6 8b 3e bc 16 0d 32 be ea e3 97 3e
       -0.05454166 -0.011630034 -0.17387804 0.29666072
0000a0 4d 49 33 3f 67 f1 5c 3d ca 9b a2 be db 67 0b bf
       0.70033723 0.053941157 -0.31759483 -0.54455346
0000b0 96 7f c7 bd 40 63 2d 3e 88 43 28 3e e9 b4 45 3d
       -0.09741132 0.16932392 0.16432011 0.048268232
0000c0 c0 d1 4f 3e 7e c2 9c 3e 66 03 a0 3d 9a 8a 0e be
       0.20294857 0.30617136 0.07813148 -0.1392006
0000d0 61 1c 4b be a5 2a ad bd 54 ed a1 bd 75 35 0f 3e
       -0.19835044 -0.084553994 -0.07906595 0.13985236
0000e0 e0 0c 66 3d dc ae c4 be 78 ee 44 3f af 07 3e be
       0.056164622 -0.38414657 0.76926374 -0.18557619
0000f0 e6 73 22 bf 9c 38 6b 3f 31 43 6f be 52 14 0c be
       -0.63458097 0.91883254 -0.23365475 -0.13679627
000100 59 fc 29 3e ba 9e 27 bd 2e 68 52 bf 2e e8 a6 3f
       0.16600169 -0.040922858 -0.82190216 1.3039606
000110 61 41 ea be 21 81 83 bf 0b 59 b5 3f 06 09 ee be
       -0.45753005 -1.0273782 1.4167799 -0.4649126
000120 77 08 69 bd 62 84 12 bc c2 13 6b 3d ca 23 74 be
       -0.05689284 -0.008942695 0.05739189 -0.23841777
000130 e6 6a d1 3e b9 0b c4 bd 09 2e 96 be b3 da e1 3e
       0.4090187 -0.095725484 -0.29331997 0.44112167
000140 16 db 18 be 6c af 4b bd 7d db 3f bc 80 fc 84 3d
       -0.14927325 -0.049727842 -0.011710045 0.06493473
000150 d4 56 50 3d bd 94 66 3e 57 6b 9b be a7 4e c6 3b
       0.050864056 0.22517677 -0.3035533 0.0060518566
000160 03 4d 99 3e 3d 9c a0 be 86 eb d2 bc 09 2b 18 bd
       0.29941568 -0.313692 -0.025747072 -0.037150417
000170 8f 7c 9c 3d bc ba 54 3d b3 c7 10 3f 6e 36 14 bf
       0.07640945 0.051935896 0.56554717 -0.57895553
000180 5a f3 26 3d d3 c0 22 3f 57 d1 25 bf 48 04 22 39
       0.040759422 0.63575476 -0.6477255 0.00015451119
000190 0c ff 18 3c 78 6b 9e bd 84 b6 fa 3d 97 a0 36 3e
       0.009338152 -0.07735342 0.12241843 0.17834698
0001a0 44 35 51 be 3d bb 3a 3d 9b 9b 0e 3e 77 f9 61 be
       -0.20430475 0.04558872 0.13926546 -0.2206782
0001b0 70 eb b9 bd 54 3a 85 bd 63 06 e3 bd da 4c fe 3b
       -0.09078109 -0.06505266 -0.110852025 0.0077606263
0001c0 45 a8 6c bc d8 9e 14 be 0d 47 06 3e 26 69 d4 3c
       -0.014444415 -0.14513719 0.13113041 0.025929045
0001d0 1e a6 53 be 78 4b bb 3d 98 48 e6 3c ee 4d 8b bd
       -0.20668837 0.09145254 0.028110787 -0.06801973
0001e0 7c 17 2e 3e 3b 81 da bd 48 f4 96 be 04 e7 4c 3e
       0.17001146 -0.1066918 -0.29483247 0.2001
0001f0 a8 1b 95 bd c0 a4 d5 be 2d ce b8 3d 54 4b 82 bd
       -0.07280666 -0.41727257 0.090237 -0.06362024
000200 f2 31 50 be 89 00 4e 3d 76 30 08 be 1f 1b 8a be
       -0.20331553 0.05029348 -0.13299736 -0.26973817
000210 14 5e 24 bc e2 d7 cc bd f2 ee 70 be 90 de 30 3e
       -0.010032196 -0.10002114 -0.2352865 0.17272401
000220 30 9d 42 3e bb 2a 04 be a6 19 c4 3d 2e c4 1b 3f
       0.19005275 -0.12906925 0.095752046 0.6084622
000230 06 30 99 3e 58 2f 5f be 3d 1f 06 3f 36 14 20 3f
       0.2991945 -0.21795404 0.52391416 0.6253084
000240 c1 18 f2 3d 8e 99 9d bc a2 3c c7 3d 94 03 2e 3d
       0.11821128 -0.01923826 0.09728362 0.04248388
000250 d8 51 11 be fd 20 1f bd ce 3d 90 ba 4e a1 12 be
       -0.14191377 -0.03884982 -0.0011004747 -0.14319345
000260 a2 96 6e bd cc d0 85 be c2 24 3f be 91 38 41 3d
       -0.058249123 -0.26135862 -0.18666366 0.047173087
000270 8d 9d 3c be c1 dc 06 bf 44 49 8d be 2f 59 70 3d
       -0.18419476 -0.52680594 -0.2759496 0.058678802
000280 14 66 f2 be e0 8a 0e bf f3 41 33 3e 56 81 f2 3d
       -0.47343504 -0.55680656 0.17505626 0.11841075
000290 9a 20 2e 3d 07 ae 04 3f 40 55 9f 3b aa 67 c1 bd
       0.04251156 0.51828045 0.0048624575 -0.094436005
0002a0 1f 5f cc 3d 18 01 bb bd fd a2 38 3c 38 e9 44 3c
       0.099790804 -0.09131068 0.011269328 0.012018494
0002b0 77 cf ef bc 38 55 49 bd 04 5d 5b 3f 00 3b bd bd
       -0.029273732 -0.049153537 0.85688806 -0.09239769
0002c0 55 2d 99 be 9f 97 f8 3d 1a bf 70 be e8 48 2e bd
       -0.29917398 0.121382944 -0.235104 -0.042549998
0002d0 d9 6b c3 3d b2 6a 4e 3d f3 94 a4 3b 00 34 89 3e
       0.09542055 0.05039472 0.005022639 0.26797485
0002e0 e0 c4 85 3d 89 8f 6f 3c 40 72 a3 bd dc f7 e4 bd
       0.065316916 0.014621624 -0.07980776 -0.11180088
0002f0 d1 61 80 bc 5f 20 04 3d 08 f4 28 3d 59 e7 1e bd
       -0.015671642 0.032257434 0.04124835 -0.03879485
000300 a2 f2 4a bc 12 c1 eb 3d cd c7 98 3e 03 7f e1 bb
       -0.01238695 0.115114346 0.29839936 -0.006881596
000310 42 67 d6 3d 10 0f b3 3e 49 fd a6 bd 40 05 20 be
       0.104689136 0.3497243 -0.08153779 -0.15627003
000320 3d a1 3f be 5c d4 5d bd f8 c2 b3 3d 95 a2 9c 3e
       -0.18713851 -0.0541576 0.08777422 0.3059279
000330 3d 4d 48 bc b4 b0 14 3e e6 a0 a8 3e 9d 04 fb bc
       -0.012225446 0.14520532 0.32935256 -0.030641848
000340 26 d3 8e 3c 23 97 a5 3c 56 43 3d 3d b1 1b 4e 3e
       0.017434668 0.02021367 0.046206795 0.20127751
000350 79 1d b7 3e a1 06 c9 3d 25 2f 55 3e ea 85 9e 3e
       0.35764673 0.098157175 0.20818765 0.30961543
000360 6e 60 4c 3d fe 13 3e 3d 4f 8a 19 be 23 89 3c be
       0.04989665 0.046405785 -0.14994167 -0.18411689
000370 e5 64 27 3f e3 78 08 bf b1 24 5b 3c 94 5d 37 3f
       0.6538833 -0.5330946 0.013375447 0.71627164
000380 ee 2b 2a bf 5d 50 18 bd 25 59 2d 3e a1 71 5c be
       -0.6647328 -0.037186015 0.16928537 -0.21527721
000390 35 12 13 be 25 09 85 3f 5f 19 6b bf e3 97 08 bc
       -0.14362414 1.0393416 -0.9183559 -0.008336994
0003a0 6e 74 82 3f 53 48 74 bf fe 87 a6 3d 2b 2c 18 3d
       1.0191782 -0.9542286 0.08131407 0.037151497
0003b0 3a a5 1d bb be e0 c9 bd 20 11 d3 3e b6 3f b0 be
       -0.0024054782 -0.09857319 0.41224003 -0.34423608
0003c0 c0 8e 3a 3c 3a 1f d7 3e 8a 5e c3 be 1c 50 01 00
       0.011386573 0.4201601 -0.38158065 1.20573e-40
0003d0 46 a9 02 80 fc 24 03 80 b1 a8 03 00 bb 8b 01 00
       -2.44395e-40 -2.88774e-40 3.36022e-40 1.41961e-40
0003e0 48 25 00 00 e9 ee 00 80 71 35 01 00 21 3a 01 00
       1.3374e-41 -8.5705e-41 1.11007e-40 1.12688e-40
0003f0 f0 a1 01 00 f3 f0 02 80 a5 de 01 80 e9 b7 02 80
       1.49928e-40 -2.70107e-40 -1.71705e-40 -2.49646e-40

backbone.0.1.weight f4 [16]
000000 94 c2 01 80 53 51 c3 3d 24 db e6 3d 4c 13 97 3e
       -1.61637e-40 0.09536996 0.112722665 0.2950691
000010 6d f2 55 3e 7a 12 62 3e 1f 40 ea 3d e1 6c 98 3e
       0.2089326 0.22077361 0.114380114 0.29770568
000020 7d 7e b3 3d d5 4a 02 80 fe 53 da 3e 10 83 19 3e
       0.0876436 -2.10516e-40 0.42642206 0.14991403
000030 ff 3f 97 3e d1 a2 ac 3e 57 28 02 00 e9 04 a9 3d
       0.29541013 0.3371797 1.98142e-40 0.0825289

backbone.0.1.bias f4 [16]
000000 d3 24 02 80 6e e5 1b 3f 73 70 d1 3e 92 de 68 3e
       -1.96881e-40 0.60896957 0.40906104 0.22741154
000010 8f 83 57 3f af 00 10 3f a6 29 f2 3e 24 9d 00 3f
       0.8418512 0.56251043 0.472974 0.5023978
000020 ce bf 0c 3f f3 ba 02 00 28 cf 87 be da 7c 61 3f
       0.5498017 2.50736e-40 -0.26525235 0.88081133
000030 cf 45 b6 3e 90 de 9e be e9 25 02 00 b7 36 0b 3e
       0.35600135 -0.31029177 1.9727e-40 0.13595091

backbone.0.1.running_mean f4 [16]
000000 10 ba 8a 00 34 43 67 42 65 7e 23 42 56 62 98 40
       1.2740045e-38 57.815628 40.873432 4.762004
000010 c1 82 3d c3 95 84 9c c2 9a f8 f8 42 ec 8d 80 43
       -189.51076 -78.25895 124.48555 257.10876
000020 7e 0d df 40 f3 b0 88 80 fa 6f 0d c2 e4 6e 4f 43
       6.970397 -1.2553105e-38 -35.359352 207.43317
000030 f3 c1 56 41 ef 24 88 42 82 87 db 80 e9 cf 1d c2
       13.422351 68.072136 -2.0160585e-38 -39.453037

backbone.0.1.running_var f4 [16]
000000 04 00 00 00 a8 fa 35 45 ea c5 14 46 04 79 e0 44
       6e-45 2911.666 9521.479 1795.7817
000010 fb ad 73 46 db 55 2d 46 05 86 13 46 31 87 db 46
       15595.495 11093.464 9441.505 28099.596
000020 0d f6 b4 45 04 00 00 00 29 ec 68 45 aa d8 8d 46
       5790.7563 6e-45 3726.76 18156.332
000030 b8 2c 27 45 14 32 63 45 04 00 00 00 5f 4b 0b 45
       2674.795 3635.13 6e-45 2228.7107

backbone.1.conv.0.0.weight f4 [16, 1, 3, 3]
000000 af ff 00 80 31 47 02 00 5e 5e 01 80 db ed 02 00
       -9.1722e-41 2.0921e-40 -1.25688e-40 2.68997e-40
000010 39 54 02 00 33 b7 02 00 7c da 02 80 1f eb 02 80
       2.13884e-40 2.4939e-40 -2.62048e-40 -2.68017e-40
000020 9c b2 02 80 62 fb 11 bd e6 99 e0 bc 43 17 04 3d
       -2.47744e-40 -0.035640128 -0.027417134 0.032248747
000030 6b 51 80 3c 50 13 7b bd fe 9a 37 3f 23 5e d8 bc
       0.015663823 -0.061297715 0.71720874 -0.026412075
000040 60 93 ef 3c 88 bd 59 bf 6e d6 4c 3c d7 1e 5f bd
       0.029245079 -0.85054827 0.012502296 -0.05447277
000050 8c 29 f9 bd ae 45 a0 bc 42 e5 40 3d eb 6a 89 3f
       -0.121661276 -0.019564476 0.047093637 1.0735754
000060 f0 c0 c5 3b a0 98 93 bd 91 75 95 bd 36 d1 85 bd
       0.006034963 -0.07206845 -0.07297815 -0.065340444
000070 b1 74 7a bd 1a 33 ab bd fa 54 ad 3a 4f ac 4b 3f
       -0.06114644 -0.08359356 0.0013224178 0.795598
000080 ab 72 94 be 11 08 91 bc c6 9e 0b bd 30 0a 55 be
       -0.28993735 -0.017704042 -0.034086965 -0.20804667
000090 ef e0 12 3f 7b 5f f7 3f 6e 48 ee 3e 3d 4d 60 3e
       0.5737447 1.9326013 0.46539634 0.21904464
0000a0 57 9c e4 3e d9 2b 54 3e b3 75 57 bf 81 d7 06 c0
       0.44650528 0.20719852 -0.8416397 -2.1069033
0000b0 50 82 37 bf 04 47 63 be f4 2c ba 3b 22 31 5a be
       -0.71683216 -0.22195059 0.0056816284 -0.21307805
0000c0 37 89 fe 3d bf bf c0 3e 05 d9 d1 bf d1 ad 97 3d
       0.124285154 0.3764629 -1.6394354 0.074062
0000d0 05 d5 a8 3f 1b 08 ca 3e 6b 4e 64 bd 8d 47 af 3d
       1.3190008 0.3945931 -0.055738848 0.08558569
0000e0 2f aa 4f bd 07 ad f3 39 60 c0 47 3d 18 ec 44 bf
       -0.05069941 0.00046477487 0.048767447 -0.7692275
0000f0 87 5f b9 3c 04 73 8d 3d 3b 89 83 3f a6 8b f6 be
       0.022628559 0.06906703 1.0276254 -0.48153418
000100 df 26 8d be 4e 5d 3b 3f cd 3f 17 c0 3b 20 ba be
       -0.2756872 0.73189247 -2.363269 -0.36352715
000110 1a 72 26 40 95 e7 dc be 5a c8 11 be 9e 49 29 3f
       2.6007142 -0.43145433 -0.14236584 0.66127956
000120 24 9e 4a bd b2 27 eb 3c 36 34 b8 bd d7 3c 24 3d
       -0.04946722 0.028705452 -0.089943334 0.040097084
000130 bf 9a 6f bf d1 33 1a 3e 1f a9 89 3d b9 2b 85 3c
       -0.935955 0.15058829 0.067217104 0.0162562
000140 6f 3f a8 bd ee a9 02 80 ea 6c 01 00 de 7e 01 80
       -0.08215224 -2.4463e-40 1.30906e-40 -1.37347e-40
000150 44 51 01 80 7a 9a 01 80 d2 24 01 00 c1 9d 02 80
       -1.20988e-40 -1.47251e-40 1.05044e-40 -2.40262e-40
000160 1e fa 01 00 35 21 01 80 3b fc 58 bc a7 e5 19 be
       1.8156e-40 -1.03748e-40 -0.01324373 -0.15029012
000170 9a b2 c2 be 30 b5 40 be 82 41 0f 3e 8e 52 c7 3e
       -0.38026887 -0.18819118 0.13989833 0.38930172
000180 64 eb ab be 90 4f ab 3e 2e af f9 3e eb 90 42 3e
       -0.33578026 0.3345914 0.48766464 0.19000594
000190 73 c2 c7 3f 42 2e 7a 3f 10 d8 dd 3d e6 a9 2c 3d
       1.5606216 0.97726834 0.10832226 0.042154215
0001a0 26 ff f6 bd 17 0a 91 be 2e cc d0 bf fa 64 79 bf
       -0.120603845 -0.2832801 -1.6312311 -0.97419703
0001b0 64 3c 16 ba b5 e5 1d 3d 30 87 b4 bc 1f 40 89 3c
       -0.0005731045 0.038549144 -0.022037119 0.016754208
0001c0 68 09 b0 bc 99 8a 3e bf c2 6f aa bc 79 28 27 3b
       -0.02148886 -0.74430233 -0.020805243 0.0025506301
0001d0 b5 fb 3b 3f 82 0c d2 bc d8 d5 88 3d 5c 71 3b be
       0.7343095 -0.02564073 0.066814125 -0.18304962
0001e0 bf 8a 49 3d 86 fe ee 3d 63 4b bd bd f0 81 2e be
       0.049204584 0.1166964 -0.092428945 -0.17041755
0001f0 8a 56 67 bd 23 99 1a 3f a4 c7 02 80 3b 59 03 80
       -0.056479014 0.6038992 -2.55289e-40 -3.07516e-40
000200 c3 07 02 00 0e 18 02 00 c9 1f 02 00 6f 17 02 00
       1.86455e-40 1.923e-40 1.95073e-40 1.92077e-40
000210 0a 14 03 80 cd f4 02 80 31 87 01 00 47 e3 08 3e
       -2.82695e-40 -2.71489e-40 1.40333e-40 0.1336795
000220 66 90 93 3c 1e 1f 72 3c b1 e0 0f 3e c4 3e 54 bd
       0.01801319 0.014777927 0.14050557 -0.05181767
000230 c5 2f 35 be c6 c8 cd 3d 7a 67 45 be 67 63 71 be
       -0.17694004 0.1004806 -0.19277754 -0.23573075

backbone.1.conv.0.1.weight f4 [16]
000000 d8 46 00 00 ef 04 02 3f 11 5c 10 3f d9 c4 15 3f
       2.5414e-41 0.5078878 0.5639048 0.5850349
000010 37 2b 92 3f 28 ce f3 3e 6a 62 0c 3f b0 c1 53 3f
       1.1419438 0.47618222 0.5483767 0.8271742
000020 64 7f d5 3e 03 da 00 00 c9 3f 55 3e 94 76 7d 3f
       0.41698754 7.8208e-41 0.20825113 0.9900906
000030 f4 96 5f 3f 0e 76 7d 3e 2b 19 02 00 1d b7 aa 3e
       0.8733971 0.24752066 1.927e-40 0.3334283

backbone.1.conv.0.1.bias f4 [16]
000000 32 1c 13 80 cb 39 25 3f cc bf ab 3f 01 48 8d 3e
       -1.754989e-39 0.6454131 1.3417907 0.27593997
000010 3f 05 41 3e 54 70 3d 3f 77 1b 11 3f 02 79 fd 3e
       0.18849657 0.73999524 0.56682533 0.49506384
000020 ba 19 e5 3e f5 19 91 00 b4 d4 08 3f ca 2a 8c 3d
       0.4474619 1.3325459e-38 0.5344956 0.06844099
000030 5b d0 33 3f 23 47 9e be a9 8b 2b 01 6d 2d b4 3e
       0.702398 -0.30913648 3.150794e-38 0.35190907

backbone.1.conv.0.1.running_mean f4 [16]
000000 04 00 00 00 d1 83 f2 bd 7e 90 a2 3e c9 95 4f 3c
       6e-45 -0.11841548 0.31750864 0.012669989
000010 15 d2 23 3e ac 56 0a 3e 79 09 32 3e be f0 17 bd
       0.15998109 0.13509625 0.17386426 -0.037094824
000020 3b 1c f1 be 04 00 00 80 e3 82 6c 3c 92 0d e7 bd
       -0.4709185 -6e-45 0.014435503 -0.11281885
000030 26 38 75 bc 54 67 5f 3c 04 00 00 80 23 f3 0c bd
       -0.014967 0.013635475 -6e-45 -0.03441156

backbone.1.conv.0.1.running_var f4 [16]
000000 04 00 00 00 52 c1 09 3c 6a 43 14 3c 72 03 1d 3d
       6e-45 0.008407908 0.009049276 0.038333364
000010 f3 f1 71 3e bd 31 49 3d 08 99 d4 3b 9d c9 c7 3e
       0.23627453 0.0491197 0.0064879693 0.39021006
000020 5a 3f cd 3b 04 00 00 00 65 84 f9 3b 91 66 11 3e
       0.0062636556 6e-45 0.0076146596 0.14199282
000030 16 4c 6b 3d 5b 2f 01 3b 04 00 00 00 29 58 36 3a
       0.057445608 0.0019712064 6e-45 0.0006955886

backbone.1.conv.1.weight f4 [8, 16, 1, 1]
000000 41 58 12 80 c3 89 65 be f4 92 2f bd 25 7d 3a 3e
       -1.684698e-39 -0.22415833 -0.042864755 0.18211801
000010 6b f4 31 bd a2 97 27 3f d4 8d 82 3e 3a 0f dc bd
       -0.043445986 0.6546575 0.2549883 -0.10745092
000020 11 5e 8e bd 79 12 35 00 e7 ac c2 3b 22 76 84 3e
       -0.069515355 4.873908e-39 0.0059410217 0.25871378
000030 a8 68 e8 3d 94 aa 5c 3c 47 4d 0b 80 6a 17 5a be
       0.113480866 0.013468403 -1.037912e-39 -0.21297994
000040 d4 1b 08 80 4f e0 94 bd 4c 16 05 bf fb 6e 7c 3b
       -7.44667e-40 -0.07269346 -0.5198715 0.0038518298
000050 ab 6f 83 3e 0b 4a 8c bd 08 f3 04 3c 7f 1a c2 3c
       0.25671133 -0.0685006 0.008114584 0.023694275
000060 8b 22 bd 3d c0 90 0e 00 ee 09 98 bd e6 ce db 3d
       0.09235104 1.337623e-39 -0.07423769 0.10732822
000070 aa 51 49 be ac 96 06 bd 59 43 21 80 4b cd 98 be
       -0.19660059 -0.032858536 -3.054731e-39 -0.29844126
000080 f5 43 07 80 94 d6 d6 3e 7d f3 00 3e a0 3a da 3e
       -6.67227e-40 0.41960585 0.12592883 0.42622852
000090 b4 f0 3b be 13 3f 2b be 70 3e 97 be 17 c7 bf 3d
       -0.1835354 -0.1672328 -0.29539824 0.09364145
0000a0 e8 d5 58 be ee 2e 2b 00 de 37 55 be 25 f9 bf 3e
       -0.21175349 3.965762e-39 -0.20822093 0.3749477
0000b0 57 a7 c7 3c e6 3d b7 bd 3b cd 04 00 cd 5f b6 be
       0.024371786 -0.08947353 4.40965e-40 -0.35619965
0000c0 c4 30 11 80 3b 18 2f be df f3 fb bd ca 95 c7 bd
       -1.578697e-39 -0.17099087 -0.12302374 -0.09745367
0000d0 f6 10 f2 3e ec 2d 8e be bd a2 05 3e f7 c4 75 bd
       0.47278565 -0.2776941 0.13050361 -0.060002293
0000e0 de 45 25 be 39 e1 05 00 a1 ef eb 3d 2a 67 c9 be
       -0.16139933 5.39972e-40 0.11520315 -0.3933652
0000f0 5c ef e3 3e 0e 0f 91 3e c4 ba 07 80 b5 75 bc be
       0.44518554 0.28331798 -7.09847e-40 -0.36808553
000100 60 af 00 80 4c 63 a9 be 8a 57 75 3e f9 e2 b9 3c
       -6.2913e-41 -0.3308357 0.23959175 0.022691237
000110 74 77 08 3e d0 4c 2f bf 66 5b 34 3e c6 5b 5e be
       0.13326818 -0.6847658 0.1761299 -0.21714696
000120 c0 29 7f bd bb fa 16 00 c6 c0 93 3e c1 5f 2a bd
       -0.062295675 2.110326e-39 0.28858012 -0.041595224
000130 e1 5b 78 be de 01 f8 3d 2f ed 16 00 be 06 84 3b
       -0.24253799 0.12109731 2.105466e-39 0.004029124
000140 23 95 01 00 b8 6c d9 bd 45 0c 4a 3d 8b b1 10 bf
       1.45336e-40 -0.106164396 0.049328107 -0.5652091
000150 cd 83 97 be fa 7f 16 be b5 42 17 3e b5 0f 14 3f
       -0.29592744 -0.14697257 0.1477154 0.5783647
000160 47 81 e5 3e cd 0a 22 80 e8 df d5 3d 99 2a d4 3e
       0.44825193 -3.126281e-39 0.10443097 0.4143875
000170 69 99 e2 3d b7 08 13 3d 36 ae 18 80 fd 44 5c be
       0.11064417 0.035896983 -2.266547e-39 -0.21510692
000180 58 61 0a 80 a9 37 9f 3e 96 f7 63 bd 97 f1 da be
       -9.53275e-40 0.31097153 -0.05565604 -0.42762443
000190 b5 25 ca be 31 9e 8c 3d ba ff 81 bb 7d 09 52 bf
       -0.39481893 0.0686611 -0.0039672526 -0.8204573
0001a0 96 c7 97 3d 60 42 0a 00 b3 46 12 bd d4 2d 75 3e
       0.07411115 9.42166e-40 -0.035711955 0.23943263
0001b0 e2 cf 83 bd 10 10 a8 3e 12 bd 0d 00 6a 05 5f be
       -0.06436135 0.32824755 1.261687e-39 -0.21779409
0001c0 a8 e0 09 80 08 a0 c9 3d 19 7c 74 3e c9 d8 3f bd
       -9.07111e-40 0.09844977 0.23875464 -0.0468376
0001d0 19 d4 03 3f c9 af 11 3f 28 4a 0b be 6c 06 1c 3e
       0.5149551 0.5690885 -0.13602507 0.15236825
0001e0 7a 5e 81 bd 40 ba 0b 80 e9 ce ae 3d 1a a9 e8 be
       -0.06316848 -1.077004e-39 0.08535559 -0.45441514
0001f0 0e 81 6f be 47 16 b3 3d 7f 88 08 80 6f 37 6f be
       -0.23389074 0.087444834 -7.8365e-40 -0.2336099

backbone.1.conv.2.weight f4 [8]
000000 bd f7 02 3f 2b f5 f5 3e 92 42 30 3f 3f 4b 06 3f
       0.5115927 0.4803861 0.6885158 0.52458566
000010 1a 73 06 3f 59 a6 1a 3f d5 62 14 3f 00 6e 03 3f
       0.5251938 0.60410076 0.57963306 0.5133972

backbone.1.conv.2.bias f4 [8]
000000 2c c0 94 38 93 17 6a b4 c4 c0 78 b9 5f 53 d9 39
       7.092985e-05 -2.1801524e-07 -0.00023722934 0.00041451582
000010 42 b5 4e 39 91 82 97 b8 99 68 d6 b8 e5 a0 6f 39
       0.00019713215 -7.224561e-05 -0.00010223798 0.00022852754

backbone.1.conv.2.running_mean f4 [8]
000000 bc 4a f1 3e ee da 6c bf 5b 20 35 3d e4 02 40 be
       0.4712733 -0.9252156 0.04422031 -0.18751103
000010 2b 88 e9 be 9d 86 c8 3e a1 21 2a bf cc fc 26 3f
       -0.456117 0.39165202 -0.66457564 0.6522949

backbone.1.conv.2.running_var f4 [8]
000000 e9 bc ef 3d da b8 fa 3d b8 5c 87 3e 9b a4 9f 3e
       0.11705954 0.12242289 0.26437926 0.31180272
000010 d7 04 51 3e 86 23 b4 3e a6 c2 be 3e c3 01 4a 3e
       0.20412003 0.35183352 0.3725788 0.19727235

backbone.2.conv.0.0.weight f4 [48, 8, 1, 1]
000000 51 a3 ef 3d 6b ca 83 bd f9 5e 19 3e a7 c6 ae be
       0.11701072 -0.064350925 0.14977635 -0.34135935
000010 ed 4c 1d be 92 28 8b 3d ed ac 74 3e e4 c6 26 3d
       -0.15361376 0.067948475 0.23894091 0.04071702
000020 39 70 ec 3d 0a 16 9b 3d 44 49 b9 3d a6 24 f4 3c
       0.11544842 0.07572563 0.090471774 0.029802632
000030 c5 5e 42 bd 11 c2 bf be 6c 80 20 be e1 3a 38 be
       -0.04745366 -0.37452748 -0.15673989 -0.1799121
000040 7c 2c 1f be 58 2c a1 3d 81 a3 1f be 92 1c 15 3e
       -0.15544313 0.07869786 -0.15589716 0.1456168
000050 b9 27 8e bc ee 8e 06 be f5 2d 5e be af af 4c 3e
       -0.017352926 -0.13140461 -0.21697219 0.19988893
000060 6d a2 3b be e8 4d 29 3e 1f c9 29 3e 94 bb e8 be
       -0.1832368 0.16533625 0.16580628 -0.4545561
000070 3d 1d d5 3c af a4 be bd de 80 63 be 22 ce 07 bf
       0.026014918 -0.09308755 -0.22217128 -0.5304891
000080 c0 b8 42 3d 9f b6 02 be b5 0c da 3d 63 8b 81 be
       0.047539473 -0.12764977 0.10646955 -0.25301656
000090 db a4 a9 bd 22 2a cc 3d ad 40 90 3d f9 fe 8f be
       -0.08283397 0.09968974 0.07043586 -0.28124216
0000a0 cb 8d b4 3d b0 1a 34 3d 2a 83 6b 3e 0b 4a cd bd
       0.08816107 0.043970764 0.22999254 -0.10023888
0000b0 54 09 96 bd c0 fb 13 bc e9 19 82 3e 0b 38 c5 bd
       -0.07325998 -0.00903219 0.25410393 -0.0962983
0000c0 81 0c c1 3c b2 e0 3d 3e 54 fd 4e 3e b9 23 25 3e
       0.023565533 0.18542746 0.20213825 0.16126908
0000d0 30 07 bd bd 9b 69 9e be d5 4a a2 bd 12 ce 5a bd
       -0.092298865 -0.30939946 -0.07924429 -0.05341918
0000e0 77 19 8b 3c 4c 5b f3 3d 8b e7 5a 3d 74 52 96 bc
       0.016979916 0.11882648 0.053443473 -0.018349864
0000f0 17 b9 92 3d af 9c b8 3c 07 58 92 bd 7d 40 07 3e
       0.07164209 0.02253565 -0.07145696 0.13208194
000100 08 97 92 bc 60 3a 80 3d ee 05 05 3f 0e 4c 51 3c
       -0.017894283 0.06261134 0.51962173 0.0127744805
000110 5a 5d cf bd 97 70 d7 ba ad a7 20 bc 92 09 87 3c
       -0.10125227 -0.0016436753 -0.009805602 0.016484056
000120 49 37 81 bd bb 05 a4 3e e0 c9 ad bd ed 02 de 3d
       -0.06309373 0.32035622 -0.0848577 0.10840402
000130 49 31 07 be 19 3b 06 3e ff 82 be 3d 34 48 16 bd
       -0.13202395 0.13108481 0.09302329 -0.036689952
000140 18 f5 28 be 51 d5 bf bd 25 7b 95 3d 4a ac cb be
       -0.16499746 -0.09366859 0.072988786 -0.39779884
000150 cc 9b f7 3d ce 5d 8f 3d 0c f2 9c 3c 8d 59 2d bd
       0.12090263 0.07000314 0.019158386 -0.04232173
000160 d9 d6 af bd 77 37 b6 3d 6d 36 9a be 4f 6d 86 3e
       -0.08585901 0.08897298 -0.3011965 0.2625527
000170 53 a8 93 3d 63 b3 24 be 0b 9d 05 be 3c 6e 52 3e
       0.0720984 -0.16084056 -0.13048188 0.20549864
000180 46 72 04 3e a7 9e bd 3d 51 56 48 be f6 ed 07 3e
       0.12934217 0.09258776 -0.19564177 0.13274369
000190 6a ca bc 3d c3 ea 15 3e 0a bb ef bc 55 90 17 bd
       0.09218295 0.14640336 -0.029263992 -0.03700288
0001a0 89 81 a3 3e 83 15 15 be 93 2d 27 bd 9c 92 99 bc
       0.31934765 -0.14558987 -0.040814947 -0.018746667
0001b0 fe f8 6f be ec 29 19 bd cc d4 d2 3d 17 e0 58 3e
       -0.23434827 -0.037393495 0.10294494 0.21179233
0001c0 bd 7d b1 3d c8 fb 41 be 71 05 4d 3c 69 03 c5 3e
       0.08666561 -0.18943703 0.012513504 0.38479164
0001d0 4c 87 dc bc c0 b0 18 3e ae cd d8 bd d7 c9 b3 be
       -0.026919983 0.14911175 -0.10586105 -0.3511493
0001e0 4e c3 bd 3d a4 08 7a 3e 8c 77 42 3e 36 60 38 3e
       0.09265767 0.24417359 0.18990916 0.18005452
0001f0 e6 3f 9a be c8 38 37 be 49 1b 14 3c 13 7f bc bc
       -0.30126876 -0.17892754 0.009039708 -0.023009812
000200 aa 03 9d 3e bb 51 59 3e ae 72 13 3e 6f 95 5d 3e
       0.30666858 0.21222584 0.14399216 0.21639036
000210 4a 84 fc 3d 50 ee d7 3d f3 d2 2d 3e be d0 99 3d
       0.1232992 0.105435014 0.16975002 0.075105175
000220 da 07 11 3d cf 3c 67 3d 10 42 f0 3d 8b f1 b2 bd
       0.03540788 0.056454476 0.117313504 -0.08737477
000230 75 46 70 be 82 f5 4f 3e 5e e5 e6 bc 0b e6 81 3d
       -0.23464377 0.20308498 -0.028185543 0.06342705
000240 c9 dd 64 be 6f 69 5e 3d 5b 80 4d be e0 56 25 3e
       -0.2235023 0.054299768 -0.20068495 0.16146421
000250 b6 55 2b be 3e 19 ec bd 9f d9 53 be 01 5c 92 3e
       -0.16731915 -0.11528252 -0.20688485 0.28585818
000260 fb dc 95 bd 35 54 db 3d f1 ab 76 be 2a 4b b1 3e
       -0.07317539 0.107094206 -0.24089028 0.34627658
000270 48 c6 ba 3d 66 2d 5c be 3f 7a 22 be 4b 2a e8 3e
       0.091198504 -0.21501693 -0.15866946 0.45344767
000280 a1 a9 b9 3d 83 de 45 3e ae 3c 60 3e 46 c6 73 3e
       0.09065557 0.19323163 0.21898147 0.23806104
000290 c2 e1 b5 3c 85 c5 e2 3d f3 dc 1d 3e a5 5b e5 3d
       0.022202376 0.1107283 0.15416317 0.111991204
0002a0 9c 4e 48 3d c4 75 b5 bd 22 3e be 3d cc 94 ca be
       0.048903093 -0.08860353 0.09289195 -0.39566648
0002b0 7f a4 12 3e 3f 6c 41 bd 28 a8 aa be 63 87 5e bc
       0.14320563 -0.047222372 -0.33331418 -0.013582083
0002c0 db ef ae 3d b8 f0 f5 3d c1 ce ba 3c d2 c4 60 3d
       0.085418426 0.12008804 0.022803666 0.054875202
0002d0 64 d2 74 be d3 3d 92 bd 2f 75 04 bd 0f 6c eb bd
       -0.23908383 -0.07140698 -0.032338317 -0.1149522
0002e0 14 a5 8d 3e 9e a7 2d bd ad 56 bb 3d 62 2f e1 3d
       0.27665007 -0.04239618 0.091473915 0.10995366
0002f0 97 3c 22 3d af 66 4f bd fe 67 08 be a6 f1 a3 bb
       0.039608564 -0.050635036 -0.1332092 -0.005003172
000300 6c 72 1b be c1 32 14 be 37 5c a2 3d 7f e4 41 3e
       -0.15180367 -0.14472486 0.07927745 0.1893482
000310 fa d0 5c be a5 1a 62 bd 8a 44 8e 3d 02 78 6b bd
       -0.21564093 -0.05520119 0.069466665 -0.057487495
000320 83 54 6c bd a6 c6 e8 be 92 c8 53 3e f6 a7 5e bd
       -0.057697784 -0.45464057 0.2068198 -0.0543594
000330 03 7a e6 3d 56 e0 d7 bd 53 b9 60 3b d0 5e 8e 3e
       0.11253741 -0.105408356 0.003429015 0.2780671
000340 92 d3 4d be c0 c3 b1 bc d3 a3 67 3e 9b 8b 6f 3c
       -0.20100239 -0.021699786 0.22621088 0.014620687
000350 da e6 48 be d7 b7 55 ba 4a eb 2f 3e 3e 48 fe 3d
       -0.19619313 -0.00081526994 0.171796 0.12416123
000360 18 82 62 be 74 5b 0b 3a f1 ba a4 bd 0a 76 91 3e
       -0.2211994 0.0005316057 -0.08043469 0.2841037
000370 9b b6 da 3d 69 3f a5 3d 0f 09 af 3e 73 c6 e5 3d
       0.106793605 0.08068735 0.341866 0.11219492
000380 97 30 ae 3e f5 5d 33 bd 56 54 76 be 76 65 0e bd
       0.34021446 -0.043790776 -0.24055609 -0.03476473
000390 0a 36 f2 bc 0b 01 7c be b9 06 1d 3c 69 81 51 3e
       -0.029566783 -0.24609773 0.009584122 0.20459522
0003a0 16 65 80 3d 23 71 d2 3b 98 16 54 3e 09 d7 48 3e
       0.062692806 0.0064221784 0.20711744 0.1961328
0003b0 eb 71 e3 3d 68 0a ae 3d 37 c8 5c bd 50 a3 89 3d
       0.111057125 0.084980786 -0.053901877 0.067206025
0003c0 63 cf 83 be da c1 80 bd e0 d5 8b be 79 29 98 bd
       -0.2574416 -0.06286974 -0.2731161 -0.07429785
0003d0 ff 4c 4a be 2b 30 f8 3e b6 61 82 3d a3 b7 31 3e
       -0.19755934 0.4847425 0.06366293 0.17355208
0003e0 08 86 20 3e 39 13 53 bc 92 f0 2c 3d 3f c5 28 be
       0.15676129 -0.012883001 0.042221613 -0.16481493
0003f0 5e 20 84 be a2 78 c6 3d f8 c3 2a 3b 26 c6 8c 3e
       -0.25805944 0.09690978 0.0026056748 0.27494925

backbone.2.conv.0.1.weight f4 [48]
000000 94 93 e6 3e b7 d5 ae 3e c3 c9 f5 3d 5f f1 26 3e
       0.45034468 0.34147426 0.120013736 0.16303013
000010 de 1d 15 3e fe 05 a0 3d 47 3e a2 3e 95 75 3b 3d
       0.14562175 0.07813643 0.3168814 0.04576643
000020 0b a2 bc 3e cc 8f f3 3d 52 32 79 3e c3 4b cc 3e
       0.3684238 0.118926615 0.24335602 0.39901552
000030 f4 79 b3 3d b9 4a 1b 3e 32 5e 13 3e ad fd be 3e
       0.08763495 0.15165223 0.14391401 0.37302914
000040 9d 88 26 3e c3 de 56 3e 67 ae bd 3e d2 b4 89 3e
       0.16263051 0.20983414 0.3704712 0.26895767
000050 74 b7 79 3e 8f 14 0f 3e 23 63 1f 3e 5e 87 26 3e
       0.24386388 0.13972686 0.15565161 0.16262576
000060 ef 60 16 3e 88 1e 3d 3e 5e 7f 1a 3e 9b 59 87 3e
       0.14685415 0.18468678 0.15087649 0.2643555
000070 86 70 ab 3d 5c b2 72 3d a0 7c ea 3e ed ac c5 3d
       0.083710715 0.059252128 0.45798206 0.096521236
000080 06 8d 83 3e fa 80 b9 3e d7 cf a5 3e 1f be 6c 3e
       0.2569353 0.36231214 0.32385132 0.231194
000090 16 fd b1 3e 9f 49 ce 3e bd 0d 40 3e bd 41 ce 3e
       0.34763402 0.40290543 0.1875524 0.4028453
0000a0 f6 95 ee 3e cc b9 14 3e 72 4b d2 3d 16 14 58 3e
       0.46598786 0.14524001 0.10268296 0.21101412
0000b0 39 c2 57 3e 27 00 8a 3e 28 90 ae 3e a6 8d 61 3d
       0.21070184 0.2695324 0.34094357 0.055066727

backbone.2.conv.0.1.bias f4 [48]
000000 75 cd db bc 98 eb 15 3d e8 b9 7c 3e 98 4e c4 3e
       -0.026831368 0.036601633 0.24680293 0.38341212
000010 cb f6 8f 3e 3b c7 96 3e 81 6c 87 3b 65 3d 44 3d
       0.28117976 0.29448876 0.0041328077 0.047910113
000020 41 9b 61 bd 36 a8 23 3e 42 fc df bc c5 94 72 3d
       -0.055079702 0.15982136 -0.027341966 0.05922391
000030 d0 4e 4d 3e 52 6c 27 3e 97 78 4f 3e 26 8d 89 bd
       0.20049596 0.16349915 0.20260845 -0.06716375
000040 45 8c dd bd c3 19 13 3e 4f 9a 75 3d 43 32 99 3e
       -0.1081777 0.14365296 0.059961613 0.2992116
000050 52 49 87 3e 8a de 23 3e 03 4f 23 3e cc 15 4c 3e
       0.26423126 0.1600286 0.1594811 0.1993019
000060 2c b1 25 3e f8 7d 7e 3c 65 10 11 3e c5 b3 ae be
       0.16180867 0.015532963 0.1416641 -0.34121528
000070 12 2d 8e 3e 26 78 7e 3e 14 bf c6 bc da 9b 50 3e
       0.2776876 0.2485052 -0.024261035 0.20371953
000080 29 38 4e 3d a5 cf b8 3c 24 9e 9c 3d 47 ec 1e 3e
       0.050346527 0.02255995 0.076473504 0.1551982
000090 1d e6 2f bd 7a b9 10 3d 5e 72 29 3e 70 99 42 3d
       -0.042944063 0.035333134 0.16547534 0.04750961
0000a0 df 7d 92 3c 5c 32 33 3e 3d 03 9b 3e 60 3f 06 3e
       0.017882286 0.1749968 0.30275908 0.13110113
0000b0 6b e1 04 3e db e5 80 bd 24 10 3f 3e 86 3a 7e 3e
       0.12976615 -0.062938415 0.18658501 0.24827012

backbone.2.conv.0.1.running_mean f4 [48]
000000 37 e7 aa b7 26 a7 f1 b7 7b c6 87 b8 8a 7c 18 b8
       -2.0373247e-05 -2.8807273e-05 -6.4742715e-05 -3.635561e-05
000010 9c 0e e3 37 c0 be 17 b7 77 65 99 b8 22 62 1b b7
       2.7067312e-05 -9.044714e-06 -7.314508e-05 -9.261568e-06
000020 16 09 93 b8 be dc 29 b8 04 d3 91 b6 14 f8 a3 b7
       -7.0111986e-05 -4.0498322e-05 -4.345902e-06 -1.9546635e-05
000030 e4 18 9e 38 2b a9 c0 35 c7 3b c5 38 19 fc c9 b8
       7.538663e-05 1.4354349e-06 9.4048264e-05 -9.631384e-05
000040 ef cc 98 38 66 19 43 b8 e4 2d ea b8 55 6e 48 b8
       7.286097e-05 -4.6515277e-05 -0.00011166537 -4.778647e-05
000050 00 5f 39 36 c0 81 7c 37 fb 95 3b b8 d8 fd 67 38
       2.7622445e-06 1.505058e-05 -4.4723954e-05 5.5311102e-05
000060 29 dc 7b b8 7d 5f 63 b4 0b 7c da b8 b5 56 96 36
       -6.0048103e-05 -2.1175761e-07 -0.00010418155 4.4804424e-06
000070 58 c9 f3 37 e0 1f 03 38 02 85 05 b8 10 cc 5c b8
       2.9061615e-05 3.126252e-05 -3.1833544e-05 -5.2642135e-05
000080 8b 24 f6 b5 70 15 71 37 31 76 8b b8 85 79 74 b8
       -1.8339064e-06 1.4369711e-05 -6.6500514e-05 -5.8287307e-05
000090 af 2e 35 38 0e 0d 1d b8 64 96 f6 b8 3b 80 b6 36
       4.319724e-05 -3.7443875e-05 -0.000117582065 5.4389507e-06
0000a0 22 4c ff 36 4c f3 27 b9 88 17 53 37 9e ce 06 b7
       7.6084552e-06 -0.00016016996 1.2582059e-05 -8.035129e-06
0000b0 c6 96 ac b8 03 96 24 39 5b 80 a3 38 22 e4 08 38
       -8.229683e-05 0.00015696143 7.796354e-05 3.2637392e-05

backbone.2.conv.0.1.running_var f4 [48]
000000 2f d8 09 3e 3d 6e 95 3d 02 34 cb 3d d0 18 20 3e
       0.13461374 0.07296417 0.09922029 0.15634465
000010 a2 8d d5 3d 5e 40 c9 3d 9f 1c ac 3d 53 3d 60 3c
       0.10427405 0.0982673 0.084038965 0.013686496
000020 0d 1b 0e 3e cc 6d 09 3d 35 4f 99 3d 3a 13 32 3e
       0.13877507 0.033551976 0.07485811 0.17390147
000030 d9 da 23 3d 0c 29 9b 3d 11 60 8c 3d 10 5b bb 3d
       0.04000363 0.075761884 0.06854261 0.09148228
000040 8b cf 43 3d 42 0d 78 3d 90 4c ff 3d 5f 76 8d 3e
       0.04780535 0.06055952 0.12465775 0.27629372
000050 f5 ee 0d 3d 1b 2a 73 3d 5f f7 e9 3c 4c 43 e7 3c
       0.034651715 0.059366327 0.028560339 0.028230332
000060 e7 76 b2 3c 42 b7 80 3d 91 d3 3d 3d 46 d4 7d 3d
       0.021785213 0.06284954 0.046344344 0.061970018
000070 ee 56 d3 3d f0 24 a5 3c 94 a1 3c 3e 66 da 9d 3d
       0.10319315 0.020159215 0.18421012 0.07707672
000080 cd 93 77 3d 2e c5 c7 3d 4a 55 01 3e e5 e1 a0 3d
       0.06044369 0.09754406 0.12630191 0.07855586
000090 cf e6 29 3e 99 2d 20 3e 2e fd 30 3d a9 8d 1a 3e
       0.16591953 0.15642394 0.0432102 0.15093102
0000a0 bb c5 13 3d d9 26 0d 3e a0 70 76 3d 10 c8 bf 3d
       0.036077242 0.1378435 0.060166 0.09364331
0000b0 9b 97 a8 3d e7 b8 0a 3e 08 39 10 3e 24 a0 b8 3d
       0.082320414 0.13547097 0.14084256 0.090149194

backbone.2.conv.1.0.weight f4 [48, 1, 3, 3]
000000 89 2f 41 bb db af 48 be fb 5a 60 be d6 05 6a ba
       -0.0029477796 -0.19598334 -0.21909706 -0.0008927261
000010 71 6f 43 be 34 84 23 be a4 85 2e 3d 71 a5 c6 bd
       -0.1908548 -0.159684 0.04260792 -0.09699524
000020 c8 00 7e bd b3 fc 6f bd 15 63 a1 bc 34 a3 15 3d
       -0.062012464 -0.058590602 -0.019700566 0.036532596
000030 09 ff 3c be 14 07 59 be 00 d1 16 be 8a 8c b4 bd
       -0.18456663 -0.21194106 -0.14728165 -0.08815868
000040 11 4c b4 bd cc 73 e3 bd a2 46 f6 bd 8e 65 91 bd
       -0.08803571 -0.11106071 -0.12025191 -0.07099448
000050 df 8a bb bc d6 e7 48 3e 73 af e2 3e 70 10 83 3e
       -0.022893367 0.19619688 0.44274482 0.25598478
000060 65 f5 f4 bc db 60 b5 bd b2 6c 8c be 54 84 ff 3d
       -0.02990217 -0.08856364 -0.27426678 0.124764115
000070 15 36 5d 3e 17 37 d3 3d 74 f3 83 3e 0f 4c da 3e
       0.21602662 0.10313242 0.25771677 0.42636153
000080 ee c4 99 3d cf 0d 0f 3e 3c 91 fc 3d 09 ea 04 bc
       0.075082645 0.13970111 0.12332389 -0.008112439
000090 19 a8 a2 bd 22 c5 b6 be 78 23 90 be d2 e9 11 bc
       -0.07942218 -0.35697275 -0.2815206 -0.008905845
0000a0 90 63 ea bc 2c 04 57 3d 1c b5 72 3d 73 d4 85 3e
       -0.028611928 0.052494213 0.05925475 0.26138648
0000b0 63 5f 60 3e 63 91 b8 3d b1 5c 8f 3e 13 ff fd 3d
       0.21911387 0.09012105 0.28000405 0.12402167
0000c0 7f 94 4e bc 36 9a 91 bd ae 48 69 bd 6b c9 ea bd
       -0.012608646 -0.071094915 -0.05695408 -0.11464199
0000d0 5f c9 6c be 76 36 91 be c1 7f 08 3d c3 1e 7c bd
       -0.23123692 -0.28361863 0.03332496 -0.061552774
0000e0 8e bb d0 bd a3 31 b6 3d 69 f9 1d be 94 78 ab be
       -0.10192023 0.08896186 -0.15427174 -0.3349043
0000f0 b4 52 95 3d 81 a7 f4 bc 55 fc 8b be e9 03 bf bd
       0.07291165 -0.029865028 -0.27340952 -0.09326918
000100 31 fa 90 3b cf b2 22 bc 6f 8e de bd 33 96 92 3d
       0.0044243564 -0.009930327 -0.10867011 0.071575545
000110 95 a2 23 bd fb a0 11 be c9 d9 ce 3c 7c fe a6 bd
       -0.039949972 -0.14221565 0.025250332 -0.08154008
000120 63 b9 5e bd 11 3b 47 3d 1a 84 e0 3d c6 eb 99 3d
       -0.054376017 0.048640314 0.109626964 0.07515673
000130 24 81 55 3e 22 f5 50 3e 02 98 5e 3e 8b bf 96 3e
       0.20850044 0.20406011 0.21737674 0.2944301
000140 c7 58 b6 3d dd 15 26 be ce da 64 3e 2b cc 72 bd
       0.08903652 -0.16219278 0.22349092 -0.05927674
000150 10 84 38 3d 97 c9 07 3e c7 a0 78 3c 4b bb 01 3e
       0.04504782 0.13260494 0.015175051 0.12669103
000160 45 83 c3 be 90 97 81 3d 32 33 d6 3d 5e 7c af 3d
       -0.38186088 0.063277364 0.104589835 0.08568643
000170 ed 9f 97 3c 1c 17 37 3d 1b c2 30 3e 07 b5 ce 3d
       0.018508876 0.044699773 0.17261545 0.10093122
000180 4a ee 9d 3c 9d 77 13 3e fc 1a 40 3e 28 4c d0 bd
       0.019278664 0.14401098 0.18760294 -0.10170776
000190 94 7e 66 be d6 7e 28 bc 49 c5 5c be 69 f5 92 be
       -0.22509223 -0.010284146 -0.21559633 -0.28702858
0001a0 a9 9f 34 3c c5 3e ac bd 54 81 8b bd c5 67 6c 3c
       0.011024394 -0.0841041 -0.06811777 0.014429037
0001b0 ef 48 ac bc 73 76 e3 3d 41 f3 1f 3d 8a 3e 0a 3e
       -0.021030871 0.11106577 0.039050344 0.1350042
0001c0 6e 0a d8 be ff b1 6d bc 2f 78 e3 bd d0 78 8c 3e
       -0.42195457 -0.01450777 -0.111069076 0.27435923
0001d0 12 83 e0 b9 85 1d 85 bd e8 9c d7 3d f2 e9 a4 bd
       -0.00042822264 -0.06499771 0.10527974 -0.08052434
0001e0 e8 7e 27 be ab 25 ac 3e 16 5e 00 be 3c 97 d1 3c
       -0.16357005 0.33622488 -0.12535891 0.02558481
0001f0 ed d5 56 3e 83 61 71 be ea 95 58 bd 4f 7a 73 bd
       0.20980044 -0.23572354 -0.052877344 -0.059442814
000200 98 80 48 3d a4 c1 2d 3e 1a 6c b3 3e 15 c3 ce 3d
       0.04895076 0.169684 0.35043412 0.10095803
000210 19 76 f3 bd d1 c9 a3 be 57 2a fc bd ed 0a c5 bd
       -0.1188776 -0.3198991 -0.12312763 -0.096212246
000220 db 2d 8b bd f3 84 00 3e aa 6d 14 be 7a de 8d be
       -0.067958556 0.12550716 -0.14494959 -0.277088
000230 88 ef 87 bb 40 b1 12 3d 1f 37 95 be 9a 38 1c bd
       -0.0041484274 0.03581357 -0.29143617 -0.038139917
000240 73 8e 96 bd 49 a3 13 bd 4b 61 14 3e 1a b4 71 3c
       -0.07351389 -0.036044393 0.1449024 0.014752412
000250 ea 79 3c 3e ae f5 44 3e 58 2d ed 3d 75 bd 11 3e
       0.18405882 0.19234344 0.11580914 0.14232428
000260 8c d1 18 3e 6a 85 64 3e fc 2b 13 3e 1b 21 49 3d
       0.14923686 0.22316518 0.14372247 0.049103837
000270 90 b5 3f 3e 88 cc 0a 3e 4b a6 02 3d 3f 85 91 3d
       0.18721604 0.13554585 0.03189687 0.07105493
000280 65 76 ef 3d 81 e2 26 3c f1 73 12 be ac 2f bb 3b
       0.11692504 0.010185839 -0.1430204 0.00571247
000290 c1 04 b0 3d b5 90 13 be 8d ad 9a be f8 12 bb bd
       0.08594657 -0.1441067 -0.30210534 -0.091344774
0002a0 d1 fa f8 3d 1c 24 c7 bd 29 c7 b6 bd 4e 5e 00 bd
       0.121572144 -0.09723684 -0.089247055 -0.031339936
0002b0 aa ac 0f be 36 50 a8 bd 18 ee a8 bd 8b 88 98 be
       -0.1403071 -0.08218424 -0.08248538 -0.29791674
0002c0 75 3b cd bd 81 3b dd 3d ed c6 7c be 32 19 14 be
       -0.10021106 0.10802365 -0.24685259 -0.14462736
0002d0 81 26 15 3d ce 1c a6 3d 1a 4b 29 3d 99 39 df 3d
       0.036413673 0.08110963 0.041331388 0.10899658
0002e0 4b d3 ad 3e 9a 57 f6 3c 12 18 2a 3e 0c de 2a 3e
       0.33950266 0.030071069 0.16610745 0.16686267
0002f0 c6 dd 5b be f2 fa 34 be 0c 2e a2 bd e0 79 02 3e
       -0.21471319 -0.17673853 -0.07918939 0.12741804
000300 c7 24 83 be b7 ac 15 be 4c fa 59 3e 00 16 22 be
       -0.25613996 -0.14616667 0.21286887 -0.15828705
000310 96 e3 32 be 5e 88 1d 3d 6d c4 31 3d 37 f7 9e be
       -0.1746963 0.038460128 0.043400217 -0.31047985
000320 c3 49 fe 3c df 32 55 be 6d 13 f3 3e d8 15 ec bd
       0.031041032 -0.20820187 0.47475758 -0.11527604
000330 fc 00 08 3e 69 ae 1a be 42 1d 05 3d 52 f1 bb bb
       0.13281626 -0.15105595 0.032498606 -0.0057355547
000340 61 b8 b8 3d 98 1e 94 bd f7 b1 55 3d 05 a6 fd be
       0.090195425 -0.07232398 0.052171674 -0.49540725
000350 d2 49 a5 3e fe 52 04 bc 2f 7c a7 3e 2e 57 78 be
       0.32282883 -0.0080764275 0.32711932 -0.24252006
000360 8f ff db bb 9f 29 2a 3b da a1 24 3e dc 4d f2 bd
       -0.0067138146 0.002596475 0.16077366 -0.11831257
000370 13 b2 9b be a3 f2 63 be 53 93 2e 3e e9 c0 89 3e
       -0.30409297 -0.22260527 0.17048387 0.2690499
000380 28 b8 54 3d f0 be 82 3c 31 83 22 3e f7 88 21 3e
       0.051933438 0.015960187 0.15870358 0.15774904
000390 5a 57 03 3d fd b0 75 3e e9 f1 40 3e a5 af a7 3c
       0.032065727 0.23993297 0.18842281 0.020469496
0003a0 32 8b 99 3e c5 27 8f 3d d6 00 56 bb ac e2 43 be
       0.2998901 0.06990007 -0.0032654307 -0.19129437
0003b0 4a 57 a4 bd b8 d2 13 3e 2d 40 a2 3e 9d 86 03 3e
       -0.080244616 0.14435852 0.31689587 0.1284432
0003c0 b7 01 f2 bd 68 f7 26 be d4 30 5a bd 33 20 b4 3d
       -0.11816733 -0.16305315 -0.053269222 0.08795204
0003d0 20 75 38 3e 3e b7 85 3d 17 3b 56 3d fd 51 8f 3e
       0.1801343 0.06529091 0.052302446 0.2799224
0003e0 4b cc 03 3e 20 ff 10 3a 39 67 5d 3d 01 18 12 bd
       0.128709 0.00055311806 0.05405352 -0.035667423
0003f0 74 a5 2f 3d f1 cb 3f 3e 98 35 10 3e c5 a3 48 3d
       0.042882398 0.18730141 0.14082944 0.048984308

backbone.2.conv.1.1.weight f4 [48]
000000 41 85 05 3f fb 3a ad 3e bd 18 bc 3e 1b cc 54 3e
       0.52156454 0.3383406 0.36737624 0.20780985
000010 cb 48 c4 3e 1e bf bb 3e 89 8a 26 3e c2 9a 45 3e
       0.38336787 0.36669248 0.16263784 0.19297317
000020 08 fa 40 3e ad 59 87 3e b0 bc 41 3e 5c ac fe 3e
       0.1884538 0.26435605 0.18919635 0.49740875
000030 e5 ab 9e 3e 06 4c 81 3e e5 63 c3 3e 56 23 8f 3e
       0.3099052 0.25253314 0.3816215 0.27956647
000040 b7 bd 8e 3e 40 34 96 3e 3c 3d 0b 3f c2 6d 12 3f
       0.27879116 0.2933674 0.5439031 0.5719873
000050 65 06 56 3e 5c 56 85 3e 41 84 96 3e 83 d1 87 3e
       0.20900877 0.2604245 0.29397777 0.26527032
000060 be c6 b4 3e eb 79 65 3e 2d 66 c0 3e 4e 28 52 3e
       0.35307878 0.2240979 0.37577954 0.20523188
000070 27 a3 69 3e 0d 36 4f 3e 90 d9 13 3f 71 ed 77 3e
       0.22816144 0.20235462 0.5775385 0.2421167
000080 8b 9d 9b 3e 25 a6 59 3e 5c 9b 51 3e 0f 1f b3 3e
       0.30393633 0.21254785 0.20469421 0.34984633
000090 d3 7e 5c 3e 7e 70 c6 3e 57 e4 a1 3e a5 d6 b7 3e
       0.21532755 0.387577 0.31619522 0.35905948
0000a0 ad 48 cb 3e 32 6f 7d 3e e0 06 d6 3e 85 a3 b5 3e
       0.39703885 0.24749449 0.4180212 0.35476318
0000b0 8b 74 af 3e 8a b8 14 3e d8 24 bb 3e 70 3f a7 3e
       0.34268603 0.14523521 0.36551547 0.32665586

backbone.2.conv.1.1.bias f4 [48]
000000 c3 d1 dc bc 78 66 bc bd 88 6b 9b 3c 2e ec 3c 3f
       -0.026955491 -0.09199232 0.018972173 0.7379788
000010 12 9f 51 3c bb 27 21 3c 66 69 1d 3f cf 06 74 be
       0.012794273 0.009836133 0.6148895 -0.23830722
000020 3f 3e b0 3d e7 6d 95 bd 78 ff 31 3d 12 26 59 3e
       0.086056225 -0.07296353 0.043456525 0.21205929
000030 a6 3a 33 bc a3 b5 04 bd 02 6d c1 bb 22 17 94 3c
       -0.010939276 -0.032399785 -0.0059028873 0.018077437
000040 ef 0e c3 3d 1c 85 d2 bd 24 4b d1 3d 27 51 6f bc
       0.09524333 -0.10279295 0.1021941 -0.014606751
000050 28 5c e1 3e dc be 5c bd fe 98 30 bc 29 ed 97 bc
       0.44015622 -0.053892955 -0.010778664 -0.018545704
000060 30 42 54 bb 3f c9 3d 3d 2a 5a 9a bc 0a 31 c3 3d
       -0.0032388084 0.0463345 -0.018841822 0.09530838
000070 78 4d 8c 3e fa 08 14 bd 22 60 8f bd b3 f8 1a 3b
       0.27402854 -0.036141373 -0.07000758 0.0023646771
000080 28 2b 42 3b 93 80 2c 3f 9e 21 20 3f b2 1a 45 bd
       0.0029627774 0.6738369 0.62551296 -0.04812116
000090 77 ab 18 3f 28 ab c1 3e 4b dd 01 ba 39 59 77 3e
       0.59636635 0.37825894 -0.00049539347 0.2415513
0000a0 92 ca 7b 3e c9 da e7 3b 77 c9 74 ba 83 58 9f bc
       0.24588993 0.007075642 -0.0009337882 -0.019451385
0000b0 86 e5 b1 bd ff 7c 28 3e 48 f3 c0 3d dc c7 af bd
       -0.08686356 0.16453932 0.09421402 -0.08583042

backbone.2.conv.1.1.running_mean f4 [48]
000000 28 51 de bd 27 99 c9 bd 18 b8 93 3d 9f 5e 0d 3f
       -0.10855323 -0.098436646 0.072128475 0.55222505
000010 63 85 36 bd d3 2a af bd bc 42 a6 bd 28 ad 8b bc
       -0.0445608 -0.0855309 -0.08118197 -0.01705034
000020 8e 86 ef 3d a6 cb 9e ba 16 14 5b 3d 23 ba 14 be
       0.11695586 -0.0012115135 0.053485952 -0.1452413
000030 bd aa 31 bb 52 1e 97 bb dc ff 87 b9 d2 d7 83 bd
       -0.0027109825 -0.0046117688 -0.00025939837 -0.06437649
000040 fb 2f 96 3c 82 3e 18 3e 3a 5b c4 bd 3e cd a3 be
       0.018333426 0.14867595 -0.095877126 -0.31992525
000050 b2 aa 4a 3e 2e 3f d0 bd 90 0d 47 bc c6 aa b6 bb
       0.19791678 -0.101683006 -0.01214923 -0.005574557
000060 ca a5 06 ba c9 1f 95 3d a3 05 a9 bb ab 20 89 3b
       -0.0005136399 0.07281453 -0.0051581427 0.0041848025
000070 ba 05 8d 3e c0 38 df 3c 45 a5 13 be 18 d0 d1 3d
       0.27543432 0.02724874 -0.14418514 0.10244769
000080 81 8b 73 3d 4f d3 02 be e5 bf 34 be e4 fa 8d 3c
       0.059459213 -0.1277592 -0.17651327 0.017331548
000090 0b 3a c2 bd 30 91 1c be e2 94 1e bc be 66 3b 3e
       -0.09483727 -0.1528976 -0.009679051 0.18300912
0000a0 be 11 1d be 58 0c 46 3e ea a9 90 bd 8c 54 90 3d
       -0.153388 0.19340646 -0.070636585 0.07047376
0000b0 ac 98 e2 3c 73 6f b9 3d 54 74 72 be 85 c9 75 3d
       0.02766069 0.090544604 -0.23677188 0.060006637

backbone.2.conv.1.1.running_var f4 [48]
000000 36 31 dc 3c a6 b3 67 3c 92 ac a0 3b bf 1c c8 3c
       0.026878934 0.014141953 0.0049033845 0.02442777
000010 55 90 3c 3c 41 2e 6f 3b 3f 4c a4 3c 99 0c 19 39
       0.011509021 0.0036496075 0.020055888 0.0001459591
000020 18 12 2d 3d 6d 98 a0 3a fe a0 8e 3b 5d 18 21 3d
       0.042253584 0.0012252458 0.004352688 0.039329875
000030 23 59 9d 3a cc 1e 81 3b bc 2d 31 3c 7a e2 5c 3c
       0.0012004714 0.003940439 0.010814127 0.013481731
000040 e0 36 16 3b 38 fd 62 3c 47 30 99 3c ad 43 f2 3c
       0.0022920892 0.013854317 0.018699778 0.029573286
000050 ed bb 78 3c 11 68 d4 3b 81 af 47 3b f4 77 c8 3b
       0.015181524 0.0064821322 0.0030469599 0.006117815
000060 f4 b0 0e 3c 92 c8 13 3c 93 40 b4 3b 55 3c a7 39
       0.008709181 0.009019988 0.005500862 0.00031897673
000070 10 b9 54 3b 6f 36 8e 39 4e a3 24 3d 9d 1c 34 3b
       0.0032458939 0.00027124907 0.040194802 0.0027482875
000080 08 50 b6 3b 25 20 f1 3c 40 da 06 3d 1c 07 34 3c
       0.0055637397 0.029434273 0.032922983 0.010988023
000090 6c 54 24 3c fd b6 52 3d c4 b6 7a 3b d1 3c c1 3d
       0.010029893 0.051444042 0.003825591 0.09435428
0000a0 0c 22 4c 3d c6 51 aa 3b 5c 7b 83 3b 32 45 ec 3b
       0.049837157 0.0051977364 0.0040125083 0.007210397
0000b0 3b 41 bf 3b 7d 9d 1c 3c a8 e2 8e 3c 11 47 c0 39
       0.0058366335 0.0095590325 0.017442062 0.00036674042

backbone.2.conv.2.weight f4 [8, 48, 1, 1]
000000 6d ee 06 3e 8a 48 87 3e 92 e5 14 3c b1 e5 34 3e
       0.1317689 0.2642253 0.009087937 0.17665745
000010 c9 26 bd 3e fc 9a 97 bd 20 39 2e 3e 00 04 28 be
       0.36943653 -0.07402608 0.17013979 -0.16407776
000020 f8 ad d4 bd c9 1f ce bd de 3b 82 3d d6 e9 b1 3e
       -0.103847444 -0.10064656 0.06359075 0.34748715
000030 22 2d 82 3c d3 c0 82 bd 87 2a d0 3d 59 9c 8e 3e
       0.015890662 -0.063844346 0.101643614 0.2785366
000040 02 2b 5c be 5d ca 6a ba c4 8c a0 3e 72 11 c5 3e
       -0.21500781 -0.0008956546 0.31357396 0.38489872
000050 31 e9 63 bd 23 54 21 bd 9b 80 12 bb 22 d5 04 3d
       -0.05564231 -0.03938688 -0.0022354487 0.03242982
000060 da 20 24 3e af 43 03 bd 81 5f 18 3e ad e9 2c be
       0.16028157 -0.03204697 0.14880182 -0.16886015
000070 b4 cd 32 be 76 89 ea bc c2 94 92 bd 11 41 1a 3b
       -0.17461282 -0.02863 -0.071572796 0.0023537318
000080 f4 b9 97 bd 34 1a 95 3e 50 4e 25 3e 47 06 bf bd
       -0.074085146 0.29121554 0.16143155 -0.09327369
000090 71 2d 55 3e 92 e0 8e 3e 29 3c 6f 3d 25 7b 6e bd
       0.20818116 0.2790571 0.058406983 -0.05822291
0000a0 4e 9f f5 3d cb 8e e8 bc 3a 4b 2b 3e e2 1b 10 be
       0.119932756 -0.028388401 0.16727915 -0.14073136
0000b0 c8 80 5b bd a1 0b 3d be b6 c5 f7 3c 7a 2e 05 bd
       -0.053589612 -0.18461467 0.030245643 -0.032515027
0000c0 49 f6 49 3d d4 75 65 3e 2b 60 85 3e 35 76 a3 be
       0.04930714 0.22408229 0.26049933 -0.31926122
0000d0 06 8a 2a 3e c1 95 64 3e a7 e6 07 3e 01 4d 84 bc
       0.16654214 0.22322752 0.1327158 -0.01615
0000e0 c5 fc bb bc 39 0a 3e bd 2c 22 83 3d 7c 62 1d be
       -0.022947678 -0.046396468 0.06403002 -0.153696
0000f0 2c c9 41 bd 9d da 1e be 10 96 c6 3d d8 a6 28 3e
       -0.047310993 -0.15513082 0.09696591 0.16469896
000100 c2 0a cd bd 57 4a 93 3d 7e 6c d3 bd 3f 0b 0d bd
       -0.100118175 0.071919136 -0.103234276 -0.034434553
000110 cc 8d ce bd ba 40 6b be 63 e9 6a 3c 8e 18 05 bd
       -0.10085639 -0.2297391 0.01433787 -0.03249412
000120 b0 d7 a0 3d 8e 23 a1 bd 9a 8b 37 3e 6b 7b 46 bd
       0.07853639 -0.0786811 0.17924348 -0.048457544
000130 bf d5 4a 3e 39 7e 5f bd c8 17 4c 3d 3d 2c 40 be
       0.198081 -0.054563735 0.049827367 -0.18766876
000140 b3 12 e9 bd dd d0 09 3e cb c8 72 bd 3d 73 e8 bd
       -0.1138052 0.13458581 -0.059273522 -0.11350105
000150 cd af da 3e e6 78 b5 be dc b8 a6 3c cc 4e 94 be
       0.4271225 -0.354438 0.02035182 -0.28966367
000160 12 77 0f be 08 30 e8 3d 4e c7 f9 bc bd 57 17 be
       -0.14010265 0.11337286 -0.030490544 -0.14779563
000170 8f cd f5 bd 86 eb 32 be 1b b5 79 bd 41 28 4a be
       -0.12002098 -0.17472658 -0.06096373 -0.19741918
000180 d9 99 12 3e 97 5d d3 bb 54 f6 bf 3c 0e 87 81 be
       0.143165 -0.0064503658 0.023432888 -0.2529835
000190 f5 04 41 3e 4c 21 81 be 75 3e f6 bd 0e 30 d5 3c
       0.18849547 -0.25220716 -0.120236315 0.02602389
0001a0 c6 85 00 be 6d bc 3b 3e 8f fa 1f bd b9 c0 a0 be
       -0.1255103 0.18333597 -0.03905731 -0.31397036
0001b0 b9 bc 93 3e 15 62 55 be 04 f1 da bd 10 f9 be 3c
       0.2885492 -0.20838197 -0.10690501 0.023312122
0001c0 7c cd 1d 3e d0 f8 a2 bd 43 44 9e 3d 75 73 a9 3d
       0.15410417 -0.079576135 0.07727864 0.08273975
0001d0 58 8f 7d 3d fc 44 16 bb b2 35 7a 3e c4 dc 71 3e
       0.06190428 -0.0022929301 0.24434546 0.23619372
0001e0 d5 41 dc bd fa 4a 25 be 5d f2 1b be d6 e5 2c 3e
       -0.10754744 -0.16141883 -0.15229173 0.1688455
0001f0 31 6d 24 3e b6 00 6d 3e 8d 08 12 3d 1b ae 30 3d
       0.16057278 0.23144802 0.035652686 0.04313479
000200 14 f8 8e be 89 23 73 3e a0 8b 29 3e ec 46 2e be
       -0.27923644 0.23744024 0.16557169 -0.17019242
000210 8c 6b 13 be a2 5b 57 3e 1a cc 6b 3e fd c9 27 be
       -0.14396495 0.21031049 0.23027077 -0.16385646
000220 6a dd 6e bb 89 e1 2f be 25 7b 7d 3c cf 9e 00 be
       -0.003644789 -0.17175879 0.0154712545 -0.1256058
000230 d4 02 b1 be 01 15 41 3e 95 ef be be 97 db 77 3e
       -0.3457247 0.18855669 -0.37292162 0.2420486
000240 1e 78 3b 3d ec 90 7b 3e 88 37 bb 3d e7 9c a4 3e
       0.04576885 0.24567002 0.09141451 0.32150957
000250 e2 23 fc bd 66 38 01 3e d5 c1 50 bd 25 f0 fc 3c
       -0.123115316 0.1261917 -0.050966103 0.030876229
000260 2d 45 21 be 7d 17 42 bc 30 d5 6a 3e 50 1a 4f be
       -0.15749045 -0.01184642 0.22932887 -0.20224881
000270 10 20 1b 3d 24 73 35 3d 2b af 3f 3e e3 f5 83 3d
       0.037872374 0.04429926 0.18719165 0.064433835
000280 af f6 c9 3b 7a 42 12 3d 0b 1b 6c 3c d0 26 83 be
       0.00616344 0.03570793 0.014410744 -0.2561555
000290 84 70 ea bd e9 b2 79 3d d1 3c a3 3d d2 c0 8c 3d
       -0.11447242 0.060961638 0.07970584 0.06872715
0002a0 94 c1 2c 3e 7f 3d b7 bd 2f 09 0b 3e 5a e9 b9 3d
       0.16870719 -0.08947276 0.13577722 0.090777114
0002b0 14 62 31 be 07 6f 08 bc b2 d2 ac 3e 7c 9e 0b 3e
       -0.1732257 -0.008327252 0.33754498 0.13634676
0002c0 cd f9 69 bd bb 20 ac bd 24 8d 80 3e 04 36 74 bc
       -0.057122994 -0.0840468 0.25107682 -0.014905456
0002d0 8c 06 bb 3d 16 8d 67 3e 00 2e 9a 3d 6a cf cb bd
       0.09132108 0.22612414 0.07528305 -0.099516705
0002e0 58 be 1f be 50 92 9e 3e db df b4 3e 34 dc 7a 3c
       -0.15599954 0.30971003 0.35327038 0.01531129
0002f0 5f a4 15 bd 99 bc 89 bd 93 db b9 be da 20 b8 3d
       -0.03653371 -0.06725425 -0.36300334 0.08990641
000300 cc da 29 bd 69 55 0e be a8 5f 33 3e 80 96 9c 3d
       -0.041468427 -0.13899769 0.17516959 0.07645893
000310 a1 22 29 3e 45 f4 a8 bc dd 06 7e be 4c fb 25 3d
       0.16517116 -0.02062429 -0.24807306 0.04052286
000320 ce 37 01 3b 54 c9 93 bd 1e c6 3f 3e 0f ee 6a 3e
       0.00197171 -0.07216135 0.1872792 0.22942375
000330 23 01 3d 3e 40 37 77 3c 73 a6 96 3e 78 49 03 be
       0.18457465 0.015088856 0.29423866 -0.12820995
000340 71 26 ba bd 03 6e 92 be 18 42 38 3b 26 58 48 be
       -0.09089363 -0.28599557 0.0028115567 -0.19564876
000350 f4 df 31 be ce 90 5a 3d 3c 59 9e 3d 76 a3 dd 3d
       -0.17370588 0.053360753 0.07731864 0.10822193
000360 20 4e 88 3e ab de f6 3d fd ab 96 3e 05 4c 27 be
       0.26622105 0.12054189 0.29428092 -0.16337593
000370 e6 71 81 bd 92 89 e1 bd 6e 24 38 be 54 6b 0a be
       -0.063205525 -0.110125676 -0.17982647 -0.13517505
000380 88 c0 1d 3e 23 72 23 be 45 68 fa 3d da ee 47 3e
       0.15405476 -0.15961508 0.12226919 0.19524708
000390 4e c5 65 bd 4a 1f a1 bd 0a cf 64 3e bd fb b9 bd
       -0.056096368 -0.07867296 0.22344604 -0.090812184
0003a0 3d c6 2c be 9a 74 87 3d e4 6b f8 ba 03 9e 1b 3e
       -0.16872497 0.06614037 -0.0018953052 0.15196995
0003b0 33 ad 84 3d f8 09 1a 3e 93 c4 f2 bd b5 ab 8c be
       0.06478348 0.15042865 -0.118539 -0.27474752
0003c0 42 92 3f 3d 2c c6 16 3d 45 b1 7b 3e 28 7e 8e 3d
       0.04677034 0.036810085 0.24579342 0.06957656
0003d0 79 cd 89 3e 11 32 1a 3e 3d 26 70 3e ca 82 4f bd
       0.26914576 0.15058161 0.23452087 -0.05066184
0003e0 54 a5 5d be 5f 6d 43 3e f4 d5 28 bb 8c fe c2 be
       -0.21645099 0.1908469 -0.0025762292 -0.3808483
0003f0 1d f8 96 3e 9d f5 94 3d 91 e0 34 3e a3 dd c0 bd
       0.2948617 0.072734095 0.1766379 -0.09417274
