ML Model/tv_detection_epoch_150/e-93-0.688.pth (torch, 508349 bytes, 205 tensors)

backbone.0.0.weight f4 [16, 3, 3, 3]
0	0x0000553a	3.0574e-41
1	0x0001f86d	1.80954e-40
2	0x000316eb	2.83728e-40
3	0x8002daff	-2.62232e-40
4	0x8002755f	-2.25776e-40
5	0x8000dbb3	-7.8813e-41
6	0x8000abb3	-6.1594e-41
7	0x00037b0d	3.19649e-40
8	0x8001e394	-1.73475e-40
9	0x0001a8f0	1.52439e-40
10	0x8001dad7	-1.7034e-40
11	0x800278d9	-2.27023e-40
12	0x8001fb96	-1.82088e-40
13	0x000386a5	3.23808e-40
14	0x00017c96	1.36529e-40
15	0x800164db	-1.28016e-40
16	0x00006e20	3.9505e-41
17	0x000135aa	1.11087e-40
18	0x00021093	1.89617e-40
19	0x00005233	2.9488e-41
20	0x00009ea2	5.6907e-41
21	0x80021ecd	-1.9472e-40
22	0x80005bf4	-3.2987e-41
23	0x0002a5d1	2.43155e-40
24	0x80025f54	-2.17868e-40
25	0x8002ceed	-2.57902e-40
26	0x80033ac6	-2.9659e-40
27	0x3cbf46b1	0.023349138
28	0x3c86b907	0.01644565
29	0xbd8a9ee6	-0.06768589
30	0x3e1b8ec5	0.15191181
31	0x3eae3792	0.34026772
32	0xbaad584d	-0.0013225168
33	0xbe087b41	-0.13328268
34	0xbe46c7ea	-0.19412199
35	0x3ba2c2b4	0.004967058
36	0xbd546253	-0.05185158
37	0xbc519483	-0.012791756
38	0xbe314692	-0.17312077
39	0x3e9878ee	0.29779762
40	0x3f332cd7	0.69990295
41	0x3d6cfa9c	0.057856187
42	0xbea2c708	-0.31792474
43	0xbf0b3de7	-0.5439133
44	0xbdc762c9	-0.09735639
45	0x3e2eaa29	0.17057098
46	0x3e2744f6	0.163349
47	0x3d43b9a9	0.04778448
48	0x3e4da7f7	0.20083605
49	0x3e9c0700	0.3047409
50	0x3da20508	0.07911116
51	0xbe1089f5	-0.14115126
52	0xbe4c77ac	-0.19967526
53	0xbdadb6c2	-0.08482124
54	0xbda08a45	-0.07838873
55	0x3e0f010d	0.13965245
56	0x3d677a76	0.056513272
57	0xbec4551b	-0.3834618
58	0x3f44e7d9	0.7691627
59	0xbe3ee556	-0.18642172
60	0xbf223371	-0.63359743
61	0x3f6b6eff	0.9196624
62	0xbe6ef149	-0.2333423
63	0xbe0ab5b6	-0.1354588
64	0x3e29e417	0.16590916
65	0xbd254ea0	-0.040358186
66	0xbf520d92	-0.82051957
67	0x3fa6d97e	1.3035123
68	0xbeea87a1	-0.45806602
69	0xbf8364e3	-1.0265163
70	0x3fb54a5b	1.4163316
71	0xbeee48e7	-0.46539995
72	0xbd699a2f	-0.057031807
73	0xbc19ec4e	-0.009394718
74	0x3d6a105d	0.05714451
75	0xbe7487c2	-0.23879912
76	0x3ed111ac	0.40833795
77	0xbdc68743	-0.09693768
78	0xbe967dc2	-0.2939282
79	0x3ee1b865	0.44085994
80	0xbe1a17dc	-0.15048164
81	0xbd4cbbfb	-0.04998396
82	0xbc362df1	-0.011119352
83	0x3d827e48	0.063717425
84	0x3d541503	0.05177785
85	0x3e6696ca	0.22518459
86	0xbe9b1c2e	-0.30294937
87	0x3c0db11f	0.008648186
88	0x3e9ad9b2	0.30244213
89	0xbea09c19	-0.31369093
90	0xbccebcf5	-0.025236586
91	0xbd100ada	-0.0351666
92	0x3d9ecd9b	0.0775406
93	0x3d55ef73	0.05223031
94	0x3f108aeb	0.5646197
95	0xbf13bddc	-0.5771158
96	0x3d2ebdfb	0.04266165
97	0x3f235b7a	0.6381146
98	0xbf257567	-0.64632267
99	0xba40cda7	-0.00073548633
100	0x3c587432	0.013211297
101	0xbd99c3d7	-0.075080566
102	0x3dfad9ae	0.1224855
103	0x3e36207e	0.17785832
104	0xbe50b704	-0.20382315
105	0x3d3b20bb	0.04568551
106	0x3e10974a	0.14120212
107	0xbe60fc52	-0.21971253
108	0xbdbd1279	-0.09232039
109	0xbd8004a5	-0.06250886
110	0xbddc87c6	-0.10768084
111	0x3c0459de	0.008078067
112	0xbc2ce3e4	-0.01055238
113	0xbe1022eb	-0.1407582
114	0x3e0870ba	0.13324252
115	0x3cf45178	0.029824004
116	0xbe4f45d3	-0.2024148
117	0x3db95afe	0.090505585
118	0x3cf09d16	0.02937178
119	0xbd84a4af	-0.064767234
120	0x3e2a6373	0.166395
121	0xbddcde41	-0.10784579
122	0xbe981f10	-0.297112
123	0x3e4d78fc	0.20065683
124	0xbd94628a	-0.07245357
125	0xbed5dc9a	-0.41769868
126	0x3db4dd95	0.08831326
127	0xbd84fee9	-0.06493933
128	0xbe4f13c8	-0.2022239
129	0x3d4245b7	0.047429767
130	0xbe0cc40a	-0.13746658
131	0xbe8d4f1c	-0.27599418
132	0xbc2029a2	-0.009775551
133	0xbdcd9fd5	-0.10040251
134	0xbe71a748	-0.23598969
135	0x3e335409	0.17512526
136	0x3e468d39	0.1938981
137	0xbe00169d	-0.12508626
138	0x3dc7d053	0.097565316
139	0x3f1c6f43	0.6110727
140	0x3e9a3887	0.30121252
141	0xbe5c3724	-0.2150541
142	0x3f077c88	0.52924395
143	0x3f215f3c	0.6303594
144	0x3dfdce9e	0.12392925
145	0xbc4537c0	-0.012037218
146	0x3dd0e6b5	0.10200254
147	0x3d41b854	0.04729493
148	0xbe0b85e4	-0.13625294
149	0xbd17c04e	-0.03704863
150	0x3b93a4a8	0.0045057125
151	0xbe0a353f	-0.13496874
152	0xbd542853	-0.05179627
153	0xbe83872a	-0.2568906
154	0xbe38eb20	-0.18058443
155	0x3d4eb30e	0.05046373
156	0xbe3a79f7	-0.18210588
157	0xbf06039b	-0.5234925
158	0xbe8d8c37	-0.27646038
159	0x3d7cc1c4	0.061708227
160	0xbeefd66a	-0.46843272
161	0xbf0d846a	-0.5528017
162	0x3e38be3b	0.18041317
163	0x3df6bc4c	0.120476335
164	0x3d2e08d5	0.04248889
165	0x3f041ed0	0.51609516
166	0x3ba4b2bd	0.00502619
167	0xbdbfbee1	-0.09362579
168	0x3dc95cbc	0.09832141
169	0xbdbd8922	-0.09254672
170	0x3c144372	0.009049283
171	0x3c963f64	0.018340774
172	0xbcd9fbac	-0.026609264
173	0xbd3a705a	-0.045517303
174	0x3f5b627b	0.85697144
175	0xbdb9b0bf	-0.09066915
176	0xbe97746c	-0.2958101
177	0x3dfa2233	0.12213554
178	0xbe7084e1	-0.2348819
179	0xbd34dbad	-0.04415481
180	0x3dc845df	0.09778952
181	0x3d515021	0.051101808
182	0x3bb54962	0.0055324296
183	0x3e86b80d	0.26312295
184	0x3d826651	0.063671716
185	0x3c60026b	0.0136724515
186	0xbda7ae09	-0.081874914
187	0xbdeac31c	-0.114629954
188	0xbc95d8b1	-0.018291803
189	0x3d18580e	0.03719335
190	0x3d35bbc6	0.044368528
191	0xbd19c743	-0.037543546
192	0xbbdbb17a	-0.0067045065
193	0x3ded7ee7	0.1159647
194	0x3e97da32	0.29658657
195	0xb904e79f	-0.00012674787
196	0x3ddda070	0.10821617
197	0x3eb51109	0.3536456
198	0xbda4b6cf	-0.080426805
199	0xbe224edd	-0.15850396
200	0xbe3f8b96	-0.18705592
201	0xbd5aa57d	-0.05338048
202	0x3da951af	0.08267533
203	0x3e99cc29	0.30038574
204	0xbc1a6e1c	-0.009425666
205	0x3e119593	0.14217214
206	0x3eaa41ae	0.33253235
207	0xbcfbb50e	-0.030725982
208	0x3c8b9a1d	0.01704126
209	0x3cb2dc20	0.02183348
210	0x3d3d3b81	0.046199325
211	0x3e48ede5	0.19622
212	0x3eb695ba	0.35661107
213	0x3dcbe99e	0.09956668
214	0x3e545736	0.20736393
215	0x3e9fa7a8	0.311826
216	0x3d53874c	0.0516427
217	0x3d43842f	0.047733482
218	0xbe18c09f	-0.14917229
219	0xbe3b1d9e	-0.18273017
220	0x3f2782db	0.65434045
221	0xbf08468a	-0.53232634
222	0x3c7b01c7	0.015320248
223	0x3f379800	0.7171631
224	0xbf29e6aa	-0.6636759
225	0xbd109737	-0.03530046
226	0x3e2ee727	0.17080365
227	0xbe5b3b69	-0.21409382
228	0xbe11c3b5	-0.14234813
229	0x3f850db0	1.0394802
230	0xbf6ad9c4	-0.91738534
231	0xbbd2e04e	-0.0064354306
232	0x3f828b13	1.0198692
233	0xbf73fd3f	-0.953083
234	0x3dae515a	0.0851161
235	0x3d28988d	0.04116111
236	0x3a743f95	0.0009317336
237	0xbdc2fdfe	-0.095211014
238	0x3ed465ef	0.4148402
239	0xbeaec8fd	-0.34137717
240	0x3c77ab6d	0.015116555
241	0x3ed8b933	0.42328796
242	0xbec1cd11	-0.37851766
243	0x0001510f	1.20914e-40
244	0x0000b749	6.575e-41
245	0x000159f8	1.2411e-40
246	0x8002b5f8	-2.48949e-40
247	0x00018c95	1.42267e-40
248	0x0002c5dd	2.54651e-40
249	0x80002f5b	-1.6988e-41
250	0x80016b9a	-1.30436e-40
251	0x00013b0e	1.1302e-40
252	0x0001a2d8	1.50253e-40
253	0x00037284	3.16587e-40
254	0x8000bf24	-6.8568e-41
255	0x00028879	2.32628e-40

backbone.0.1.weight f4 [16]
0	0x8000adcf	-6.2351e-41
1	0x3dcebb83	0.10094359
2	0x3de95a0e	0.1139413
3	0x3e95ab1b	0.29232106
4	0x3e54667f	0.20742224
5	0x3e64a629	0.2232901
6	0x3de91472	0.11380853
7	0x3e95dca1	0.2926989
8	0x3dc113a5	0.09427575
9	0x80003ec5	-2.2517e-41
10	0x3ed75723	0.42058668
11	0x3e1cac80	0.15300179
12	0x3e997711	0.29973653
13	0x3eacf70f	0.3378224
14	0x80024f7d	-2.12186e-40
15	0x3da7d0c9	0.081941195

backbone.0.1.bias f4 [16]
0	0x00016e1e	1.31338e-40
1	0x3f1a38e1	0.6024304
2	0x3ed0a4df	0.40750787
3	0x3e6b912e	0.230046
4	0x3f57ca44	0.8429301
5	0x3f0f5079	0.55982167
6	0x3ef25a51	0.4733453
7	0x3f01d684	0.5071795
8	0x3f0ad19f	0.54226106
9	0x00002aa2	1.5294e-41
10	0xbe8abe3c	-0.27098262
11	0x3f60922f	0.8772306
12	0x3eb3ece8	0.35141683
13	0xbe9e50b5	-0.3092095
14	0x8001fc9e	-1.82457e-40
15	0x3e0bcc4e	0.13652155

backbone.0.1.running_mean f4 [16]
0	0x0088ef81	1.2575545e-38
1	0x425b349c	54.801376
2	0x42172b95	37.79256
3	0x40c8d46a	6.2759295
4	0xc33647eb	-182.28093
5	0xc27df273	-63.486767
6	0x42f30ffe	121.531235
7	0x4378a5df	248.64793
8	0x4116f65e	9.435148
9	0x81361572	-3.3443507e-38
10	0xc1e0fbea	-28.123005
11	0x43491a3c	201.10248
12	0x4173eb8b	15.245006
13	0x4298d7b6	76.42131
14	0x0118ba8c	2.8051832e-38
15	0xc217ceed	-37.952076

backbone.0.1.running_var f4 [16]
0	0x00000004	6e-45
1	0x452feacd	2814.675
2	0x46122aa7	9354.663
3	0x44e2e736	1815.2253
4	0x46772b19	15818.774
5	0x461a0da8	9859.414
6	0x461758ee	9686.232
7	0x46e10ac8	28805.39
8	0x45b7326e	5862.3037
9	0x00000004	6e-45
10	0x454c7525	3271.3215
11	0x4692a32a	18769.582
12	0x452314d8	2609.3027
13	0x45814719	4136.887
14	0x00000004	6e-45
15	0x4500adfe	2058.8745

backbone.1.conv.0.0.weight f4 [16, 1, 3, 3]
0	0x0002083f	1.86629e-40
1	0x80005e15	-3.375e-41
2	0x80015eb4	-1.25809e-40
3	0x800371b6	-3.16298e-40
4	0x8000558c	-3.0688e-41
5	0x800289dc	-2.33126e-40
6	0x0003337b	2.93974e-40
7	0x0001a14e	1.49701e-40
8	0x80000afe	-3.943e-42
9	0xbd11278a	-0.035438098
10	0xbcebd812	-0.028789554
11	0x3d026ab7	0.031840052
12	0x3c82461a	0.015902568
13	0xbd743df5	-0.0596294
14	0x3f37b695	0.71762973
15	0xbccba879	-0.024860607
16	0x3cf9bc75	0.030485371
17	0xbf599896	-0.8499845
18	0x3c333eb1	0.01094024
19	0xbd6007a2	-0.05469478
20	0xbe026518	-0.12733877
21	0xbc9f6cc2	-0.01946104
22	0x3d331653	0.043722462
23	0x3f887757	1.066142
24	0x3bc3e5d5	0.005978326
25	0xbd9853fc	-0.07437894
26	0xbda37d63	-0.079829
27	0xbd81642d	-0.06317935
28	0xbd6dc1cc	-0.058046147
29	0xbda90061	-0.082520254
30	0x3b1c2c57	0.002383014
31	0x3f4c7269	0.79862076
32	0xbe925e0d	-0.2858738
33	0xbc400f14	-0.011722345
34	0xbd0c3842	-0.03423334
35	0xbe5346c3	-0.20632462
36	0x3f129aa7	0.5726723
37	0x3ff73f45	1.9316183
38	0x3eee1780	0.46502304
39	0x3e5f7dda	0.21825352
40	0x3ee4520c	0.44593847
41	0x3e53f09b	0.20697252
42	0xbf57b1ee	-0.84255874
43	0xc006dd23	-2.107247
44	0xbf3794d6	-0.7171148
45	0xbe5f8628	-0.2182852
46	0x3c14ccf4	0.009082068
47	0xbe55fb0c	-0.20896548
48	0x3e029053	0.12750368
49	0x3ec2abf0	0.38021803
50	0xbfd13df4	-1.6347032
51	0x3d9ef404	0.07761386
52	0x3fa969c5	1.3235403
53	0x3ecc9e79	0.39964655
54	0xbd658b35	-0.05604096
55	0x3db34b0b	0.08754548
56	0xbd4b2efe	-0.049605362
57	0x3a13bf53	0.00056361145
58	0x3d4a2da6	0.04935994
59	0xbf44c3a7	-0.7686104
60	0x3ca8f527	0.02062471
61	0x3d906b51	0.07051719
62	0x3f838817	1.0275906
63	0xbef86679	-0.4851568
64	0xbe8f235a	-0.2795666
65	0x3f3a5953	0.7279255
66	0xc0176af4	-2.365903
67	0xbebb911d	-0.3663415
68	0x40263d6b	2.5974987
69	0xbede45d4	-0.4341265
70	0xbe15073d	-0.14553542
71	0x3f286c10	0.6578989
72	0xbd498050	-0.049194634
73	0x3cc2ef42	0.023795728
74	0xbdc16060	-0.0944221
75	0x3d22b0dc	0.039719447
76	0xbf6fc203	-0.93655413
77	0x3e12bec2	0.14330581
78	0x3d8680ea	0.06567557
79	0x3c9730b3	0.018455839
80	0xbdb44758	-0.0880267
81	0x00030a28	2.7915e-40
82	0x80016ed1	-1.31589e-40
83	0x000100b5	9.2089e-41
84	0x80015490	-1.22171e-40
85	0x80019da2	-1.48383e-40
86	0x80015be6	-1.24802e-40
87	0x80001cc8	-1.0325e-41
88	0x8001f959	-1.81285e-40
89	0x80000ede	-5.333e-42
90	0xbc365aaf	-0.011130019
91	0xbe17c0ee	-0.1481969
92	0xbec0c97d	-0.37653723
93	0xbe3cb7d3	-0.18429498
94	0x3e119c3b	0.14219753
95	0x3ec86a70	0.39143705
96	0xbea9341e	-0.33047575
97	0x3eadc441	0.33938792
98	0x3efc4926	0.49274558
99	0x3e417eaa	0.18895975
100	0x3fc7b43a	1.5601876
101	0x3f7a1108	0.9768224
102	0x3ddc0d4b	0.10744723
103	0x3d2cdfad	0.0422055
104	0xbdf76bff	-0.120811455
105	0xbe916e6e	-0.28404564
106	0xbfd0c826	-1.631108
107	0xbf797dd9	-0.97457653
108	0xbbab9014	-0.0052356813
109	0x3d0b80a8	0.034058243
110	0xbcba9cb8	-0.022779807
111	0x3cc08a88	0.023503557
112	0xbc7a0c85	-0.015261774
113	0xbf3d73cc	-0.74004817
114	0xbcb2b9c2	-0.021817092
115	0xba189a58	-0.0005821339
116	0x3f3cfd0d	0.73823625
117	0xbcbc84a9	-0.023012476
118	0x3d92018b	0.071292005
119	0xbe3aeeaa	-0.18255106
120	0x3d52e297	0.051485624
121	0x3df81439	0.12113232
122	0xbdbad795	-0.0912315
123	0xbe2eb4e6	-0.17061195
124	0xbd5ef6ec	-0.0544347
125	0x3f19f961	0.60146147
126	0x80001de3	-1.0721e-41
127	0x0002be02	2.51833e-40
128	0x800228e6	-1.98343e-40
129	0x80021691	-1.91766e-40
130	0x8002108c	-1.89607e-40
131	0x80021932	-1.9271e-40
132	0x00023f26	2.06324e-40
133	0x00019c52	1.47913e-40
134	0x80006023	-3.4487e-41
135	0x3e0497fd	0.12948604
136	0x3c592327	0.01325301
137	0x3c3b474a	0.011430571
138	0x3e0bf7cb	0.13668744
139	0xbd674ed9	-0.05647168
140	0xbe38e0d5	-0.18054517
141	0x3dc666b8	0.09687561
142	0xbe4a0640	-0.19728947
143	0xbe749e84	-0.23888594

backbone.1.conv.0.1.weight f4 [16]
0	0x0002e0c3	2.643e-40
1	0x3f025193	0.5090572
2	0x3f10e7d5	0.5660375
3	0x3f158856	0.5841116
4	0x3f92674c	1.1437774
5	0x3ef42bf9	0.47689798
6	0x3f0c1198	0.54714346
7	0x3f532156	0.8247274
8	0x3ed1d17f	0.40980145
9	0x00012806	1.06193e-40
10	0x3e5a2568	0.21303332
11	0x3f7e2836	0.9928011
12	0x3f5fdc5c	0.87445617
13	0x3e7c4e73	0.24639301
14	0x800208a1	-1.86766e-40
15	0x3ea97046	0.3309347

backbone.1.conv.0.1.bias f4 [16]
0	0x001d3f2b	2.68589e-39
1	0x3f236cc5	0.63837844
2	0x3fabaca2	1.3412058
3	0x3e8b17cb	0.2716659
4	0x3e3f4a45	0.18680675
5	0x3f3d83eb	0.74029416
6	0x3f110fbd	0.5666464
7	0x3efc085f	0.49225137
8	0x3ee69727	0.45037195
9	0x80156a45	-1.966668e-39
10	0x3f0a3610	0.5398874
11	0x3d85120d	0.064975835
12	0x3f3248f9	0.696426
13	0xbe9e95bd	-0.30973616
14	0x8042c947	-6.133347e-39
15	0x3eb75dc4	0.35813725

backbone.1.conv.0.1.running_mean f4 [16]
0	0x00000004	6e-45
1	0xbde958db	-0.11393901
2	0x3e9c537e	0.3053245
3	0x3c9467f0	0.018115968
4	0x3e236d20	0.15959597
5	0x3e1a1fa2	0.1505113
6	0x3e32fa83	0.17478375
7	0xbd4fa08d	-0.050690223
8	0xbef4a595	-0.4778258
9	0x80000004	-6e-45
10	0x3c56a952	0.013101893
11	0xbddf8a20	-0.10915017
12	0xbc42c3c5	-0.011887495
13	0x3c6dcb5f	0.0145138195
14	0x80000004	-6e-45
15	0xbd217f93	-0.039428305

backbone.1.conv.0.1.running_var f4 [16]
0	0x00000004	6e-45
1	0x3c13a847	0.009012288
2	0x3c13b518	0.009015344
3	0x3d1a1d31	0.037625495
4	0x3e6c1ab5	0.23057063
5	0x3d4d079a	0.050056078
6	0x3bd166ab	0.006390413
7	0x3ec4a6c9	0.38408497
8	0x3be92cc3	0.0071159317
9	0x00000004	6e-45
10	0x3bf16bde	0.007367595
11	0x3e123378	0.14277446
12	0x3d6642b3	0.056215953
13	0x3b01da5e	0.0019813995
14	0x00000004	6e-45
15	0x3a48be44	0.00076577463

backbone.1.conv.1.weight f4 [8, 16, 1, 1]
0	0x0023cdec	3.288113e-39
1	0xbe63148d	-0.22175808
2	0xbd22393d	-0.039605368
3	0x3e3a97d8	0.18221986
4	0xbd288761	-0.041144732
5	0x3f2787bf	0.6544151
6	0x3e83b270	0.25722075
7	0xbddc8b8d	-0.10768805
8	0xbd8f2391	-0.06989206
9	0x8019638a	-2.331595e-39
10	0x3beea01c	0.00728227
11	0x3e847814	0.25872862
12	0x3de5a7ec	0.11213669
13	0x3c66838e	0.014069451
14	0x800ebb67	-1.352924e-39
15	0xbe5a4513	-0.21315412
16	0x001c5854	2.60308e-39
17	0xbd932055	-0.07183901
18	0xbf0534a9	-0.5203348
19	0x3baa9f63	0.0052069887
20	0x3e834b5a	0.25643426
21	0xbd905814	-0.070480496
22	0x3b73fefe	0.0037230845
23	0x3cc922aa	0.024552662
24	0x3dbc2c75	0.09188167
25	0x0018835c	2.251175e-39
26	0xbd9e8bbd	-0.07741497
27	0x3de072ba	0.10959382
28	0xbe456b6b	-0.19279258
29	0xbd1071c3	-0.03526474
30	0x0007d2d2	7.18477e-40
31	0xbe98f084	-0.29871
32	0x80098bb6	-8.76638e-40
33	0x3ed4d8c9	0.41571644
34	0x3e07afd0	0.13250661
35	0x3ed8fff2	0.4238277
36	0xbe3ca702	-0.18423083
37	0xbe2b56f5	-0.1673239
38	0xbe96a1f1	-0.29420426
39	0x3dc608d2	0.09669651
40	0xbe524983	-0.20535855
41	0x002a4a85	3.883823e-39
42	0xbe5a0e8b	-0.2129461
43	0x3ec1ba77	0.37837574
44	0x3cb6f019	0.022331284
45	0xbdb54636	-0.08851282
46	0x8011f33a	-1.648457e-39
47	0xbeb5cdce	-0.3550858
48	0x801c47fb	-2.597216e-39
49	0xbe31ca69	-0.1736237
50	0xbdf6f3ea	-0.12058242
51	0xbdc7e8d2	-0.09761204
52	0x3ef12f19	0.47106245
53	0xbe90ae96	-0.28258198
54	0x3e03ef5f	0.12884282
55	0xbd7ea121	-0.062165383
56	0xbe295734	-0.16537172
57	0x801d1936	-2.672273e-39
58	0x3de2cb0f	0.110738866
59	0xbec95b4d	-0.3932747
60	0x3ee570d4	0.44812644
61	0x3e91afeb	0.28454527
62	0x0001c986	1.64128e-40
63	0xbeba0bf2	-0.3633724
64	0x80082d32	-7.50897e-40
65	0xbeab3fe8	-0.33447194
66	0x3e76789f	0.24069451
67	0x3c6e5539	0.014546686
68	0x3e03d352	0.12873581
69	0xbf2f0d66	-0.6837982
70	0x3e33f379	0.17573346
71	0xbe5e01fe	-0.21680447
72	0xbd80b48b	-0.06284436
73	0x00096ab0	8.64792e-40
74	0x3e9457f3	0.2897335
75	0xbd27f6f0	-0.041006982
76	0xbe78bbc9	-0.24290384
77	0x3df89bff	0.12139129
78	0x8008278b	-7.4887e-40
79	0x3b7927f8	0.0038018208
80	0x801aa149	-2.445581e-39
81	0xbdd6bd3a	-0.10485311
82	0x3d442ce5	0.047894377
83	0xbf10e651	-0.56601435
84	0xbe98e101	-0.29859164
85	0xbe108b63	-0.14115672
86	0x3e147759	0.14498653
87	0x3f141581	0.5784531
88	0x3ee2d6a7	0.44304392
89	0x8031df4a	-4.58004e-39
90	0x3de63b5d	0.112417914
91	0x3ed41cb8	0.4142816
92	0x3dd1aaa0	0.10237622
93	0x3d08d756	0.033408485
94	0x80104e55	-1.497468e-39
95	0xbe62a68d	-0.22133847
96	0x803d7bbd	-5.646354e-39
97	0x3e9fe997	0.31232902
98	0xbd4e9340	-0.050433397
99	0xbed99a84	-0.425007
100	0xbece3d47	-0.40281126
101	0x3d96f442	0.07370807
102	0xbbbdb021	-0.0057888185
103	0xbf50c9bc	-0.8155782
104	0x3d90085f	0.07032847
105	0x80093cbd	-8.48308e-40
106	0xbd17bb56	-0.03704389
107	0x3e76e779	0.24111737
108	0xbd856489	-0.06513316
109	0x3ea6d592	0.32584816
110	0x8005a39e	-5.17872e-40
111	0xbe5f36db	-0.2179827
112	0x801b3ea9	-2.502037e-39
113	0x3dcbeabe	0.09956883
114	0x3e765aa5	0.24058016
115	0xbd3418dd	-0.043969024
116	0x3f02de86	0.51120794
117	0x3f11d45a	0.5696465
118	0xbe0af12e	-0.13568565
119	0x3e1b2456	0.1515058
120	0xbd871e3a	-0.06597562
121	0x00060af2	5.5494e-40
122	0x3db11b53	0.0864779
123	0xbee83694	-0.4535414
124	0xbe7028ce	-0.23453066
125	0x3daecfdc	0.0853574
126	0x800ea05b	-1.343222e-39
127	0xbe76f30d	-0.24116154

backbone.1.conv.2.weight f4 [8]
0	0x3f030362	0.51177037
1	0x3ef27fc5	0.47363105
2	0x3f30c9ad	0.6905773
3	0x3f06e28c	0.52689433
4	0x3f05887b	0.5216138
5	0x3f1b4a04	0.60659814
6	0x3f1513e7	0.58233494
7	0x3f024a3a	0.5089451

backbone.1.conv.2.bias f4 [8]
0	0xb969c0d1	-0.00022292441
1	0xb960d838	-0.00021442852
2	0xb99a14e5	-0.00029388737
3	0x37f3c73b	2.9060631e-05
4	0x382351bd	3.8938353e-05
5	0xb8d32c76	-0.000100695455
6	0xb9554dda	-0.00020342265
7	0x3795fd13	1.7880031e-05

backbone.1.conv.2.running_mean f4 [8]
0	0x3ef45446	0.47720546
1	0xbf6d958b	-0.9280631
2	0x3d295db5	0.04134913
3	0xbe4780b2	-0.19482687
4	0xbee91554	-0.45524085
5	0x3ec641b8	0.38722014
6	0xbf2671ac	-0.650172
7	0x3f267e33	0.65036315

backbone.1.conv.2.running_var f4 [8]
0	0x3df4e2d2	0.11957325
1	0x3dfe7baf	0.124259345
2	0x3e86fe4e	0.26365894
3	0x3e9fdae1	0.3122168
4	0x3e4e50b7	0.20147978
5	0x3eb3365f	0.3500242
6	0x3ebc19f5	0.36738554
7	0x3e4b768c	0.19869441

backbone.2.conv.0.0.weight f4 [48, 8, 1, 1]
0	0x3df54264	0.11975554
1	0xbd896b31	-0.06709898
2	0x3e170f7d	0.14752002
3	0xbeaf6910	-0.34259844
4	0xbe15b5fe	-0.14620206
5	0x3d8b72e5	0.06809024
6	0x3e76e503	0.24110799
7	0x3d1390f2	0.036026902
8	0x3df3101e	0.118683085
9	0x3d962172	0.07330598
10	0x3db6a42b	0.08918031
11	0x3d055a88	0.03255704
12	0xbd34d0f0	-0.04414457
13	0xbec0b06a	-0.37634593
14	0xbe2044d3	-0.15651254
15	0xbe36a116	-0.17834887
16	0xbe21887c	-0.15774721
17	0x3d9924fb	0.074777566
18	0xbe23adf5	-0.15984328
19	0x3e1c55b3	0.15267067
20	0xbc8dca6c	-0.017308436
21	0xbe088a49	-0.13334002
22	0xbe578852	-0.21048096
23	0x3e46adc3	0.19402222
24	0xbe3d6652	-0.18496063
25	0x3e2a2bba	0.16618243
26	0x3e2944c5	0.1653014
27	0xbee8e498	-0.45486903
28	0x3cbfd34d	0.023416186
29	0xbdbcd406	-0.09220128
30	0xbe665dd5	-0.22496732
31	0xbf06d32b	-0.52665967
32	0x3d40e1a0	0.047090173
33	0xbdff4019	-0.124633975
34	0x3ddeee24	0.108852655
35	0xbe83c44f	-0.2573571
36	0xbda50376	-0.08057301
37	0x3dd39141	0.10330439
38	0x3d8db61e	0.06919502
39	0xbe8df731	-0.27727655
40	0x3db021b3	0.086001776
41	0x3d2622f9	0.040560696
42	0x3e6c0554	0.23048908
43	0xbdde7ab4	-0.108632475
44	0xbd96f539	-0.07370991
45	0xbadfb054	-0.00170661
46	0x3e825f16	0.2546317
47	0xbdb5ca21	-0.08876444
48	0x3cc5457a	0.02408098
49	0x3e3cdd57	0.1844381
50	0x3e4c976e	0.19979641
51	0x3e2444c2	0.16041854
52	0xbdc51f71	-0.096251376
53	0xbe9eea0e	-0.31037945
54	0xbda8183a	-0.08207746
55	0xbd47f17d	-0.048814286
56	0x3c8fdf27	0.017562462
57	0x3df4edac	0.11959395
58	0x3d55e04d	0.052215863
59	0xbc7d3d41	-0.015456499
60	0x3d94a2ca	0.07257612
61	0x3cb76c63	0.02239055
62	0xbd92ac8d	-0.07161818
63	0x3e05d301	0.13068773
64	0xbc94d012	-0.018165622
65	0x3d7b56f9	0.06136224
66	0x3f04a9b7	0.51821464
67	0x3c144422	0.009049447
68	0xbdd3ddc8	-0.10345036
69	0x398b1b98	0.00026532705
70	0xbc0e538e	-0.008686913
71	0x3c5f9edd	0.013648716
72	0xbd8659a8	-0.06560069
73	0x3ea4b5c3	0.32169923
74	0xbdaaa3d0	-0.08332026
75	0x3de8c2f7	0.113653116
76	0xbe03be5d	-0.12865587
77	0x3e045dd5	0.12926419
78	0x3db8891b	0.09010526
79	0xbd201acc	-0.039088055
80	0xbe263276	-0.16230187
81	0xbdbc0b0b	-0.09181794
82	0x3d98a4d2	0.07453312
83	0xbecc262a	-0.39872867
84	0x3df28c3c	0.11843154
85	0x3d90004f	0.07031309
86	0x3cbd4d14	0.023108043
87	0xbd4d80c4	-0.05017163
88	0xbdb3acf8	-0.087732255
89	0x3dba4e3e	0.09096955
90	0xbe98421a	-0.2973793
91	0x3e8932e7	0.26796648
92	0x3d987db1	0.07445849
93	0xbe28f29b	-0.16498797
94	0xbe054bdb	-0.13017218
95	0x3e4e0b85	0.20121582
96	0x3e005f68	0.12536395
97	0x3dcdb0cd	0.10043488
98	0xbe490680	-0.19631386
99	0x3e0b81e2	0.13623765
100	0x3dbeef4a	0.093229845
101	0x3e1086b6	0.14113888
102	0xbcd39fc3	-0.025833016
103	0xbd20e5dc	-0.03928171
104	0x3ea3ca03	0.3199006
105	0xbe11f126	-0.14252147
106	0xbd133609	-0.035940204
107	0xbca12d31	-0.01967487
108	0xbe708960	-0.23489904
109	0xbd265292	-0.04060609
110	0x3dd8c5a4	0.10584572
111	0x3e5700ae	0.20996353
112	0x3da61587	0.08109575
113	0xbe3d77d1	-0.18502738
114	0x3bc90d56	0.006135623
115	0x3ec8039a	0.39065248
116	0xbcb1fed9	-0.021727966
117	0x3e181e76	0.1485537
118	0xbdd656b0	-0.10465753
119	0xbeb2c94c	-0.34919202
120	0x3dc17c5d	0.094475485
121	0x3e7584f8	0.23976505
122	0x3e458429	0.19288696
123	0x3e35e727	0.17763959
124	0xbe99d0eb	-0.30042204
125	0xbe388a10	-0.18021417
126	0x3c454245	0.012039726
127	0xbcf83132	-0.030296896
128	0x3e9da248	0.30787873
129	0x3e544001	0.2072754
130	0x3e1869a8	0.14884055
131	0x3e595683	0.21224408
132	0x3df3e5cc	0.11909065
133	0x3ddfebb2	0.10933627
134	0x3e3231e9	0.17401852
135	0x3d960959	0.07326002
136	0x3d01c0d8	0.03167805
137	0x3d68d4fb	0.05684374
138	0x3e00a2c9	0.12562098
139	0xbdaf1757	-0.085493736
140	0xbe68b3cf	-0.22724842
141	0x3e4ff382	0.20307735
142	0xbce2b315	-0.027673284
143	0x3d86b02f	0.06576573
144	0xbe68cbe7	-0.22734033
145	0x3d58d954	0.052941635
146	0xbe4ccea5	-0.20000704
147	0x3e23b495	0.15986855
148	0xbe2a8d92	-0.16655567
149	0xbded678f	-0.11592018
150	0xbe540f93	-0.20709066
151	0x3e91321a	0.28358537
152	0xbd96868b	-0.07349881
153	0x3dde1605	0.10844044
154	0xbe76e186	-0.24109468
155	0x3eb34ae2	0.3501807
156	0x3dc081fd	0.09399793
157	0xbe5c174b	-0.2149326
158	0xbe22ab50	-0.15885663
159	0x3ee65251	0.44984677
160	0x3dbbcaa4	0.0916951
161	0x3e3ef6cf	0.18648838
162	0x3e66347e	0.22480962
163	0x3e7089c1	0.23490049
164	0x3cbe5b96	0.023237031
165	0x3de415f2	0.11136998
166	0x3e1d0be9	0.15336575
167	0x3de6a756	0.112623855
168	0x3d476883	0.048683655
169	0xbda5e03c	-0.0809941
170	0x3dbe972b	0.09306177
171	0xbecaf40e	-0.39639324
172	0x3e125493	0.14290075
173	0xbd3d99b3	-0.046289157
174	0xbeab1b9f	-0.3341951
175	0xbc853a41	-0.01626313
176	0x3da69630	0.08134115
177	0x3df04f43	0.11733868
178	0x3cc66ec1	0.024222733
179	0x3d7e1d77	0.06203982
180	0xbe734e54	-0.23760349
181	0xbd91d86f	-0.071213596
182	0xbd0b91cd	-0.034074593
183	0xbdf35548	-0.118815005
184	0x3e8ed105	0.27893844
185	0xbd16bd2e	-0.03680151
186	0x3db4b202	0.08823015
187	0x3ddf1902	0.10893442
188	0x3d00249b	0.03128491
189	0xbd342032	-0.043976016
190	0xbe0ff119	-0.14056815
191	0xba92ffec	-0.0011215187
192	0xbe1b3d2b	-0.15160052
193	0xbe15220a	-0.14563766
194	0x3da8f1d7	0.08249252
195	0x3e41b22c	0.18915623
196	0xbe5bf19a	-0.21478882
197	0xbd7bfeb1	-0.06152219
198	0x3d85515b	0.06509658
199	0xbd5a2231	-0.053255264
200	0xbd77e77a	-0.060523488
201	0xbee7c180	-0.45264816
202	0x3e5b999b	0.21445315
203	0xbd61b079	-0.055099938
204	0x3de7f645	0.11326269
205	0xbdd70619	-0.1049921
206	0x3b5dfe2d	0.0033873424
207	0x3e8b6bff	0.27230832
208	0xbe4eba84	-0.20188338
209	0xbc91a491	-0.017778667
210	0x3e680076	0.22656426
211	0x3c62ee15	0.0138507085
212	0xbe4b50ca	-0.19855037
213	0x3b96fecb	0.0046080104
214	0x3e320d77	0.17387949
215	0x3df10c2f	0.11769902
216	0xbe61d3b3	-0.22053413
217	0xbbbe1591	-0.0058009108
218	0xbd99ab77	-0.075034074
219	0x3e8f3bd6	0.2797534
220	0x3dda7c75	0.106682695
221	0x3dab8d72	0.08376588
222	0x3eb23d7b	0.3481253
223	0x3dd920b0	0.10601938
224	0x3eaf0093	0.34180126
225	0xbd4017e4	-0.046897784
226	0xbe75d44b	-0.24006765
227	0xbd1c42bd	-0.038149584
228	0xbcd6c353	-0.026216185
229	0xbe784bc1	-0.24247648
230	0x3c2eb895	0.010664125
231	0x3e529604	0.20565039
232	0x3d86db3d	0.06584785
233	0x3c3ce32a	0.0115287695
234	0x3e550a94	0.20804816
235	0x3e47f655	0.19527562
236	0x3deecd00	0.116601944
237	0x3da7dbe5	0.081962384
238	0xbd5164c4	-0.05112149
239	0x3d7b1919	0.061303232
240	0xbe829b6f	-0.2550921
241	0xbd7f12fa	-0.062273957
242	0xbe8b6452	-0.27224976
243	0xbd9a4d85	-0.07534317
244	0xbe49ca4d	-0.19706078
245	0x3ef8d173	0.48597297
246	0x3d892ca3	0.06697967
247	0x3e340e08	0.17583477
248	0x3e2124ce	0.15736696
249	0xbca1b1ae	-0.019738045
250	0x3d45bd7e	0.048276417
251	0xbe2cea3a	-0.16886225
252	0xbe7fa87b	-0.24966614
253	0x3dca5600	0.098796844
254	0x3b8e9632	0.004351401
255	0x3e8c65ec	0.2742151

backbone.2.conv.0.1.weight f4 [48]
0	0x3ee41f2e	0.44555038
1	0x3eb14ecf	0.3463044
2	0x3df540cb	0.11975249
3	0x3e2e5cd3	0.17027597
4	0x3e13c0df	0.14429043
5	0x3d9c3851	0.07627929
6	0x3ea07388	0.31338143
7	0x3d441433	0.047870826
8	0x3ebe1a21	0.3712931
9	0x3dfb7c7a	0.122796014
10	0x3e795b61	0.24351265
11	0x3ecd15f8	0.40055823
12	0x3dab36bf	0.08360051
13	0x3e1cece0	0.15324736
14	0x3e173b79	0.14768781
15	0x3ebbec9c	0.36703956
16	0x3e26937d	0.162672
17	0x3e49f46e	0.19722149
18	0x3ebddde2	0.37083346
19	0x3e88779a	0.2665375
20	0x3e788878	0.24270809
21	0x3e12fad6	0.14353499
22	0x3e204cf5	0.15654357
23	0x3e23f2bc	0.16010565
24	0x3e182db9	0.14861192
25	0x3e3dd929	0.18539871
26	0x3e1a99d6	0.15097746
27	0x3e85808a	0.2607463
28	0x3da55c0b	0.080741964
29	0x3d7e2a65	0.06205215
30	0x3eeaa856	0.45831555
31	0x3dbbe093	0.091736935
32	0x3e83671c	0.25664604
33	0x3eb6fa39	0.3573778
34	0x3ea6b0d4	0.32556784
35	0x3e6e2fb0	0.23260379
36	0x3eb2bfce	0.3491196
37	0x3ed053c9	0.40688923
38	0x3e40d7be	0.18832299
39	0x3ed09c6b	0.40744337
40	0x3eef4fa3	0.46740445
41	0x3e15b315	0.14619096
42	0x3dd7ca9e	0.10536693
43	0x3e56471a	0.2092556
44	0x3e562ccf	0.2091553
45	0x3e8b2421	0.27176002
46	0x3ead2773	0.3381916
47	0x3d741af4	0.059596017

backbone.2.conv.0.1.bias f4 [48]
0	0xbd013401	-0.031543735
1	0x3d024ce3	0.031811606
2	0x3e7cf3de	0.24702403
3	0x3ec06426	0.37576407
4	0x3e90a5f0	0.282516
5	0x3e97c7a8	0.29644513
6	0x3c01fb73	0.007933485
7	0x3d38b0cd	0.045090485
8	0xbd506bfb	-0.05088423
9	0x3e1fb84c	0.15597647
10	0xbcdd2345	-0.026994357
11	0x3d6bb2ab	0.057543438
12	0x3e50ad53	0.20378618
13	0x3e25e38c	0.16200083
14	0x3e4bf0fb	0.19916146
15	0xbd93c76d	-0.07215772
16	0xbddd861e	-0.108165964
17	0x3e1e742d	0.15474005
18	0x3d737d8d	0.059445906
19	0x3e9a6cf9	0.30161265
20	0x3e87bc68	0.2651093
21	0x3e1fdb75	0.1561106
22	0x3e2250f3	0.15851192
23	0x3e4e53ca	0.2014915
24	0x3e23f920	0.16013002
25	0x3c67ee93	0.014156002
26	0x3e10f1b3	0.14154701
27	0xbeb07b59	-0.34469107
28	0x3e8f9118	0.28040385
29	0x3e7a425e	0.2443938
30	0xbcbdd9bd	-0.023175115
31	0x3e553233	0.2081993
32	0x3d4ece0e	0.050489478
33	0x3cdad45f	0.026712595
34	0x3d98d864	0.07463148
35	0x3e1d5ccc	0.1536743
36	0xbd29dcc9	-0.041470323
37	0x3cfc5835	0.03080378
38	0x3e2897e2	0.16464189
39	0x3d2e7cf0	0.04259962
40	0x3c754b75	0.014971604
41	0x3e322e1a	0.17400399
42	0x3e999c7e	0.30002207
43	0x3e0820f1	0.13293816
44	0x3e06750c	0.13130587
45	0xbd78c5e7	-0.06073561
46	0x3e41d0c2	0.18927291
47	0x3e79ed13	0.24406843

backbone.2.conv.0.1.running_mean f4 [48]
0	0xb76c68aa	-1.4091065e-05
1	0x37f6dbb8	2.94278e-05
2	0x360ca746	2.0958992e-06
3	0xb8244d55	-3.9172668e-05
4	0x355444ce	7.907628e-07
5	0xb7442c81	-1.1692872e-05
6	0xb6864a34	-4.0021496e-06
7	0xb815df8f	-3.5732573e-05
8	0xb8a64ea5	-7.9301455e-05
9	0xb77808fc	-1.4784044e-05
10	0xb8124b4e	-3.4879246e-05
11	0x381371ba	3.5153447e-05
12	0x37871d31	1.6106847e-05
13	0x381706cb	3.6007532e-05
14	0x38244cfe	3.917235e-05
15	0xb6cf94e1	-6.1864125e-06
16	0xb7b399a8	-2.1410015e-05
17	0xb8431e50	-4.6519854e-05
18	0x364087dd	2.8689312e-06
19	0x3784de93	1.583927e-05
20	0xb830e806	-4.217776e-05
21	0xb835e616	-4.3368047e-05
22	0x3754e05f	1.2688425e-05
23	0x366e8f92	3.5548333e-06
24	0x37b77857	2.1871338e-05
25	0xb704fc3a	-7.926539e-06
26	0xb8057858	-3.182175e-05
27	0x379b9fbb	1.855182e-05
28	0x388af83e	6.6265915e-05
29	0xb81f0a59	-3.791819e-05
30	0xb7c7bfae	-2.3811906e-05
31	0xb7e2cd28	-2.7036833e-05
32	0x37387cb1	1.0996287e-05
33	0x374d66ed	1.22429165e-05
34	0xb8e356cc	-0.00010840371
35	0x377f13b2	1.520377e-05
36	0x3884af9b	6.3269596e-05
37	0x386bc3ed	5.6210836e-05
38	0x363aa603	2.7812791e-06
39	0xb8b3a410	-8.565944e-05
40	0x3829e256	4.050353e-05
41	0xb8e858fe	-0.00011079198
42	0xb81b03f5	-3.6958565e-05
43	0x374541ab	1.17574045e-05
44	0x37275e26	9.975896e-06
45	0x374b2c28	1.2110024e-05
46	0x3894a9e0	7.0888316e-05
47	0xb81b76c3	-3.7065485e-05

backbone.2.conv.0.1.running_var f4 [48]
0	0x3e0a1bb6	0.13487133
1	0x3d96eefe	0.07369803
2	0x3dca20aa	0.098695114
3	0x3e217932	0.15768889
4	0x3dd3b9e6	0.10338192
5	0x3dca7a0f	0.09886562
6	0x3daaab27	0.08333426
7	0x3c5ad4dd	0.013356415
8	0x3e1062a0	0.14100122
9	0x3d074c20	0.033031583
10	0x3d9ec332	0.07752074
11	0x3e32d83e	0.17465302
12	0x3d25060e	0.040288977
13	0x3d9d9cae	0.076959
14	0x3d8d06b0	0.06886041
15	0x3dbd9087	0.09256082
16	0x3d405b7f	0.046962257
17	0x3d74cb80	0.059764385
18	0x3dfd347c	0.12363526
19	0x3e8d77ef	0.27630565
20	0x3d0afed4	0.03393443
21	0x3d71e61d	0.059057344
22	0x3ce6b05a	0.028160263
23	0x3cec5dc7	0.02885331
24	0x3cb56e3f	0.022147296
25	0x3d80f0c8	0.062959254
26	0x3d445dfa	0.047941186
27	0x3d71e52e	0.059056453
28	0x3dda480c	0.10658273
29	0x3ca51c01	0.020154955
30	0x3e3a8f19	0.1821865
31	0x3d9a7818	0.07542437
32	0x3d764082	0.060120113
33	0x3dc65a28	0.09685165
34	0x3e02bd22	0.12767461
35	0x3d9e0925	0.07716588
36	0x3e294a00	0.16532135
37	0x3e1fc09a	0.15600815
38	0x3d35af2d	0.044356514
39	0x3e192ebf	0.14959238
40	0x3d190bbf	0.037364718
41	0x3e0c05fc	0.13674158
42	0x3d71ef5b	0.059066158
43	0x3dbee3a9	0.093207665
44	0x3da6ce77	0.08144849
45	0x3e0aeac4	0.13566118
46	0x3e0f29eb	0.13980834
47	0x3db95d3e	0.09050988

backbone.2.conv.1.0.weight f4 [48, 1, 3, 3]
0	0xbac19637	-0.0014769499
1	0xbe4dac70	-0.20085311
2	0xbe61c74f	-0.22048686
3	0x3b395b06	0.0028283014
4	0xbe4214c5	-0.18953235
5	0xbe1b9f8e	-0.15197584
6	0x3d316bbf	0.043315645
7	0xbdc6acdd	-0.0970094
8	0xbd7d3494	-0.06181772
9	0xbd7c8074	-0.06164594
10	0xbca39bc4	-0.019971736
11	0x3d0fc124	0.035096303
12	0xbe413f51	-0.1887181
13	0xbe5860e0	-0.21130705
14	0xbe1a8c25	-0.15092523
15	0xbdb7033a	-0.08936162
16	0xbda73e17	-0.081661396
17	0xbdd71fcc	-0.10504112
18	0xbde67eec	-0.11254677
19	0xbd885c63	-0.06658246
20	0xbcb5bbd1	-0.022184284
21	0x3e4da7cc	0.2008354
22	0x3ee52e90	0.44762087
23	0x3e849060	0.258914
24	0xbceeba29	-0.029141502
25	0xbdad808b	-0.08471783
26	0xbe8a8357	-0.2705333
27	0x3df0c1ad	0.11755691
28	0x3e5fffea	0.21874967
29	0x3dd5b7f3	0.10435476
30	0x3e821a6d	0.25410786
31	0x3edb11e9	0.42787102
32	0x3d9e29f0	0.07722843
33	0x3e0deff5	0.13861068
34	0x3e0195d3	0.1265481
35	0xbc107d87	-0.008818991
36	0xbd9ee8dd	-0.07759259
37	0xbeb78c15	-0.35849062
38	0xbe911a87	-0.2834055
39	0xbc16791f	-0.009184151
40	0xbd029ecb	-0.031889718
41	0x3d48456d	0.048894335
42	0x3d7233bf	0.05913138
43	0x3e8511c2	0.2599011
44	0x3e5efc1e	0.21775863
45	0x3dae1c78	0.08501524
46	0x3e8e5470	0.27798796
47	0x3dfd6836	0.12373392
48	0xbc960610	-0.018313438
49	0xbd900be9	-0.07033522
50	0xbd5e58e8	-0.054284006
51	0xbdf5c36b	-0.12000164
52	0xbe6fe483	-0.23427014
53	0xbe917fac	-0.28417718
54	0x3cf928c7	0.030414952
55	0xbd71f8e9	-0.05907527
56	0xbdce9c14	-0.10088363
57	0x3dacee9b	0.08443948
58	0xbe21ce92	-0.15801457
59	0xbeace3d3	-0.33767566
60	0x3d94a96c	0.07258877
61	0xbd049136	-0.032365046
62	0xbe8ab79c	-0.27093208
63	0xbdc07b10	-0.09398472
64	0x3b6994c5	0.0035641652
65	0xbc1d0bd2	-0.009585338
66	0xbdd91569	-0.10599787
67	0x3d8b91d6	0.068149254
68	0xbd2f456e	-0.042790823
69	0xbe136208	-0.14392865
70	0x3cb972d7	0.022637768
71	0xbdac23fe	-0.084053025
72	0xbd415f05	-0.04720976
73	0x3d586a35	0.052835662
74	0x3de8cce7	0.11367207
75	0x3d92d823	0.07170131
76	0x3e558781	0.20852472
77	0x3e538fa6	0.20660266
78	0x3e5bd8a9	0.21469368
79	0x3e974ee2	0.2955237
80	0x3daad13c	0.083406895
81	0xbe2e0e8b	-0.16997735
82	0x3e6254c1	0.22102644
83	0xbd74a1c7	-0.059724595
84	0x3d2b9b63	0.041896235
85	0x3e010785	0.12600525
86	0x3c5f6ffa	0.013637537
87	0x3dfb2f6c	0.122649044
88	0xbec53231	-0.38514856
89	0x3d70a712	0.05875308
90	0x3dd66f7f	0.10470485
91	0x3daffe41	0.08593417
92	0x3cb07c2a	0.021543581
93	0x3d435540	0.047688723
94	0x3e2e8449	0.1704265
95	0x3dd2fc50	0.10302031
96	0x3cd694ec	0.026194058
97	0x3e127c3a	0.14305201
98	0x3e3f1298	0.18659437
99	0xbdccce02	-0.1000023
100	0xbe675863	-0.2259231
101	0xbc5cdff3	-0.013481128
102	0xbe5af3d1	-0.21382071
103	0xbe964051	-0.29345945
104	0x38572050	5.1290088e-05
105	0xbd9dcbd2	-0.07704891
106	0xbd8e5ef4	-0.069517046
107	0x3c51148a	0.012761245
108	0xbc9d5878	-0.019207224
109	0x3dec1c1e	0.115288004
110	0x3d24cc93	0.04023416
111	0x3e08bb5a	0.13352719
112	0xbed4d39c	-0.41567695
113	0xbc42f220	-0.011898547
114	0xbdec8fba	-0.11550851
115	0x3e8ebf20	0.27880192
116	0xbbc022e6	-0.005863535
117	0xbd84157d	-0.06449411
118	0x3dd9743d	0.10617874
119	0xbda569fc	-0.080768555
120	0xbe2ba2c7	-0.16761313
121	0x3eab6de3	0.33482274
122	0xbe0296fc	-0.12752908
123	0x3c92ce64	0.01792068
124	0x3e5053ac	0.20344418
125	0xbe74c96c	-0.23904961
126	0xbd55b2c0	-0.052172422
127	0xbd84128d	-0.06448851
128	0x3d3b1608	0.045675308
129	0x3e25efed	0.16204806
130	0x3eb16f15	0.3465506
131	0x3dc30eb8	0.09524292
132	0xbe00fe9d	-0.12597127
133	0xbea6f288	-0.32606912
134	0xbe016f90	-0.12640214
135	0xbdc1ee4d	-0.094692804
136	0xbd857f49	-0.06518418
137	0x3dff0b8f	0.124533765
138	0xbe13cc62	-0.14433435
139	0xbe8e621b	-0.27809224
140	0xbb5b6ee8	-0.0033482853
141	0x3d14f445	0.036365766
142	0xbe972895	-0.2952315
143	0xbd1604e6	-0.036625765
144	0xbd99f834	-0.07518044
145	0xbd38f9a6	-0.04515996
146	0x3e1059b2	0.14096716
147	0x3c887a33	0.016659832
148	0x3e3a958d	0.18221112
149	0x3e4a3a8f	0.19748901
150	0x3df055ae	0.11735092
151	0x3e0fa313	0.14027052
152	0x3e14896b	0.14505546
153	0x3e63e35d	0.22254701
154	0x3e111804	0.14169317
155	0x3d4ef584	0.05052711
156	0x3e404483	0.18776135
157	0x3e089325	0.13337381
158	0x3cf338f9	0.029690253
159	0x3d93a44b	0.07209071
160	0x3df6bb9c	0.120475024
161	0x3c2b9758	0.010473095
162	0xbe103b58	-0.14085138
163	0x3c3c4d32	0.011493014
164	0x3dafc9b9	0.085833974
165	0xbe1aaa19	-0.1510395
166	0xbe999705	-0.2999803
167	0xbdc9542f	-0.0983051
168	0x3df46897	0.119340114
169	0xbdc83be9	-0.09777052
170	0xbdb283f2	-0.08716573
171	0xbd1c9c5a	-0.038235046
172	0xbe0eb735	-0.13937075
173	0xbda5c5f5	-0.08094398
174	0xbdb7737e	-0.08957575
175	0xbe97fde4	-0.2968589
176	0xbdcbeed1	-0.0995766
177	0x3dceabf5	0.10091392
178	0xbe7fba0a	-0.24973312
179	0xbe13acbd	-0.14421363
180	0x3d27630e	0.04086595
181	0x3da656e9	0.081220455
182	0x3d453fff	0.048156735
183	0x3de1f488	0.11032969
184	0x3eaac640	0.33354378
185	0x3d084fa4	0.033279076
186	0x3e2ea644	0.17055613
187	0x3e282c56	0.16423163
188	0xbe5b062a	-0.2138907
189	0xbe363a5d	-0.17795701
190	0xbdac39b5	-0.08409444
191	0x3df6aa78	0.12044233
192	0xbe835a5c	-0.25654876
193	0xbe19e058	-0.15026987
194	0x3e53cde4	0.2068401
195	0xbe28a467	-0.16468965
196	0xbe3b2cc9	-0.18278803
197	0x3d077af5	0.033076245
198	0x3d2fba6b	0.04290239
199	0xbe9dfae4	-0.30855477
200	0x3d14a9f1	0.03629488
201	0xbe4f5b59	-0.2024969
202	0x3ef548a6	0.4790699
203	0xbdd4c9ec	-0.10390076
204	0x3e0b2a91	0.13590457
205	0xbe1ad851	-0.1512158
206	0x3d26b785	0.04070236
207	0xbc29c95f	-0.010362952
208	0x3daf8809	0.085708685
209	0xbd95e949	-0.07319886
210	0x3d4f23a5	0.050571103
211	0xbf0009b9	-0.50014836
212	0x3ea4dd80	0.3220024
213	0xbc38a3bf	-0.011269509
214	0x3ea58f7b	0.3233603
215	0xbe776b19	-0.24161948
216	0xbba7dcd8	-0.005122762
217	0xba503d9a	-0.00079437497
218	0x3e21b48a	0.15791526
219	0xbdf1c7bb	-0.11805674
220	0xbe9d16ed	-0.30681553
221	0xbe603a49	-0.21897234
222	0x3e31a632	0.17348555
223	0x3e892228	0.26783872
224	0x3d691edc	0.056914195
225	0x3c9b7908	0.01897861
226	0x3e228168	0.15869677
227	0x3e1a1e3f	0.150506
228	0x3cf850e9	0.030312018
229	0x3e7a806c	0.24463052
230	0x3e3e80d2	0.18603829
231	0x3cd63396	0.026147645
232	0x3e9b7cf9	0.30368784
233	0x3d87d118	0.06631678
234	0xbbc6db3a	-0.0060686143
235	0xbe46186f	-0.19345258
236	0xbda14f69	-0.078764744
237	0x3e143cfd	0.1447639
238	0x3ea2b857	0.31781265
239	0x3e03a387	0.1285535
240	0xbdede4d4	-0.11615911
241	0xbe25f396	-0.16206202
242	0xbd48155e	-0.048848502
243	0x3dad9ead	0.08477531
244	0x3e41cbf9	0.18925466
245	0x3d8f18f5	0.06987182
246	0x3d45fc49	0.0483363
247	0x3e8d3fde	0.2758779
248	0x3e03feee	0.12890217
249	0xbc19d5d3	-0.009389359
250	0x3d422977	0.047402825
251	0xbd14b6d3	-0.036307167
252	0x3d350d07	0.044201877
253	0x3e3fbe7d	0.1872501
254	0x3e0f62a6	0.14002475
255	0x3d50641c	0.05087672

backbone.2.conv.1.1.weight f4 [48]
0	0x3f04aab1	0.51822954
1	0x3eae4023	0.34033307
2	0x3ebf01fa	0.37306195
3	0x3e55b312	0.20869091
4	0x3ec433da	0.3832081
5	0x3ebe7b49	0.37203434
6	0x3e22bb82	0.15891841
7	0x3e430be5	0.19047506
8	0x3e42da9e	0.19028708
9	0x3e8405b8	0.25785613
10	0x3e45dbd1	0.19322135
11	0x3efbc5ee	0.49174446
12	0x3e9f4cb1	0.31113198
13	0x3e81b91f	0.2533655
14	0x3ec3e8c4	0.38263524
15	0x3e8d5bd5	0.27609125
16	0x3e8d66c7	0.27617475
17	0x3e954fa9	0.29162338
18	0x3f0bc1e5	0.54592735
19	0x3f129ea8	0.5727334
20	0x3e5439c9	0.20725168
21	0x3e836124	0.2566005
22	0x3e93e469	0.288852
23	0x3e84cf67	0.25939485
24	0x3eb51e8a	0.35374862
25	0x3e63551a	0.22200432
26	0x3ebfb71f	0.37444398
27	0x3e54f77b	0.20797531
28	0x3e69ed91	0.2284453
29	0x3e5214dc	0.2051577
30	0x3f137a83	0.57608813
31	0x3e72ca6d	0.23710032
32	0x3e9bf8fc	0.30463398
33	0x3e5a06d2	0.21291664
34	0x3e4f762c	0.20259923
35	0x3eb44150	0.3520608
36	0x3e5f16f8	0.21786106
37	0x3ec5ff1f	0.38671204
38	0x3ea10487	0.31448767
39	0x3eb73abb	0.35786995
40	0x3ecb821e	0.3974771
41	0x3e8036c8	0.25041795
42	0x3ed6aeab	0.41930136
43	0x3eb49a2a	0.35273868
44	0x3eaeb1ad	0.3411993
45	0x3e1726d9	0.14760913
46	0x3ebd6e5a	0.36998254
47	0x3ea554a0	0.32291126

backbone.2.conv.1.1.bias f4 [48]
0	0xbce6545c	-0.028116398
1	0xbdb9dcae	-0.090752944
2	0x3c6bb361	0.014386029
3	0x3f3c18cc	0.7347534
4	0x3c2a414d	0.0103915455
5	0x3bdb98d0	0.0067015663
6	0x3f1d7f30	0.615222
7	0xbe759b2b	-0.23984973
8	0x3da9b589	0.08286578
9	0xbd9ad382	-0.07559873
10	0x3d39a44c	0.0453227
11	0x3e5a979d	0.21346898
12	0xbc9b850a	-0.018984336
13	0xbd097e4f	-0.033567723
14	0xba4ccc9b	-0.0007812471
15	0x3c930739	0.01794778
16	0x3dc3ac07	0.09554296
17	0xbdc9eadd	-0.0985925
18	0x3dd111a0	0.1020844
19	0xbc77b1e6	-0.015118098
20	0x3edf4797	0.43609306
21	0xbd507f9c	-0.050902948
22	0xbc357768	-0.011075832
23	0xbc90e4aa	-0.01768716
24	0xbb7ed42c	-0.0038883789
25	0x3d44933b	0.047991972
26	0xbcc485a6	-0.02398951
27	0x3dc68751	0.09693778
28	0x3e900b81	0.28133777
29	0xbd078f4e	-0.03309565
30	0xbd8ef1b0	-0.06979692
31	0xba5a1b1a	-0.00083200785
32	0x3b981f97	0.0046424377
33	0x3f2c7aa4	0.67374635
34	0x3f1facc0	0.6237297
35	0xbd34f77a	-0.044181325
36	0x3f161e59	0.58640057
37	0x3ec24340	0.37941933
38	0x3a836ee6	0.0010027557
39	0x3e74239b	0.23841707
40	0x3e80301e	0.2503671
41	0x3c25eac0	0.01012677
42	0x3ad7a4ea	0.0016452346
43	0xbc925b2f	-0.017865745
44	0xbdacfde8	-0.08446866
45	0x3e26b5fe	0.16280362
46	0x3dc7c134	0.097536474
47	0xbdb70fd3	-0.08938565

backbone.2.conv.1.1.running_mean f4 [48]
0	0xbdd5c0fb	-0.10437199
1	0xbdc680a2	-0.096925035
2	0x3da18924	0.078874856
3	0x3f0b1da5	0.5434211
4	0xbd3fd2b7	-0.046831813
5	0xbdb7d837	-0.089767866
6	0xbda7bf27	-0.08190756
7	0xbc8a6ff9	-0.016899096
8	0x3df55985	0.11979965
9	0xbbcc38c2	-0.006232352
10	0x3d5b5ce5	0.053555388
11	0xbe159dd2	-0.14610985
12	0xb9a0c7a5	-0.00030666325
13	0xbc151c75	-0.009101023
14	0xbc16ec9a	-0.009211684
15	0xbd7d06d8	-0.061774105
16	0x3c9200bb	0.017822614
17	0x3e1dfbec	0.15428132
18	0xbdc4779e	-0.09593128
19	0xbea85614	-0.32878172
20	0x3e4f6e4a	0.20256916
21	0xbdd689ba	-0.10475488
22	0xbba9a345	-0.005176934
23	0xbc3986f3	-0.011323678
24	0x38c6deb0	9.4828545e-05
25	0x3d93ca28	0.072162926
26	0xbb898314	-0.004196534
27	0x3b56061b	0.0032657448
28	0x3e8e3542	0.27775007
29	0x3cc0d8fe	0.02354097
30	0xbe11db19	-0.14243735
31	0x3dcf3f62	0.10119511
32	0x3d766f67	0.060164835
33	0xbe036918	-0.12833059
34	0xbe34ffe8	-0.17675745
35	0x3c3d3525	0.011548315
36	0xbdc6f931	-0.09715498
37	0xbe1a5bb9	-0.15074052
38	0xbbfaec87	-0.007657591
39	0x3e39b656	0.18135962
40	0xbe1a8f8a	-0.15093818
41	0x3e44800d	0.19189472
42	0xbd975e0a	-0.073909834
43	0x3d942d8b	0.07235249
44	0x3ce77cb6	0.028257709
45	0x3dbb051d	0.09131835
46	0xbe767403	-0.24067692
47	0x3d70c52f	0.0587818

backbone.2.conv.1.1.running_var f4 [48]
0	0x3cd2fa5c	0.025754146
1	0x3c76b55a	0.015057886
2	0x3ba32df8	0.004979845
3	0x3cd56324	0.02604825
4	0x3c3bac32	0.011454629
5	0x3b670ba5	0.0035254743
6	0x3ca6c8c9	0.020359414
7	0x392e5a8b	0.00016627663
8	0x3d2d39d5	0.04229148
9	0x3aa524a1	0.0012599417
10	0x3b9353a8	0.0044960566
11	0x3d2702ab	0.04077403
12	0x3a8a9a9f	0.0010574645
13	0x3b849d76	0.004047091
14	0x3c37422e	0.011185212
15	0x3c5642ad	0.01307742
16	0x3b13fe6e	0.0022582072
17	0x3c54533e	0.0129593
18	0x3c9af439	0.018915283
19	0x3cf6aff3	0.030113196
20	0x3c7d5a1d	0.015463379
21	0x3be673df	0.007032856
22	0x3b533286	0.003222616
23	0x3bb9af43	0.005666645
24	0x3c101d1f	0.0087960055
25	0x3c175ffc	0.009239193
26	0x3bafe1c4	0.0053674895
27	0x3965d847	0.00021919711
28	0x3b4f177c	0.003159969
29	0x39900223	0.00027467412
30	0x3d235b0d	0.039881755
31	0x3b1d6212	0.0024014753
32	0x3bb1c4c1	0.005425066
33	0x3cf279fc	0.029599182
34	0x3d06127d	0.032732476
35	0x3c2d8a6e	0.010592086
36	0x3c2b6aa4	0.010462437
37	0x3d573baf	0.052547153
38	0x3b7ecad0	0.003887821
39	0x3dc525b9	0.09626336
40	0x3d4da6ee	0.050208025
41	0x3bad6871	0.0052919914
42	0x3b88a346	0.0041698543
43	0x3be7a490	0.007069178
44	0x3bbd920e	0.0057852333
45	0x3c207cea	0.009795407
46	0x3c9339ab	0.017971834
47	0x39d21125	0.00040067095

backbone.2.conv.2.weight f4 [8, 48, 1, 1]
0	0x3e015448	0.12629807
1	0x3e89c8cc	0.26911008
2	0x3bcc7db8	0.006240573
3	0x3e37b8a6	0.17941532
4	0x3ebc5383	0.36782464
5	0xbd948b02	-0.07253076
6	0x3e2e7376	0.17036232
7	0xbe244a8b	-0.16044061
8	0xbdca1059	-0.09866399
9	0xbdda034c	-0.1064516
10	0x3d8dbeba	0.06921144
11	0x3eb261fd	0.34840384
12	0x3c7703fc	0.015076634
13	0xbd7df4f8	-0.0620012
14	0x3dca4542	0.09876491
15	0x3e8d55a5	0.27604404
16	0xbe5beac6	-0.21476278
17	0x3b32b9e6	0.0027271449
18	0x3e9ed224	0.310197
19	0x3ec52233	0.38502654
20	0xbd65f587	-0.056142356
21	0xbd25cecc	-0.04048042
22	0xbae92207	-0.001778663
23	0x3cdf5b9a	0.027265359
24	0x3e22d969	0.15903248
25	0xbceb83ef	-0.028749434
26	0x3e1a0e0e	0.15044424
27	0xbe30a0d8	-0.17248857
28	0xbe37d74e	-0.17953226
29	0xbcc66cd1	-0.02422181
30	0xbd9557cf	-0.07292139
31	0x3b5e9c25	0.003396758
32	0xbd860a7a	-0.06544967
33	0x3e964765	0.29351345
34	0x3e21242d	0.15736456
35	0xbdbff86a	-0.09373553
36	0x3e575021	0.2102666
37	0x3e8e5f38	0.2780702
38	0x3d641dd9	0.055692527
39	0xbd66bb3d	-0.056330908
40	0x3df5f577	0.12009709
41	0xbce7d287	-0.02829863
42	0x3e2fa61b	0.17153208
43	0xbe100512	-0.14064434
44	0xbd58755f	-0.05284631
45	0xbe3df29b	-0.18549578
46	0x3d017d6e	0.03161376
47	0xbd103c52	-0.035213776
48	0x3d3d6768	0.046241194
49	0x3e68a2d5	0.22718365
50	0x3e85e150	0.26148462
51	0xbea3d558	-0.31998706
52	0x3e2eae2d	0.1705863
53	0x3e663e96	0.22484812
54	0x3e05ab4d	0.13053627
55	0xbc8631bf	-0.016381143
56	0xbccd284c	-0.02504363
57	0xbd2e4ede	-0.042555682
58	0x3d89fd8c	0.06737813
59	0xbe1ddbe0	-0.15415907
60	0xbd3eec26	-0.046611927
61	0xbe1f0602	-0.15529636
62	0x3dc3b61a	0.095562175
63	0x3e288bfa	0.16459647
64	0xbdc2de6a	-0.09515078
65	0x3d97ea6f	0.074177615
66	0xbdd28f17	-0.102811985
67	0xbd095b95	-0.033534605
68	0xbdc9649f	-0.09833645
69	0xbe67225f	-0.22571705
70	0x3c4549ab	0.01204149
71	0xbcefa0ad	-0.02925142
72	0x3da09c62	0.07842328
73	0xbda3e33a	-0.080023244
74	0x3e357b79	0.17722882
75	0xbd3d56c2	-0.046225317
76	0x3e4e3d21	0.20140506
77	0xbd5486b0	-0.05188626
78	0x3d4244a5	0.047428746
79	0xbe41442e	-0.18873665
80	0xbddf3bfe	-0.109001145
81	0x3e0790c2	0.13238814
82	0xbd728ca2	-0.05921615
83	0xbddd2623	-0.107982896
84	0x3edadcb6	0.42746514
85	0xbeb7a13f	-0.35865209
86	0x3c804670	0.015658587
87	0xbe94c8c3	-0.2905942
88	0xbe1052e4	-0.1409412
89	0x3dee2ff8	0.11630243
90	0xbcfa5251	-0.03055683
91	0xbe1124df	-0.14174221
92	0xbdf6a953	-0.12044015
93	0xbe31ec81	-0.17375375
94	0xbd6f41b8	-0.058412284
95	0xbe487e27	-0.19579373
96	0x3e11de37	0.14244924
97	0xbbdf4556	-0.0068136854
98	0x3c937e33	0.018004512
99	0xbe807527	-0.2508938
100	0x3e39f873	0.18161182
101	0xbe815acb	-0.25264582
102	0xbdf6cc62	-0.12050702
103	0x3cc33088	0.023826852
104	0xbdff2b9c	-0.1245949
105	0x3e37e099	0.17956771
106	0xbd33c786	-0.043891452
107	0xbe9d276e	-0.30694145
108	0x3e9527e9	0.29132012
109	0xbe57ec4b	-0.21086232
110	0xbdde4599	-0.108531184
111	0x3ca61424	0.020273276
112	0x3e1f6904	0.15567404
113	0xbda7ecdd	-0.08199475
114	0x3da969e3	0.082721494
115	0x3db2d769	0.087324925
116	0x3d82e8b4	0.06392041
117	0xba554c6a	-0.0008136692
118	0x3e780753	0.24221544
119	0x3e731465	0.23738249
120	0xbddc138e	-0.10745917
121	0xbe266e05	-0.16252907
122	0xbe1cc459	-0.15309276
123	0x3e2d3d80	0.16917992
124	0x3e23dc5a	0.16002026
125	0x3e6a81fb	0.22901146
126	0x3d1de0c5	0.038544435
127	0x3d1ae18b	0.03781275
128	0xbe901b93	-0.28146037
129	0x3e6f901c	0.23394817
130	0x3e2b0b00	0.16703415
131	0xbe323b95	-0.17405541
132	0xbe190b3b	-0.1494569
133	0x3e53bd85	0.20677765
134	0x3e64aa2c	0.2233054
135	0xbe2ac0b1	-0.16675068
136	0xbbb4c576	-0.0055167032
137	0xbe358a71	-0.17728592
138	0x3c2cfbc6	0.010558074
139	0xbdfb7eb5	-0.12280027
140	0xbeb03ec4	-0.34422886
141	0x3e3f29fb	0.18668358
142	0xbec27320	-0.37978458
143	0x3e719204	0.23590857
144	0x3d2f7355	0.0428346
145	0x3e7895d4	0.24275905
146	0x3dbc87e0	0.092056036
147	0x3ea4f2e6	0.32216567
148	0xbdfac8f1	-0.12245358
149	0x3e049e46	0.12951002
150	0xbd5db10f	-0.054123934
151	0x3d017694	0.031607226
152	0xbe1c9e7a	-0.15294829
153	0xbc443446	-0.011975354
154	0x3e6bc149	0.23022951
155	0xbe50600d	-0.2034914
156	0x3d2c7f07	0.04211333
157	0x3d1b7fe1	0.03796375
158	0x3e3d9b1f	0.18516205
159	0x3d8386a1	0.06422163
160	0x3c2aafc6	0.010417884
161	0x3d200915	0.03907116
162	0x3c230197	0.0099491095
163	0xbe824688	-0.25444436
164	0xbde6590f	-0.11247455
165	0x3d7a6488	0.06113103
166	0x3d9bc196	0.07605283
167	0x3d8c2764	0.06843451
168	0x3e2dc582	0.16969875
169	0xbdb5d270	-0.088780284
170	0x3e0c5d72	0.13707522
171	0x3db826a1	0.08991743
172	0xbe3181f4	-0.1733473
173	0xbbf02789	-0.0073289317
174	0x3eaec2b3	0.3413292
175	0x3e091226	0.1338583
176	0xbd5772d6	-0.05259975
177	0xbdb47c65	-0.08812789
178	0x3e800b51	0.25008634
179	0xbc65fb67	-0.01403699
180	0x3db4fe68	0.08837587
181	0x3e645a5a	0.22300091
182	0x3d93e0b2	0.072205916
183	0xbdcde5ae	-0.100535735
184	0xbe1fed53	-0.15617876
185	0x3e9e8fe0	0.30969143
186	0x3eb4e092	0.35327584
187	0x3c7694c9	0.015050122
188	0xbd1e2894	-0.038612917
189	0xbd8fa563	-0.07013967
190	0xbebae122	-0.36499888
191	0x3db95d50	0.09051001
192	0xbd270c35	-0.040783126
193	0xbe1306a7	-0.14358006
194	0x3e37590b	0.17905061
195	0x3d9ca425	0.076484956
196	0x3e29dd55	0.16588338
197	0xbccfa29a	-0.02534609
198	0xbe7ccf7a	-0.24688521
199	0x3d2c5b36	0.042079173
200	0x3b67579f	0.003530003
201	0xbd854600	-0.06507492
202	0x3e423d6d	0.18968745
203	0x3e667ce9	0.22508587
204	0x3e3b8bcf	0.18315051
205	0x3ca38bac	0.019964062
206	0x3e99074c	0.2988838
207	0xbdfd9168	-0.1238125
208	0xbdb833fc	-0.0899429
209	0xbe92a7d4	-0.28643668
210	0x3b49aab4	0.0030771913
211	0xbe48973a	-0.19588938
212	0xbe357a03	-0.17722325
213	0x3d5fcb80	0.054637432
214	0x3d9c9648	0.076458514
215	0x3dcc8504	0.09986308
216	0x3e880770	0.26568174
217	0x3deb6f57	0.11495846
218	0x3e97115e	0.29505438
219	0xbe277dd7	-0.16356598
220	0xbd764471	-0.060123865
221	0xbde11997	-0.10991209
222	0xbe339a2d	-0.17539282
223	0xbe09bbaa	-0.13450494
224	0x3e2106d5	0.15725262
225	0xbe21c2cb	-0.15796964
226	0x3e0010cf	0.12506412
227	0x3e4611d8	0.19342744
228	0xbd651a7a	-0.055933453
229	0xbda4f939	-0.08055348
230	0x3e685c80	0.22691536
231	0xbdc09d7a	-0.09405036
232	0xbe2de958	-0.16983545
233	0x3d87cd12	0.06630911
234	0xbbbb12c9	-0.0057090265
235	0x3e1600fa	0.1464881
236	0x3d8bf9f1	0.06834782
237	0x3e1ada78	0.15122402
238	0xbdf2a679	-0.118481584
239	0xbe8b1b5c	-0.2716931
240	0x3d31cd58	0.04340872
241	0x3d2aa0d5	0.041657288
242	0x3e7d6f16	0.24749407
243	0x3d8c693a	0.06856008
244	0x3e8ad965	0.27118984
245	0x3e186a0d	0.14884205
246	0x3e6a4112	0.22876385
247	0xbd4b4f4c	-0.04963617
248	0xbe5cc639	-0.21559991
249	0x3e3ea3d4	0.18617183
250	0xbba89ddb	-0.005145771
251	0xbec2cf96	-0.38049
252	0x3e971345	0.2950689
253	0x3d974cb1	0.073876746
254	0x3e3b9359	0.18317927
255	0xbdbe319e	-0.092868075

backbone.2.conv.3.weight f4 [8]
0	0x3f0e5faf	0.5561475
1	0x3ee3f1ad	0.4452032
2	0x3ee0c4e5	0.4390022
3	0x3ee1f226	0.44130057
4	0x3ed9355b	0.4242352
5	0x3f103254	0.56326795
6	0x3edc1ce6	0.42990798
7	0x3f27340d	0.653138

backbone.2.conv.3.bias f4 [8]
0	0xb9273ce5	-0.00015949046
1	0xb77f2eda	-1.5210093e-05
2	0xb9a274f7	-0.00030986193
3	0xb933bdca	-0.00017141472
4	0x37d7ed62	2.5740537e-05
5	0xb841d194	-4.620997e-05
6	0x38e88716	0.00011087784
7	0xb93f74bf	-0.00018258671

backbone.2.conv.3.running_mean f4 [8]
0	0x3f854644	1.0412068
1	0xbe2c5141	-0.16827871
2	0xbd954f3e	-0.07290505
3	0x3eb1d75e	0.34734625
4	0xbe4b9575	-0.19881232
5	0x3ee6aee3	0.45055303
6	0xbdbf0f1b	-0.09329053
7	0x3e13b5d6	0.14424834

backbone.2.conv.3.running_var f4 [8]
0	0x3df6f5e7	0.12058621
1	0x3da55070	0.08071983
2	0x3de695db	0.112590514
3	0x3d4e1a79	0.050318215
4	0x3d77c13b	0.060487013
5	0x3e0642ec	0.13111466
6	0x3d7cac3a	0.061687686
7	0x3e181236	0.14850697
