ML Model/tv_detection_epoch_70/e-0-2.106.pth (torch_old, 466505 bytes, 205 tensors)

backbone.0.0.weight f4 [16, 3, 3, 3]
00000000: 9cea 7db6 2102 4b35 1312 64b6 ebaf a8b7
00000010: aa5e 57b7 2e9f f2b5 5867 49b5 1553 ec36
00000020: 191c 8636 7eac 1836 1600 b7b5 48bb dcb5
00000030: 5e04 0db7 5bd9 aa37 f011 0c35 ea2b 9e36
00000040: 6e14 ad37 0e49 b9b5 1892 4db7 ed14 1937
00000050: 5800 8b36 f521 8ab6 ce50 0eb6 8a3d 1c35
00000060: 99b8 75b7 68a7 b537 9244 deb6 cbc2 56bd
00000070: 3e42 f5bb f601 1b3d 2304 f73d f483 be3e
00000080: 0ec7 373d 5cde 4cbe 1b68 91be 8646 3bbd
00000090: 13db 53bd f34d 973d e40b cb3c 8e6b 833e
000000a0: 95f5 3d3f d085 c63d de3a b1be e45b 1dbf
000000b0: ba11 aabd 48bd de3a cbcb 2d3c d8ff 403d
000000c0: 08f2 0a3d b732 2a3e 11cb 5fbb b971 95bd
000000d0: 6d91 27be 1120 dbbb 59b3 c9bd be6f d33d
000000e0: ebfa 30bb 7750 cbbe 2262 3f3f 23d5 9dbe
000000f0: 0bda 29bf b606 6f3f 6cab 94be a885 e9bd
00000100: c3f7 493e 3a09 21bd 75bc 51bf 31c1 ac3f
00000110: 3f2c 08bf c7bd 86bf f8a8 be3f 9415 edbe
00000120: e4e2 17bc f3bf 1dbc 15f7 403d 7cb3 40be
00000130: 584d c83e 112b 23be 9e2a 86be 2e48 e63e
00000140: b006 13be d1e3 92bb f062 55bd d1fd 993d
00000150: 7f38 603d e5e4 453e 7e39 95be f214 823c
00000160: c2ee 9b3e b2c4 aebe a5eb 8cbc 9634 9dbd
00000170: a441 9a3d cad1 2c3d a158 033f aa30 20bf
00000180: 8954 403d 8fca 243f f3fc 35bf 909b d3bc
00000190: 314f 1bbd 929b 823c 174d 143d 5a85 a13d
000001a0: 1700 9dbd cc32 c3bb 86d4 ad3d 31f5 04be
000001b0: 0eba 93bd fe11 b73c 55ef be3c 49a6 803c
000001c0: e539 aabd 07bb 9dbd 336f 033e 4df0 c1bd
000001d0: 33a9 97be 1bdf 953c 85bb 063d 4b9e 93bc
000001e0: 16ca ad3d 55d2 59be 4aa0 87be 6a7e 5d3e
000001f0: 2399 51be 13db 00bf 8d35 42bb 9ac2 ae3c
00000200: 89f6 29bd a5ad 3cbb 0468 83bd 02c4 85bd
00000210: 8f01 033d 1912 5fbd e698 d7bd fb87 2a3e
00000220: 1d7e 313e 4f7b 75be 3da4 053e 6edf 263f
00000230: e1e3 7e3e 9a3b 1ebe 590a 203f 41e7 2b3f
00000240: e049 783c 878a 06be b9f6 0d3c bd1e 00bd
00000250: 70f7 7abe f03c 13be 4651 a7bc e63b 49be
00000260: da5d 14be 55f6 0cbe 3f3e 70bd 9298 753e
00000270: 85ab 0cbd 5492 c9be ec09 edbd b7e7 2d3e
00000280: 2a90 c5be 99bd f3be f099 53bc ceb5 5ebc
00000290: a3d4 c13b 70ba e73e 09b0 0cbe dbb6 59be
000002a0: 8257 fc3d 70db 03be 9c34 babd 672f 65bd
000002b0: 149a 02bc faab e63c 8594 6a3f 39f1 8bbe
000002c0: 3876 f1be f075 783e 1bfa 81be ced2 ddbd
000002d0: 9a65 913c c872 8f3c 0ce8 733b b4a2 583e
000002e0: 26e1 96bd ff43 0ebe 8feb 563d 369c 65bd
000002f0: 11f3 25bd ef60 b63c a871 88bc 5a8a eebd
00000300: 7d73 65bc 4fe8 b93d aaec 693e ccd0 89bc
00000310: c849 1d3e 2785 bc3e 301b babc 18f4 bcbd
00000320: b09b 34be aa7d 8b3b 076d 453e 3aa9 c03e
00000330: 5d2e 3c3b 2f4d b03e 63bd 193f c7e4 42bc
00000340: 31f0 bdbc f29a 12bd 3c5d 4db9 ecd9 333c
00000350: 31e9 d83d f78f 763c fbc1 863d 74d8 053e
00000360: d987 473d 85f9 203d 5541 0bbe 1faf 3ebe
00000370: f8af 2f3f d121 06bf 0c3c a63c 7054 393f
00000380: 5e42 31bf ad3b 28bd 6a35 273e f51c 59be
00000390: 5463 07be eaae 8a3f a8a5 6cbf 8a6f 183c
000003a0: 8495 853f 6e77 7cbf 4622 393d 4ddc 93bc
000003b0: f8bc 2dbc 1d99 f6bd 289e ca3e 6eb5 abbe
000003c0: abd3 b53b 49ce ca3e dba9 c9be e27c e9b6
000003d0: b2ac 79b7 538b 9ab7 664c bcb7 34f1 9eb7
000003e0: 7ba9 80b7 034a 28b7 9d68 dab6 00d0 cdb3
000003f0: b6b1 94b7 f094 44b7 a83f 2ab7 30f1 5bb4
-3.7836498e-06 7.562649e-07 -3.3985168e-06 -2.0109079e-05 -1.2837039e-05 -1.8076732e-06 -7.502872e-07 7.04302e-06
3.996782e-06 2.2750169e-06 -1.3634588e-06 -1.6445783e-06 -8.405272e-06 2.0366793e-05 5.2180167e-07 4.713879e-06
2.063272e-05 -1.3804836e-06 -1.2252967e-05 9.124383e-06 4.142563e-06 -4.1166736e-06 -2.1206683e-06 5.820408e-07
-1.4646118e-05 2.1654836e-05 -6.624098e-06 -0.052431863 -0.0074847033 0.037843667 0.12061336 0.37210047
0.044867568 -0.20006698 -0.2839974 -0.045721553 -0.051722597 0.073879145 0.024785943 0.25667995
0.74202853 0.096934915 -0.34615225 -0.6146834 -0.08304162 0.0016993666 0.01060767 0.04711899
0.033922225 0.16620909 -0.0034148137 -0.072970815 -0.1636407 -0.006687172 -0.09848661 0.103240475
-0.0027005028 -0.39709827 0.74759114 -0.30826673 -0.6634833 0.93369615 -0.29037035 -0.11402446
0.1972342 -0.03931544 -0.8192819 1.3496457 -0.53192514 -1.0526665 1.4895315 -0.46305525
-0.0092704035 -0.009628284 0.047110636 -0.18818468 0.3912151 -0.15934397 -0.2620439 0.44976944
-0.1435802 -0.0044827242 -0.052096307 0.07519115 0.05474138 0.19325598 -0.29145426 0.015879128
0.30455595 -0.34134442 -0.017202208 -0.076760456 0.07532051 0.042192258 0.5130711 -0.62574255
0.04695562 0.6437158 -0.71089095 -0.025831014 -0.03791732 0.015943322 0.03620633 0.07886763
-0.07666033 -0.005956983 0.08487801 -0.12984158 -0.072132215 0.022347447 0.023307482 0.015704291
-0.08311824 -0.07701688 0.12835388 -0.09469662 -0.29621276 0.018294862 0.032893676 -0.018019816
0.084858105 -0.21271642 -0.26489478 0.21630254 -0.20468573 -0.5033428 -0.002963397 0.021333028
-0.04149488 -0.0028790024 -0.06416324 -0.06531526 0.03198391 -0.05446062 -0.1052721 0.16653435
0.17333265 -0.2397282 0.13050933 0.65184677 0.24891616 -0.15452424 0.6251579 0.6714974
0.015154332 -0.13138781 0.00866478 -0.031279314 -0.24508452 -0.14378715 -0.020424496 -0.19651756
-0.14488927 -0.13765843 -0.058653113 0.23983982 -0.03434326 -0.39369452 -0.11574158 0.16982923
-0.3858655 -0.4760559 -0.0129151195 -0.01359315 0.005915241 0.45259428 -0.13739027 -0.2126116
0.12321378 -0.12876678 -0.09092066 -0.05595341 -0.007971305 0.028158177 0.9163287 -0.27332476
-0.47160506 0.2426374 -0.25386128 -0.108312234 0.017748643 0.017510787 0.0037217168 0.21155816
-0.073671624 -0.13893126 0.05247074 -0.056057177 -0.04051501 0.022263018 -0.016655758 -0.11647482
-0.014004585 0.090775125 0.22844186 -0.016823195 0.15360177 0.36820337 -0.022718042 -0.09226245
-0.17637515 0.0042569237 0.19279872 0.3762911 0.0028714158 0.34433886 0.60054606 -0.011895365
-0.023185821 -0.0357923 -0.00019585056 0.01097725 0.10591353 0.015048972 0.065799676 0.13070852
0.04871354 0.03930046 -0.13599141 -0.18621491 0.6862788 -0.5239535 0.020292304 0.72394466
-0.69241893 -0.041072536 0.1632897 -0.21202452 -0.13221484 1.083463 -0.9244027 0.009303937
1.0436254 -0.98619735 0.0451987 -0.018049384 -0.010604136 -0.12040923 0.3957379 -0.33536857
0.0055489144 0.39610508 -0.39387402 -6.9584794e-06 -1.4881765e-05 -1.8423108e-05 -2.2446922e-05 -1.8947387e-05
-1.533771e-05 -1.00308125e-05 -6.509085e-06 -9.5838914e-08 -1.7725728e-05 -1.1717188e-05 -1.0147611e-05 -2.0483708e-07

backbone.0.1.weight f4 [16]
00000000: c03c 21b5 b0f0 3a3e 1cc3 523e 5c77 703e
00000010: 48a0 083e fe36 173e 494d a83d 7394 823e
00000020: 7fcd bf3d b9b5 6b3b 4f44 d63e 7c42 d53d
00000030: e63a 5d3e ad50 993e d533 1d3a 0f5e 95b9
-6.0065577e-07 0.18255877 0.20582241 0.23483032 0.13342392 0.14767072 0.08217866 0.25503883
0.09365367 0.003596647 0.4184899 0.104130715 0.21604499 0.29944363 0.0005996798 -0.00028489574

backbone.0.1.bias f4 [16]
00000000: a29a 2abb 289a 103f 2ced ae3e 746a 963e
00000010: 3e9b 783f 35b3 283f 032f 003f adf1 0e3f
00000020: ce52 1c3f 45ff ed3b 4628 9bbe 3170 763f
00000030: 65ab e83e f8af c5be 5a7c c2b5 ca6d 27b9
-0.002603211 0.56485224 0.34165323 0.29378092 0.9711188 0.6589845 0.50071734 0.5583752
0.6106385 0.0072630965 -0.30304164 0.9626494 0.45443264 -0.38610816 -1.4490317e-06 -0.0001596726

backbone.0.1.running_mean f4 [16]
00000000: 9813 abba d8bf 1041 643c a141 daf3 b1c1
00000010: ec6d 1ac3 3529 46c1 85fb 71c0 c6bb 5543
00000020: 9e0d a1c0 8816 b2bc e96e 8ac2 15d8 2043
00000030: 5c15 1942 f9e8 e542 9ebd 2d3a a8be 6bbc
-0.0013052104 9.046837 20.154488 -22.244068 -154.42938 -12.38506 -3.7809765 213.73349
-5.0329123 -0.02173926 -69.21662 160.84407 38.27086 114.955025 0.00066276814 -0.014388718

backbone.0.1.running_var f4 [16]
00000000: b3d1 a939 02a7 b344 d6a0 0146 0313 c544
00000010: f88b 3646 f836 c345 4a55 1f45 3b12 b246
00000020: 6e9e b345 f05c 0f3b b115 6145 8e46 4746
00000030: 433f 1c45 6b25 ef45 e612 2438 f98d 333c
0.0003239043 1437.219 8296.209 1576.5941 11682.992 6246.871 2549.3306 22793.115
5747.8037 0.0021875463 3601.3557 12753.639 2499.9539 7652.6772 3.9118248e-05 0.010959142

backbone.1.conv.0.0.weight f4 [16, 1, 3, 3]
00000000: 30b6 2f35 f2ab 0cb6 acc5 8cb5 1a97 31b6
00000010: cd81 4235 8e74 133c 95a7 4536 0f25 70b6
00000020: 07b0 d8b5 bdc2 a63c 1884 dcbc 1679 af3d
00000030: 995b bbbb 39ca 1ebe 3e5c 3f3f a18c 0b3d
00000040: 4f50 bf3d bb06 4dbf 6f14 15ba f57b 9ebc
00000050: c762 1ebe a4c9 b43b 8290 963d 14b1 973f
00000060: d13f 0fbc 7f5b 45bd ab18 01bd ea63 cfbd
00000070: 658b b5bd 9598 ccbd cb4f 593d 6aa9 433f
00000080: 951b a1be df36 2fbd 1841 51bd f417 4abe
00000090: 9d2e 173f cb3c f73f eed7 e23e 4ae2 663e
000000a0: 9aea de3e 3ff1 2a3e 1a8e 5ebf 2382 0ac0
000000b0: a767 47bf 8be2 a2bc 767c 123e c338 2ebe
000000c0: 28de 4f3e fcb6 b33e a155 e2bf 43d1 b53c
000000d0: 7a90 9c3f b983 823e 461f b0bb 36fa bb3d
000000e0: 5b7d a8bd 5cef 5c3c 8dc3 453b 3c41 5bbf
000000f0: b8bc 82bc 7eaf 64bd 3953 793f 66b3 febe
00000100: 7ef0 84be 99f6 443f 6125 1ac0 fc46 aabe
00000110: 57c0 2b40 4de4 fbbe b062 36be 911a 233f
00000120: 69d0 cebc af17 013e 4d37 aebd f6dc ce3c
00000130: dcec 8ebf 1fa6 423e b30e 4f3c 955d a63c
00000140: f817 f7bc e81c bfba 83bf d4ba e0a3 b5ba
00000150: f19c afba 35a7 a9ba 36e2 99ba 236c 6cba
00000160: 180d 80ba 8ddc 63ba 4236 ef3d 2dd3 f2bd
00000170: e80c f1be 3e02 35be 0666 293e 6134 c83e
00000180: 501b d8be 4e20 873e bafe d33e 43ae 463e
00000190: 1540 d03f 9e9e 833f bd6f b23d 1dbe a03d
000001a0: f0ff f1bd 863b abbe 087d cdbf 5d1a 7abf
000001b0: 41f0 1fbc 0224 163d 9520 bbbc 9709 1c3c
000001c0: f74b cf3c 471d 29bf 1be3 d0bc 32a4 df3c
000001d0: 8162 5b3f c528 52bd 1d39 463c 7631 c5bd
000001e0: 9b08 b83c 0bf7 3e3d 2d70 d7bd 1350 e8bd
000001f0: 7b65 dbbd c957 3f3f 33e4 8736 1b55 3a36
00000200: f525 a835 5ea5 2e36 e9c4 d235 abf8 8234
00000210: 8820 5635 c57d 82b5 890c f1b5 be3f 00b7
00000220: e6e4 14b7 4255 32b7 cdeb 1fb7 c863 18b4
00000230: 0608 3336 ae98 3536 4814 4e36 8f74 0d36
6.54577e-07 -2.096171e-06 -1.0488343e-06 -2.6463008e-06 7.2459517e-07 0.008999957 2.9452833e-06 -3.5784358e-06
-1.6144485e-06 0.02035653 -0.026918456 0.08568017 -0.0057177064 -0.1550683 0.74750125 0.03406966
0.093414895 -0.80088395 -0.0005686944 -0.019346217 -0.15467368 0.0055172015 0.073517814 1.1850915
-0.008743242 -0.04818296 -0.031517666 -0.10126479 -0.08864478 -0.0999004 0.053054612 0.7643038
-0.31466356 -0.04277694 -0.05108747 -0.197357 0.590555 1.9315428 0.44305366 0.2254726
0.43538362 0.1669359 -0.8693558 -2.164193 -0.77892536 -0.019883415 0.1430529 -0.1701384
0.2029959 0.35100543 -1.7682382 0.02219451 1.2231591 0.2549112 -0.005374822 0.09178583
-0.08227035 0.013484802 0.0030176372 -0.85646415 -0.015959129 -0.055831425 0.9739261 -0.49746245
-0.2596473 0.7693878 -2.4085314 -0.33257282 2.6836145 -0.49197617 -0.17811084 0.6371241
-0.025245862 0.12606691 -0.085066415 0.025251847 -1.1166034 0.19008683 0.012637782 0.020308295
-0.030162796 -0.0014580758 -0.0016231391 -0.0013858043 -0.0013398213 -0.0012943508 -0.001174039 -0.0009018799
-0.0009769527 -0.00086922274 0.11680271 -0.11856685 -0.4708016 -0.17676637 0.16542825 0.39102462
-0.42208338 0.26391834 0.41405278 0.19402413 1.6269556 1.0282781 0.08712719 0.07848761
-0.11816394 -0.3344385 -1.6053782 -0.9769648 -0.009761871 0.036655433 -0.022842685 0.009523771
0.025304778 -0.660603 -0.025498917 0.027299974 0.8569718 -0.051308412 0.012098578 -0.096285746
0.02246504 0.046622317 -0.10519443 -0.11343398 -0.10712715 0.74743325 4.0498794e-06 2.7765698e-06
1.2528022e-06 2.6024277e-06 1.5703528e-06 2.4395317e-07 7.976855e-07 -9.722359e-07 -1.7959547e-06 -7.644236e-06
-8.874782e-06 -1.0629477e-05 -9.53204e-06 -1.4192403e-07 2.6677749e-06 2.7059973e-06 3.0708197e-06 2.1078483e-06

backbone.1.conv.0.1.weight f4 [16]
00000000: b7dc 6937 80e7 0e3f 4667 393f 910d 003f
00000010: 306a 913f bd9f fe3e 0ae1 163f d836 573f
00000020: 8f3c ff3e f0a7 d0bb 9e68 563e a1d8 883f
00000030: 4341 2e3f 998c 733e 789b 7338 ded7 abb7
1.3939271e-05 0.5582199 0.7242321 0.500207 1.1360531 0.49731246 0.5893713 0.8406806
0.4985089 -0.006367676 0.20938346 1.069111 0.6806833 0.23784102 5.8080506e-05 -2.048531e-05

backbone.1.conv.0.1.bias f4 [16]
00000000: f5da a2b6 5596 703f 3ea3 b93f 4976 f53e
00000010: 85ba 733e fcf6 853f 5ff7 713f 9d84 d23e
00000020: 370b 103f a484 b2bb c685 be3e 4a14 4a3e
00000030: 89b3 863f 41ab b5be 80f2 a432 aa5d 5039
-4.853466e-06 0.9397939 1.4502943 0.47941807 0.2380162 1.0465999 0.94518083 0.411168
0.5626711 -0.005447941 0.37211436 0.19734302 1.052354 -0.3548222 1.9202389e-08 0.00019871318

backbone.1.conv.0.1.running_mean f4 [16]
00000000: b5c2 0226 4d7c 13bb 7aa1 a93e 349f a1bc
00000010: c27a f3bb 2cf4 243e 1485 f53c d05b 38bd
00000020: ce86 0abf 138f d7b8 739b 003c e56c 76bc
00000030: 4074 c53d b1d9 e83b c65c 97b0 c03c c72f
4.536669e-16 -0.002250451 0.3313101 -0.019729234 -0.0074304054 0.16108769 0.029970683 -0.045009434
-0.54111946 -0.000102786486 0.007849562 -0.015040611 0.096413136 0.007106029 -1.1013064e-09 3.6241055e-10

backbone.1.conv.0.1.running_var f4 [16]
00000000: 2349 dd20 4b66 e33c 6dc6 d43c 88a1 bc3c
00000010: f86b 623e 8d82 273d 9a7c a13b 013e b53e
00000020: 29e8 143c 30b3 2331 3511 483b a27e 123e
00000030: e6ab ff3c 5d0b 5a3a d8f5 2f27 8e87 5d28
3.7487254e-19 0.027758738 0.025973523 0.023026243 0.221115 0.040895987 0.0049281837 0.35398868
0.009088554 2.3821478e-09 0.0030527834 0.14306119 0.031209897 0.00083177333 2.44194e-15 1.2297358e-14

backbone.1.conv.1.weight f4 [8, 16, 1, 1]
00000000: 3714 8d36 8acd 4d3d 1371 93bd 9c0f 323e
00000010: 9783 0abd 908c 323f 55e8 633e d93a cdbc
00000020: 0b53 6ebd d7ae f73a 23ab 3f3b 4de3 7b3e
00000030: add6 6b3d 150d c7bd 07e1 52b6 4c26 4a36
00000040: c6fa 0837 3d17 863c 749a 13bf 90ca a2bd
00000050: 87d3 b23d 4722 3fbb a8af 4dbd 066b 973d
00000060: 20ed c93d 0abf 6dbb 7cf4 043e 073b 15bd
00000070: b755 e4bd d1a6 483e 483e fb36 ac27 54b6
00000080: 8569 7cb6 968c 0f3f 212a f13d ec8b d13e
00000090: 0838 62be c96b 4bbe 69d4 89be fc88 913d
000000a0: 4591 1bbe 44c4 d3bb f315 39bd 7936 b03e
000000b0: 4efe ba3d 4d45 36bd c5ee fbb6 1057 c637
000000c0: 0032 a5b7 a31c 96bd d59d 07be 8dbe 023e
000000d0: d5e8 ea3e d99d edbe b8cb 583d 72b3 803d
000000e0: fb6e 8abe 4414 88ba 1471 f83c fbd5 e5be
000000f0: 6b63 8a3e 07f8 ab3e ef3b 8c36 f0a9 3f36
00000100: 41f3 2037 26a5 b5be 26d8 8b3e e8ae c7bc
00000110: fa75 363e 563c 1dbf 0d6b 8b3d 21f5 8ebe
00000120: 73db 223e 9d35 c439 f009 193e a974 babd
00000130: 8512 4bbe 32c4 64bd 0223 0a37 183e a634
00000140: d023 d9b3 b74a 2abe 7fa1 fbbc e44b 0dbf
00000150: 8eca 99be 8107 78be c19c d13e 249c df3e
00000160: 7865 d33e 3006 9b3b 946a 6e3d e96b e73e
00000170: e428 34bd 5016 883d 802e b835 c395 8cb6
00000180: 982b 3d34 bcf1 d93e ced6 01be 7b9e c2be
00000190: ba26 e2be b3ac 8a3c 5542 623d 8bd7 53bf
000001a0: 0a1b 373e 9ce6 333b d0fb 98bd 7c5e 5a3e
000001b0: 2369 dbbd 84c0 333e 488a 8334 bb0f c336
000001c0: 2e1e 26b8 14b0 ab3d 5fc0 4f3e 254b 03bd
000001d0: ad44 f13e 33f1 073f 1794 46be 7c2e 333e
000001e0: d353 e6bd 4078 483b 1291 1d3e ebf6 08bf
000001f0: 8416 55be 7c04 10bc a210 e835 2d0c 7ab7
4.204481e-06 0.050244845 -0.071993016 0.17388767 -0.0338169 0.6974573 0.22256596 -0.025052475
-0.058184665 0.0018896711 0.0029246293 0.24598427 0.057577778 -0.09719292 -3.1423422e-06 3.0122637e-06
8.164619e-06 0.016368503 -0.5765755 -0.07948792 0.08731752 -0.0029164718 -0.050216347 0.0739346
0.09859681 -0.0036277198 0.12983888 -0.036433246 -0.11149161 0.19594885 7.4876334e-06 -3.1613554e-06
-3.7612347e-06 0.5607389 0.117756136 0.40927064 -0.22091687 -0.19865336 -0.2691987 0.07106206
-0.15192135 -0.0064626057 -0.045186948 0.3441656 0.09130536 -0.044499684 -7.5081794e-06 2.3643981e-05
-1.9692816e-05 -0.07329681 -0.13243802 0.12768002 0.45880762 -0.4640949 0.052928656 0.062842265
-0.27037796 -0.0010382016 0.030327357 -0.44889817 0.27028975 0.33587667 4.1793023e-06 2.8560135e-06
9.59338e-06 -0.3547756 0.27313346 -0.024375394 0.17818442 -0.6142019 0.06807528 -0.27921394
0.15904026 0.00037423978 0.14945197 -0.091042824 -0.19831283 -0.05585117 8.233592e-06 3.096509e-07
-1.0111364e-07 -0.16630064 -0.030716656 -0.55193925 -0.3003735 -0.24221613 0.40939906 0.43673813
0.41288352 0.004730962 0.05820711 0.45199516 -0.04398431 0.06644881 1.3722602e-06 -4.1897597e-06
1.7617856e-07 0.4256724 -0.12679598 -0.38011536 -0.4417017 0.016928053 0.05523904 -0.8275077
0.17881408 0.0027450686 -0.074699044 0.21325105 -0.107134126 0.17553908 2.4501264e-07 5.813284e-06
-3.960559e-05 0.083831936 0.20288227 -0.032054085 0.47122708 0.53102416 -0.1939243 0.17498201
-0.11246457 0.0030589253 0.15387371 -0.53501767 -0.2080937 -0.008790132 1.7290188e-06 -1.4903996e-05

backbone.1.conv.2.weight f4 [8]
00000000: 4ec3 033f e55e 083f 0def 123f 1e81 e43e
00000010: 1eec 133f 6725 1c3f c87c 1b3f bc5b 083f
0.51469886 0.532698 0.5739601 0.4462976 0.5778216 0.6099457 0.60737276 0.53264976

backbone.1.conv.2.bias f4 [8]
00000000: 6a16 44b8 9822 44b9 75d7 67b9 52a9 0339
00000010: 5471 cd38 5541 9b38 cadf e037 4178 29b8
-4.6750916e-05 -0.00018704904 -0.0002211014 0.0001255621 9.796271e-05 7.403145e-05 2.680709e-05 -4.0404735e-05

backbone.1.conv.2.running_mean f4 [8]
00000000: 2652 893f d104 5dbf 3f4d 013f 1e08 d6be
00000010: 0636 38bf 8d89 0e3e 8bb2 f1be 260b 183f
1.0728195 -0.86335474 0.50508493 -0.41803068 -0.71957433 0.13919659 -0.4720653 0.5939201

backbone.1.conv.2.running_var f4 [8]
00000000: 4002 103e 5e22 283e db06 543e 4fd7 503e
00000010: f58a 373e 7451 a93e 006e d03e 7cd6 293e
0.14063358 0.1641936 0.2070574 0.20394634 0.17924102 0.33069956 0.40708923 0.16585726

backbone.2.conv.0.0.weight f4 [48, 8, 1, 1]
00000000: 63db 2a3e f41a 293d 1132 123e a646 f7bd
00000010: 5ae1 04be 6308 813c d807 a33e 8e2d a63c
00000020: ef29 423d 7dd5 a23d 0a2d e73d 2fb8 053e
00000030: 2158 38be 5dd1 9fbe 883a bbbd 09c0 dbbd
00000040: 4dcf a4bd cdce 7bbd 1940 17be 29be b13d
00000050: 8000 b4ba 3d1a bf3d 1e72 b1be 36d0 063e
00000060: 9a5a 7ebc a5b0 713e b4c5 823d 69f8 18bf
00000070: be52 0bbc c82d 0bbe 5337 7ebe e3c5 cbbe
00000080: 39ea 7f3d 063d 78bd 5d58 043e d905 9cbe
00000090: cd58 efbd 2bae 2b3e 6387 443d 3072 35be
000000a0: 090c 42bd ef14 b73c 517c 003d 72e4 f8bd
000000b0: 4bdb c8ba 281e 223e b3cb 463e 14ae 1cbe
000000c0: 1583 533d 528d 133e 592c dd3d 0dae cd3d
000000d0: d855 00be bbd6 99be 8ac4 30be 256c 14bb
000000e0: 6e3c e23c c2ed 4e3e 4393 673d fc93 0fbd
000000f0: d78e fdbb 4217 d13d fcd0 6ebd 4919 133e
00000100: bd95 a3be c386 a1bd 6e39 bf3e fc22 29bc
00000110: fa0d 4bbd 2699 a4bc 5a04 0dbe 65aa e2bc
00000120: 0850 7f3c 6c99 8c3e ce44 c6bc fee5 303e
00000130: 729f 1fbe baac 0cbd a6a3 5d3d 74cd 95bd
00000140: 02c7 5f3d caa0 06be 6065 8fbc 8f40 c9be
00000150: 0802 1b3d 6b4f ebbc d6b8 98bd 36f0 ff3d
00000160: 8e11 9ebd de68 7ebc 3a54 babd 583d 853e
00000170: 259d 3abd fc5d 25be 3085 89be f5ca 6e3e
00000180: c67c f33d 4329 c53d a58e c7bd ca02 47bc
00000190: e416 cd3d 4c1a 363e fb0b 2d3c b089 b13d
000001a0: 1e61 f03d 7b23 39be 348c 5dbb 6381 dbbd
000001b0: f799 8dbe a18e 303e 6c97 653d 4f1a 4b3e
000001c0: f7d0 67be e452 c8bd 5411 e23d 496a 903e
000001d0: 4814 4c3e 5e09 243e fbb4 9cbb 2862 93be
000001e0: c3e2 f53c 28fb c93d 18aa 353e 433d 0f3e
000001f0: dc1c b4be 54b7 cbbd 5f1f 603c 65a9 57be
00000200: b2cc 703e 98f9 8b3d fbcc 373e 68a2 373e
00000210: 7ae3 533e 1657 083e a71d b03d 5c09 4bbb
00000220: bf07 ff3b 463c 19bd dcac 413e 6ec0 62be
00000230: a89f f4bd f200 a03d 6371 2b3d 7a5a 0fbd
00000240: 4408 3fbe 4692 c43c 6451 f6bd e579 d73d
00000250: f22e 37be 16b9 1bbd b6f2 a7be e3c8 6f3e
00000260: 7d81 b6bd 664f 333d 73b5 51be 6c9b 6e3e
00000270: 5b62 073e 02d4 8fbe 9d14 81be 0709 b33e
00000280: 25c3 f53c 3a07 2e3e 3450 393e 929b 813e
00000290: d1fb a7bc cff4 d93c 16a1 063e 0be5 d83d
000002a0: c8d5 ca3d 97d4 07bd f5dc 8b3d f1f8 a9be
000002b0: 816e 123e 28ad dcbd ad78 abbe f3b0 35be
000002c0: a697 823d e015 343d 71ff bd3b 1df9 e93d
000002d0: 9258 a0bd 9b51 02be 8188 afbc f0a9 81bd
000002e0: 1886 5a3e e940 7a3d fe8a ab3d fd24 513d
000002f0: efd6 ce3d d6e9 31bb 95d6 96bb 16da 6b3d
00000300: 63f9 afbc f6ce ee3b 4947 cb3d 846e c83d
00000310: 29ca 923b 8fca 95be dbaf 143c 767a 8abd
00000320: 4eb3 23bd 341d edbe 90fa 4c3e f827 39bd
00000330: 8d05 543e 659a d9bd 14d8 97bd 4710 763e
00000340: 784e 9d3c aa93 ac3d 772d 543e 2de5 583d
00000350: 5851 cdbd 024a f6bb 5164 3b3e 4134 373e
00000360: 4e9b a2be de85 7f3d 6da8 9ebd 837f 513e
00000370: f5b2 1fbe dea3 853c 4785 923e c67b 573d
00000380: dff9 963e 9901 ef3d 3e5a ddbd 5278 1abe
00000390: 1a62 24bd 070c a9be de59 2b3d 83d6 983d
000003a0: c37b 5a3c e889 983d e40c 2d3e 9050 4c3e
000003b0: e369 943c 91f6 0a3e 782c f53c 3cb7 5dbc
000003c0: c00b 17be f823 03be bc35 ddbe 680a 92bd
000003d0: a073 3d3d 9185 d23e 7310 bd3d badf 4e3b
000003e0: f195 443e cfce 8dbd 06b6 90bd 2223 69be
000003f0: d691 84be 1f5f 78bc 7538 553d e6cb 913e
0.16685252 0.04128547 0.14276911 -0.12074022 -0.1297659 0.01575107 0.31841922 0.020285394
0.047403272 0.07950876 0.112878874 0.13058542 -0.18002369 -0.3121442 -0.09142023 -0.10729987
-0.08047352 -0.061476517 -0.14770545 0.08678848 -0.0013733059 0.093311764 -0.34657377 0.13165364
-0.015524531 0.23602541 0.06385365 -0.59754044 -0.008503614 -0.13591683 -0.24825792 -0.39799413
0.06247923 -0.06060507 0.12924333 -0.3047321 -0.11686859 0.16765659 0.047980677 -0.1771934
-0.04737476 0.02234885 0.031368557 -0.121529475 -0.0015324143 0.15831816 0.19413643 -0.1530078
0.05163868 0.14409378 0.10799474 0.10042963 -0.12532747 -0.3004664 -0.17262474 -0.0022647467
0.027616706 0.20207885 0.056536924 -0.03505324 -0.007737975 0.10209514 -0.05830477 0.14365114
-0.3195018 -0.07887032 0.37348503 -0.010323282 -0.049573876 -0.020092558 -0.13771191 -0.027669141
0.015583046 0.27460802 -0.02420273 0.17275235 -0.15588167 -0.034344412 0.054111145 -0.07314578
0.054633148 -0.13147274 -0.017504394 -0.39307067 0.037843734 -0.028724393 -0.0745713 0.124969885
-0.07718192 -0.015527932 -0.09098096 0.26023364 -0.04556002 -0.16149133 -0.26859426 0.2331961
0.11889033 0.09627011 -0.09744004 -0.012146661 0.10014132 0.17783469 0.010561938 0.0866884
0.11737274 -0.18079941 -0.0033805491 -0.10718038 -0.27656528 0.17241909 0.05605261 0.19834255
-0.22638308 -0.09781435 0.11038461 0.2820609 0.19929612 0.16019198 -0.0047823167 -0.28785825
0.030015355 0.098623574 0.17740667 0.13988213 -0.35178268 -0.099470764 0.013679354 -0.21060713
0.23515585 0.068347156 0.17949288 0.17933047 0.20692244 0.1331447 0.08599406 -0.003098092
0.007782906 -0.037410997 0.18913597 -0.22143719 -0.119445145 0.0781268 0.04185618 -0.034998395
-0.18655497 0.02399553 -0.12027243 0.105212964 -0.17889002 -0.03801831 -0.3280236 0.23416476
-0.08911417 0.043776892 -0.20479374 0.23301476 0.13221113 -0.28091437 -0.2521104 0.34967825
0.030000279 0.16994944 0.18097001 0.25314003 -0.020505818 0.026605992 0.13147387 0.105905615
0.09904057 -0.033161726 0.068292536 -0.3319774 0.14299966 -0.107752144 -0.33490506 -0.17743282
0.06376581 0.043966174 0.0057982733 0.11424468 -0.078293934 -0.12726443 -0.021427395 -0.06331241
0.21340215 0.06109706 0.0837612 0.051060665 0.10099589 -0.0027147434 -0.004603217 0.05758103
-0.021481222 0.0072878553 0.09925706 0.09786704 0.004479666 -0.29256102 0.00907513 -0.06761639
-0.03996592 -0.46311343 0.20017457 -0.045204133 0.20705242 -0.106251515 -0.074142605 0.24029647
0.019202456 0.08426602 0.20720468 0.052952934 -0.10025281 -0.0075161466 0.18299986 0.17891027
-0.31759113 0.062383525 -0.077469684 0.20458798 -0.1559561 0.01631349 0.28617308 0.052608274
0.29487512 0.116702266 -0.10808228 -0.15084961 -0.04013262 -0.3301699 0.04183375 0.0746279
0.013335171 0.074481785 0.16899449 0.19952607 0.018116897 0.1357062 0.02992843 -0.013532456
-0.14750576 -0.1280669 -0.4320506 -0.07130891 0.046252847 0.41117528 0.09231653 0.0031566457
0.19197823 -0.06924211 -0.07065968 -0.22767308 -0.25892514 -0.015159397 0.052055795 0.28475875

backbone.2.conv.0.1.weight f4 [48]
00000000: 4fdb f43e f7a4 b73e 8546 e33d 2948 5f3e
00000010: f739 273e 9f24 4c3e 2b49 963e 6ad9 053e
00000020: 81dc eb3e 6a4b 053e f85d 5f3e b7aa cb3e
00000030: 2cd4 a73d 6377 b53d c61b 153e b340 e93e
00000040: 18f4 243e 30ab f53d 1477 a83e 4947 4d3e
00000050: d07f 0b3e 1546 063e 6484 d23d abb0 b03d
00000060: 3b4b 563e c91f df3e 3ee7 223e 86a8 893e
00000070: 0e97 ec3d 29a6 a03d 0418 013f ac41 ab3d
00000080: 3bab 233e e5fe a23e 4eaa e43e 2b3a 543e
00000090: 2156 883e f530 a53e fb98 df3d cc45 b33e
000000a0: bd1c f63e c607 043e b918 183e d393 bb3d
000000b0: 0975 2a3e 9835 f13e d296 9d3e a205 233e
0.4782357 0.35868046 0.11097435 0.2180487 0.16330706 0.19935845 0.29352698 0.13071218
0.4606667 0.1301705 0.2181319 0.39778683 0.081947654 0.08860662 0.14561376 0.45557174
0.1610874 0.11995542 0.3290335 0.20046724 0.13622975 0.13112672 0.10279158 0.08627447
0.20927136 0.43578938 0.15908524 0.26886386 0.11552249 0.078441925 0.5042727 0.08362135
0.15983288 0.31835094 0.44661182 0.20725314 0.2662821 0.32263914 0.109178506 0.35014188
0.480688 0.1289359 0.14853181 0.091590546 0.16646208 0.471112 0.3077913 0.15920117

backbone.2.conv.0.1.bias f4 [48]
00000000: 0b3f 833c 8e74 25bc 9d95 7e3e b7cc b23e
00000010: 054e 8a3e b561 273e 4df0 9d3d a090 553d
00000020: 8ed3 40bd 54be 203e c1fd 53bd 136a 1e3d
00000030: 4b6d 473e f77f 703e 5501 513e 3518 583c
00000040: 03d4 7abd f865 a03e 2886 ab3d fb0b bc3e
00000050: 029f d83e ea5c 193e eba1 8b3e 7982 9b3e
00000060: 5220 ae3d 1edd 83bc 27a3 de3d b194 aebe
00000070: d3eb 8d3e d4e6 7f3e 7e35 07bc e776 713e
00000080: 4e8f 203e 228a c03c 0518 a23b e499 2b3e
00000090: 1235 f63d e797 e73d 583b 863e a017 ab3d
000000a0: 689b b63c 7489 543e fe7c 883e 2277 763e
000000b0: 52e4 223e b07d d23a 1e27 5d3e 5886 2c3e
0.016021272 -0.01009859 0.2486176 0.3492181 0.2701265 0.16345866 0.07711849 0.05213988
-0.047076754 0.15697604 -0.05175567 0.03867538 0.19475286 0.23486315 0.20410664 0.013189365
-0.061237346 0.31327796 0.08375198 0.3672789 0.42308813 0.1497685 0.2727197 0.3037298
0.08502258 -0.016096648 0.108709626 -0.34097818 0.27718982 0.24990398 -0.0082525 0.23580514
0.15679666 0.023503367 0.004946711 0.16757923 0.12021841 0.1130827 0.2621715 0.083541155
0.0222909 0.20755559 0.2665786 0.24068883 0.1590741 0.0016059186 0.21596953 0.16848123

backbone.2.conv.0.1.running_mean f4 [48]
00000000: 67ae e5b7 7f75 55b6 a4b5 c637 e0f1 beb8
00000010: 52a3 73b8 98b8 b8b7 e1da 1c36 c074 a936
00000020: 49f6 fbb7 2dd0 a537 3941 46b8 601f 3138
00000030: ca49 9d37 ca86 c1b7 d7f0 f137 5183 83b7
00000040: 6c83 0a38 748d 42b8 7531 8f37 edb4 7238
00000050: ab24 0638 5481 3bb8 7337 1237 db3c 8137
00000060: ba6e bb35 d711 2eb7 9fb3 5db5 3263 a337
00000070: a104 40b7 eb13 bf37 3fa4 6b37 2070 fdb7
00000080: 7c40 ef36 6698 2d34 7978 65b6 9f68 1937
00000090: dae2 0136 f6b2 beb7 7a9a 98b7 39bb 1437
000000a0: 0ae3 6937 00e8 d1b7 c948 feb6 5b24 8a37
000000b0: 0d65 2d36 9549 3f37 9aa3 3736 7df3 cf37
-2.738014e-05 -3.1807865e-06 2.3688022e-05 -9.104959e-05 -5.808782e-05 -2.2020467e-05 2.3373216e-06 5.050184e-06
-3.0036217e-05 1.9766472e-05 -4.7267622e-05 4.222931e-05 1.875022e-05 -2.3070159e-05 2.8841589e-05 -1.5677566e-05
3.302416e-05 -4.6384943e-05 1.7069959e-05 5.7865796e-05 3.198224e-05 -4.470472e-05 8.715188e-06 1.5406336e-05
1.3964811e-06 -1.0375362e-05 -8.25903e-07 1.9477306e-05 -1.144517e-05 2.277825e-05 1.4045333e-05 -3.0212163e-05
7.130262e-06 1.6167323e-07 -3.4193783e-06 9.14387e-06 1.9354543e-06 -2.27331e-05 -1.8191746e-05 8.865079e-06
1.3940744e-05 -2.5022775e-05 -7.578263e-06 1.6467811e-05 2.5837828e-06 1.1401619e-05 2.7364354e-06 2.4789706e-05

backbone.2.conv.0.1.running_var f4 [48]
00000000: 7317 c23d 3792 ac3d 21e9 c93d cde0 a43d
00000010: d71c 9d3d 9df4 5a3d 386a a93d c469 813c
00000020: e428 a73d 7b74 6a3d dbc5 2b3d 4043 ed3d
00000030: 103b 9d3c dbfd 663d 8c9d 123e 2cd6 c83d
00000040: c3d0 863c c6f2 293d 90d4 ce3d 7526 3d3e
00000050: 7c3f d43c 6b96 073d 721d a33c 027d 2b3c
00000060: 5e35 2a3d 3108 1a3e 27f6 0e3d 1ff4 393d
00000070: 5166 f93d ea18 6e3c 1475 373e dbbe da3d
00000080: 3e79 8f3d 5b97 873d 4262 7b3d ef03 f53d
00000090: 8034 423d 4e7a 4f3e b7dc 013d e857 043e
000000a0: 003d 063d 3ddd 8c3d f6d9 f73c bdd9 d53d
000000b0: abc2 b53d 4f2c 283e a1aa d83d 7313 093e
0.09477129 0.08426326 0.09858919 0.0805069 0.076715164 0.053455938 0.08272213 0.015797503
0.08162096 0.05723999 0.041936737 0.115850925 0.019193202 0.05639444 0.14317912 0.09806475
0.016456967 0.041491292 0.10099137 0.18471701 0.025909178 0.033102434 0.019911502 0.010466816
0.0415548 0.15042187 0.034902718 0.045398828 0.121777184 0.014532307 0.17915756 0.10680934
0.07005547 0.06620666 0.061373003 0.11963641 0.04741335 0.202615 0.03170463 0.12924159
0.032773018 0.06878135 0.030255299 0.10441921 0.088750206 0.16423152 0.1057942 0.13386326

backbone.2.conv.1.0.weight f4 [48, 1, 3, 3]
00000000: 436b afbd 444a 1abe 87cc 86bd 3ffa 2abe
00000010: e2d9 2abe b1f6 dcbd 12f4 1fbd 6a07 f3bd
00000020: 5a1c 05bd 6c70 01be 7203 72bd 4a01 4e3a
00000030: 47be 3bbe 6576 8cbd 0515 663b 3199 30be
00000040: 4e74 21be 6db7 56bd a582 04be 1df3 65bd
00000050: 04b0 383d d63d 283e 0c92 c03e 222c 253e
00000060: 4d2d 10bd 53e1 0fbe 14e5 bbbe 4135 e83d
00000070: 752d 563e e830 59bd a37f 493e bd9e 083f
00000080: bd5c 863b a300 413d 4614 1e3e cbac b0bd
00000090: a82e 96bd c3c0 7bbe 8d32 17be 1219 c9bd
000000a0: 24aa f0bd 1b0a 9cbc 9334 023e 0c74 cd3e
000000b0: ea0c 1e3e f201 263d 77cc 8b3e 550a 6e3e
000000c0: 7a2e 8bbd 2182 b5bd 7132 9d3d 81ed c3bd
000000d0: b741 43be 3341 f7bd 1481 42bc 019e 9ebd
000000e0: 8946 c8bd 90d7 5a3d 0e7c 5abe a2bf 78be
000000f0: 421f 543d 032f 3dbe a151 75be b96c 0bbe
00000100: 0f99 493d 6388 05be 588e 03be 7211 0f3e
00000110: 527b 1fbe 0ac1 23be 18cc c63d c4b0 ffbd
00000120: aeb4 913d 29e5 ff3d 2eb2 ba3d eddd fe3d
00000130: ae5d a03e dedb 713e d429 3e3d 0a1e 223e
00000140: f79b 0b3e 1214 dbbd 7a7a 583e 765c 98bd
00000150: 76f1 1fbd ad2a d53d 77f6 9cbd 3d03 133e
00000160: 9df4 aabe fe88 f73d 81c6 1d3d 21ac e23c
00000170: 1856 fc3b 3f78 c83d 6195 133e ed6e 9c3d
00000180: 358a ab3d 8bb5 1d3e a797 8b3d 74a9 2cbd
00000190: 5d6c 31be 065f 3bbe 2902 b1bc 891b 79be
000001a0: f02e 64be 7229 5c3c 9899 02bc 10e3 13bd
000001b0: a053 b6bd 362a d93d 088c 34bc bde3 5d3e
000001c0: 3b67 a3be d30c e93d 74e3 ddbd 3778 633e
000001d0: 22c3 cfbd 1fa5 f1bd ca3e c3bc 2d09 8d3d
000001e0: 1bfb 82be afd3 a93e b928 c53c 32d9 373d
000001f0: dbad 593e 6144 06be 89ca 3cbd 2eda dbbd
00000200: 5b4e 95bd 42f7 c53d 7b57 c03e e3f4 a43d
00000210: f608 48bd b0a1 91be 9896 94bc c695 99bd
00000220: 468f d7bd b9e9 a3bc 80cc 31be 185b 57be
00000230: 57e1 bebd 8fc1 cfbd 760c 4ebe f48b b3bd
00000240: e13c 13be aa27 20be ff8f 65bd 652c 34bd
00000250: c465 873d a265 0e3e 372e 09bb 3fc0 bb3d
00000260: c97a 463e 3883 003e 9261 633e d78d bd3d
00000270: 1a80 0f3e c601 043e 2c45 933c 09ec 4d3d
00000280: 7eb7 b83d 8428 5c3d 9852 99ba 4737 afbd
00000290: eaff ed3b 6cd9 a73c 78be b9be 82e6 99bd
000002a0: 0f8b 9d3c 097c 22be 9577 333d 5c27 17bc
000002b0: 9757 9ebd 6812 73bd dfd5 a6bd 28f9 91be
000002c0: 6b34 56be 39d9 a13c b5a0 42be e700 fbbd
000002d0: 7689 0e3e 8167 213e 1d84 903c fbfa 453e
000002e0: d118 c33e 9daa 563c ecc4 033e ea30 f53d
000002f0: 644d 58bd e80e 93bd 98f4 c3bc ef42 0e3e
00000300: 27d5 cbbd fc9c 57be ab0c a13e 5b31 aebc
00000310: 5e83 43be d22e 223e a92b ae3d f63c 76be
00000320: 9776 ef3d 51e9 83be 27e8 d33e b151 14be
00000330: ce98 193e cd78 1abe 711d b13c 40a7 58bd
00000340: d59a 143d 62d4 f4bc 291d 893d 4512 d9be
00000350: b2a9 a43e 86b6 5ebd ae85 b63e 0326 9fbe
00000360: ef36 75bd f68a dbbd d785 063e ea19 7d3d
00000370: 7019 36be 7a17 9fbe 049f 7b3d e9f7 923e
00000380: 90a6 ad3d e7da fb3c 0f64 da3d 8a54 373d
00000390: d868 c43d 990f a93e 5963 193e 9460 1d3e
000003a0: e440 8a3e dca2 f13d 0c04 86bb 7701 81bd
000003b0: a8c8 01bd ed04 343e 4397 a63e a2bc 2e3e
000003c0: b077 ffbc dc7f 8dbd 7dd2 57bc 395e 2c3d
000003d0: d6cf f33d 97e4 f03d 1ad6 0a3d 1f3a 033e
000003e0: 4c59 263e a2bc 71bc 4f6a a43d d42e b53d
000003f0: e2c4 b13d d9cd 233e c597 a93d 9ead c93d
-0.085653804 -0.15067393 -0.06581979 -0.16697024 -0.16684678 -0.1078924 -0.039051123 -0.118666485
-0.03249774 -0.12640542 -0.059085317 0.00078584685 -0.18334304 -0.068585195 0.0035107743 -0.17245938
-0.15767023 -0.052421022 -0.12940462 -0.056140054 0.045089737 0.16429839 0.37611425 0.16130117
-0.035199452 -0.14050798 -0.3669821 0.113382824 0.20915778 -0.053025156 0.19677596 0.53367215
0.0041004107 0.047119748 0.15437421 -0.08626708 -0.07333118 -0.24585252 -0.14765377 -0.09819235
-0.11751202 -0.019047787 0.12715368 0.401276 0.15434614 0.0405292 0.27304432 0.23246129
-0.06795974 -0.08862711 0.076756366 -0.09566785 -0.19068037 -0.12072983 -0.011871595 -0.077449806
-0.097790785 0.053428233 -0.21336386 -0.24291852 0.051787622 -0.18474965 -0.2395692 -0.13615693
0.049218234 -0.13040309 -0.12847269 0.13971499 -0.15574387 -0.15991607 0.097068965 -0.12484887
0.0711454 0.12494881 0.09116016 0.12444673 0.31321472 0.23619029 0.04642661 0.15831771
0.13633715 -0.106971875 0.21140471 -0.074395105 -0.039048634 0.104085304 -0.07664197 0.14356704
-0.3338975 0.12086676 0.038519386 0.027669968 0.007700693 0.0978856 0.14412452 0.07638345
0.0837597 0.15401284 0.06816035 -0.04215379 -0.17326494 -0.18297967 -0.021607475 -0.2432691
-0.2228353 0.013437616 -0.00797119 -0.036105216 -0.08902669 0.10603754 -0.011019714 0.21668907
-0.31914696 0.11379399 -0.10834399 0.22213827 -0.101446405 -0.117990725 -0.023833651 0.06886516
-0.25582203 0.33169314 0.02406727 0.044884868 0.21257727 -0.13112022 -0.04609159 -0.10734974
-0.07290336 0.09666301 0.37566742 0.08054521 -0.04883667 -0.2844367 -0.018138215 -0.0749927
-0.10525374 -0.020008909 -0.17363167 -0.21030843 -0.09320324 -0.1014434 -0.20121941 -0.08766928
-0.14378692 -0.1564013 -0.05604553 -0.04398765 0.06611207 0.13905957 -0.0020932087 0.091675274
0.19382776 0.12550056 0.22205189 0.092555694 0.1401371 0.12891302 0.01797732 0.05027393
0.09019373 0.053749576 -0.0011697588 -0.08555465 0.0072631733 0.020489417 -0.3627813 -0.07514669
0.019231347 -0.15867628 0.043815214 -0.009225693 -0.0773155 -0.059343725 -0.081462614 -0.28510404
-0.20918433 0.0197569 -0.19006617 -0.122560315 0.13919625 0.1576214 0.017641122 0.19334023
0.3810487 0.013102201 0.12868088 0.1197222 -0.05280818 -0.071805775 -0.023920342 0.1389272
-0.09952765 -0.21055979 0.31454977 -0.021263769 -0.19093081 0.15838173 0.08504421 -0.24046692
0.11692541 -0.25763944 0.41388056 -0.14484288 0.14999697 -0.15085144 0.021620484 -0.052893877
0.03628047 -0.029886428 0.06695015 -0.4239675 0.32160717 -0.054373287 0.35648865 -0.31083688
-0.059866842 -0.10719864 0.13136993 0.06179229 -0.17783141 -0.310726 0.061430946 0.28704765
0.08479035 0.03074403 0.10663616 0.044758357 0.0959031 0.33019713 0.14979304 0.15368873
0.27002633 0.11798641 -0.004089838 -0.062991075 -0.0316855 0.17580004 0.3253728 0.17064145
-0.031185001 -0.06909153 -0.013172743 0.042082045 0.11904876 0.1176235 0.03389559 0.1281514
0.16245002 -0.014754446 0.08028089 0.088468224 0.086801305 0.15996493 0.08280901 0.09847568

backbone.2.conv.1.1.weight f4 [48]
00000000: 79ac 0b3f 71f8 a33e dd84 b73e eefb 7d3e
00000010: bbf8 ab3e 5857 ac3e 510b 3e3e 998e a83e
00000020: f2bb 903e 71c5 903e c100 0f3e b638 e83e
00000030: 03b7 cc3e 65bd 8a3e 7198 7d3e 2f77 e43e
00000040: df81 793e 1c9a 5d3e 06eb f93e 934a df3e
00000050: e7cc 843e 2bb9 843e 19aa da3e 8ec7 e93e
00000060: 34f8 aa3e 0477 af3e 5b63 a13e 415f 1a3e
00000070: acda 5c3e 728d b13e f023 073f 7252 5d3e
00000080: 2f9f a93e b6ad 583e aa91 623e 3cd9 b73e
00000090: 9ed2 313e 2cbf a33e 1d0f cd3e 4fc7 953e
000000a0: 8c29 db3e 9700 663e 1057 b23e 328e b63e
000000b0: 988c b43e 94e7 983e f903 ae3e 546c 833e
0.5456005 0.32025483 0.35843554 0.24803135 0.33588204 0.33660388 0.18559004 0.32921293
0.2826839 0.28275636 0.13965131 0.45355767 0.39983377 0.27097622 0.24765183 0.4462218
0.24365948 0.2164082 0.4881212 0.43611583 0.25937578 0.25922522 0.427079 0.4566006
0.3339249 0.3427049 0.31521115 0.15075399 0.21567792 0.34678227 0.5278921 0.21613482
0.3312926 0.21160015 0.22125879 0.35907924 0.173655 0.3198179 0.40050593 0.29253623
0.42805135 0.22461163 0.34832048 0.3565536 0.35263515 0.2986418 0.33987406 0.25668585

backbone.2.conv.1.1.bias f4 [48]
00000000: 2827 44bd fb7d 0c3e 1ac5 5c3c 3562 133f
00000010: 1696 003e 9292 c03d 0229 383f 0505 e4be
00000020: 190f 5b3e fb29 21ba 5578 6b3d ba4c c43d
00000030: f849 f63b 2d1f b2bc 7892 39bc f624 403d
00000040: 6f90 5c3d fa17 123d 8564 17bb 2f25 6a3c
00000050: efcd 2d3f ae08 20b9 0f96 ff3b 70eb 773a
00000060: b8fa 00bc 8f11 333e 5872 0e3d 44d1 023d
00000070: c8a6 bb3d d008 91bc b4fb c9ba d7f0 9ebb
00000080: 4fc9 e03c 0956 253f c4c0 8a3f 328d 303c
00000090: f085 b13e 1cec 233e a971 a4bb 6a04 3e3e
000000a0: 4947 0f3e 7e74 dc3c 4fe9 233c 3ad7 d03c
000000b0: 201c 6f3c e307 9b3e d8fa ab3c f29e 56ba
-0.047888905 0.13719933 0.013474727 0.5757173 0.12557253 0.09402956 0.7193757 -0.4453508
0.21392478 -0.0006147918 0.057487804 0.09584947 0.007516142 -0.021743381 -0.011326425 0.04691025
0.05384868 0.035667397 -0.0023100686 0.014291092 0.67892355 -0.00015262022 0.007799871 0.0009457385
-0.007872276 0.17487167 0.034777015 0.031937853 0.091626704 -0.017704397 -0.0015410096 -0.0048504877
0.027439741 0.64584404 1.0840077 0.010775851 0.346725 0.16008037 -0.005018432 0.18556371
0.13992037 0.026911017 0.010004356 0.025493253 0.014594108 0.30279455 0.020993635 -0.0008187137

backbone.2.conv.1.1.running_mean f4 [48]
00000000: aef7 08be c829 9dbd 6bb8 eb3b ff95 c83e
00000010: 06fc 48ba 7a39 203c 555d 06be d1b8 06bd
00000020: 29be 173e ded8 05bc b7da fb3c 35d4 05be
00000030: 697d bc3b b76b 1e3d fb4b e3bb f9b6 15be
00000040: f9b0 e73b 6eda 903e 8f79 c0bd 29e0 c0be
00000050: 3d6c e83e a9cd 82bb 5e8b 06bb aa75 d6bc
00000060: bcb4 71bb b204 183e 83ae 653d 05e6 7a3b
00000070: 2efd 4d3e 2b04 963b 0498 33be 2b2c 293d
00000080: 2fa3 843d 219b b8bd 5d2d 28be 6d7e ff3c
00000090: fef1 20be 0165 10be cc43 a63b 1bf4 323e
000000a0: 5641 2fbe cf25 463e 8bda d5bc 62e0 033d
000000b0: bca2 193d 45a5 683e 57a3 72be cadd 5e3c
-0.13375732 -0.07673985 0.007193615 0.39176938 -0.0007666949 0.0097793285 -0.13121541 -0.0328911
0.14818634 -0.008169381 0.03074394 -0.13069232 0.0057522547 0.038676944 -0.006936548 -0.1462058
0.0070706573 0.2829165 -0.093981855 -0.3767102 0.4539508 -0.0039918018 -0.0020529847 -0.026179153
-0.0036881408 0.14845541 0.05607463 0.0038284075 0.20116112 0.0045781336 -0.17538458 0.041301887
0.06476437 -0.090139635 -0.16423555 0.031188214 -0.15717313 -0.1410103 0.005074 0.17475931
-0.17114767 0.1935036 -0.026105186 0.03219641 0.03750871 0.22719295 -0.23695122 0.013602683

backbone.2.conv.1.1.running_var f4 [48]
00000000: f1aa c13c 64de 243c 1732 743b 99bc dd3c
00000010: d2cd 603c 0285 de3b f41d a63c 053d 1c3b
00000020: 2901 3c3d 85e2 a23a 24e8 3f3b 61e4 143d
00000030: 803c 573a af08 a03a 6a91 ba3a da6c d33c
00000040: 4cf7 253b 6aea 9e3b 5294 c83c 9e10 953c
00000050: 2ef2 dc3b e595 5a3b 2940 063b 490a 4d3a
00000060: 2f53 843b 2494 8b3d 2014 833b 3941 3439
00000070: 972a 353b 4d8d 5e3a 6803 ce3c 709c 283a
00000080: 4987 803b 44b1 513c bf10 213d a49b 003c
00000090: 5f32 0d3c 5e5a 893c b1f1 083b e219 643d
000000a0: 42ce 4b3d d430 ff3a 1b6b d13b 54e1 1a3b
000000b0: 289e 7b3b 339d 103d 278e 5f3c 688f a63a
0.023641082 0.010062788 0.0037261301 0.02706747 0.013720946 0.006790758 0.020277955 0.0023840081
0.045899544 0.0012427127 0.0029282654 0.03635061 0.00082106143 0.0012209619 0.0014234011 0.02580874
0.0025324402 0.0048497217 0.024484787 0.0181964 0.0067427373 0.0033353504 0.002048502 0.0007821662
0.0040382366 0.06815365 0.004000202 0.00017190435 0.0027643794 0.00084896834 0.025148109 0.00064320024
0.0039223772 0.012798611 0.03932261 0.007849608 0.008617966 0.016766723 0.0020896012 0.055688746
0.04975725 0.0019469508 0.006390942 0.0023632841 0.003839383 0.035306167 0.013644732 0.0012707533

backbone.2.conv.2.weight f4 [8, 48, 1, 1]
00000000: ca61 3e3e bcb6 3b3e b659 aabc 4267 debc
00000010: 21c6 ba3e 199d 5fbc a386 623e 6471 82be
00000020: 5b39 50be e6a3 563d 3757 a23d b625 823e
00000030: 8daf 5abd 14f9 58bd 1e5b 91bc 90e4 a83e
00000040: 6983 2cbe e8af cebd ceb9 6ebd 21b8 ae3e
00000050: 3377 4f3d f710 6a3d 352a 32bc 45df c63c
00000060: a1a2 7e3d 415f 913d a2c0 633e 0fe1 cebd
00000070: 33ef 10be 4527 cbbb d500 0cbe f0c3 0cbd
00000080: 40d7 21bd a6f9 a23e 448d 3a3e 267b 96bc
00000090: f51d 32bb a5a7 d93d ab67 db3d 7ec9 a23d
000000a0: abbc 953e d11b ec3a dbe2 933d 901b 853d
000000b0: 8445 97bd 1ffa 1fbe e163 2d3e 73a4 3bbd
000000c0: a6fa 333c 83bc 5d3e 534e 393e 9fbd d5be
000000d0: faf3 5a3c 6378 2c3e 0e65 8f3d edf1 22be
000000e0: a38a f03d 66c7 63bd 1603 393d b582 38bd
000000f0: fb99 02be 1936 02be fec3 aebd 74bf 113e
00000100: af42 b3bd f7d7 063e 1cab 06be 00c2 353d
00000110: 9fb2 2bbc 2099 813d 9165 233d 7e6d 1f3c
00000120: e8db edbd 669b e93d 76e0 a63d 9055 cb3b
00000130: 640a 223e 2403 bbbd 04f5 c63d da65 10be
00000140: 01d9 0bbe 9117 143c a1a1 76be 359a 283d
00000150: 767c 8f3e a2ae 9fbe f201 013d e61b 4ebe
00000160: 7d45 b5bd 9adb 9d3d d6b9 8d3b 07d1 f4bd
00000170: ce4f 313b 4a53 8bbe 016b 32bc 4c31 62be
00000180: f7d5 363e e301 863c 4d11 3cbe e6d5 06be
00000190: a418 883e aea1 c8be a9f9 38be 6033 833d
000001a0: 6e0e 463c 0cde 123e c69c 06bc cf26 8ebe
000001b0: a067 903e b369 33be 8443 7abd a146 83bd
000001c0: 6b5f 643d 3651 e53a 02b7 b63d b8da 8dbc
000001d0: d582 1b3e 1dc2 9c3d 654e a33e 138c 883e
000001e0: 00b7 d4bd 2f85 2cbe b0fb 7cbe 91b7 583d
000001f0: bff4 0a3e d5cf 743e 50a6 cf3d 2179 443d
00000200: 4d4a 20be 7807 293e 32f1 ba3d 6fc2 f5bd
00000210: f45a 04be 7920 2a3e d944 933e 1600 31be
00000220: 3cf2 063e 6427 21be c9cf 6c3e 29ba 1dbe
00000230: 6bb6 21be 5e75 4e3e 6901 8abd b6a0 ac3d
00000240: d33d 1abd 8fcc 4b3e 667c d23d 97cc 893e
00000250: d487 62be b600 763d 4035 b9bd 9612 70bd
00000260: dcee 0abe 8188 973d 7bf1 2c3e d09e 4ebe
00000270: 569c d3bd bf7a d33c 367e 033e 24a7 a53d
00000280: 43c9 ff3a 4459 3a3d b35b d83d 8e56 88be
00000290: c7b4 a7bd 56f5 1f3e d411 f03d 7972 083e
000002a0: 3d5c c63d 1853 dabd f132 823d c91c af3d
000002b0: 6a7b f5bd effc b7bd bf4f 353e 7732 023e
000002c0: 870c 41be 03dc 10be 4b89 5c3e 5661 8cbd
000002d0: 3084 7c3d 2564 183e 0f4a bd3d 2403 60bd
000002e0: 3142 f0bd 17f9 873e 9f83 853e 1f0b b2bc
000002f0: 3380 20be f289 893c fae0 4cbe 8366 063e
00000300: ffe6 31bb 224e b8bd 1626 043c 4b0f 993d
00000310: de85 c33c 5c21 1b3d c8bc 40be 1828 3bbd
00000320: a124 62bd dafe 973c 6a79 703d c442 243e
00000330: 6208 a83d 7fbf c2bd 7a16 80bd aa35 97be
00000340: fb6c 20bd b2ac b1bd 593d 833d 9534 4ebe
00000350: 85da 28be cc72 0e3e c5db be3c 7f0a a23d
00000360: 14ab 973e 0ac3 d6bd cfb1 f93d f0f5 45bd
00000370: 3a38 8cbd cc6d 9abd 4053 7fbe bb99 95bc
00000380: 6b45 e73d b4d6 76bd fca5 ec3d 41b1 063e
00000390: 9f3c a13d 91c6 203d bc89 8fbc 7bfb d0bc
000003a0: dfc6 85bd 381d 9fbd c9b2 56bd 000f 933d
000003b0: 699a b93d 6570 843e 1f5f b4be 43c8 efbd
000003c0: 3545 e03c c54c b9bd eff8 2c3e 8333 ec3b
000003d0: 50fc bf3d 6e01 1d3e 8982 313e 8002 44be
000003e0: 437b 9fbe 155d ca3d a49b 13bc 08a5 5fbe
000003f0: 91e8 693e 73f7 263d 7e90 ddbd 2d0d 8fbd
0.18591991 0.18331426 -0.02079473 -0.027148847 0.36479285 -0.013648295 0.22121672 -0.25477135
-0.2033438 0.0524024 0.07926791 0.25419396 -0.053390075 -0.052971914 -0.017743643 0.3298688
-0.16847004 -0.10092145 -0.058282666 0.34124854 0.050650787 0.057145085 -0.010874321 0.024276385
0.062166814 0.07098246 0.22241452 -0.1010152 -0.14153747 -0.0061997497 -0.13672192 -0.034366548
-0.03951192 0.31831092 0.18217951 -0.018369269 -0.00271785 0.10627679 0.107131325 0.07948588
0.29245505 0.0018013661 0.072210036 0.06499398 -0.07386306 -0.15622757 0.16932632 -0.045811128
0.010985052 0.21653943 0.18096285 -0.41746232 0.013363833 0.16842799 0.070016965 -0.159126
0.11745193 -0.055610083 0.04516896 -0.045046527 -0.12754051 -0.12715949 -0.08533476 0.1423319
-0.08752953 0.13168322 -0.1315121 0.044374466 -0.010479598 0.063280344 0.039891783 0.009730695
-0.116142094 0.11406593 0.08148281 0.006205268 0.15824276 -0.091314584 0.09714702 -0.14101353
-0.13656999 0.009038822 -0.24085094 0.04116269 0.28024644 -0.31187922 0.031495996 -0.2012783
-0.088511445 0.07707901 0.004325132 -0.11953931 0.0027055624 -0.27211982 -0.0108897695 -0.22089118
0.17855059 0.016358322 -0.18365975 -0.13167533 0.265813 -0.39185852 -0.18063988 0.064062834
0.012088401 0.14342517 -0.008216089 -0.27763984 0.2820406 -0.1752079 -0.061099544 -0.06409956
0.05575506 0.0017495516 0.08921625 -0.017316207 0.15186627 0.07654212 0.31895748 0.26669368
-0.10386467 -0.1684768 -0.24705386 0.052909438 0.13569926 0.23907407 0.101391435 0.04796708
-0.15653343 0.16506755 0.091280356 -0.11999976 -0.12925321 0.1661395 0.28763464 -0.17285189
0.13178343 -0.15737683 0.23126139 -0.15403046 -0.15792243 0.2016196 -0.0673855 0.08429091
-0.037656616 0.19902252 0.10277633 0.26913902 -0.22122127 0.06005927 -0.0904336 -0.058611475
-0.1356768 0.07399083 0.16888992 -0.2017777 -0.10332553 0.025815366 0.12841114 0.0808852
0.0019514937 0.045495287 0.10564365 -0.26628536 -0.081887774 0.15620932 0.117221504 0.13324918
0.09685562 -0.1066038 0.063573726 0.08550412 -0.1198643 -0.0898379 0.17706202 0.12714563
-0.18852435 -0.14146428 0.21536748 -0.06854503 0.0616495 0.14881952 0.09242641 -0.054690495
-0.11731375 0.26557228 0.2607698 -0.021733819 -0.15673904 0.01678941 -0.20007697 0.13125043
-0.002714574 -0.08999278 0.008065721 0.0747362 0.023867544 0.03787361 -0.18822014 -0.045692533
-0.055210713 0.01855414 0.05870954 0.16041094 0.08204724 -0.09509181 -0.06254287 -0.2953313
-0.039166432 -0.08675517 0.064081855 -0.20137246 -0.16489609 0.13910979 0.023298154 0.07912158
0.2962271 -0.104864195 0.121921174 -0.048330247 -0.06846662 -0.07540473 -0.24934101 -0.018261781
0.11292537 -0.06026335 0.115550965 0.13153554 0.07872891 0.039251868 -0.017521732 -0.02551054
-0.06532072 -0.07769245 -0.052416597 0.071805954 0.090626545 0.25867 -0.35228822 -0.11708119
0.02737675 -0.09047846 0.16891836 0.007208289 0.09374297 0.15332577 0.17334951 -0.19141579
-0.3114873 0.09881035 -0.009009276 -0.21840298 0.22842623 0.04076333 -0.10818575 -0.06984935

backbone.2.conv.3.weight f4 [8]
00000000: d324 0d3f f849 df3e a94c ea3e 8b6d cc3e
00000010: f566 b73e f57b 053f 6b2a 9d3e 7061 1f3f
0.55134314 0.4361112 0.45761612 0.39927325 0.35820737 0.5214227 0.30696425 0.6225805

backbone.2.conv.3.bias f4 [8]
00000000: 017b 3db9 2d96 1e39 3474 9fb8 430d 48b8
00000010: ba48 eab7 d088 5339 6feb 13b9 129d 8db8
-0.00018070267 0.00015123999 -7.603355e-05 -4.7696067e-05 -2.792884e-05 0.00020173495 -0.00014106718 -6.7526606e-05

backbone.2.conv.3.running_mean f4 [8]
00000000: 3a08 6a3f 231a e2be 8233 313e 4794 583e
00000010: 7739 15be d615 083f 6863 bebd c27a 253e
0.914188 -0.44160566 0.17304805 0.21150313 -0.14572702 0.5315832 -0.09296304 0.1616011

backbone.2.conv.3.running_var f4 [8]
00000000: 58a9 a33d 5b64 473d 2c1c b23d 5d6f 923c
00000010: deb2 353d e4d0 8f3d d69c d83c 4d03 a53d
0.07991284 0.04867969 0.086967796 0.017875368 0.044360034 0.070222646 0.026441973 0.0805727
