ML Model/tv_detection_epoch_70/e-18-0.960.pth (torch_old, 466509 bytes, 205 tensors)

backbone.0.0.weight f4 [16, 3, 3, 3]
000000 d6 cf 32 80 e3 5a 93 01 fa 75 12 80 8e cb 48 80
       -4.666332e-39 5.412969e-38 -1.695361e-39 -6.685177e-39
000010 a7 e8 06 00 d6 76 86 81 22 08 a3 80 eb 1b 0b 00
       6.34473e-40 -4.9394347e-38 -1.4972103e-38 1.020206e-39
000020 de a8 0d 80 84 5e ca 00 5c 83 10 00 18 84 0e 80
       -1.25444e-39 1.8584676e-38 1.516491e-39 -1.333083e-39
000030 dd d1 41 00 bf 13 21 00 5e 0b 58 81 12 2e 94 00
       6.044592e-39 3.037655e-39 -3.968109e-38 1.360818e-38
000040 0b 9b 4a 00 e6 89 48 01 20 40 29 80 13 0c 31 80
       6.851446e-39 3.6833136e-38 -3.788259e-39 -4.504271e-39
000050 5c bf 72 00 18 3f 38 00 a2 cb 09 00 72 dd 04 80
       1.0537893e-38 5.165422e-39 8.99569e-40 -4.46782e-40
000060 c5 d7 3e 00 c7 73 16 00 22 eb 0f 80 00 e5 29 bd
       5.771204e-39 2.061914e-39 -1.461882e-39 -0.041478157
000070 ff 75 41 bc f7 dd d3 3c b5 5c 00 3e fe 2c bb 3e
       -0.011807918 0.025862677 0.12535365 0.36557764
000080 a0 97 41 3d a9 a0 3e be ac f1 77 be fa 83 05 bd
       0.04726374 -0.18615974 -0.24213284 -0.032596566
000090 90 fe 15 bd 37 a4 87 3d da 24 47 3c 4e a3 83 3e
       -0.036619723 0.06623118 0.012154782 0.2571053
0000a0 7a e6 3b 3f cc 08 bd 3d 3d 18 b1 be c4 f5 19 bf
       0.73398554 0.092301935 -0.34588805 -0.60140634
0000b0 76 d3 bd bd 85 fc d0 3d 44 82 f9 3d 6e c2 19 3e
       -0.092688486 0.10204414 0.12183049 0.15015575
0000c0 0d fb b4 3d 61 8f 57 3e c9 1f 59 3d 12 1a 79 bd
       0.08836947 0.21050788 0.05300883 -0.06081588
0000d0 60 66 10 be 5a d0 e0 39 bb 98 db bd b8 c9 bb 3d
       -0.14101553 0.00042879843 -0.107224904 0.09169334
0000e0 c0 fb 48 bc ea 5f d6 be dd 6a 3a 3f 53 3a a3 be
       -0.012267053 -0.41870052 0.7281931 -0.31880435
0000f0 ba 6d 2d bf 7b 92 6a 3f 33 25 98 be ac 19 0a be
       -0.67745554 0.9162976 -0.2971588 -0.13486356
000100 41 26 33 3e d9 ef 6c bd 08 2e 59 bf a2 ee a8 3f
       0.17495061 -0.057845924 -0.84835863 1.3197825
000110 82 b2 0c bf 8c 70 89 bf fe 30 bb 3f 3a 2c f5 be
       -0.5495988 -1.0737472 1.4624326 -0.47885305
000120 42 db 9f 3b f2 39 42 3c 86 8c 9d 3d 93 96 36 be
       0.0048784325 0.011854636 0.07692818 -0.17830877
000130 8c d9 d3 3e d0 8f 00 be 5e 51 76 be 97 07 f4 3e
       0.41376913 -0.1255486 -0.24054477 0.4766204
000140 4e d1 dc bd 6e 82 80 39 63 0c 0d bd 93 52 92 3d
       -0.10782109 0.0002451124 -0.03443564 0.07144656
000150 59 f2 94 3d 8d 00 58 3e 14 50 8d be 27 ee 2a 3d
       0.07272787 0.2109396 -0.27600157 0.041731026
000160 a6 53 a2 3e 35 19 a5 be d2 f4 be bb 21 e3 6b bd
       0.31704444 -0.32245794 -0.0058275247 -0.057589654
000170 f8 32 a4 3d 4f 9f 61 3d 77 af 06 3f 87 1f 1d bf
       0.08017534 0.05508357 0.5261149 -0.6137623
000180 af 7f 86 3d 62 b1 26 3f 46 29 31 bf a2 fd 7d bc
       0.065673225 0.65114415 -0.69203603 -0.015502365
000190 d7 d6 c0 bc b5 29 15 ba a7 39 41 3d d0 76 b4 3d
       -0.023539944 -0.0005690114 0.047174122 0.08811724
0001a0 1f ba be bd 99 33 58 3c 3f 4e b5 3d c5 48 13 be
       -0.093128435 0.013195896 0.08852815 -0.14383228
0001b0 76 5c bf bd c6 be 56 3c 3c b0 10 bd 68 75 9e 3c
       -0.093438074 0.013107007 -0.03532432 0.019343093
0001c0 c3 15 44 bd 34 18 cd bd 83 c5 3e 3e c7 6c 68 3d
       -0.047872316 -0.10014382 0.18630032 0.056744363
0001d0 e7 ab 25 be 68 ba ed 39 65 04 a7 3c 80 39 93 bd
       -0.16178857 0.00045343046 0.020387838 -0.07188702
0001e0 1d 97 9a 3d af d8 50 be e1 88 9c be 73 8c 86 3e
       0.07548354 -0.20395158 -0.3057318 0.2627903
0001f0 60 20 e9 bd 23 03 d3 be 4a 39 15 bc 32 4f 95 3b
       -0.11383128 -0.4121333 -0.009107897 0.00455656
000200 8a b8 e3 bd 85 59 59 bd 23 00 06 be 50 f5 40 be
       -0.111191824 -0.053063888 -0.1308599 -0.1884358
000210 6c ec 5b bb 64 76 94 bd 22 83 0e be f9 2b 32 3e
       -0.0033557666 -0.07249144 -0.1391721 0.17399587
000220 5d d1 2d 3e c9 e1 6d be 3b 1b 01 3e 0d 40 20 3f
       0.16974397 -0.23230661 0.12608044 0.62597734
000230 8a 20 6b 3e ed 83 36 be 14 b9 13 3f b6 09 1e 3f
       0.22961631 -0.17823763 0.5770428 0.6173357
000240 11 ab 99 3d 70 a3 86 bd a9 5e 88 3d 00 2b b5 3c
       0.075033315 -0.06574142 0.0665868 0.02211523
000250 82 04 49 be 7f 3e c4 bd 6e 37 7f 3c 2a 9f 30 be
       -0.19630626 -0.09582233 0.01557718 -0.17248216
000260 22 55 0b be e9 85 44 be f2 2f cb bd 87 b7 3a 3e
       -0.13606694 -0.19191708 -0.09921254 0.18234073
000270 57 1b b6 bd 7c bf e7 be a0 b6 4c be 03 d4 d1 3d
       -0.088919334 -0.45263278 -0.19991541 0.10245516
000280 31 ad ea be 17 50 13 bf d0 bb 85 bc 3d fb a7 bc
       -0.4583526 -0.5754408 -0.016324908 -0.020505542
000290 da bd f5 39 96 80 e4 3e fe 34 12 be 9d 9f 58 be
       0.00046871492 0.44629353 -0.14278027 -0.21154638
0002a0 02 18 0a 3e 5e 4d ac bd 0e 20 74 bd 2e c1 67 bd
       0.13485721 -0.08413194 -0.059600882 -0.056580715
0002b0 76 8f 39 bc d7 68 dd 3c 09 96 68 3f 83 7f 8b be
       -0.011325708 0.02702753 0.90853935 -0.2724572
0002c0 bc e5 ea be 3c ae 83 3e 46 29 65 be 2a bb bc bd
       -0.45878398 0.25718868 -0.22379026 -0.09215386
0002d0 73 8f af 3c 34 d0 a7 3c 26 3f 23 3c d9 30 5d 3e
       0.021430707 0.020485021 0.009963786 0.21600665
0002e0 41 89 a3 bd 9e 05 0a be 96 69 30 3d 62 48 77 bd
       -0.079851635 -0.13478705 0.043069445 -0.060371764
0002f0 69 43 2c bd b1 9e 4a 3d 0a 0a 23 3c 53 f6 af bd
       -0.042056475 0.049467746 0.009951124 -0.085919045
000300 64 14 a2 bc ad cb c0 3d aa 8f 74 3e d5 20 f7 bc
       -0.019785114 0.09413848 0.23882928 -0.030167023
000310 aa ae ce 3d 90 0a 99 3e 2f 2a 0f bc 29 32 ab bd
       0.10091908 0.2989087 -0.008738085 -0.08359177
000320 42 6b 19 be b3 6e c6 3b 63 68 38 3e d1 1a c3 3e
       -0.14982322 0.006055677 0.1800857 0.38106397
000330 88 e5 2a 3a eb 2b 8c 3e 9a 41 f8 3e b0 e3 7e 3c
       0.0006519188 0.27377257 0.4848755 0.015557215
000340 52 54 3b 3d e1 ca 60 3d 4c 51 b1 3c 23 18 d3 3d
       0.04573471 0.05488098 0.02164521 0.10307338
000350 eb d4 89 3e fe cf 14 3d 24 0a e8 3d 0e 0d 57 3e
       0.26920256 0.03633117 0.11330059 0.21001074
000360 4d 0a 63 3d 3b ef 3c 3d 97 4f 04 be 83 1e 32 be
       0.055429745 0.046126585 -0.12920986 -0.17394452
000370 57 c8 31 3f b0 12 03 bf 03 bb 09 3d 24 e6 3b 3f
       0.6944632 -0.5120039 0.033625614 0.7339804
000380 00 a2 2d bf 16 b9 05 bd c2 cc 2d 3e 0c b0 52 be
       -0.6782532 -0.032647215 0.1697264 -0.20574969
000390 79 8e f8 bd 3f 75 8b 3f 47 2e 6a bf bb 05 b3 3c
       -0.121365495 1.0895156 -0.91476864 0.021853318
0003a0 b4 a3 86 3f 8b 92 79 bf 5e 40 34 3d 5d 9c 99 bc
       1.0518708 -0.9748923 0.044006698 -0.018751318
0003b0 17 69 66 bc 69 44 f6 bd 6e f4 c9 3e 65 f7 ac be
       -0.014063141 -0.12024767 0.39444298 -0.33782497
0003c0 2e 31 d6 3b dd 79 ca 3e df fa ca be 2c 81 36 80
       0.0065366244 0.395461 -0.39644524 -5.005455e-39
0003d0 ca d6 2f 00 26 0a 1c 80 5f 98 44 80 9d 53 22 80
       4.39332e-39 -2.575034e-39 -6.299474e-39 -3.152402e-39
0003e0 83 1d 30 80 95 fc 27 00 9f d1 14 80 ad 1b 11 00
       -4.41869e-39 3.672194e-39 -1.911908e-39 1.571132e-39
0003f0 16 70 22 00 68 8a 2c 80 6e c7 0c 00 e7 ed 10 00
       3.162616e-39 -4.090413e-39 1.173568e-39 1.554711e-39

backbone.0.1.weight f4 [16]
000000 d4 7b 1d 00 93 63 18 3e 33 da 33 3e 96 29 7b 3e
       2.70765e-39 0.14881735 0.17563705 0.24527583
000010 f1 d0 2e 3e 25 79 59 3e 97 72 12 3d f6 19 91 3e
       0.17071892 0.21237619 0.035753813 0.2834012
000020 d0 d4 bd 3d f8 26 6d 1b ad c4 01 3f 08 50 01 3e
       0.092691064 1.9616772e-22 0.5069073 0.12628186
000030 9a 78 54 3e f4 df a8 3e 0f 08 35 00 25 bd 3c 80
       0.20749131 0.32983363 4.870172e-39 -5.577982e-39

backbone.0.1.bias f4 [16]
000000 a9 28 15 80 10 56 17 3f d1 59 bc 3e db e0 90 3e
       -1.943132e-39 0.59115696 0.36787274 0.2829655
000010 7f bc 6b 3f 43 f6 14 3f fe 57 0b 3f a0 6f 06 3f
       0.920845 0.58188266 0.5443114 0.52514076
000020 08 c0 19 3f 22 d7 5f 0d f5 bd 39 be 36 17 6f 3f
       0.6005864 6.8976137e-31 -0.18138869 0.9339479
000030 02 76 e8 3e 83 7d b3 be 86 50 01 00 f3 9e 09 80
       0.45402533 -0.35056695 1.20722e-40 -8.8354e-40

backbone.0.1.running_mean f4 [16]
000000 93 1e 8c 82 1f 09 8d 42 40 78 6b 41 54 d7 5e bf
       -2.05887e-37 70.517815 14.716858 -0.87047315
000010 08 bf 24 c3 5c 18 53 c2 78 ee 18 41 e7 7e 80 43
       -164.74622 -52.77379 9.55822 256.99142
000020 58 43 ca 40 53 19 50 84 41 5f 07 c2 2e 89 34 43
       6.3207207 -2.446191e-36 -33.84302 180.53586
000030 fb fa d1 42 7f ec 83 42 f9 c2 8b 84 e8 54 9f 84
       104.9902 65.96191 -3.2857797e-36 -3.7458694e-36

backbone.0.1.running_var f4 [16]
000000 04 00 00 00 2f 62 69 45 74 b9 08 46 a5 da c2 44
       6e-45 3734.1365 8750.363 1558.8326
000010 53 bd 41 46 d3 55 fd 45 f6 1c 20 45 dc 5d ec 46
       12399.331 8106.728 2561.81 30254.93
000020 fd fe bf 45 04 00 00 00 54 ff 33 45 37 8d 61 46
       6143.8735 6e-45 2879.958 14435.304
000030 d3 a9 d5 45 9b 3d 75 45 04 00 00 00 04 00 00 00
       6837.228 3923.8503 6e-45 6e-45

backbone.1.conv.0.0.weight f4 [16, 1, 3, 3]
000000 9e eb 94 00 78 c3 08 01 a2 92 59 01 35 58 18 80
       1.3676177e-38 2.5119497e-38 3.996181e-38 -2.235695e-39
000010 e4 02 48 00 8c a4 2e 80 3e 15 d1 00 b8 f8 36 80
       6.613193e-39 -4.283461e-39 1.9201239e-38 -5.04834e-39
000020 dc 75 8d 00 20 23 37 bb 43 a6 48 bd d2 db 17 3d
       1.2991085e-38 -0.002794452 -0.048986685 0.03707487
000030 87 52 6b bc 99 ab 27 be da a5 3a 3f 43 cb 4e 3c
       -0.014362938 -0.16374053 0.7290932 0.012621704
000040 79 83 78 3d 72 e9 52 bf 93 9e e6 3b 2a 09 24 bd
       0.060672257 -0.8238746 0.0070379465 -0.040047802
000050 a5 d7 22 be 6c 1c d5 bc 93 ae 9a 3d f9 d0 8f 3f
       -0.15902574 -0.02601453 0.07552829 1.1235648
000060 cc be 7b 3b e3 23 3f bd e5 fc 92 bd 03 04 8f bd
       0.0038413284 -0.046665084 -0.07177142 -0.06983187
000070 58 09 1e bd 82 6b bb bd 2c 3f 68 3d d4 d6 48 3f
       -0.03858313 -0.09151365 0.05670087 0.784528
000080 b0 7f a4 be c1 b6 8c bc b1 0c 35 bc 8b 01 2c be
       -0.32128668 -0.017176988 -0.011050389 -0.16797464
000090 d0 b3 1a 3f f3 b2 f9 3f 28 30 ee 3e e2 c4 74 3e
       0.6043062 1.9507736 0.46521115 0.2390323
0000a0 bf b6 e7 3e 83 ae 42 3e 81 cc 59 bf 58 f2 08 c0
       0.45256612 0.19011883 -0.85077673 -2.1397915
0000b0 3d 43 3e bf fa 13 83 bd 0e 82 f7 3d 63 a7 20 be
       -0.7432135 -0.064002946 0.12085353 -0.15688853
0000c0 52 74 4e 3e bc 8d be 3e 2c aa db bf ee 84 84 3d
       0.2016156 0.3721751 -1.7161307 0.06470667
0000d0 37 d7 a2 3f d4 4a a7 3e 7c 62 ac 3b 31 56 af 3d
       1.2721928 0.32674277 0.0052607637 0.085613616
0000e0 60 0d a8 bd 34 aa b6 3c ce 3c ce 3a d4 42 5a bf
       -0.08205676 0.022297956 0.0015734674 -0.8525822
0000f0 ed 52 b5 ba a9 69 62 bd da be 79 3f 57 e3 04 bf
       -0.0013833918 -0.055276547 0.9755684 -0.51909393
000100 0d 10 8e be 6b 8b 3f 3f be f3 1a c0 fe f6 b4 be
       -0.2774662 0.7482211 -2.4211268 -0.3534469
000110 41 35 29 40 96 93 03 bf 82 7b 50 be 64 bf 1b 3f
       2.6438754 -0.51397073 -0.20359614 0.60838914
000120 0f d9 35 bc ee 13 ee 3d 08 21 97 bd 01 8d 31 3d
       -0.011099114 0.11624895 -0.07379347 0.043347362
000130 ee 6b 8b bf 9a ce 42 3e 86 74 f2 3c 2b 05 c1 3b
       -1.0892313 0.19024125 0.029596578 0.0058905086
000140 bf ae 33 bd bb 04 38 80 16 cd 45 80 75 90 46 80
       -0.043867823 -5.144485e-39 -6.41022e-39 -6.480306e-39
000150 55 62 0c 00 17 eb 10 00 5b d0 3f 00 01 d3 47 80
       1.137301e-39 1.553702e-39 5.86038e-39 -6.596014e-39
000160 fe 98 42 00 b3 5e 17 80 c0 96 18 3e a6 dd bf bd
       6.116026e-39 -2.146188e-39 0.14901257 -0.09368448
000170 5c 27 e7 be 7c cf f9 bd ca 5d 49 3e 60 34 cf 3e
       -0.45147216 -0.12197778 0.19664684 0.40469646
000180 1e 93 bf be 2f 1a 9e 3e a6 ed dc 3e c2 47 26 3e
       -0.3741693 0.30879351 0.4315006 0.16238311
000190 31 b1 ca 3f f6 6b 80 3f f1 d6 72 3d 60 e0 30 3d
       1.5835325 1.0032947 0.059287015 0.04318273
0001a0 37 e7 0b be 3f 1c b9 be 91 01 d2 bf 53 92 7f bf
       -0.1366242 -0.36154363 -1.6406728 -0.9983265
0001b0 47 ce 40 bc 31 52 99 3d f8 c6 df 3b ea 70 c8 3c
       -0.01176793 0.0748638 0.006829139 0.024467904
0001c0 c3 99 43 3d 3f 7f 1a bf bb 71 1e bc c1 f4 a6 3d
       0.04775406 -0.6035041 -0.00967067 0.08152152
0001d0 3a 4d 67 3f 0e 8d 1b bd 0d 41 a2 3c 0e 91 1c be
       0.90352213 -0.037976317 0.01980641 -0.15289709
0001e0 e5 1e 35 3d d9 e0 94 3d 0e 18 0d be 8d 1e ef bd
       0.044218916 0.07269449 -0.13778707 -0.11675749
0001f0 ac 14 b3 bd c6 5f 37 3f 16 4d 23 80 30 a3 2b 80
       -0.08744177 0.71630514 -3.241896e-39 -4.007467e-39
000200 c4 cf 1c 00 44 da 2e 00 9f 6f 3b 00 1a 7e 4c 80
       2.645926e-39 4.302732e-39 5.458336e-39 -7.024734e-39
000210 3d 43 28 80 62 a8 23 80 36 b5 1b 80 63 9b 06 80
       -3.69754e-39 -3.274647e-39 -2.544565e-39 -6.06755e-40
000220 89 76 3f 00 80 d5 8e 00 03 ec 3d 80 02 ed 44 80
       5.828159e-39 1.311723e-38 -5.68663e-39 -6.329836e-39
000230 65 6c 9c 80 ed d3 3a 00 56 e5 40 80 6e 0e 3b 80
       -1.4365222e-38 5.402483e-39 -5.959742e-39 -5.42347e-39

backbone.1.conv.0.1.weight f4 [16]
000000 e0 8d 19 80 b4 71 0a 3f 52 66 39 3f ac 61 02 3f
       -2.346783e-39 0.5407975 0.72421753 0.50930285
000010 7d c8 91 3f f1 bb 04 3f 6a 3b 06 3f 07 d2 5f 3f
       1.1389309 0.51849276 0.5243441 0.8742985
000020 b1 4c f9 3e 7f 4a 23 9e 5d c7 60 3e 81 44 8a 3f
       0.48691323 -8.6445536e-21 0.21951051 1.0802156
000030 bb 63 28 3f e1 ed 9e 3e 24 80 07 80 63 57 31 80
       0.65777177 0.31040862 -6.88817e-40 -4.531288e-39

backbone.1.conv.0.1.bias f4 [16]
000000 bc 3c 7a 80 24 2e 60 3f 16 64 ba 3f f7 b1 c8 3e
       -1.1225718e-38 0.87570405 1.4561794 0.39198276
000010 65 1b 59 3e 47 aa 77 3f bf d6 69 3f 74 81 d1 3e
       0.21201856 0.967442 0.913433 0.40919077
000020 cf 16 f9 3e 6b ee 8c b9 27 d6 be 3e 8c d3 08 3e
       0.48650214 -0.00026880516 0.3727276 0.13361949
000030 37 17 88 3f d3 76 91 be 5c 56 04 80 00 cc 00 80
       1.0632085 -0.28410968 -3.98322e-40 -7.3181e-41

backbone.1.conv.0.1.running_mean f4 [16]
000000 04 00 00 00 f4 96 ff bd cf 9d 9f 3e 05 b6 21 3d
       6e-45 -0.12479964 0.31175086 0.039480228
000010 e1 7b 2c 3e 23 52 87 3e 6e d5 4a 3d 65 fb 18 be
       0.16844131 0.26429853 0.04951995 -0.1493965
000020 68 9b 00 bf 02 00 00 00 07 31 3c 3d d6 47 87 be
       -0.5023713 3e-45 0.045945194 -0.26421994
000030 85 a4 5c 3e 0f cb 35 3c 04 00 00 80 04 00 00 80
       0.21547134 0.011095776 -6e-45 -6e-45

backbone.1.conv.0.1.running_var f4 [16]
000000 04 00 00 00 83 0b 49 3c b5 74 8f 3c dc 1c f6 3c
       6e-45 0.012270811 0.017511705 0.030043058
000010 8f 3c 6e 3e 12 5a 5b 3d 69 d2 28 3b 7c 37 cb 3e
       0.23265289 0.053552695 0.002576018 0.3969077
000020 5d 06 0f 3c 04 00 00 00 b9 50 8e 3c c4 25 17 3e
       0.0087295445 6e-45 0.017372476 0.147605
000030 c3 20 b5 3c c4 04 09 3b 04 00 00 00 04 00 00 00
       0.022110349 0.0020907382 6e-45 6e-45

backbone.1.conv.1.weight f4 [8, 16, 1, 1]
000000 b0 82 0b 00 53 4b 4b bd b3 51 1e bc 18 b1 3c 3e
       1.057072e-39 -0.04963238 -0.009663033 0.18426931
000010 b4 ba bf bd 92 e7 28 3f 1d 43 62 3e ca 51 40 bd
       -0.09361783 0.6597835 0.22095914 -0.046953
000020 f9 3a cf bd 0d e9 12 80 1a 19 eb 3d 4e f9 8a 3e
       -0.1011867 -1.736642e-39 0.11479397 0.2714333
000030 84 d1 a3 3d cf 7c d7 bb 76 85 01 80 a2 1f 09 00
       0.07998946 -0.0065761576 -1.39712e-40 8.37867e-40
000040 f6 2c 41 00 6f 2c 96 bb 3b 11 12 bf 6c ca 84 bd
       5.985436e-39 -0.0045829336 -0.5705754 -0.064839214
000050 67 b6 b4 3d c2 bd dc 3c b3 f2 0b bd af db 67 3d
       0.08823853 0.026945952 -0.034167003 0.05660599
000060 eb 28 95 3d 03 cf 38 00 93 de de 3d 3b 2b 39 bc
       0.07283195 5.21705e-39 0.108822964 -0.011301811
000070 f5 d3 27 be 8f 4a 87 3e 2e d0 03 80 81 76 29 80
       -0.16389449 0.2642407 -3.50187e-40 -3.807767e-39
000080 7a f8 13 00 5e f3 f7 3e 10 5a 11 3e 74 ad e1 3e
       1.834011e-39 0.48427862 0.14194512 0.44077647
000090 7b e4 2e be 09 7e 30 be 8a 83 73 be 0c 9f 9c 3d
       -0.17079346 -0.17235579 -0.23780647 0.07647523
0000a0 3b 32 5e be f1 ff 3e 00 5a 9e c8 bc cf 9d d2 3e
       -0.21698849 5.785615e-39 -0.02448957 0.41136023
0000b0 41 40 2b 3d 93 fc 52 bc 58 20 08 00 43 94 0c 00
       0.041809324 -0.012877601 7.46287e-40 1.155212e-39
0000c0 84 bc 18 80 db c5 da bd 0e 51 32 be af 11 da bb
       -2.271679e-39 -0.10682269 -0.17413732 -0.00665494
0000d0 eb 15 01 3f 19 56 d8 be d0 7a 2b 3d 2d da f1 3c
       0.5042407 -0.42253187 0.04186517 0.02952298
0000e0 e8 1e 53 be f1 25 3d 00 f5 76 01 3e 82 d6 ce be
       -0.20617259 5.615576e-39 0.12643035 -0.4039803
0000f0 94 e9 9f 3e db c8 c4 3e 93 3e 38 00 96 ae 3b 80
       0.31232893 0.3843449 5.165235e-39 -5.480924e-39
000100 f5 e6 1b 80 fb 69 ad be 31 a9 a2 3e 18 e8 b7 bc
       -2.56241e-39 -0.3386992 0.31769708 -0.022449538
000110 fc a4 21 3e 62 f5 1a bf 00 12 ba 3d f5 6d 8c be
       0.15785593 -0.60530674 0.090854645 -0.2742764
000120 88 76 0f 3e 2c ff 43 00 be 07 18 3e 4f 26 f9 bd
       0.1401006 6.244517e-39 0.14846703 -0.1216551
000130 07 e1 3d be 7c 64 b8 bd 1d c1 1e 00 ce 9b 2f 80
       -0.18542872 -0.09003541 2.824341e-39 -4.37216e-39
000140 48 08 ae 00 5f 6b 4e be e9 6e 60 3c 7a 66 01 bf
       1.5982347e-38 -0.20158146 0.013698318 -0.5054699
000150 3d eb a3 be 4d 94 53 be 7e 63 a6 3e 95 42 f5 3e
       -0.3201541 -0.20662041 0.32497782 0.4790236
000160 42 d3 c7 3e 5d 1f 4c 00 25 57 1d 3d dc 16 ed 3e
       0.39028364 6.990749e-39 0.038413186 0.46306503
000170 52 a3 d3 bc ad 20 dd 3c aa ad 29 80 2c 37 28 00
       -0.025834713 0.02699312 -3.827554e-39 3.693212e-39
000180 54 50 89 81 3f 62 e1 3e e6 61 c4 bd ec 7b c7 be
       -5.0441117e-38 0.44020268 -0.09588985 -0.38961732
000190 4b 71 d3 be 71 f2 23 3d e5 8b 4c 3c 6f ca 58 bf
       -0.41297373 0.040026132 0.012484525 -0.8468389
0001a0 e6 f9 01 3e dd 3d 1d 00 0d 09 9c bd bc f7 91 3e
       0.12692985 2.685422e-39 -0.07618914 0.2850932
0001b0 74 41 92 bd 89 f0 51 3e b1 e0 2b 80 72 b9 25 00
       -0.071413904 0.20501913 -4.02953e-39 3.464439e-39
0001c0 6e cc 04 80 e0 6f aa bd 30 cd 56 3e 90 dd a3 bc
       -4.40678e-40 -0.0832212 0.2097671 -0.02000311
0001d0 c1 65 f3 3e be c7 1e 3f 96 e1 61 be 86 ac 32 3e
       0.4753857 0.6202353 -0.2205871 0.17448625
0001e0 30 ea 78 bd 49 42 36 00 be 98 03 3e db ae de be
       -0.060770214 4.982895e-39 0.12851235 -0.4349278
0001f0 67 8b 47 be ee b1 77 bd cc ae 22 80 26 a3 32 80
       -0.19486772 -0.06047242 -3.185112e-39 -4.650301e-39

backbone.1.conv.2.weight f4 [8]
000000 b9 d6 09 3f 0d 59 00 3f a2 29 15 3f b6 33 13 3f
       0.53843266 0.5013588 0.5826665 0.5750078
000010 98 ac 0d 3f 9c 9d 1a 3f 73 55 13 3f 3b 65 03 3f
       0.5534148 0.6039674 0.5755226 0.5132634

backbone.1.conv.2.bias f4 [8]
000000 04 c0 a1 b8 b3 3b 96 b7 11 59 91 38 68 f8 38 39
       -7.712844e-05 -1.7909193e-05 6.930729e-05 0.00017640146
000010 be 28 aa 39 87 d6 fd b8 86 7c 51 38 9f 31 03 39
       0.00032455282 -0.00012103939 4.9945455e-05 0.00012511619

backbone.1.conv.2.running_mean f4 [8]
000000 45 8b 7a 3f f2 f2 66 bf 62 bf ea 3e 0f 3a ae be
       0.9786876 -0.90214455 0.45849138 -0.3402867
000010 a3 a4 0e bf 7f 46 41 3e c4 18 d9 be 06 1b 15 3f
       -0.55719966 0.18874548 -0.42401707 0.5824436

backbone.1.conv.2.running_var f4 [8]
000000 e5 0a 06 3e 04 44 28 3e b5 27 84 3e 3a 54 9a 3e
       0.13090093 0.16432196 0.25811544 0.30142385
000010 23 0f 44 3e f0 e5 a3 3e e1 50 d2 3e 32 a6 41 3e
       0.19146399 0.32011366 0.4107733 0.18911055

backbone.2.conv.0.0.weight f4 [48, 8, 1, 1]
000000 5f b4 fe 3d d0 c2 89 3d 95 73 3b 3e f1 42 2b be
       0.12436747 0.06726611 0.1830581 -0.16724755
000010 da 05 dd bd 2d 23 e6 3c 59 ac 90 3e 85 bb 64 3d
       -0.10792132 0.028092945 0.2825649 0.055842895
000020 72 67 b9 3d a8 44 c6 3d 53 f7 b7 3d c5 cc 1d 3e
       0.09052934 0.09681064 0.0898272 0.15410145
000030 25 54 46 be 3d a8 86 be 11 91 08 be a0 e8 79 bd
       -0.19368036 -0.2630023 -0.13336588 -0.061012864
000040 ed 26 ac bd 51 4b 46 bc 1a 0a 3f be 95 2f 47 3e
       -0.08405862 -0.012102918 -0.18656197 0.19451745
000050 02 bb 87 bc a1 12 a6 ba b9 ed 8f be b2 db 09 3e
       -0.016568664 -0.0012670347 -0.28111055 0.13462713
000060 5e 7a 86 bd 15 93 64 3e 2e c7 ec 3d d2 8e 17 bf
       -0.065663084 0.22321732 0.11561428 -0.592023
000070 b6 9a 77 3c 69 53 02 be 4c f6 80 be 54 be cd be
       0.01511257 -0.12727131 -0.2518791 -0.4018427
000080 6d d2 91 3d 66 fe 81 bd 55 75 46 3e fb 1b 91 be
       0.07120214 -0.06347351 0.19380696 -0.2834166
000090 ee dd f3 bd f3 53 e3 3d ba 3b 4e 3d 28 a9 3e be
       -0.11907564 0.110999964 0.05034993 -0.18619215
0000a0 8a 84 c3 bb 3b ce 25 bd 42 e8 84 3d ff 35 77 be
       -0.0059667276 -0.04047988 0.06489612 -0.24141692
0000b0 20 83 a6 bc dc 12 77 3d 9f f0 70 3e 05 da a3 bd
       -0.020326197 0.06032072 0.2352929 -0.08000568
0000c0 5b 47 5e 3d 4f c5 3f 3e 3e 65 0f 3e 7e c4 b7 3d
       0.05426727 0.18727611 0.14003465 0.08973025
0000d0 ee bc f7 bd 77 f5 8d be 56 94 1b be d6 62 0e bd
       -0.12096582 -0.27726337 -0.15193304 -0.034762226
0000e0 0a a4 3d 3d e2 3c 54 3e 00 2d 3f 3d d5 37 25 bd
       0.046299018 0.2072635 0.046673775 -0.04033645
0000f0 c7 02 3f bc 7b 4b 86 3d 4e 7a 2d bd cf e4 35 3e
       -0.011658377 0.065573655 -0.042352967 0.17763065
000100 7e de 40 be 6e a0 02 bd 21 60 bd 3e 55 a9 4b bd
       -0.18834874 -0.03189128 0.36987403 -0.049722034
000110 a6 1a 38 be df 5e 46 ba 6f 9d 4d be 97 8a 90 3c
       -0.17978916 -0.00075672375 -0.20079587 0.01764421
000120 34 54 90 bc de 54 9d 3e 94 15 1a bd 74 25 c5 3d
       -0.017618276 0.3072881 -0.037618235 0.09626284
000130 85 54 19 be 2e 3e 00 bc fd f3 a9 3d c1 b7 9b bd
       -0.14973648 -0.007827325 0.0829849 -0.07603408
000140 e4 d7 8c bd a3 a3 c1 bd 4f d2 17 bb fb d9 d6 be
       -0.06877115 -0.09455039 -0.0023166125 -0.4196318
000150 07 d1 b8 3d 92 77 be bc f1 5a d1 3b a0 2f 9a 3d
       0.09024244 -0.023250375 0.006389015 0.07528615
000160 af ac b6 bd e4 ab 07 bc 1c 5a 7b be bf 77 84 3e
       -0.089196555 -0.008280728 -0.24546093 0.2587261
000170 4c 4a 48 3c 1e 4a 01 be 4e 62 68 be 26 73 73 3e
       0.012224745 -0.1262593 -0.2269375 0.23774394
000180 ad d6 00 3e cc 84 02 3e 9c d1 0b be fc b1 c0 3c
       0.12581892 0.1274597 -0.13654178 0.02352237
000190 7e d3 6b 3d ea c2 09 3e b7 c0 9b 3c b6 aa a8 3d
       0.05757474 0.1345326 0.019012792 0.082356855
0001a0 a3 8f 03 3e c0 36 30 be d4 e8 14 bd ca 6f de bd
       0.12847762 -0.17208385 -0.036354855 -0.10861166
0001b0 4f 6f 8c be 10 ad 2b 3e 3f a5 8c 3d 1f 0a 54 3e
       -0.27428672 0.16765237 0.06867456 0.20706986
0001c0 2a b4 f2 bd ba 5b cf bd df cc b0 3d 55 00 bc 3e
       -0.1185077 -0.10124917 0.08632826 0.36719003
0001d0 17 63 91 3d f1 3d a6 3d e2 1e 33 bc 32 de 93 be
       0.07098978 0.08117283 -0.010932656 -0.2888046
0001e0 af 50 6a 3c ae a3 04 3e 83 75 64 3e 63 8a 1a 3e
       0.014301463 0.12953064 0.22310452 0.15091853
0001f0 3a 57 a0 be 96 c8 d8 bd 0f 7a c2 3c 7e 1f 56 be
       -0.3131655 -0.10585134 0.023739843 -0.20910451
000200 5c 82 5c 3e 41 af 06 3e 73 ce 1d 3e 1a 2a 44 3e
       0.21534103 0.13152792 0.15410785 0.19156685
000210 36 50 64 3e e4 c9 02 3e 18 a3 85 3d ef 61 61 3d
       0.22296223 0.12772328 0.06525248 0.055025037
000220 e5 45 27 3d 1f ae a8 bc 2c 9e 0d 3e 67 33 53 be
       0.04083814 -0.02059084 0.13829869 -0.20625077
000230 4a 92 1d be 50 b6 cb 3d 35 30 48 3d d8 f9 90 bd
       -0.15387836 0.09946883 0.0488741 -0.07078904
000240 86 cc 8e be 10 ed 6a 3d 01 4c 4b be f9 46 1c 3e
       -0.27890414 0.057354987 -0.19853212 0.15261449
000250 c7 78 a5 bd e8 a2 c3 bd 44 c6 86 be 63 6e 68 3e
       -0.08079677 -0.09552556 -0.2632314 0.22698359
000260 df 80 bc bd 26 81 9c 3d aa cc 8d be 05 c2 80 3e
       -0.09204268 0.076418206 -0.2769521 0.25148025
000270 14 80 de 3d e5 db 84 be 0f 67 80 be 7f d0 b0 3e
       0.10864273 -0.25949016 -0.25078627 0.3453407
000280 47 cf ec 3d 94 52 26 3e 7e 89 27 3e 55 03 83 3e
       0.115629725 0.16242439 0.16361043 0.2558848
000290 fb c9 6b bc 65 03 78 3c a2 d5 fc 3d 6a 9d 0b 3e
       -0.014391418 0.015137528 0.12345435 0.13634267
0002a0 82 ac be 3d 9a a2 2b bd ac f7 83 3d dc 3c aa be
       0.09310247 -0.041903116 0.06443724 -0.33249557
0002b0 90 82 22 3e 9b dc ec bd 05 be 9b be 38 82 2d be
       0.15870118 -0.11565515 -0.3041841 -0.16944206
0002c0 d2 7c 3f 3d 1f 1f 55 3d d0 de 2a 3d d1 29 ad 3d
       0.046749897 0.052031633 0.041716397 0.084552415
0002d0 6c 56 d0 bd e5 60 b2 bd c4 7a 4b 3d 3d d1 06 be
       -0.10172734 -0.087098874 0.049677625 -0.13165756
0002e0 f1 fb 8e 3e ef 6a d2 3c f9 89 95 3d 3e 3f e6 3c
       0.2792659 0.025685756 0.07301707 0.028106328
0002f0 45 87 c6 3d 1e 8b f6 39 7e e7 c7 bb 2b d6 6c 3d
       0.09693769 0.00047024427 -0.006100594 0.057821434
000300 4b c0 8a bd ea 06 cf ba 93 83 ec 3d a0 43 20 3e
       -0.06774958 -0.0015794907 0.11548533 0.15650797
000310 99 6e 30 bd 0a b3 2d be 1c 87 8e 3d 69 d2 a0 bd
       -0.043074224 -0.16962829 0.06959364 -0.078526326
000320 00 9b 44 3d 62 f2 b0 be 79 d7 7a 3e bd e1 9c bd
       0.047999382 -0.34559923 0.24496259 -0.07660244
000330 f1 f5 23 3e 0e c3 2e be aa e0 74 bd af 51 89 3e
       0.16011788 -0.17066595 -0.05978457 0.26820132
000340 4a f3 83 bd ad 61 68 3d 50 02 60 3e 3b 4e 6a 3d
       -0.06442888 0.056733776 0.21875882 0.057203513
000350 6b 46 83 bd fb c9 c8 bb dc 5b 6f 3e d9 c4 13 3e
       -0.064099155 -0.0061275936 0.23374885 0.1443056
000360 31 5b a4 be 0a ac e2 3d 56 14 d3 bd 68 64 68 3e
       -0.32100824 0.1106797 -0.10306613 0.22694552
000370 98 81 0c be c2 ef 74 3d 73 49 70 3e a1 c7 8f 3d
       -0.13721311 0.059798963 0.23465519 0.07020498
000380 f8 27 d5 3e 2d 10 83 3d b7 fb 0c be a9 0a fa bd
       0.41632056 0.0639957 -0.13767897 -0.122090645
000390 a7 60 25 be 52 4c 59 be 58 1d 53 bd 45 7f c8 3d
       -0.16150151 -0.2122052 -0.051541656 0.097899
0003a0 d2 76 ed 3c b3 d2 2a 3c 11 5e 21 3e e3 31 3e 3e
       0.028987322 0.010426211 0.1575854 0.18573718
0003b0 cf 32 83 3d 51 55 25 3e b0 c4 77 bc c6 04 a6 3d
       0.06406175 0.16145827 -0.015122578 0.08106379
0003c0 28 de 40 be ab 9f 2d be 4b 30 c3 be e4 fd 96 bd
       -0.18834746 -0.1695544 -0.38122782 -0.073726445
0003d0 24 ba f2 3b c7 8f d5 3e 8f 60 c5 3d 79 67 b6 3a
       0.0074074436 0.41711256 0.09637558 0.0013916335
0003e0 68 dd 3f 3e 11 15 9f bd f0 ad 09 bd a9 75 88 be
       0.18736804 -0.0776769 -0.033613145 -0.26652268
0003f0 74 ad 81 be a1 10 fa bb bc 28 4e 3d 0a 1a 82 3e
       -0.25327647 -0.007631377 0.050331816 0.2541049

backbone.2.conv.0.1.weight f4 [48]
000000 7c c2 e2 3e 9a d3 b0 3e c3 1a f1 3d 8a 30 08 3e
       0.44289005 0.3453644 0.117726825 0.13299766
000010 b0 81 40 3e be c2 2b 3e 50 02 96 3e 9b 94 14 3e
       0.18799472 0.16773507 0.2929864 0.14509813
000020 1b a8 e6 3e 62 cb 19 3e 09 bc 30 3e 1b f4 b3 3e
       0.4505013 0.1501899 0.1725923 0.35147175
000030 d9 5e 9c 3d 3c 97 ed 3d 3f 86 10 3e 6a 24 e2 3e
       0.07635278 0.11601111 0.14113711 0.44168407
000040 a3 a5 0c 3e 41 07 5d 3e bf 56 b1 3e 46 70 34 3e
       0.1373506 0.21584798 0.34636495 0.17620954
000050 fe 03 27 3e 39 59 15 3e ae 55 0a 3e e3 46 97 3d
       0.16310117 0.14584817 0.13509247 0.073865674
000060 27 6c e4 3d ac 52 94 3e 8e 4c 28 3e ad 33 8c 3e
       0.11153441 0.28969324 0.16435453 0.27383175
000070 13 ec 12 3e 17 fe 16 3d d2 1e f5 3e 8e e0 a9 3d
       0.14347868 0.036863413 0.47875077 0.082947835
000080 e1 0c 3e 3e 08 9d 8f 3e 1f 84 58 3e 06 8f 59 3e
       0.185596 0.28049493 0.2114415 0.21245965
000090 98 74 ae 3e 5a 7f b0 3e 88 1b dd 3d da ff af 3e
       0.3407333 0.34472162 0.10796267 0.34374887
0000a0 a5 a4 dd 3e 2a fe 50 3e 0c eb f3 3d 2b 68 24 3e
       0.43289676 0.20409456 0.11910066 0.16055362
0000b0 30 37 47 3e 03 d5 ba 3e bb a3 9f 3e 18 18 29 3e
       0.19454646 0.3649064 0.31179604 0.16513097

backbone.2.conv.0.1.bias f4 [48]
000000 33 3e fd bc df 45 55 bb 42 48 79 3e f0 db d7 3e
       -0.030913448 -0.0032542867 0.2434397 0.42159986
000010 e5 4e 77 3e bc 6e 46 3e a7 d4 9d 3d 54 c7 5b 3c
       0.2415119 0.1937818 0.07706576 0.013414223
000020 51 08 07 bd 50 ec 0b 3e 86 26 ce bd f8 cd 9a 3d
       -0.032966916 0.13664365 -0.100659415 0.07558817
000030 b2 71 4d 3e 69 b3 51 3e 83 ea 56 3e 39 25 0b bc
       0.20062903 0.20478596 0.20987897 -0.008492761
000040 08 9d 99 bd 7b 8a 39 3e bd 6c 92 3d f3 cb c5 3e
       -0.075006545 0.18119232 0.071496464 0.38632163
000050 f3 e3 c8 3e a2 93 08 3e df 14 73 3e 5c b9 9c 3e
       0.3923641 0.13337567 0.2373843 0.30610168
000060 90 2b 20 3e 14 98 0e bd 08 aa d9 3d c3 9e a8 be
       0.15641618 -0.034813 0.10628134 -0.32933626
000070 e8 91 76 3e 26 6f 92 3e fa bd 52 bc f8 de 70 3e
       0.24079096 0.28600425 -0.012862677 0.23522556
000080 37 c5 ff 3d b2 c2 59 3d 7d df dc 3d 65 f6 26 3e
       0.124887876 0.05316419 0.107848145 0.1630493
000090 31 8b 5c 3c de 59 bf 3d 56 3e 87 3e 57 6e b9 3d
       0.01346092 0.09343313 0.26414746 0.09054249
0000a0 ce 8b 98 3c 6f cd 8f 3d 8c 6b 95 3e 06 82 1c 3e
       0.018621352 0.07021605 0.29183614 0.15283975
0000b0 c7 1c 01 3e 86 65 ae bc e2 e7 57 3e 17 a6 24 3e
       0.12608634 -0.021288645 0.2108455 0.16078983

backbone.2.conv.0.1.running_mean f4 [48]
000000 ee 93 93 37 e6 39 68 b7 3e ac 7c b7 bc 50 37 37
       1.759265e-05 -1.3841758e-05 -1.5060474e-05 1.0926447e-05
000010 13 af 27 37 e7 d9 66 37 24 71 15 b7 4b ee 14 37
       9.994738e-06 1.3759803e-05 -8.907435e-06 8.876969e-06
000020 35 f6 bf b6 c5 00 8f b6 2d 32 9b 37 28 29 83 b7
       -5.720906e-06 -4.2618217e-06 1.8500805e-05 -1.5635582e-05
000030 e1 7e d7 36 52 3a fd 36 a5 42 bc b7 31 9c 69 b7
       6.42227e-06 7.546777e-06 -2.244238e-05 -1.3924248e-05
000040 ee a4 fb 36 24 46 07 37 af de 86 b7 27 c0 4c b7
       7.4995833e-06 8.062958e-06 -1.607774e-05 -1.22040865e-05
000050 2d b9 3e 35 01 a2 e1 36 09 1a dd b6 6b 92 06 37
       7.104998e-07 6.7243823e-06 -6.589344e-06 8.021113e-06
000060 f2 70 21 b7 ce 9b 15 37 c7 b9 d8 36 cc 0c 2c b7
       -9.622645e-06 8.917368e-06 6.458929e-06 -1.0254978e-05
000070 c9 36 00 37 58 3d 81 b5 78 3d 77 35 e6 89 81 37
       7.64215e-06 -9.629102e-07 9.210412e-07 1.5442212e-05
000080 06 8f 8b 36 be 98 6a 35 c1 7c 03 38 af 8e 6c b7
       4.159173e-06 8.739406e-07 3.134902e-05 -1.4099917e-05
000090 ed 3c 23 37 77 74 07 37 62 a8 15 b7 ef f8 43 37
       9.7297425e-06 8.073744e-06 -8.920297e-06 1.1680865e-05
0000a0 eb ea 7f b7 0a 44 8b 37 fb c0 b0 36 1c fa ce 36
       -1.52538805e-05 1.6601774e-05 5.2676746e-06 6.168395e-06
0000b0 e3 aa 1a b7 97 46 f2 37 43 6d c2 36 65 4e 84 b7
       -9.218903e-06 2.8881519e-05 5.7943703e-06 -1.5772132e-05

backbone.2.conv.0.1.running_var f4 [48]
000000 8a bd d7 3d 9f 35 8b 3d f9 81 de 3d f5 cc e8 3d
       0.105341986 0.06797337 0.10864634 0.113672175
000010 37 4a e6 3d 91 04 92 3d db 88 84 3d 84 5b ad 3c
       0.11244624 0.07129777 0.064714156 0.021161802
000020 cb 52 77 3d 87 ee 5d 3d 7c a6 59 3d 99 e3 24 3e
       0.060381692 0.054182556 0.053137287 0.16102447
000030 65 fc 8e 3c bd 2f 9b 3d 7b c3 c2 3d 5e d4 b4 3d
       0.017454335 0.07577465 0.09509941 0.08829568
000040 1a e6 66 3c d9 3a 84 3d a9 44 0d 3e db 09 79 3e
       0.014092946 0.06456537 0.13795723 0.24320166
000050 4e 8e ee 3c 34 17 0b 3d dd 75 a9 3c 27 1f 98 3c
       0.02912059 0.033957675 0.020686084 0.018569542
000060 b1 d8 fa 3c 53 bf d2 3d cf c6 d1 3c 12 c3 6b 3d
       0.030620905 0.102903984 0.025607495 0.05755908
000070 39 bd 11 3e c6 8b 86 3c dc 9f 18 3e 5c 17 fe 3d
       0.14232339 0.016424071 0.14904732 0.12406799
000080 42 f9 5a 3d fd 99 69 3d 48 df de 3d 10 1b d6 3d
       0.053460367 0.05703162 0.10882431 0.104543805
000090 36 40 9e 3d 17 41 4f 3e 13 1b af 3c 81 cb ff 3d
       0.07727091 0.20239674 0.021375215 0.12489987
0000a0 6c dc 05 3d cc bc 49 3d aa 7b 08 3d ae 0c c5 3d
       0.032680914 0.049252316 0.03332106 0.09621559
0000b0 e3 c3 cb 3d 2b 1e 0b 3e bd 8f ea 3d f8 6e 01 3e
       0.09949472 0.13585727 0.11453197 0.12639987

backbone.2.conv.1.0.weight f4 [48, 1, 3, 3]
000000 79 76 bd bd ce 3b 43 be 09 df e0 bd cc f5 e3 bd
       -0.092511125 -0.19065782 -0.109800406 -0.111308664
000010 78 35 10 be 02 d4 ca bd 9f 9e 8b bb 4e ae f7 bd
       -0.14082897 -0.099037185 -0.0042608525 -0.12093793
000020 c9 e1 2d bd 8a 11 89 bd 08 e0 3e bd 13 46 db 3b
       -0.042451654 -0.066927984 -0.04660037 0.006691703
000030 3d 56 e4 bd 03 ab c8 bd fd 3b ea bc 75 66 44 be
       -0.11149261 -0.09798243 -0.028593058 -0.1917971
000040 6e 86 37 be e5 b2 98 bd e9 90 ec bd f9 f9 95 bd
       -0.17922375 -0.074559964 -0.11551077 -0.07323069
000050 d4 ca 94 3c 1a 56 34 3e 25 c9 b5 3e 53 07 2e 3e
       0.018163122 0.1761097 0.35505024 0.16994981
000060 96 a0 a9 bd 6a db 2b be a8 b0 b7 be a7 de 11 3e
       -0.082825825 -0.16782919 -0.35876966 0.14245091
000070 4d c4 61 3e cd a3 f3 bc 36 0a 5a 3e f6 36 f9 3e
       0.22047539 -0.029741192 0.21292958 0.48674744
000080 9b 54 87 3c 04 e7 96 3d 30 91 2a 3e d6 c8 fb bc
       0.016519835 0.073682815 0.16656947 -0.030735414
000090 ba 34 04 be 09 92 90 be c8 d4 22 be dd 42 ff bd
       -0.12910739 -0.28236416 -0.15901482 -0.12463925
0000a0 a1 49 04 be db 8f b0 bc f1 cc 00 3e 80 ba ba 3e
       -0.12918712 -0.02155297 0.12578179 0.36470413
0000b0 61 4d 03 3e 05 ed 94 3d bc c4 86 3e ea c3 49 3e
       0.12822486 0.072717704 0.2632197 0.19703642
0000c0 1d 6d 4b bd 3b 4d a8 bd 8a ba 2d 3d 55 f5 c7 bd
       -0.049664605 -0.082178555 0.042414226 -0.0976359
0000d0 22 17 5b be a6 59 4c be f1 81 8f bd 97 9e 89 bd
       -0.21395543 -0.19956073 -0.07007206 -0.06719702
0000e0 a4 b5 ca bd 0d cb 13 3c 18 f1 81 be 5a 81 87 be
       -0.098979264 0.009020579 -0.25379252 -0.26465875
0000f0 77 b7 a7 bc 2e ad 25 be 68 e1 55 be 01 ab 0d be
       -0.020473225 -0.16179344 -0.20886767 -0.13834764
000100 8b 77 f9 3c 58 ab 19 be 2e 4e 06 be 55 7d f4 3d
       0.03045251 -0.15006769 -0.1311576 0.11937968
000110 a3 86 33 be 21 7f 24 be cc bc ae 3d 97 05 11 be
       -0.17531829 -0.16064121 0.08532104 -0.14162289
000120 44 98 62 3d 9c bf 22 3e 61 89 81 3d c2 02 28 3c
       0.055320993 0.15893406 0.06325031 0.010254564
000130 d8 da 8f 3e b3 b2 11 3e 0c 1e 8d bc 13 75 64 3e
       0.28096652 0.14228325 -0.017226242 0.22310285
000140 b1 14 f7 3d 82 b2 fa bd f4 f1 39 3e c9 4e aa bd
       0.120644934 -0.12241079 0.18158704 -0.08315808
000150 c6 db a2 bc f4 5a cf 3d a6 f5 aa bd a3 49 00 3e
       -0.019880187 0.1012477 -0.08347635 0.1252809
000160 34 36 b7 be 07 43 e0 3d 76 0a 11 3d 0f b2 c0 3d
       -0.3578354 0.109502845 0.035410367 0.09408962
000170 4d 3c 76 3c 41 91 87 3d 34 eb 4d 3e b1 2c 37 3d
       0.015029025 0.06619502 0.20109254 0.044720355
000180 fe 85 86 3d da a6 24 3e f4 8b 99 3d 1e fe 62 bd
       0.06568526 0.16079274 0.07497397 -0.055418126
000190 75 31 22 be 94 5f a2 bd 0f b6 23 bd 07 2a 83 be
       -0.15839179 -0.07928386 -0.039968546 -0.25618002
0001a0 d9 e6 80 be eb 5b e6 bb 09 a3 61 3b 96 01 74 bd
       -0.25176123 -0.0070300004 0.0034429452 -0.059571825
0001b0 f2 63 74 bd 3c ba bf 3d 60 b7 2a 3c 20 5e 39 3e
       -0.059665628 0.09361693 0.010419697 0.18102312
0001c0 50 8c b9 be 10 f5 a9 3d 98 44 ea bd 7e 7b 64 3e
       -0.36239862 0.08298695 -0.114388645 0.22312734
0001d0 19 85 49 bd e0 12 bb bd 56 8e 1d 3d 4a 2a 98 3d
       -0.049199197 -0.091344595 0.03846582 0.07429941
0001e0 db af 95 be b1 14 a3 3e 01 c5 c8 3c e1 0e 2a bd
       -0.2923573 0.31851724 0.024508001 -0.041518096
0001f0 20 82 2e 3e 59 ba 0f be 33 2f d6 bd ca 06 1b be
       0.17041826 -0.1403593 -0.10458221 -0.15139309
000200 b6 14 77 bd ea a7 08 3e 2d ec b4 3e 61 8c a3 3d
       -0.060322486 0.13345304 0.35336438 0.079857595
000210 a5 97 2d bd bc 42 96 be 64 86 80 bd 5a 4a 92 bd
       -0.042380948 -0.2934779 -0.06275633 -0.07143088
000220 5d 67 22 be c5 0c a9 3c d6 83 3b be 4b 4c 5a be
       -0.15859742 0.020635972 -0.1831201 -0.21318166
000230 ed d2 ae bc 3c b2 ce bd 6b f5 52 be 69 7a 3f bd
       -0.021340812 -0.10092589 -0.20601432 -0.0467476
000240 8b b9 38 3c 08 0f 67 bd 7e 36 c2 3c 07 25 c8 bc
       0.011274706 -0.05641082 0.023707625 -0.024431719
000250 c1 ce dc 3d 69 76 3b 3e 09 15 62 3d f5 56 05 3e
       0.10781623 0.18306889 0.055195842 0.13021453
000260 48 d4 3c 3e 92 96 e5 3d 5d 07 1b 3e f1 b6 e5 3c
       0.18440354 0.1121036 0.15139528 0.028041335
000270 78 e1 55 3e 1f 8e 50 3e df c8 a0 3c f5 08 85 3d
       0.20886791 0.20366715 0.019627033 0.06495849
000280 a1 00 e3 3d 61 1a 52 3c 57 3e d0 bc 3f a0 97 bd
       0.11084104 0.012823672 -0.025420351 -0.074036114
000290 38 8f 08 3d 69 36 a0 bb 5e 69 9d be f6 4f c9 bd
       0.03333971 -0.0048892987 -0.3074445 -0.098297045
0002a0 75 1a db bc b1 5a 47 be 01 04 48 bb c6 76 86 3c
       -0.026746014 -0.1946819 -0.0030519965 0.016414057
0002b0 53 8e 85 bd 84 75 7b bd 8e 21 81 bd d2 10 95 be
       -0.06521287 -0.06139137 -0.06305228 -0.29114395
0002c0 27 6a 43 be 5d 0d 3d 3c 00 97 6e be 73 ac 02 be
       -0.19083463 0.011538831 -0.2329979 -0.12761097
0002d0 6d 87 04 3e 1b da 15 3e 30 8e 5f 3c af 96 3f 3e
       0.12942286 0.14633982 0.01364474 0.18709825
0002e0 69 4a c0 3e c7 b3 86 ba 29 ba ac 3d 00 df 13 3e
       0.3755677 -0.0010276966 0.08433945 0.14440536
0002f0 a4 76 17 bd 6c 04 7d bd 88 03 69 bd ce 4f 20 3e
       -0.03697838 -0.061771795 -0.056888133 0.15655443
000300 6e b6 d2 bd 08 e7 60 be 5e 06 8c 3e 48 18 02 bd
       -0.10288702 -0.21963131 0.27348608 -0.031761438
000310 5f e7 62 be 89 22 1b 3e 9e 7d 91 3d 6c e4 8f be
       -0.22158574 0.15149893 0.07104038 -0.2810396
000320 dc 81 74 3d 2a 12 73 be 22 6d e6 3e b0 c8 e2 bd
       0.059694156 -0.23737398 0.45005137 -0.11073434
000330 48 e4 13 3e 04 26 31 be 52 24 da 3c f7 12 81 bd
       0.14442551 -0.17299658 0.026628647 -0.063024454
000340 2d 69 e2 3c e7 71 86 bd dc 09 a2 3d bf 53 fe be
       0.027638042 -0.06564694 0.07912037 -0.49673268
000350 d2 70 8d 3e 78 c0 3a bc dd 10 b4 3e 79 41 9f be
       0.27625138 -0.011398427 0.35169116 -0.3110464
000360 e5 5f ac bc 7c db 0a bd 84 5d 02 3e 0c 4c b3 bc
       -0.02104182 -0.033900723 0.12730986 -0.021886848
000370 69 72 71 be ca e8 a2 be c3 96 58 3d 0d 2e 80 3e
       -0.235788 -0.3181823 0.052878153 0.25035134
000380 61 6f 0e 3e 7e ad 69 3d 14 38 ed 3d 4e 9b 97 3d
       0.13909675 0.05705022 0.11582962 0.07402669
000390 7d 34 b2 3d c5 fd 8e 3e d5 93 1e 3e 2c 5c fd 3d
       0.087014176 0.27927986 0.15486081 0.12371096
0003a0 42 9a 8f 3e 97 8c f0 3d bb 7b 86 bd 9d 2b 19 be
       0.28047377 0.117455654 -0.065665685 -0.14958043
0003b0 f5 9a 7b bd 10 54 21 3e 1d 12 91 3e 7c 33 e1 3d
       -0.061427075 0.15754724 0.28334132 0.10996148
0003c0 bf e6 95 bd 58 35 1b be 9c b9 27 bd f7 66 4e 3d
       -0.07319402 -0.15157068 -0.040948495 0.050391164
0003d0 2f 22 e5 3d 02 07 a2 3d 4e d1 bf 3d c8 e3 2f 3e
       0.11188161 0.07911493 0.093660936 0.17176735
0003e0 6c 11 33 3e b8 d0 30 bd ca 82 7c 3d d7 8d 47 3d
       0.17487115 -0.0431678 0.061648168 0.048719253
0003f0 f0 54 16 3e 66 5c 36 3e 53 57 da 3d 41 c5 cb 3d
       0.14680839 0.17808685 0.10661187 0.099497326

backbone.2.conv.1.1.weight f4 [48]
000000 c5 5f 0b 3f 32 ae 96 3e 8e 72 bd 3e 2d 54 79 3e
       0.5444301 0.29429775 0.3700146 0.24348517
000010 9d 51 c0 3e fb 4e bb 3e 84 39 17 3e 31 ba 9e 3e
       0.37562266 0.36583695 0.14768034 0.31001428
000020 e6 cf 5c 3e 3c f2 8c 3e 1e fe 00 3e e6 49 ec 3e
       0.21563682 0.2752856 0.12596938 0.4615013
000030 84 52 af 3e 9a 20 8b 3e 33 04 a9 3e 47 07 da 3e
       0.34242642 0.2717331 0.33011016 0.42583677
000040 0a 27 9c 3e 8f 64 87 3e fe c1 06 3f cc dd fa 3e
       0.30498534 0.26443908 0.5263976 0.48997343
000050 ef 4e 80 3e df 16 64 3e 4f e7 c8 3e f8 41 cf 3e
       0.25060222 0.2227435 0.39238974 0.40480018
000060 07 26 ca 3e 27 0e 70 3e d4 62 ae 3e 1d 57 30 3e
       0.39482138 0.23442899 0.34059775 0.17220731
000070 09 81 90 3e 6b c4 98 3e 3e 00 fb 3e bf ee 55 3e
       0.28223446 0.29837355 0.49023622 0.20891856
000080 24 fd 9f 3e c0 50 4e 3e 49 a5 86 3e ae b0 b7 3e
       0.31247818 0.20147991 0.26297978 0.35876983
000090 bf 62 41 3e bb bf ae 3e 86 85 b3 3e 0e ff a0 3e
       0.18885325 0.34130654 0.35062808 0.3144459
0000a0 a2 ce c3 3e a0 fc 77 3e 6e 22 ab 3e 46 f0 b0 3e
       0.38243586 0.24217463 0.33424705 0.34558314
0000b0 fe cb ac 3e e0 95 6f 3e 2b ea ae 3e 06 e9 80 3e
       0.33749384 0.23397017 0.3416303 0.25177783

backbone.2.conv.1.1.bias f4 [48]
000000 27 5b d6 bc a0 7d 98 3d 01 33 22 3b 21 7c 33 3f
       -0.026166512 0.07445836 0.002474964 0.7011128
000010 83 2f 6c 3d e0 19 81 3c 2c 75 33 3f 25 04 f3 be
       0.0576625 0.015759408 0.70100665 -0.474641
000020 ba 9b 48 3e f3 a5 04 bd 79 00 88 3d e7 7c e6 3d
       0.19590655 -0.032384824 0.06640715 0.11254292
000030 a3 4b ac bc 60 21 df 3a 8c 5a e0 bc bf 6f 7e 3c
       -0.02103216 0.0017023496 -0.027386926 0.015529572
000040 09 6e cd 3c 1d 77 da bc 34 92 01 3d e1 07 42 bc
       0.025076883 -0.026668126 0.03163357 -0.011842699
000050 7b f7 31 3f a8 6e 66 3a 84 26 a5 bc d9 a7 91 3b
       0.6951825 0.0008790293 -0.020159967 0.004445058
000060 49 81 49 bc 6c 35 57 3b 45 66 f2 bc ca 96 8f 3d
       -0.01229889 0.0032838238 -0.029589782 0.070111826
000070 0a f8 de 3d 69 c4 fb bc 07 5e 24 3a 11 38 7b 3d
       0.108871534 -0.030733304 0.00062701147 0.061332766
000080 44 0c d7 bc 2d 37 23 3f d1 06 7a 3f 4e d3 a7 bb
       -0.026250966 0.63756067 0.9766665 -0.005121625
000090 d5 4c fd 3e 9c a3 8a 3e 0b 64 26 3c 5f cf d8 3d
       0.4947268 0.2707795 0.010155688 0.10586428
0000a0 ec ff c1 3d 16 59 3f 3d 19 d5 10 3d 4b 62 5f 3b
       0.09472641 0.04671582 0.035359476 0.0034085687
0000b0 15 00 0b bd 60 fc a8 3e 8d bb 1d 3d f5 2c 63 bd
       -0.033935625 0.33005047 0.03850894 -0.055462796

backbone.2.conv.1.1.running_mean f4 [48]
000000 a8 51 dc bd 2f 07 a3 bd df 53 80 bc c6 20 06 3f
       -0.10757762 -0.079603545 -0.015664993 0.5239376
000010 28 df 4c bd 43 96 81 bc 1d ec 19 be b9 93 12 bd
       -0.050017506 -0.01581872 -0.15031476 -0.03578541
000020 d0 cf 08 3e 28 99 ad bc 2a 59 7a 3c aa b0 09 be
       0.13360524 -0.021191195 0.015280047 -0.13446298
000030 57 c4 86 3a 48 32 a0 3c 15 c3 cb bc a0 65 f3 bd
       0.0010281903 0.019555226 -0.024873296 -0.11884618
000040 1d 4f 33 3c c0 23 35 3e 67 15 da bd d7 ce c8 be
       0.010944155 0.17689419 -0.106486134 -0.39220306
000050 ca 42 c9 3e 7d 6a 92 bc e6 f3 1e bc 50 27 88 bd
       0.3930877 -0.017873043 -0.009701705 -0.06648123
000060 5a 01 ce bb 23 67 ad 3d 3c e4 05 bb 94 44 04 3c
       -0.006286782 0.084669374 -0.0020430228 0.008072991
000070 41 7c 54 3e 64 cc b9 ba 9c 5d 1e be c4 a6 88 3d
       0.20750524 -0.0014175293 -0.15465397 0.06672433
000080 c0 b7 50 3d 7a 21 ce bd de c2 31 be 38 65 1a 3d
       0.050956488 -0.10064979 -0.17359492 0.037694186
000090 85 07 d4 bd 40 52 28 be 7c 5f a8 bb 5f ba 55 3e
       -0.10352997 -0.16437626 -0.0051383357 0.20871876
0000a0 04 ae 25 be 44 8b f6 3d 87 80 0d bd 7e 63 d8 3b
       -0.16179663 0.120382816 -0.0345464 0.0066036573
0000b0 5c be bc 3c 30 36 2b 3e 2e 3a 8c be ba 8f 11 3d
       0.02303999 0.1671989 -0.27388138 0.03553746

backbone.2.conv.1.1.running_var f4 [48]
000000 04 9a b6 3c a8 b3 36 3c 7a 8e 82 3b 88 07 6d 3c
       0.022290237 0.011151232 0.0039842697 0.014467128
000010 18 4d 91 3c da 08 fb 3b a0 8f c4 3c dd ad 49 3b
       0.017736956 0.0076609673 0.023994267 0.0030773797
000020 b4 c5 6d 3d 1a 9f b3 3a bc 29 83 3a 77 2d f1 3c
       0.058049873 0.0013704032 0.0010006945 0.029440625
000030 67 97 09 3a b9 fe 04 3b 5b ed 14 3b 2e 7c c3 3c
       0.0005248696 0.0020293428 0.0022724483 0.023862924
000040 7d 37 3a 3b cf 4d 3c 3c 8e 03 9e 3c 0b 57 6f 3c
       0.0028414421 0.01149316 0.019288804 0.014608155
000050 97 d0 28 3c 71 7e 96 3b 05 ee 2d 3b 11 12 51 3a
       0.010303638 0.0045927097 0.0026539576 0.00079754094
000060 7a ec e1 3a b7 21 d8 3c 54 7c 84 3b 9f 87 23 3a
       0.0017236613 0.026383264 0.0040431414 0.00062381657
000070 b4 7c da 3b 1b 79 5d 39 cf 1e bc 3c ce 23 83 3a
       0.006667698 0.00021121318 0.02296391 0.0010005177
000080 62 ab a5 3b 89 a4 59 3c ad 1d a2 3c de 51 08 3c
       0.005055831 0.013283857 0.019789541 0.0083203
000090 27 c1 0d 3c 36 ad 04 3d bb 7d e4 3a ba 95 5a 3d
       0.008652008 0.03239175 0.001743249 0.053365447
0000a0 e5 3f 44 3d ff 61 e3 3b d7 e8 95 3b 15 4d 94 3b
       0.047912497 0.0069391723 0.004574876 0.0045257905
0000b0 22 19 8e 3b a6 32 d1 3c cd 06 98 3c d6 51 af 3a
       0.004336492 0.025536846 0.01855793 0.001337583
