ML Model/tv_detection_epoch_70/e-26-0.914.pth (torch_old, 466523 bytes, 205 tensors)

backbone.0.0.weight f4 [16, 3, 3, 3]
00000000: d6cf 3280 e879 b301 fa75 1280 8ecb 4880
00000010: a7e8 0600 cc82 ea00 a400 e780 eb1b 0b00
00000020: dea8 0d80 8861 0801 5c83 1000 1884 0e80
00000030: ddd1 4100 bf13 2100 d453 7281 24e8 d400
00000040: 0b9b 4a00 1e38 2c81 2040 2980 130c 3180
00000050: 702f 9e00 183f 3800 a2cb 0900 72dd 0480
00000060: c5d7 3e00 c773 1600 22eb 0f80 b98d 20bd
00000070: 9969 1bbc 4b24 703c c04f fb3d 34cc b23e
00000080: 507c 2c3d 6b84 32be e982 77be 97fe bcbc
00000090: 6c71 07bd e89a 753d c85f b8b8 5afb 863e
000000a0: 86fc 3a3f 9213 c53d fc10 afbe df1a 19bf
000000b0: ccee afbd 02df 003e b3a4 093e 447a 1d3e
000000c0: 1c01 e73d 4af2 663e b245 923d e9c3 80bd
000000d0: 2f47 14be 0caa ab3b 4717 ccbd fdfb be3d
000000e0: 9521 6cbc 1005 d6be a12c 3b3f 4980 a0be
000000f0: e295 2dbf 0ad0 693f 66c6 96be 3a50 06be
00000100: b453 2e3e 9270 81bd d332 5abf 7430 a83f
00000110: a477 0cbf d744 8abf 38c7 b93f 2102 f7be
00000120: 2aaa 103c 461c 753c 868b a73d 7421 3cbe
00000130: a364 d43e f0c1 f3bd 544f 7cbe 0729 f33e
00000140: 8945 d7bd 1693 443a 0c42 bdbc 25e4 963d
00000150: 9c60 9a3d ff46 583e 0154 87be e54e 5e3d
00000160: 6b94 a83e 2ca5 9dbe 527a 1839 0054 4bbd
00000170: 7e16 963d cb2a 643d 2fb0 043f cc1b 1dbf
00000180: 4db1 973d 1295 273f 910b 31bf 4ab9 a2ba
00000190: 4bc2 3cbc 4ea3 94bc 5ff6 583d 9413 b33d
000001a0: 8ced d6bd f613 cd3c 746a b93d 4494 20be
000001b0: 0c01 b3bd 213b cf3c 7107 05bd cf6e c63c
000001c0: be13 43bd 538e ebbd a136 303e e310 7b3d
000001d0: 444d 27be 04a8 cb3b bb6a f03c 87ac 94bd
000001e0: baac ad3d 12d7 49be 4060 9ebe 9b68 763e
000001f0: 31af dbbd 626a d7be 7d44 a73c 7816 f13b
00000200: a760 00be f6d7 9dbc 1213 01be 8d8d 63be
00000210: b578 60bc 7f34 a2bd 7d84 32be 52ce 2a3e
00000220: 2ad3 2d3e cf07 5ebe b1e0 f33d 6f53 1b3f
00000230: baab 6b3e 31e3 3bbe 985d 113f aa33 1c3f
00000240: 80e7 b93d c747 3dbd 6f4c b93d c09c 023d
00000250: 6dc6 46be 52df aabd 7283 bb3c 0b77 25be
00000260: 07da f7bd c911 4cbe 3154 dfbd 856e 313e
00000270: c471 d4bd 778a f5be 361e 67be 8918 b03d
00000280: d2c4 f2be f75d 18bf a49a 65bc 5dcd 81bc
00000290: e9ce 883b 1167 ea3e 65a4 08be c1af 3dbe
000002a0: c032 2a3e 8646 51bd 7bfb babc db62 68bd
000002b0: c5a9 40bc 955f f83c faff 6b3f ba4b 81be
000002c0: 4255 d3be a990 8f3e be6e 45be 2577 78bd
000002d0: ef95 5b3c 3520 b43b accf 713b 246c 683e
000002e0: 6e82 95bd 40a9 ecbd 4fbb 373d f2e2 90bd
000002f0: 6c5c 20bd 85bf 103d 04a1 153d 3a00 a8bd
00000300: 605d 0abd a972 e73d bbdf 753e 6052 6fbd
00000310: ac3e a33d 9f18 933e 82a8 f3bc e3d7 afbd
00000320: d4aa 3bbe 4d9c 8abb d044 3a3e d338 ae3e
00000330: 8e30 ccbc 267e 5e3e a2f1 c13e 3df8 4b3c
00000340: 06d7 bd3d e09f 9d3d 93a8 ff3c 1ac1 253e
00000350: 446a a03e 4413 253d c7b6 1c3e de19 6e3e
00000360: 93ce 5c3d 153d 373d e425 09be de57 33be
00000370: e425 303f 6982 03bf 1e86 053d a0f6 3a3f
00000380: dec5 2dbf 3768 08bd 154c 2c3e 2e3a 58be
00000390: 79b1 fcbd 6199 8a3f b4e2 6abf 5540 a83c
000003a0: 2220 863f c2e3 79bf 9cc4 4a3d db2a 5dbc
000003b0: d4a4 71bc 2e35 efbd dfdc ca3e 388d acbe
000003c0: 0938 223c b79e cb3e d849 cabe 2c81 3680
000003d0: cad6 2f00 260a 1c80 5f98 4480 9d53 2280
000003e0: 831d 3080 95fc 2700 9fd1 1480 ad1b 1100
000003f0: 1670 2200 688a 2c80 6ec7 0c00 e7ed 1000
-4.666332e-39 6.592914e-38 -1.695361e-39 -6.685177e-39 6.34473e-40 2.1536427e-38 -2.121423e-38 1.020206e-39
-1.25444e-39 2.504923e-38 1.516491e-39 -1.333083e-39 6.044592e-39 3.037655e-39 -4.4508524e-38 1.9552402e-38
6.851446e-39 -3.1631673e-38 -3.788259e-39 -4.504271e-39 1.4527026e-38 5.165422e-39 8.99569e-40 -4.46782e-40
5.771204e-39 2.061914e-39 -1.461882e-39 -0.039197657 -0.009485626 0.01465709 0.122710705 0.3492142
0.04211074 -0.17433326 -0.24171032 -0.023070617 -0.033067152 0.059962183 -8.791644e-05 0.2636364
0.7304157 0.09622873 -0.34192646 -0.5980663 -0.08590469 0.1258507 0.13441734 0.15378672
0.112795085 0.22553363 0.071421996 -0.06287367 -0.1448028 0.005238777 -0.09965377 0.09325407
-0.014412303 -0.41800737 0.73114973 -0.31347874 -0.6780683 0.9133307 -0.2944824 -0.13116542
0.17024118 -0.06320299 -0.852338 1.3139787 -0.5487006 -1.0802258 1.4513922 -0.48243812
0.008829633 0.014960354 0.08180909 -0.18372136 0.4148303 -0.11902225 -0.24639636 0.4749224
-0.1051131 0.0007498724 -0.023102783 0.07367734 0.07537958 0.21120833 -0.26431277 0.05427446
0.32925734 -0.3079008 0.00014541417 -0.049640656 0.07328509 0.055704873 0.51831335 -0.6137054
0.07406864 0.6546184 -0.69158274 -0.001241484 -0.011520932 -0.018144276 0.052969333 0.087439686
-0.10494527 0.025033932 0.090535074 -0.15681559 -0.08740434 0.02529675 -0.0324778 0.02422276
-0.04762625 -0.115017556 0.1720834 0.0612954 -0.16338068 0.0062150974 0.029347768 -0.072594695
0.084802106 -0.19710949 -0.30932808 0.24063341 -0.107267745 -0.4207335 0.0204184 0.007357415
-0.1253687 -0.019268017 -0.12604931 -0.22221966 -0.013700654 -0.07920169 -0.17433353 0.16680267
0.16975084 -0.21682666 0.11908091 0.60674185 0.23014727 -0.18348385 0.5678344 0.61016333
0.09077358 -0.04621103 0.09047782 0.03188777 -0.19411631 -0.08343376 0.022889826 -0.16158693
-0.12102132 -0.1992866 -0.1090473 0.17327316 -0.103732616 -0.47957203 -0.22570118 0.0859843
-0.47415787 -0.5951838 -0.01401392 -0.015844995 0.0041750562 0.45781758 -0.13343962 -0.18524076
0.16620922 -0.051092647 -0.022824993 -0.0567349 -0.011759226 0.030319015 0.92187464 -0.25253087
-0.41275984 0.28040054 -0.19280526 -0.0606605 0.013402446 0.0054970034 0.0036897464 0.22697502
-0.07300268 -0.115557194 0.044856366 -0.070745364 -0.03915064 0.035338897 0.03653051 -0.08203168
-0.033780456 0.113011666 0.24011128 -0.05842817 0.07970938 0.28729722 -0.029743437 -0.08586099
-0.18326885 -0.0042300583 0.18190312 0.34027728 -0.024925496 0.2172781 0.37879664 0.012449321
0.09269528 0.07696509 0.031208312 0.16186944 0.31331074 0.040301576 0.15304099 0.23252055
0.053907942 0.044735987 -0.1339336 -0.17513987 0.68807817 -0.51370865 0.032598607 0.7303257
-0.67880046 -0.033302512 0.16825898 -0.21115944 -0.12338538 1.0828058 -0.9175217 0.020538488
1.0478556 -0.97613156 0.049503908 -0.013498987 -0.014748771 -0.11680065 0.39621636 -0.3370149
0.009901055 0.39769527 -0.39509463 -5.005455e-39 4.39332e-39 -2.575034e-39 -6.299474e-39 -3.152402e-39
-4.41869e-39 3.672194e-39 -1.911908e-39 1.571132e-39 3.162616e-39 -4.090413e-39 1.173568e-39 1.554711e-39

backbone.0.1.weight f4 [16]
00000000: d47b 1d00 a384 243e d6b6 1a3e 86c7 7d3e
00000010: a910 393e 6d15 6f3e dbd2 0a3d 91ad 933e
00000020: 7bbf c33d 6c91 1080 4cde ff3e 080e 003e
00000030: de31 593e 8353 af3e 0f08 3500 25bd 3c80
2.70765e-39 0.16066222 0.15108809 0.24783143 0.18072762 0.23348017 0.033892494 0.28843358
0.095580064 -1.521535e-39 0.49974287 0.12505352 0.21210429 0.34243402 4.870172e-39 -5.577982e-39

backbone.0.1.bias f4 [16]
00000000: a928 1580 26d5 133f 4fc3 c63e b12c 8f3e
00000010: 4b29 673f c7da 0d3f 5a8d 0c3f a36b 043f
00000020: 8799 173f 5cd1 0180 9d61 39be 937b 6e3f
00000030: 3c7e e33e 40e6 aabe 8650 0100 f39e 0980
-1.943132e-39 0.57747114 0.38820884 0.27963784 0.90297383 0.5541195 0.54903185 0.5172674
0.5921864 -1.6694e-40 -0.18103643 0.9315731 0.44432247 -0.33378792 1.20722e-40 -8.8354e-40

backbone.0.1.running_mean f4 [16]
00000000: 3aec 5184 7996 9a42 5e69 5241 2c03 4e41
00000010: 7f72 2ac3 6fa9 5fc2 c222 1b42 d772 8343
00000020: b522 2c41 7cb6 5684 9c8c 9dc1 79e0 2c43
00000030: 5257 fd42 6f0a a242 3d60 b204 d6a5 a484
-2.4676302e-36 77.29389 13.150724 12.875774 -170.44725 -55.915462 38.783943 262.8972
10.758473 -2.5239372e-36 -19.693657 172.87685 126.67055 81.02038 4.193598e-36 -3.870851e-36

backbone.0.1.running_var f4 [16]
00000000: 0400 0000 a2cb 7d45 492e 0346 17d7 d044
00000010: a4b9 4846 4dbb 0146 9c43 4945 55ba e846
00000020: 0a9e b545 0400 0000 3544 2045 b534 4246
00000030: eb76 0946 fbee 9345 0400 0000 0400 0000
6e-45 4060.727 8395.571 1670.7216 12846.41 8302.825 3220.2256 29789.166
5811.755 6e-45 2564.263 12429.177 8797.7295 4733.8726 6e-45 6e-45

backbone.1.conv.0.0.weight f4 [16, 1, 3, 3]
00000000: 21c3 9881 af64 2881 6cac e180 3558 1880
00000010: e402 4800 8ca4 2e80 6928 1401 b8f8 3680
00000020: d765 b381 0d54 b1ba f038 33bd d46b 3d3d
00000030: dc9f 75bb 3a54 12be 2b75 3e3f abe1 ce3c
00000040: 4b97 853d 013e 50bf b489 0dbc 784c 41bd
00000050: 33b4 2abe 6972 18bd 544f 903d 9722 8c3f
00000060: 4fbc 9dbc 04ec 85bd cdec adbd 16e8 5bbd
00000070: 9dc4 bfbc 143f bdbd d0d2 3b3d 24da 493f
00000080: f330 a6be 3011 2fbc 1f9b 72bc 78c8 24be
00000090: cd84 1a3f 134d fa3f 4a3f ec3e 3af1 753e
000000a0: 2ba1 ea3e 64b2 423e 7fc2 57bf ea57 08c0
000000b0: e8df 3dbf 404e cfbd 694e dd3d 4f3a 20be
000000c0: 3a00 3d3e ce0e c43e bd3d d8bf 1cd2 a23d
000000d0: 8488 a63f 873d b53e 3b16 973b 568f a93d
000000e0: 56d0 a0bd 9eac e93c 9279 683b e0cb 58bf
000000f0: 42e9 203c baaf 5dbd 7778 7a3f 75e5 ffbe
00000100: 0f9b 82be 8e17 443f d822 19c0 51e4 a8be
00000110: 6311 2a40 12b8 fabe 4df4 3bbe 470f 213f
00000120: 11eb 6bbc dca3 bc3d a3f9 69bd a30e 2d3d
00000130: e00d 8abf dff6 473e 89b5 dc3c 4bd4 12bc
00000140: 2df0 51bd bb04 3880 16cd 4580 7590 4680
00000150: 5562 0c00 17eb 1000 5bd0 3f00 01d3 4780
00000160: fe98 4200 b35e 1780 7807 eb3d a2d9 f2bd
00000170: b954 edbe e291 07be 930a 3c3e 8dc0 c43e
00000180: 613f afbe ba9a a73e 9bc8 e13e 1ecc 1d3e
00000190: 8f01 c93f cabe 803f 8323 543d 9e34 ea3c
000001a0: b292 06be 5e9b b9be 0c20 d3bf 3d07 7ebf
000001b0: 4b78 a7bc 8a50 ad3d 3ff7 d03c 76ac 2d3c
000001c0: b1a4 233d c9ec 19bf c661 93ba 4fd9 ba3d
000001d0: 0f2b 673f 3793 84bc ad9a fa3c 541f 19be
000001e0: fdf6 583d 6aa8 9e3d 8935 10be 44b9 f3bd
000001f0: e870 9fbd 17dd 363f 164d 2380 30a3 2b80
00000200: c4cf 1c00 44da 2e00 9f6f 3b00 1a7e 4c80
00000210: 3d43 2880 62a8 2380 36b5 1b80 639b 0680
00000220: 8976 3f00 621a d500 03ec 3d80 02ed 4480
00000230: f5ec 1e01 edd3 3a00 56e5 4080 6e0e 3b80
-5.611598e-38 -3.0928964e-38 -2.072484e-38 -2.235695e-39 6.613193e-39 -4.283461e-39 2.72123e-38 -5.04834e-39
-6.590035e-38 -0.0013529077 -0.04375547 0.04624541 -0.0037479317 -0.14289942 0.74397534 0.025254091
0.065229975 -0.8134461 -0.008638788 -0.047192067 -0.16670303 -0.037218485 0.07046381 1.0948056
-0.019254832 -0.06539157 -0.08492432 -0.05368813 -0.023409182 -0.09240547 0.045855343 0.7884848
-0.3245922 -0.01068525 -0.014807492 -0.16092098 0.6035889 1.9554771 0.46142036 0.24017802
0.45826086 0.19013363 -0.8428115 -2.1303658 -0.7416978 -0.10122347 0.10805971 -0.15647243
0.18457118 0.38292545 -1.6893841 0.079502314 1.3010411 0.35398504 0.0046108044 0.08279292
-0.07852237 0.028524693 0.0035472852 -0.8468609 0.009821238 -0.054122664 0.97840065 -0.4997975
-0.25508925 0.7659844 -2.3927517 -0.32986692 2.6573112 -0.4896856 -0.18354912 0.62913936
-0.014399306 0.09210941 -0.057122838 0.042250287 -1.0785484 0.19527768 0.026942031 -0.008961747
-0.05125444 -5.144485e-39 -6.41022e-39 -6.480306e-39 1.137301e-39 1.553702e-39 5.86038e-39 -6.596014e-39
6.116026e-39 -2.146188e-39 0.11476034 -0.118579164 -0.463537 -0.13239244 0.18363409 0.38428155
-0.34228042 0.32735234 0.44098362 0.15409896 1.5703601 1.0058224 0.05179168 0.028589543
-0.13141897 -0.36251348 -1.6494155 -0.99229795 -0.020443102 0.08462627 0.025508521 0.0106002
0.039951984 -0.6012693 -0.0011244349 0.091234796 0.9030008 -0.016183479 0.030591333 -0.14953357
0.05296992 0.07746966 -0.14082922 -0.11900571 -0.07785207 0.71431106 -3.241896e-39 -4.007467e-39
2.645926e-39 4.302732e-39 5.458336e-39 -7.024734e-39 -3.69754e-39 -3.274647e-39 -2.544565e-39 -6.06755e-40
5.828159e-39 1.9570425e-38 -5.68663e-39 -6.329836e-39 2.9190025e-38 5.402483e-39 -5.959742e-39 -5.42347e-39

backbone.1.conv.0.1.weight f4 [16]
00000000: e08d 1980 2bed 043f 2920 393f 4716 033f
00000010: f5ce 923f 3f97 053f 0649 023f 9be1 5d3f
00000020: 4dc8 013f 4adf 1300 bc22 783e 198c 873f
00000030: 076e 2b3f 5fc4 a43e 2480 0780 6357 3180
-2.346783e-39 0.5192439 0.723147 0.5120587 1.1469408 0.5218391 0.50892675 0.8667237
0.5069626 1.824975e-39 0.24232 1.058963 0.66964763 0.3218107 -6.88817e-40 -4.531288e-39

backbone.1.conv.0.1.bias f4 [16]
00000000: b85e af80 9673 563f e0c7 b93f 113c be3e
00000010: f196 473e c5b1 6f3f eb5d 573f 0147 df3e
00000020: 0f6f f53e 51ca d0b6 aafc bd3e fbef cf3d
00000030: 7a94 863f 06de 84be 5c56 0480 00cc 0080
-1.610519e-38 0.8377012 1.4514122 0.37155202 0.19491173 0.9363063 0.8412768 0.4360886
0.47936293 -6.222436e-06 0.3710683 0.101531945 1.0514061 -0.2595064 -3.98322e-40 -7.3181e-41

backbone.1.conv.0.1.running_mean f4 [16]
00000000: 0400 0000 7048 88bd b70f 8f3e 8449 483d
00000010: 2838 423e 1c5d 853e 74c3 8e3d ac5d 74bd
00000020: 39b5 02bf 0200 0000 5732 183d 0f63 93be
00000030: 6e6d 6e3e 409d 783c 0400 0080 0400 0080
6e-45 -0.06654441 0.27941677 0.048898235 0.18966734 0.260476 0.069708735 -0.059659645
-0.51057774 3e-45 0.037157383 -0.28786513 0.23283932 0.01517421 -6e-45 -6e-45

backbone.1.conv.0.1.running_var f4 [16]
00000000: 0400 0000 bf5b 4e3c 66aa 553c 2e01 f33c
00000010: a904 703e 3919 6b3d 2247 243b 8281 c83e
00000020: daed 123c 0400 0000 6b77 833c 2b71 133e
00000030: 6bcf c93c 8bed 223b 0400 0000 0400 0000
6e-45 0.012595116 0.013041114 0.029663648 0.23439278 0.0573971 0.0025066813 0.39161307
0.008967841 6e-45 0.016048154 0.14398639 0.024635037 0.0024860825 6e-45 6e-45

backbone.1.conv.1.weight f4 [8, 16, 1, 1]
00000000: b082 0b00 9b0f 49bd 5139 12bc 1b1a 4a3e
00000010: b63a c1bd 49d6 293f ff36 563e e15b 6fbd
00000020: ee78 d4bd 0de9 1280 5efc 0d3e 9e26 893e
00000030: 17f7 913d 9167 7fbc 7685 0180 a21f 0900
00000040: f62c 4100 fb5f 5dbd 3796 0fbf 7c1a c3bc
00000050: 5566 ee3d 59fa 3c3a b9c7 413c 5728 2c3d
00000060: 45d8 a33d 03cf 3800 85c2 6e3d cba4 10bc
00000070: a5be 3abe 675f 8f3e 2ed0 0380 8176 2980
00000080: 7af8 1300 aa2b e33e f848 193e bf58 e23e
00000090: 3e55 55be 0e75 34be 0aaf 80be de9e b03d
000000a0: 260d 81be bbc0 2880 5e8f c3bd f7ce c83e
000000b0: 4c44 df3c 26fc a6bc 5820 0800 4394 0c00
000000c0: 84bc 1880 9b42 05be 1750 4bbe 467e 0cbc
000000d0: 6fc9 fc3e faf5 d2be 1037 5d3d c8c2 213c
000000e0: 82ff 54be f125 3d00 6040 233e afe1 cabe
000000f0: 3340 a33e bc96 c33e 933e 3800 96ae 3b80
00000100: f5e6 1b80 9d11 a8be cc25 ae3e e59b 44bd
00000110: 3bbd 383e f8b6 17bf cc25 bc3d a5b3 85be
00000120: eff2 ff3d 2cff 4300 08f3 0e3e f9d9 f6bd
00000130: 290f 49be b325 22bd 1dc1 1e00 ce9b 2f80
00000140: 409a b700 70b4 31be 8fa8 fa3c ee91 f6be
00000150: 78ed a4be a459 40be 5f6c 853e 4fad 033f
00000160: 05f7 d13e 5d1f 4c00 b2eb 323d b96e ed3e
00000170: ddc4 0abc 5ef0 8d3c aaad 2980 2c37 2800
00000180: b06e 8d81 5997 dd3e 0b2c c3bd 071b d4be
00000190: 507f cfbe ca4f 493d fc0d 753c 498a 54bf
000001a0: e338 1a3e dd3d 1d00 3828 dcbd 7b8a 963e
000001b0: 30af 8ebd 54e9 583e b1e0 2b80 72b9 2500
000001c0: 6ecc 0480 8519 c9bd 783f 4b3e 7ae6 0d3c
000001d0: c09b f33e 73ea 213f 75cd 73be 9f08 2a3e
000001e0: cc36 20bd 4942 3600 771f f33d ff99 d2be
000001f0: 1249 59be 52bf c3bd ccae 2280 26a3 3280
1.057072e-39 -0.04908715 -0.008924798 0.19736521 -0.09435026 0.663426 0.20919417 -0.058437232
-0.10374628 -1.736642e-39 0.13865802 0.26787275 0.07127207 -0.015588657 -1.39712e-40 8.37867e-40
5.985436e-39 -0.054046612 -0.56088585 -0.02381634 0.11640612 0.00072089356 0.011827403 0.04203066
0.080002345 5.21705e-39 0.058290977 -0.008828352 -0.18236788 0.28002474 -3.50187e-40 -3.807767e-39
1.834011e-39 0.4436925 0.14969242 0.44208333 -0.20833299 -0.17622778 -0.25133544 0.086240515
-0.25205344 -3.742559e-39 -0.095488295 0.39220402 0.027254246 -0.020383906 7.46287e-40 1.155212e-39
-2.271679e-39 -0.13013689 -0.1985477 -0.008575028 0.49372432 -0.4120329 0.05400759 0.0098731
-0.20800593 5.615576e-39 0.15942526 -0.39625308 0.31884918 0.3820094 5.165235e-39 -5.480924e-39
-2.56241e-39 -0.32825938 0.34013212 -0.048000235 0.18040936 -0.59263563 0.09186897 -0.2611362
0.12497508 6.244517e-39 0.13959897 -0.12053294 -0.1963469 -0.039586734 2.824341e-39 -4.37216e-39
1.686123e-38 -0.17353988 0.030597953 -0.4815821 -0.32212424 -0.18784195 0.26059243 0.5143632
0.41008773 6.990749e-39 0.043681808 0.46373537 -0.008469787 0.01732653 -3.827554e-39 3.693212e-39
-5.195405e-38 0.43279532 -0.09529885 -0.4142687 -0.4052682 0.04914836 0.014956947 -0.83023506
0.15060763 2.685422e-39 -0.107498586 0.29402527 -0.06967008 0.21182758 -4.02953e-39 3.464439e-39
-4.40678e-40 -0.098193206 0.1984843 0.008660907 0.47579765 0.63248366 -0.23808844 0.16604851
-0.03911476 4.982895e-39 0.11871236 -0.41133115 -0.2121928 -0.09557976 -3.185112e-39 -4.650301e-39

backbone.1.conv.2.weight f4 [8]
00000000: 473d 093f da65 fa3e 22bf 223f fa60 123f
00000010: 5363 083f 48fc 153f 23f3 103f 98b0 063f
0.53609127 0.48905832 0.63572896 0.57179224 0.53276557 0.58588076 0.56621 0.5261321

backbone.1.conv.2.bias f4 [8]
00000000: 8b66 02b8 efd5 ff38 6055 cfb6 79bf 2db8
00000010: 180e bf38 beeb ab38 80e7 1135 ac29 ebb8
-3.1089916e-05 0.00012199196 -6.1790197e-06 -4.1424737e-05 9.110215e-05 8.197826e-05 5.4353586e-07 -0.00011213435

backbone.1.conv.2.running_mean f4 [8]
00000000: 38ac 6b3f a99b 6cbf 3b4a ae3e 06ed b1be
00000010: 6dab fabe c0a5 813e ee62 e5be 2b0f 103f
0.9205966 -0.9242502 0.34041008 -0.34751147 -0.48958912 0.2532177 -0.4480204 0.56273144

backbone.1.conv.2.running_var f4 [8]
00000000: df32 063e d214 183e f27e 693e b100 a53e
00000010: cef3 413e 80fd ac3e 4081 cc3e f76b 433e
0.13105343 0.14851692 0.22802332 0.3222709 0.1894066 0.33787155 0.3994236 0.19084154

backbone.2.conv.0.0.weight f4 [48, 8, 1, 1]
00000000: c8be 003e af4f c43c 38aa 4a3e 5e20 3dbe
00000010: b5fa d6bd fa28 223d aa8a 8e3e 4b67 233d
00000020: 7138 033e 9944 c53d 6ab3 e23d 1496 1d3e
00000030: b2f9 37be afdc 72be 5bd6 ecbd 6d43 e3bd
00000040: d91d 8fbd d178 1b3c ac2f 30be 19e1 523e
00000050: 6074 9cbc 2ac6 e2bd ae59 76be f96f 203e
00000060: b597 abbd 90ce 5b3e 4dc2 0e3e a013 13bf
00000070: fc77 963c 0716 eebd 4584 80be 160c d6be
00000080: 87b5 2d3d 5bfe 68bd 2260 613e b04b 81be
00000090: fb31 f3bd de27 b83d 775a 543d 88b9 60be
000000a0: d6c5 d0bb 9ccd 61bd ce14 aa3d 3538 7abe
000000b0: c4f9 5abc 51f0 773d 4d09 713e cb06 a4bd
000000c0: 65e1 453d b403 493e 354d 023e a117 c73d
000000d0: f6dc ecbd e1da 92be 5ace 15be 68f3 1ebd
000000e0: fea4 5e3d d9e4 5b3e e651 ef3c 0fe8 23bd
000000f0: c3d5 8ebb 5c82 5e3d a9f4 e6bc fd6b 3d3e
00000100: df0b 2dbe 6b74 84bc 1f29 bd3e 4778 84bd
00000110: 10c6 4bbe 63f9 3b3b d035 4bbe ca48 c03c
00000120: 62c9 3ebd 2225 9f3e c997 85bc 44c4 e93d
00000130: be87 1dbe 3b90 77bc d545 163d dd96 b3bd
00000140: 8282 92bd 0d1d 7cbd 7626 23bc 349c e7be
00000150: 2de6 903d b87b a6b9 d66f 3c3c dad8 6d3d
00000160: 579d b7bd 50fd a03c 8886 97be cd48 8a3e
00000170: e3cc 2a3d a01a 0cbe e9ec 4abe 559d 5e3e
00000180: 9d8a f73d d85e 073e 1176 1dbe a4a9 973d
00000190: 404a 883d e2e9 e53d 88fc e1bb ca66 863d
000001a0: e688 2d3e 5698 2bbe 0a43 28bd 5d00 94bd
000001b0: f844 8fbe 5866 043e bb29 793d f96d 713e
000001c0: 9dcf 34bd 9978 11be df9c 9b3d c188 c03e
000001d0: 618e df3b ee14 833d d574 1cbc 7c2a 9abe
000001e0: f928 963a dd5f bc3d 5395 813e 2d1e 1c3e
000001f0: bd7f 92be f817 d2bd 7ebf cd3c 7f8a 6ebe
00000200: 8300 4f3e feb3 3d3e 0102 2f3e cfe9 3b3e
00000210: 8cc5 5f3e e8f2 0f3e 7b8b 803d 1073 503d
00000220: 0155 813d 4ae9 8bbc 8606 003e cb2d 71be
00000230: cb16 20be 7fdf da3d 62a3 fc3c 1264 2ebd
00000240: 5093 8bbe 788d b83d 1c1c 59be 15d7 dc3d
00000250: 1c76 c7bd 4430 b6bd 57fc 6bbe ca43 883e
00000260: f37a b5bd 3ad3 4a3d 8893 95be 00ce 893e
00000270: 8f2d de3d 4477 6ebe b194 89be 7489 af3e
00000280: 1423 ef3d d59f 473e 0346 2c3e 218e 7e3e
00000290: 6cf8 84bc 3592 933c 68ac f83d fc77 053e
000002a0: 99a6 ca3d 30e3 3ebd 33b9 8d3d 44f2 b1be
000002b0: 26ef 1b3e f0d6 ecbd c434 93be c270 20be
000002c0: eb57 483d c024 963d 3612 223d e387 a23d
000002d0: 26e9 14be 93f7 52bd 9152 c93c d2b2 ffbd
000002e0: ba93 953e e94c 9e3c 0138 c03d 59cb d93b
000002f0: 8f6b a33d de8e 61bc 6d28 df3c 66e0 563d
00000300: 776b a4bd 8e8d e9bc f2fa f03d e532 253e
00000310: 8767 91bd a672 fbbd 98c9 bc3d 51fd d5bd
00000320: 1f31 7c3d e8ed aabe ee0e 803e 8d32 cabd
00000330: 13d7 343e e631 36be b2a1 b3bc 8119 803e
00000340: 47a6 58bd 5e0c 713d 1513 693e ad7a 023d
00000350: 6bda cebd 91e2 1d3a 38cb 7e3e 97d2 0a3e
00000360: aa37 9ebe 2846 f03d ba3c d6bd f4eb 5d3e
00000370: c38c 22be 971d dc3d 3d9b 743e 44b5 213d
00000380: 4eb2 d03e 856c 113d adeb 18be d162 d7bd
00000390: 6295 14be 56de 6bbe a1b0 8fbd 1445 ef3d
000003a0: bc99 063d 4784 00bc 17df 3a3e 4e86 2d3e
000003b0: 2fd8 8f3d 6999 203e 8086 e4bc ccff b53d
000003c0: 238f 38be 43b3 37be a2d6 bbbe 63b3 88bd
000003d0: 4862 9bbc 5fec da3e ae2a d63d 9020 053c
000003e0: 2917 273e f086 58bd 5291 a7bc 5cab 8bbe
000003f0: 83b3 83be 770b 1639 ea87 1b3d dd95 863e
0.12572777 0.023963777 0.19791496 -0.18469378 -0.10497037 0.03958986 0.27840167 0.03989343
0.128145 0.096322246 0.11069377 0.15389282 -0.17966345 -0.23716997 -0.115643226 -0.11096845
-0.06988115 0.009489254 -0.17205685 0.2059368 -0.01909846 -0.11072953 -0.24057648 0.15667714
-0.08378545 0.21465516 0.13941307 -0.5745182 0.01836776 -0.11625295 -0.25100914 -0.41806096
0.042409446 -0.056883197 0.22009328 -0.25253057 -0.118747674 0.08991979 0.051844086 -0.21945775
-0.00637124 -0.055127725 0.083047494 -0.24435504 -0.013365213 0.060531918 0.23538704 -0.08009108
0.048310656 0.19630319 0.12724765 0.09721304 -0.115655825 -0.28682616 -0.14629498 -0.03880635
0.054356568 0.21474017 0.029213857 -0.04001623 -0.0043589785 0.05432354 -0.028192835 0.18498226
-0.1689906 -0.016168794 0.36945435 -0.064682536 -0.19899774 0.0028682582 -0.19844747 0.023472209
-0.046578772 0.31083018 -0.016307728 0.11414388 -0.15383813 -0.015110071 0.03668769 -0.08769009
-0.07153799 -0.061551142 -0.0099579 -0.4523636 0.070751525 -0.00031754165 0.011501273 0.058068134
-0.08965557 0.019652039 -0.29594827 0.27008668 0.0416993 -0.13682032 -0.19816937 0.21739705
0.12086985 0.13219774 -0.1537707 0.07405403 0.06654787 0.1122625 -0.006896559 0.06562574
0.16946754 -0.1675733 -0.04107956 -0.07226632 -0.27982306 0.12929666 0.060830813 0.23577107
-0.044143308 -0.1420616 0.0759828 0.37604335 0.006822393 0.064004764 -0.009549339 -0.30110538
0.0011456303 0.09197972 0.25309238 0.15245886 -0.28613082 -0.10258478 0.025115725 -0.2329502
0.20215039 0.18525693 0.17090608 0.1835091 0.21852702 0.14057505 0.06276604 0.050890982
0.06315041 -0.017079014 0.12502488 -0.23552625 -0.15633695 0.1068716 0.030839626 -0.042575903
-0.27260828 0.09011358 -0.21202129 0.10783211 -0.097393245 -0.08895925 -0.23045479 0.2661422
-0.08861341 0.049517848 -0.2921412 0.26914978 0.10848533 -0.23287684 -0.26871255 0.34284556
0.116766125 0.19494565 0.16823582 0.24858905 -0.016231738 0.018014053 0.12142259 0.13034052
0.09895057 -0.04660338 0.069200896 -0.34755147 0.15227947 -0.115644336 -0.28751194 -0.15668014
0.04891197 0.07331228 0.03956815 0.079360746 -0.14542064 -0.051505636 0.024575504 -0.12485279
0.2921427 0.019323783 0.09385682 0.0066465554 0.079794995 -0.013766972 0.027240956 0.052460097
-0.0802831 -0.028509881 0.11766614 0.16132696 -0.070998244 -0.12277727 0.092181385 -0.10448707
0.061570283 -0.33384633 0.2501139 -0.09872923 0.1766017 -0.17792472 -0.021927688 0.25019458
-0.05289295 0.058849685 0.22761185 0.031855274 -0.10100254 0.0006022836 0.2488221 0.13556896
-0.30901843 0.11732131 -0.104608014 0.2167204 -0.15874009 0.10747831 0.23887344 0.03947951
0.40761036 0.035503883 -0.14933653 -0.105168946 -0.1451011 -0.23034033 -0.07016111 0.116830975
0.032861456 -0.007844037 0.18249165 0.16945764 0.070236556 0.15683521 -0.027896166 0.0888668
-0.18023352 -0.17939477 -0.3668719 -0.0667484 -0.018967763 0.42758462 0.10457359 0.008125439
0.16317429 -0.05286306 -0.020455036 -0.27279174 -0.25722894 0.00014309386 0.037971415 0.26286212

backbone.2.conv.0.1.weight f4 [48]
00000000: cc33 d63e 85e1 a73e 6541 053e 4ed7 153e
00000010: a71b 4b3e 97da 0b3e 9123 9e3e 746f 133e
00000020: dd20 d93e ca19 223e e242 4f3e 3d27 b23e
00000030: 4eea a73d ece0 e83d 802f 123e 6436 d73e
00000040: c1ad fe3d 5056 4c3e b793 c03e 74eb 523e
00000050: aeb8 433e 7fed 113e 469b fe3d e5af b23d
00000060: d1dd 1c3e ca81 8a3e d7cc 433e e33f 883e
00000070: 54e3 013e 61e4 703d a495 f53e de7a a33d
00000080: e328 4c3e dcac 953e d3ef 553e 1c4b 533e
00000090: 59fd ac3e defb ba3e 1a1a e93d 87d6 b23e
000000a0: 7964 c93e 7676 4d3e ca87 df3d b42a 2d3e
000000b0: 2a91 483e 28c4 ae3e eabc a33e 1744 373e
0.41836393 0.32789245 0.13013227 0.14632913 0.19834767 0.13657604 0.3088651 0.14397985
0.42407885 0.1583015 0.20240358 0.3479556 0.08198987 0.113710254 0.14275932 0.42033684
0.12435485 0.199548 0.37612697 0.2059763 0.19113418 0.14250754 0.1243196 0.087249555
0.15318991 0.27052146 0.19121109 0.26611242 0.12684375 0.05881155 0.4796573 0.079824194
0.19937472 0.29233444 0.20892267 0.2063412 0.3378704 0.36520284 0.113819316 0.34929296
0.39334467 0.2006472 0.109145716 0.16910821 0.19586626 0.3413403 0.31980067 0.17897068

backbone.2.conv.0.1.bias f4 [48]
00000000: 7088 56bd 84dc 123c 5e15 713e 8fe1 d13e
00000010: 66f7 6b3e 8353 613e 2597 673d f4dd 67bb
00000020: f8c0 17bd 0f91 003e ed7f 9ebd ccc2 ac3d
00000030: d9ca 483e c2ed 573e 858e 583e 5dad 7ebc
00000040: 07fa c7bd 5113 4b3e e557 1a3d 8d3f b63e
00000050: 57b4 b63e be65 0b3e bbd5 7e3e 0812 933e
00000060: 8972 f53d f347 d8bc d684 a33d c497 aabe
00000070: 3860 833e 79bb 893e 5711 00bc 5acf 723e
00000080: 43c0 d53d dd8e 363d 0b6c ec3d 10a3 2f3e
00000090: 909b 02bd c47a 8d3d 2aa2 853e 40fb ad3d
000000a0: 8da7 0d3d 5d72 a43d b00c 993e 2123 153e
000000b0: 1a36 043e b57b 0abd 0023 4f3e a7ab 123e
-0.05237621 0.008963708 0.23543307 0.409924 0.23043594 0.22004513 0.056540627 -0.0035380097
-0.037049264 0.12555335 -0.07739244 0.08435592 0.1960863 0.21086791 0.21148117 -0.015544263
-0.09764486 0.19831587 0.03768148 0.3559536 0.35684463 0.1361303 0.24886219 0.28724694
0.119847365 -0.026401496 0.07984321 -0.33318913 0.25659347 0.26900843 -0.007816634 0.23711911
0.10437062 0.04456984 0.11544045 0.17152047 -0.031886637 0.06908181 0.26100284 0.08495188
0.034583617 0.080296256 0.29892492 0.14564182 0.12911263 -0.033809382 0.20228195 0.14323293

backbone.2.conv.0.1.running_mean f4 [48]
00000000: f77d 3e37 a040 c735 70d6 e7b6 6df1 8737
00000010: d457 a837 79a3 8736 fe7e bbb4 801d f636
00000020: 61a4 f137 c249 91b6 0241 1237 2fda 95b7
00000030: 5619 8fb6 c0f1 ae37 73d0 0eb7 652d 0837
00000040: 329c cdb4 87d0 af37 fce3 9fb6 9a28 a9b7
00000050: 9591 15b5 9d84 4837 c9fd 0835 50e8 9436
00000060: 903e 00b7 d02c f036 4906 8e36 1557 65b7
00000070: 2fad 7636 3e4b 1737 352e a7b5 7bea b437
00000080: 98b4 dfb6 c42c f535 91ab be37 a778 4cb7
00000090: 3b17 f6b7 7259 7f37 a2a3 87b6 4fde f037
000000a0: 96ce 7436 8438 74b6 ff21 9537 88b1 97b6
000000b0: 88a8 50b7 fe52 aa36 114a 06b8 a2b9 75b7
1.1354211e-05 1.4845464e-06 -6.9093003e-06 1.6205677e-05 2.0068059e-05 4.0423442e-06 -3.4923863e-07 7.3348056e-06
2.8805984e-05 -4.3299233e-06 8.717414e-06 -1.7863784e-05 -4.2646816e-06 2.085499e-05 -8.512393e-06 8.116801e-06
-3.8297873e-07 2.0958729e-05 -4.76511e-06 -2.0165277e-05 -5.5718675e-07 1.1951805e-05 5.1033254e-07 4.4377884e-06
-7.643961e-06 7.1577742e-06 4.2326615e-06 -1.3669739e-05 3.6757663e-06 9.01782e-06 -1.2455918e-06 2.156686e-05
-6.6669418e-06 1.8266951e-06 2.2729657e-05 -1.2187439e-05 -2.9336303e-05 1.522001e-05 -4.042363e-06 2.871375e-05
3.6479082e-06 -3.639173e-06 1.7778015e-05 -4.520818e-06 -1.2437005e-05 5.0760564e-06 -3.201707e-05 -1.4646359e-05

backbone.2.conv.0.1.running_var f4 [48]
00000000: 54a0 e63d f274 833d e4d0 d73d c459 e83d
00000010: a3d1 e93d 04d5 9b3d 1f96 833d a893 b73c
00000020: 8d7f 8d3d 2ab1 4d3d c05f 803d 7607 393e
00000030: 37b4 bb3c 5196 a53d 8444 9f3d eb92 b43d
00000040: 24c4 883c b002 923d 6be2 013e 0cf5 853e
00000050: aa85 fe3c c246 1a3d 8a11 ad3c ece2 de3c
00000060: 6f40 eb3c 2009 ce3d e6b2 103d d001 6e3d
00000070: b527 093e f1cb 923c 6882 143e 42f3 f73d
00000080: 64ca 6b3d c858 6e3d 50c2 013e a7b8 da3d
00000090: 5c52 af3d 8727 413e ef01 ae3c 9f27 093e
000000a0: 114f 093d 15fc 563d 7040 113d 2a31 bb3d
000000b0: afe3 d33d 4f00 123e c8f3 ec3d e83d 033e
0.11261049 0.0641879 0.105378896 0.113452464 0.11416938 0.07608989 0.06425118 0.022409275
0.06909094 0.050217785 0.06268263 0.18069252 0.022913082 0.08085311 0.0777674 0.08817085
0.01669509 0.07129419 0.12684028 0.26163518 0.031069595 0.037665136 0.021126527 0.027207814
0.028717248 0.10060334 0.03532686 0.058107197 0.13394053 0.017919512 0.14502871 0.121069446
0.05756606 0.058190137 0.1267178 0.10679751 0.08560631 0.18862735 0.021241156 0.1339402
0.03352267 0.052486498 0.035461843 0.09140237 0.103461616 0.1425793 0.11569935 0.12816584

backbone.2.conv.1.0.weight f4 [48, 1, 3, 3]
00000000: d65d 8abd 9307 49be b509 13be f505 0cbd
00000010: 9634 dabd 969e e5bd c662 fd3c 608c 09be
00000020: 7da4 7ebd 7b0c dabc ef38 a83c 3828 c03b
00000030: 7e9a d0bd f393 e3bd dfbd 1cbd c25d 3bbe
00000040: 5259 42be ae7f bcbd f471 ccbd 222a 95bd
00000050: 6725 4b3c 8123 493e de66 b83e 29de 623e
00000060: 5c10 c0bd bb99 27be 6564 a0be c698 e73d
00000070: 62b4 603e 9bff 9abb 44ae 583e 3512 fc3e
00000080: 1958 5d3d 561b a63d 3448 453e b58b 1c3b
00000090: 0ce9 01be 0916 9bbe 8364 18be 45f1 dbbd
000000a0: d15c edbd 1791 2bbc 5e89 123e 66e0 bc3e
000000b0: aebd e93d 9c5c b93d 9b0a 863e 047e 293e
000000c0: 5e5b 1bbd b93d 9ebd 5727 573c 84ce b5bd
000000d0: 362a 69be a591 74be fe8d 76bd 4eeb 46bd
000000e0: 176b d2bd 4865 96bb 95d2 6dbe b146 95be
000000f0: 2e32 8bbc 2876 fdbd 0ff9 77be 0aef 0ebe
00000100: 242f 983c ed30 20be b000 03be 0bfa e23d
00000110: e6ed 38be 4369 22be be88 a03d b8e5 17be
00000120: 6fa0 783d 94b5 2d3e e416 863d 545e 213c
00000130: 9761 863e 9c30 1b3e 203d 21bd fd1e 533e
00000140: 06d0 e13d ec83 ffbd 1f81 4d3e 753a 83bd
00000150: f48f d5bc b2fc d73d e13f a5bd 9d41 0a3e
00000160: 9739 b3be 3490 d63d bc7c b93c 1e5d b53d
00000170: 5ab0 df3c 3299 7b3d ea3d 653e 1a05 7f3d
00000180: cb4f 7a3d c0b7 023e d93a c23d 0396 5abd
00000190: ea18 3abe d1e2 b2bd c8cc dbbc 3d4d 8ebe
000001a0: 2177 59be 2d70 1cbc 8f50 8dbc 2ea9 8cbd
000001b0: 3f21 68bd 0822 ed3d b80b 663a 32a2 413e
000001c0: cc46 b6be 6688 493d 1d9b e1bd f71d 713e
000001d0: 0985 82bd dcc8 e6bd 81d5 f53c e748 5b3d
000001e0: 8bcf a3be cee0 993e c8b3 de3c db35 79bd
000001f0: 3267 293e c6b5 f5bd 35f6 b4bd a640 03be
00000200: 7260 4ebd be08 1f3e f5a8 bf3e fb84 903d
00000210: 0cf6 2fbd 979d 93be 7beb a7bd 575e 66bd
00000220: e229 1ebe dd8a a63c 5748 39be 46c2 5dbe
00000230: 3c25 da3c c33f c9bd a461 5dbe ca59 00bd
00000240: 03b0 c03c b63e e6bd fe7e db3a 16c1 e3bc
00000250: 0ee3 b13d 9476 1e3e 7ec9 9d3d 6519 c43d
00000260: 0e22 053e 1664 be3d 98dd 073e 06bc f53b
00000270: 03b9 543e 89af 603e 215f 0cbb 91d1 653d
00000280: f15f 103e e404 8c3c bdac 8cbc 2ff3 62bd
00000290: 0b18 3a3d 9573 2dbc 9c17 98be ba1b f9bd
000002a0: 3794 8fbc eb14 4abe 993b 2dbd c4ce 2b3d
000002b0: 209c 67bd ffea 92bd f111 aabc 6ea4 99be
000002c0: 4513 46be 7b38 013d a903 73be 1fc2 fdbd
000002d0: 80c8 dd3d 9b76 1f3e 71fb 22bc f014 303e
000002e0: 861b bd3e b5b2 15bd c189 893d a96d 2d3e
000002f0: 93c9 71bd 960c 6fbd b341 92bc a9ec 2a3e
00000300: f749 a2bd a7e5 52be 91dd 973e 13e5 93bc
00000310: a116 61be dc91 113e 7e25 ae3d d755 8ebe
00000320: f136 763d df52 69be 6083 ee3e 29bb d1bd
00000330: 24a0 153e 767c 1bbe b21b 053d d6d4 9dbd
00000340: d7c2 693b 4671 86bd 9d12 933d 36b5 00bf
00000350: d27f 933e 5b07 dbba 167a c43e 38bf 7cbe
00000360: 4994 71bb fd82 ad3c 9c98 1f3e 8193 5bbd
00000370: 4b8d 80be ee2a 9ebe b9e1 833d 34a4 6a3e
00000380: 337c 263e 23ac 9f3d eeaa db3d c26b c13d
00000390: ac4a d23d ab6c 7b3e 5a84 283e d617 fc3d
000003a0: 6826 7e3e 0a6e 1e3e 40df 63bd 1722 0ebe
000003b0: e234 35bd 1e83 3d3e c755 9c3e 69a5 b83d
000003c0: a2cc c3bd 2bc6 22be 20dd c3bc 654b e23b
000003d0: 2075 c13d f767 163e a6fb 5a3d 0e51 4b3e
000003e0: 7171 113e 6b30 d3bc fa97 b83d c0f7 e33c
000003f0: 0b4d 273e 0d44 273e a799 e23d d32c f23d
-0.06756179 -0.19631796 -0.14359172 -0.03418537 -0.10654561 -0.112118885 0.030930888 -0.13432455
-0.062168587 -0.02661728 0.02053496 0.0058641694 -0.10185717 -0.111122034 -0.038267013 -0.18297485
-0.18979385 -0.092040405 -0.09982672 -0.07283427 0.012399054 0.1964245 0.3601598 0.2215506
-0.0937812 -0.16367237 -0.31326595 0.11308436 0.2194381 -0.0047301776 0.21160227 0.4923264
0.054039095 0.08110683 0.19265825 0.0023886983 -0.12686557 -0.3029025 -0.14882092 -0.10739378
-0.11589969 -0.010471604 0.14310214 0.36889952 0.11413132 0.09050867 0.26179966 0.16551977
-0.03792893 -0.077266164 0.013131938 -0.0887728 -0.22770008 -0.23883684 -0.060194008 -0.048564248
-0.10274332 -0.0045897104 -0.23224862 -0.29155496 -0.016991701 -0.12376052 -0.24216102 -0.13958374
0.018577166 -0.15643664 -0.12793231 0.11082848 -0.18059501 -0.15860467 0.078385815 -0.14833724
0.060699876 0.16963798 0.06547335 0.00984915 0.2624633 0.15155262 -0.039364934 0.2061729
0.110260054 -0.12476334 0.20068787 -0.06407634 -0.026069619 0.10546245 -0.080688246 0.13501592
-0.35004875 0.10476723 0.022642486 0.08855651 0.02730577 0.061425395 0.223869 0.062260725
0.061111253 0.12765408 0.094838805 -0.05336572 -0.18173566 -0.08734668 -0.026831046 -0.27793303
-0.2123685 -0.009548229 -0.017250327 -0.06868206 -0.05667233 0.115787566 0.000877555 0.18909529
-0.3560089 0.049202345 -0.11015914 0.23546587 -0.06373031 -0.1126878 0.030009033 0.053536322
-0.3199428 0.30054325 0.027185336 -0.060842376 0.16543272 -0.11997561 -0.08836023 -0.1281763
-0.050384946 0.15530679 0.3743359 0.07056614 -0.042959258 -0.2883117 -0.08199211 -0.056242313
-0.15445665 0.020329887 -0.18094002 -0.2165614 0.026629083 -0.09826615 -0.21619278 -0.03133563
0.023521429 -0.1124243 0.0016746221 -0.027802031 0.08685885 0.15474921 0.07704447 0.09575156
0.13001272 0.09296434 0.13268125 0.007499221 0.20773701 0.21941961 -0.0021419006 0.05610806
0.14099099 0.017092176 -0.017172212 -0.0554077 0.045433085 -0.010586639 -0.29705513 -0.121634915
-0.017526729 -0.19734542 -0.042293165 0.041945234 -0.056545377 -0.07173728 -0.020760508 -0.30008262
-0.19343288 0.031548005 -0.23731865 -0.12390541 0.10829258 0.15572588 -0.009947644 0.17195487
0.3693506 -0.03654738 0.067157276 0.16936363 -0.059030127 -0.058361612 -0.017853593 0.16691841
-0.07924264 -0.20595418 0.2966123 -0.018053567 -0.21981288 0.14215797 0.08503245 -0.27799866
0.06011099 -0.22785519 0.46584606 -0.10240776 0.1461187 -0.15184197 0.032497115 -0.07706611
0.0035669112 -0.06564574 0.071812846 -0.50276506 0.28808457 -0.0016710566 0.38374394 -0.24682319
-0.0036862066 0.021180624 0.1558556 -0.053607468 -0.25107798 -0.30892128 0.064395376 0.22914201
0.16258316 0.07796504 0.107259616 0.09444381 0.10268149 0.24553172 0.16456738 0.12309234
0.24819338 0.15471664 -0.05563283 -0.13880192 -0.044239886 0.18507048 0.30534193 0.090159245
-0.09560515 -0.15895908 -0.023909152 0.0069059604 0.09446168 0.14688097 0.053462647 0.19855139
0.1420343 -0.025779923 0.09013362 0.027828097 0.16337983 0.16334553 0.11064463 0.11824956

backbone.2.conv.1.1.weight f4 [48]
00000000: 4361 053f 017c 8f3e 5d3c b93e 9242 733e
00000010: 1c58 bc3e b971 c23e c5b8 113e fa49 993e
00000020: ed7d 4f3e 0112 903e 2305 093e ec0f 003f
00000030: 379d ac3e c670 8f3e da0c b23e 1a12 c93e
00000040: b0a8 9a3e 7725 853e 4f04 073f 30e6 013f
00000050: aaab 853e 4d6f 553e 7176 b33e 2773 b93e
00000060: b560 c03e 082b 673e bde5 b43e d8ee 4c3e
00000070: 4929 8c3e 1691 9b3e 60be fe3e 2a6a 693e
00000080: a2b7 a43e 1631 453e 6cf0 8c3e fcf0 b63e
00000090: 5d8b 623e e08b b03e eafe ac3e 0dcf a73e
000000a0: f7ed bd3e 97e0 6a3e 79c8 a13e 44d5 af3e
000000b0: 63d1 ae3e 07f6 513e 24cd a93e 6cf0 863e
0.52101535 0.28024295 0.36178866 0.23755863 0.36785972 0.37977389 0.1423064 0.29939252
0.2026288 0.28138736 0.13380866 0.50024295 0.33713695 0.28015727 0.3477543 0.39271623
0.30206823 0.26005146 0.5274095 0.50741863 0.26107532 0.20843239 0.350513 0.36220667
0.37573782 0.22575009 0.35331526 0.20012987 0.27375248 0.3038413 0.4975462 0.22794405
0.3217135 0.19257006 0.27527177 0.3573073 0.22123475 0.34481716 0.33788234 0.32775155
0.37095615 0.22937237 0.3159826 0.34342396 0.34144124 0.20504008 0.33164322 0.26355302

backbone.2.conv.1.1.bias f4 [48]
00000000: bba5 7dbc 691c 4d3d 7642 423c c851 3b3f
00000010: d9fc 9c3c 4d9b 503c c994 303f 2725 f9be
00000020: 147f 2e3e 5172 18bd 07a6 a93d d101 043e
00000030: b9e8 b0bb 8cd8 4b3c b337 91bc 1ff8 223b
00000040: ad4d 1a3b e317 a3bc 0b05 413d 654d ab3c
00000050: 4d70 2d3f f689 52bb 13de debc 0c25 15bc
00000060: 4972 453c aa0a 88bc 0d36 f6bc 7d5c 9a3d
00000070: 769a 073e 6aef 31bd 6d16 1739 ac3d 3d3d
00000080: 8bf5 f7bb aa52 263f a1f5 6a3f c6ec 5dbc
00000090: 5260 073f 2558 9b3e 8a71 3abc 64a9 df3d
000000a0: 5e76 993d edc0 143d fc0d 373c 617a 90bc
000000b0: 5401 2bbd ab0e a73e bb79 5b3d dcc0 7dbd
-0.015481408 0.050075922 0.011856666 0.73171663 0.019163536 0.012732339 0.6897703 -0.48661157
0.17040664 -0.037218396 0.0828362 0.12891318 -0.0053988365 0.0124417655 -0.017726755 0.002486713
0.0023544834 -0.019908851 0.04712395 0.020910928 0.6774948 -0.0032125688 -0.027205503 -0.009103071
0.0120511735 -0.016606648 -0.03005507 0.07537172 0.13242516 -0.043441214 0.00014408836 0.046201393
-0.007567113 0.64969885 0.9178105 -0.013545221 0.5288135 0.30340686 -0.011379609 0.109209806
0.0749328 0.0363168 0.011172768 -0.01763648 -0.041749313 0.32628378 0.053582888 -0.061951503

backbone.2.conv.1.1.running_mean f4 [48]
00000000: a60b b5bd 7eb3 9abd bb7c 2e3c d92a 0f3f
00000010: 4871 23bd f2fd 05bd 672d 0fbe 9313 08bd
00000020: 9e0b f43d 7dc5 5dbc 977a e73c c023 11be
00000030: ae2e 29bb 34b0 37ba 1c46 afbc e1b4 e2bd
00000040: 5182 e73b 25dc 363e d021 c8bd 9a18 aebe
00000050: 405a a43e 66d6 02bb 38aa fa3b 015f 26bd
00000060: 9f5c 4e3b 66f3 ad3d 99fe 523b f651 e23b
00000070: 6552 7b3e ad70 373c e777 25be 2152 be3d
00000080: 0473 463d d257 c6bd 24cb 32be 876a 383c
00000090: 7dd6 98bd 3c39 20be aced 2a3a 408a 513e
000000a0: 057e 1abe 76a3 033e e7f8 11bd 9778 c23c
000000b0: e7c9 233d 6ed4 1e3e 75ae 93be 3444 273d
-0.088401124 -0.07553767 0.010649855 0.55924755 -0.039902955 -0.032712884 -0.13982163 -0.033221792
0.11916278 -0.013535854 0.028256698 -0.14173794 -0.0025815177 -0.00070071523 -0.021395735 -0.11069656
0.0070650955 0.17857416 -0.09772074 -0.34003145 0.32100105 -0.0019964217 0.007649686 -0.040617947
0.0031488312 0.0849369 0.003219521 0.006906743 0.2454315 0.011196298 -0.1615902 0.092930086
0.04844953 -0.09684719 -0.17460304 0.011255867 -0.074627854 -0.15646833 0.0006520401 0.20462894
-0.15087135 0.12855324 -0.035637762 0.023739142 0.03998747 0.15510723 -0.28844038 0.040836528

backbone.2.conv.1.1.running_var f4 [48]
00000000: 6276 903c 15c3 0f3c 6cf3 a93b b7ec 923c
00000010: e620 983c 4638 d23b 1a45 df3c 771f 403b
00000020: 42a6 3d3d e30f ca3a a103 e93a f0a0 f43c
00000030: 6324 083a d008 013b bb2d 5a3b 706c b33c
00000040: 9930 e03a fa0d 243c bb02 b33c 4241 8c3c
00000050: 7532 383c 3117 863b b10a 1f3b 5c88 663a
00000060: da9e 423b 7e75 bc3c 0db7 9f3b 9e68 0d3a
00000070: 8398 de3b 0030 ae39 0f50 d33c 8fe7 983a
00000080: 16d5 a83b 3488 863c 2674 a73c 8aee 053c
00000090: 9aca c93b 0376 1a3d b4e0 cb3a c535 6a3d
000000a0: b778 163d 536f 133c f8b4 863b e658 aa3b
000000b0: fdb4 a43b 7a37 d63c e241 973c 339c db3a
0.017634574 0.0087745385 0.005186489 0.01793514 0.018570375 0.0064153997 0.02725463 0.002931563
0.046301134 0.0015416112 0.0017777571 0.029861897 0.00051934103 0.001968909 0.0033291418 0.021902293
0.0017104327 0.010013098 0.021851888 0.017120961 0.011242499 0.00409212 0.0024267847 0.0008794123
0.0029696734 0.023005243 0.0048741163 0.00053943123 0.006793083 0.0003322363 0.02579501 0.001166569
0.005152355 0.016422369 0.020441126 0.008174548 0.006158185 0.0377102 0.0015554638 0.057180185
0.036736216 0.00899871 0.0041109286 0.005198586 0.0050264583 0.0261495 0.018464033 0.0016754925

backbone.2.conv.2.weight f4 [8, 48, 1, 1]
00000000: 96b2 113e 4528 073e c07c ec3c 18c0 043d
00000010: 9a4d c33e f3b3 00bd 3b5b 503e e0f2 80be
00000020: 1018 5fbe 9cdd a6bd dc83 7f3d b70f 7c3e
00000030: c6eb fdbb 8c3d c6bd 0fc5 d73c 890b 883e
00000040: 423c 41be f38e cdbd 0553 ba3d 3ac2 c93e
00000050: 2c82 133d ac8c d3bc 48e6 a7bc 248f e5bc
00000060: 55a3 d13d b731 17bc 1cf8 5f3e edf4 66be
00000070: 3e96 1abe 453e a0bd 6eb4 03bb b9dc 8bbd
00000080: 0541 a8bd 2bbe 9d3e abef 4e3e 713c b8bd
00000090: cb8f 153d 5357 393e e235 2e3d 242b d7bc
000000a0: 635a 863e ead2 a43b 9403 3c3d e760 63bd
000000b0: 66d8 fabd d3a6 2dbe efe4 263d 68bf ddbd
000000c0: f548 0c3d fbb8 2d3e 132e 6f3e f98f e8be
000000d0: 306d 373c da78 403e 3ca0 423d 6cba 15be
000000e0: c7cd 5b3d 37b0 dfbc 9fd5 d3bc ae01 e6bd
000000f0: 59a5 a6bd 33a0 03be d272 263b 0344 c23d
00000100: 7a76 2fbd d7aa 7c3d 8574 40be 7a03 6c3d
00000110: 1308 2f3d 4532 f5bc f244 bf3b 8074 07bc
00000120: b3e8 5dbd 36a0 833d 3bd1 233e fa5e f23c
00000130: 026a 073e 49f3 d3bd 4062 973d e5d5 08be
00000140: 2bcb fcbd b428 503d 11c8 2fbe 9934 22bd
00000150: fd7f e23e 9f3e 96be 7aa1 3d3c 0dc8 88be
00000160: 2906 55bd ac8b 033d eca3 28bc 3ae8 17be
00000170: 62af 66bd 8a8c 87be e644 493a 666e 36be
00000180: f1ff 323e a603 debc 694c febd 1617 92be
00000190: 7513 623e ba96 bfbe 39e3 1cbe 5086 713d
000001a0: 24ee bf3c d871 263e 56dc 7cbd 0435 91be
000001b0: 1965 843e 223f 41be 1829 f6bd 97d0 91bd
000001c0: 0c18 ef3d 3332 40bd 604f bf3d a1ea 2ebd
000001d0: c530 2b3e 1aca 913d 2d08 903e ff76 863e
000001e0: 404a c5bd 87f2 c6bd 92fc 86be b6e2 a43d
000001f0: f618 5a3e d61f 803e c359 be3d baf2 5c3d
00000200: e149 5ebe 4ec1 223e 4961 093e e568 0dbe
00000210: 827a e4bd 91f4 483e 9a07 893e 86d8 30be
00000220: 1504 f03d 737b 79be 976d 4e3e ae45 26be
00000230: d9ab 47be d1ab f73d 573b f5bd 23c8 183e
00000240: b38a d8bd 929b 283e 2b66 2c3e 4d38 963e
00000250: d806 5cbe 17b3 0d3e 27fe 9dbd a28c 66bd
00000260: 8ff4 ffbc a168 a6bc 623c 3c3e 8fea 73be
00000270: 4a26 29bd 7774 7b3d a541 6a3e abfa 963c
00000280: 7cfa 38bd ab29 993c e26d 783c 4199 65be
00000290: 4b8b acbd d729 dc3d efd9 d53d ac34 1e3d
000002a0: e7f9 cd3d 0960 02be fe76 233e 22b0 6e3d
000002b0: 00df b3bd c86e fdbd 1385 643e f00b 173d
000002c0: 6e0b 09be 0890 22be e49e 7e3e 8ebd 32bd
000002d0: 560c 953c e8ea 5c3e 7648 813d 5e27 93bc
000002e0: ae4d 9dbd b5d3 863e 181a 873e cc49 823a
000002f0: b828 b6bd 6724 b73c f2e5 81be f4cf 9c3d
00000300: 626f 14bd 3c27 27be 1581 203e e18b 913d
00000310: 7147 b93d a3d8 013e 4c44 13be 21ee 33bd
00000320: be36 aabc 6643 0bbd 7f73 e63d 0502 1a3e
00000330: c913 0a3e 78ae 83bd c0a5 203e 6366 98be
00000340: 6624 6bbd 23cb 10be df4e 2e3d c4da 01be
00000350: 1c37 5ebe 86f9 af3d 7072 823c 34ec e83c
00000360: 5ecf a23e 5fcf 0abd 3ebc 6d3e 7637 0fbd
00000370: d138 ebbd bb90 91bd dc2f 28be a43d 70bd
00000380: 731d 263e 64e3 a4bd 1eb7 3c3e 69ce 0d3e
00000390: 21cb 70bb e21d 70bb 0194 1e3d c200 f4bc
000003a0: 77b6 8bbd 6285 7dbc d4d8 933b b543 f73d
000003b0: 70d8 f33d f33b 5a3e b098 a9be eabd 5bbe
000003c0: 5137 c53d 75db 05be a333 3e3e fe45 273c
000003d0: e2da 5d3e b90c bf3d 594b 363e 31e4 34be
000003e0: a4e6 67be c09e 123e c53e bfbc fd61 9ebe
000003f0: 5684 883e ac69 c93c 82f7 0a3e d7e6 d5bd
0.14228281 0.13198955 0.02886808 0.032409757 0.38145143 -0.031421613 0.20347302 -0.251853
-0.21786523 -0.081477374 0.06238161 0.2461537 -0.0077490536 -0.09679708 0.026339082 0.265713
-0.18870643 -0.10037031 0.09097866 0.39405996 0.036012813 -0.025823914 -0.020495549 -0.028022356
0.10236231 -0.009228162 0.2187199 -0.2255437 -0.15096375 -0.07824377 -0.0020096558 -0.06829209
-0.082155265 0.3080915 0.20208614 -0.08995903 0.036514085 0.18099718 0.042531855 -0.026265688
0.26240835 0.0050300257 0.04590185 -0.055512335 -0.12248306 -0.1695817 0.04074567 -0.108275235
0.034249265 0.16965096 0.2335742 -0.45422342 0.011195466 0.18796101 0.047516093 -0.14621896
0.05366304 -0.027305705 -0.025858698 -0.11230789 -0.08137006 -0.1285408 0.0025398028 0.094856285
-0.042837597 0.061686363 -0.18794449 0.057620503 0.04273231 -0.029931197 0.0058370763 -0.008267522
-0.054176997 0.06427042 0.15997784 0.029586304 0.13224033 -0.10349137 0.073917866 -0.13362844
-0.12343439 0.050820068 -0.17166163 -0.039600942 0.44238272 -0.2934465 0.011574144 -0.26715127
-0.052007828 0.032115623 -0.010292988 -0.14834681 -0.0563196 -0.2647441 0.0007677808 -0.17815551
0.17480446 -0.02710135 -0.12416918 -0.28533238 0.22077735 -0.37419683 -0.15321054 0.05896598
0.023428984 0.16254365 -0.061733566 -0.2836076 0.2585838 -0.1887174 -0.12019557 -0.071198635
0.116745085 -0.046922874 0.093413115 -0.04270423 0.16717823 0.07118626 0.28131238 0.26262662
-0.09633303 -0.09714227 -0.2636457 0.08051054 0.21298584 0.2502429 0.092944644 0.05394242
-0.2170787 0.15894052 0.13416018 -0.13809545 -0.11156179 0.19624545 0.26763612 -0.17270097
0.117195286 -0.24363498 0.20158993 -0.16237518 -0.19499148 0.12093318 -0.11974209 0.14920096
-0.1057333 0.16465595 0.16835849 0.2933983 -0.21486986 0.13837849 -0.07714491 -0.05628646
-0.031244544 -0.020313563 0.18382409 -0.23819946 -0.04129628 0.061390366 0.22876604 0.018430075
-0.045160756 0.018696627 0.015162917 -0.22421743 -0.084250055 0.10750168 0.10441958 0.03862445
0.10057431 -0.12731947 0.1596336 0.058273442 -0.08782768 -0.123746455 0.22316389 0.03687662
-0.13383266 -0.15875256 0.248653 -0.043637805 0.018194359 0.21573985 0.06312649 -0.017963108
-0.07680832 0.26333395 0.26387095 0.0009940206 -0.08894485 0.022356225 -0.25370747 0.076568514
-0.036239035 -0.1632356 0.15674241 0.07106758 0.090468295 0.12680297 -0.14381522 -0.04392827
-0.020778056 -0.033999823 0.11252498 0.15039833 0.1348411 -0.06429762 0.15688229 -0.29765615
-0.05740776 -0.1413999 0.042555686 -0.12681109 -0.2170071 0.08592515 0.015923709 0.028432943
0.31798834 -0.03388917 0.2321634 -0.034965 -0.11485446 -0.07107683 -0.16424507 -0.058652535
0.16222171 -0.08051184 0.18429229 0.1384827 -0.0036742168 -0.0036638905 0.038715366 -0.029785518
-0.06821912 -0.0154736955 0.004511932 0.12073461 0.119065166 0.21311931 -0.33124304 -0.21459165
0.096296914 -0.13071997 0.18574385 0.0102095585 0.21665528 0.093285985 0.1780218 -0.17665173
-0.22646576 0.14318371 -0.02334536 -0.30934134 0.26663464 0.024586521 0.13570979 -0.1044442

backbone.2.conv.3.weight f4 [8]
00000000: 77fb 0f3f 9095 e63e 7226 ec3e 502c dd3e
00000010: 3c85 bf3e 573f 0b3f c008 ab3e 79ed 143f
0.5624308 0.45035982 0.4612308 0.4319787 0.37406337 0.54393524 0.33405113 0.58174855

backbone.2.conv.3.bias f4 [8]
00000000: 4a94 2639 761c f038 f029 6d36 9091 8cb8
00000010: b024 b538 f45b d9b8 1c43 b6b8 e234 9ab9
0.00015886236 0.00011449393 3.5340163e-06 -6.702833e-05 8.637586e-05 -0.00010364494 -8.6909364e-05 -0.0002941257

backbone.2.conv.3.running_mean f4 [8]
00000000: 3253 4f3f da15 c9be 7be6 233d fbd8 a33e
00000010: 0710 e4bc 0dfd 173f 86d6 49be ff3a 0f3d
0.8098632 -0.39274484 0.040014725 0.3200148 -0.027839674 0.593705 -0.1971074 0.034968372

backbone.2.conv.3.running_var f4 [8]
00000000: 67b8 c83d f7e2 8a3d 5d66 b83d 8789 0b3d
00000010: a636 2d3d b2e9 c23d 6578 803d 6d44 0c3e
0.09800797 0.06781571 0.09003899 0.034066703 0.042288445 0.0951723 0.062729634 0.13697977
