ML Model/tv_detection_epoch_70/e-32-0.845.pth (torch_old, 466521 bytes, 205 tensors)

backbone.0.0.weight f4 [16, 3, 3, 3]
000000 d6 cf 32 80 34 4a c6 01 fa 75 12 80 8e cb 48 80
       -4.666332e-39 7.284019e-38 -1.695361e-39 -6.685177e-39
000010 a7 e8 06 00 18 e5 06 01 f4 b7 0c 81 eb 1b 0b 00
       6.34473e-40 2.477628e-38 -2.584592e-38 1.020206e-39
000020 de a8 0d 80 8e 22 21 01 5c 83 10 00 18 84 0e 80
       -1.25444e-39 2.9595822e-38 1.516491e-39 -1.333083e-39
000030 dd d1 41 00 bf 13 21 00 5c 8b 7f 81 8a 27 03 01
       6.044592e-39 3.037655e-39 -4.6936088e-38 2.4089268e-38
000040 0b 9b 4a 00 6e b2 49 81 20 40 29 80 13 0c 31 80
       6.851446e-39 -3.7045886e-38 -3.788259e-39 -4.504271e-39
000050 64 df bd 00 18 3f 38 00 a2 cb 09 00 72 dd 04 80
       1.7437046e-38 5.165422e-39 8.99569e-40 -4.46782e-40
000060 c5 d7 3e 00 c7 73 16 00 22 eb 0f 80 4a 94 bb bc
       5.771204e-39 2.061914e-39 -1.461882e-39 -0.022897858
000070 84 76 5b bc 82 b5 34 bc 4a 4e 02 3e 27 3a b0 3e
       -0.013394956 -0.011029603 0.12725177 0.34419367
000080 0a e1 22 3c f2 c0 3f be df 99 80 be f1 51 19 bd
       0.009941349 -0.18725947 -0.25117394 -0.03743166
000090 d6 44 03 bd 3d ef 2a 3d d7 bb f2 bc df 30 8b 3e
       -0.03204807 0.04173206 -0.029630585 0.27185723
0000a0 8b 3f 3b 3f db 66 85 3d da 74 ae be 99 8c 17 bf
       0.73143834 0.06513759 -0.34073526 -0.5919891
0000b0 37 d1 c7 bd 86 87 0b 3e 58 55 fa 3d 30 17 02 3e
       -0.097567014 0.13625917 0.12223309 0.12704158
0000c0 b9 43 f4 3d d5 8d 6d 3e a9 2e 55 3d fb 6b a0 bd
       0.119269796 0.23198636 0.05204645 -0.07833096
0000d0 85 98 16 be 7d 2b f3 bb 1c 2b cf bd c8 4f c0 3d
       -0.14706619 -0.0074209557 -0.10115644 0.09390217
0000e0 ff b9 44 bc bd b5 db be 1d 37 39 3f d6 b8 9e be
       -0.012007236 -0.42912093 0.7234972 -0.31000394
0000f0 82 84 2e bf ac bd 68 3f b4 1f 96 be bc 7d 00 be
       -0.6817094 0.90914416 -0.29321063 -0.12547964
000100 45 77 35 3e b5 aa 56 bd 4c bb 5a bf c5 b4 a7 3f
       0.17721279 -0.052408893 -0.8544204 1.3102041
000110 3f e8 09 bf 7e 14 8a bf a9 88 b9 3f 28 7c f2 be
       -0.53870004 -1.0787504 1.449483 -0.4736035
000120 88 3c 90 3c a7 4c 06 3d 29 6d d0 3d f9 26 3d be
       0.017606989 0.032787945 0.10177071 -0.18471898
000130 43 ee d7 3e d2 40 ce bd 65 4d 7d be 3f 4f f6 3e
       0.42173967 -0.10070957 -0.24736555 0.48107335
000140 09 a9 ba bd 33 da 70 3b e8 38 00 bc 6c 86 bc 3d
       -0.09114272 0.003675115 -0.0078260675 0.092053264
000150 4f ae a8 3d b4 bc 5f 3e 9d 87 84 be 40 cb 4c 3d
       0.08236372 0.21849328 -0.25884715 0.04999852
000160 a9 42 a9 3e 82 4c 99 be ab b0 19 bb cb 72 3b bd
       0.3305867 -0.29941183 -0.002345125 -0.045763772
000170 c5 5a 9c 3d 8f dc 53 3d 1a 88 03 3f 20 15 1e bf
       0.076345004 0.051724013 0.5137955 -0.61750984
000180 9d f6 7c 3d 04 64 26 3f 81 af 30 bf 98 04 63 3c
       0.061758626 0.6499636 -0.690178 0.013856076
000190 5f 4d 9f bb fb a2 db bc 63 af 8b 3d ed 7a b4 3d
       -0.0048615183 -0.026811114 0.06820562 0.08812509
0001a0 5e 45 ed bd 20 5f 09 3d cf a8 bb 3d dd 84 2b be
       -0.11585496 0.033537984 0.09163057 -0.16749902
0001b0 70 36 b3 bd 90 5e c1 3c 8e fc 46 bd f6 f4 90 3d
       -0.087506175 0.023604661 -0.0485807 0.070779726
0001c0 3f 54 68 3c 26 66 e4 bd 25 5f 44 3e 53 e4 d1 3d
       0.014180242 -0.11152296 0.1917692 0.102486275
0001d0 4f 97 21 be 79 15 39 3c e3 81 ee 3c b6 53 9e bd
       -0.15780376 0.011296623 0.02911467 -0.0773081
0001e0 5b 4e f6 3d 21 71 0f be c2 4a 9b be c0 13 83 3e
       0.12026664 -0.14007999 -0.30330473 0.25601006
0001f0 ac 50 84 bd aa fc d0 be e8 e3 a1 3c 3e 4f ba 39
       -0.064606994 -0.40817767 0.019761994 0.00035535725
000200 30 84 18 be 10 28 e0 bb 98 76 e0 bd 29 e8 8a be
       -0.14894176 -0.0068407133 -0.1096012 -0.2713025
000210 43 4c 0c 3c f6 9f 34 bd a8 ae 28 be be 0d 22 3e
       0.008563104 -0.044097863 -0.16472876 0.15825555
000220 8d 78 28 3e 53 b0 52 be 76 43 db 3d 9a 3d 19 3f
       0.16452236 -0.20575075 0.107062265 0.5985962
000230 5b ad 6c 3e e7 a6 47 be b7 69 0e 3f 72 0e 1c 3f
       0.23113005 -0.19497262 0.5563006 0.6095954
000240 67 0e c2 3d ed 35 25 bd 48 2f ce 3d 24 fe 10 3d
       0.09475403 -0.04033463 0.10067612 0.035398617
000250 be 18 41 be 56 03 a6 bd 99 28 c5 3c d7 40 22 be
       -0.18857095 -0.08106105 0.02406721 -0.15845047
000260 e1 e6 eb bd 23 c3 5a be a8 5a fe bd c5 76 29 3e
       -0.11518646 -0.21363501 -0.12419635 0.16549213
000270 c4 56 f1 bd 39 da fc be d7 31 74 be 1a ae 8d 3d
       -0.11784127 -0.4938524 -0.23847137 0.06917973
000280 75 01 fa be 46 67 19 bf cb 17 ee bb 76 fd 6e bc
       -0.48829237 -0.5992321 -0.00726602 -0.014586797
000290 4b 6d 35 3c 82 ae ec 3e c5 de f7 bd b2 ff 36 be
       0.011073421 0.4622689 -0.12103037 -0.17870978
0002a0 71 7e 25 3e cb bd 3d bd df bf 7e bc 97 9d 61 bd
       0.16161515 -0.04632358 -0.015548675 -0.05508193
0002b0 f1 de 69 bc a3 e8 23 3d 52 76 6d 3f 81 93 6b be
       -0.014274345 0.04001678 0.9275867 -0.23005487
0002c0 8c 4c c8 be eb 96 94 3e 31 67 2d be 67 e1 36 bd
       -0.391209 0.2902139 -0.16933896 -0.044648554
0002d0 29 97 60 3c 11 e8 be bb 49 d4 03 3c aa 2c 6b 3e
       0.013707914 -0.0058260043 0.008046218 0.22966257
0002e0 93 57 78 bd 6d 4b d9 bd ad ec 17 3d 34 6f 81 bd
       -0.060630392 -0.106100895 0.037090946 -0.063200384
0002f0 fe ea 05 bd b5 2b f8 3c 10 cc 03 3d 41 f7 93 bd
       -0.03269481 0.030294279 0.03217703 -0.07224894
000300 db 14 e1 bc c4 36 16 3e 57 b4 84 3e e7 c6 89 bd
       -0.027475765 0.14669329 0.25918838 -0.06727391
000310 1d a9 8d 3d 1d 94 83 3e 6e 4b f5 bc cf 6b cc bd
       0.069170214 0.2569894 -0.029943194 -0.099815
000320 d7 20 29 be c7 75 11 bb b0 38 5b 3e ba 7f b8 3e
       -0.16516434 -0.0022195445 0.21408343 0.36034948
000330 99 2e 09 bd 3b 43 4e 3e 92 11 ab 3e 2d 52 48 3c
       -0.033491705 0.20142834 0.33411843 0.0122266235
000340 fa 15 a2 3d e2 cd c1 3d 67 66 26 3d f0 93 41 3e
       0.07914348 0.09463097 0.040625002 0.1890409
000350 02 64 ab 3e 7f 9c 1b 3d 93 45 14 3e 5e 69 52 3e
       0.33474737 0.037991043 0.14479665 0.20548007
000360 f8 c1 4a 3d 2e c6 24 3d 72 09 0a be de b8 33 be
       0.04950139 0.04022806 -0.13480166 -0.1755099
000370 e4 1a 2f 3f 27 c9 03 bf 83 a7 e5 3c e4 5a 39 3f
       0.68400407 -0.5147881 0.028033977 0.72404313
000380 13 9b 2e bf 5f 12 15 bd 9b 80 27 3e 6b 5f 5b be
       -0.68205374 -0.036394473 0.16357653 -0.21423118
000390 47 38 ff bd 4d ea 89 3f ff 7a 6b bf e9 a9 80 3c
       -0.12461906 1.0774628 -0.9198455 0.01570602
0003a0 3f 40 85 3f be ef 7a bf 00 40 53 3d 5d c0 57 bc
       1.0410231 -0.9802207 0.051574707 -0.013168422
0003b0 2c c7 80 bc ce 11 e8 bd e3 2b cb 3e 6a 2f ad be
       -0.015719973 -0.11331521 0.3968192 -0.33825237
0003c0 0f a1 1f 3c e7 e3 ca 3e 93 e8 cb be 2c 81 36 80
       0.009742989 0.39627 -0.39825878 -5.005455e-39
0003d0 ca d6 2f 00 26 0a 1c 80 5f 98 44 80 9d 53 22 80
       4.39332e-39 -2.575034e-39 -6.299474e-39 -3.152402e-39
0003e0 83 1d 30 80 95 fc 27 00 9f d1 14 80 ad 1b 11 00
       -4.41869e-39 3.672194e-39 -1.911908e-39 1.571132e-39
0003f0 16 70 22 00 68 8a 2c 80 6e c7 0c 00 e7 ed 10 00
       3.162616e-39 -4.090413e-39 1.173568e-39 1.554711e-39

backbone.0.1.weight f4 [16]
000000 d4 7b 1d 00 8f e8 1f 3e 25 a0 17 3e 60 72 8a 3e
       2.70765e-39 0.15616058 0.14807184 0.27040386
000010 ab 48 4a 3e a2 e5 70 3e 94 2c d4 3c f7 6d 95 3e
       0.19754283 0.23525098 0.025900163 0.2918546
000020 d0 2e ab 3d 6c 91 10 80 d5 1f fe 3e 09 1b f8 3d
       0.08358538 -1.521535e-39 0.4963366 0.121145315
000030 78 a6 52 3e ca 77 a4 3e 0f 08 35 00 25 bd 3c 80
       0.20571315 0.32122642 4.870172e-39 -5.577982e-39

backbone.0.1.bias f4 [16]
000000 a9 28 15 80 4f 6b 14 3f 5c 3a c7 3e a8 49 82 3e
       -1.943132e-39 0.5797624 0.38911712 0.2544682
000010 81 0f 61 3f 44 19 0d 3f 3e 37 0f 3f 41 65 03 3f
       0.8791428 0.5511668 0.5594367 0.51326376
000020 61 c2 19 3f 5c d1 01 80 22 9f 36 be 4c 0d 6f 3f
       0.60062224 -1.6694e-40 -0.17834142 0.93379664
000030 f9 16 e5 3e 26 f4 b4 be 86 50 01 00 f3 9e 09 80
       0.4474409 -0.3534252 1.20722e-40 -8.8354e-40

backbone.0.1.running_mean f4 [16]
000000 03 07 8a 04 2b 55 74 42 d9 80 c8 41 35 d9 79 41
       3.2450083e-36 61.08317 25.062914 15.615529
000010 fc f2 08 c3 0d 1b 93 c2 11 c7 68 42 69 6b 83 43
       -136.94916 -73.55283 58.1944 262.83914
000020 28 68 30 3f 1f f7 56 84 96 04 4b c1 1a 80 20 43
       0.6890893 -2.5269052e-36 -12.68862 160.5004
000030 4c 45 d1 42 5b ca c4 42 f7 23 6b 05 b1 c1 a4 84
       104.635345 98.395226 1.10562526e-35 -3.8734092e-36

backbone.0.1.running_var f4 [16]
000000 04 00 00 00 93 12 3f 45 c6 59 0b 46 d6 22 e0 44
       6e-45 3057.161 8918.443 1793.0886
000010 77 a9 03 46 fb 8f 0a 46 22 04 7c 45 ae 80 e3 46
       8426.366 8867.995 4032.2583 29120.34
000020 84 90 b7 45 04 00 00 00 5f 78 15 45 9d 46 29 46
       5874.0645 6e-45 2391.5232 10833.653
000030 ed d8 c8 45 08 12 c2 45 04 00 00 00 04 00 00 00
       6427.1157 6210.254 6e-45 6e-45

backbone.1.conv.0.0.weight f4 [16, 1, 3, 3]
000000 8c b7 f5 00 b9 87 4e 81 0c 8b 06 81 35 58 18 80
       2.2565541e-38 -3.79336e-38 -2.4711674e-38 -2.235695e-39
000010 e4 02 48 00 8c a4 2e 80 98 18 35 01 b8 f8 36 80
       6.613193e-39 -4.283461e-39 3.3262095e-38 -5.04834e-39
000020 b4 70 d9 00 f4 b4 8f bb 50 cf 51 bd 99 ab f9 3c
       1.9968733e-38 -0.004385585 -0.0512231 0.030477332
000030 67 72 a9 bb f3 af 09 be c0 b4 3f 3f 37 1a 6d 3c
       -0.0051711085 -0.13446026 0.7488518 0.014471582
000040 86 fe 71 3d ba ca 4f bf 7c 60 ce bb 0f fd 80 bd
       0.059080623 -0.8116871 -0.006298123 -0.06298267
000050 d8 d1 1b be 1f d4 0a bd b7 fc 5b 3d f4 7a 8d 3f
       -0.15216768 -0.0338937 0.053707805 1.1053147
000060 d0 44 f0 bb 0f a2 95 bd 00 33 8a bd 52 0c 50 bd
       -0.007332422 -0.07306301 -0.06748009 -0.050793
000070 ba bb e7 bc 73 78 bc bd df 70 34 3d 5c c8 48 3f
       -0.028287757 -0.09202661 0.044052955 0.78430724
000080 81 cd aa be d9 ad a7 bc e4 a9 de 3a a3 bf 23 be
       -0.33359912 -0.02046864 0.0016987887 -0.15991072
000090 79 85 1a 3f be d0 fa 3f 00 7d ed 3e 95 c4 76 3e
       0.60359913 1.9594953 0.4638443 0.24098428
0000a0 f8 63 ec 3e 6f 68 47 3e 93 96 56 bf 3d e9 07 c0
       0.4617002 0.19473432 -0.8382351 -2.1236107
0000b0 37 73 3b bf 33 2d 0e be f9 b3 bc 3d 18 c6 20 be
       -0.7322268 -0.1388443 0.092140146 -0.15700567
0000c0 20 a8 2e 3e 03 6c c9 3e c9 b2 d5 bf 3a dc aa 3d
       0.17056322 0.3934022 -1.6695186 0.08342786
0000d0 c5 ba a8 3f 9a 37 c1 3e de 63 e5 3b 70 7e 9c 3d
       1.3181998 0.37737733 0.0070004305 0.076413035
0000e0 04 70 8b bd ac 6a 1a 3d f3 bd c0 3b 09 91 54 bf
       -0.06808475 0.037699386 0.0058820187 -0.83033806
0000f0 ee a6 a9 3c 26 33 6a bd 43 b4 7d 3f a3 7b 03 bf
       0.020709481 -0.057177685 0.9910318 -0.5136053
000100 29 39 89 be c6 ca 40 3f 9a 67 19 c0 6f 8d ad be
       -0.26801422 0.7530941 -2.3969483 -0.33896968
000110 dc 2d 29 40 38 a8 fd be cc 56 41 be 0d 63 1f 3f
       2.643424 -0.49542403 -0.18880767 0.62260514
000120 3f c2 ac bb 21 3d ea 3d 7a 90 50 bd 8a 4a 56 3d
       -0.0052721794 0.11437441 -0.050919034 0.05231718
000130 1d aa 85 bf a5 27 43 3e 34 1e 13 3d be 92 af bc
       -1.044254 0.19058092 0.035917476 -0.021432277
000140 db 5f 6b bd bb 04 38 80 16 cd 45 80 75 90 46 80
       -0.05746446 -5.144485e-39 -6.41022e-39 -6.480306e-39
000150 55 62 0c 00 17 eb 10 00 5b d0 3f 00 01 d3 47 80
       1.137301e-39 1.553702e-39 5.86038e-39 -6.596014e-39
000160 fe 98 42 00 b3 5e 17 80 ce 1c db 3d 75 98 04 be
       6.116026e-39 -2.146188e-39 0.106988534 -0.12948783
000170 0f 03 ed be 19 d3 00 be 6f 9d 3d 3e 52 37 bd 3e
       -0.46291396 -0.12580527 0.18517087 0.3695627
000180 ed 40 9e be d1 67 b2 3e 96 2a ec 3e e1 25 18 3e
       -0.3090891 0.3484483 0.4612624 0.148582
000190 23 0c c9 3f e8 f8 80 3f 71 81 42 3d 63 e8 f7 3c
       1.5706829 1.007596 0.047486726 0.030262178
0001a0 7c 2b 00 be ef b4 b9 be a2 b0 d2 bf 57 41 7c bf
       -0.12516588 -0.36270854 -1.6460154 -0.985372
0001b0 5c 2d 16 bd 78 25 a3 3d 0e 16 7c 3c 2c b2 85 bb
       -0.03666435 0.07966131 0.015386118 -0.0040800776
0001c0 84 54 17 3d 20 dd 1a bf 27 d6 ce bc f7 0c b4 3d
       0.036945835 -0.6049366 -0.0252486 0.08791535
0001d0 7c 32 66 3f ef 7f 34 bc 31 bd 2a 3d e2 a7 0b be
       0.89920783 -0.01101683 0.041684333 -0.13638261
0001e0 78 7c 7c 3d 6e e5 c4 3d 1d 26 f9 bd 03 05 dc bd
       0.06164214 0.09614073 -0.12165473 -0.107431434
0001f0 7d 8b 81 bd 5b df 38 3f 16 4d 23 80 30 a3 2b 80
       -0.063254334 0.72215813 -3.241896e-39 -4.007467e-39
000200 c4 cf 1c 00 44 da 2e 00 9f 6f 3b 00 1a 7e 4c 80
       2.645926e-39 4.302732e-39 5.458336e-39 -7.024734e-39
000210 3d 43 28 80 62 a8 23 80 36 b5 1b 80 63 9b 06 80
       -3.69754e-39 -3.274647e-39 -2.544565e-39 -6.06755e-40
000220 89 76 3f 00 71 21 08 01 03 ec 3d 80 02 ed 44 80
       5.828159e-39 2.5003248e-38 -5.68663e-39 -6.329836e-39
000230 5b 68 4e 01 ed d3 3a 00 56 e5 40 80 6e 0e 3b 80
       3.7911096e-38 5.402483e-39 -5.959742e-39 -5.42347e-39

backbone.1.conv.0.1.weight f4 [16]
000000 e0 8d 19 80 0a f8 09 3f f8 24 39 3f df 68 04 3f
       -2.346783e-39 0.538941 0.72322035 0.5172252
000010 bf c7 94 3f 3b 11 06 3f a9 a4 fd 3e ff 13 61 3f
       1.1623458 0.5237004 0.49539688 0.87921137
000020 8a 62 fa 3e 4a df 13 00 c6 c5 7c 3e 97 1c 85 3f
       0.48903304 1.824975e-39 0.2468482 1.039935
000030 f6 8d 2e 3f 3e 49 a3 3e 24 80 07 80 63 57 31 80
       0.68185365 0.31891817 -6.88817e-40 -4.531288e-39

backbone.1.conv.0.1.bias f4 [16]
000000 84 63 d8 80 98 4e 46 3f 79 c4 b3 3f d1 07 bd 3e
       -1.9872167e-38 0.77463675 1.4044334 0.36920026
000010 8c 6a 46 3e 7e 33 6c 3f fb 55 51 3f 87 e6 d7 3e
       0.19376582 0.9226607 0.8177182 0.42168066
000020 db 07 ed 3e 1b 40 ae b3 ab 84 a5 3e 30 f0 8a 3d
       0.46295056 -8.114167e-08 0.3232778 0.067840934
000030 fb c6 85 3f 4f 20 8a be 5c 56 04 80 00 cc 00 80
       1.0451349 -0.26977775 -3.98322e-40 -7.3181e-41

backbone.1.conv.0.1.running_mean f4 [16]
000000 04 00 00 00 72 80 bb bd 4b 25 91 3e 3e 9d 26 3d
       6e-45 -0.091553584 0.28348765 0.0406773
000010 95 a7 56 3e 34 51 88 3e ff d4 c8 3d a6 8d c0 bd
       0.20962365 0.26624453 0.09806251 -0.09402017
000020 ee 6f f1 be 02 00 00 00 0c 0f 29 3d 36 ee 95 be
       -0.47155708 3e-45 0.041274115 -0.29283303
000030 b2 30 46 3e f4 a0 71 3c 04 00 00 80 04 00 00 80
       0.19354513 0.014747847 -6e-45 -6e-45

backbone.1.conv.0.1.running_var f4 [16]
000000 04 00 00 00 9a e8 77 3c ce 0a 5d 3c fc 00 08 3d
       6e-45 0.01513114 0.013491346 0.033204064
000010 30 7c 7d 3e 60 77 72 3d 22 bb 22 3b 55 d2 d2 3e
       0.24754405 0.059195876 0.0024830778 0.41176096
000020 62 f0 e7 3b 04 00 00 00 a5 59 9f 3c c6 3e 17 3e
       0.0070782164 6e-45 0.019451926 0.1477004
000030 6c 99 b3 3c 4b 00 07 3b 04 00 00 00 04 00 00 00
       0.021923743 0.002059954 6e-45 6e-45

backbone.1.conv.1.weight f4 [8, 16, 1, 1]
000000 b0 82 0b 00 61 f0 af bd 3e 36 be bc 0d 27 30 3e
       1.057072e-39 -0.085907705 -0.023219224 0.17202397
000010 e4 cc ed bd c2 5c 29 3f c4 2a 44 3e df 59 67 bd
       -0.116113454 0.6615716 0.19156939 -0.056482192
000020 d6 4c c7 bd 0d e9 12 80 5c 29 05 3e 22 4a 8a 3e
       -0.09731452 -1.736642e-39 0.13004059 0.27009684
000030 91 f4 c1 3d 82 0d 0f bb 76 85 01 80 a2 1f 09 00
       0.094704755 -0.002182812 -1.39712e-40 8.37867e-40
000040 f6 2c 41 00 90 13 ac bd 83 9e 0d bf 58 aa 4f bc
       5.985436e-39 -0.08402169 -0.55319995 -0.01267489
000050 56 2d e6 3d 33 4f af bc 1d 75 8d 3c f1 98 95 3c
       0.11239116 -0.02140007 0.017267758 0.018261405
000060 1d d1 8c 3d 03 cf 38 00 58 56 27 3d 3f 02 82 bc
       0.06875823 5.21705e-39 0.04085383 -0.015870212
000070 ec 4c 51 be 34 ff 8b 3e 2e d0 03 80 81 76 29 80
       -0.204395 0.27343142 -3.50187e-40 -3.807767e-39
000080 7a f8 13 00 41 71 d4 3e d7 0f 34 3e 1a 5b e4 3e
       1.834011e-39 0.41492656 0.17584167 0.44600755
000090 af 1d 55 be 99 1f 3c be 1c 7d 8e be fa 33 a9 3d
       -0.20812105 -0.18371429 -0.27829826 0.08261867
0000a0 17 1f 84 be bb c0 28 80 87 8d db bd d7 eb c6 3e
       -0.2580497 -3.742559e-39 -0.107203536 0.38851807
0000b0 9d 00 ba 3c 1d 7c 8e bc 58 20 08 00 43 94 0c 00
       0.02270537 -0.017393166 7.46287e-40 1.155212e-39
0000c0 84 bc 18 80 dc 9a 03 be 46 f1 34 be 9b e3 c0 bc
       -2.271679e-39 -0.12852043 -0.17670164 -0.02354603
0000d0 37 20 05 3f 76 fe cb be f1 7b 83 3d 59 20 12 bc
       0.5200228 -0.39842576 0.06420124 -0.008918845
0000e0 07 82 58 be f1 25 3d 00 b5 a2 1f 3e 00 a4 b3 be
       -0.21143351 5.615576e-39 0.15589412 -0.3508606
0000f0 33 10 ac 3e c2 20 c9 3e 93 3e 38 00 96 ae 3b 80
       0.3360611 0.39282805 5.165235e-39 -5.480924e-39
000100 f5 e6 1b 80 36 24 b1 be 69 c9 9e 3e a0 7f 41 bd
       -2.56241e-39 -0.3459794 0.3101304 -0.047240853
000110 4c 07 28 3e 36 8e 19 bf 8e c9 bb 3d 06 59 86 be
       0.16409034 -0.5998262 0.09169303 -0.26239794
000120 92 c2 05 3e 2c ff 43 00 2c c3 30 3e 36 f9 f7 bd
       0.13062504 6.244517e-39 0.17261952 -0.1210808
000130 8e e7 4e be 43 a3 07 bd 1d c1 1e 00 ce 9b 2f 80
       -0.20205519 -0.033114683 2.824341e-39 -4.37216e-39
000140 e8 13 bc 00 8d 76 1f be db f7 21 3b b2 df f4 be
       1.7272214e-38 -0.15572567 0.0024714384 -0.47826916
000150 ea a3 a7 be 71 c5 39 be a8 51 72 3e 18 4f 0b 3f
       -0.32742244 -0.18141724 0.23663962 0.5441756
000160 7b 2f c1 3e 5d 1f 4c 00 fc 89 a6 3d 89 97 e7 3e
       0.37731537 6.990749e-39 0.08131787 0.452328
000170 12 bb 4e ba 48 0d af 3c aa ad 29 80 2c 37 28 00
       -0.0007886152 0.021368638 -3.827554e-39 3.693212e-39
000180 84 49 8f 81 fb bc e0 3e d3 63 c5 bd 27 27 e7 be
       -5.2635394e-38 0.4389418 -0.096381806 -0.45147058
000190 d6 03 ca be cf 47 39 3d e3 0c a6 3c 7a 43 52 bf
       -0.39456052 0.045234498 0.020269817 -0.8213421
0001a0 02 f3 11 3e dd 3d 1d 00 79 15 e1 bd c2 25 97 3e
       0.14252856 2.685422e-39 -0.10990424 0.29520994
0001b0 2f 4d 31 bd f3 ed 57 3e b1 e0 2b 80 72 b9 25 00
       -0.0432865 0.21086864 -4.02953e-39 3.464439e-39
0001c0 6e cc 04 80 55 60 c7 bd 05 78 4c 3e 97 48 0b 3c
       -4.40678e-40 -0.09735171 0.19967659 0.0085011935
0001d0 d9 d8 f8 3e 51 f7 22 3f 86 af 70 be 39 9f 20 3e
       0.48602942 0.63658625 -0.23504457 0.15685739
0001e0 21 19 81 bc 49 42 36 00 07 06 c7 3d 8a ea d4 be
       -0.015759053 4.982895e-39 0.097179465 -0.4158519
0001f0 c8 ec 50 be 2b 94 cb bd cc ae 22 80 26 a3 32 80
       -0.20402825 -0.0994037 -3.185112e-39 -4.650301e-39

backbone.1.conv.2.weight f4 [8]
000000 b0 b3 07 3f 6c f8 f7 3e 1f 5a 27 3f 64 02 12 3f
       0.53008556 0.48431718 0.6537189 0.570349
000010 97 ee 07 3f df 65 17 3f e3 84 0f 3f 0e 78 05 3f
       0.53098434 0.5913982 0.56062144 0.52136314

backbone.1.conv.2.bias f4 [8]
000000 4c 3b c1 b6 f8 bc 45 b9 6e 51 1e b9 52 f0 a1 39
       -5.7587513e-06 -0.0001885778 -0.00015098389 0.00030887366
000010 18 04 77 38 04 48 be b8 8c 3e 8d b8 9a dc 25 b9
       5.88932e-05 -9.07332e-05 -6.735054e-05 -0.00015817807

backbone.1.conv.2.running_mean f4 [8]
000000 1b 76 56 3f 4b f9 79 bf ac 23 8f 3e 13 d2 78 be
       0.83773965 -0.97646016 0.27956903 -0.24298887
000010 7b 41 0c bf c1 8b 54 3e ee ca e5 be b1 2e 16 3f
       -0.54787415 0.20756437 -0.44881386 0.58664995

backbone.1.conv.2.running_var f4 [8]
000000 a0 89 fd 3d 44 85 13 3e 16 73 64 3e e6 7f b3 3e
       0.123797655 0.14406306 0.22309527 0.35058516
000010 01 74 45 3e 79 25 aa 3e 7f 07 ca 3e 83 a5 4c 3e
       0.19282533 0.33231714 0.39458844 0.19985013

backbone.2.conv.0.0.weight f4 [48, 8, 1, 1]
000000 9f db fd 3d 6d 6c 81 3c fe a4 3e 3e e3 72 48 be
       0.12395405 0.015798772 0.18617627 -0.19575076
000010 dd 0f fe bd 70 b6 6c 3d 2f 60 8c 3e d0 40 31 3d
       -0.124053694 0.057791173 0.27417132 0.0432747
000020 29 09 f8 3d 1d 0d d2 3d ef 1a ba 3d 8c 59 2f 3e
       0.12111122 0.102564074 0.090871684 0.17124003
000030 00 c3 21 be df 87 70 be 8e a1 16 be 51 87 d8 bd
       -0.15797043 -0.2348933 -0.14710066 -0.105726846
000040 ae d3 8f bd 47 39 6f 3c 5a e1 3a be 0d f4 4d 3e
       -0.070227966 0.014601058 -0.18250027 0.20112629
000050 d4 b0 c3 bc f5 91 dc bd d0 b2 76 be d9 aa 22 3e
       -0.02388803 -0.107700266 -0.24091649 0.15885486
000060 e5 48 c6 bd de 4d 60 3e 02 cb 0e 3e 6b f1 13 bf
       -0.09681872 0.21904704 0.13944629 -0.5779025
000070 9f d1 fc 3c bf 04 e2 bd 81 e5 85 be cc 5c cf be
       0.030861674 -0.110360615 -0.2615166 -0.40500486
000080 fa 39 d2 3a 9e d0 8e bc 04 1a 4f 3e 01 58 5c be
       0.0016039007 -0.01743346 0.20224768 -0.21517946
000090 3f 68 fc bd 7b ad f2 3d 7d 3f 50 3d 04 0a 87 be
       -0.12324571 0.11849495 0.050841797 -0.2637483
0000a0 c5 b6 ce 3c 21 f3 4b bd 8f f4 c7 3d 5b ef 7d be
       0.025233636 -0.049792413 0.09763443 -0.24798338
0000b0 66 31 31 bd 72 a6 0b 3d 08 fa 71 3e d6 a3 a5 bd
       -0.04326 0.03409428 0.23630536 -0.0808789
0000c0 31 b7 2b 3d b6 1c 3f 3e 79 d8 18 3e 18 7d ae 3d
       0.04192275 0.18663296 0.14926328 0.085199535
0000d0 d8 bb db bd 7c 95 9d be d1 5e 08 be a1 1c 4c bd
       -0.10729188 -0.3077811 -0.1331742 -0.04983199
0000e0 e6 cf 81 3d 1a f5 58 3e 3a d7 89 3c 74 77 40 bd
       0.063384816 0.21187249 0.01682626 -0.04698892
0000f0 c7 5f ba 3b 5b 33 2d 3d 96 6b 80 bc e2 3c 47 3e
       0.005687687 0.042285305 -0.015676301 0.19456819
000100 66 53 0f be d1 8d b4 bc cd ef c4 3e d5 4e b8 bd
       -0.13996658 -0.02204028 0.38464203 -0.08999411
000110 3b a6 51 be d7 c2 60 bb 18 b2 3b be 37 21 00 3d
       -0.20473568 -0.003429582 -0.18329656 0.031281676
000120 38 05 a4 bd 9a 37 8a 3e 7d 63 ee bc 8d 07 9d 3d
       -0.08008808 0.26995546 -0.029100174 0.07667456
000130 44 bb 19 be 1a ec 8d 3d 1f c2 1f 3d f1 c5 09 be
       -0.15012842 0.069297984 0.039003488 -0.13454415
000140 4b 41 8f bd 67 7d 8a bd 3b 57 67 bc 6a c0 ea be
       -0.069948755 -0.067622 -0.014119918 -0.45849925
000150 c8 51 a2 3d c9 7f 1e 3c 7c ed 5d 3c b0 d5 42 3d
       0.07925755 0.009674021 0.01354539 0.04756707
000160 72 fc c4 bd 6c 16 a8 3c 56 a2 9b be d6 7b 8b 3e
       -0.096184626 0.020518504 -0.3039729 0.27242917
000170 1f 47 91 3d 5a 98 0c be d2 2b 3f be 5a 82 5b 3e
       0.070936434 -0.13729993 -0.1866906 0.21436444
000180 f2 79 0c 3e 89 47 0f 3e dd 1b 0a be 19 9d a5 3d
       0.13718393 0.13992132 -0.13487191 0.080866046
000190 ca 14 30 3d 8f f5 fb 3d 14 fb 43 bc 16 a1 4e 3d
       0.042988576 0.12302696 -0.011961717 0.050446592
0001a0 7d 21 36 3e 44 f1 34 be c2 5e 18 bd 48 b2 2e bd
       0.17786212 -0.1767016 -0.037199743 -0.04265049
0001b0 25 74 8d be 4b 1c f7 3d c5 50 24 3d 2a fc 80 3e
       -0.27627674 0.12065943 0.04011609 0.25192386
0001c0 e2 11 35 3c 05 a4 2e be 65 7d 8e 3d 9d 82 c0 3e
       0.011051627 -0.17054756 0.06957511 0.3759965
0001d0 9b e0 04 bb 9a 14 81 3d ed bc 8c bc 57 b3 97 be
       -0.0020275477 0.063027576 -0.01717993 -0.29629013
0001e0 e5 37 15 3b e8 dc 99 3d bc bd 8b 3e 3c 1a 20 3e
       0.0022768911 0.07512838 0.27293193 0.15635008
0001f0 a1 72 92 be a7 46 fd bd 91 46 aa 3c 83 e1 51 be
       -0.2860308 -0.123669915 0.020785602 -0.20496182
000200 9c b5 4e 3e a6 90 36 3e d5 bf 19 3e 6e 3a 3a 3e
       0.20186466 0.17828616 0.15014584 0.18186352
000210 43 33 65 3e 39 86 2a 3e a1 2e b4 3d b4 8d 5a 3d
       0.22382836 0.16652764 0.08797956 0.053357795
000220 b6 c2 91 3d 7f 11 9f bb c4 52 05 3e 06 58 66 be
       0.07117216 -0.0048543806 0.13019854 -0.22494516
000230 61 28 24 be 11 c5 da 3d 2d 23 32 3d 6b 10 7f bd
       -0.16031028 0.10682119 0.043490577 -0.062271517
000240 99 c5 7a be b3 4d d5 3d b1 c4 5a be ec ce c5 3d
       -0.2448944 0.104152106 -0.21364094 0.09658608
000250 a6 e2 d4 bd 2f e9 0f be 26 7a 43 be d3 75 96 3e
       -0.10394792 -0.14053796 -0.19089565 0.29386768
000260 bb d4 bb bd c0 58 46 3d 9a 19 9b be 80 71 83 3e
       -0.091714345 0.048424482 -0.3029297 0.2567253
000270 eb c0 d6 3d 0f 47 71 be 5d 37 85 be 1a 6c b5 3e
       0.10486015 -0.23562263 -0.260188 0.35434037
000280 c7 c3 f7 3d 5f 95 4b 3e 13 ac 30 3e 3e 84 81 3e
       0.120978884 0.198812 0.17253141 0.25296205
000290 38 ee 84 bc 93 f3 ba 3c a0 1a 04 3e ae 0c ec 3d
       -0.016226873 0.022821223 0.12900782 0.11525856
0002a0 35 79 d0 3d 0a 0d 5a bd 7c 5b 8e 3d 84 3d b9 be
       0.101793684 -0.05323509 0.06951043 -0.36179745
0002b0 0c 17 18 3e bc 94 ef bd f0 9e 8c be 94 5d 0c be
       0.14852542 -0.11698291 -0.2746501 -0.13707572
0002c0 4f 12 8e 3d 3d 74 70 3d 62 9b 0d 3d bf 6c c2 3d
       0.06937086 0.058704603 0.034572013 0.09493398
0002d0 4a c1 2e be bc a6 08 bd 3c 13 10 bc b1 9e e0 bd
       -0.17065921 -0.033362135 -0.008793648 -0.10967768
0002e0 61 03 95 3e f8 1e 80 3c 04 54 f0 3d af ac 98 3c
       0.2910414 0.015639767 0.11734775 0.01863703
0002f0 82 78 81 3d f6 71 e1 bc c8 86 27 3c 5d dd 2d 3d
       0.06321813 -0.027520161 0.010225005 0.042447437
000300 43 7e 9c bd 98 37 78 bd 78 88 f6 3d 87 9b 2b 3e
       -0.0764127 -0.060599893 0.12037748 0.16758548
000310 ef c1 ce bd 67 ac fc bd f7 29 bb 3d c1 be 88 bd
       -0.10095584 -0.12337571 0.091388635 -0.066770084
000320 1c 4e 86 3d f7 f0 92 be c1 ba 74 3e dc 5d 02 be
       0.06557867 -0.28699467 0.23899366 -0.12731117
000330 82 b9 2a 3e 9b 98 35 be c8 ce b3 bc 8b d4 90 3e
       0.16672328 -0.17733996 -0.021949187 0.28287157
000340 92 4e c7 bd 6e aa cb 3c 73 25 73 3e 0f bd fe 3c
       -0.09731783 0.02486154 0.23744754 0.03109601
000350 cb 77 7e bd 54 c1 98 ba c5 a8 79 3e 6d 04 18 3e
       -0.062125962 -0.0011654296 0.24380787 0.14845438
000360 88 52 97 be 69 fe c3 3d 09 3e 0f be 8f ee 81 3e
       -0.29555154 0.09570009 -0.13988508 0.25377318
000370 57 c8 0e be 35 4c 9f 3d f2 b6 62 3e 31 7b 6f 3d
       -0.13943611 0.07778207 0.221401 0.058467094
000380 c3 58 cf 3e 21 d2 a2 3c d3 a5 31 be ae 01 bf bd
       0.40497407 0.019875588 -0.17348413 -0.09326492
000390 cd 1a 2c be 4b 72 55 be b2 ce b1 bd 45 9a 01 3e
       -0.16807099 -0.2084438 -0.08682002 0.12656505
0003a0 72 bf 64 3d a6 98 a2 bc dd 1c 4f 3e 5d 2c 34 3e
       0.05584664 -0.01984818 0.20225854 0.17595048
0003b0 9d 19 96 3d 3d b3 0e 3e fb 9f cf bc d2 2a 81 3d
       0.07329104 0.13935561 -0.02534484 0.063069955
0003c0 f8 c9 2f be 4e 7b 3b be 5f 21 b8 be d6 42 8e bd
       -0.17166889 -0.18308756 -0.3596296 -0.06946342
0003d0 66 44 2e bd 14 36 de 3e fa 31 c7 3d 37 05 18 3d
       -0.0425457 0.43400633 0.09726329 0.03711435
0003e0 2c 20 14 3e c7 89 09 bd dc 6a 34 bd cb e4 98 be
       0.14465398 -0.03357866 -0.04404722 -0.29862055
0003f0 a0 f4 80 be 8e d0 96 3c 58 b5 10 3d 9e 1c 7b 3e
       -0.25186634 0.018409993 0.035329193 0.24522635

backbone.2.conv.0.1.weight f4 [48]
000000 53 14 d9 3e fb cb a3 3e 67 a1 05 3e 1d 57 18 3e
       0.4239832 0.31991562 0.13049851 0.14876981
000010 dc 7e 4d 3e 2c 28 ec 3d 1e e1 a0 3e 95 76 10 3e
       0.20067924 0.115311 0.3142175 0.14107735
000020 e6 1b cf 3e 3f c8 33 3e a5 a1 32 3e aa d2 ba 3e
       0.40450972 0.17556857 0.17444475 0.3648885
000030 a8 7a 89 3d f8 05 0f 3e d0 70 25 3e 72 13 c2 3e
       0.06712848 0.1396712 0.16156316 0.3790546
000040 3d e0 0d 3e fe cc 6f 3e 86 b3 c7 3e 0d 10 51 3e
       0.13855071 0.23418042 0.39004153 0.20416279
000050 77 94 43 3e 7d 38 b7 3d a3 e8 d1 3d 5f 19 90 3d
       0.19099604 0.08946321 0.1024945 0.07036089
000060 74 b0 1b 3e 85 1c 8c 3e b5 d1 0d 3e d8 46 89 3e
       0.1520403 0.2736551 0.13849528 0.26811862
000070 e7 68 f3 3d 5d 2b 65 3d fe ef f3 3e b8 7f 9c 3d
       0.11885243 0.055949558 0.47644037 0.07641548
000080 c3 a6 4c 3e c6 37 93 3e 49 0b 47 3e 41 0b 6b 3e
       0.1998549 0.2875349 0.19437899 0.22953512
000090 41 7d a6 3e 95 94 c2 3e c2 7a 00 3e 65 3b af 3e
       0.32517436 0.38003984 0.12546828 0.34225002
0000a0 bc 1e c7 3e 9f c4 5a 3e 14 dd da 3d bd 75 37 3e
       0.38890636 0.21364067 0.106866986 0.17916007
0000b0 f1 18 53 3e bc dd ac 3e 53 56 aa 3e e3 62 26 3e
       0.20614983 0.3376292 0.33268985 0.1624866

backbone.2.conv.0.1.bias f4 [48]
000000 f9 f1 4d bd 4e d9 1e 3c fa 6c 71 3e 99 f1 d0 3e
       -0.05027959 0.009695364 0.23576728 0.40809324
000010 33 0a 69 3e 55 69 73 3e b9 ba 3b 3d 5b 02 fc bb
       0.22757797 0.2377065 0.04583237 -0.0076907105
000020 57 a7 12 bd e5 85 d5 3d 5b 1e e0 bd 42 cf 94 3d
       -0.03580412 0.10425929 -0.1094329 0.07266094
000030 f8 35 58 3e b8 8e 37 3e 8a e5 45 3e 51 7e 11 bd
       0.21114337 0.17925537 0.19325843 -0.035520855
000040 34 2d b4 bd 89 ff 1e 3e e6 79 63 3c f1 6a b7 3e
       -0.08797684 0.15527166 0.013884043 0.35823777
000050 de 04 b6 3e 20 e6 35 3e be 82 89 3e 54 a4 99 3e
       0.35550588 0.17763567 0.2685756 0.30008185
000060 c2 42 fe 3d c9 4b 25 3b 86 fb 0a 3e 0c 82 a8 be
       0.12415077 0.0025222173 0.13572511 -0.32911718
000070 7b b9 86 3e 34 26 8c 3e e6 27 52 bb 91 b2 74 3e
       0.26313385 0.27372897 -0.0032067238 0.23896243
000080 44 24 d6 3d 81 90 5d 3d af b1 07 3e 6d 36 18 3e
       0.10456136 0.054092888 0.13251375 0.14864512
000090 98 46 4e bd 3b bd 41 3d 32 da 7f 3e 32 88 bc 3d
       -0.050360292 0.047299605 0.24985579 0.09205665
0000a0 92 89 02 3d 9c b8 88 3d 0c c9 99 3e 6d 7e 0a 3e
       0.03186948 0.066758364 0.300362 0.1352479
0000b0 7a b7 f2 3d 0f 48 09 bd e6 61 41 3e 2e 47 26 3e
       0.118514016 -0.033515986 0.18885002 0.1623809

backbone.2.conv.0.1.running_mean f4 [48]
000000 b0 27 94 b7 cc c2 05 38 c6 f7 aa 35 ce 72 fe 36
       -1.7661456e-05 3.189109e-05 1.2738099e-06 7.583155e-06
000010 b4 db 11 37 b1 f6 a6 b6 71 b7 bb 37 c4 62 03 b8
       8.693827e-06 -4.975904e-06 2.2377559e-05 -3.1324817e-05
000020 a2 02 22 b7 8d 95 1e 37 8f 3f fb b7 6e 85 b0 35
       -9.656565e-06 9.452354e-06 -2.9951128e-05 1.3151855e-06
000030 29 3a 3b b7 4d f1 e3 b7 4c b2 58 38 22 af 18 38
       -1.115961e-05 -2.7172873e-05 5.1664465e-05 3.640273e-05
000040 2a 6a 67 b7 88 69 3b b7 d1 9f 91 b7 8f c6 25 b7
       -1.3793391e-05 -1.11706395e-05 -1.7359767e-05 -9.880997e-06
000050 bc b7 ad b6 5a a1 cf b5 34 eb 9d 37 bb 18 86 b6
       -5.1771913e-06 -1.5469661e-06 1.8825383e-05 -3.99639e-06
000060 16 c8 d8 37 a4 b7 be b7 47 4c 6e b7 4d 27 b1 36
       2.5842379e-05 -2.273528e-05 -1.4203665e-05 5.2795863e-06
000070 8a 3a 56 b6 62 9c fe b6 9d 2c cb b7 da c0 21 b8
       -3.192256e-06 -7.5879952e-06 -2.422026e-05 -3.8565e-05
000080 33 11 62 b7 27 d2 1c 37 c0 c0 a0 b8 be 49 1d 38
       -1.3474654e-05 9.3472545e-06 -7.665297e-05 3.7500395e-05
000090 b4 29 c6 37 62 78 83 b7 6a a9 27 37 c7 78 46 b8
       2.3622859e-05 -1.5672475e-05 9.9934205e-06 -4.731936e-05
0000a0 eb 99 a5 37 c5 b3 27 b8 f7 e1 85 b7 20 f6 cc b7
       1.9741206e-05 -3.9983326e-05 -1.5960059e-05 -2.4433306e-05
0000b0 c8 c3 c3 37 03 03 8b b8 14 a6 04 38 14 3a 1b 38
       2.333698e-05 -6.6285975e-05 3.1625925e-05 3.700897e-05

backbone.2.conv.0.1.running_var f4 [48]
000000 83 db ea 3d 36 5e 6a 3d 5f 4c dc 3d 52 6a df 3d
       0.1146765 0.057218753 0.10756754 0.10908951
000010 2b 68 e0 3d de 8e aa 3d a0 5a 84 3d c2 db b6 3c
       0.109573685 0.08328031 0.06462598 0.022321586
000020 da 2b af 3d 34 9f 1a 3d 22 2b 7f 3d bf 13 44 3e
       0.08553286 0.037749484 0.062296994 0.19148158
000030 86 ce b9 3c 6a a6 af 3d a2 16 84 3d 0c 51 ae 3d
       0.022681486 0.08576663 0.06449629 0.08511552
000040 66 98 72 3c 0a 1c a0 3d aa b0 00 3e 14 a9 8a 3e
       0.014806842 0.07817848 0.12567392 0.2708212
000050 ed a8 f9 3c 8f 5a 21 3d 8e bd 93 3c ea 86 e5 3c
       0.030476058 0.039393004 0.018034723 0.028018434
000060 11 a9 cc 3c c3 94 b8 3d ab 28 f8 3c 3b 5a 80 3d
       0.02498296 0.09012749 0.03029283 0.0626721
000070 8f 02 04 3e 1d 5a 9d 3c 62 61 12 3e 63 69 f6 3d
       0.12891601 0.019208008 0.14294961 0.1203182
000080 88 d9 81 3d c7 7c 78 3d 71 4a f6 3d 6c ac cd 3d
       0.06340319 0.060665872 0.12025917 0.100426525
000090 42 d0 c6 3d d1 7b 3f 3e 48 e4 86 3c 80 b3 07 3e
       0.09707691 0.18699576 0.016466275 0.13252068
0000a0 04 56 10 3d 14 59 76 3d c2 38 26 3d 55 9f bb 3d
       0.03523828 0.060143545 0.040581472 0.091612495
0000b0 b4 2a d4 3d b0 c7 16 3e ec 5f ec 3d cf 5a 03 3e
       0.103597075 0.14724612 0.11541733 0.1282761

backbone.2.conv.1.0.weight f4 [48, 1, 3, 3]
000000 91 36 17 bd 4a 36 44 be 40 55 06 be a8 d8 14 bd
       -0.036917273 -0.19161335 -0.13118458 -0.036339432
000010 cc b1 05 be d1 7d f8 bd 55 04 2e 3d fa 75 08 be
       -0.13056105 -0.121333726 0.0424846 -0.13326254
000020 52 d5 99 bd 58 66 86 bc dc e2 69 3d 96 7a 89 bc
       -0.07511391 -0.016406223 0.057101116 -0.016782086
000030 f8 86 0b be 67 aa bd bd 7e 27 7c bd 20 34 44 be
       -0.13625705 -0.09261017 -0.0615611 -0.19160509
000040 4f 26 36 be 68 7e 8e bd fd f9 d4 bd 6a 67 87 bd
       -0.17788051 -0.06957704 -0.10399244 -0.066115215
000050 e1 48 85 3b ac f8 45 3e b7 e1 bf 3e 31 a2 61 3e
       0.0040675257 0.19333142 0.37476894 0.22034527
000060 08 d1 ca bd 7b ca 17 be e6 89 9d be f9 ff d7 3d
       -0.09903151 -0.14823334 -0.3076927 0.1054687
000070 1c 05 60 3e bc ad 01 3c e8 fc 5b 3e e7 9c eb 3e
       0.21876949 0.007914957 0.21483195 0.46018144
000080 04 4f 97 3d f2 48 c2 3d fc 8b 66 3e c0 52 10 3d
       0.07388118 0.094865695 0.22514337 0.035235167
000090 af bb ca bd 47 35 96 be 72 25 05 be 27 0c b0 bd
       -0.09899079 -0.29337522 -0.13002566 -0.08596068
0000a0 65 6e af bd 80 45 5d 3c e9 6e 34 3e 89 88 c1 3e
       -0.08565978 0.01350534 0.17620434 0.3779948
0000b0 68 65 02 3e 82 16 d4 3d 9d bc 83 3e a3 38 1d 3e
       0.12733996 0.103558555 0.25729838 0.15353636
0000c0 ff 05 e3 bc cb b5 84 bd 77 3e 1c 3c 1d 7c c4 bd
       -0.02771282 -0.06479987 0.009536377 -0.09593985
0000d0 ec 7e 7d be 6c a5 7c be d7 1b 4b bd 05 b3 51 bd
       -0.24755448 -0.24672478 -0.049587097 -0.051196117
0000e0 e3 af c6 bd 4b 80 d7 bc 79 09 70 be b5 fc 98 be
       -0.097015165 -0.026306292 -0.23441114 -0.298803
0000f0 c3 f4 a3 3a 30 2e bd bd d0 b2 83 be 42 a4 0c be
       0.0012508858 -0.09237325 -0.2572236 -0.13734534
000100 6c 3b 02 3c 0d b8 26 be 75 58 fc bd 76 3f cb 3d
       0.007948738 -0.16281147 -0.12321559 0.099242136
000110 69 fd 41 be e2 ff 20 be f9 18 8e 3d 94 c7 1d be
       -0.18944325 -0.15722612 0.06938357 -0.15408164
000120 40 9a 5f 3d ee 05 15 3e 90 51 7c 3d 8e bc ae 3c
       0.054590464 0.14553043 0.06160122 0.021330144
000130 5f 0f 85 3e d2 f1 20 3e 43 a2 19 bd ce c0 5a 3e
       0.2598829 0.15717247 -0.03750826 0.21362612
000140 75 9f f2 3d b7 1f 0c be 00 cf 5c 3e e7 c2 a0 bd
       0.1184682 -0.13683973 0.21563339 -0.07849675
000150 b8 77 0a 3c 56 ec 03 3e a3 13 87 bd f1 f9 01 3e
       0.008451395 0.12883124 -0.06595542 0.12693001
000160 da d4 ae be 30 02 b5 3d fc 68 27 3d 34 dc 5b 3d
       -0.34146768 0.08838308 0.040871605 0.0536768
000170 83 fd 00 3d 4c 58 30 3d 89 9a 64 3e b6 c1 96 3d
       0.031491768 0.043052956 0.22324575 0.07361166
000180 d6 ab 9c 3d d7 e8 28 3e df 8a a1 3d 20 21 71 bd
       0.076499626 0.16495071 0.07887816 -0.05886948
000190 ab 09 43 be 9b ab 70 bd 63 a7 c1 bc 55 e9 95 be
       -0.19046657 -0.058757406 -0.023639387 -0.2927958
0001a0 a1 ac 4d be 01 ac 1d 3b 3b e5 f3 bc 2a 73 9b bd
       -0.20085384 0.002405882 -0.029772392 -0.07590325
0001b0 95 a1 6b bd 4e 84 e6 3d 77 93 aa bb cc ff 3e 3e
       -0.057527144 0.11255704 -0.0052055675 0.18652266
0001c0 39 0b c0 be 86 8b 16 3d d3 2a c4 bd 95 2d 67 3e
       -0.37508562 0.036754154 -0.095784806 0.22575982
0001d0 aa d3 6e bd 5f 2f cb bd fa d3 7d 3d d2 7b 48 3d
       -0.058307327 -0.09921145 0.061969735 0.04894621
0001e0 9e 89 a6 be 12 43 9e 3e 50 a3 3e 3d 70 07 39 bd
       -0.3252687 0.30910546 0.046542466 -0.04517311
0001f0 25 32 30 3e 88 7d b5 bd 7a d0 bc bd 6c a0 03 be
       0.17206629 -0.08861834 -0.09219451 -0.12854165
000200 a2 52 0a bd b6 b8 24 3e a0 88 c2 3e 77 16 c4 3d
       -0.03377021 0.16086087 0.37994862 0.09574597
000210 02 5c 3e bd 6b 1f 8f be 46 99 9e bd 1e 3a fe bc
       -0.046474464 -0.27953658 -0.07744078 -0.031033572
000220 9b dd 0a be db 02 20 3d 86 b1 67 be 80 04 5c be
       -0.13561098 0.039065223 -0.22626314 -0.21486092
000230 e4 bd 97 3c 82 2e ac bd 4d fb 61 be 88 73 4b bc
       0.018523164 -0.08407308 -0.2206852 -0.0124176815
000240 f0 d1 4a bc ff cd e7 bd c6 e2 04 bd 0e 02 44 bd
       -0.012379155 -0.113185875 -0.03244283 -0.047853522
000250 0e ec 8e 3d 90 b1 18 3e c8 07 9d 3d 7e fd f0 3d
       0.069786176 0.14911485 0.076675 0.117671
000260 9d 99 ec 3d 6a 7f 5c 3d a8 42 96 3d 5c d4 8d bc
       0.11552737 0.05383245 0.073369324 -0.017313175
000270 8e 2e 4c 3e aa bf 7a 3e db 23 aa 3c db 44 72 3d
       0.19939634 0.24487177 0.02076905 0.059147697
000280 21 a7 39 3e d2 c7 86 3d 44 68 6e bd 67 83 4b bd
       0.18130161 0.065810814 -0.058204904 -0.049685862
000290 16 08 ba 3d b6 da 9e bc 27 5c 8c be 4e 4c b5 bd
       0.090835735 -0.019391399 -0.27414057 -0.088524446
0002a0 23 6e 57 3c e8 c9 4a be 56 0b 63 bd 68 55 25 3d
       0.013148817 -0.19803584 -0.055430733 0.040364653
0002b0 1f dc 2a bd 65 9c 5b bd bc 5d e9 3b 73 a0 9a be
       -0.04171383 -0.053615946 0.0071217697 -0.30200538
0002c0 2e 51 62 be e1 e3 0e 3d c0 98 79 be 00 29 03 be
       -0.2210128 0.03488529 -0.24374676 -0.12808609
0002d0 ee 58 d7 3d 51 30 0e 3e 52 0d 1d bc 92 2b 39 3e
       0.10515009 0.13885619 -0.009585695 0.18083027
0002e0 45 25 ba 3e fb 51 1b bd 12 32 6d 3d a5 d8 3c 3e
       0.3635656 -0.03791998 0.05790908 0.18442018
0002f0 8c 66 5e bd 51 e6 a3 bd 37 0b 15 bb ac 7e 17 3e
       -0.054297015 -0.08002914 -0.002274228 0.14794415
000300 38 32 b0 bd bb 83 4d be a3 98 96 3e ef b5 6d bc
       -0.086033285 -0.20069782 0.29413328 -0.014508708
000310 2d f3 65 be b4 c4 16 3e f2 07 a4 3d bf b8 88 be
       -0.22456045 0.14723474 0.08009328 -0.2670345
000320 61 3b 8a 3d 84 39 6d be 0f 5c ef 3e 91 dd b6 bd
       0.06749607 -0.23166472 0.46749923 -0.08928979
000330 55 5c 12 3e 4f 86 34 be 04 cd 9e 3c c3 bf 62 bd
       0.14293034 -0.1762936 0.019384868 -0.05535866
000340 f7 d1 1e 3c 57 32 84 bd 48 ab ab 3d b9 d5 fd be
       0.009693614 -0.06454914 0.08382279 -0.4957712
000350 fe 72 93 3e 34 0a 28 3c 1f 7e cd 3e f2 73 6d be
       0.2879867 0.010256339 0.40135285 -0.23188761
000360 90 2d 78 bc 2a e5 00 3d 0a d3 11 3e a6 7e 80 bd
       -0.015147582 0.031468548 0.14240661 -0.06274156
000370 40 23 86 be f3 4f a1 be 35 6e 97 3d 33 4c 67 3e
       -0.2619877 -0.3150631 0.07394067 0.22587661
000380 18 59 1d 3e b8 9e 82 3d 7e 35 17 3e c0 ff 78 3d
       0.15366018 0.063779294 0.147665 0.060790777
000390 44 d0 b4 3d 20 aa 8c 3e 9c bd 15 3e 0e b3 c3 3d
       0.08828786 0.27473545 0.14623111 0.09555636
0003a0 78 02 87 3e bc e8 0e 3e 85 4a 36 bd 5c 52 1e be
       0.2636907 0.13955969 -0.04450466 -0.15461105
0003b0 89 c1 7a bd bd c5 28 3e 73 d9 9a 3e b1 d2 d1 3d
       -0.061219726 0.16481681 0.30244026 0.10245264
0003c0 43 1a d8 bd b3 7b 3d be e1 d6 28 bd c8 c8 01 3d
       -0.10551884 -0.18504219 -0.04122055 0.03168562
0003d0 89 ff fa 3d c4 7a 18 3e 8c 2a cc 3b e1 4e 3b 3e
       0.12255771 0.14890581 0.006230658 0.18291809
0003e0 b8 45 02 3e e7 bf 86 bd ae 59 a8 3d fb c3 99 3d
       0.12721908 -0.06579571 0.0822023 0.075080834
0003f0 e0 60 15 3e 1e 11 0d 3e d0 e2 fc 3d 45 55 c9 3d
       0.14587736 0.13776061 0.123479486 0.09830717

backbone.2.conv.1.1.weight f4 [48]
000000 de 03 04 3f f6 05 8c 3e 85 b2 be 3e 8d e1 7b 3e
       0.515684 0.27348298 0.37245575 0.2459776
000010 90 63 ba 3e c2 2a c8 3e cc 84 1f 3e 83 e7 94 3e
       0.36404085 0.39095122 0.15578002 0.2908288
000020 67 45 39 3e 80 5f 9f 3e 31 b1 11 3e 54 e6 fb 3e
       0.18092881 0.31127548 0.1422775 0.49199164
000030 fa 69 a7 3e ab 34 8a 3e e0 30 ba 3e 48 4d c2 3e
       0.3269804 0.26993307 0.36365414 0.37949586
000040 e9 d4 95 3e 1f b7 8f 3e 24 83 0a 3f d0 fa 03 3f
       0.29264 0.28069398 0.54106355 0.51554585
000050 0b 53 77 3e af 22 3e 3e 82 2d ac 3e fc 18 aa 3e
       0.24152772 0.18567918 0.3362847 0.33222187
000060 44 2e c0 3e de d9 69 3e 7c 8f c1 3e ce 93 4d 3e
       0.37535298 0.22837016 0.37804782 0.20075914
000070 be 12 90 3e e9 b7 8f 3e c7 4c fe 3e 30 d2 6e 3e
       0.281393 0.2807 0.4966795 0.23322368
000080 1b 48 a1 3e c9 53 40 3e f8 9b 8c 3e 34 19 b5 3e
       0.31500325 0.18781962 0.27462745 0.3537079
000090 e9 71 66 3e bc d7 ac 3e 17 87 af 3e 87 0e ac 3e
       0.22504391 0.33758342 0.34282753 0.33604833
0000a0 df a1 b0 3e bf 5a 6c 3e 04 00 a6 3e 8d 1a ac 3e
       0.34498498 0.23081492 0.32421887 0.33614007
0000b0 e9 b5 ab 3e 56 49 3e 3e 44 c7 ae 3e 0f 04 8c 3e
       0.33537224 0.18582663 0.34136403 0.27346846

backbone.2.conv.1.1.bias f4 [48]
000000 60 4f b7 bc 1d 72 9f 3c 2d 5f 4d 3c 73 ed 3c 3f
       -0.022376716 0.019463593 0.012534899 0.7379982
000010 ee ab 2f 3c a1 e6 9c 3c 0a 4a 27 3f 41 2a fb be
       0.010722144 0.019152941 0.6534735 -0.49055675
000020 02 d6 fa 3d aa 02 5e bd 53 d4 be 3d 4d 9b e0 3d
       0.1224785 -0.05420176 0.093178414 0.10967121
000030 1e af db bc 4f bb 54 3c 2f f5 cc bc e4 02 49 bb
       -0.0268169 0.012984111 -0.025019256 -0.003067189
000040 9c 6f d8 39 63 db 22 bd 8c 2b 93 3d 72 2f 86 3c
       0.00041281886 -0.039760005 0.0718604 0.016380046
000050 5e 36 2f 3f 83 b0 c8 bb ef 9c ad bc 66 3b d1 b9
       0.6844233 -0.0061245575 -0.021192996 -0.00039907842
000060 e0 03 49 3b 80 95 98 3a b9 b0 4d bc c8 2e 93 3d
       0.0030672476 0.0011641234 -0.012554341 0.07186657
000070 c0 4f 0e 3e 82 1f 66 bd a6 29 18 3c 91 75 2b 3d
       0.1389761 -0.056182392 0.0092872735 0.041860167
000080 1d cc c7 bb 0b bd 2d 3f 19 47 6c 3f 10 cd ab bc
       -0.0060973302 0.6786658 0.92295986 -0.020971805
000090 66 74 05 3f cd 1f 9f 3e ec 2f 75 3b 2f e5 d5 3d
       0.52130735 0.3107895 0.0037412597 0.10444104
0000a0 1e b3 34 3d 17 4d aa 3c 61 81 ee 3b 18 f2 4b bc
       0.044116132 0.020788712 0.0072786068 -0.012447856
0000b0 f1 2b 59 bd 87 e6 a4 3e 7f 1c 65 3d 3d 3a 96 bd
       -0.05302042 0.32207128 0.05593538 -0.07335327

backbone.2.conv.1.1.running_mean f4 [48]
000000 cc f1 b2 bd bd 0a 94 bd 9c 22 91 3c e4 9a 15 3f
       -0.08737525 -0.07228611 0.017716698 0.5843947
000010 e5 18 e5 3b 75 33 2c bd 51 4a 08 be 71 e5 0d bd
       0.006991493 -0.04204126 -0.133096 -0.03464264
000020 11 99 e8 3d ea c2 ef bb 73 b0 74 3c 9d 6d 0d be
       0.1135732 -0.0073169367 0.014934647 -0.13811345
000030 c2 c0 d4 bb cb c0 9d 3c fa b7 13 bc ab 36 af bd
       -0.006492705 0.01925697 -0.009016031 -0.08555349
000040 73 7f 00 3c 5e db 21 3e c7 1a a5 bd db 34 aa be
       0.007842886 0.15806338 -0.08061748 -0.3324345
000050 d4 e0 a2 3e 73 65 59 bb e6 a9 39 3b 17 57 75 bc
       0.31812155 -0.003317204 0.0028330027 -0.014974377
000060 1c c2 7f ba 45 98 c7 3d 69 2f b6 bb a8 96 05 3c
       -0.00097564026 0.0974584 -0.005559851 0.008153595
000070 a1 23 81 3e 9c 75 98 3c de 2d 25 be d5 0b ec 3d
       0.25222495 0.018610768 -0.16130778 0.11525694
000080 b0 51 32 3d f7 93 d5 bd 98 a3 39 be f5 c9 4d 3c
       0.043534935 -0.10428613 -0.18128812 0.012560357
000090 20 84 8a bd 49 18 1e be 95 d3 d3 3b 51 3d 54 3e
       -0.06763482 -0.15438952 0.0064644315 0.20726515
0000a0 b1 e8 08 be bb fd 00 3e ef 39 5c bd 38 bd aa 3c
       -0.13370015 0.1259679 -0.053766187 0.02084218
0000b0 b4 cc 8a 3c 3d b3 16 3e ec ec 91 be 98 70 2f 3d
       0.016943313 0.14716811 -0.2850107 0.042831987

backbone.2.conv.1.1.running_var f4 [48]
000000 e9 5f 8c 3c dc 04 14 3c b5 38 b1 3b dc d0 9b 3c
       0.017135577 0.009034362 0.0054083713 0.01902049
000010 d2 76 92 3c 91 25 b9 3b be ae d9 3c 55 db 42 3b
       0.017878924 0.00565023 0.026572581 0.0029732783
000020 1d df 15 3d 7b 9f de 3a 87 50 63 3a 79 38 03 3d
       0.03658973 0.0016984785 0.00086713623 0.03203628
000030 b6 f2 eb 39 3b c2 47 3b a7 6b b7 3b 78 71 87 3c
       0.00045003527 0.003048076 0.00559755 0.016533598
000040 53 3a 03 3b 67 48 49 3c 6c c7 8f 3c 5a 2b 84 3c
       0.0020023778 0.0122853285 0.017551146 0.016133953
000050 2c 53 30 3c 73 e5 ec 3a ba 47 0c 3b c2 78 2b 3a
       0.010762017 0.0018073752 0.0021405057 0.00065411266
000060 d7 11 8f 3b 5b ef c0 3c 2f 53 94 3b 95 45 3e 3a
       0.0043661403 0.023551634 0.004526518 0.00072582933
000070 ac 8c cb 3b 2b 2e 83 39 cf 80 f4 3c 90 ee ad 3a
       0.0062118378 0.00025020665 0.029846577 0.001326995
000080 14 37 a4 3b 07 4e 86 3c 41 41 94 3c 3d 21 16 3c
       0.0050114486 0.016394628 0.018097522 0.009163198
000090 07 70 ab 3b 19 af 1d 3d 56 f2 0c 3b d5 88 7c 3d
       0.0052318606 0.038497064 0.0021506748 0.06165393
0000a0 fa 3a 0a 3d 13 b8 1a 3c 4d 57 8b 3b 13 f7 bf 3b
       0.03374765 0.009443301 0.0042523504 0.005858311
0000b0 b2 7a ac 3b 57 25 d1 3c 27 25 a3 3c 67 62 c5 3a
       0.00526365 0.0255305 0.019915177 0.0015059233
