ML Model/tv_detection_epoch_70/e-41-0.813.pth (torch_old, 466535 bytes, 205 tensors)

backbone.0.0.weight f4 [16, 3, 3, 3]
0	0x8032cfd6	-4.666332e-39
1	0x81748ac0	-4.491527e-38
2	0x801275fa	-1.695361e-39
3	0x8048cb8e	-6.685177e-39
4	0x0006e8a7	6.34473e-40
5	0x02456335	1.4501745e-37
6	0x812d1a40	-3.1793915e-38
7	0x000b1beb	1.020206e-39
8	0x800da8de	-1.25444e-39
9	0x013e1ec8	3.4919573e-38
10	0x0010835c	1.516491e-39
11	0x800e8418	-1.333083e-39
12	0x0041d1dd	6.044592e-39
13	0x002113bf	3.037655e-39
14	0x8185f75c	-4.921143e-38
15	0x81c28a72	-7.1463004e-38
16	0x004a9b0b	6.851446e-39
17	0x01bc6307	6.920239e-38
18	0x80294020	-3.788259e-39
19	0x80310c13	-4.504271e-39
20	0x81e7f534	-8.520785e-38
21	0x00383f18	5.165422e-39
22	0x0009cba2	8.99569e-40
23	0x8004dd72	-4.46782e-40
24	0x003ed7c5	5.771204e-39
25	0x001673c7	2.061914e-39
26	0x800feb22	-1.461882e-39
27	0xbc9fdd01	-0.019514563
28	0xbbfc6e5c	-0.0077035856
29	0xbcc6555b	-0.024210623
30	0x3e0595be	0.13045403
31	0x3eafd196	0.3433959
32	0x3b98f652	0.0046680355
33	0xbe405305	-0.1878167
34	0xbe7d6b2c	-0.24747914
35	0xbce3f224	-0.027825423
36	0xbcd7a5e6	-0.026324224
37	0x3d23a14a	0.03994874
38	0xbd362bb8	-0.044475287
39	0x3e8f4389	0.27981213
40	0x3f3ca9a8	0.73696375
41	0x3d959b83	0.07305052
42	0xbeab294c	-0.33429945
43	0xbf1377c3	-0.57604617
44	0xbda876b5	-0.082257666
45	0x3e1c2ad1	0.15250708
46	0x3e022d90	0.12712693
47	0x3df16130	0.11786115
48	0x3e01a9c4	0.12662417
49	0x3e7ebe0d	0.24877186
50	0x3d85d508	0.06534773
51	0xbdb01dc8	-0.0859943
52	0xbe0e1116	-0.13873705
53	0x3aea46a9	0.0017873842
54	0xbdcfc6cd	-0.1014534
55	0x3db2266d	0.086987354
56	0xbca1a31c	-0.019731097
57	0xbedcc7af	-0.43121096
58	0x3f376e12	0.7165233
59	0xbe9ef648	-0.31047273
60	0xbf2e3546	-0.6805004
61	0x3f686570	0.9077978
62	0xbe9727aa	-0.2952245
63	0xbdfe01e2	-0.12402703
64	0x3e327ecd	0.17431183
65	0xbd66c53a	-0.056340434
66	0xbf5a90a6	-0.85376966
67	0x3fa7043d	1.3048168
68	0xbf094164	-0.53615403
69	0xbf89db62	-1.0770075
70	0x3fb94a20	1.4475746
71	0xbef35459	-0.4752529
72	0x3c4fbe66	0.012679672
73	0x3d0ba147	0.034089353
74	0x3dce4239	0.10071225
75	0xbe45fb43	-0.1933413
76	0x3ed6b995	0.41938463
77	0xbdc747ad	-0.09730468
78	0xbe834822	-0.2564097
79	0x3ef50b4f	0.4786019
80	0xbdc1308f	-0.0943309
81	0x3af5064a	0.0018693891
82	0xbabc696a	-0.0014374678
83	0x3dc70d3c	0.09719321
84	0x3da0cd30	0.078516364
85	0x3e5e26fa	0.21694556
86	0xbe83f5e7	-0.25773546
87	0x3d3eb838	0.046562403
88	0x3ea9612e	0.33081955
89	0xbe951b4d	-0.2912239
90	0x394dacb3	0.00019614659
91	0xbd2afb8b	-0.041743796
92	0x3d9c3716	0.07627694
93	0x3d551bf7	0.052028622
94	0x3f02e4bf	0.5113029
95	0xbf1e6e7c	-0.61887336
96	0x3d701997	0.058618154
97	0x3f2657a6	0.6497749
98	0xbf2faf4e	-0.6862687
99	0x3cebe0ef	0.02879378
100	0xbb73eb38	-0.0037219059
101	0xbd1976bc	-0.03746675
102	0x3da53a3c	0.08067748
103	0x3db1aedd	0.08675931
104	0xbe0693ac	-0.1314227
105	0x3d246de7	0.040143874
106	0x3dbeff27	0.0932601
107	0xbe32490e	-0.1741068
108	0xbdcb53d3	-0.099280976
109	0xbb78e63a	-0.0037979023
110	0xbd78d6ae	-0.06075161
111	0x3d83d714	0.06437507
112	0x3bd37876	0.006453569
113	0xbde68a8f	-0.11256897
114	0x3e227601	0.15865327
115	0x3dbf93e8	0.09354383
116	0xbe33972b	-0.17538135
117	0x3b186aaa	0.0023256936
118	0x3c096006	0.00838471
119	0xbdad23da	-0.08454104
120	0x3dc28c23	0.09499385
121	0xbe28fe80	-0.16503334
122	0xbea5cf0e	-0.32384533
123	0x3e544b7a	0.20731917
124	0xbd9ad143	-0.07559445
125	0xbedc8547	-0.43070433
126	0x3c95613e	0.018234845
127	0xbc90e26b	-0.01768609
128	0xbe2b2ad6	-0.1671556
129	0xbc332009	-0.010932931
130	0xbe0a1930	-0.13486171
131	0xbe8f5c0c	-0.27999914
132	0xbc273cdb	-0.01020738
133	0xbd292946	-0.041299127
134	0xbe248536	-0.16066441
135	0x3e28204c	0.1641857
136	0x3e2c7a3c	0.16843504
137	0xbe476ce5	-0.19475134
138	0x3de53664	0.11192015
139	0x3f19cf56	0.60081995
140	0x3e7377b3	0.2377613
141	0xbe46d49c	-0.19417042
142	0x3f0ddd1b	0.55415505
143	0x3f1d5411	0.614564
144	0x3de62c4e	0.11238919
145	0xbccf1e10	-0.02528289
146	0x3de6d26d	0.11270604
147	0x3d5428d7	0.05179676
148	0xbe2fc920	-0.17166567
149	0xbd8c13ab	-0.06839689
150	0x3d03f503	0.032216083
151	0xbe1512fb	-0.14558022
152	0xbdce4501	-0.10071755
153	0xbe538f00	-0.20660019
154	0xbe035dca	-0.12828746
155	0x3e235ade	0.15952632
156	0xbdebee9b	-0.1152012
157	0xbefe5878	-0.4967687
158	0xbe7b521c	-0.24543041
159	0x3d8dbbed	0.069206096
160	0xbefa3df9	-0.48875406
161	0xbf19113c	-0.5979192
162	0xbc0e5976	-0.008688321
163	0xbc514212	-0.0127721
164	0x3bc28dfc	0.005937336
165	0x3eee9f47	0.46605894
166	0xbded1f95	-0.115782894
167	0xbe304a28	-0.17215788
168	0x3e203bae	0.15647766
169	0xbd451b3d	-0.04812168
170	0xbbe3fa70	-0.0069573447
171	0xbd5bf9e0	-0.053705096
172	0xbc42f368	-0.011898853
173	0x3d274e49	0.040846143
174	0x3f6e1073	0.9299385
175	0xbe5c6d6c	-0.21526116
176	0xbeba4093	-0.3637739
177	0x3e92b354	0.28652442
178	0xbe232a81	-0.15934183
179	0xbd0270b8	-0.03184578
180	0x3c5b8e97	0.013400695
181	0xbc16dcde	-0.009207932
182	0x3ba34048	0.004982028
183	0x3e75ce97	0.24004589
184	0xbd453188	-0.04814294
185	0xbda70034	-0.081543356
186	0x3cc2dd96	0.023787301
187	0xbd87c4b9	-0.06629319
188	0xbd01a574	-0.03165193
189	0x3cebe8ff	0.028797625
190	0x3c9fd6b5	0.01951156
191	0xbd9e91e0	-0.07742667
192	0xbd0cae69	-0.034346018
193	0x3e0bf198	0.1366638
194	0x3e802e88	0.250355
195	0xbd59f9f8	-0.053216904
196	0x3d99928a	0.07498653
197	0x3e954165	0.29151455
198	0xbd373944	-0.044732347
199	0xbe0bf849	-0.13668932
200	0xbe3c5de3	-0.1839519
201	0xbcbe6495	-0.02324132
202	0x3e3034f0	0.17207694
203	0x3ea4b196	0.32166737
204	0xbcee7f02	-0.029113296
205	0x3e38c05d	0.18042131
206	0x3eaf4919	0.34235457
207	0xbb09fa12	-0.0021053595
208	0x3d6cdca0	0.057827592
209	0x3dc9e5c1	0.09858275
210	0x3cb5a297	0.022172255
211	0x3e2c7c42	0.16844276
212	0x3eab1984	0.33417904
213	0x3d33d74f	0.043906506
214	0x3e19bc78	0.15013301
215	0x3e8115a4	0.25211823
216	0x3d363d62	0.044492133
217	0x3d22b9cc	0.03972797
218	0xbe0a899a	-0.13529053
219	0xbe386412	-0.18006924
220	0x3f2decd0	0.6793947
221	0xbf03d2f6	-0.51493776
222	0x3cb2685a	0.021778274
223	0x3f37e2a6	0.71830213
224	0xbf2f466b	-0.68466824
225	0xbd14fa61	-0.036371592
226	0x3e2a76b9	0.16646852
227	0xbe595c1d	-0.21226545
228	0xbe000b8a	-0.12504402
229	0x3f89bf8f	1.0761584
230	0xbf6aa685	-0.9166034
231	0x3c4e2187	0.012581236
232	0x3f85130a	1.0396435
233	0xbf7a85b9	-0.97860295
234	0x3d591b56	0.053004585
235	0xbc1df9f8	-0.009642117
236	0xbc71a28e	-0.014748229
237	0xbde6f9c5	-0.112781085
238	0x3ecb78ce	0.39740604
239	0xbead1260	-0.33803082
240	0x3bee9c7d	0.0072818385
241	0x3ecb13f6	0.39663666
242	0xbecc3c2e	-0.39889663
243	0x8036812c	-5.005455e-39
244	0x002fd6ca	4.39332e-39
245	0x801c0a26	-2.575034e-39
246	0x8044985f	-6.299474e-39
247	0x8022539d	-3.152402e-39
248	0x80301d83	-4.41869e-39
249	0x0027fc95	3.672194e-39
250	0x8014d19f	-1.911908e-39
251	0x00111bad	1.571132e-39
252	0x00227016	3.162616e-39
253	0x802c8a68	-4.090413e-39
254	0x000cc76e	1.173568e-39
255	0x0010ede7	1.554711e-39

backbone.0.1.weight f4 [16]
0	0x001d7bd4	2.70765e-39
1	0x3e1a3ad2	0.150615
2	0x3e0bb6af	0.13643907
3	0x3e8b4bcd	0.2720627
4	0x3e4103f7	0.18849169
5	0x3e78a9b5	0.24283488
6	0x3cf2b1d9	0.02962582
7	0x3e98a3e8	0.2981255
8	0x3db09f45	0.08624128
9	0x8010916c	-1.521535e-39
10	0x3ef8ebe3	0.48617467
11	0x3df10962	0.11769368
12	0x3e38b0e0	0.18036222
13	0x3ea6d7ec	0.3258661
14	0x0035080f	4.870172e-39
15	0x803cbd25	-5.577982e-39

backbone.0.1.bias f4 [16]
0	0x801528a9	-1.943132e-39
1	0x3f1517a0	0.58239174
2	0x3ecc2207	0.3986971
3	0x3e812a31	0.25227502
4	0x3f626aaa	0.88444006
5	0x3f0ac2f1	0.54203707
6	0x3f0e2056	0.5551809
7	0x3f0163d7	0.5054297
8	0x3f180f91	0.5939875
9	0x8001d15c	-1.6694e-40
10	0xbe3b189d	-0.18271108
11	0x3f6f0adc	0.93375945
12	0x3eefd206	0.46839923
13	0xbeb14807	-0.34625265
14	0x00015086	1.20722e-40
15	0x80099ef3	-8.8354e-40

backbone.0.1.running_mean f4 [16]
0	0x839a4e3c	-9.069268e-37
1	0x428b87e6	69.76543
2	0x419248a5	18.285471
3	0x4181e782	16.23804
4	0xc32e2aab	-174.16667
5	0xc267d866	-57.961327
6	0x428bddbf	69.9331
7	0x436fe79d	239.90474
8	0xbffe097c	-1.9846644
9	0x8454ce04	-2.5015078e-36
10	0xbf2dbb43	-0.67863864
11	0x43133743	147.21587
12	0x42cb0448	101.50836
13	0x42a28730	81.26404
14	0x04254789	1.9428504e-36
15	0x84a2c6e5	-3.8268673e-36

backbone.0.1.running_var f4 [16]
0	0x00000004	6e-45
1	0x45629bc0	3625.7344
2	0x460493d1	8484.954
3	0x44df40c6	1786.0242
4	0x46591247	13892.569
5	0x4603b783	8429.878
6	0x45929f97	4691.9487
7	0x46c9b173	25816.725
8	0x45adcb34	5561.4004
9	0x00000004	6e-45
10	0x4513f2c5	2367.173
11	0x46179e7a	9703.619
12	0x45c74aec	6377.365
13	0x459b3211	4966.2583
14	0x00000004	6e-45
15	0x00000004	6e-45

backbone.1.conv.0.0.weight f4 [16, 1, 3, 3]
0	0x0112bee4	2.6952922e-38
1	0x01972b3b	5.553067e-38
2	0x81207104	-2.9468444e-38
3	0x80185835	-2.235695e-39
4	0x004802e4	6.613193e-39
5	0x802ea48c	-4.283461e-39
6	0x015f4166	4.1005552e-38
7	0x8036f8b8	-5.04834e-39
8	0x00fbc3e0	2.3120976e-38
9	0xbc2613f0	-0.010136589
10	0xbd67b768	-0.056571394
11	0x3cbf2cc2	0.023336772
12	0xbbe3588b	-0.0069380454
13	0xbe0a035a	-0.13477841
14	0x3f403e79	0.75095326
15	0x3c6405ec	0.0139174275
16	0x3d60e333	0.054904174
17	0xbf4f176f	-0.8089513
18	0xbb863e1b	-0.004096759
19	0xbd69bcf2	-0.057064958
20	0xbe131fcf	-0.14367603
21	0xbca3a453	-0.019975817
22	0x3d889d0a	0.06670578
23	0x3f8eaeb2	1.1147063
24	0x3b6a0c77	0.0035712996
25	0xbd3a68b0	-0.045509994
26	0xbd5e9861	-0.05434454
27	0xbd29591c	-0.041344747
28	0xbcf00c44	-0.029302724
29	0xbdbbb673	-0.09165659
30	0x3d7b5687	0.061361816
31	0x3f489ae1	0.78361326
32	0xbeaa6590	-0.3328061
33	0xbca45156	-0.020058315
34	0x3c40aa4d	0.011759353
35	0xbe1dc6e3	-0.154079
36	0x3f199876	0.5999826
37	0x3ff9ab68	1.9505434
38	0x3ee7ec06	0.4529726
39	0x3e729fa9	0.23693718
40	0x3ee7b271	0.45253327
41	0x3e416259	0.18885173
42	0xbf572b6d	-0.8405064
43	0xc0084edd	-2.1298134
44	0xbf3c4134	-0.7353699
45	0xbe1ec14b	-0.15503423
46	0x3db1a076	0.086731836
47	0xbe21dc08	-0.15806592
48	0x3e2279dd	0.158668
49	0x3eca2f03	0.39488992
50	0xbfd48dc9	-1.6605769
51	0x3dac1c22	0.084038034
52	0x3fa9b3dc	1.3258014
53	0x3ec53bb5	0.38522115
54	0x3c06670d	0.00820328
55	0x3d9255ca	0.07145269
56	0xbd9407c0	-0.07228041
57	0x3d35d6a7	0.04439416
58	0x3c8b47c5	0.017001996
59	0xbf52c25e	-0.8232783
60	0x3d06fbcc	0.032954976
61	0xbd4d0105	-0.0500498
62	0x3f7e3bbe	0.9930991
63	0xbf0066db	-0.50156945
64	0xbe850b91	-0.25985387
65	0x3f4269e9	0.75942856
66	0xc0186c7c	-2.3816214
67	0xbea7aec7	-0.32750532
68	0x4029b4ec	2.6516676
69	0xbef81a50	-0.48457575
70	0xbe364ce0	-0.17802763
71	0x3f22983b	0.63513535
72	0xbbe5dc79	-0.007014808
73	0x3ddfd3b8	0.10929054
74	0xbd4640de	-0.048401706
75	0x3d4c4f4c	0.04988031
76	0xbf838e36	-1.0277774
77	0x3e3e51d3	0.18585901
78	0x3d2813f8	0.04103467
79	0xbd402a63	-0.046915423
80	0xbd857240	-0.06515932
81	0x803804bb	-5.144485e-39
82	0x8045cd16	-6.41022e-39
83	0x80469075	-6.480306e-39
84	0x000c6255	1.137301e-39
85	0x0010eb17	1.553702e-39
86	0x003fd05b	5.86038e-39
87	0x8047d301	-6.596014e-39
88	0x004298fe	6.116026e-39
89	0x80175eb3	-2.146188e-39
90	0x3da8dcf4	0.082452685
91	0xbe1954d8	-0.14973772
92	0xbef700a4	-0.48242676
93	0xbe0ed717	-0.13949238
94	0x3e279293	0.16364507
95	0x3eb0d7c9	0.3453963
96	0xbe9d0230	-0.3066573
97	0x3eacead0	0.33772898
98	0x3ee65edb	0.44994244
99	0x3e1c06d5	0.15236981
100	0x3fc8bb23	1.568211
101	0x3f804f1a	1.002414
102	0x3d5497a8	0.051902443
103	0x3ce55ab4	0.027997352
104	0xbe01baae	-0.12668869
105	0xbeb51bd7	-0.35372803
106	0xbfd27e0b	-1.6444715
107	0xbf7d0fc9	-0.9885221
108	0xbd465ea7	-0.04843011
109	0x3d9ca776	0.07649128
110	0x3c9c6ff0	0.019096345
111	0xbc386d27	-0.011256493
112	0x3d0f0dc6	0.034925245
113	0xbf1b03a3	-0.60552424
114	0xbcd758fc	-0.026287548
115	0x3dbf0603	0.093273185
116	0x3f654388	0.8955617
117	0xbc31b9af	-0.010847493
118	0x3d1622c3	0.036654245
119	0xbe0deda9	-0.13860191
120	0x3d7dfbfb	0.062007885
121	0x3dcaa1ab	0.09894117
122	0xbdea20b8	-0.11432022
123	0xbdcaade2	-0.09896447
124	0xbd52e251	-0.051485363
125	0x3f385c61	0.7201596
126	0x80234d16	-3.241896e-39
127	0x802ba330	-4.007467e-39
128	0x001ccfc4	2.645926e-39
129	0x002eda44	4.302732e-39
130	0x003b6f9f	5.458336e-39
131	0x804c7e1a	-7.024734e-39
132	0x8028433d	-3.69754e-39
133	0x8023a862	-3.274647e-39
134	0x801bb536	-2.544565e-39
135	0x80069b63	-6.06755e-40
136	0x003f7689	5.828159e-39
137	0x0130d056	3.2475568e-38
138	0x803dec03	-5.68663e-39
139	0x8044ed02	-6.329836e-39
140	0x018ae284	5.101823e-38
141	0x003ad3ed	5.402483e-39
142	0x8040e556	-5.959742e-39
143	0x803b0e6e	-5.42347e-39

backbone.1.conv.0.1.weight f4 [16]
0	0x80198de0	-2.346783e-39
1	0x3f0cad93	0.54952353
2	0x3f367eb4	0.71287084
3	0x3f081845	0.5316203
4	0x3f933a95	1.1502253
5	0x3f009143	0.5022165
6	0x3efc3029	0.49255493
7	0x3f603940	0.87587357
8	0x3f01cce9	0.50703293
9	0x0013df4a	1.824975e-39
10	0x3e808e36	0.25108498
11	0x3f83e65f	1.0304679
12	0x3f2fd52c	0.6868465
13	0x3e9eccb5	0.31015554
14	0x80078024	-6.88817e-40
15	0x80315763	-4.531288e-39

backbone.1.conv.0.1.bias f4 [16]
0	0x8106f704	-2.4789138e-38
1	0x3f430adc	0.76188445
2	0x3fb0e187	1.3818825
3	0x3ebbe90c	0.36701238
4	0x3e474042	0.19458106
5	0x3f72f504	0.94905114
6	0x3f4a7d05	0.79097015
7	0x3ed66d61	0.41880324
8	0x3ee83d93	0.45359477
9	0xaf1f7165	-1.4501252e-10
10	0x3ead07ad	0.3379492
11	0x3d8f0123	0.06982639
12	0x3f855f7a	1.0419762
13	0xbe8c686a	-0.27423412
14	0x8004565c	-3.98322e-40
15	0x8000cc00	-7.3181e-41

backbone.1.conv.0.1.running_mean f4 [16]
0	0x00000004	6e-45
1	0xbdca5ed1	-0.09881366
2	0x3ea9de68	0.33177495
3	0x3d4f87fd	0.050666798
4	0x3e335afb	0.17515175
5	0x3e846e04	0.25865185
6	0x3df1afc4	0.11801103
7	0xbd4cd1be	-0.050004713
8	0xbef3edfd	-0.47642508
9	0x00000002	3e-45
10	0x3ceb1f43	0.02870143
11	0xbe8eb9e1	-0.2787619
12	0x3e44cebb	0.19219486
13	0x3c90943c	0.017648809
14	0x80000004	-6e-45
15	0x80000004	-6e-45

backbone.1.conv.0.1.running_var f4 [16]
0	0x00000004	6e-45
1	0x3c4db819	0.012556099
2	0x3c4e52e2	0.012593003
3	0x3d0b5450	0.034015954
4	0x3e6c8a53	0.23099642
5	0x3d7f0caf	0.062267955
6	0x3b2bed8b	0.0026234116
7	0x3ed27685	0.41106048
8	0x3bf5d2d6	0.0075019402
9	0x00000004	6e-45
10	0x3c791854	0.015203554
11	0x3e153f2f	0.14574884
12	0x3c926957	0.017872496
13	0x3b356ed5	0.002768447
14	0x00000004	6e-45
15	0x00000004	6e-45

backbone.1.conv.1.weight f4 [8, 16, 1, 1]
0	0x000b82b0	1.057072e-39
1	0xbdce8d94	-0.10085598
2	0xbca39f06	-0.01997329
3	0x3e3964d9	0.18104877
4	0xbdf21161	-0.11819721
5	0x3f26eaa2	0.6520177
6	0x3e554611	0.2082751
7	0xbd836d2a	-0.06417306
8	0xbddaa1c0	-0.106753826
9	0x8012e90d	-1.736642e-39
10	0x3e0673c0	0.13130093
11	0x3e851b0e	0.25997204
12	0x3dcf52ab	0.101231895
13	0x3c836937	0.016041381
14	0x80018576	-1.39712e-40
15	0x00091fa2	8.37867e-40
16	0x00412cf6	5.985436e-39
17	0xbdcba681	-0.099438675
18	0xbf0a3864	-0.53992295
19	0xbb21d27e	-0.0024692114
20	0x3debc01e	0.11511253
21	0xbd2097ea	-0.039207377
22	0x3d0f5391	0.034991805
23	0x3c197685	0.009366636
24	0x3d55ee85	0.052229423
25	0x0038cf03	5.21705e-39
26	0x3c7623d9	0.015023195
27	0xbbdf8c63	-0.0068221553
28	0xbe55f85a	-0.2089552
29	0x3e921991	0.2853513
30	0x8003d02e	-3.50187e-40
31	0x80297681	-3.807767e-39
32	0x0013f87a	1.834011e-39
33	0x3ed8bfc7	0.42333815
34	0x3e16cdff	0.14727019
35	0x3ee19cdd	0.4406499
36	0xbe5865ef	-0.21132635
37	0xbe3de8f3	-0.18545894
38	0xbe8aa81f	-0.2708139
39	0x3dbde26f	0.092717044
40	0xbe83cf06	-0.25743884
41	0x8028c0bb	-3.742559e-39
42	0xbde17fba	-0.1101069
43	0x3ecb4c13	0.39706478
44	0x3ca91ff9	0.020645129
45	0xbc63bd41	-0.013900102
46	0x00082058	7.46287e-40
47	0x000c9443	1.155212e-39
48	0x8018bc84	-2.271679e-39
49	0xbdf91f30	-0.12164152
50	0xbe32af1d	-0.17449613
51	0xbca6d4d0	-0.020365149
52	0x3f0229c1	0.5084496
53	0xbec9ac5f	-0.3938932
54	0x3d94f363	0.07272985
55	0xbc051908	-0.008123644
56	0xbe68b937	-0.22726904
57	0x003d25f1	5.615576e-39
58	0x3e26f178	0.1630305
59	0xbeb8c44b	-0.3608726
60	0x3eb1001d	0.345704
61	0x3ec4a04a	0.3840354
62	0x00383e93	5.165235e-39
63	0x803bae96	-5.480924e-39
64	0x801be6f5	-2.56241e-39
65	0xbead7b59	-0.3388317
66	0x3ea3f702	0.3202439
67	0xbd1e6894	-0.038673952
68	0x3e3112c7	0.17292319
69	0xbf1a11be	-0.6018332
70	0x3d9687d1	0.07350124
71	0xbe877059	-0.26452902
72	0x3e031e2a	0.12804475
73	0x0043ff2c	6.244517e-39
74	0x3e1cb7ea	0.15304533
75	0xbddbb126	-0.10727148
76	0xbe50e5cd	-0.20400162
77	0xbc7854b7	-0.015156916
78	0x001ec11d	2.824341e-39
79	0x802f9bce	-4.37216e-39
80	0x02522b5d	1.5440808e-37
81	0xbe18fd8d	-0.14940472
82	0xbb9aafe5	-0.0047206753
83	0xbef74b9e	-0.4829988
84	0xbea3665c	-0.31914032
85	0xbe29e4f9	-0.16591252
86	0x3e63a4cf	0.22230838
87	0x3f0d65c1	0.5523339
88	0x3ec9213a	0.39283162
89	0x004c1f5d	6.990749e-39
90	0x3dd330e2	0.10312058
91	0x3ee4b43a	0.44668752
92	0xbaba4d5b	-0.0014213728
93	0x3c2afa64	0.010435674
94	0x8029adaa	-3.827554e-39
95	0x0028372c	3.693212e-39
96	0x01e7ccc6	8.5149834e-38
97	0x3ee7622e	0.45192093
98	0xbdbbf33e	-0.09177254
99	0xbef30b42	-0.47469527
100	0xbec6169e	-0.3868913
101	0x3d4960ec	0.049164698
102	0x3cd2eb0e	0.025746848
103	0xbf4cf7ec	-0.800658
104	0x3e1f52f7	0.15558992
105	0x001d3ddd	2.685422e-39
106	0xbdf242d9	-0.118291564
107	0x3e9a0d4d	0.30088273
108	0xbd33ad8f	-0.04386669
109	0x3e502867	0.20327912
110	0x802be0b1	-4.02953e-39
111	0x0025b972	3.464439e-39
112	0x8004cc6e	-4.40678e-40
113	0xbdc43e8c	-0.09582242
114	0x3e44e427	0.19227658
115	0x3b4fce86	0.003170879
116	0x3efa25e3	0.4885703
117	0x3f24234d	0.64116365
118	0xbe748163	-0.23877482
119	0x3e249295	0.16071542
120	0xbc902f7a	-0.017600764
121	0x00364249	4.982895e-39
122	0x3deca51b	0.11554929
123	0xbecfa32a	-0.40554172
124	0xbe50f595	-0.20406182
125	0xbda95435	-0.08268014
126	0x8022aecc	-3.185112e-39
127	0x8032a326	-4.650301e-39

backbone.1.conv.2.weight f4 [8]
0	0x3f06b74a	0.52623427
1	0x3ef5e275	0.48024336
2	0x3f242f9b	0.6413514
3	0x3f10f19a	0.56618655
4	0x3f0a27fc	0.5396726
5	0x3f152d12	0.58271897
6	0x3f1205a3	0.5703985
7	0x3f06efc7	0.5270962

backbone.1.conv.2.bias f4 [8]
0	0x3718af30	9.100695e-06
1	0xb81bd90c	-3.715702e-05
2	0xb89ce72f	-7.481721e-05
3	0xb896822a	-7.176802e-05
4	0xb65d51b0	-3.2979115e-06
5	0xb8369d10	-4.3538457e-05
6	0x36f3d448	7.266677e-06
7	0xb88b5707	-6.6442466e-05

backbone.1.conv.2.running_mean f4 [8]
0	0x3f5a91eb	0.85378903
1	0xbf7aea93	-0.9801418
2	0x3e7de197	0.24793087
3	0xbe6b560e	-0.22982046
4	0xbf0fbbb4	-0.5614579
5	0x3e5af965	0.21384199
6	0xbed385fc	-0.4131316
7	0x3f1a8bec	0.60369754

backbone.1.conv.2.running_var f4 [8]
0	0x3def85aa	0.11695416
1	0x3e0819d7	0.13291107
2	0x3e689583	0.22713284
3	0x3ea6d7c1	0.32586482
4	0x3e387521	0.18013431
5	0x3eabb89d	0.33539286
6	0x3ec54340	0.3852787
7	0x3e41d205	0.18927772

backbone.2.conv.0.0.weight f4 [48, 8, 1, 1]
0	0x3df31d3b	0.1187081
1	0x3cfd5610	0.030924827
2	0x3e39976c	0.18124169
3	0xbe569d70	-0.20958495
4	0xbe049a8c	-0.1294958
5	0x3d8fd848	0.07023674
6	0x3e82ecf7	0.25571415
7	0x3d800e58	0.06252736
8	0x3e074e70	0.13213515
9	0x3df76f5f	0.12081789
10	0x3dc18f24	0.0945113
11	0x3e18f850	0.14938474
12	0xbe184acf	-0.14872287
13	0xbe831ce3	-0.25607976
14	0xbe118fcd	-0.14215012
15	0xbdc4cabc	-0.09608981
16	0xbd9749b9	-0.07387108
17	0x3c90b52d	0.017664516
18	0xbe3c9e83	-0.18419842
19	0x3e3b7219	0.18305244
20	0xbd0f5b61	-0.034999255
21	0xbde75842	-0.11296131
22	0xbe7bab3f	-0.24577044
23	0x3e26e0a2	0.16296628
24	0xbdda4979	-0.10658545
25	0x3e5bc0e4	0.214603
26	0x3e0a2ed9	0.13494433
27	0xbf145007	-0.5793461
28	0x3d344a0a	0.04401592
29	0xbdda1e4c	-0.1065031
30	0xbe7f2bfd	-0.24919124
31	0xbed347fb	-0.41265854
32	0xbb18a9d0	-0.0023294576
33	0xbcd3c64c	-0.025851391
34	0x3e50e0c2	0.20398238
35	0xbe689819	-0.2271427
36	0xbe03f84a	-0.12887684
37	0x3dc346e3	0.09535005
38	0x3d818f24	0.0632613
39	0xbe848104	-0.2587968
40	0x3d4afd94	0.049558237
41	0xbd1c1cc9	-0.03811339
42	0x3d982f73	0.07430925
43	0xbe8bce1c	-0.27305686
44	0xbd25be80	-0.040464878
45	0x3d4f0fd7	0.050552215
46	0x3e651c21	0.22374012
47	0xbd8a627c	-0.06757066
48	0x3ce9a913	0.028523004
49	0x3e4bbc77	0.19896112
50	0x3e1a3c73	0.15062122
51	0x3dc2e2bf	0.09515905
52	0xbdce2192	-0.10064997
53	0xbe90b0ba	-0.28259832
54	0xbe1a1c22	-0.15049794
55	0xbd86e49f	-0.06586575
56	0x3d77e684	0.06052257
57	0x3e538200	0.2065506
58	0x3c4a32ef	0.012341245
59	0xbd3e243f	-0.046421286
60	0x3b8e7db3	0.0043484806
61	0x3d3d02cc	0.046145245
62	0xbc77af84	-0.01511753
63	0x3e42c652	0.19020966
64	0xbe09a3b3	-0.13441353
65	0xbcc47ba8	-0.023984745
66	0x3ec76ca4	0.38950074
67	0xbdc4a16f	-0.096011035
68	0xbe5720dc	-0.21008629
69	0x3a77722c	0.0009439315
70	0xbe30cded	-0.17266054
71	0x3cd1466a	0.025546271
72	0xbd59af84	-0.0531459
73	0x3e922d72	0.28550297
74	0xbcb6523e	-0.022256013
75	0x3d9cc34c	0.076544374
76	0xbe1bcfbb	-0.15215962
77	0x3d06e27e	0.032930844
78	0x3db62340	0.08893442
79	0xbe06c4f5	-0.1316107
80	0xbd81f21f	-0.06345009
81	0xbd4ac8a7	-0.049507763
82	0xbc8931ec	-0.016747437
83	0xbeedb5c4	-0.4642774
84	0x3da596fc	0.080854386
85	0xbbecd697	-0.0072277295
86	0x3be60c59	0.007020515
87	0x3d7ba2b4	0.061434463
88	0xbdcbcd8c	-0.09951314
89	0x3cadc8be	0.021213885
90	0xbe92df78	-0.28686118
91	0x3e876c14	0.26449645
92	0x3da348e4	0.07972887
93	0xbe1750bb	-0.1477689
94	0xbe46a640	-0.19399357
95	0x3e5fae81	0.21843912
96	0x3e12bb29	0.14329208
97	0x3df69e2d	0.120418884
98	0xbe17549a	-0.14778367
99	0x3dbb2883	0.09138586
100	0x3d5cf472	0.05394406
101	0x3e03b4ab	0.12861888
102	0xbcc4b1cd	-0.024010563
103	0x3d191aba	0.037379004
104	0x3e393e5d	0.18090196
105	0xbe1c44ee	-0.1526067
106	0xbd998965	-0.07496909
107	0xbcdcc0b8	-0.026947364
108	0xbe8b0ea9	-0.27159622
109	0x3e01c377	0.1267222
110	0x3d3d8878	0.046272725
111	0x3e87c230	0.2651534
112	0x3cf2137f	0.029550312
113	0xbe4297a9	-0.19003166
114	0x3d5bcd7b	0.05366276
115	0x3ebca54c	0.36844862
116	0xbc9de222	-0.019272868
117	0x3d9daa64	0.07698515
118	0xbcbdb8b5	-0.023159364
119	0xbe96242e	-0.29324478
120	0x3c2c2a97	0.010508201
121	0x3d836f9a	0.06417771
122	0x3e912e62	0.283557
123	0x3e12437e	0.14283559
124	0xbe921a3f	-0.2853565
125	0xbdf50c92	-0.11965288
126	0x3cedf29e	0.029046353
127	0xbe57f5e9	-0.21089901
128	0x3e5293f9	0.2056426
129	0x3e3bf327	0.18354474
130	0x3e132847	0.14370833
131	0x3e3b0bf4	0.18266279
132	0x3e608801	0.21926881
133	0x3e30e231	0.17273785
134	0x3d9ed1c5	0.07754854
135	0x3d8be07f	0.068299286
136	0x3dabb45d	0.08384011
137	0xbbda9f98	-0.006671857
138	0x3df18805	0.11793522
139	0xbe533ace	-0.20627901
140	0xbe494a89	-0.19657339
141	0x3de5ab44	0.11214307
142	0x3cd16f5e	0.0255658
143	0xbd21df61	-0.03951967
144	0xbe80cfe7	-0.25158617
145	0x3dd88454	0.105721146
146	0xbe62111e	-0.22076842
147	0x3dc29732	0.095014945
148	0xbdc21e09	-0.09478385
149	0xbe1ae975	-0.1512812
150	0xbe364d1a	-0.1780285
151	0x3e95a2a9	0.29225662
152	0xbd941a11	-0.07231534
153	0x3d0eb125	0.034836907
154	0xbe9d5f2d	-0.30736676
155	0x3e84362f	0.2582259
156	0x3dc9b946	0.09849791
157	0xbe6b5255	-0.22980626
158	0xbe82bdb7	-0.25535366
159	0x3ebc08c7	0.36725447
160	0x3de8764e	0.1135069
161	0x3e5395e5	0.20662649
162	0x3e35e5d3	0.17763452
163	0x3e81e023	0.25366315
164	0xbc7c46db	-0.015397753
165	0x3ca72a17	0.020405812
166	0x3e028115	0.12744553
167	0x3dea48a6	0.11439638
168	0x3dbe534f	0.092932336
169	0xbd497ac6	-0.04918935
170	0x3da2bc43	0.07946064
171	0xbebb452b	-0.36576208
172	0x3e0c289d	0.13687368
173	0xbdd75d0a	-0.10515793
174	0xbe92a57d	-0.28641883
175	0xbe083e97	-0.13305126
176	0x3d65c0a3	0.056091916
177	0x3d906b16	0.07051675
178	0x3d06f848	0.032951623
179	0x3dc41033	0.09573402
180	0xbe2859af	-0.16440462
181	0xbcb9c149	-0.022675173
182	0xbc4b0df6	-0.012393465
183	0xbe042792	-0.1290572
184	0x3e93bf72	0.28857
185	0xb9c0e34c	-0.00036790443
186	0x3df35137	0.11880725
187	0x3d1be884	0.03806354
188	0x3d865a36	0.06560175
189	0xbd0e3cad	-0.034725834
190	0xbbf26578	-0.00739735
191	0x3d03b984	0.032159343
192	0xbdcc3cfe	-0.09972571
193	0xbdaae859	-0.08345098
194	0x3dc9781b	0.098373614
195	0x3e276bf2	0.16349772
196	0xbde6e437	-0.11273997
197	0xbdca824e	-0.09888135
198	0x3deb8f44	0.11501935
199	0xbd80c927	-0.06288367
200	0x3d3e3044	0.04643275
201	0xbe9a12c4	-0.30092442
202	0x3e82e587	0.2556574
203	0xbe06d8ee	-0.1316869
204	0x3e3f03ff	0.18653868
205	0xbe25cbd1	-0.16191031
206	0xbc7afb70	-0.015318736
207	0x3e852568	0.260051
208	0xbdc6572a	-0.09684594
209	0x3d12f23b	0.03587554
210	0x3e71d904	0.23617941
211	0x3cd5f8df	0.026119648
212	0xbdb3a5cb	-0.08771857
213	0x3c1e4b62	0.009661527
214	0x3e755159	0.23956813
215	0x3e162321	0.14661838
216	0xbea3eba6	-0.32015723
217	0x3de0c323	0.109747194
218	0xbe09e5c5	-0.13466556
219	0x3e7027d2	0.2345269
220	0xbe047e0a	-0.12938705
221	0x3dc2fce5	0.09520892
222	0x3e62ce26	0.22148952
223	0x3d78bb26	0.060725354
224	0x3ecc712a	0.39930087
225	0x3ba19e0c	0.0049321707
226	0xbe2d3281	-0.16913797
227	0xbdbbc6bf	-0.09168767
228	0xbe2d4882	-0.16922191
229	0xbe57e7a2	-0.21084455
230	0xbdc16f61	-0.09445072
231	0x3e083a9c	0.13303608
232	0x3d8979f1	0.067127116
233	0xbc2bb9e7	-0.010481334
234	0x3e59ec42	0.21281531
235	0x3e2b4502	0.16725543
236	0x3d6fc0e5	0.058533568
237	0x3e0c78c1	0.13717939
238	0xbcebb58e	-0.028773095
239	0x3d86d1e6	0.06583004
240	0xbe22bfbd	-0.15893455
241	0xbe3d0dfb	-0.18462364
242	0xbeac6ccc	-0.33676755
243	0xbda1fa89	-0.07909114
244	0xbd804000	-0.06262207
245	0x3ee9b846	0.45648402
246	0x3dc07ce3	0.0939882
247	0x3d37bd49	0.04485825
248	0x3e0aaeda	0.13543263
249	0xbcffd4a5	-0.031229327
250	0xbd4bf968	-0.0497984
251	0xbe98b3f3	-0.2982479
252	0xbe7f2a65	-0.24918516
253	0x3ccd2648	0.025042668
254	0x3d165739	0.036704276
255	0x3e7e2b08	0.24821103

backbone.2.conv.0.1.weight f4 [48]
0	0x3edab9ed	0.42719975
1	0x3e9cf2fc	0.30654132
2	0x3e179f08	0.1480676
3	0x3e0b9e0c	0.13634509
4	0x3e51fcf9	0.20506658
5	0x3dcebbab	0.100943886
6	0x3ea065ed	0.31327763
7	0x3e0b9c4d	0.13633843
8	0x3ec5e397	0.386502
9	0x3e3d8966	0.18509445
10	0x3e37c399	0.17945708
11	0x3ebb6ac3	0.3660489
12	0x3d80d759	0.06291074
13	0x3e15d72f	0.14632867
14	0x3e16247b	0.14662354
15	0x3ec684f7	0.3877332
16	0x3e14391a	0.14474908
17	0x3e802bc3	0.25033388
18	0x3ec71f2c	0.3889097
19	0x3e538d54	0.20659381
20	0x3e4bb9f0	0.19895148
21	0x3ddb3285	0.10702995
22	0x3debffbe	0.11523388
23	0x3d96447d	0.07337282
24	0x3e0cc672	0.13747576
25	0x3e82796e	0.25483268
26	0x3e231bcc	0.15928572
27	0x3e835df1	0.2565761
28	0x3def889b	0.11695977
29	0x3d52d5fa	0.051473595
30	0x3ee57bd0	0.44821024
31	0x3d9ab565	0.075541295
32	0x3e594594	0.21217948
33	0x3e93dc09	0.2887881
34	0x3e4fdd48	0.20299256
35	0x3e5d2ec9	0.21599878
36	0x3ea76bd4	0.32699454
37	0x3ec3a7b1	0.38213876
38	0x3e07035b	0.13184874
39	0x3eb1724a	0.34657508
40	0x3ec3888c	0.38190114
41	0x3e684be6	0.22685203
42	0x3deabfd5	0.1146237
43	0x3e35c778	0.17751873
44	0x3e51100c	0.20416278
45	0x3ea9552b	0.3307279
46	0x3ea4b64e	0.32170337
47	0x3e1d1002	0.15338138

backbone.2.conv.0.1.bias f4 [48]
0	0xbd3e3778	-0.046439618
1	0x3c75cc9e	0.015002398
2	0x3e5e1bc9	0.21690287
3	0x3ed6bfc5	0.41943184
4	0x3e63d061	0.22247459
5	0x3e80b1c6	0.2513563
6	0x3d2c0f6d	0.0420069
7	0xbc332276	-0.010933509
8	0xbd017a0d	-0.031610537
9	0x3dbf26ea	0.09333594
10	0xbdd6190c	-0.10453996
11	0x3d919d3a	0.07110067
12	0x3e5c057b	0.21486466
13	0x3e2fcfc3	0.17169099
14	0x3e56dbe3	0.20982318
15	0xbccddd6e	-0.02513
16	0xbda8d2ce	-0.08243333
17	0x3e07dd36	0.13267979
18	0x3c73a44b	0.014870713
19	0x3eb5fad4	0.3554293
20	0x3eb086e9	0.34477928
21	0x3e24701c	0.16058391
22	0x3e82d914	0.25556242
23	0x3e95a233	0.2922531
24	0x3e0f9008	0.14019787
25	0x3c400cd7	0.011721811
26	0x3deed60b	0.11661919
27	0xbead7703	-0.3387986
28	0x3e863545	0.26212516
29	0x3e8bee9f	0.2733049
30	0xbc930380	-0.017946005
31	0x3e73f48c	0.23823756
32	0x3db972a9	0.09055073
33	0x3d5bc7ce	0.053657345
34	0x3e00cb3d	0.12577529
35	0x3e27262e	0.16323158
36	0xbd541d8c	-0.05178599
37	0x3d2c75ab	0.042104404
38	0x3e77c610	0.24196649
39	0x3db00f73	0.08596697
40	0x3cf80eb3	0.030280447
41	0x3d4ec920	0.050484776
42	0x3e95d557	0.29264328
43	0x3e0df81c	0.13864177
44	0x3df70259	0.12060995
45	0xbd19b8db	-0.037529808
46	0x3e4cfdaa	0.2001864
47	0x3e2eb2f4	0.17060453

backbone.2.conv.0.1.running_mean f4 [48]
0	0xb831839a	-4.2322652e-05
1	0x36531cf1	3.1458296e-06
2	0x378fc3cc	1.7138103e-05
3	0x37dac2a9	2.607827e-05
4	0x36b52a66	5.399156e-06
5	0xb7b45b23	-2.1500111e-05
6	0x36a5f99a	4.9464406e-06
7	0xb7d2c0a5	-2.5123658e-05
8	0xb5fba0a4	-1.874771e-06
9	0x37add72b	2.0723402e-05
10	0xb7aa3628	-2.0290798e-05
11	0x379ddb82	1.8818075e-05
12	0xb69e8da0	-4.7252543e-06
13	0xb81c5649	-3.7273658e-05
14	0x3827cffd	4.0009607e-05
15	0x375e2f9e	1.3243318e-05
16	0xb7f1c881	-2.8822806e-05
17	0xb7865217	-1.601227e-05
18	0x3795d48a	1.7861155e-05
19	0x368b7bb3	4.1569233e-06
20	0xb7c4344c	-2.3389373e-05
21	0xb6ff7271	-7.612915e-06
22	0x37427b93	1.1592073e-05
23	0xb814b65f	-3.5455796e-05
24	0x3768b871	1.3871221e-05
25	0xb8516c0e	-4.9930117e-05
26	0xb7bb196b	-2.2303973e-05
27	0x3814e631	3.5500332e-05
28	0xb8374230	-4.3692242e-05
29	0xb75efd75	-1.3291244e-05
30	0x37d2c0ef	2.5123793e-05
31	0xb83c82c1	-4.4944467e-05
32	0x3763fa9a	1.3588602e-05
33	0xb7cb45b2	-2.423194e-05
34	0xb8a3497f	-7.7861354e-05
35	0x381a8021	3.683579e-05
36	0xb7ca725a	-2.4133526e-05
37	0xb854f6b1	-5.0774488e-05
38	0x37bc848e	2.2473072e-05
39	0xb72ce83f	-1.0306073e-05
40	0x36bebc9f	5.6843996e-06
41	0x3680d690	3.8396756e-06
42	0xb75a4c80	-1.3011624e-05
43	0x378c7199	1.6742199e-05
44	0x38044ed5	3.154467e-05
45	0xb81ed569	-3.786889e-05
46	0xb7ec6c1b	-2.8183733e-05
47	0x385a03a8	5.1978655e-05

backbone.2.conv.0.1.running_var f4 [48]
0	0x3de325cf	0.11091196
1	0x3d83aa69	0.064289875
2	0x3dd26eb2	0.1027502
3	0x3dec06a9	0.11524708
4	0x3de07ce0	0.10961318
5	0x3dac3512	0.0840856
6	0x3d7fcee9	0.062453184
7	0x3cad9c97	0.021192832
8	0x3db62f53	0.08895745
9	0x3d330986	0.043710254
10	0x3d7949c5	0.060861368
11	0x3e39f5f7	0.18160234
12	0x3cc15090	0.023597986
13	0x3daf5278	0.085606515
14	0x3d708034	0.058716014
15	0x3db82679	0.08991713
16	0x3c7f3233	0.015575933
17	0x3d98153d	0.07425926
18	0x3df1b6f9	0.118024774
19	0x3e868b1e	0.26278013
20	0x3d06c7d7	0.032905426
21	0x3d2948e2	0.041329272
22	0x3c9511bd	0.018196935
23	0x3cd360c0	0.02580297
24	0x3ca26e9b	0.019828131
25	0x3db3d3c7	0.08780628
26	0x3d092b60	0.03348863
27	0x3d7f4ca3	0.062328946
28	0x3e04d232	0.12970808
29	0x3c963838	0.018337354
30	0x3e1734e5	0.14766271
31	0x3decc26d	0.11560521
32	0x3d7c59a8	0.06160894
33	0x3d7dc212	0.061952658
34	0x3dfddb63	0.1239536
35	0x3dc6a342	0.09699108
36	0x3dd89ab8	0.10576385
37	0x3e3cb7cb	0.18429486
38	0x3c8f0f26	0.017463278
39	0x3e074bfb	0.13212578
40	0x3d10d096	0.035355173
41	0x3d8991ba	0.06717248
42	0x3d15dbea	0.03658668
43	0x3dc089d4	0.09401289
44	0x3dcd4993	0.10023799
45	0x3e14a437	0.14515768
46	0x3de505bf	0.111827366
47	0x3e023cfe	0.12718579

backbone.2.conv.1.0.weight f4 [48, 1, 3, 3]
0	0xbcf4f9bf	-0.029904244
1	0xbe36fa90	-0.1786902
2	0xbdfa0edb	-0.12209865
3	0xbd3c15ab	-0.0459191
4	0xbe1d8a75	-0.15384848
5	0xbe10e8a8	-0.14151251
6	0x3d050f0d	0.032485057
7	0xbe033b0f	-0.12815498
8	0xbd8838e6	-0.066514775
9	0xbcb82fa0	-0.022483647
10	0x3d828066	0.06372146
11	0xbd20a47f	-0.039219376
12	0xbe0442b9	-0.12916078
13	0xbdd22765	-0.1026142
14	0xbd941324	-0.07230213
15	0xbe197c9b	-0.1498894
16	0xbe35d1ba	-0.17755786
17	0xbdbb0931	-0.091326125
18	0xbdeef506	-0.11667828
19	0xbd8ea9ec	-0.06966004
20	0xbc4e3576	-0.012585988
21	0x3e3c3bd6	0.183822
22	0x3ec07c8c	0.37595022
23	0x3e6b410b	0.2297403
24	0xbdd01c4c	-0.10161647
25	0xbe18287e	-0.14859197
26	0xbe98718c	-0.2977413
27	0x3df53ab0	0.119740844
28	0x3e59dd2a	0.21275774
29	0xbaa4d371	-0.0012575221
30	0x3e7554d6	0.23958144
31	0x3eebb9fa	0.46040326
32	0x3d877e31	0.06615866
33	0x3db93105	0.09042553
34	0x3e4ed914	0.20199996
35	0x3cddd02f	0.027076809
36	0xbde86c2a	-0.11348756
37	0xbe98da83	-0.2985421
38	0xbdde1676	-0.10844128
39	0xbda95ed3	-0.082700394
40	0xbd90df4d	-0.07073841
41	0x3ca4353d	0.020044917
42	0x3e3c5a4e	0.18393824
43	0x3ec2fc6a	0.38083202
44	0x3dff8af4	0.12477675
45	0x3dec74d3	0.1154572
46	0x3e8202e2	0.25392824
47	0x3e18be0d	0.14916249
48	0xbca16f84	-0.019706495
49	0xbd608388	-0.054812938
50	0x3ccec6d4	0.025241293
51	0xbdd878b5	-0.10569898
52	0xbe861124	-0.26184952
53	0xbe72c168	-0.23706591
54	0xbd530f1c	-0.05152808
55	0xbd63612e	-0.0555126
56	0xbde8ce34	-0.11367455
57	0xbbead90c	-0.0071669873
58	0xbe6b5cee	-0.22984669
59	0xbe9691c5	-0.29408088
60	0x3c9caeda	0.019126344
61	0xbd8fa2db	-0.07013484
62	0xbe878a2d	-0.26472607
63	0xbe068322	-0.1313596
64	0x3c0f4105	0.008743529
65	0xbe211aab	-0.1573283
66	0xbdecc84e	-0.115616426
67	0x3dd12447	0.102119975
68	0xbe3aa17c	-0.18225664
69	0xbe1aad49	-0.15105166
70	0x3d956667	0.07294922
71	0xbe1661d4	-0.14685756
72	0x3d8faef0	0.070157886
73	0x3e15f0da	0.14642659
74	0x3da72e98	0.08163184
75	0x3cfda0f3	0.030960536
76	0x3e774764	0.24148327
77	0x3e2fe16e	0.17175838
78	0xbc41657c	-0.011803981
79	0x3e429008	0.19000256
80	0x3dff484a	0.1246496
81	0xbe1f66bf	-0.15566538
82	0x3e5b8f42	0.21441367
83	0xbd8b6cda	-0.06807871
84	0x3c018980	0.007906318
85	0x3dfb3ca4	0.12267426
86	0xbd919642	-0.071087375
87	0x3e07d687	0.1326543
88	0xbeac7cc5	-0.33688942
89	0x3da83f88	0.082152426
90	0x3d905d66	0.07049064
91	0x3d3b28bf	0.045693155
92	0x3d2f71cc	0.042833135
93	0x3d90ac00	0.070640564
94	0x3e713e03	0.23558812
95	0x3d8a54c9	0.06754453
96	0x3d9c4e19	0.076320834
97	0x3dfa0ff3	0.12210073
98	0x3dad73e0	0.08469367
99	0xbd7824ef	-0.060582098
100	0xbe3264d9	-0.17421283
101	0xbd597906	-0.053093933
102	0xbd285c38	-0.04110357
103	0xbea2f19f	-0.31824967
104	0xbe36943b	-0.17829983
105	0xbcb27894	-0.021786012
106	0xbd38b1f8	-0.0450916
107	0xbd8e3f7c	-0.069457024
108	0xbd798642	-0.060919054
109	0x3dcc42e8	0.09973699
110	0xbac006f8	-0.0014650514
111	0x3e3a9a18	0.18222845
112	0xbec59b99	-0.38595274
113	0x3d4b0dab	0.04957358
114	0xbdc000fd	-0.093751885
115	0x3e61fb73	0.22068577
116	0xbd31995a	-0.043359138
117	0xbde74822	-0.11293055
118	0x3d886940	0.066607
119	0x3d420514	0.047368124
120	0xbea9634d	-0.33083573
121	0x3e976e2f	0.2957625
122	0x3d3ff1ee	0.04686158
123	0xbd8655a3	-0.06559303
124	0x3e242588	0.16029942
125	0xbdcd0730	-0.100111365
126	0xbdadd592	-0.08488001
127	0xbe0a37d9	-0.13497867
128	0xbd1b8ccc	-0.03797607
129	0x3e25cf34	0.16192323
130	0x3ec1efe6	0.3787834
131	0x3ddf1ff0	0.108947635
132	0xbd3cd077	-0.046097245
133	0xbe8daa54	-0.27669013
134	0xbda70b82	-0.08156492
135	0xbd033006	-0.03202822
136	0xbded5393	-0.11588206
137	0x3d12a67f	0.035803314
138	0xbe6e1b5e	-0.23252627
139	0xbe733468	-0.2375046
140	0x3c48188b	0.012212883
141	0xbd76eabe	-0.06028246
142	0xbe61a581	-0.22035791
143	0xbce3f38a	-0.02782609
144	0xb8aece48	-8.3353894e-05
145	0xbdb95ae5	-0.0905054
146	0xbcea6d29	-0.028616505
147	0xbd269d67	-0.040677454
148	0x3d9591bb	0.073031865
149	0x3e17d732	0.14828184
150	0x3da14095	0.07873646
151	0x3e00954e	0.12556955
152	0x3dd09e81	0.10186482
153	0x3d2ef14e	0.042710595
154	0x3d7460fc	0.059662804
155	0xbca9b1e1	-0.020714702
156	0x3e4ed446	0.20198163
157	0x3e69fcf7	0.22850405
158	0x3d22d9fd	0.03975867
159	0x3db0fb59	0.08641691
160	0x3e3903ba	0.18067828
161	0x3dbcc99a	0.0921814
162	0xbd47eacf	-0.048807915
163	0xbd36dfef	-0.044647153
164	0x3db63c0d	0.088981725
165	0xbd2d8d38	-0.042371005
166	0xbe85dd25	-0.26145282
167	0xbda332a2	-0.07968642
168	0xbb8d4a19	-0.0043118116
169	0xbe6bb9e1	-0.23020126
170	0xbd86febc	-0.065915555
171	0x3d3c6435	0.045994002
172	0xbd489e61	-0.048979167
173	0xbd958f03	-0.07302668
174	0x3d04a273	0.032381486
175	0xbe949c35	-0.29025427
176	0xbe613fa0	-0.21996927
177	0x3d2fc2a0	0.04291022
178	0xbe7569bb	-0.23966114
179	0xbe059579	-0.130453
180	0x3dd6f907	0.10496717
181	0x3e0b2061	0.1358657
182	0xbb913db3	-0.004432404
183	0x3e2e0017	0.16992222
184	0x3ebce988	0.3689692
185	0xbd36d99e	-0.04464113
186	0x3d7e3620	0.062063336
187	0x3e30155f	0.17195652
188	0xbd63e434	-0.055637553
189	0xbdbe2923	-0.0928519
190	0x3c8c8cdd	0.017157013
191	0x3e2b99f7	0.16757952
192	0xbdd4ec72	-0.10396661
193	0xbe4b01ec	-0.19824952
194	0x3e936f9f	0.28796098
195	0xbd192a51	-0.03739387
196	0xbe5a0bb6	-0.2129353
197	0x3df958fc	0.121751755
198	0x3d8d0612	0.068859234
199	0xbe8e1e82	-0.2775765
200	0x3d6082fc	0.054812416
201	0xbe787dca	-0.24266735
202	0x3eedb52c	0.46427286
203	0xbdb481b5	-0.08813802
204	0x3e02feab	0.1279246
205	0xbe33aa66	-0.1754547
206	0xb9942a9e	-0.00028260512
207	0xbd4603d7	-0.048343506
208	0x3cd6be94	0.026213922
209	0xbd5903c1	-0.052982096
210	0x3da9ca52	0.08290543
211	0xbefb8eed	-0.4913248
212	0x3e9751c8	0.29554582
213	0x3c84f6bd	0.016230935
214	0x3ed02802	0.40655524
215	0xbe65ee65	-0.22454222
216	0xbc7080e9	-0.014679172
217	0x3d319ffd	0.043365467
218	0x3e127a68	0.14304507
219	0xbd8129d6	-0.06306808
220	0xbe862b64	-0.2620498
221	0xbea323e5	-0.31863323
222	0x3db94692	0.09046663
223	0x3e6539f2	0.22385386
224	0x3e102964	0.1407829
225	0x3d7d0a13	0.061777186
226	0x3e251d07	0.16124354
227	0x3d79e3d6	0.061008297
228	0x3d9fe561	0.078074224
229	0x3e8b5a69	0.27217415
230	0x3e2341a1	0.15943004
231	0x3da99d61	0.08281971
232	0x3e83b655	0.25725046
233	0x3e03f90f	0.12887977
234	0xbd24f262	-0.040270217
235	0xbe171d94	-0.14757377
236	0xbd66d815	-0.056358416
237	0x3e22cbfe	0.1589813
238	0x3ea0e3bf	0.31423756
239	0x3dcbf1f9	0.09958262
240	0xbdece440	-0.11566973
241	0xbe4258af	-0.18979143
242	0xbcfb6931	-0.030689808
243	0x3cee01d2	0.029053602
244	0x3e0cbcef	0.13743947
245	0x3e186989	0.14884008
246	0x3c60f982	0.013731362
247	0x3e2a8157	0.16650902
248	0x3e084c4b	0.13310353
249	0xbd2b6448	-0.041843683
250	0x3dc03636	0.0938534
251	0x3da585b5	0.08082143
252	0x3e186a2d	0.14884253
253	0x3e145e65	0.14489134
254	0x3defce8c	0.117093176
255	0x3dc4c530	0.09607923

backbone.2.conv.1.1.weight f4 [48]
0	0x3f040a08	0.51577806
1	0x3e917b73	0.28414497
2	0x3eb8d5c8	0.36100602
3	0x3e7f9bbe	0.24961755
4	0x3ebc255c	0.36747253
5	0x3ec93373	0.39297065
6	0x3e18572c	0.14877003
7	0x3e94d4ea	0.2906869
8	0x3e30b4a6	0.17256412
9	0x3e9d397a	0.30707914
10	0x3e1bb43c	0.15205473
11	0x3f011d87	0.5043568
12	0x3ea1dfcb	0.31616053
13	0x3e90fd72	0.28318363
14	0x3eba89d0	0.36433268
15	0x3ebf169e	0.37321943
16	0x3e944b64	0.28963768
17	0x3e97fe62	0.29686266
18	0x3f0be081	0.5463944
19	0x3f034d08	0.51289415
20	0x3e6faad7	0.23405014
21	0x3e3b1e49	0.18273272
22	0x3ea9e94b	0.331858
23	0x3eade8df	0.3396673
24	0x3ec001c5	0.3750135
25	0x3e667f79	0.22509564
26	0x3ec324bf	0.38113973
27	0x3e549d22	0.20763066
28	0x3e8dec07	0.27719137
29	0x3e854b4b	0.26034006
30	0x3f00ad4c	0.5026443
31	0x3e775e8f	0.24157165
32	0x3ea0ab51	0.31380704
33	0x3e401bdd	0.18760629
34	0x3e8d66c7	0.27617475
35	0x3eaf725b	0.34266934
36	0x3e68632e	0.22694084
37	0x3eb5c6ea	0.35503322
38	0x3eaa31c7	0.33241102
39	0x3ea85566	0.32877654
40	0x3eaf999e	0.34296888
41	0x3e69bcec	0.22825974
42	0x3eaa1786	0.33221072
43	0x3eaafbd7	0.33395264
44	0x3eac37c4	0.33636296
45	0x3e3c325a	0.18378583
46	0x3eaa0b65	0.33211818
47	0x3e892258	0.26784015

backbone.2.conv.1.1.bias f4 [48]
0	0xbcb61d8b	-0.022230884
1	0x3c677693	0.014127391
2	0x3c120dc3	0.008914414
3	0x3f3a82f0	0.72856045
4	0x3cad8d0c	0.02118542
5	0x3c4ff335	0.012692262
6	0x3f2e3b0e	0.6805886
7	0xbef46734	-0.47734988
8	0x3e0a9f4e	0.13537332
9	0xbd2b0cc1	-0.04176021
10	0x3dbcfb09	0.09227569
11	0x3df7aa08	0.12092978
12	0xbc6f83f1	-0.01461886
13	0x3cdbc1e0	0.026825845
14	0xbc98f444	-0.018671162
15	0x3b5f27aa	0.0034050741
16	0x3c3eda49	0.011648723
17	0xbd53f2a7	-0.051745083
18	0x3d9dba8b	0.07701596
19	0x3c5add7c	0.01335847
20	0x3f2feead	0.68723565
21	0xbaf34d27	-0.0018562422
22	0xbb9cc006	-0.004783633
23	0x3b95f580	0.004576385
24	0x3b3070ac	0.0026922626
25	0x3b62adf7	0.0034588554
26	0xbc71f556	-0.014767965
27	0x3d9f0647	0.07764869
28	0x3e125c6c	0.14293069
29	0xbd9bc7fc	-0.07606503
30	0xb98973be	-0.0002621691
31	0x3d17574c	0.036948487
32	0xbc944516	-0.018099349
33	0x3f2f6c66	0.6852478
34	0x3f64c62d	0.8936489
35	0xbcc266db	-0.023730686
36	0x3f0a5eb1	0.5405074
37	0x3e9af880	0.30267715
38	0xbb878cb8	-0.004136648
39	0x3dd85c0d	0.10564432
40	0x3cf57009	0.02996065
41	0x3ba98986	0.005173865
42	0x3b9cb84e	0.004782713
43	0xbc8c43fc	-0.017122261
44	0xbcf3896d	-0.029728616
45	0x3ea1ccc9	0.3160155
46	0x3d7ebf0f	0.062193926
47	0xbda57491	-0.08078874

backbone.2.conv.1.1.running_mean f4 [48]
0	0xbdc035b2	-0.093852416
1	0xbd9309ab	-0.071795784
2	0x3c07114d	0.008243871
3	0x3f16cb83	0.58904284
4	0x3c7aa257	0.015297494
5	0xbd1017f1	-0.035179082
6	0xbdfe3fcf	-0.12414514
7	0xbcf32b4b	-0.02968373
8	0x3de8e66e	0.11372076
9	0xbc23f6c7	-0.010007567
10	0x3c8c88ed	0.017155135
11	0xbe107698	-0.1410774
12	0xbbe6db70	-0.007045202
13	0x3b827be4	0.003982054
14	0xbba5575e	-0.0050458154
15	0xbdbc5c12	-0.091972485
16	0x3c16cdb0	0.009204313
17	0x3e18bd2f	0.14915918
18	0xbdae526e	-0.08511816
19	0xbea46ed2	-0.321158
20	0x3e99fec6	0.3007719
21	0xbc1a2c5b	-0.009409989
22	0xbc8e217a	-0.017349947
23	0x3b144cab	0.0022628705
24	0xba837df7	-0.0010032047
25	0x3dc23dd1	0.09484447
26	0xbb6261f4	-0.0034543248
27	0x3bdbba87	0.0067055854
28	0x3e87db45	0.26534477
29	0xbc869f03	-0.016433245
30	0xbe11c7a3	-0.14236312
31	0x3e00bf49	0.1257297
32	0x3d5419ae	0.051782303
33	0xbddc279c	-0.107497424
34	0xbe34e90d	-0.17667027
35	0x3c51611d	0.012779501
36	0xbd890bd7	-0.066917114
37	0xbe1c9042	-0.15289405
38	0x3b88c2da	0.0041736187
39	0x3e4a83f3	0.19776897
40	0xbe0cef33	-0.13763122
41	0x3dedce89	0.11611659
42	0xbd83df82	-0.06439115
43	0x3d057645	0.032583494
44	0x3cb9b08c	0.022667192
45	0x3e0a83fe	0.13526914
46	0xbe90e7b2	-0.2830177
47	0x3d114bd5	0.03547271

backbone.2.conv.1.1.running_var f4 [48]
0	0x3c9bbddd	0.019011432
1	0x3c05bd18	0.008162759
2	0x3bcbffa4	0.006225543
3	0x3c8cfa12	0.017209087
4	0x3c98af94	0.01863841
5	0x3ba1bbd5	0.0049357214
6	0x3cd26867	0.025684549
7	0x3b206a7d	0.0024477534
8	0x3d0863f7	0.03329846
9	0x3ad4d805	0.0016238695
10	0x3a866967	0.0010254801
11	0x3d0bf097	0.03416499
12	0x39d0522b	0.00039734071
13	0x3b4e23a2	0.0031454344
14	0x3bc34e63	0.005960272
15	0x3c94a82f	0.018146602
16	0x3b0dda46	0.0021644994
17	0x3c7743bb	0.015091832
18	0x3ca43228	0.020043448
19	0x3c7ec035	0.015548755
20	0x3c34834b	0.011017631
21	0x3b2b406e	0.0026130932
22	0x3b254d9f	0.0025223268
23	0x3a594358	0.0008287928
24	0x3b966c89	0.004590575
25	0x3cabd4ac	0.020975433
26	0x3bb745d6	0.005593042
27	0x3a0584c0	0.00050933287
28	0x3bd2f12f	0.0064374427
29	0x39638b8f	0.00021700397
30	0x3cf3a97a	0.029743899
31	0x3ab3dd6d	0.0013722606
32	0x3bb8901c	0.0056324136
33	0x3c95367c	0.018214457
34	0x3c96fa0a	0.018429775
35	0x3c127416	0.00893881
36	0x3ba2275a	0.0049485387
37	0x3d21b685	0.039480705
38	0x3b1eb3c3	0.0024216033
39	0x3d86fb07	0.065908484
40	0x3d08d971	0.033410493
41	0x3c11e1f1	0.008903966
42	0x3b939748	0.004504118
43	0x3bc3eaa3	0.0059788986
44	0x3baf7b8f	0.0053553055
45	0x3cca516d	0.02469703
46	0x3c8af9cf	0.016964821
47	0x3aa92793	0.0012905471

backbone.2.conv.2.weight f4 [8, 48, 1, 1]
0	0x3e07af32	0.13250425
1	0x3e2532cd	0.1613266
2	0x3d3215d3	0.043477844
3	0x3d5f3268	0.05449143
4	0x3ec2956b	0.38004622
5	0xbd272af8	-0.040812463
6	0x3e69a6c9	0.2281753
7	0xbe7ccb1c	-0.24686855
8	0xbe5a0301	-0.21290208
9	0xbd8d84c6	-0.0691009
10	0x3d87239a	0.06598587
11	0x3e75bd18	0.23997915
12	0x3c8b9393	0.017038142
13	0xbdd1a41a	-0.10236378
14	0x3d3c3f75	0.045958955
15	0x3e81f62c	0.25383127
16	0xbe350877	-0.1767901
17	0xbdd3fa58	-0.10350484
18	0x3e0597f3	0.13046245
19	0x3ecbc3a0	0.39797688
20	0x3d04e00a	0.032440223
21	0xbd767c5e	-0.0601772
22	0x3c817639	0.015803443
23	0xbd129baf	-0.035793003
24	0x3de93858	0.113877
25	0xbced5b96	-0.028974336
26	0x3e4b7e66	0.19872436
27	0xbe4b8ca7	-0.19877873
28	0xbe2f030a	-0.17091003
29	0xbdbd411b	-0.092409335
30	0x3cf9eba1	0.030507864
31	0xbd7d386b	-0.061821382
32	0xbda5c1cd	-0.08093605
33	0x3ea17c6b	0.31540236
34	0x3e593044	0.21209818
35	0xbddcdd44	-0.107843906
36	0x3d592999	0.053018186
37	0x3e494a9b	0.19657366
38	0x3d44482c	0.04792039
39	0xbce747b4	-0.028232433
40	0x3e844246	0.25831813
41	0x3c23dc52	0.010001259
42	0x3d3f3c4f	0.046688374
43	0xbd914310	-0.07092869
44	0xbdf394f5	-0.11893646
45	0xbe292e55	-0.1652158
46	0xbca38f23	-0.019965714
47	0xbdf16848	-0.11787468
48	0x3d4c9ad6	0.04995235
49	0x3e2863a9	0.16444267
50	0x3e65ce0f	0.22441886
51	0xbeeeef86	-0.46667117
52	0x3be65e72	0.0070303017
53	0x3e407d4f	0.18797801
54	0x3d404be7	0.046947386
55	0xbe0a798b	-0.13522927
56	0x3d6116de	0.05495345
57	0xbd34f5ab	-0.0441796
58	0xbd26d78e	-0.040732913
59	0xbdf970bc	-0.121797055
60	0xbd9fc88e	-0.07801925
61	0xbdb820d2	-0.08990635
62	0x3d087570	0.033315122
63	0x3d8d2a12	0.0689279
64	0xbcd029c3	-0.025410539
65	0x3d6b5d01	0.057461742
66	0xbe5aa90c	-0.21353549
67	0x3d06f70a	0.03295044
68	0x3d570d1e	0.052502744
69	0xbd90aa75	-0.07063762
70	0x3c4dfcac	0.012572449
71	0xbd156fb5	-0.036483485
72	0xbb21031a	-0.00245685
73	0x3d26476c	0.040595457
74	0x3e26d5f7	0.16292559
75	0x3d784469	0.060612116
76	0x3dff540f	0.12467205
77	0xbd87979a	-0.066207126
78	0x3db5ecb9	0.08883042
79	0xbde920a6	-0.1138318
80	0xbddcbf26	-0.10778646
81	0x3d97484c	0.073868364
82	0xbe1c8f4a	-0.15289035
83	0xbd340429	-0.04394928
84	0x3eef7dbb	0.46775612
85	0xbe912483	-0.2834817
86	0x3c22b833	0.009931612
87	0xbe891913	-0.26776943
88	0xbce7ff02	-0.02831984
89	0x3d36a97f	0.044595238
90	0xbd088dda	-0.033338405
91	0xbe33e55a	-0.1756796
92	0xbd9d72da	-0.07687922
93	0xbe8aaf03	-0.27086648
94	0xbbe7d207	-0.0070745978
95	0xbe2e61bc	-0.1702947
96	0x3e38ebb5	0.18058665
97	0xbd20e982	-0.03928519
98	0xbe0a1716	-0.13485369
99	0xbea2d0c7	-0.3179991
100	0x3e52e33e	0.20594499
101	0xbebdf823	-0.37103376
102	0xbe1ddc2f	-0.15416025
103	0x3d6bf3c8	0.057605535
104	0x3cf658c6	0.030071627
105	0x3e2eca5f	0.17069386
106	0xbde4afc2	-0.11166336
107	0xbe8fef46	-0.2811224
108	0x3e865910	0.26239824
109	0xbe65ecf0	-0.22453666
110	0xbe040394	-0.1289199
111	0xbda7ad45	-0.081873454
112	0x3dd68fbc	0.10476634
113	0xbd290864	-0.041267768
114	0x3db16ac7	0.08662944
115	0xbd61d76d	-0.055137087
116	0x3e29c5d1	0.16579367
117	0x3da69c77	0.08135312
118	0x3e88f323	0.26748
119	0x3e6d59c4	0.23178774
120	0xbdbef807	-0.09324651
121	0xbdb900ce	-0.090333566
122	0xbe950315	-0.29103914
123	0x3df9512f	0.12173688
124	0x3e57fb67	0.21091996
125	0x3e811e32	0.2521835
126	0x3d9604d6	0.07325141
127	0x3d86f3ad	0.06589446
128	0xbe6a30db	-0.228702
129	0x3e11946b	0.14216773
130	0x3e215f56	0.15759024
131	0xbe29a263	-0.16565852
132	0xbdeb3ce4	-0.11486223
133	0x3e5179a6	0.20456561
134	0x3e7066cf	0.23476718
135	0xbe2481bf	-0.16065119
136	0x3dccbb2b	0.09996637
137	0xbe64d757	-0.2234777
138	0x3e409e28	0.18810332
139	0xbe184fee	-0.14874241
140	0xbe414966	-0.18875656
141	0x3dca31fa	0.098728135
142	0xbe0543f5	-0.13014205
143	0x3e2e0107	0.1699258
144	0xbdc78d7c	-0.09743783
145	0x3e2e3f4b	0.17016332
146	0x3e23dd59	0.16002406
147	0x3e956bbf	0.29183766
148	0xbe4bdb6c	-0.19907922
149	0x3e0fe0e7	0.14050637
150	0xbd6696ab	-0.056296032
151	0xbd653b96	-0.05596503
152	0xbc6ef7a8	-0.014585413
153	0xbd11f6c4	-0.035635725
154	0x3e54e675	0.20791037
155	0xbe7a4598	-0.2444061
156	0xbcd447b1	-0.025913091
157	0x3d8ea26a	0.06964572
158	0x3e643fd9	0.22289981
159	0x3cf833d1	0.030298145
160	0xbd6f9ba1	-0.05849803
161	0x3d3cfe3a	0.046140887
162	0xbc292b60	-0.010325283
163	0xbe601dff	-0.21886443
164	0xbd8120bc	-0.06305072
165	0x3daa94e9	0.083291836
166	0x3db2884c	0.08717403
167	0x3d856ec0	0.065152645
168	0x3e01b457	0.1266645
169	0xbdfd46bd	-0.12367008
170	0x3e2d9a0c	0.16953295
171	0x3dccd5cf	0.10001718
172	0xbda18e2a	-0.07888444
173	0xbdd08a3f	-0.10182618
174	0x3e897e46	0.2685415
175	0x3d31ffcc	0.043456838
176	0xbdbd7c6c	-0.09252247
177	0xbe183a6f	-0.1486604
178	0x3e80f9ad	0.25190488
179	0xbcfa54e2	-0.030558053
180	0x3c613bcd	0.013747168
181	0x3e475ee6	0.19469795
182	0x3d868efc	0.06570241
183	0xbbec6ac5	-0.0072148764
184	0xbd7e1341	-0.06203008
185	0x3e8baead	0.27281705
186	0x3e94bdab	0.29050955
187	0x3bc4c874	0.006005341
188	0xbd68ce30	-0.05683726
189	0x3ccf8e57	0.025336428
190	0xbe8d8e32	-0.2764755
191	0x3d97fd34	0.074213415
192	0xbd3a26db	-0.04544721
193	0xbe225551	-0.15852858
194	0x3e12642d	0.14296027
195	0x3d79fc3e	0.061031573
196	0x3dac7c3f	0.084221356
197	0x3e3f7300	0.18696213
198	0xbe2688ad	-0.16263075
199	0xbd282e2f	-0.04105967
200	0xbc1b6724	-0.00948504
201	0xbc6fcdd8	-0.014636479
202	0x3dc06289	0.09393794
203	0x3e1f7124	0.15570503
204	0x3e1a86fc	0.15090555
205	0xbce4c2c4	-0.027924903
206	0x3e60237d	0.21888538
207	0xbe8b4b02	-0.27205664
208	0xbdb2a5e3	-0.08723047
209	0xbe3c57e8	-0.18392909
210	0xbb0ea38f	-0.002176497
211	0xbe15269a	-0.14565507
212	0xbe4473c3	-0.19184785
213	0x3d927f7f	0.07153224
214	0x3c7144fa	0.014725918
215	0x3d8ef47c	0.069802254
216	0x3e94ceb5	0.29063955
217	0x3ca60d65	0.020270059
218	0x3e8ae5b2	0.2712837
219	0xbceb7a33	-0.028744793
220	0xbdd4e513	-0.10395255
221	0xbd907351	-0.07053245
222	0xbe039aab	-0.1285197
223	0xbd7b1215	-0.06129654
224	0x3e4dae5f	0.20086049
225	0xbde8a82c	-0.11360201
226	0x3e33c606	0.17556009
227	0x3e347ba4	0.1762529
228	0x3cbfd66f	0.02341768
229	0xbd4ad100	-0.049515724
230	0x3dba2bab	0.0909036
231	0xbc0695ef	-0.008214458
232	0xbd50c106	-0.05096533
233	0xbc1c1f5c	-0.009528961
234	0x3c0fcc41	0.008776725
235	0x3dde4de3	0.108546995
236	0x3e24e802	0.16104129
237	0x3e429a4e	0.19004175
238	0xbe9f1889	-0.31073406
239	0xbe5f130b	-0.21784608
240	0x3dc638a4	0.09678772
241	0xbdf55d33	-0.11980667
242	0x3e654a59	0.22391643
243	0x3ceac8f0	0.028660268
244	0x3e7bef15	0.24602921
245	0x3db7547f	0.08951663
246	0x3e4574a2	0.19282773
247	0xbe288aba	-0.1645917
248	0xbe54c3ed	-0.20777865
249	0x3e3559b2	0.17709997
250	0xbcc88d32	-0.02448139
251	0xbea38fa2	-0.3194552
252	0x3e83f633	0.25773773
253	0x3d86553d	0.06559227
254	0x3e3b6897	0.18301617
255	0xbdc26c48	-0.09493309

backbone.2.conv.3.weight f4 [8]
0	0x3f119b71	0.5687781
1	0x3ee1f2cd	0.44130555
2	0x3ee4ea5e	0.44710058
3	0x3ee2598c	0.44208944
4	0x3ebc1fdb	0.36743054
5	0x3f0af403	0.5427858
6	0x3eb84146	0.359873
7	0x3f0eaffa	0.5573727

backbone.2.conv.3.bias f4 [8]
0	0xb82d4f1e	-4.1320098e-05
1	0x37d9e3e7	2.5974541e-05
2	0x39023d87	0.00012420687
3	0x3701dd2a	7.740493e-06
4	0xb872f5d9	-5.792626e-05
5	0xb70a4508	-8.241514e-06
6	0xb4c3f610	-3.6500614e-07
7	0x38b3abcf	8.567387e-05

backbone.2.conv.3.running_mean f4 [8]
0	0x3f5f4095	0.8720792
1	0xbeac7f06	-0.3369066
2	0xbbf34dcc	-0.0074250456
3	0x3ec0139a	0.37514955
4	0xbd07c641	-0.033148054
5	0x3f24a807	0.6431889
6	0xbe3113f1	-0.17292763
7	0x3daf6020	0.08563256

backbone.2.conv.3.running_var f4 [8]
0	0x3dd883ea	0.105720356
1	0x3da7cf9f	0.081938975
2	0x3db1413c	0.086550206
3	0x3d351332	0.04420776
4	0x3d5129a8	0.051065117
5	0x3dd1883c	0.10231063
6	0x3d93551a	0.07193966
7	0x3e1abfe8	0.15112269
