ML Model/tv_detection_epoch_70/e-49-0.793.pth (torch_old, 466521 bytes, 205 tensors)

backbone.0.0.weight f4 [16, 3, 3, 3]
-4.666332e-39 -4.718413e-38 -1.695361e-39 -6.685177e-39 6.34473e-40 1.5682053e-37 -3.5817817e-38 1.020206e-39
-1.25444e-39 3.8229014e-38 1.516491e-39 -1.333083e-39 6.044592e-39 3.037655e-39 -5.0393417e-38 3.4075364e-38
6.851446e-39 -4.7818486e-38 -3.788259e-39 -4.504271e-39 2.2969927e-38 5.165422e-39 8.99569e-40 -4.46782e-40
5.771204e-39 2.061914e-39 -1.461882e-39 -0.0023719382 -0.005855524 -0.03594022 0.13448228 0.34026703
0.00958882 -0.20301871 -0.25234464 -0.02234147 -0.011834456 0.032777127 -0.064984895 0.284765
0.7313332 0.07543927 -0.3390621 -0.56709194 -0.0677272 0.16031109 0.12543562 0.10108631
0.13012421 0.24865401 0.0598966 -0.093597725 -0.13559158 0.0076763574 -0.102030165 0.08205755
-0.025723385 -0.43552607 0.7101603 -0.31424615 -0.6811948 0.90163183 -0.302858 -0.124381
0.1693474 -0.060214452 -0.8562446 1.2993084 -0.53763956 -1.0751982 1.4431753 -0.47978905
0.009564295 0.030492872 0.09840241 -0.19670682 0.41682363 -0.0969659 -0.2590213 0.4766515
-0.09567684 -0.0041837143 -0.0036898495 0.09230913 0.07218144 0.21303797 -0.2617073 0.04216255
0.3320529 -0.2891482 -0.0077705174 -0.041903395 0.073022395 0.045937695 0.5066687 -0.6214833
0.05761744 0.6556344 -0.6817153 0.028191915 -0.00091930653 -0.040883865 0.08069428 0.086970195
-0.13443968 0.043981142 0.10266555 -0.17095461 -0.09509308 -0.012957829 -0.060889706 0.0679815
0.00045775078 -0.11764166 0.15069516 0.07843798 -0.1771379 0.030581215 0.018498724 -0.053975694
0.106589355 -0.16327558 -0.32174617 0.19971476 -0.09249461 -0.43502778 0.04039438 -0.01872672
-0.1470927 -0.0055026133 -0.14675662 -0.2962027 -0.011618795 -0.06214589 -0.16193946 0.16696942
0.17094521 -0.1882431 0.11220647 0.6051659 0.24312311 -0.19118837 0.5551326 0.61439884
0.11870311 -0.018124662 0.116707005 0.057927497 -0.16183195 -0.059649576 0.038652495 -0.13898407
-0.09245552 -0.20928755 -0.1307778 0.15309234 -0.11721569 -0.49516544 -0.24538945 0.067082554
-0.4904364 -0.59688044 0.0012032305 -0.009325148 0.0040288954 0.47328404 -0.105656244 -0.15496643
0.15250756 -0.048587427 0.010446153 -0.044493947 -0.015259858 0.032383274 0.92630637 -0.20260347
-0.34407657 0.28675538 -0.149102 -0.009419792 0.019681504 -0.011445089 0.00042353183 0.24675019
-0.041592788 -0.0775887 0.023873303 -0.06547311 -0.021446778 0.024122579 0.0062019937 -0.0722061
-0.037865512 0.13375856 0.25077868 -0.05539824 0.07043531 0.2983208 -0.05444422 -0.17028879
-0.1975723 -0.028560009 0.14863868 0.2973147 -0.036784522 0.15081 0.3206725 0.0042998088
0.03792899 0.10359417 0.03560189 0.1733275 0.34044504 0.056960765 0.14871185 0.267357
0.041768745 0.03690224 -0.13867532 -0.18395357 0.6720488 -0.51901346 0.017137771 0.7136043
-0.687612 -0.03937353 0.16325068 -0.21495332 -0.12882634 1.068381 -0.91951245 0.009830944
1.0364221 -0.9800991 0.055665664 -0.0065640053 -0.012103159 -0.1119253 0.396991 -0.33704662
0.009001735 0.4003652 -0.39568257 -5.005455e-39 4.39332e-39 -2.575034e-39 -6.299474e-39 -3.152402e-39
-4.41869e-39 3.672194e-39 -1.911908e-39 1.571132e-39 3.162616e-39 -4.090413e-39 1.173568e-39 1.554711e-39
00000000: d6cf 3280 8a72 8081 fa75 1280 8ecb 4880
00000010: a7e8 0600 fb73 5502 c002 4381 eb1b 0b00
00000020: dea8 0d80 7823 5001 5c83 1000 1884 0e80
00000030: ddd1 4100 bf13 2100 162f 8981 2086 3901
00000040: 0b9b 4a00 9f2c 8281 2040 2980 130c 3180
00000050: d01e fa00 183f 3800 a2cb 0900 72dd 0480
00000060: c5d7 3e00 c773 1600 22eb 0f80 8572 1bbb
00000070: b2df bfbb 0d36 13bd b9b5 093e 7b37 ae3e
00000080: 6d1a 1d3c 23e4 4fbe 5133 81be 7505 b7bc
00000090: 4ee5 41bc 4f41 063d cd16 85bd b8cc 913e
000000a0: a738 3b3f e77f 9a3d 8c99 adbe f02c 11bf
000000b0: 8fb4 8abd 9728 243e 3272 003e 5706 cf3d
000000c0: 483f 053e 289f 7e3e 2356 753d 2ab0 bfbd
000000d0: 85d8 0abe f489 fb3b 31f5 d0bd ca0d a83d
000000e0: d9b9 d2bc 46fd debe 11cd 353f dfe4 a0be
000000f0: c862 2ebf 58d1 663f 3410 9bbe 77bb febd
00000100: 6869 2d3e 6ea3 76bd d932 5bbf bd4f a63f
00000110: bfa2 09bf 18a0 89bf f8b9 b83f e9a6 f5be
00000120: 90b3 1c3c 30cc f93c 3487 c93d 836d 49be
00000130: e869 d53e 0f96 c6bd 719e 84be aa0b f43e
00000140: 38f2 c3bd 8a17 89bb 67d1 71bb 920c bd3d
00000150: ddd3 933d a026 5a3e 80fe 85be a3b2 2c3d
00000160: d602 aa3e 3c0b 94be d39f febb e5a2 2bbd
00000170: c48c 953d 2a29 3c3d 0ab5 013f 8819 1fbf
00000180: 4400 6c3d a8d7 273f e584 2ebf bbf2 e63c
00000190: 9efd 70ba d775 27bd 0b43 a53d 6e1d b23d
000001a0: 8eaa 09be 9225 343d 5142 d23d ba0e 2fbe
000001b0: 29c0 c2bd 134d 54bc 7c67 79bd e239 8b3d
000001c0: 45fe ef39 1cee f0bd d54f 1a3e 17a4 a03d
000001d0: a363 35be 7585 fa3c a38a 973c 9e15 5dbd
000001e0: 854b da3d b731 27be eabb a4be 0782 4c3e
000001f0: d06d bdbd f6bb debe 9474 253d c768 99bc
00000200: 789f 16be 444f b4bb 5e47 16be e1a7 97be
00000210: c25c 3ebc b08c 7ebd 75d3 25be 08fa 2a3e
00000220: 430c 2f3e cdc2 40be 81cc e53d 27ec 1a3f
00000230: 44f5 783e e2c6 43be 2c1d 0e3f 3e49 1d3f
00000240: 9e1a f33d 2c7a 94bc 1504 ef3d 6245 6d3d
00000250: 46b7 25be 1d53 74bd 1452 1e3d d751 0ebe
00000260: 5259 bdbd 7a4f 56be 9eea 05be 3dc4 1c3e
00000270: c80e f0bd 5386 fdbe 5f47 7bbe 9462 893d
00000280: 7b1a fbbe 28cd 18bf b7b5 9d3a 81c8 18bc
00000290: d304 843b 4952 f23e 4d62 d8bd 85af 1ebe
000002a0: f12a 1c3e 9c03 47bd 5726 2b3c 493f 36bd
000002b0: 7c04 7abc 53a4 043d 6a22 6d3f 4977 4fbe
000002c0: ce2a b0be 9ad1 923e 32ae 18be 7955 1abc
000002d0: 1b3b a13c 2f84 3bbc 7b0d de39 15ac 7c3e
000002e0: 335d 2abd d3e6 9ebd f291 c33c c416 86bd
000002f0: 27b1 afbc b79c c53c 183a cb3b cbe0 93bd
00000300: de18 1bbd 01f8 083e 1066 803e 44e9 62bd
00000310: 6340 903d 81bd 983e e700 5fbd 2f60 2ebe
00000320: 6550 4abe aef6 e9bc bd34 183e a239 983e
00000330: 5eab 16bd f06d 1a3e 302f a43e 69e5 8c3b
00000340: 6e5b 1b3d 2e29 d43d 4ad3 113d c47c 313e
00000350: d04e ae3e b14f 693d eb47 183e 04e3 883e
00000360: b415 2b3d ce26 173d e700 0ebe 535e 3cbe
00000370: 640b 2c3f 11de 04bf 8364 8c3c c5ae 363f
00000380: 5707 30bf 2346 21bd 302b 273e b91c 5cbe
00000390: 0deb 03be b5c0 883f 2b65 6bbf f811 213c
000003a0: 7ba9 843f c6e7 7abf ae01 643d de16 d7bb
000003b0: 544c 46bc 1739 e5bd 6842 cb3e 6091 acbe
000003c0: 037c 133c abfc cc3e e896 cabe 2c81 3680
000003d0: cad6 2f00 260a 1c80 5f98 4480 9d53 2280
000003e0: 831d 3080 95fc 2700 9fd1 1480 ad1b 1100
000003f0: 1670 2200 688a 2c80 6ec7 0c00 e7ed 1000

backbone.0.1.weight f4 [16]
2.70765e-39 0.1557651 0.14022866 0.27652976 0.19375221 0.25265074 0.03300014 0.3019712
0.09099431 -1.521535e-39 0.48699075 0.118831545 0.18661143 0.32795662 4.870172e-39 -5.577982e-39
00000000: d47b 1d00 e380 1f3e 1a98 0f3e 4f95 8d3e
00000010: fb66 463e 705b 813e 282b 073d f89b 9a3e
00000020: 3a5b ba3d 6c91 1080 da56 f93e f45d f33d
00000030: 1117 3f3e eee9 a73e 0f08 3500 25bd 3c80

backbone.0.1.bias f4 [16]
-1.943132e-39 0.57464576 0.39318794 0.24720134 0.87558407 0.5309829 0.5518879 0.50041586
0.58521867 -1.6694e-40 -0.17653354 0.92966706 0.4601449 -0.34166136 1.20722e-40 -8.8354e-40
00000000: a928 1580 fc1b 133f ee4f c93e 5922 7d3e
00000010: 4726 603f 7fee 073f 8748 0d3f 411b 003f
00000020: e4d0 153f 5cd1 0180 35c5 34be a9fe 6d3f
00000030: 1d98 eb3e 3dee aebe 8650 0100 f39e 0980

backbone.0.1.running_mean f4 [16]
-1.0098318e-36 69.74528 10.50086 17.707836 -171.87564 -52.211018 78.629715 223.14099
-3.4981444 -2.4515674e-36 -7.5581293 167.04236 103.22632 74.968124 -1.3782004e-36 -3.76471e-36
00000000: 61d0 ab83 957d 8b42 8603 2841 a6a9 8d41
00000010: 2ae0 2bc3 15d8 50c2 6a42 9d42 1824 5f43
00000020: 99e1 5fc0 698e 5084 32dc f1c0 d80a 2743
00000030: e073 ce42 aeef 9542 187d ea83 1022 a084

backbone.0.1.running_var f4 [16]
6e-45 3602.4607 8585.214 1865.6206 13217.891 9116.525 5254.3438 21763.842
5868.6826 6e-45 2664.0645 11915.339 6374.3354 4674.962 6e-45 6e-45
00000000: 0400 0000 5f27 6145 db24 0646 dc33 e944
00000010: 9087 4e46 1a72 0e46 c032 a445 af07 aa46
00000020: 7665 b745 0400 0000 0881 2645 5b2d 3a46
00000030: af32 c745 b217 9245 0400 0000 0400 0000

backbone.1.conv.0.0.weight f4 [16, 1, 3, 3]
-9.0828187e-38 6.294558e-38 -3.262105e-38 -2.235695e-39 6.613193e-39 -4.283461e-39 4.6125875e-38 -5.04834e-39
2.497661e-38 -0.013976913 -0.058993902 0.02381885 -0.002464685 -0.12563883 0.75739187 0.014318919
0.0495445 -0.8035504 -0.016548114 -0.05909472 -0.1601976 -0.024598472 0.07050595 1.0901911
-0.0022654058 -0.036883194 -0.053739894 -0.046651125 -0.02595818 -0.1026191 0.049175747 0.77412295
-0.34687582 -0.02882799 -0.010280177 -0.1547561 0.58925956 1.944788 0.44712552 0.22825575
0.4484831 0.18504441 -0.8472069 -2.1325583 -0.73893404 -0.1691431 0.079791635 -0.15932289
0.1493395 0.39584938 -1.6526158 0.08600564 1.3318648 0.39262855 0.011401059 0.064635426
-0.078753665 0.058268312 0.024754312 -0.8159632 0.050339393 -0.03684282 0.99370354 -0.49232578
-0.2518219 0.7651989 -2.3719065 -0.3192426 2.6559975 -0.47833252 -0.17237338 0.64029115
-0.0194595 0.10883361 -0.03396811 0.039446678 -1.0064504 0.20070782 0.020123096 -0.048141688
-0.06463742 -5.144485e-39 -6.41022e-39 -6.480306e-39 1.137301e-39 1.553702e-39 5.86038e-39 -6.596014e-39
6.116026e-39 -2.146188e-39 0.07900892 -0.15258649 -0.47659814 -0.14122073 0.15712419 0.33538994
-0.29379612 0.3424939 0.4665007 0.1551756 1.5668129 1.005837 0.05558295 0.028546616
-0.121742524 -0.34715286 -1.6421041 -0.98279357 -0.03689132 0.084529765 0.028472561 -0.008792655
0.034894727 -0.5984534 -0.015834963 0.09640901 0.90272456 -0.0050209896 0.044443205 -0.14677253
0.07814229 0.1140527 -0.11338076 -0.08560352 -0.035049137 0.6992688 -3.241896e-39 -4.007467e-39
2.645926e-39 4.302732e-39 5.458336e-39 -7.024734e-39 -3.69754e-39 -3.274647e-39 -2.544565e-39 -6.06755e-40
5.828159e-39 -7.139063e-38 -5.68663e-39 -6.329836e-39 -4.5099507e-38 5.402483e-39 -5.959742e-39 -5.42347e-39
00000000: 0242 f781 ab5a ab01 1c9b 3181 3558 1880
00000010: e402 4800 8ca4 2e80 1622 7b01 b8f8 3680
00000020: 50fc 0701 6cff 64bc 97a3 71bd c01f c33c
00000030: 8d86 21bb 77a7 00be 6fe4 413f e699 6a3c
00000040: 2cef 4a3d 7bb5 4dbf e98f 87bc 4e0d 72bd
00000050: d70a 24be bc82 c9bc 6c65 903d 628b 8b3f
00000060: 3477 14bb d512 17bd 5d1e 5cbd 4015 3fbd
00000070: 40a6 d4bc f629 d2bd 826c 493d ec2c 463f
00000080: b599 b1be ad28 ecbc 306e 28bc 6278 1ebe
00000090: b7d9 163f d0ee f83f a3ed e43e e0bb 693e
000000a0: 949f e53e 487c 3d3e 8de2 58bf d67b 08c0
000000b0: c82a 3dbf d933 2dbe cc69 a33d 8a25 23be
000000c0: 74ec 183e c5ac ca3e ea88 d3bf ba23 b03d
000000d0: 8c7a aa3f 9c06 c93e 82cb 3a3c 945f 843d
000000e0: 9a49 a1bd c1aa 6e3d 8ec9 ca3c f7e2 50bf
000000f0: ae30 4e3d 7fe8 16bd 5b63 7e3f 2012 fcbe
00000100: cdee 80be 13e4 433f 51cd 17c0 c473 a3be
00000110: ddfb 2940 00e8 f4be a682 30be 1fea 233f
00000120: 8869 9fbc 28e4 de3d 2522 0bbd d792 213d
00000130: 5ed3 80bf 5a86 4d3e 31d9 a43c 3830 45bd
00000140: a060 84bd bb04 3880 16cd 4580 7590 4680
00000150: 5562 0c00 17eb 1000 5bd0 3f00 01d3 4780
00000160: fe98 4200 b35e 1780 6ecf a13d a23f 1cbe
00000170: ac04 f4be 2b9c 10be 2ae5 203e 3bb8 ab3e
00000180: 726c 96be 5c5b af3e 2ed9 ee3e 5ae6 1e3e
00000190: 538d c83f 44bf 803f f3aa 633d 98da e93c
000001a0: 2554 f9bd 05be b1be 7830 d2bf 5c98 7bbf
000001b0: 5a1b 17bd f11d ad3d 4a3f e93c 110f 10bc
000001c0: c6ed 0e3d 3e34 19bf 53b8 81bc 1672 c53d
000001d0: f518 673f 1d87 a4bb 140a 363d 8a4b 16be
000001e0: 1109 a03d 7694 e93d 2c34 e8bd e650 afbd
000001f0: af8f 0fbd 4803 333f 164d 2380 30a3 2b80
00000200: c4cf 1c00 44da 2e00 9f6f 3b00 1a7e 4c80
00000210: 3d43 2880 62a8 2380 36b5 1b80 639b 0680
00000220: 8976 3f00 0258 c281 03ec 3d80 02ed 4480
00000230: 8a8b 7581 edd3 3a00 56e5 4080 6e0e 3b80

backbone.1.conv.0.1.weight f4 [16]
-2.346783e-39 0.54746324 0.7186533 0.54379004 1.1485196 0.48272803 0.4944864 0.881984
0.4921771 1.824975e-39 0.2564272 1.0293148 0.68881965 0.3026846 -6.88817e-40 -4.531288e-39
00000000: e08d 1980 8d26 0c3f aaf9 373f d335 0b3f
00000010: b102 933f 2128 f73e 522d fd3e b4c9 613f
00000020: a3fe fb3e 4adf 1300 6d4a 833e 96c0 833f
00000030: 7c56 303f 7af9 9a3e 2480 0780 6357 3180

backbone.1.conv.0.1.bias f4 [16]
-2.830115e-38 0.75172055 1.3491135 0.35345742 0.19305007 0.9694058 0.73804456 0.42694092
0.44760263 -2.5748959e-15 0.30285823 0.047980163 1.0482675 -0.2742055 -3.98322e-40 -7.3181e-41
00000000: 0c16 1a81 c270 403f c0af ac3f 5ff8 b43e
00000010: ebae 453e fa2a 783f 7df0 3c3f 0098 da3e
00000020: 2c2c e53e 728a 39a7 3c10 9b3e d986 443d
00000030: a12d 863f aa64 8cbe 5c56 0480 00cc 0080

backbone.1.conv.0.1.running_mean f4 [16]
6e-45 -0.086727045 0.3055188 0.03236957 0.121922575 0.24570689 0.14169681 -0.017491149
-0.470223 3e-45 0.027323402 -0.2549924 0.21774259 0.020191452 -6e-45 -6e-45
00000000: 0400 0000 f39d b1bd f66c 9c3e f495 043d
00000010: 8bb2 f93d 969a 7b3e f818 113e 9949 8fbc
00000020: 12c1 f0be 0200 0000 54d5 df3c 5d8e 82be
00000030: eaf7 5e3e 8b68 a53c 0400 0080 0400 0080

backbone.1.conv.0.1.running_var f4 [16]
6e-45 0.013471237 0.012515505 0.033993598 0.24324252 0.05981944 0.002833514 0.4360192
0.007909612 6e-45 0.013472411 0.14479746 0.020348502 0.0033182327 6e-45 6e-45
00000000: 0400 0000 77b6 5c3c d50d 4d3c df3c 0b3d
00000010: 9114 793e 3b05 753d 7ab2 393b e93d df3e
00000020: 5197 013c 0400 0000 63bb 5c3c c945 143e
00000030: e7b1 a63c b576 593b 0400 0000 0400 0000

backbone.1.conv.1.weight f4 [8, 16, 1, 1]
1.057072e-39 -0.108992994 -0.012995128 0.19818406 -0.11329461 0.6438507 0.21279818 -0.066488646
-0.10241081 -1.736642e-39 0.12068625 0.2684031 0.10295696 0.02242339 -1.39712e-40 8.37867e-40
5.985436e-39 -0.10244827 -0.5316513 -0.013572376 0.11439845 -0.04544496 0.02494974 0.014757568
0.054588202 5.21705e-39 0.007532227 0.003937125 -0.22271746 0.27124757 -3.50187e-40 -3.807767e-39
1.834011e-39 0.40217322 0.13602416 0.45930642 -0.2160033 -0.19436131 -0.2560187 0.10505433
-0.25847632 -3.742559e-39 -0.11245559 0.39151046 0.021480951 -0.015047195 7.46287e-40 1.155212e-39
-2.271679e-39 -0.12778881 -0.17662868 -0.027729755 0.5116988 -0.3795853 0.08375129 -0.013323212
-0.211914 5.615576e-39 0.17570648 -0.35297364 0.35587588 0.38440296 5.165235e-39 -5.480924e-39
-2.56241e-39 -0.34496057 0.30940455 -0.05189022 0.18303667 -0.5976879 0.08169575 -0.27171746
0.11854374 6.244517e-39 0.14831546 -0.11622329 -0.20013843 -0.022986077 2.824341e-39 -4.37216e-39
1.7929647e-38 -0.14627634 0.0040569142 -0.47220218 -0.32191762 -0.16557458 0.19634424 0.56200504
0.38074246 6.990749e-39 0.091094196 0.45456925 -0.00077962293 0.021661296 -3.827554e-39 3.693212e-39
8.560529e-38 0.45660087 -0.090431005 -0.46012732 -0.37681165 0.053175543 0.023900786 -0.80477196
0.16595882 2.685422e-39 -0.13437507 0.30345675 -0.040311806 0.20185494 -4.02953e-39 3.464439e-39
-4.40678e-40 -0.10049078 0.20325021 -0.00083729334 0.48624036 0.6470382 -0.26010728 0.14995119
-0.0020918907 4.982895e-39 0.12253444 -0.39361373 -0.20531547 -0.076509915 -3.185112e-39 -4.650301e-39
00000000: b082 0b00 b837 dfbd 84e9 54bc c3f0 4a3e
00000010: 0107 e8bd 66d3 243f c4e7 593e 332b 88bd
00000020: c2bc d1bd 0de9 1280 5a2a f73d 226c 893e
00000030: 19db d23d 42b1 b73c 7685 0180 a21f 0900
00000040: f62c 4100 66d0 d1bd 4d1a 08bf ac5e 5ebc
00000050: bc49 ea3d 7f24 3abd 6663 cc3c bac9 713c
00000060: e197 5f3d 03cf 3800 e6d0 f63b 0003 813b
00000070: 0c10 64be f6e0 8a3e 2ed0 0380 8176 2980
00000080: 7af8 1300 a6e9 cd3e eb49 0b3e 362a eb3e
00000090: f82f 5dbe a706 47be e214 83be b926 d73d
000000a0: 0257 84be bbc0 2880 1e4f e6bd 0f74 c83e
000000b0: d2f8 af3c 8388 76bc 5820 0800 4394 0c00
000000c0: 84bc 1880 12db 02be 26de 34be 8329 e3bc
000000d0: b1fe 023f 0159 c2be cc85 ab3d 9a49 5abc
000000e0: fcff 58be f125 3d00 66ec 333e f6b8 b4be
000000f0: 5d35 b63e 77d0 c43e 933e 3800 96ae 3b80
00000100: f5e6 1b80 ac9e b0be 466a 9e3e d78a 54bd
00000110: f76d 3b3e 1302 19bf 1a50 a73d 8d1e 8bbe
00000120: 0fc7 f23d 2cff 4300 02e0 173e 7a06 eebd
00000130: 17f1 4cbe 4c4d bcbc 1dc1 1e00 ce9b 2f80
00000140: 903c c300 77c9 15be ddef 843b 7cc4 f1be
00000150: 63d2 a4be 628c 29be 770e 493e 90df 0f3f
00000160: adf0 c23e 5d1f 4c00 988f ba3d 4dbd e83e
00000170: 9c5f 4cba 0873 b13c aaad 2980 2c37 2800
00000180: 2e0a e901 97c7 e93e e433 b9bd cf95 ebbe
00000190: 75ed c0be 99ce 593d 95cb c33c 8905 4ebf
000001a0: 1cf1 293e dd3d 1d00 9e99 09be af5e 9b3e
000001b0: fe1d 25bd 10b3 4e3e b1e0 2b80 72b9 2500
000001c0: 6ecc 0480 1cce cdbd d320 503e ce7d 5bba
000001d0: 7ff4 f83e 4ca4 253f c82c 85be ce8c 193e
000001e0: 1a18 09bb 4942 3600 56f3 fa3d bd87 c9be
000001f0: 383e 52be 3bb1 9cbd ccae 2280 26a3 3280

backbone.1.conv.2.weight f4 [8]
0.53549385 0.47455552 0.6503516 0.57915866 0.53410786 0.57310474 0.57042444 0.5145324
00000000: 2016 093f f1f8 f23e 717d 263f be43 143f
00000010: 4bbb 083f feb6 123f 5607 123f 65b8 033f

backbone.1.conv.2.bias f4 [8]
0.000105829706 0.00017896183 3.0550575e-05 0.0002399743 -4.4162385e-05 -3.264504e-07 0.00011365507 -9.128882e-05
00000000: e4f0 dd38 b3a7 3b39 6e23 0038 9ca1 7b39
00000010: 003b 39b8 0043 afb4 1a5a ee38 5072 bfb8

backbone.1.conv.2.running_mean f4 [8]
0.85794866 -0.99297804 0.22690487 -0.1962196 -0.613028 0.19807781 -0.40498257 0.6335837
00000000: 86a2 5b3f cf33 7ebf c059 683e caed 48be
00000010: 67ef 1cbf e9d4 4a3e e059 cfbe 8b32 223f

backbone.1.conv.2.running_var f4 [8]
0.11264804 0.13296585 0.22769596 0.33850288 0.17511033 0.3411622 0.40548575 0.19274789
00000000: 04b4 e63d 3328 083e 2129 693e 4050 ad3e
00000010: 1f50 333e d0ac ae3e d49b cf3e b45f 453e

backbone.2.conv.0.0.weight f4 [48, 8, 1, 1]
0.118985265 0.015685488 0.19531474 -0.20764703 -0.13658042 0.08482351 0.24109286 0.05282932
0.121781856 0.15875852 0.08703939 0.16067213 -0.15098067 -0.22769275 -0.15646738 -0.09019535
-0.071408436 0.005784156 -0.20353644 0.16931885 -0.037701443 -0.101125 -0.24407366 0.16602369
-0.118461624 0.21334262 0.126282 -0.5854882 0.038544897 -0.09672429 -0.24742085 -0.4089985
0.012370929 -0.06324953 0.20977357 -0.23405093 -0.09642001 0.08972468 0.044383004 -0.2646183
0.048945792 -0.01735735 0.07043017 -0.25612864 -0.05098692 0.03961112 0.24629705 -0.07486032
0.017998122 0.21191353 0.15347661 0.08630247 -0.096641265 -0.28983983 -0.12892686 -0.081865974
0.054492306 0.21185392 0.010412174 -0.041876614 0.0031628439 0.050872922 -0.01862501 0.17412674
-0.11577425 -0.015940342 0.39373407 -0.10870038 -0.2159724 0.0025410787 -0.16607249 0.021802897
-0.084515505 0.30650562 -0.023753323 0.062370557 -0.13879295 0.0476982 0.08588979 -0.11216052
-0.061806023 -0.05231709 -0.0039250413 -0.46204793 0.0887809 -0.016138742 0.006136578 0.060293786
-0.08418405 0.023407321 -0.3032191 0.26534927 0.08545921 -0.15656522 -0.18024282 0.21875136
0.14151546 0.10541619 -0.16219053 0.09237288 0.05571273 0.13837875 -0.019591562 0.043185852
0.18336727 -0.15703368 -0.073139146 -0.028197244 -0.27468216 0.12218192 0.059331696 0.25039473
0.05150893 -0.18667579 0.033690922 0.3724346 -0.0286339 0.07383126 -0.026779426 -0.2918
0.016065259 0.06623538 0.28569996 0.14804585 -0.30172586 -0.09872442 0.010081267 -0.19423322
0.21106353 0.16376041 0.15190667 0.17525573 0.21996029 0.17843515 0.07889738 0.07219046
0.074847795 0.0030899353 0.13956973 -0.22417605 -0.1833246 0.09971988 0.034883056 -0.03599038
-0.24944344 0.08836788 -0.226834 0.092395194 -0.07762215 -0.15666404 -0.17085382 0.3075976
-0.08197611 0.03235105 -0.3417814 0.25703713 0.10247283 -0.21352208 -0.24166103 0.36694354
0.111687474 0.20351161 0.18430284 0.25659862 -0.0057574613 0.018896876 0.12999712 0.10878776
0.09403219 -0.05452436 0.070614494 -0.37427375 0.13333452 -0.10309017 -0.28295854 -0.11703004
0.03513048 0.057686735 0.042944554 0.1088902 -0.15531178 -0.023216339 -0.018054353 -0.14621504
0.28312528 -0.007075263 0.119715594 0.040017907 0.07442027 -0.051263236 0.019042986 0.019612858
-0.10151012 -0.10514193 0.08046966 0.16652241 -0.124432296 -0.082818754 0.11605471 -0.058538828
0.054671366 -0.30878368 0.24107671 -0.12617843 0.18616451 -0.16054459 -0.018996883 0.2647688
-0.11589422 0.048709698 0.22212529 0.020790303 -0.08167973 0.012396066 0.2442617 0.1501635
-0.32930216 0.11697244 -0.11072034 0.23106027 -0.12332465 0.08347291 0.23379686 0.047655713
0.40579167 0.0010895142 -0.17083979 -0.09492918 -0.16682689 -0.20626317 -0.094066866 0.12573543
0.08036497 -0.007214104 0.20550568 0.17875329 0.046467833 0.13424934 -0.046862114 0.06874789
-0.16443443 -0.18612888 -0.33560076 -0.07633783 -0.07057021 0.450449 0.1004142 0.05249931
0.14091408 -0.028376862 -0.033486657 -0.2980622 -0.25082588 0.025656367 0.02219851 0.2478406
00000000: 8cae f33d da7e 803c 9600 483e 6ca1 54be
00000010: bddb 0bbe f3b7 ad3d 0ce1 763e 8f63 583d
00000020: c468 f93d 9891 223e b541 b23d 3c87 243e
00000030: ad9a 1abe 4a28 69be fc38 20be 57b8 b8bd
00000040: 963e 92bd 0489 bd3b db6b 50be ec61 2d3e
00000050: d46c 1abd a01a cfbd 72ee 79be 1d02 2a3e
00000060: 029c f2bd 7d76 5a3e 1250 013e 8ee2 15bf
00000070: 41e1 1d3d 6217 c6bd e45b 7dbe 4068 d1be
00000080: 70af 4a3c f888 81bd e2ce 563e 0cab 6fbe
00000090: db77 c5bd 93c1 b73d f4ca 353d 0d7c 87be
000000a0: 627b 483d 0031 8ebc b13d 903d 4b23 83be
000000b0: a9d7 50bd 453f 223d 4b35 7c3e 5e50 99bd
000000c0: cc70 933c dcff 583e f928 1d3e 59bf b03d
000000d0: dbeb c5bd e365 94be 6705 04be 59a9 a7bd
000000e0: 5333 5f3d 3cf0 583e d397 2a3c d086 2bbd
000000f0: b747 4f3b 2060 503d 7a93 98bc 484e 323e
00000100: 0d1b edbd 5295 82bc 8397 c93e 4e9e debd
00000110: de27 5dbe 3a88 263b e80e 2abe fd9b b23c
00000120: 7716 adbd 4eee 9c3e 5496 c2bc 4578 7f3d
00000130: bd1f 0ebe 305f 433d fce6 af3d 6ab4 e5bd
00000140: 5028 7dbd 724a 56bd a29d 80bb 8c91 ecbe
00000150: c3d2 b53d 6535 84bc 5915 c93b 9ef6 763d
00000160: b068 acbd b6c0 bf3c 893f 9bbe dcdb 873e
00000170: 3d05 af3d a252 20be 9391 38be 5b00 603e
00000180: 6ee9 103e 72e4 d73d 4615 26be fe2d bd3d
00000190: 0833 643d 29b3 0d3e 7c7e a0bc a6e3 303d
000001a0: a1c4 3b3e 70cd 20be fac9 95bd e8fd e6bc
000001b0: 24a3 8cbe 843a fa3d cb05 733d bd33 803e
000001c0: 07fb 523d f027 3fbe 7eff 093d bfaf be3e
000001d0: a491 eabc d834 973d 8760 dbbc cf66 95be
000001e0: 4a9b 833c 6aa6 873d 4447 923e 5599 173e
000001f0: d07b 9abe 0730 cabd e62b 253c 13e5 46be
00000200: 0a21 583e cfb0 273e 6c8d 1b3e 3d76 333e
00000210: 453d 613e b4b7 363e f394 a13d 98d8 933d
00000220: cd49 993d 8380 4a3b 5eeb 0e3e 688e 65be
00000230: 72b9 3bbe f039 cc3d 89e1 0e3d a66a 13bd
00000240: 1a6e 7fbe 38fa b43d 2c47 68be b139 bd3d
00000250: 5df8 9ebd 8a6c 20be 4ef4 2ebe 6f7d 9d3e
00000260: 17e3 a7bd 8982 043d f9fd aebe 5f9a 833e
00000270: 46dd d13d 88a5 5abe fd75 77be 06e0 bb3e
00000280: 67bc e43d 5965 503e e2b9 3c3e e560 833e
00000290: 16a9 bcbb 9fcd 9a3c f71d 053e 1ecc de3d
000002a0: f393 c03d ef54 5fbd 559e 903d cfa0 bfbe
000002b0: d888 083e f020 d3bd f1df 90be 72ad efbd
000002c0: fae4 0f3d ed48 6c3d a1e6 2f3d d301 df3d
000002d0: 0d0a 1fbe 3130 bebc b9e6 93bc 65b9 15be
000002e0: ccf5 903e 9cd7 e7bb 732d f53d d1e9 233d
000002f0: a869 983d 66f9 51bd 0900 9c3c 25ab a03c
00000300: 8ae4 cfbd a754 d7bd 47cd a43d da84 2a3e
00000310: 5cd6 febd e19c a9bd 17ae ed3d 69c6 6fbd
00000320: 15ef 5f3d e518 9ebe d0dc 763e eb34 01be
00000330: e9a1 3e3e cd65 24be 5a9f 9bbc c78f 873e
00000340: f359 edbd d283 473d d074 633e 6d50 aa3c
00000350: b447 a7bd df18 4b3c bd1f 7a3e 76c4 193e
00000360: 4b9a a8be 3f8f ef3d 58c1 e2bd 109b 6c3e
00000370: a291 fcbd d8f3 aa3d 7268 6f3e a332 433d
00000380: edc3 cf3e 08ce 8e3a a0f0 2ebe 3b6a c2bd
00000390: abd4 2abe a736 53be 21a6 c0bd cac0 003e
000003a0: 6496 a43d 4a64 ecbb 1570 523e 1a0b 373e
000003b0: 0e55 3e3d a978 093e 7df2 3fbd b2cb 8c3d
000003c0: 8061 28be 9298 3ebe ddd3 abbe 0257 9cbd
000003d0: 1d87 90bd 40a1 e63e f6a5 cd3d 8409 573d
000003e0: c84b 103e 9876 e8bc 4e29 09bd 9c9b 98be
000003f0: 406c 80be 4d2d d23c a6d9 b53c edc9 7d3e

backbone.2.conv.0.1.weight f4 [48]
0.4278079 0.2882783 0.14238906 0.12924947 0.16459405 0.094251536 0.29609665 0.13192394
0.35931513 0.18602926 0.16739951 0.37487632 0.07494397 0.13971537 0.14205618 0.38506502
0.14184456 0.25295538 0.38580367 0.20332867 0.19716732 0.11136281 0.10795561 0.0746757
0.14413427 0.23541187 0.15766121 0.2911676 0.1083291 0.045252193 0.44688848 0.07420379
0.21892063 0.29759842 0.2050078 0.2055763 0.32630378 0.3762002 0.14385422 0.33889413
0.3876734 0.22724569 0.12085716 0.17231755 0.19604531 0.32746798 0.30799487 0.16138138
00000000: a309 db3e 3799 933e 70ce 113e f959 043e
00000010: 588b 283e f306 c13d fb99 973e 1217 073e
00000020: 27f8 b73e 747e 3e3e c76a 2b3e caef bf3e
00000030: 397c 993d 8c11 0f3e 2d77 113e 3e27 c53e
00000040: b33f 113e 5e83 813e 0f88 c53e 6435 503e
00000050: 3be6 493e 2f12 e43d d517 dd3d 93ef 983d
00000060: ef97 133e cf0f 713e f171 213e eb13 953e
00000070: a6db dd3d 5d5a 393d 91ce e43e 28f8 973d
00000080: bb2c 603e d25e 983e 91ed 513e 9882 523e
00000090: 4a11 a73e 509d c03e 854e 133e 8883 ad3e
000000a0: 217d c63e 18b3 683e f583 f73d 0374 303e
000000b0: 1ac0 483e e2a9 a73e 81b1 9d3e 2941 253e

backbone.2.conv.0.1.bias f4 [48]
-0.04477713 0.026309116 0.22312321 0.4254268 0.2607962 0.25800085 0.05439075 -0.0068721324
-0.0359817 0.09239561 -0.11738977 0.061808046 0.20341901 0.17862245 0.21427174 -0.023641355
-0.08671202 0.12711237 0.018190414 0.35866448 0.3450861 0.155456 0.26173097 0.28744218
0.1346648 0.023644587 0.119820476 -0.29910603 0.26844892 0.27521595 -0.01396656 0.23775767
0.08316915 0.045117296 0.12503165 0.173833 -0.05455336 0.046916265 0.22801636 0.09236816
0.008199338 0.051214397 0.28608388 0.14465548 0.12895852 -0.038357448 0.21292771 0.16279931
00000000: 3968 37bd 3786 d73c 697a 643e 8bd1 d93e
00000010: 1487 853e b018 843e d6c8 5e3d a02f e1bb
00000020: 8c61 13bd e939 bd3d 0c6a f0bd 6f2a 7d3d
00000030: 134d 503e cee8 363e 0d6a 5b3e 84ab c1bc
00000040: 1296 b1bd bf29 023e 1004 953c dfa2 b73e
00000050: 20af b03e dc2f 1f3e 9a01 863e 9f2b 933e
00000060: 92e5 093e 4bb2 c13c 7064 f53d 6d24 99be
00000070: 2372 893e 1be9 8c3e 00d4 64bc bf76 733e
00000080: 9654 aa3d eacc 383d 4c08 003e 4701 323e
00000090: 5873 5fbd 452b 403d 1f7d 693e 852b bd3d
000000a0: 8456 063c 30c6 513d 9679 923e 9120 143e
000000b0: b40d 043e b31c 1dbd b909 5a3e ddb4 263e

backbone.2.conv.0.1.running_mean f4 [48]
-2.2080383e-05 1.7074698e-06 2.9541603e-05 -5.2110527e-06 -2.5202538e-05 -2.5536337e-05 5.024824e-06 1.0971337e-05
7.5520543e-06 -1.4289662e-05 5.4458037e-06 3.416561e-05 1.6661801e-06 -3.0351202e-06 -1.829256e-05 -2.0633961e-05
-3.261549e-07 -1.42302715e-05 3.7149945e-05 4.866599e-05 -3.4745865e-06 1.3372627e-05 -1.2468328e-05 -3.7641798e-06
-1.1851087e-05 2.1932765e-05 -7.277614e-06 -8.602163e-06 2.4267645e-06 5.771344e-06 -8.109493e-06 1.4153703e-06
-1.6614633e-05 1.2247257e-05 8.474507e-06 -2.306375e-05 -1.4829e-05 -1.1685319e-05 -8.038015e-06 3.0408519e-05
9.292303e-06 3.2144097e-05 -6.623867e-06 -2.0484213e-05 -2.2532016e-05 4.4430735e-06 -2.3311079e-05 -4.437705e-06
00000000: 4339 b9b7 372c e535 1cd0 f737 9ada aeb6
00000010: 0a6a d3b7 de36 d6b7 e99a a836 8911 3837
00000020: a767 fd36 a2bd 6fb7 19bb b636 0b4d 0f38
00000030: 83a1 df35 f8ae 4bb6 f972 99b7 1817 adb7
00000040: 631a afb4 8dbe 6eb7 73d1 1b38 b51e 4c38
00000050: f12c 69b6 ff5a 6037 102f 51b7 1e9c 7cb6
00000060: 08d4 46b7 41fc b737 3a32 f4b6 0252 10b7
00000070: 7fdb 2236 78a7 c136 020e 08b7 c1f7 bd35
00000080: a75f 8bb7 9179 4d37 bb2d 0e37 0779 c1b7
00000090: 12ca 78b7 100c 44b7 03db 06b7 cc15 ff37
000000a0: 23e6 1b37 76d2 0638 9642 deb6 83d5 abb7
000000b0: 2303 bdb7 b615 9536 298c c3b7 98e7 94b6

backbone.2.conv.0.1.running_var f4 [48]
0.11536494 0.061899822 0.10643812 0.1274281 0.114333846 0.08774491 0.06041358 0.018546933
0.09793939 0.042794332 0.06382987 0.19393802 0.02624739 0.077332236 0.054579943 0.0881225
0.015854208 0.08111581 0.1242642 0.28302997 0.032926053 0.04399642 0.01750271 0.027843034
0.01631113 0.08654115 0.031273477 0.0626899 0.12587485 0.01903892 0.14105773 0.10983045
0.061422735 0.062293828 0.12713116 0.09255449 0.111516245 0.17358184 0.020264594 0.13151775
0.036757894 0.076217376 0.03816826 0.094766326 0.102295436 0.13974191 0.11476348 0.11462107
00000000: 7444 ec3d ab8a 7d3d 3bfc d93d 837c 023e
00000010: dd27 ea3d 9ab3 b33d 3b74 773d bdef 973c
00000020: 7294 c83d 1c49 2f3d 3cb9 823d b097 463e
00000030: c404 d73c 5d60 9e3d 388f 5f3d 9279 b43d
00000040: afe0 813c 0c20 a63d 3b7e fe3d 4ee9 903e
00000050: 78dd 063d 9735 343d d861 8f3c 1317 e43c
00000060: eb9e 853c 7d3c b13d 9e18 003d 9063 803d
00000070: 56e5 003e 82f7 9b3c 7071 103e c9ee e03d
00000080: 6896 7b3d d027 7f3d ac2e 023e 358d bd3d
00000090: a162 e43d 70bf 313e ef01 a63c 97ac 063e
000000a0: 728f 163d db17 9c3d 5256 1c3d d914 c23d
000000b0: 4580 d13d 8118 0f3e 1e09 eb3d 74be ea3d

backbone.2.conv.1.0.weight f4 [48, 1, 3, 3]
0.011477899 -0.16294236 -0.09795596 -0.03882923 -0.16250116 -0.13199206 0.03272447 -0.15601656
-0.07565741 -0.022536794 0.06066254 -0.059082106 -0.13352011 -0.105700135 -0.09468145 -0.11313487
-0.16435164 -0.10927905 -0.12894475 -0.07915394 -0.01832951 0.18498468 0.36979517 0.20068589
-0.09718035 -0.15786879 -0.31230643 0.12327468 0.214968 0.014981709 0.24964312 0.4512334
0.068677634 0.09258406 0.19652669 0.021320185 -0.13143468 -0.31296027 -0.12540463 -0.087928966
-0.07409201 0.018042067 0.16606589 0.3677271 0.12759075 0.11397674 0.25094151 0.13973966
-0.01450888 -0.048850276 0.026591854 -0.09609464 -0.26693034 -0.25378683 -0.036686033 -0.04509138
-0.12799071 -0.0110198585 -0.22389823 -0.31723106 0.02068035 -0.080883875 -0.24377328 -0.1291499
0.007966045 -0.15550579 -0.108594686 0.100363664 -0.176751 -0.14376317 0.068406835 -0.1427464
0.06288555 0.13840635 0.06511783 0.038374387 0.24970919 0.18282951 -0.021056388 0.19523329
0.09758073 -0.1615939 0.21074629 -0.06316083 0.01844616 0.12139353 -0.04993427 0.14044137
-0.3418281 0.07073714 0.07136178 0.027894994 0.04372289 0.09119387 0.2459078 0.069856435
0.0733166 0.091480434 0.090449736 -0.071480386 -0.17065023 -0.05369901 -0.045910925 -0.3107984
-0.17305635 -0.020900516 -0.060576793 -0.07374208 -0.055858 0.10007436 0.007176621 0.1652138
-0.39794433 0.028620321 -0.10855577 0.21632007 -0.04952194 -0.10586797 0.064848125 0.04788555
-0.3159337 0.3155676 0.06094113 -0.08188467 0.15555231 -0.085568525 -0.09133772 -0.14083393
-0.039897453 0.15386523 0.38554808 0.11549857 -0.05271757 -0.26520377 -0.08360164 -0.026475884
-0.08939009 0.046692345 -0.24765675 -0.22641659 0.015976893 -0.060294088 -0.22931403 -0.012000817
0.0050256774 -0.08747978 -0.039309658 -0.031314235 0.0638604 0.14210466 0.07495682 0.11771705
0.0849367 0.0496036 0.05686539 -0.0016258067 0.2203653 0.22886525 0.05262544 0.08997451
0.15702339 0.10229212 -0.039769404 -0.040266167 0.07721684 -0.040972926 -0.2620887 -0.08939354
-0.001455888 -0.21827088 -0.116022445 0.05865801 -0.049901724 -0.07275839 0.037758287 -0.27734104
-0.21466036 0.05900862 -0.23542547 -0.14772317 0.12264019 0.13495584 0.0013782736 0.18024045
0.34156454 -0.047374204 0.06427455 0.17336966 -0.060131308 -0.089780465 0.010722061 0.17149961
-0.09498656 -0.1934138 0.2759431 -0.07292254 -0.23248707 0.09676067 0.09462451 -0.2695898
0.05571054 -0.21251519 0.48438206 -0.059847623 0.13659884 -0.17362568 -0.008871072 -0.047363628
0.029829456 -0.072358765 0.06780183 -0.4966113 0.2697524 0.0113114305 0.41632736 -0.22967337
0.0036692857 0.042027142 0.12685333 -0.08483376 -0.2724764 -0.32019877 0.10058471 0.22664908
0.12166602 0.061350018 0.16525657 0.081274986 0.0831951 0.2663268 0.15900752 0.06669777
0.2596386 0.12086002 -0.042033892 -0.13903394 -0.058518782 0.17329027 0.31972015 0.09530149
-0.105816156 -0.18875636 -0.009932376 -0.008132524 0.15282227 0.1579895 0.0019269421 0.16855095
0.111334205 -0.028581314 0.092575274 0.0848778 0.15771511 0.15240733 0.11780367 0.10795193
00000000: cc0d 3c3c 5dda 26be 229d c8bd 660b 1fbd
00000010: b466 26be ed28 07be 180a 063d cec2 1fbe
00000020: 46f2 9abd 159f b8bc 4979 783d 1400 72bd
00000030: 7fb9 08be 5079 d8bd 59e8 c1bd 41b3 e7bd
00000040: cc4b 28be b2cd dfbd 180a 04be 761b a2bd
00000050: c527 96bc a06c 3d3e cb55 bd3e 9a80 4d3e
00000060: 7e06 c7bd 5ba8 21be a1e6 9fbe 6f77 fc3d
00000070: 9220 5c3e d875 753c 72a2 7f3e 1008 e73e
00000080: dca6 8c3d b69c bd3d 4b3e 493e aba7 ae3c
00000090: d096 06be 543c a0be 126a 00be 1a14 b4bd
000000a0: 8dbd 97bd f5cc 933c 2d0d 2a3e ba46 bc3e
000000b0: 26a7 023e a36c e93d 687b 803e ea17 0f3e
000000c0: a7b6 6dbc 3a17 48bd 29d7 d93c 44cd c4bd
000000d0: 18ab 88be 59f0 81be 1844 16bd bdb1 38bd
000000e0: ff0f 03be a38c 34bc 9445 65be 1c6c a2be
000000f0: d669 a93c 72a6 a5bd b49f 79be df3f 04be
00000100: 0484 023c e93c 1fbe e466 debd 778b cd3d
00000110: 37fe 34be a736 13be e218 8c3d 1d2c 12be
00000120: 24ca 803d 65ba 0d3e 7f5c 853d 762e 1d3d
00000130: c4b3 7f3e a937 3b3e 727e acbc 3ceb 473e
00000140: 68d8 c73d df78 25be e0cd 573e 775a 81bd
00000150: 671c 973c 2c9d f83d e187 4cbd ddcf 0f3e
00000160: 1804 afbe a2de 903d 2026 923d 0b84 e43c
00000170: c616 333d dac3 ba3d 41cf 7b3e e410 8f3d
00000180: 0327 963d 185a bb3d b63d b93d 4f64 92bd
00000190: efbe 2ebe 7ef3 5bbd 180d 3cbd f820 9fbe
000001a0: af35 31be 8f37 abbc 5f1f 78bd 1606 97bd
000001b0: 5ccb 64bd c9f3 cc3d dc29 eb3b ce2d 293e
000001c0: 5cbf cbbe 2a75 ea3c 7d52 debd 0283 5d3e
000001d0: 85d7 4abd 4ed1 d8bd 18cf 843d a323 443d
000001e0: 10c2 a1be 1492 a13e 689d 793d 26b3 a7bd
000001f0: 1b49 1f3e 8d3e afbd 450f bbbd c536 10be
00000200: 836b 23bd d98e 1d3e 8f66 c53e 848a ec3d
00000210: 61ee 57bd cac8 87be 5637 abbd f4e3 d8bc
00000220: 2712 b7bd 7940 3f3d bb99 7dbe c0d9 67be
00000230: f9e1 823c eff6 76bd 4cd1 6abe 139f 44bc
00000240: 70ae a43b 9928 b3bd 2a03 21bd 5b43 00bd
00000250: 3ec9 823d e283 113e f682 993d a315 f13d
00000260: 4bf3 ad3d 252d 4b3d afeb 683d 0519 d5ba
00000270: 71a7 613e a75b 6a3e c68d 573d 8e44 b83d
00000280: bdca 203e 887e d13d 3ee5 22bd 23ee 24bd
00000290: dd23 9e3d 3ad3 27bd 7d30 86be f613 b7bd
000002a0: 7fd3 beba 6782 5fbe 2d9d edbd 6243 703d
000002b0: c065 4cbd 5a02 95bd 6fa8 1a3d a5ff 8dbe
000002c0: edcf 5bbe 06b3 713d 6013 71be be44 17be
000002d0: c82a fb3d dd31 0a3e 30a7 b43a f490 383e
000002e0: 8ce1 ae3e 740b 42bd 60a2 833d d187 313e
000002f0: 3f4c 76bd d2de b7bd 95ab 2f3c 989d 2f3e
00000300: 5088 c2bd 440e 46be 6a48 8d3e 6a58 95bd
00000310: 1711 6ebe 752a c63d 7fca c13d ad07 8abe
00000320: bc30 643d 959d 59be ed00 f83e c822 75bd
00000330: 91e0 0b3e eeca 31be f957 11bc 5d00 42bd
00000340: e75c f43c d530 94bd b0db 8a3d d643 febe
00000350: fd1c 8a3e 9453 393c dc28 d53e 7f2f 6bbe
00000360: 6678 703b a724 2c3d d7e5 013e 53bd adbd
00000370: 0782 8bbe 18f1 a3be 5bff cd3d b216 683e
00000380: 092c f93d 284a 7b3d 0539 293e 8073 a63d
00000390: 3162 aa3d fd5b 883e ded2 223e d798 883d
000003a0: 5aef 843e 7585 f73d bb2b 2cbd ea5e 0ebe
000003b0: 64b1 6fbd 0173 313e 5cb2 a33e 6d2d c33d
000003c0: 24b6 d8bd 5949 41be 68bb 22bc 473e 05bc
000003d0: 717d 1c3e 00c8 213e 7391 fc3a 9f98 2c3e
000003e0: 3003 e43d 5c23 eabc 1b98 bd3d 69d4 ad3d
000003f0: 1280 213e ab10 1c3e 0d43 f13d e715 dd3d

backbone.2.conv.1.1.weight f4 [48]
0.51117164 0.29866275 0.37150177 0.24210042 0.37139064 0.39366922 0.15944022 0.2855943
0.16450173 0.31593996 0.1541703 0.51555985 0.31199458 0.27701494 0.375569 0.35596648
0.28217435 0.30406862 0.537193 0.50679755 0.22833052 0.17756692 0.32774606 0.33745697
0.3830493 0.22004409 0.3767573 0.20020585 0.28209436 0.25055748 0.51236165 0.2468293
0.3155913 0.1916895 0.27097282 0.34966934 0.22014049 0.36931267 0.3181484 0.33460605
0.32877305 0.2264164 0.3229512 0.33711272 0.32178557 0.17195627 0.33095232 0.28583804
00000000: 25dc 023f 53ea 983e 7b35 be3e 2ce9 773e
00000010: ea26 be3e 038f c93e 4c44 233e 6b39 923e
00000020: 2473 283e e2c2 a13e d2de 1d3e bbfb 033f
00000030: c1bd 9f3e e7d4 8d3e 944a c03e 3d41 b63e
00000040: 2879 903e e2ae 9b3e 7b85 093f 7cbd 013f
00000050: 7acf 693e 1ad4 353e 55ce a73e 29c7 ac3e
00000060: 0a1f c43e 3d53 613e 55e6 c03e c302 4d3e
00000070: ac6e 903e 1249 803e 222a 033f d2c0 7c3e
00000080: 2f95 a13e 414a 443e f3bc 8a3e dc07 b33e
00000090: 826c 613e 8d16 bd3e 59e4 a23e 7c51 ab3e
000000a0: f154 a83e b3d9 673e dc59 a53e 0a9a ac3e
000000b0: 14c1 a43e 4e15 303e 9572 a93e 5d59 923e

backbone.2.conv.1.1.bias f4 [48]
-0.015234813 0.010843947 -0.0018094204 0.71374506 0.024435401 0.0048513026 0.6649856 -0.46256888
0.13010964 -0.02824931 0.09279152 0.12231601 -0.021610009 0.024472777 -0.014884703 0.0022913115
0.012748364 -0.048288334 0.07408313 0.005017566 0.6659078 0.010794367 0.009395626 0.0033911325
-0.00022604619 -0.0049944227 -0.023073688 0.06244557 0.14981344 -0.07322488 -0.0068568974 0.038857177
0.00063463685 0.6767805 0.8991774 -0.020328214 0.55630887 0.30249727 0.0018116097 0.11621452
0.03718019 -0.002631658 0.010256639 -0.0109050395 -0.03873383 0.3062716 0.06248165 -0.08544682
00000000: 709b 79bc cfaa 313c 132a edba ffb7 363f
00000010: c02c c83c adf7 9e3b 7f3c 2a3f d4d5 ecbe
00000020: 763b 053e 196b e7bc 7b09 be3d d180 fa3d
00000030: 7907 b1bc 227b c83c f8de 73bc d429 163b
00000040: 84de 503c fdc9 45bd e5b8 973d 656a a43b
00000050: ef78 2a3f dbda 303c 1df0 193c c33d 5e3b
00000060: d006 6db9 41a8 a3bb 0805 bdbc edc6 7f3d
00000070: b268 193e edf6 95bd d3af e0bb b428 1f3d
00000080: c25d 263a 7d41 2d3f 7d30 663f 5b87 a6bc
00000090: 426a 0e3f ece0 9a3e 8973 ed3a e101 ee3d
000000a0: 414a 183d e577 2cbb 760b 283c 0dab 32bc
000000b0: 5da7 1ebd a2cf 9c3e c2ec 7f3d befe aebd

backbone.2.conv.1.1.running_mean f4 [48]
-0.087825365 -0.075864136 -0.007631635 0.60389173 -0.009134188 -0.04470455 -0.12737718 -0.02851069
0.10048058 -0.0072160307 0.012690492 -0.1417192 -0.019000012 0.014288791 -0.004884649 -0.08865902
0.00782533 0.15330444 -0.09101217 -0.30954114 0.30114743 -0.019139132 0.009782517 -0.015135774
-0.0070851184 0.09924917 0.0015142756 0.011402693 0.28072038 -0.011302033 -0.13984698 0.13250238
0.056070395 -0.10889816 -0.17613223 0.00072801835 -0.066046625 -0.15317574 -0.010377794 0.20387132
-0.13078864 0.11863638 -0.07086298 0.03811925 0.0079136025 0.1348971 -0.28218627 0.033129577
00000000: c9dd b3bd a85e 9bbd cb12 fabb a698 1a3f
00000010: 90a7 15bc 1e1c 37bd 2a6f 02be 408f e9bc
00000020: c3c8 cd3d 7474 ecbb c8eb 4f3c d71e 11be
00000030: eaa5 9bbc 891b 6a3c 680f a0bb dc92 b5bd
00000040: d035 003c d7fb 1c3e 9764 babd 2d7c 9ebe
00000050: ff2f 9a3e abc9 9cbc da46 203c 0afc 77bc
00000060: 482a e8bb 2643 cb3d a87a c63a 5cd2 3a3c
00000070: 95ba 8f3e 2a2c 39bc 0c34 0fbe b4ae 073e
00000080: 12aa 653d 0006 dfbd 025c 34be 7cd8 3e3a
00000090: 7443 87bd 1ada 1cbe 9f07 2abc a5c3 503e
000000a0: 75ed 05be a1f7 f23d 9c20 91bd ee22 1c3d
000000b0: 0ea8 013c 7722 0a3e b87a 90be e1b2 073d

backbone.2.conv.1.1.running_var f4 [48]
0.016771035 0.008120952 0.0056604445 0.016620105 0.014057209 0.004399279 0.02268475 0.002096625
0.026058944 0.0016669712 0.000674265 0.03650029 0.0005751678 0.0029756129 0.0062615685 0.017772475
0.0018143256 0.015745291 0.022280257 0.014235898 0.011174501 0.0027834016 0.0024808666 0.00089453073
0.005667839 0.017800784 0.005270202 0.0010015912 0.006058616 0.00016277438 0.027707448 0.0014536848
0.0055891764 0.019244034 0.018550262 0.008252781 0.0047079707 0.039565027 0.00266764 0.0619584
0.032479234 0.009101334 0.005101329 0.0056518926 0.00485841 0.023524571 0.015710965 0.0014555621
00000000: 6963 893c be0d 053c 407b b93b e326 883c
00000010: 3550 663c d427 903b 5ed5 b93c 8867 093b
00000020: 9179 d53c 467e da3a 28c1 303a 5481 153d
00000030: dcc6 163a 8002 433b d82d cd3b 9597 913c
00000040: aace ed3a 45fc 803c 1685 b63c af3d 693c
00000050: 4115 373c bb69 363b 0996 223b f17e 6a3a
00000060: 48b9 b93b f3d2 913c a9b1 ac3b d347 833a
00000070: 5b87 c63b 6aae 2a39 bbfa e23c 9189 be3a
00000080: 6925 b73b aaa5 9d3c b8f6 973c ac36 073c
00000090: 5245 9a3b f00e 223d 93d3 2e3b 17c8 7d3d
000000a0: f208 053d c31d 153c 0d29 a73b 8333 b93b
000000b0: 4c33 9f3b 9ab6 c03c 48b4 803c 8fc8 be3a

backbone.2.conv.2.weight f4 [8, 48, 1, 1]
0.12687175 0.1681882 0.042639155 0.06509835 0.38476393 -0.026089538 0.23697615 -0.23822194
-0.20632052 -0.08200457 0.069809556 0.23211013 0.016931025 -0.1044127 0.06413844 0.25257155
-0.17771505 -0.108551376 0.124224074 0.3946573 0.02918581 -0.052591514 0.015639935 -0.040379047
0.11435755 -0.035805043 0.18745485 -0.18528894 -0.19511063 -0.08228957 0.035698544 -0.061348792
-0.086795695 0.31348935 0.20792319 -0.13002314 0.075174846 0.20453416 0.049864642 -0.028154638
0.24686038 0.010881595 0.03989838 -0.08513381 -0.114702426 -0.16124725 -0.03161414 -0.12541145
0.04708339 0.17664132 0.23503916 -0.45413715 0.011057846 0.18972984 0.052912887 -0.12799883
0.053615954 -0.053305287 -0.040925045 -0.123945646 -0.066403255 -0.087159045 0.037570216 0.06569321
-0.013846527 0.05406684 -0.20109127 0.044572648 0.05767586 -0.07720313 -0.0068563423 -0.02008043
0.011862988 0.038567547 0.16496365 0.060490806 0.11493126 -0.04167825 0.096458636 -0.11831116
-0.11227547 0.07218656 -0.1516986 -0.057409745 0.46577066 -0.28501326 0.00087615836 -0.27963817
-0.021045033 0.04462503 -0.04638439 -0.18868683 -0.061963215 -0.27997452 -0.013604831 -0.17072429
0.1874259 -0.04602943 -0.122518964 -0.32973266 0.20391688 -0.36770046 -0.159427 0.056560475
0.036689505 0.17923062 -0.12465186 -0.2973703 0.2643179 -0.20467861 -0.13024668 -0.09920945
0.10913429 -0.03340425 0.07815526 -0.04745683 0.17472427 0.06895069 0.25972816 0.23218244
-0.09753443 -0.10596959 -0.27489743 0.11616199 0.21631412 0.2623152 0.066631876 0.081101045
-0.2100364 0.13367876 0.16331476 -0.15987644 -0.1315353 0.21111755 0.23279321 -0.15559404
0.0849086 -0.21017231 0.19060694 -0.14935488 -0.19130476 0.09480466 -0.13970532 0.17708266
-0.08910251 0.18052839 0.14885905 0.28536934 -0.18846087 0.15517923 -0.042523477 -0.054643773
-0.013615933 -0.04622144 0.21242589 -0.2423562 -0.01906904 0.07829432 0.23066564 0.04151762
-0.049381584 0.03527634 -0.027220707 -0.21958117 -0.0490435 0.08195629 0.09366913 0.06963113
0.13970219 -0.124625176 0.16292171 0.11664931 -0.07192136 -0.09460546 0.2882094 0.042240698
-0.09665485 -0.1371675 0.25230372 -0.017529417 0.009798668 0.1879534 0.06896899 -9.07977e-05
-0.05742514 0.2811523 0.27989104 0.009035985 -0.058081258 0.026098948 -0.2750452 0.08262797
-0.044417046 -0.15588734 0.15330747 0.054565184 0.10999676 0.18226846 -0.16994716 -0.03331397
-0.015299579 -0.025352597 0.0734691 0.15741614 0.12987763 -0.024474643 0.21948174 -0.24776442
-0.10187415 -0.19885044 -0.016656 -0.14445768 -0.17701131 0.050161306 0.015317706 0.06183967
0.31639412 0.030084485 0.25314566 -0.022174807 -0.08955908 -0.07091474 -0.12702501 -0.068057664
0.21113841 -0.12365227 0.17185046 0.19430827 0.02130517 -0.051723376 0.107130915 -0.015027587
-0.042756807 -0.007656744 0.022284353 0.13951454 0.17056899 0.17550652 -0.29309464 -0.23953006
0.090078324 -0.12217657 0.24402902 0.02334523 0.25173414 0.099542886 0.20428818 -0.15204915
-0.19182196 0.17654118 -0.023513896 -0.33146137 0.27271143 0.075097434 0.20907478 -0.09924241
00000000: abea 013e 8739 2c3e 65a6 2e3d 4952 853d
00000010: c7ff c43e bab9 d5bc e0a9 723e 74f0 73be
00000020: b045 53be 03f2 a7bd 50f8 8e3d 47ae 6d3e
00000030: efb2 8a3c 53d6 d5bd 045b 833d 0f51 813e
00000040: effa 35be 2f50 debd 3169 fe3d 8610 ca3e
00000050: 1417 ef3c 336a 57bd 521f 803c 8064 25bd
00000060: 4b34 ea3d 4fa8 12bd 2af4 3f3e 62bc 3dbe
00000070: 15cb 47be 6f87 a8bd a338 123d df48 7bbd
00000080: f1c1 b1bd ad81 a03e d1e9 543e c924 05be
00000090: 45f5 993d 6771 513e de3e 4c3d 8ea4 e6bc
000000a0: f8c8 7c3e b848 323c 7c6c 233d a35a aebd
000000b0: 1be9 eabd 001e 25be d47d 01bd dc6b 00be
000000c0: 83da 403d 76e1 343e 1bae 703e aa84 e8be
000000d0: f82b 353c 8a48 423e 2fbb 583d 2012 03be
000000e0: 679c 5b3d a556 5abd 05a1 27bd 37d7 fdbd
000000f0: 6efe 87bd 7180 b2bd 3ae3 193d 298a 863d
00000100: 8bdc 62bc 3175 5d3d dfea 4dbe cf91 363d
00000110: 863d 6c3d ad1c 9ebd 2bab e0bb b77f a4bc
00000120: fa5c 423c 01f9 1d3d 3bec 283e 35c5 773d
00000130: 1561 eb3d d0b6 2abd 1b8c c53d 1f4d f2bd
00000140: aef0 e5bd 8cd6 933d e156 1bbe 7b26 6bbd
00000150: 7e79 ee3e 42ed 91be fead 653a bc2c 8fbe
00000160: a266 acbc bcc8 363d 8ffd 3dbd 1f37 41be
00000170: 24cd 7dbd d258 8fbe cce6 5ebc 59d2 2ebe
00000180: 93ec 3f3e 5b89 3cbd 39eb fabd b8d2 a8be
00000190: 96cf 503e 3c43 bcbe d540 23be f5ab 673d
000001a0: bc47 163d 3b88 373e 7949 ffbd ec40 98be
000001b0: ad54 873e 4597 51be 635f 05be 532e cbbd
000001c0: cc81 df3d e5d2 08bd dd0f a03d 1862 42bd
000001d0: ebea 323e 0536 8d3d 17fb 843e 3cc1 6d3e
000001e0: 22c0 c7bd 9606 d9bd 5bbf 8cbe 56e6 ed3d
000001f0: 7381 5d3e 2e4e 863e 4b76 883d 4e18 a63d
00000200: c813 57be 16e3 083e fc3b 273e a6b6 23be
00000210: 31b1 06be 332f 583e 5861 6e3e 0b54 1fbe
00000220: 8fe4 ad3d 6937 57be 772e 433e 7cf0 18be
00000230: 65e5 43be f228 c23d e90e 0fbe 2855 353e
00000240: 607b b6bd 6fdc 383e 826e 183e ee1b 923e
00000250: e3fb 40be 4ee7 1e3e 192d 2ebd 26d2 5fbd
00000260: 5d15 5fbc b152 3dbd 2c86 593e 392c 78be
00000270: ad36 9cbc c658 a03d 9d33 6c3e 610e 2a3d
00000280: 5844 4abd ec7d 103d f6fd debc e3d9 60be
00000290: d6e1 48bd b3d8 a73d 9ad5 bf3d c49a 8e3d
000002a0: 170e 0f3e 7c3b ffbd f3d4 263e d5e5 ee3d
000002b0: 824b 93bd 82c0 c1bd 2f90 933e 9504 2d3d
000002c0: faf2 c5bd a375 0cbe f42d 813e da99 8fbc
000002d0: 988a 203c db76 403e 9d3f 8d3d a56a beb8
000002e0: a036 6bbd 32f3 8f3e e14d 8f3e ab0b 143c
000002f0: 9de6 6dbd 76cd d53c b9d2 8cbe da38 a93d
00000300: a6ee 35bd eea0 1fbe a2fc 1c3e be7f 5f3d
00000310: fb45 e13d 95a4 3a3e a106 2ebe 3b74 08bd
00000320: 16ab 7abc 40b0 cfbc f876 963d b231 213e
00000330: a4fe 043e 0c7f c8bc d2bf 603e f5b5 7dbe
00000340: 65a3 d0bd 739f 4bbe 2a72 88bc b7ec 13be
00000350: 7442 35be f175 4d3d 1ef7 7a3c 984b 7d3d
00000360: 69fe a13e bd73 f63c 4f9c 813e f1a7 b5bc
00000370: c06a b7bd bf3b 91bd d812 02be d161 8bbd
00000380: ab34 583e 673d fdbd 91f9 2f3e bff8 463e
00000390: 2e88 ae3c e4db 53bd 7467 db3d 4536 76bc
000003a0: c321 2fbd 6de5 fabb ad8d b63c e6dc 0e3e
000003b0: a3a9 2e3e fbb7 333e 8010 96be 5e47 75be
000003c0: fc7a b83d b637 fabd bee2 793e 7f3e bf3c
000003d0: 4ce3 803e 24dd cb3d ec30 513e c6b2 1bbe
000003e0: fa6c 44be 36c7 343e 37a0 c0bc 4eb5 a9be
000003f0: d5a0 8b3e afcc 993d b317 563e 9b3f cbbd

backbone.2.conv.3.weight f4 [8]
0.5601505 0.4429096 0.4483349 0.43788016 0.3710279 0.54642737 0.35736412 0.56071174
00000000: 0666 0f3f 0cc5 e23e 278c e53e d431 e03e
00000010: 5ef7 bd3e aae2 0b3f 6ef8 b63e ce8a 0f3f

backbone.2.conv.3.bias f4 [8]
-0.000112759815 -0.00014110794 4.6647976e-05 0.00018417394 5.4741657e-05 -1.1061789e-05 0.00017966298 9.479775e-05
00000000: 7779 ecb8 60f6 13b9 e2a7 4338 d11e 4139
00000010: 689a 6538 0696 39b7 ea63 3c39 28ce c638

backbone.2.conv.3.running_mean f4 [8]
0.8788013 -0.31628612 -0.015908226 0.40808484 -0.027012836 0.6786124 -0.19837412 0.07589606
00000000: 1ff9 603f 41f0 a1be f851 82bc 7ff0 d03e
00000010: 064a ddbc 8bb9 2d3f 9622 4bbe 656f 9b3d

backbone.2.conv.3.running_var f4 [8]
0.10446434 0.07548149 0.09102583 0.04485593 0.048928812 0.112502255 0.07876632 0.14583175
00000000: 66f1 d53d 0a96 9a3d c06b ba3d daba 373d
00000010: 9469 483d 9567 e63d 3d50 a13d eb54 153e
