ML Model/tv_detection_epoch_70/e-68-0.741.pth (torch_old, 466515 bytes, 205 tensors)

backbone.0.0.weight f4 [16, 3, 3, 3]
0	0x8032cfd6	-4.666332e-39
1	0x8186192e	-4.9259957e-38
2	0x801275fa	-1.695361e-39
3	0x8048cb8e	-6.685177e-39
4	0x0006e8a7	6.34473e-40
5	0x01342f3c	3.3094668e-38
6	0x815a1bb4	-4.0060152e-38
7	0x000b1beb	1.020206e-39
8	0x800da8de	-1.25444e-39
9	0x016193c4	4.143199e-38
10	0x0010835c	1.516491e-39
11	0x800e8418	-1.333083e-39
12	0x0041d1dd	6.044592e-39
13	0x002113bf	3.037655e-39
14	0x818bff70	-5.142707e-38
15	0x0150e94c	3.837095e-38
16	0x004a9b0b	6.851446e-39
17	0x818d3021	-5.186428e-38
18	0x80294020	-3.788259e-39
19	0x80310c13	-4.504271e-39
20	0x0105594c	2.449231e-38
21	0x00383f18	5.165422e-39
22	0x0009cba2	8.99569e-40
23	0x8004dd72	-4.46782e-40
24	0x003ed7c5	5.771204e-39
25	0x001673c7	2.061914e-39
26	0x800feb22	-1.461882e-39
27	0x37e2750a	2.69958e-05
28	0xbc54fc25	-0.012999569
29	0xbd27e5d5	-0.04099067
30	0x3e072e05	0.13201149
31	0x3eafa116	0.34302586
32	0x3b87a9a8	0.0041400976
33	0xbe54270d	-0.20718022
34	0xbe7c5ec9	-0.24645533
35	0xbd366f02	-0.04453946
36	0xbbb4850e	-0.0055090254
37	0x3ca501bd	0.02014243
38	0xbda089f8	-0.078388155
39	0x3e91a6a0	0.28447437
40	0x3f3ac5d8	0.72958136
41	0x3d7b1439	0.061298583
42	0xbea9f9c3	-0.33198366
43	0xbf0ced79	-0.55049855
44	0xbda99683	-0.08280661
45	0x3e3afffa	0.1826171
46	0x3e0222bd	0.12708564
47	0x3db9e7ed	0.090774395
48	0x3e141f7e	0.14465138
49	0x3e859a9f	0.2609453
50	0x3d44e1de	0.048066966
51	0xbdbf1c0a	-0.0933152
52	0xbe02a6d1	-0.12758948
53	0xbbe1c4e4	-0.0068899263
54	0xbdcc9781	-0.099898346
55	0x3daef912	0.085436
56	0xbcb00839	-0.021488296
57	0xbee0dfdd	-0.43920794
58	0x3f35411b	0.7080247
59	0xbe9cca97	-0.30623314
60	0xbf2f66b5	-0.68516093
61	0x3f65101b	0.894777
62	0xbe9912d8	-0.2989719
63	0xbdfdc3eb	-0.12390884
64	0x3e30722b	0.17231052
65	0xbd6281c7	-0.055299547
66	0xbf5b6451	-0.85699946
67	0x3fa60a04	1.2971807
68	0xbf06dcd0	-0.52680683
69	0xbf894795	-1.072497
70	0x3fb82481	1.438614
71	0xbef3040c	-0.47464025
72	0x3b283cc6	0.002567099
73	0x3d03a42f	0.032139
74	0x3dcd0082	0.100098625
75	0xbe532300	-0.2061882
76	0x3ed4d832	0.41571194
77	0xbdc01e12	-0.093807355
78	0xbe8900c8	-0.2675841
79	0x3ef12c32	0.4710403
80	0xbdcde0bb	-0.100526296
81	0xbbeacc40	-0.007165462
82	0xbbcbbfad	-0.006217918
83	0x3dbd6260	0.09247279
84	0x3d89c76e	0.06727491
85	0x3e546d56	0.20744833
86	0xbe845e29	-0.25853088
87	0x3d438db7	0.04774257
88	0x3ea94ad1	0.33064893
89	0xbe9252ff	-0.28578946
90	0x3b0610f7	0.002045689
91	0xbd1d62fe	-0.038424484
92	0x3d902502	0.07038309
93	0x3d50fd96	0.05102309
94	0x3f00ba1f	0.50284
95	0xbf1e24d6	-0.6177496
96	0x3d88c4f4	0.06678191
97	0x3f2702ef	0.6523885
98	0xbf2e4f8b	-0.6809012
99	0x3d22ef3c	0.039778933
100	0x3b3304bd	0.0027316057
101	0xbd486e92	-0.048933573
102	0x3dc150df	0.09439253
103	0x3db1e1ee	0.08685671
104	0xbe10e50b	-0.14149873
105	0x3d6705a0	0.05640185
106	0x3dd61555	0.104532875
107	0xbe38a645	-0.18032177
108	0xbdbd0a87	-0.092305236
109	0xbc947846	-0.018123757
110	0xbd85ab32	-0.065267935
111	0x3d888c37	0.06667369
112	0x3c160dc4	0.009158555
113	0xbe049f54	-0.12951404
114	0x3e1b2d7b	0.15154068
115	0x3dc6bd74	0.09704104
116	0xbe228f56	-0.15874991
117	0x3d1cb1e6	0.038255595
118	0x3c1220ce	0.008918954
119	0xbd4d0001	-0.05004883
120	0x3dfda4a4	0.12384918
121	0xbe13e0a9	-0.1444117
122	0xbea06220	-0.31324863
123	0x3e5afee6	0.21386299
124	0xbd885771	-0.06657303
125	0xbecda4e5	-0.40164867
126	0x3d37776c	0.044791624
127	0xbd186fd0	-0.037216008
128	0xbe28839b	-0.16456454
129	0x3bd36260	0.006450936
130	0xbe23fe39	-0.16014947
131	0xbea4b1e7	-0.3216698
132	0xbcabd25a	-0.020974327
133	0xbd84f703	-0.06492426
134	0xbe2ffc68	-0.17186129
135	0x3e23780c	0.15963763
136	0x3e278e71	0.16362931
137	0xbe3b6ee3	-0.18304019
138	0x3dd1e511	0.10248769
139	0x3f175ae4	0.59123063
140	0x3e7a841c	0.24464458
141	0xbe4e4015	-0.20141633
142	0x3f0a24eb	0.5396258
143	0x3f1bfd68	0.6093354
144	0x3dfd37d6	0.123641655
145	0xbc909f6f	-0.017654149
146	0x3df04273	0.11731424
147	0x3d87da69	0.06633455
148	0xbe22b71f	-0.15890168
149	0xbd6b1f2d	-0.05740278
150	0x3d293866	0.04131355
151	0xbe0df2cf	-0.13862155
152	0xbdb8c98f	-0.09022819
153	0xbe5db534	-0.21651155
154	0xbe12f748	-0.14352143
155	0x3e0e2200	0.13880157
156	0xbdf7cb81	-0.12099362
157	0xbf02975b	-0.510122
158	0xbe866b83	-0.262539
159	0x3d7ae342	0.061251886
160	0xbf00093e	-0.500141
161	0xbf1b0ca2	-0.6056615
162	0xbc0b6ff6	-0.00851058
163	0xbcbf9acb	-0.02338924
164	0x3b5c7830	0.0033640973
165	0x3ee99cfa	0.45627576
166	0xbdd62a3e	-0.10457276
167	0xbe0c0435	-0.1367348
168	0x3e1bf58d	0.15230389
169	0xbd673b18	-0.05645284
170	0x3c0da824	0.008646045
171	0xbd482cbb	-0.048870783
172	0xbcb762ba	-0.022385944
173	0x3d1da087	0.03848317
174	0x3f67e976	0.9059061
175	0xbe450917	-0.19241749
176	0xbea25bd2	-0.31710678
177	0x3e996422	0.29959208
178	0xbe12039a	-0.14259186
179	0x3b3cf23b	0.0028830904
180	0x3c4a9496	0.012364527
181	0xbca7def5	-0.020492056
182	0x3ae36b63	0.0017350729
183	0x3e822a9f	0.25423142
184	0xbd0f0da3	-0.034925114
185	0xbd74d858	-0.059776634
186	0x3cd3afdb	0.02584069
187	0xbd920cd5	-0.07131354
188	0xbca00a72	-0.01953623
189	0x3d204a16	0.039133154
190	0x3cf21da9	0.029555159
191	0xbd6a666d	-0.057226587
192	0xbca0e6bd	-0.019641275
193	0x3e1cfc5b	0.15330641
194	0x3e89a1cd	0.26881257
195	0xbd0d65c6	-0.034520887
196	0x3db1a675	0.08674327
197	0x3ea2f381	0.31826404
198	0xbd729ba5	-0.059230465
199	0xbe3d957b	-0.18514054
200	0xbe517739	-0.20455636
201	0xbd107ad2	-0.03527338
202	0x3dec6a3b	0.11543699
203	0x3e8f346c	0.27969682
204	0xbd10da84	-0.035364643
205	0x3def4a01	0.11684037
206	0x3e9e727c	0.3094672
207	0xba7f1c64	-0.00097317086
208	0x3d0a2193	0.033723425
209	0x3dda0893	0.10646167
210	0x3d174884	0.03693439
211	0x3e2bcd05	0.16777427
212	0x3eac55e0	0.33659267
213	0x3d844c08	0.06459814
214	0x3e0bd0aa	0.13653818
215	0x3e824bfe	0.25448602
216	0x3d263afe	0.040583603
217	0x3d269a48	0.040674478
218	0xbe08b5d2	-0.13350609
219	0xbe3fca62	-0.18729547
220	0x3f2bb4cf	0.67072767
221	0xbf03dad5	-0.51505786
222	0x3c876b8e	0.016530778
223	0x3f36cb91	0.7140437
224	0xbf2ebba7	-0.68255085
225	0xbd0aa6c2	-0.03385044
226	0x3e2c6820	0.16836596
227	0xbe566c1b	-0.20939676
228	0xbe01c59a	-0.12673035
229	0x3f889255	1.0669657
230	0xbf6a1589	-0.9143911
231	0x3c58934b	0.013218711
232	0x3f84c498	1.0372496
233	0xbf798642	-0.97470486
234	0x3d7f0608	0.06226161
235	0x3a7bc973	0.00096049084
236	0xbbcb5bc2	-0.0062060067
237	0xbddc32ff	-0.10751914
238	0x3ecd4c05	0.4009706
239	0xbeaa3d6a	-0.3324998
240	0x3c52fc8f	0.0128775975
241	0x3ecf1e95	0.4045302
242	0xbec8ce0a	-0.39219695
243	0x8036812c	-5.005455e-39
244	0x002fd6ca	4.39332e-39
245	0x801c0a26	-2.575034e-39
246	0x8044985f	-6.299474e-39
247	0x8022539d	-3.152402e-39
248	0x80301d83	-4.41869e-39
249	0x0027fc95	3.672194e-39
250	0x8014d19f	-1.911908e-39
251	0x00111bad	1.571132e-39
252	0x00227016	3.162616e-39
253	0x802c8a68	-4.090413e-39
254	0x000cc76e	1.173568e-39
255	0x0010ede7	1.554711e-39

backbone.0.1.weight f4 [16]
0	0x001d7bd4	2.70765e-39
1	0x3e0e81f0	0.13916755
2	0x3dfea1d1	0.12433208
3	0x3e8b9062	0.27258593
4	0x3e4ad7cc	0.19808882
5	0x3e7aa1ac	0.24475735
6	0x3d1f7cb9	0.038937304
7	0x3e96fef5	0.29491392
8	0x3dc67586	0.096903846
9	0x8010916c	-1.521535e-39
10	0x3ee44eca	0.4459136
11	0x3df409a1	0.11915899
12	0x3e332e96	0.1749824
13	0x3ea9ff68	0.33202672
14	0x0035080f	4.870172e-39
15	0x803cbd25	-5.577982e-39

backbone.0.1.bias f4 [16]
0	0x801528a9	-1.943132e-39
1	0x3f160e95	0.58616
2	0x3ecff549	0.40616825
3	0x3e80219e	0.25025648
4	0x3f5d99c7	0.8656277
5	0x3f09af43	0.53783053
6	0x3f0ba466	0.5454773
7	0x3f0173df	0.5056743
8	0x3f126b04	0.5719454
9	0x8001d15c	-1.6694e-40
10	0xbe54e8c1	-0.20791914
11	0x3f6c9a78	0.924232
12	0x3eef7a22	0.46772867
13	0xbeaa408e	-0.33252376
14	0x00015086	1.20722e-40
15	0x80099ef3	-8.8354e-40

backbone.0.1.running_mean f4 [16]
0	0x84a9a9d3	-3.9887668e-36
1	0x42812628	64.574524
2	0x4100547e	8.020628
3	0x4195e4eb	18.736776
4	0xc326aecd	-166.68282
5	0xc26e51a1	-59.579716
6	0x42a82042	84.063
7	0x435e2b8f	222.17015
8	0x40ad8582	5.4225473
9	0x84520c04	-2.4690899e-36
10	0xc11b7eba	-9.718439
11	0x431d65fe	157.3984
12	0x42cef71b	103.48263
13	0x428a4f5d	69.15501
14	0x05bddee8	1.7855357e-35
15	0x84a04e1c	-3.768755e-36

backbone.0.1.running_var f4 [16]
0	0x00000004	6e-45
1	0x454f5e8d	3317.9094
2	0x4604b71e	8493.779
3	0x44ec14f0	1888.6543
4	0x4647cdc8	12787.445
5	0x4606a4d5	8617.208
6	0x45af6c98	5613.574
7	0x46afc9ed	22500.963
8	0x45b04a84	5641.3145
9	0x00000004	6e-45
10	0x451eeb9b	2542.7253
11	0x462aad75	10923.364
12	0x45cd28cb	6565.099
13	0x458165a5	4140.7056
14	0x00000004	6e-45
15	0x00000004	6e-45

backbone.1.conv.0.0.weight f4 [16, 1, 3, 3]
0	0x01326bc4	3.2770755e-38
1	0x81a68a7f	-6.11775e-38
2	0x81421c8c	-3.5652654e-38
3	0x80185835	-2.235695e-39
4	0x004802e4	6.613193e-39
5	0x802ea48c	-4.283461e-39
6	0x018c095d	5.1441313e-38
7	0x8036f8b8	-5.04834e-39
8	0x010ea488	2.6199326e-38
9	0x3abe0e22	0.0014500062
10	0xbd5ec13d	-0.054383505
11	0x3ceeea71	0.029164525
12	0xba6a82a2	-0.00089458574
13	0xbdf5da70	-0.12004554
14	0x3f4354f7	0.7630152
15	0x3cb79f39	0.02241479
16	0x3d47ca5a	0.048776962
17	0xbf4c2047	-0.7973675
18	0x3b1c90e3	0.002389007
19	0xbd8e63ef	-0.069526546
20	0xbe20db7a	-0.15708724
21	0xbc3af2bf	-0.011410414
22	0x3d83a32c	0.06427607
23	0x3f89584f	1.0730075
24	0x3c02f1f9	0.007992261
25	0xbd370854	-0.044685677
26	0xbd8d9eef	-0.0691508
27	0xbd128bfd	-0.035778034
28	0xbc631bd3	-0.013861614
29	0xbdcae36b	-0.09906658
30	0x3d6ad289	0.05732969
31	0x3f46d31b	0.7766587
32	0xbeae7a78	-0.3407781
33	0xbcc8ba05	-0.024502764
34	0xbc8380bd	-0.016052598
35	0xbe22727d	-0.15863986
36	0x3f15c558	0.5850425
37	0x3ff8b960	1.9431572
38	0x3ee327c8	0.44366288
39	0x3e66bbf5	0.22532637
40	0x3ee46300	0.4460678
41	0x3e3c27f8	0.18374622
42	0xbf58acb4	-0.84638524
43	0xc0086903	-2.1314094
44	0xbf3c75e3	-0.7361738
45	0xbe48f0b1	-0.19623066
46	0x3d8e7a4d	0.06956921
47	0xbe2172c8	-0.15766442
48	0x3e0a5d7f	0.13512228
49	0x3ecee6ae	0.4041037
50	0xbfd0f27e	-1.6324003
51	0x3daabce3	0.083368085
52	0x3fac717f	1.3472136
53	0x3ed318d9	0.41229895
54	0x3b93a56c	0.004505804
55	0x3d326898	0.04355678
56	0xbdc2c96a	-0.09511073
57	0x3d9c09d8	0.07619065
58	0x3d01012a	0.03149525
59	0xbf4e6eb0	-0.80637646
60	0x3d865bb0	0.06560457
61	0xbd012410	-0.031528533
62	0x3f7dcb4d	0.9913834
63	0xbefba9dd	-0.49153033
64	0xbe818fb2	-0.25304943
65	0x3f4340eb	0.7627093
66	0xc0176b6c	-2.3659315
67	0xbea27d2a	-0.31736118
68	0x4029d904	2.6538706
69	0xbef2dbfc	-0.4743346
70	0xbe2db196	-0.16962275
71	0x3f23f7de	0.6405009
72	0xbd1acd40	-0.037793398
73	0x3de3571e	0.11100601
74	0xbce1b575	-0.027552346
75	0x3cec6522	0.028856818
76	0xbf790121	-0.9726735
77	0x3e4fd128	0.2029463
78	0x3c54ea6b	0.012995343
79	0xbd6621f6	-0.05618473
80	0xbd998d2c	-0.074976295
81	0x803804bb	-5.144485e-39
82	0x8045cd16	-6.41022e-39
83	0x80469075	-6.480306e-39
84	0x000c6255	1.137301e-39
85	0x0010eb17	1.553702e-39
86	0x003fd05b	5.86038e-39
87	0x8047d301	-6.596014e-39
88	0x004298fe	6.116026e-39
89	0x80175eb3	-2.146188e-39
90	0x3d800226	0.0625041
91	0xbe2bc0e4	-0.167728
92	0xbef71b5f	-0.4826307
93	0xbe11f33e	-0.14252946
94	0x3e12687c	0.1429767
95	0x3ea430af	0.32068393
96	0xbe86eeb0	-0.2635398
97	0x3eb43726	0.35198325
98	0x3ef39161	0.47571853
99	0x3e25eaca	0.16202846
100	0x3fc90ae8	1.5706453
101	0x3f81434e	1.0098665
102	0x3d82fb7a	0.063956216
103	0x3d075eb3	0.033049297
104	0xbdebf4a8	-0.11521274
105	0xbea9fa27	-0.33198664
106	0xbfd10a3e	-1.6331251
107	0xbf795178	-0.97389936
108	0xbd4717fa	-0.04860685
109	0x3d9416b3	0.07230892
110	0x3cabd4a7	0.020975424
111	0xbc9d1319	-0.019174146
112	0x3ce170af	0.027519552
113	0xbf1a3bf4	-0.6024773
114	0xbcfdbff3	-0.030975318
115	0x3dba8114	0.09106651
116	0x3f65aa9d	0.8971346
117	0xbc0e3cd7	-0.008681498
118	0x3d36c737	0.04462358
119	0xbe0ce0f4	-0.13757688
120	0x3d70539b	0.058673482
121	0x3de99d19	0.11406917
122	0xbdc60857	-0.096695594
123	0xbdcefc18	-0.10106677
124	0xbce333f2	-0.02773473
125	0x3f2ff8a2	0.6873876
126	0x80234d16	-3.241896e-39
127	0x802ba330	-4.007467e-39
128	0x001ccfc4	2.645926e-39
129	0x002eda44	4.302732e-39
130	0x003b6f9f	5.458336e-39
131	0x804c7e1a	-7.024734e-39
132	0x8028433d	-3.69754e-39
133	0x8023a862	-3.274647e-39
134	0x801bb536	-2.544565e-39
135	0x80069b63	-6.06755e-40
136	0x003f7689	5.828159e-39
137	0x01716594	4.4337588e-38
138	0x803dec03	-5.68663e-39
139	0x8044ed02	-6.329836e-39
140	0x81920df5	-5.3651957e-38
141	0x003ad3ed	5.402483e-39
142	0x8040e556	-5.959742e-39
143	0x803b0e6e	-5.42347e-39

backbone.1.conv.0.1.weight f4 [16]
0	0x80198de0	-2.346783e-39
1	0x3f124c9a	0.57148135
2	0x3f34003d	0.70312864
3	0x3f0c4fd3	0.548093
4	0x3f90ba2e	1.1306818
5	0x3ef8bec6	0.4858305
6	0x3f00bdcf	0.50289625
7	0x3f64e646	0.8941387
8	0x3efb90b3	0.49133834
9	0x0013df4a	1.824975e-39
10	0x3e82294a	0.25422126
11	0x3f846eed	1.0346352
12	0x3f31e4e4	0.69489884
13	0x3e930f48	0.28722596
14	0x80078024	-6.88817e-40
15	0x80315763	-4.531288e-39

backbone.1.conv.0.1.bias f4 [16]
0	0x812d6c78	-3.1852904e-38
1	0x3f31f003	0.69506854
2	0x3fa8cc31	1.3187314
3	0x3ea9b94c	0.33149183
4	0x3e43b68e	0.19112608
5	0x3f7b9613	0.9827587
6	0x3f2d201e	0.6762713
7	0x3eda715c	0.4266461
8	0x3ecf4d99	0.4048889
9	0x878aea33	-2.0901582e-34
10	0x3e92bb23	0.286584
11	0x3d5445d2	0.0518244
12	0x3f82a81d	1.0207554
13	0xbe90a100	-0.28247833
14	0x8004565c	-3.98322e-40
15	0x8000cc00	-7.3181e-41

backbone.1.conv.0.1.running_mean f4 [16]
0	0x00000004	6e-45
1	0xbd7769d7	-0.06040367
2	0x3ea0989d	0.31366435
3	0x3d284629	0.041082535
4	0x3ddb4ddd	0.107082106
5	0x3e83c17d	0.25733557
6	0x3e15721e	0.14594314
7	0xbc6aae28	-0.014323749
8	0xbeef0360	-0.46682262
9	0x00000002	3e-45
10	0x3cb264bf	0.021776555
11	0xbe49dace	-0.19712374
12	0x3e3dc49f	0.18532036
13	0x3ca569b1	0.020192
14	0x80000004	-6e-45
15	0x80000004	-6e-45

backbone.1.conv.0.1.running_var f4 [16]
0	0x00000004	6e-45
1	0x3c3c1b19	0.01148107
2	0x3c1d708f	0.009609356
3	0x3d082ed3	0.03324778
4	0x3e727ade	0.23679683
5	0x3d7c68db	0.061623435
6	0x3b44abf2	0.0030009714
7	0x3ecf7aa7	0.40523264
8	0x3c06b96e	0.008222921
9	0x00000004	6e-45
10	0x3c2bb604	0.010480408
11	0x3e102aa2	0.14078763
12	0x3c85ebd8	0.01634781
13	0x3b58eed6	0.0033101342
14	0x00000004	6e-45
15	0x00000004	6e-45

backbone.1.conv.1.weight f4 [8, 16, 1, 1]
0	0x000b82b0	1.057072e-39
1	0xbdff1d2d	-0.12456737
2	0xbc1d5198	-0.009601973
3	0x3e43b434	0.19111711
4	0xbddf7252	-0.10910477
5	0x3f25cf35	0.647693
6	0x3e600bf6	0.21879563
7	0xbd856544	-0.065134555
8	0xbdda31f2	-0.106540576
9	0x8012e90d	-1.736642e-39
10	0x3dded95e	0.10881303
11	0x3e893875	0.26800886
12	0x3dd30bab	0.1030496
13	0x3cfddeee	0.03099009
14	0x80018576	-1.39712e-40
15	0x00091fa2	8.37867e-40
16	0x00412cf6	5.985436e-39
17	0xbdf8375a	-0.121199325
18	0xbf02f12d	-0.51149255
19	0x3c11981d	0.008886364
20	0x3dd50b34	0.104025275
21	0xbd98285e	-0.074295744
22	0x3d0c9aa7	0.034327175
23	0xbc16c930	-0.00920324
24	0x3cd7032f	0.026246635
25	0x0038cf03	5.21705e-39
26	0xbcfca4b7	-0.03084026
27	0xbac3774f	-0.0014912876
28	0xbe6ff697	-0.2343391
29	0x3e8b6b5f	0.27230355
30	0x8003d02e	-3.50187e-40
31	0x80297681	-3.807767e-39
32	0x0013f87a	1.834011e-39
33	0x3ec83b4c	0.3910774
34	0x3e06f0b9	0.13177766
35	0x3ee10b49	0.43953922
36	0xbe5e39a4	-0.21701676
37	0xbe42666b	-0.18984382
38	0xbe85b07a	-0.26111203
39	0x3e030797	0.12795864
40	0xbe8534bc	-0.26016796
41	0x8028c0bb	-3.742559e-39
42	0xbe02f73b	-0.12789623
43	0x3ecf39f3	0.404739
44	0x3cb6792f	0.022274582
45	0xbcba6651	-0.022753866
46	0x00082058	7.46287e-40
47	0x000c9443	1.155212e-39
48	0x8018bc84	-2.271679e-39
49	0xbe13b2b6	-0.14423642
50	0xbe2e6af0	-0.17032981
51	0xbce9cbc5	-0.028539548
52	0x3f0223d1	0.508359
53	0xbec14eec	-0.37755525
54	0x3da91afa	0.082570985
55	0xbc9401ec	-0.018067323
56	0xbe57b3b4	-0.21064645
57	0x003d25f1	5.615576e-39
58	0x3e2c350f	0.16817115
59	0xbeb98382	-0.36233145
60	0x3eba0ab9	0.36336306
61	0x3ebb5f5b	0.36596188
62	0x00383e93	5.165235e-39
63	0x803bae96	-5.480924e-39
64	0x801be6f5	-2.56241e-39
65	0xbeb4114f	-0.35169455
66	0x3e95eaa7	0.29280588
67	0xbcfc4dff	-0.03079891
68	0x3e3369f9	0.17520894
69	0xbf1f240a	-0.62164366
70	0x3db2d824	0.08732632
71	0xbe8c68b6	-0.27423638
72	0x3db8c768	0.09022409
73	0x0043ff2c	6.244517e-39
74	0x3e1e16b1	0.15438344
75	0xbdd5813c	-0.1042504
76	0xbe478f1a	-0.19488183
77	0xbc247c39	-0.010039383
78	0x001ec11d	2.824341e-39
79	0x802f9bce	-4.37216e-39
80	0x00c48f68	1.8051202e-38
81	0xbe1032e0	-0.14081907
82	0x3c35915c	0.01108202
83	0xbef49f65	-0.47777858
84	0xbe9c56d2	-0.3053499
85	0xbe20a051	-0.15686156
86	0x3e4417c5	0.19149692
87	0x3f153750	0.58287525
88	0x3ec05209	0.37562588
89	0x004c1f5d	6.990749e-39
90	0x3dcd71d4	0.100314766
91	0x3ee30705	0.44341293
92	0x3ad43773	0.0016190842
93	0x3c811d9b	0.015761187
94	0x8029adaa	-3.827554e-39
95	0x0028372c	3.693212e-39
96	0x81927bc6	-5.3809536e-38
97	0x3ee9395d	0.45551577
98	0xbdc73037	-0.09725993
99	0xbef59558	-0.47965503
100	0xbebc9555	-0.3683268
101	0x3d945755	0.0724322
102	0x3cfbbdf3	0.030730223
103	0xbf4bd80f	-0.79626554
104	0x3e20a4df	0.15687893
105	0x001d3ddd	2.685422e-39
106	0xbe157050	-0.14593625
107	0x3e999f0b	0.30004153
108	0xbcf8039f	-0.030275164
109	0x3e4047f2	0.18777445
110	0x802be0b1	-4.02953e-39
111	0x0025b972	3.464439e-39
112	0x8004cc6e	-4.40678e-40
113	0xbde4a04c	-0.11163387
114	0x3e4e924a	0.20172992
115	0x3a80ddec	0.0009831763
116	0x3ef9a8f9	0.48761728
117	0x3f233828	0.6375756
118	0xbe8020b0	-0.2502494
119	0x3e17f87f	0.14840887
120	0x3c0b6e92	0.008510249
121	0x00364249	4.982895e-39
122	0x3dd6fe51	0.10497726
123	0xbecf8a1d	-0.4053506
124	0xbe54cdb7	-0.20781599
125	0xbdb7d830	-0.08976781
126	0x8022aecc	-3.185112e-39
127	0x8032a326	-4.650301e-39

backbone.1.conv.2.weight f4 [8]
0	0x3f0b0e72	0.54318917
1	0x3ef65f2d	0.48119488
2	0x3f24c5a4	0.64364076
3	0x3f117891	0.56824595
4	0x3f088dd4	0.5334141
5	0x3f1047d3	0.56359595
6	0x3f1348ec	0.57533145
7	0x3f04d7ff	0.51892084

backbone.1.conv.2.bias f4 [8]
0	0xb8c1d399	-9.24237e-05
1	0xb810b460	-3.4500263e-05
2	0x39205b4e	0.00015292803
3	0x390a7059	0.00013202558
4	0xb8b3bf2b	-8.570993e-05
5	0xb88d73b4	-6.744955e-05
6	0xb905ce97	-0.00012760829
7	0x3657a688	3.213443e-06

backbone.1.conv.2.running_mean f4 [8]
0	0x3f59323f	0.84842294
1	0xbf830561	-1.0236017
2	0x3e551c78	0.20811641
3	0xbe5088b5	-0.2036465
4	0xbf28f3c6	-0.6599697
5	0x3e5e16ca	0.21688381
6	0xbecf46d8	-0.40483737
7	0x3f23956c	0.63899875

backbone.1.conv.2.running_var f4 [8]
0	0x3de6855d	0.11255906
1	0x3de9c90e	0.11415301
2	0x3e6a1a74	0.22861654
3	0x3ead7a15	0.33882204
4	0x3e356204	0.17713171
5	0x3eb31786	0.34978884
6	0x3ecf4cf5	0.404884
7	0x3e4036f2	0.1877096

backbone.2.conv.0.0.weight f4 [48, 8, 1, 1]
0	0x3defa1fc	0.11700818
1	0x3c6ac9d1	0.014330343
2	0x3e3f0bd4	0.18656856
3	0xbe5b8fd4	-0.21441585
4	0xbe16de7d	-0.1473331
5	0x3dabe745	0.083937205
6	0x3e76164c	0.24031943
7	0x3d5b72a7	0.053576138
8	0x3e1630c6	0.14667043
9	0x3e2d7743	0.16940026
10	0x3d87ca9d	0.06630442
11	0x3e1f5e60	0.15563345
12	0xbe1cdcd9	-0.15318622
13	0xbe702c03	-0.23454289
14	0xbe0c72c0	-0.13715649
15	0xbdaf6b14	-0.085653454
16	0xbdd8d6b4	-0.10587826
17	0x3ccdb8db	0.02511256
18	0xbe4ee2f0	-0.20203757
19	0x3e2b31a7	0.1671816
20	0xbd0177e0	-0.031608462
21	0xbdcfb2b2	-0.10141505
22	0xbe728e39	-0.23687066
23	0x3e21b3f1	0.15791298
24	0xbdf9e310	-0.12201512
25	0x3e590828	0.21194518
26	0x3e0eb631	0.13936688
27	0xbf12d692	-0.5735866
28	0x3d0b7c63	0.03405417
29	0xbdb3a84e	-0.08772336
30	0xbe7594db	-0.23982565
31	0xbed946e8	-0.4243691
32	0xbc665d2c	-0.0140603
33	0xbd2b474f	-0.041816052
34	0x3e4a7048	0.19769394
35	0xbe5e72b9	-0.2172345
36	0xbdbef909	-0.093248434
37	0x3dd82ec7	0.10555797
38	0x3d6cc366	0.057803534
39	0xbe908490	-0.28226137
40	0x3d97c945	0.07411436
41	0xbd04e37c	-0.03244351
42	0x3daa4464	0.08313826
43	0xbe7927b3	-0.2433155
44	0xbd62ac35	-0.05534001
45	0x3ce3b5c3	0.027796632
46	0x3e7cb4db	0.24678366
47	0xbd8fbb99	-0.07018203
48	0x3aa02294	0.0012217336
49	0x3e51329b	0.2042946
50	0x3e30685d	0.17227311
51	0x3db52f96	0.08846967
52	0xbdb17041	-0.08663989
53	0xbe8c66d1	-0.27422193
54	0xbe082c8c	-0.13298243
55	0xbdd54388	-0.10413271
56	0x3d722f27	0.059127
57	0x3e47ee5b	0.19524519
58	0x3c2cd37b	0.010548468
59	0xbd33cd5f	-0.04389703
60	0x3ba4628a	0.0050166296
61	0x3d2fc0fa	0.042908646
62	0xbc559608	-0.0130362585
63	0x3e22d0fe	0.15900037
64	0xbe047e1c	-0.12938732
65	0xbb80bd17	-0.0039287913
66	0x3ec320ba	0.38110906
67	0xbdd87eb3	-0.10571041
68	0xbe56b84d	-0.20968743
69	0x3c291b7e	0.010321496
70	0xbe34d056	-0.17657599
71	0x3d094181	0.033509735
72	0xbd75004a	-0.05981473
73	0x3eb09ada	0.34493142
74	0xbcc45d85	-0.023970375
75	0x3d2d2fca	0.042281903
76	0xbe16ee57	-0.14739357
77	0x3d31a6b9	0.04337189
78	0x3d953e7f	0.07287311
79	0xbdb5d190	-0.088778615
80	0xbd14354a	-0.036183633
81	0xbccc2894	-0.024921693
82	0xbc1c22fc	-0.009529825
83	0xbef8cbde	-0.48593038
84	0x3d8b2365	0.0679386
85	0xbc3c4919	-0.011492037
86	0x3c81abe1	0.015829029
87	0x3d63143e	0.055439226
88	0xbda7474b	-0.08167895
89	0x3ca40802	0.02002335
90	0xbea7ec2c	-0.32797372
91	0x3e8a3017	0.26989815
92	0x3dcbd7cb	0.099532686
93	0xbe1b8edf	-0.1519122
94	0xbe2e5c09	-0.17027296
95	0x3e539516	0.2066234
96	0x3e2c490f	0.16824745
97	0x3dafff90	0.085936666
98	0xbe25dbdb	-0.1619715
99	0x3de43b37	0.11144107
100	0x3d78822f	0.060671028
101	0x3df53451	0.11972869
102	0xbc744fbf	-0.014911591
103	0x3cdad88a	0.026714582
104	0x3e4bef13	0.19915418
105	0xbe1f7f26	-0.15575847
106	0xbdb48c68	-0.08815843
107	0xbb4bdf68	-0.0031108502
108	0xbe87cb58	-0.26522326
109	0x3ded7c40	0.115959644
110	0x3d5f12c5	0.05446126
111	0x3e7e6094	0.24841529
112	0x3d8a5464	0.067543775
113	0xbe535b34	-0.2064026
114	0x3cc664de	0.02421802
115	0x3eb38712	0.35063988
116	0xbd4914fb	-0.049092274
117	0x3db632b1	0.08896387
118	0xbc47ebbd	-0.0122022005
119	0xbe9786f3	-0.29595146
120	0x3bf3132f	0.0074180583
121	0x3d12d8ed	0.035851408
122	0x3e984e3d	0.2974719
123	0x3e14bbc4	0.14524752
124	0xbe97d516	-0.2965476
125	0xbdb315e2	-0.08744408
126	0x3cb2d604	0.021830566
127	0xbe4acace	-0.19803926
128	0x3e4bbe7d	0.19896884
129	0x3e37b0d4	0.17938548
130	0x3e12fe81	0.14354898
131	0x3e475cdc	0.19469017
132	0x3e633420	0.22187853
133	0x3e2e8709	0.170437
134	0x3d668b28	0.056285053
135	0x3daef5d5	0.085429825
136	0x3d885d5b	0.06658431
137	0x3c22accb	0.009928892
138	0x3e05f55a	0.13081875
139	0xbe5657ef	-0.20931982
140	0xbe492052	-0.19641235
141	0x3dfac8da	0.12245341
142	0x3c8d6571	0.017260285
143	0xbcd3a705	-0.025836477
144	0xbe951cd8	-0.2912357
145	0x3db0091d	0.08595488
146	0xbe527e9b	-0.20556109
147	0x3d99def0	0.07513225
148	0xbd70da40	-0.05880189
149	0xbe250d00	-0.1611824
150	0xbe1a8b36	-0.15092167
151	0x3e99f069	0.3006623
152	0xbda8f1cd	-0.08249245
153	0x3d00811a	0.03137312
154	0xbea63009	-0.32458523
155	0x3e878907	0.2647173
156	0x3db8910f	0.09012043
157	0xbe5d44c3	-0.21608262
158	0xbe8140c8	-0.25244737
159	0x3ebabd6c	0.36472642
160	0x3ddba284	0.10724357
161	0x3e643592	0.2228606
162	0x3e3ce5f4	0.18447095
163	0x3e7f9b7b	0.24961655
164	0x3aa80a21	0.0012820401
165	0x3ca76a3e	0.020436402
166	0x3e0bec43	0.13664345
167	0x3dd04c97	0.10170858
168	0x3d952458	0.07282323
169	0xbd2f6ca4	-0.042828217
170	0x3d833ca2	0.06408049
171	0xbeb6ed90	-0.3572812
172	0x3e03bf52	0.12865952
173	0xbdc9eb5c	-0.09859344
174	0xbe9e821d	-0.30958644
175	0xbdd29aaa	-0.10283406
176	0x3ca5ceb8	0.020240173
177	0x3da94ba7	0.08266383
178	0x3d01a97e	0.03165578
179	0x3de56df7	0.11202615
180	0xbe2faf7c	-0.17156786
181	0xbd03cde8	-0.03217879
182	0xbbae3748	-0.0053166486
183	0xbdfbdf6b	-0.12298473
184	0x3e98ef85	0.2987024
185	0xbbdebe3d	-0.0067975805
186	0x3dfb2603	0.122631095
187	0x3d408045	0.046997327
188	0x3d2fd722	0.042929776
189	0xbd4416e7	-0.047873404
190	0x3ca07164	0.019585319
191	0x3b60b8f9	0.003428994
192	0xbddb567d	-0.10709856
193	0xbe03e5c6	-0.1288062
194	0x3d84071f	0.06446671
195	0x3e2539ad	0.16135283
196	0xbe1949ab	-0.14969508
197	0xbd254559	-0.04034934
198	0x3deab50c	0.11460313
199	0xbd285635	-0.04109784
200	0x3d4b8956	0.04969152
201	0xbe9b8d53	-0.3038126
202	0x3e784453	0.24244814
203	0xbe19545f	-0.14973591
204	0x3e22d389	0.15901007
205	0xbe0f818e	-0.14014265
206	0xbd13488c	-0.035957858
207	0x3e92cbc0	0.28671074
208	0xbdfc5439	-0.12320752
209	0x3d1e21d2	0.038606472
210	0x3e61275b	0.21987669
211	0x3c94010e	0.01806691
212	0xbdcd985f	-0.10038828
213	0x3c9978ab	0.018734297
214	0x3e617be6	0.2201992
215	0x3e2a6f2d	0.16643973
216	0xbe9c1e55	-0.30491892
217	0x3e04119b	0.12897341
218	0xbe1e4ff1	-0.15460183
219	0x3e712515	0.23549302
220	0xbde545f9	-0.11194987
221	0x3dc18218	0.094486415
222	0x3e6b1a43	0.22959237
223	0x3d2b07aa	0.041755356
224	0x3ec87960	0.39155102
225	0xbc915be6	-0.017744016
226	0xbe398b47	-0.18119536
227	0xbdc56606	-0.096386
228	0xbe2a22dc	-0.1661486
229	0xbe3e020d	-0.1855547
230	0xbded1617	-0.11576479
231	0x3e1605f9	0.14650716
232	0x3d3ad474	0.045612767
233	0xbc72766b	-0.014798741
234	0x3e4b81a4	0.19873673
235	0x3e413f45	0.18871792
236	0x3dbd2771	0.092360385
237	0x3e06e27b	0.13172333
238	0xbd696c87	-0.056988265
239	0x3d59fa47	0.0532172
240	0xbe1fdeef	-0.15612386
241	0xbe36ec75	-0.17863639
242	0xbeb0960b	-0.34489474
243	0xbd87fde3	-0.06640222
244	0xbda2a4a4	-0.07941559
245	0x3ee62eec	0.44957674
246	0x3dbb0714	0.091322094
247	0x3d87a1d3	0.066226624
248	0x3e047e16	0.12938723
249	0xbcdf5afa	-0.02726506
250	0xbd21c458	-0.03949389
251	0xbea3f26f	-0.320209
252	0xbe72839a	-0.23683015
253	0x3d694fd7	0.056960907
254	0x3cff49a0	0.031163037
255	0x3e648972	0.22318056

backbone.2.conv.0.1.weight f4 [48]
0	0x3ee07b7d	0.43844214
1	0x3e8d0b91	0.27547887
2	0x3e290ec3	0.16509537
3	0x3e04990d	0.12949009
4	0x3e330f8d	0.17486401
5	0x3dd030fb	0.10165592
6	0x3e967bae	0.29391235
7	0x3ddb95bf	0.10721921
8	0x3ea57b36	0.32320565
9	0x3e41cc6b	0.18925636
10	0x3e332028	0.17492735
11	0x3ec004c6	0.37503642
12	0x3ddf4921	0.1090262
13	0x3e1484d4	0.14503795
14	0x3e1b99fd	0.1519546
15	0x3ebc9feb	0.36840758
16	0x3e0bdb4c	0.13657874
17	0x3e8c04cf	0.2734742
18	0x3ec1bc65	0.37839046
19	0x3e58c862	0.2117019
20	0x3e472e7f	0.1945133
21	0x3ddf70d1	0.1091019
22	0x3df46b0d	0.11934481
23	0x3da44cb0	0.080224395
24	0x3e0a3ef3	0.13500576
25	0x3e573de6	0.21019706
26	0x3e22c8cf	0.15896915
27	0x3e9388c2	0.28815275
28	0x3dcc6548	0.09980255
29	0x3d5d3dca	0.054014005
30	0x3ed76ee2	0.42076784
31	0x3d80154f	0.06254064
32	0x3e5d6903	0.2162209
33	0x3e97af2f	0.29625842
34	0x3e5219f3	0.20517711
35	0x3e55b39b	0.20869295
36	0x3ea68313	0.32521877
37	0x3ec3eddd	0.38267413
38	0x3e23aa84	0.15983015
39	0x3eace04a	0.3376487
40	0x3eb96a86	0.36214083
41	0x3e580702	0.21096423
42	0x3de287b3	0.11061039
43	0x3e30a4b3	0.17250328
44	0x3e43528d	0.1907446
45	0x3ea2dc70	0.31808805
46	0x3e9fd14d	0.3121437
47	0x3e1d39db	0.15354101

backbone.2.conv.0.1.bias f4 [48]
0	0xbcefaa35	-0.029255966
1	0x3d13cb17	0.036082353
2	0x3e4b2d2e	0.19841453
3	0x3ed8fb3e	0.42379183
4	0x3e804f81	0.25060657
5	0x3e814516	0.2524802
6	0x3d5e877c	0.054328427
7	0xbc65b017	-0.014019034
8	0xbd4863be	-0.048923247
9	0x3db25423	0.08707454
10	0xbde54373	-0.111945055
11	0x3d7e12a6	0.062029503
12	0x3e268528	0.16261733
13	0x3e3182c2	0.17335036
14	0x3e510854	0.20413333
15	0xbcf6ec6a	-0.030142028
16	0xbdc171cf	-0.094455354
17	0x3dc73f7e	0.09728907
18	0x3cb4310b	0.021996042
19	0x3eb2bb7e	0.3490867
20	0x3eb0b540	0.34513283
21	0x3e212dc7	0.15740119
22	0x3e7d778e	0.24752638
23	0x3e8e52c2	0.27797514
24	0x3e14417c	0.14478105
25	0x3d1fd500	0.039021492
26	0x3df40d3b	0.11916586
27	0xbe99340d	-0.29922524
28	0x3e8bd987	0.27314398
29	0x3e873329	0.2640622
30	0xbcef4244	-0.029206403
31	0x3e7cd72d	0.24691458
32	0x3dafd5f5	0.08585731
33	0x3d40b2d9	0.047045562
34	0x3e00f40a	0.12593094
35	0x3e2f1c50	0.17100644
36	0xbd6aabca	-0.057292737
37	0x3d18ff6d	0.037352968
38	0x3e515de9	0.2044598
39	0x3dbc2168	0.09186059
40	0x3c6f92b7	0.014622382
41	0x3d839d58	0.06426495
42	0x3e974ee4	0.29552376
43	0x3e135749	0.14388765
44	0x3e095aff	0.13413619
45	0xbd2fc2c7	-0.042910364
46	0x3e54b268	0.20771182
47	0x3e2c9645	0.16854198

backbone.2.conv.0.1.running_mean f4 [48]
0	0xb76a1e19	-1.39544945e-05
1	0x37f83557	2.9588742e-05
2	0xb61e4664	-2.3584807e-06
3	0x383e408f	4.5359655e-05
4	0x37d0d919	2.4896626e-05
5	0xb7439972	-1.16586325e-05
6	0x3810f8e9	3.456409e-05
7	0xb70e038e	-8.464687e-06
8	0x37ca4fdc	2.4117464e-05
9	0x37bbd66e	2.2391989e-05
10	0xb7d1cea5	-2.5010968e-05
11	0xb783267b	-1.5634336e-05
12	0xb6922be4	-4.3562486e-06
13	0xb801b6db	-3.0926294e-05
14	0x380d8baa	3.3747092e-05
15	0x382fb488	4.1891384e-05
16	0x35ac087c	1.2817468e-06
17	0x36906e61	4.304384e-06
18	0xb796947f	-1.7950542e-05
19	0xb7d7b0fc	-2.5712412e-05
20	0x36e0304b	6.6813423e-06
21	0x371a6985	9.2036835e-06
22	0x37c46c97	2.3415587e-05
23	0xb4bf756c	-3.5661958e-07
24	0x36ce119c	6.1413284e-06
25	0xb818b195	-3.640501e-05
26	0xb73d58ba	-1.1285936e-05
27	0xb5bcb598	-1.4059942e-06
28	0xb7b1a439	-2.1176516e-05
29	0x3721d85e	9.646725e-06
30	0xb7e5365c	-2.732424e-05
31	0xb804110f	-3.148714e-05
32	0xb742e85d	-1.1617402e-05
33	0x3777d8d6	1.4772833e-05
34	0xb83f87eb	-4.5664532e-05
35	0x38373914	4.3683758e-05
36	0xb7957080	-1.7814571e-05
37	0xb827364f	-3.986648e-05
38	0x370e05a1	8.46517e-06
39	0xb7233cb1	-9.729688e-06
40	0x376dd307	1.4175434e-05
41	0xb594a10e	-1.1073732e-06
42	0xb4628ccd	-2.1099113e-07
43	0xb700f2d4	-7.685932e-06
44	0x3802d808	3.119561e-05
45	0xb8623c04	-5.3938493e-05
46	0xb7a98edc	-2.0212894e-05
47	0x38248026	3.9219995e-05

backbone.2.conv.0.1.running_var f4 [48]
0	0x3def923a	0.116978124
1	0x3d79638f	0.060885962
2	0x3dd555b7	0.104167394
3	0x3e06be24	0.1315847
4	0x3de13de9	0.109981366
5	0x3db4eaf5	0.08833877
6	0x3d632d10	0.055462897
7	0x3c852233	0.016251659
8	0x3dbf185a	0.093308166
9	0x3d34cffc	0.04414366
10	0x3d8b0842	0.067886844
11	0x3e4d6024	0.20056206
12	0x3ccf33fb	0.02529334
13	0x3dab4e30	0.083645225
14	0x3d4d0465	0.05005302
15	0x3dad07ee	0.08448778
16	0x3c8ed401	0.017435076
17	0x3d9f87fd	0.077896096
18	0x3de93e70	0.11388862
19	0x3e8cf699	0.2753189
20	0x3d024ec1	0.031813387
21	0x3d1952aa	0.03743235
22	0x3c8a2085	0.01686121
23	0x3d02d409	0.031940494
24	0x3c46392c	0.012098592
25	0x3da81bd5	0.082084335
26	0x3ce7c5dd	0.02829259
27	0x3d8beea3	0.06832626
28	0x3dfcd2bf	0.12344884
29	0x3cb1316e	0.021630015
30	0x3e0c1086	0.13678178
31	0x3dea1997	0.11430662
32	0x3d622b26	0.05521693
33	0x3d794116	0.060853086
34	0x3e07a4af	0.13246416
35	0x3db2222c	0.08697924
36	0x3e0164b2	0.12636068
37	0x3e331039	0.17486657
38	0x3c98214f	0.01857057
39	0x3e0d869f	0.13820885
40	0x3d0f2f07	0.03495696
41	0x3db4de42	0.08831455
42	0x3d27fb54	0.04101117
43	0x3db10c2d	0.086449005
44	0x3dcf0895	0.10109059
45	0x3e06a74b	0.13149755
46	0x3dfc0b90	0.12306893
47	0x3de82148	0.11334473

backbone.2.conv.1.0.weight f4 [48, 1, 3, 3]
0	0x3b4752c0	0.0030414313
1	0xbe118348	-0.14210236
2	0xbdf59d64	-0.119929105
3	0xbd0ced65	-0.034406085
4	0xbe32fa25	-0.17478235
5	0xbe035e16	-0.1282886
6	0x3cb8ed9a	0.022574235
7	0xbe1aa668	-0.15102541
8	0xbda9990b	-0.08281144
9	0xbc4d4d84	-0.012530688
10	0x3d8a0a2a	0.0674022
11	0xbd0bbcbb	-0.034115534
12	0xbe0689d0	-0.13138509
13	0xbdbc307a	-0.09188934
14	0xbe226a1a	-0.15860787
15	0xbe0cd45d	-0.13752885
16	0xbe01f2e9	-0.12690319
17	0xbdb01297	-0.08597296
18	0xbe049a89	-0.12949575
19	0xbd88219b	-0.06647035
20	0xbc70ad24	-0.014689717
21	0x3e3869b1	0.18009068
22	0x3ec51b31	0.38497308
23	0x3e5e07fd	0.21682735
24	0xbdc8b1fb	-0.09799572
25	0xbe138ec3	-0.14409928
26	0xbe981cf7	-0.29709598
27	0x3df3ed37	0.119104795
28	0x3e56b1af	0.20966218
29	0x3d2ce6da	0.042212345
30	0x3e7dec9e	0.24797294
31	0x3ee01832	0.4376846
32	0x3d988a50	0.07448256
33	0x3ddc3093	0.10751452
34	0x3e4f9c12	0.2027438
35	0x3d2b8122	0.041871198
36	0xbdefe5b4	-0.11713734
37	0xbea58777	-0.32329914
38	0xbe09c9bb	-0.1345586
39	0xbdd40f17	-0.10354441
40	0xbdc9346f	-0.09824454
41	0x3cbb3e68	0.022856906
42	0x3e1b849b	0.15187304
43	0x3eb6d007	0.35705587
44	0x3dc9415a	0.09826918
45	0x3df19dd7	0.11797684
46	0x3e82e69c	0.25566566
47	0x3e078631	0.13234784
48	0xbc004528	-0.007828988
49	0xbd3054a9	-0.04304949
50	0x3cb7b60e	0.022425678
51	0xbdc618bb	-0.09672686
52	0xbe89e313	-0.26931056
53	0xbe8256cb	-0.25456843
54	0xbcf8a4cf	-0.030352024
55	0xbd6037c6	-0.05474069
56	0xbdfe09cb	-0.124042116
57	0xba8ff327	-0.0010982499
58	0xbe6944d4	-0.22780162
59	0xbe9f21c3	-0.31080446
60	0x3ca32f47	0.019920005
61	0xbda7f989	-0.08201892
62	0xbe7c9d76	-0.24669442
63	0xbde46566	-0.11152153
64	0xbb86237e	-0.0040935865
65	0xbe1a0259	-0.15039958
66	0xbdada329	-0.08478386
67	0x3db33bde	0.08751653
68	0xbe2db412	-0.16963223
69	0xbdf2fcb7	-0.11864608
70	0x3d78ab89	0.060710464
71	0xbe0d934e	-0.13825724
72	0x3d5d744b	0.054065984
73	0x3dd9e207	0.106388144
74	0x3da5ea93	0.08101382
75	0x3d1cc669	0.038275156
76	0x3e8428d8	0.2581241
77	0x3e4b3b4b	0.19846837
78	0xbca7d2b4	-0.020486213
79	0x3e2a0678	0.1660403
80	0x3dd2a7da	0.102859214
81	0xbe2dd213	-0.16974668
82	0x3e56a213	0.20960264
83	0xbd8fa85a	-0.070145324
84	0x3c688507	0.014191872
85	0x3df32a8d	0.1187335
86	0xbd1644d9	-0.036686752
87	0x3e18875c	0.14895386
88	0xbeadbde9	-0.33933952
89	0x3d4496cd	0.047995377
90	0x3dbffd40	0.093744755
91	0x3c6c1889	0.0144101465
92	0x3d0e12b7	0.034685817
93	0x3dfcbd0f	0.123407476
94	0x3e6e3ead	0.23266096
95	0x3d94b7b8	0.07261604
96	0x3d9f7404	0.077858
97	0x3d9f0002	0.07763673
98	0x3da74941	0.08168269
99	0xbde0287f	-0.10945224
100	0xbe552297	-0.20813976
101	0xbd7128c6	-0.058876775
102	0xbd0c990d	-0.034325648
103	0xbe91e257	-0.28492996
104	0xbe20767e	-0.15670201
105	0xbaec5d28	-0.0018033134
106	0xbd5f640f	-0.054538783
107	0xbd83de5b	-0.06438895
108	0xbd2fc099	-0.042908285
109	0x3dd900b2	0.10595836
110	0x3ce328cd	0.027729416
111	0x3e257639	0.1615838
112	0xbecb88d1	-0.3975282
113	0x3cf13dc8	0.029448405
114	0xbdd3b5d8	-0.10337418
115	0x3e690f61	0.22759773
116	0xbd00cdda	-0.031446315
117	0xbdfea06d	-0.124329425
118	0x3d8a0823	0.06739833
119	0x3d033f0a	0.03204254
120	0xbea49050	-0.32141352
121	0x3e9c5821	0.30535987
122	0x3d6e189c	0.058128938
123	0xbda8aaa8	-0.08235675
124	0x3e1b7ad6	0.15183577
125	0xbdba76d5	-0.09104697
126	0xbdb89f06	-0.09014706
127	0xbe04ac68	-0.12956393
128	0xbcf1dd3c	-0.029524438
129	0x3e1ede82	0.15514567
130	0x3ec9a987	0.39387152
131	0x3dfb2be5	0.122642316
132	0xbd7d1103	-0.0617838
133	0xbe8523cc	-0.26003873
134	0xbd9dd761	-0.07707096
135	0xbd01d922	-0.031701215
136	0xbdd1f45d	-0.10251687
137	0x3d484890	0.048897326
138	0xbe69e903	-0.22842793
139	0xbe4b6c8e	-0.19865629
140	0xbb09d5fb	-0.0021032083
141	0xbd029ef1	-0.03188986
142	0xbe8282ab	-0.25490317
143	0xbc85e2f3	-0.01634357
144	0x3cfef74b	0.031123778
145	0xbda39a00	-0.079883575
146	0xbca67e6e	-0.020323958
147	0xbc6329f1	-0.01386498
148	0x3db3c271	0.08777321
149	0x3e16d6be	0.14730355
150	0x3d8dfffc	0.06933591
151	0x3de07593	0.109599255
152	0x3daedc9e	0.08538173
153	0x3d1871e2	0.037217982
154	0x3d28abbc	0.041179404
155	0x39037849	0.00012537943
156	0x3e607c84	0.21922499
157	0x3e60b7e9	0.21945156
158	0x3d601f67	0.054717448
159	0x3de53b67	0.11192971
160	0x3e2784d9	0.16359271
161	0x3df09f19	0.117490955
162	0xbd2221db	-0.03958307
163	0xbc9a4705	-0.018832693
164	0x3db004bd	0.08594654
165	0xbd3ab9cd	-0.04558735
166	0xbe7b71ac	-0.24555081
167	0xbdb6b3ee	-0.089210376
168	0x3bf99c00	0.0076174736
169	0xbe5fab66	-0.21842727
170	0xbe0c4270	-0.13697219
171	0x3d422630	0.0473997
172	0xbd6c7ded	-0.05773728
173	0xbdb45026	-0.088043496
174	0x3d2510f0	0.040299356
175	0xbe8018c0	-0.25018883
176	0xbe7f1442	-0.24910071
177	0x3d559240	0.052141428
178	0xbe77b536	-0.2419022
179	0xbe08a6d5	-0.13344891
180	0x3df2c857	0.11854618
181	0x3e07c035	0.13256915
182	0xbb98e01d	-0.0046653883
183	0x3e2f58a7	0.17123662
184	0x3eaed875	0.3414952
185	0xbd66283a	-0.056190707
186	0x3d282a59	0.04105601
187	0x3e2c79b6	0.16843304
188	0xbd9fa85f	-0.07795786
189	0xbdb4fc14	-0.088371426
190	0x3c5bacbe	0.013407884
191	0x3e411be9	0.18858303
192	0xbe029fe0	-0.127563
193	0xbe34c4a6	-0.1765314
194	0x3e888bcb	0.26669154
195	0xbd9db3e1	-0.07700325
196	0xbe64a3e6	-0.22328147
197	0x3d9f85d4	0.077891976
198	0x3dc27742	0.09495403
199	0xbe90f8c5	-0.28314796
200	0x3d6fee67	0.058576968
201	0xbe597592	-0.21236256
202	0x3ef2f2ae	0.47450775
203	0xbd912c8e	-0.07088576
204	0x3e012417	0.12611423
205	0xbe35abe9	-0.1774136
206	0xbca068a1	-0.019581141
207	0xbd36e22a	-0.04464928
208	0x3d4a48b8	0.049385756
209	0xbd788ebd	-0.060683
210	0x3d625331	0.05525512
211	0xbefc8073	-0.4931675
212	0x3e89a2b5	0.26881948
213	0x3beacf6a	0.007165839
214	0x3ede8c78	0.43466544
215	0xbe543eac	-0.20727032
216	0x3c00dabf	0.007864653
217	0x3d35144e	0.044208817
218	0x3df4aeec	0.11947426
219	0xbdbba5da	-0.09162493
220	0xbe8dad85	-0.27671447
221	0xbe9d5d2e	-0.30735153
222	0x3ddeaebb	0.10873171
223	0x3e6ea27b	0.23304169
224	0x3df84bb3	0.121238135
225	0x3d89178a	0.06693943
226	0x3e22625c	0.15857834
227	0x3db3835a	0.08765288
228	0x3de77ce7	0.1130312
229	0x3e8935d8	0.26798892
230	0x3e1b6139	0.15173806
231	0x3d8716d1	0.06596149
232	0x3e80555c	0.25065124
233	0x3dd2377c	0.10264489
234	0xbd1d4de4	-0.03840436
235	0xbe17c21c	-0.1482014
236	0xbd917e98	-0.07104224
237	0x3e16e6b9	0.14736451
238	0x3ea2b3f1	0.3177791
239	0x3dde24cf	0.108468644
240	0xbde655cc	-0.11246833
241	0xbe474d76	-0.19463143
242	0xbcd8eb3e	-0.02647936
243	0xbc2ffc6c	-0.010741334
244	0x3e103df9	0.1408614
245	0x3dfdf10c	0.12399492
246	0x3cff02b6	0.031129222
247	0x3e4399d8	0.19101655
248	0x3df7d3e7	0.12100964
249	0x3acc195a	0.001557152
250	0x3defede8	0.11715299
251	0x3daa6fe9	0.083221264
252	0x3e2a890a	0.16653839
253	0x3e16f917	0.14743458
254	0x3e044be8	0.12919581
255	0x3dc7b6ee	0.09751688

backbone.2.conv.1.1.weight f4 [48]
0	0x3efe9b8a	0.49728042
1	0x3e9c48ec	0.30524385
2	0x3ebbc9cd	0.366774
3	0x3e765f93	0.24059896
4	0x3ebb933a	0.36635762
5	0x3ec8e8d6	0.3924014
6	0x3e1ebf31	0.15502621
7	0x3e89ea6f	0.2693667
8	0x3e22845f	0.15870808
9	0x3e96efc4	0.29479802
10	0x3e2246a1	0.15847255
11	0x3f084577	0.53230995
12	0x3e9e3f7d	0.30907813
13	0x3e8fecd6	0.2811038
14	0x3ec73885	0.38910308
15	0x3eaaa823	0.33331403
16	0x3e96461c	0.29350364
17	0x3ea4c7ed	0.3218378
18	0x3f0ba999	0.5455566
19	0x3efcb54a	0.49357063
20	0x3e609976	0.2193354
21	0x3e4de190	0.20105577
22	0x3e974b12	0.29549462
23	0x3eafb69b	0.34319004
24	0x3ec12ca9	0.37729385
25	0x3e56d17c	0.2097835
26	0x3ec227e4	0.3792106
27	0x3e644777	0.22292887
28	0x3e8910cc	0.26770627
29	0x3e85ab10	0.26107073
30	0x3f0583f6	0.5215448
31	0x3e8417f7	0.25799534
32	0x3e9ce0db	0.306403
33	0x3e4b87c7	0.19876014
34	0x3e893d27	0.26804468
35	0x3eb53c2b	0.35397467
36	0x3e67cbdc	0.2263636
37	0x3ebee903	0.3728715
38	0x3ea0fa52	0.3144098
39	0x3eacf59b	0.33781132
40	0x3ea544ec	0.32279146
41	0x3e612570	0.21986938
42	0x3eafa33b	0.34304222
43	0x3eacb824	0.33734238
44	0x3ea8b3b0	0.3294959
45	0x3e11740a	0.14204422
46	0x3ea52636	0.32255715
47	0x3e950771	0.2910724

backbone.2.conv.1.1.bias f4 [48]
0	0xbcf7fcc0	-0.030271888
1	0x3bb99b20	0.0056642443
2	0x3c0f512f	0.008747383
3	0x3f37ed32	0.71846306
4	0x3c8b4e76	0.017005187
5	0x3c311bfd	0.010809896
6	0x3f26ae4b	0.651097
7	0xbee0c798	-0.43902278
8	0x3de6dc62	0.112725034
9	0xbd10eff2	-0.03538508
10	0x3dbdc820	0.092666864
11	0x3deddd92	0.11614527
12	0xbc7caa3f	-0.015421449
13	0x3cb288b7	0.021793706
14	0xbb48383b	-0.0030551094
15	0x3b1b2245	0.002367155
16	0x3c8444d7	0.016146107
17	0xbd815a25	-0.06316022
18	0x3d9cea11	0.07661832
19	0xbc853e19	-0.016264962
20	0x3f243665	0.641455
21	0x3a70a0bd	0.00091792253
22	0xbc47a1bb	-0.012184556
23	0x3bd5c386	0.0065235524
24	0xbb2365a1	-0.0024932402
25	0x3b9c6bf2	0.0047736103
26	0xbc9f73e5	-0.019464443
27	0x3d924e80	0.07143879
28	0x3e1b2817	0.15152012
29	0xbd2c9467	-0.042133715
30	0xbc2bb4e7	-0.010480142
31	0x3ce9b416	0.028528254
32	0xbc85921e	-0.016305026
33	0x3f293d11	0.66108805
34	0x3f60cc6a	0.8781191
35	0xbc2e58b8	-0.010641269
36	0x3f11c09d	0.5693453
37	0x3e979364	0.29604638
38	0x3b39c870	0.002834823
39	0x3e016604	0.12636572
40	0x3c70eb2a	0.014704505
41	0x3916b404	0.00014372176
42	0x3c378cc7	0.0112029975
43	0xbca3c63b	-0.019991985
44	0xbccd382c	-0.025051199
45	0x3e8b9269	0.2726014
46	0x3d919ab6	0.07109587
47	0xbdbfd273	-0.09366312

backbone.2.conv.1.1.running_mean f4 [48]
0	0xbdca81c2	-0.098880306
1	0xbd96711b	-0.07345792
2	0x3c0d4c4e	0.0086241495
3	0x3f1f42cb	0.62211293
4	0xbd0049fd	-0.03132056
5	0xbd240695	-0.04004534
6	0xbdfd28bd	-0.12361286
7	0xbc9f8c5f	-0.019476114
8	0x3da9fe24	0.083004266
9	0xbc1b3175	-0.009472241
10	0x3c77580d	0.015096677
11	0xbe10089c	-0.14065784
12	0xbb84c505	-0.004051807
13	0x3b9679ee	0.004592172
14	0x3b8cf755	0.004301945
15	0xbdaa8351	-0.08325828
16	0x3c06f929	0.008238115
17	0x3e0cbece	0.13744661
18	0xbdb41096	-0.08792226
19	0xbea25075	-0.3170201
20	0x3e8d4e62	0.27598864
21	0xbcc3f422	-0.023920123
22	0xbb0c96e0	-0.0021452233
23	0x3b8a61af	0.0042230706
24	0xbb820bc2	-0.003968687
25	0x3dcf1406	0.10111241
26	0xbbe44250	-0.006965913
27	0x3c448e11	0.011996762
28	0x3e933a58	0.2875545
29	0xbc0ab61a	-0.008466268
30	0xbdfa771f	-0.12229752
31	0x3e139388	0.14411747
32	0x3d79c04d	0.060974408
33	0xbde4c51d	-0.11170409
34	0xbe31ec5c	-0.1737532
35	0x3c20bb23	0.009810242
36	0xbd8173cb	-0.06320914
37	0xbe1b09c4	-0.15140444
38	0xbb578c2d	-0.0032889948
39	0x3e4c596c	0.19955987
40	0xbe07675e	-0.13223025
41	0x3df8f00a	0.12155159
42	0xbdc90d17	-0.0981695
43	0x3d322cb6	0.04349967
44	0xbab670df	-0.0013919136
45	0x3e03b58e	0.12862226
46	0xbe854b80	-0.26034164
47	0x3d19a46f	0.03751033

backbone.2.conv.1.1.running_var f4 [48]
0	0x3ca73287	0.020409836
1	0x3bf6cbb7	0.007531609
2	0x3be1d731	0.006892108
3	0x3c8ba91e	0.017048415
4	0x3c6f2c96	0.014598032
5	0x3ba8d22d	0.005152008
6	0x3cb39ec0	0.021926284
7	0x3a9e124b	0.0012059895
8	0x3cacbd74	0.021086432
9	0x3ae1b7b1	0.0017220882
10	0x3a62406c	0.00086308154
11	0x3d065180	0.03279257
12	0x3a854c33	0.0010169804
13	0x3b567fa0	0.003272988
14	0x3c028843	0.007967058
15	0x3c8585ab	0.01629909
16	0x3aa37fc0	0.0012473986
17	0x3c99e713	0.018786943
18	0x3c9d4d86	0.019202005
19	0x3c777a8e	0.015104903
20	0x3c1c7ff8	0.0095519945
21	0x3b3ecdbc	0.0029114326
22	0x3b34abc4	0.00275682
23	0x3a866e92	0.0010256341
24	0x3bedf54e	0.0072619086
25	0x3c70a6c6	0.014688199
26	0x3bc6641f	0.006054416
27	0x3a8e2ad0	0.0010846499
28	0x3ba9aa8a	0.0051778005
29	0x3938c76c	0.00017621898
30	0x3cd0c552	0.025484715
31	0x3a9b24e9	0.0011836562
32	0x3baa7360	0.005201742
33	0x3cab67f0	0.020923585
34	0x3c93e525	0.0180536
35	0x3c0d8404	0.008637432
36	0x3b94d558	0.004542034
37	0x3d23ccf9	0.0399904
38	0x3b621996	0.0034500114
39	0x3d82fb19	0.06395549
40	0x3d013ee5	0.03155412
41	0x3c1354e3	0.008992407
42	0x3b8b49e5	0.0042507523
43	0x3bb4c2f5	0.0055164048
44	0x3ba1b0de	0.0049344143
45	0x3cb1e0df	0.021713672
46	0x3c613f6a	0.013748029
47	0x3ac795ea	0.0015227173

backbone.2.conv.2.weight f4 [8, 48, 1, 1]
0	0x3ddcea08	0.107868254
1	0x3e3525d3	0.1769021
2	0x3d173272	0.036913343
3	0x3d95e198	0.07318419
4	0x3ec5d3ce	0.38638157
5	0xbcdd9b07	-0.027051462
6	0x3e684901	0.22684099
7	0xbe5e56cd	-0.217128
8	0xbe5cc5a7	-0.21559773
9	0xbda9e205	-0.08295063
10	0x3d95f617	0.073223285
11	0x3e765b39	0.24058236
12	0x3cec8093	0.028869903
13	0xbdc6220a	-0.09674461
14	0x3db0aa30	0.08626211
15	0x3e80e090	0.25171328
16	0xbe2cbea4	-0.16869599
17	0xbde721d8	-0.11285752
18	0x3df8dc11	0.12151349
19	0x3ec4e10b	0.38452944
20	0x3c029781	0.007970692
21	0xbdb7dc35	-0.08977548
22	0xbb2270bc	-0.0024786433
23	0xbc006c1d	-0.007838276
24	0x3ddc7bf9	0.107658334
25	0xbd2c647e	-0.042088024
26	0x3e388e9e	0.18023154
27	0xbe4c86e7	-0.19973336
28	0xbe4ea913	-0.20181684
29	0xbd61905f	-0.055069324
30	0x3d2bbed5	0.04193004
31	0xbd239ef6	-0.03994652
32	0xbdb5b8a0	-0.08873105
33	0x3ea05435	0.31314245
34	0x3e4de3cd	0.2010643
35	0xbe2415a5	-0.16023882
36	0x3d9b05f5	0.075694956
37	0x3e5242ed	0.20533343
38	0x3d1ce9ed	0.038309027
39	0xbd2bc073	-0.04193158
40	0x3e8129b3	0.25227126
41	0x3c0eaa7e	0.008707641
42	0x3d1ee8f1	0.03879637
43	0xbdab318b	-0.08359059
44	0xbdfb07e0	-0.122573614
45	0xbe24a8c7	-0.16080008
46	0xbd5f1f56	-0.054473244
47	0xbe04b876	-0.12960991
48	0x3d74d6c4	0.05977513
49	0x3e30dabe	0.17270944
50	0x3e5f5fda	0.21813908
51	0xbeeb6d6a	-0.45981914
52	0x3bf53373	0.00748294
53	0x3e432c3d	0.19059844
54	0x3d6cba4c	0.057794854
55	0xbdd46afc	-0.10371968
56	0x3d5ac199	0.053407285
57	0xbd618c29	-0.055065308
58	0xbd355512	-0.044270582
59	0xbe09a37a	-0.13441268
60	0xbd8f2df4	-0.06991187
61	0xbd9bd955	-0.07609812
62	0x3d826a65	0.063679494
63	0x3d896deb	0.06710418
64	0x3b4e3d6b	0.0031469713
65	0x3d1dfe8b	0.03857283
66	0xbe4de1ff	-0.20105742
67	0x3cdd83f6	0.027040463
68	0x3d4bb748	0.049735337
69	0xbdbeb688	-0.09312159
70	0xbc0114b2	-0.007878469
71	0xbc971bae	-0.018445816
72	0x3d239a49	0.03994206
73	0x3d4c2967	0.04984417
74	0x3e1aba0c	0.15110034
75	0x3d815044	0.063141376
76	0x3debc1b0	0.11511552
77	0xbd179743	-0.03700949
78	0x3dca27dd	0.098708846
79	0xbdec21a5	-0.11529855
80	0xbdd8cca1	-0.10585905
81	0x3d9effa8	0.07763606
82	0xbe0f25cf	-0.13979267
83	0xbd735898	-0.05941066
84	0x3ef93276	0.4867131
85	0xbe8e5a1f	-0.27803132
86	0xbbb2cec4	-0.0054567773
87	0xbe8e9083	-0.2784463
88	0x39621b01	0.000215631
89	0x3d22dca6	0.039761208
90	0xbd819e5e	-0.06329034
91	0xbe3bdbbb	-0.1834554
92	0xbd8faadf	-0.07015013
93	0xbe8dbd3b	-0.27683434
94	0xbce0370f	-0.027370004
95	0xbe28556c	-0.16438836
96	0x3e3efee1	0.18651916
97	0xbd316a86	-0.04331448
98	0xbe013452	-0.12617615
99	0xbeaf3481	-0.34219745
100	0x3e5602aa	0.20899454
101	0xbeb8c135	-0.36084905
102	0xbe14f193	-0.14545278
103	0x3d5d5343	0.054034483
104	0x3d1e99ba	0.038720824
105	0x3e25f28e	0.16205809
106	0xbe03accc	-0.12858886
107	0xbe9daa41	-0.30793956
108	0x3e873495	0.26407304
109	0xbe5e807c	-0.217287
110	0xbe089314	-0.13337356
111	0xbddbd684	-0.10734275
112	0x3deca426	0.11554746
113	0xbcfb9247	-0.030709399
114	0x3d98f2f7	0.07468217
115	0xbd1ba7f0	-0.038001955
116	0x3e2a6477	0.16639887
117	0x3d819ec5	0.06329111
118	0x3e631752	0.22176865
119	0x3e724260	0.23658133
120	0xbdd2a08d	-0.10284529
121	0xbdc3ffb2	-0.095702544
122	0xbe8397fa	-0.25701886
123	0x3dec9288	0.11551386
124	0x3e55336b	0.20820396
125	0x3e8fdaf6	0.2809674
126	0x3d5abb34	0.053401187
127	0x3dade249	0.08490426
128	0xbe61ec45	-0.22062786
129	0x3e085b3e	0.13316056
130	0x3e2da7ea	0.16958585
131	0xbe2da7ba	-0.16958514
132	0xbe0500ea	-0.1298863
133	0x3e67517c	0.22589678
134	0x3e6c78e3	0.2309299
135	0xbe184a55	-0.14872105
136	0x3db402ae	0.087895736
137	0xbe564730	-0.20925593
138	0x3e418be7	0.18901025
139	0xbe13db4e	-0.14439127
140	0xbe3e1ab2	-0.18564871
141	0x3dccc954	0.09999338
142	0xbe1959e9	-0.14975704
143	0x3e452484	0.19252211
144	0xbd9837e5	-0.07432536
145	0x3e4241b0	0.1897037
146	0x3e13ed02	0.1444588
147	0x3e8db283	0.27675256
148	0xbe2e9674	-0.17049581
149	0x3e3319b9	0.17490281
150	0xbd5aada1	-0.05338824
151	0xbd53f76c	-0.05174963
152	0x3b8abb9e	0.0042337915
153	0xbcb0cdc3	-0.02158249
154	0x3e6045a4	0.21901566
155	0xbe753754	-0.23946887
156	0xbc715134	-0.014728833
157	0x3da97bbf	0.08275556
158	0x3e64ab9f	0.22331093
159	0x3d30c494	0.04315622
160	0xbd0cbd7a	-0.034360386
161	0x3d3a727d	0.04551934
162	0xbcf403c4	-0.029786952
163	0xbe4f848a	-0.20265403
164	0xbd418e49	-0.047254834
165	0x3db0054c	0.0859476
166	0x3dc30728	0.09522849
167	0x3d879a9d	0.06621287
168	0x3e1b074b	0.15139501
169	0xbe04d5d8	-0.129722
170	0x3e2e87ae	0.17043945
171	0x3df12749	0.11775071
172	0xbd9948f8	-0.07484621
173	0xbd9acd1d	-0.075586535
174	0x3ea017f5	0.31268278
175	0x3d3cfb62	0.046138175
176	0xbdaf9779	-0.08573813
177	0xbe0f6246	-0.14002332
178	0x3e883562	0.26603228
179	0xbbc0d763	-0.005885051
180	0x3c6ad85e	0.0143338125
181	0x3e3ee1ed	0.18640871
182	0x3d50d159	0.0509809
183	0x3bfa0b69	0.0076307547
184	0xbd668500	-0.056279182
185	0x3e8a25de	0.26982015
186	0x3e9ca920	0.30597782
187	0x3c0109a2	0.007875832
188	0xbd80be75	-0.06286327
189	0x3cb71fea	0.022354085
190	0xbe86d06f	-0.26330897
191	0x3dc34a06	0.09535603
192	0xbd2f9c52	-0.042873688
193	0xbe21157e	-0.15730855
194	0x3e25bcb5	0.16185267
195	0x3d3cf1cf	0.046129044
196	0x3de4a647	0.111645274
197	0x3e3d0ede	0.18462703
198	0xbe4077a5	-0.18795641
199	0xbcd490f2	-0.025948022
200	0xbc473dfe	-0.012160776
201	0x3bf9e97c	0.0076267105
202	0x3d84361e	0.064556345
203	0x3e2a4a0e	0.16629812
204	0x3e1987a8	0.14993155
205	0xbcf0ca5b	-0.029393366
206	0x3e7fd3bc	0.24983114
207	0xbe57fc80	-0.21092415
208	0xbde27beb	-0.11058792
209	0xbe57dfea	-0.2108151
210	0xbc4c23d1	-0.012459711
211	0xbe03187c	-0.12802309
212	0xbe2f608e	-0.17126676
213	0x3d47c4dc	0.048771724
214	0x3d3a0cf4	0.04542251
215	0x3d897ae9	0.067128964
216	0x3e9b2abb	0.30306038
217	0x3d7f9747	0.06240013
218	0x3e8bd1c8	0.27308488
219	0xbd814c18	-0.06313342
220	0xbd94f545	-0.07273344
221	0xbd89794c	-0.06712589
222	0xbdf44be9	-0.11928541
223	0xbda15cdb	-0.07879039
224	0x3e4b9095	0.19879372
225	0xbe1a7858	-0.1508497
226	0x3e2df18f	0.16986679
227	0x3e53526c	0.2063691
228	0x3c85ed07	0.016348375
229	0xbd84629e	-0.06464122
230	0x3e012805	0.12612922
231	0xbd003924	-0.031304494
232	0xbd3723b4	-0.044711784
233	0xbcd047bc	-0.02542483
234	0x3c277f06	0.010223156
235	0x3e1d41cb	0.1535713
236	0x3e2698c8	0.16269219
237	0x3e1075ec	0.14107484
238	0xbe905005	-0.2818605
239	0xbe72ba85	-0.23703964
240	0x3da9dd95	0.082942165
241	0xbdfa5b2b	-0.1222442
242	0x3e84ecae	0.25961822
243	0x3cf57a24	0.029965468
244	0x3e7ef733	0.24898987
245	0x3dd36f32	0.10323943
246	0x3e5236ba	0.20528689
247	0xbe034cf3	-0.12822323
248	0xbe343e9f	-0.17602013
249	0x3e2bc588	0.16774571
250	0xbc94d034	-0.018165685
251	0xbea74013	-0.32666072
252	0x3e87b4f7	0.26505253
253	0x3dbecb10	0.09316075
254	0x3e5a46aa	0.21316019
255	0xbdd712f5	-0.10501663

backbone.2.conv.3.weight f4 [8]
0	0x3f0e2835	0.555301
1	0x3ee662fa	0.44997388
2	0x3ee2790d	0.4423298
3	0x3ee7973c	0.4523257
4	0x3ebf6843	0.37384233
5	0x3f0c7754	0.5486958
6	0x3eb4b5a9	0.35294846
7	0x3f0e0972	0.5548316

backbone.2.conv.3.bias f4 [8]
0	0x3827de41	4.0022893e-05
1	0xb809a7db	-3.2819673e-05
2	0x387016e8	5.7241792e-05
3	0xb688cbc0	-4.0768355e-06
4	0x369f9132	4.755472e-06
5	0x38433574	4.6541405e-05
6	0xb76701de	-1.3769108e-05
7	0xb61033b4	-2.1487767e-06

backbone.2.conv.3.running_mean f4 [8]
0	0x3f52f3c7	0.82403225
1	0xbe926d36	-0.28598946
2	0xbd12f9aa	-0.03588263
3	0x3ee240b6	0.44189996
4	0xbd618707	-0.055060413
5	0x3f2d5e8c	0.6772239
6	0xbe40a524	-0.18812996
7	0x3db13be3	0.086540006

backbone.2.conv.3.running_var f4 [8]
0	0x3dca7b4e	0.098868
1	0x3da4bfaa	0.080443695
2	0x3dbe8d70	0.09304321
3	0x3d4ea4ba	0.050450064
4	0x3d51b357	0.051196422
5	0x3df0021d	0.11719153
6	0x3dad0e89	0.08450038
7	0x3e0e403f	0.13891695
