ML Model/tv_detection_epoch_70/e-7-1.153.pth (torch_old, 466507 bytes, 205 tensors)

backbone.0.0.weight f4 [16, 3, 3, 3]
000000 c4 9e ce 0f 4c 5b 3b 0e 6d a6 38 10 94 eb 09 91
       2.0374323e-29 2.3093487e-30 3.641581e-29 -1.0879988e-28
000010 56 c2 67 10 fc de 71 8e fd 6d ff 8f 6e 15 c0 0f
       4.5706428e-29 -2.9812907e-30 -2.5187307e-29 1.8940916e-29
000020 d8 8f 9f 0e c6 3f c0 8f ae f5 85 8f 76 f0 47 90
       3.9335043e-30 -1.8957226e-29 -1.3209445e-29 -3.9431074e-29
000030 62 21 87 10 45 95 11 11 c4 6d 9c 0e 6c 6d f3 0f
       5.3299545e-29 1.148448e-28 3.856267e-30 2.4003798e-29
000040 b0 d9 04 11 f5 55 ad 8f af ff f8 8f 37 64 ec 8f
       1.0480044e-28 -1.7092227e-29 -2.4553174e-29 -2.3309998e-29
000050 32 6f f6 0f c5 a4 87 0f 0d 8d 81 90 ec ad da 8e
       2.4300304e-29 1.3375495e-29 -5.109885e-29 -5.390863e-30
000060 8b 81 ca 10 61 79 f1 90 9c 5a 6d 90 58 13 2a bd
       7.9874544e-29 -9.524475e-29 -4.6809812e-29 -0.041522354
000070 71 46 bc b9 1b 89 3f 3d 1c 37 ff 3d 34 ec c3 3e
       -0.00035910637 0.046761613 0.12461683 0.38266146
000080 d0 8f 4d 3d 24 90 42 be ac 2b 89 be 29 c2 23 bd
       0.05018598 -0.19000298 -0.26791131 -0.039980087
000090 14 3e 18 bd d6 2f ac 3d 61 be 18 3d a0 ef 82 3e
       -0.037168577 0.084075615 0.037290934 0.25573444
0000a0 a5 b3 3f 3f dc 74 ca 3d 6e 94 ac be c8 4d 1a bf
       0.7488349 0.098855704 -0.33706993 -0.60274935
0000b0 92 a6 a2 bd 5b 3b 49 3d c0 aa 9a 3d 1d d3 e7 3d
       -0.07941927 0.04912887 0.07552099 0.113195635
0000c0 92 e6 56 3d 3b 60 41 3e 3d 79 a7 3c b4 01 6c bd
       0.052465983 0.18884365 0.020443553 -0.05761881
0000d0 07 24 17 be c3 70 40 3b 19 eb ce bd 24 ab c7 3d
       -0.14759837 0.0029364086 -0.10103435 0.09749439
0000e0 d6 cf 09 bc bc 47 cf be 86 5b 3d 3f 9d d7 a1 be
       -0.008411368 -0.40484416 0.7396778 -0.31609812
0000f0 f5 37 2b bf 31 2e 6d 3f c4 f9 96 be 5c 98 02 be
       -0.6688226 0.9264861 -0.2948743 -0.12753433
000100 3c 95 39 3e e5 64 5c bd d6 0e 56 bf 6b 80 aa 3f
       0.18123335 -0.053807158 -0.8361639 1.332044
000110 b1 5c 0c bf 2e 7c 88 bf fd 9b bc 3f 2e dc f3 be
       -0.54828936 -1.0662897 1.4735104 -0.4762892
000120 3f ee 38 3b 90 5c 27 3b 64 8b 81 3d d7 27 35 be
       0.0028218178 0.002553735 0.06325415 -0.17690979
000130 f7 36 d0 3e b5 ba 10 be 7d 55 7a be d0 37 f0 3e
       0.40666935 -0.14133723 -0.24446674 0.46917582
000140 db 03 f9 bd 1b 7f 8f bb 0e 13 4b bd 4a 38 91 3d
       -0.121589385 -0.004379166 -0.04957872 0.070908144
000150 c8 55 83 3d 1d 8f 4b 3e cc cf 92 be f0 76 fb 3c
       0.06412846 0.19878812 -0.2867416 0.030696362
000160 1f 9b a0 3e cc 37 aa be 4f 0e 9d bc ca 10 a4 bd
       0.31368348 -0.33245695 -0.019171862 -0.08011015
000170 9e ec 89 3d 35 37 41 3d c1 36 03 3f 0e 58 20 bf
       0.06734584 0.04717179 0.5125542 -0.6263436
000180 bd 25 66 3d b5 82 25 3f b1 86 34 bf 69 22 e2 bc
       0.056188334 0.6465257 -0.7051802 -0.027604299
000190 d0 ec 31 bd fc 91 9a 3b ae b6 1c 3d a4 e6 9a 3d
       -0.043438733 0.0047171097 0.038260154 0.075635225
0001a0 99 d7 aa bd 30 3b 0b 3a fb 18 af 3d 81 1d 06 be
       -0.08341903 0.0005311249 0.085496865 -0.13097192
0001b0 48 9c 71 bd b6 ec 34 3d 75 e5 af 3c bd 66 55 3d
       -0.058986932 0.044171058 0.021471718 0.052099932
0001c0 f6 62 43 bd 60 61 8b bd 91 71 40 3e e1 69 98 3c
       -0.0477018 -0.06805682 0.18793322 0.018605174
0001d0 2e d7 49 be 99 76 c9 3c 64 67 4c 3d 0e 74 d3 bc
       -0.19710991 0.024592685 0.04990329 -0.025812175
0001e0 ec 8c c9 3d 6a ec 50 be 31 6e 98 be 82 41 88 3e
       0.09841332 -0.20402685 -0.2977157 0.26612478
0001f0 b8 b7 1b be 86 ee ee be 06 53 01 3a 44 03 24 3d
       -0.15206802 -0.46666354 0.0004933331 0.040042177
000200 78 dc 53 bd 31 e9 87 bc ca ce a3 bd 35 52 e1 bd
       -0.051723927 -0.016590687 -0.07998426 -0.11002008
000210 18 7d fe 3c 1a 0d 5f bd 9e 9a e5 bd 4a 8b 2c 3e
       0.031065509 -0.054455854 -0.112111315 0.1685001
000220 ac 91 2c 3e 8c 0a 79 be 8d 53 fe 3d 24 be 23 3f
       0.16852444 -0.2432043 0.1241828 0.63962007
000230 79 5c 75 3e f1 da 3e be a2 86 17 3f 19 5f 24 3f
       0.23961057 -0.18638207 0.5918981 0.6420761
000240 31 e8 0d 3d fa 4b e2 bd 63 92 e8 3c ea 4d 95 bc
       0.034645263 -0.11049648 0.028390115 -0.018225629
000250 59 58 6e be 2f 2f ff bd 47 dc fe bc 13 3e 55 be
       -0.2327589 -0.124601714 -0.031110896 -0.2082446
000260 d4 aa 1c be dd 8f 23 be d8 5a a8 bd f2 5e 5a 3e
       -0.15299541 -0.15972848 -0.08220452 0.21325281
000270 34 9f 65 bd 03 91 d6 be 6c 99 18 be 60 cd 01 3e
       -0.05606003 -0.4190751 -0.14902276 0.12676
000280 ba 96 dc be 10 a4 05 bf d4 c9 8e bc 49 d5 9e bc
       -0.43083745 -0.52203465 -0.017430224 -0.019388812
000290 e7 11 11 3a 88 7c e6 3e d3 99 0e be 7c de 5d be
       0.00055339787 0.45016885 -0.13925867 -0.21666902
0002a0 eb 57 0e 3e 70 0c cb bd 5d cd 8d bd 10 77 7d bd
       0.13900726 -0.09914482 -0.069239356 -0.061881125
0002b0 7c 53 88 bc d4 10 ab 3c e0 96 67 3f f7 3c 8f be
       -0.016641371 0.020882048 0.9046459 -0.279762
0002c0 ff 77 f8 be bf c3 83 3e ea dd 70 be c0 46 c6 bd
       -0.4852905 0.2573528 -0.23522153 -0.09681463
0002d0 94 8d 89 3c 88 4f 83 3c 50 69 7b 3b e9 d9 53 3e
       0.016791143 0.016029134 0.0038362332 0.20688595
0002e0 43 74 a0 bd d0 9c 15 be 73 6b 58 3d df 38 5a bd
       -0.07834675 -0.146106 0.052836847 -0.053276893
0002f0 13 89 12 bd 73 f6 09 3d c5 f1 76 bc b1 2b 06 be
       -0.035775255 0.033682298 -0.015072291 -0.13102604
000300 b8 dc 8f bc 58 c0 9b 3d 9a 63 5c 3e 57 e0 66 bc
       -0.017561302 0.07605046 0.2152237 -0.014091573
000310 75 93 15 3e d5 40 a7 3e 0d 8f 4a bc 24 a9 a6 bd
       0.14607032 0.3266665 -0.0123632075 -0.0813773
000320 1f 5d 39 be 75 69 07 3c 38 58 3f 3e 6e 86 c0 3e
       -0.18101929 0.008264889 0.18685997 0.37602562
000330 12 57 10 3c 05 b2 af 3e cb 0d 0d 3f d9 a9 11 3b
       0.008809822 0.34315506 0.5509917 0.0022226481
000340 f7 8a d6 3c 2e 4a ef bb 53 31 0e 3c 70 ae 6b 3d
       0.02618931 -0.007302544 0.008678752 0.057539403
000350 f3 ff 31 3e f7 76 ca 3c 12 b5 d2 3d c5 2e 24 3e
       0.17382793 0.02471493 0.10288443 0.16033466
000360 14 de 59 3d 40 6e 32 3d bc 4f 06 be 5f 5c 37 be
       0.053190306 0.043562174 -0.13116354 -0.1790633
000370 60 1e 31 3f 5c 94 04 bf 76 37 e0 3c f0 f2 3a 3f
       0.69186974 -0.5178888 0.027370196 0.73026943
000380 22 7f 2f bf b4 ab 0d bd a3 23 2d 3e e8 67 52 be
       -0.68553364 -0.034587577 0.16908126 -0.2054745
000390 fb 93 fc bd 73 92 8b 3f 4c be 6a bf c9 3d 97 3c
       -0.123329125 1.0904068 -0.9169662 0.018462079
0003a0 bf 9e 86 3f b2 3d 7a bf 60 a7 3e 3d 3b ff 8b bc
       1.0517195 -0.9775039 0.04654634 -0.017089477
0003b0 08 2c 18 bc e4 c8 f0 bd 70 8f cb 3e ca c2 aa be
       -0.009287842 -0.11757067 0.39757872 -0.33351737
0003c0 75 cc 0e 3c 9a 33 cc 3e 9b 59 c8 be d4 18 41 11
       0.008715739 0.3988312 -0.39130864 1.5232666e-28
0003d0 80 71 05 11 a4 68 0d 90 ca 26 e2 10 b2 f7 d7 90
       1.0526825e-28 -2.788796e-29 8.9201046e-29 -8.518418e-29
0003e0 6a 4b c4 90 98 04 ce 90 86 d1 2d 10 ec 51 0e 10
       -7.742456e-29 -8.125975e-29 3.4279645e-29 2.8067672e-29
0003f0 e6 ee 7f 90 bf 52 b4 0f 0f a6 d7 90 d6 f1 d8 10
       -5.0473923e-29 1.7781243e-29 -8.50584e-29 8.5569585e-29

backbone.0.1.weight f4 [16]
000000 14 54 78 90 96 6f 2b 3e 3c de 34 3e ed 6e 79 3e
       -4.8974148e-29 0.16741785 0.176629 0.24358721
000010 29 27 1a 3e c6 6f 29 3e 07 ab 2b 3d 00 3f 8c 3e
       0.15054001 0.16546544 0.04191115 0.27391815
000020 8a 48 bd 3d fb 58 31 36 ed 92 da 3e 4c b0 ce 3d
       0.09242351 2.6426849e-06 0.4269022 0.1009222
000030 b8 2f 5a 3e 42 25 9f 3e 85 fc 35 97 3d ca 0d 94
       0.21307266 0.31083113 -5.880298e-25 -7.158565e-27

backbone.0.1.bias f4 [16]
000000 8c da 85 14 b6 e9 13 3f 8d d6 bc 3e 9c fa 91 3e
       1.351577e-26 0.5777849 0.3688244 0.28511512
000010 40 3e 73 3f b0 07 24 3f 43 87 08 3f 34 ac 09 3f
       0.9501686 0.6407423 0.53331393 0.53778386
000020 da ce 1b 3f af 22 22 35 ad f2 95 be ec a8 76 3f
       0.60862505 6.0400174e-07 -0.2928671 0.96351504
000030 b6 01 e9 3e 5c cc bf be f0 8f 49 91 e3 58 82 10
       0.45509118 -0.374606 -1.5900458e-28 5.141291e-29

backbone.0.1.running_mean f4 [16]
000000 92 3d 8a 13 08 79 5b 42 f4 6a 99 41 2b 43 99 c1
       3.489681e-27 54.868195 19.177223 -19.157797
000010 e3 8a e0 c2 a7 ea 4b c2 f7 39 b5 bf 81 1b 6c 43
       -112.27126 -50.979153 -1.4158314 236.10744
000020 ec 12 f7 40 d3 e5 ac 94 6a d9 7a c2 77 33 37 43
       7.72106 -1.7458211e-26 -62.71232 183.20103
000030 62 c5 ee 42 fe ce 9b 42 38 48 17 90 65 8f 0d 15
       119.38551 77.90428 -2.9835134e-29 2.8587842e-26

backbone.0.1.running_var f4 [16]
000000 04 00 00 00 72 3e 2f 45 98 be 07 46 20 89 c7 44
       6e-45 2803.9028 8687.648 1596.2852
000010 79 18 c0 45 c8 b0 d4 45 78 fc 21 45 af 67 c8 46
       6147.059 6806.0977 2591.7793 25651.842
000020 7e 22 bd 45 04 00 00 00 f3 c8 4b 45 e9 65 6e 46
       6052.3115 6e-45 3260.5593 15257.478
000030 c7 e9 fa 45 f0 fc 91 45 04 00 00 00 04 00 00 00
       8029.222 4671.617 6e-45 6e-45

backbone.1.conv.0.0.weight f4 [16, 1, 3, 3]
000000 70 b2 73 0d 07 13 40 0f b0 05 c8 0f 3c ad 79 10
       7.5094943e-31 9.4699954e-30 1.9723713e-29 4.9240046e-29
000010 55 ad 01 8f e9 c4 7a 96 f8 04 00 10 35 6d 15 0f
       -6.3935736e-30 -2.0256973e-25 2.5247377e-29 7.3673e-30
000020 1e 6b d4 0e e6 c2 ae 3b f9 cf 36 bd 72 7a 85 3d
       5.2365185e-30 0.0053332923 -0.044631932 0.06517495
000030 4d ce 0f bc aa ff 2c be 4f 8e 3d 3f 6a 12 e7 3c
       -0.008777213 -0.16894403 0.7404527 0.028207023
000040 04 5d a1 3d fb 0d 4f bf 24 4a 0b 3a 6d 3b 62 bc
       0.078790694 -0.8088071 0.0005313477 -0.0138081135
000050 c4 6e 3a be 09 bb de bb 4f 71 a5 3d 0f 90 90 3f
       -0.18206316 -0.0067971987 0.080782525 1.1293963
000060 b6 0d 46 bc f1 12 17 bd 29 b0 43 bd 77 3e c1 bd
       -0.01208823 -0.0368833 -0.04777542 -0.09435742
000070 de 64 a8 bd 47 29 eb bd eb 6a 2a 3d 61 1d 43 3f
       -0.08222364 -0.114824824 0.04160587 0.76216704
000080 00 df aa be 81 53 20 bd a7 af 0c bd 69 3e 44 be
       -0.3337326 -0.039142136 -0.034347203 -0.19164433
000090 50 e7 18 3f f2 e9 f7 3f 3d db e6 3e d6 a7 6c 3e
       0.59727955 1.936827 0.4508914 0.231109
0000a0 78 be e0 3e 3d 99 2f 3e 58 79 5c bf 9c 23 0a c0
       0.43895316 0.171483 -0.86122656 -2.1584234
0000b0 f9 ea 44 bf 63 c9 26 3b 43 60 26 3e 34 02 0f be
       -0.7692104 0.0025449626 0.16247658 -0.13965684
0000c0 07 2b 6f 3e 43 c3 c1 3e bc 48 dd bf bc 69 6c 3d
       0.23356257 0.37844285 -1.7287822 0.057718024
0000d0 af e5 a0 3f 91 52 9a 3e 78 f2 00 bc 68 e2 b6 3d
       1.2570094 0.30141118 -0.007870309 0.08929902
0000e0 db 9f 98 bd 36 8c 52 3c 88 29 0a ba b1 95 59 bf
       -0.07452365 0.012850812 -0.0005270471 -0.84994036
0000f0 27 86 89 bc fe ce 6a bd 96 e6 7a 3f d0 3d 03 bf
       -0.016787602 -0.05732631 0.98008096 -0.51266193
000100 fc fb 8b be 5c 77 40 3f 04 9f 1b c0 7d f2 b5 be
       -0.27340686 0.7518213 -2.4315805 -0.35536566
000110 92 c4 29 40 9d a5 05 bf cd 86 53 be b5 df 1b 3f
       2.6526227 -0.5220583 -0.20656891 0.60888225
000120 ef 31 d8 bc a1 ea 04 3e 29 19 a3 bd 52 c3 d0 3c
       -0.026390998 0.12980129 -0.07963783 0.025483761
000130 24 2c 8d bf 66 a2 47 3e ce 9e 34 3c a4 b7 ce 3c
       -1.1029096 0.19495544 0.01102419 0.025234051
000140 b5 34 e2 bc 4e f0 58 96 c6 9f 63 96 35 b8 4e 96
       -0.027613023 -1.7524168e-25 -1.838733e-25 -1.6698673e-25
000150 cd 06 0b 16 85 8b 14 16 d0 11 b0 16 bc 73 f3 95
       1.1230477e-25 1.199937e-25 2.8445575e-25 -9.8329515e-26
000160 78 1b 34 16 53 7c fc 15 01 3b 06 3e b8 5e e1 bd
       1.4548952e-25 1.0197814e-25 0.13108446 -0.11004394
000170 69 d9 eb be 20 1b 26 be f5 03 32 3e 0d b2 c9 3e
       -0.46064308 -0.16221285 0.17384322 0.39393654
000180 d5 00 cf be 7f c7 8f 3e 65 bd dc 3e f6 f1 36 3e
       -0.40430322 0.2808189 0.43113247 0.17865738
000190 6a a6 cd 3f 24 11 82 3f 90 f7 95 3d 36 f2 7e 3d
       1.606641 1.0161481 0.073226094 0.06224271
0001a0 b0 bb 02 be 2c e4 b2 be bd e3 cf bf 79 f8 7c bf
       -0.1276691 -0.34939706 -1.6241375 -0.9881664
0001b0 4a 10 a5 ba cd c4 68 3d ac e2 0e bc 19 57 28 3d
       -0.0012593355 0.05682831 -0.008721035 0.041098688
0001c0 95 b4 72 3d f5 a8 1a bf 88 6b be bb 6f c4 87 3d
       0.059254248 -0.6041406 -0.0058111586 0.066292636
0001d0 25 f8 67 3f bf af 72 bd 89 7b c0 3b b4 76 f2 bd
       0.90613014 -0.059249636 0.0058741015 -0.11839047
0001e0 2e a5 b0 3c 64 55 47 3d d8 78 f4 bd cf 45 eb bd
       0.021563139 0.04866542 -0.119371116 -0.11487924
0001f0 21 c7 d8 bd d4 9e 3c 3f dc 86 36 0f c2 18 32 8f
       -0.10584856 0.7367985 8.999266e-30 -8.780846e-30
000200 d8 27 f0 8c a2 fb 63 8e 40 22 49 0d 68 2e 87 0e
       -3.7001835e-31 -2.8101067e-30 6.1979134e-31 3.3324757e-30
000210 f3 af f4 8e 30 a6 01 8f de f7 0f 8f 20 be 05 0d
       -6.0320077e-30 -6.3921976e-30 -7.098182e-30 4.1212644e-31
000220 94 8e 4a 10 90 52 87 10 fa 34 26 90 28 84 49 8f
       3.9947314e-29 5.337532e-29 -3.277854e-29 -9.9355175e-30
000230 f8 60 60 90 3c 63 3f 90 34 ca 13 0f 3c 6e 08 90
       -4.4250913e-29 -3.7744556e-29 7.2866025e-30 -2.6906192e-29

backbone.1.conv.0.1.weight f4 [16]
000000 cd 9e a4 8f 3b 79 04 3f 9c 43 36 3f cb 6b 00 3f
       -1.6232816e-29 0.51747483 0.71196914 0.5016448
000010 7f 64 90 3f 79 91 01 3f e8 4f 0c 3f e6 de 61 3f
       1.1280669 0.506126 0.5480943 0.8823074
000020 7b a6 f0 3e 3e 9c e7 b6 ca ed 7a 3e 49 ee 8a 3f
       0.47002015 -6.9025255e-06 0.24504772 1.0853969
000030 d6 6b 29 3f e0 6f 95 3e 8c e0 5c 93 af 92 d2 10
       0.6618017 0.29186916 -2.7878614e-27 8.3056397e-29

backbone.1.conv.0.1.bias f4 [16]
000000 fe bd 3a 0f a1 81 6d 3f d6 f2 bc 3f 46 36 e7 3e
       9.207099e-30 0.92775923 1.4761608 0.45158595
000010 b6 7b 6f 3e 68 63 85 3f 2c 9a 73 3f 5b b6 d1 3e
       0.23387036 1.0420961 0.9515712 0.4095944
000020 3a 56 08 3f 9f 93 48 bb 5f fc c8 3e e8 bc 4d 3e
       0.5325657 -0.0030605567 0.39255044 0.20091593
000030 c7 4e 87 3f 0e 63 9b be e0 0c 84 8f d5 ad 87 91
       1.0570916 -0.3034901 -1.3021164e-29 -2.1406377e-28

backbone.1.conv.0.1.running_mean f4 [16]
000000 04 00 00 00 d1 33 86 bd 97 a8 a8 3e 8c e5 9b bc
       6e-45 -0.06552852 0.32941124 -0.019030355
000010 15 d0 34 3d 80 10 b1 3e f1 41 11 3d a4 12 18 be
       0.044143755 0.345829 0.035463277 -0.14850861
000020 2e c1 04 bf 03 ce 1d 0d 34 7c 6d 3c 15 e2 11 be
       -0.5185727 4.862734e-31 0.014494944 -0.142464
000030 8b 0a 69 3e 2d 0a fa 3b 04 00 00 80 04 00 00 80
       0.22757928 0.0076306076 -6e-45 -6e-45

backbone.1.conv.0.1.running_var f4 [16]
000000 04 00 00 00 fc e9 86 3c da a1 96 3c e4 0a d8 3c
       6e-45 0.016468994 0.018387724 0.02637238
000010 a5 7f 6d 3e 26 2b 43 3d 12 7c 32 3b f0 47 c7 3e
       0.23193224 0.04764857 0.0027234596 0.3892207
000020 36 28 11 3c 04 00 00 00 3f db 96 3b c8 63 11 3e
       0.008859685 6e-45 0.004603773 0.1419822
000030 ae 73 bb 3c e8 88 9d 3a 04 00 00 00 04 00 00 00
       0.022882309 0.0012018951 6e-45 6e-45

backbone.1.conv.1.weight f4 [8, 16, 1, 1]
000000 11 c9 b8 0f e9 22 e3 3b 34 7b 42 bd 28 4b 2e 3e
       1.8221249e-29 0.006931652 -0.047480777 0.17020857
000010 08 5e 9b bd 41 86 2e 3f 82 8b 66 3e 59 4d 3d bd
       -0.075862944 0.68173605 0.22514156 -0.046216343
000020 54 90 c9 bd ee 19 a2 2b c0 2f c7 3d fa f0 83 3e
       -0.098419815 1.1517989e-12 0.097259045 0.25769788
000030 cc a5 7d 3d b6 21 25 bd 64 ca c3 8d a4 3c 11 8f
       0.061925694 -0.040315352 -1.2066527e-30 -7.160731e-30
000040 a0 5d 64 10 78 61 9f ba f8 ad 10 bf 5f 9d 19 bd
       4.5037198e-29 -0.0012159785 -0.56515455 -0.037503596
000050 0d d5 ab 3d 66 4d 06 3d d3 d9 0c bd 25 13 a6 3d
       0.083902456 0.032788657 -0.03438742 0.0810912
000060 88 aa a2 3d 12 82 a5 a2 a8 0b 3a 3e 52 29 7a bb
       0.079426825 -4.4861057e-18 0.18168509 -0.0038171601
000070 39 3b 07 be 35 59 7a 3e 90 ed 4a 90 a1 57 1e 10
       -0.13206185 0.24448092 -4.0020487e-29 3.1227513e-29
000080 9e ab 0a 10 88 e6 01 3f f4 70 04 3e 2f 98 e0 3e
       2.734791e-29 0.5074239 0.12933713 0.43866107
000090 c4 ef 2f be ba 62 37 be 81 a6 80 be 0a 81 99 3d
       -0.17181307 -0.17908755 -0.25127032 0.074953154
0000a0 dd 8d 2c be 0d 93 cc b2 92 5e 09 bc b1 7d cb 3e
       -0.16850992 -2.3815597e-08 -0.008384364 0.39744332
0000b0 e0 2b 94 3d 21 31 0f bc 25 63 ec 8f a8 82 1b 90
       0.07234931 -0.008739741 -2.3309586e-29 -3.0669014e-29
0000c0 17 ac 22 11 d3 45 d7 bd 5c d2 1b be 6e 78 90 3d
       1.2832576e-28 -0.10511365 -0.15216964 0.0705422
0000d0 8f 9b fd 3e f8 ac e4 be ef 17 1c 3d 12 30 47 3d
       0.49532744 -0.44663215 0.038108762 0.048629828
0000e0 e1 23 75 be 79 21 7e a1 a5 89 8f 3d 68 c5 d8 be
       -0.23939468 -8.610285e-19 0.070086755 -0.4233811
0000f0 4e 2d 93 3e 8a 54 ba 3e 61 ef ab 90 46 92 86 8e
       0.28745502 0.36392623 -6.781643e-29 -3.3174407e-30
000100 f5 80 44 10 a6 f9 ab be c1 e1 91 3e bc 8b b9 bc
       3.875353e-29 -0.33588904 0.2849255 -0.022649638
000110 d8 4c 19 3e ea 83 1d bf 97 e7 a5 3d 4e 0b 99 be
       0.1497072 -0.6152941 0.08100813 -0.29891437
000120 25 f8 23 3e a7 3c b5 95 79 50 02 3e 5b f3 e7 bd
       0.16012628 -7.320101e-26 0.1272601 -0.11325713
000130 8c 52 41 be 99 4d bb bd bd be 4b 0f cc b8 37 8e
       -0.18879145 -0.0914566 1.00454076e-29 -2.2645468e-30
000140 09 4c 0d 0e 09 be 53 be 30 57 db b7 1f 56 09 bf
       1.7416201e-30 -0.20677961 -2.6147434e-05 -0.53647035
000150 f5 cc 9c be a2 9f 68 be 91 3c ba 3e 0b e2 e1 3e
       -0.3062512 -0.22717145 0.36374334 0.4411777
000160 f1 7a ba 3e a5 e1 ab a5 84 3d 2c 3d 52 fa f3 3e
       0.36421922 -2.9816674e-16 0.042050853 0.47651917
000170 b2 0f 1c bd fc 2d 61 3d 99 b6 d1 8e c4 d1 81 0e
       -0.038100906 0.054975495 -5.1698313e-30 3.2002952e-30
000180 e0 2b 3c 0c 83 af d6 3e 4a 9b e4 bd b5 61 bd be
       1.4496196e-31 0.4193078 -0.111624315 -0.36988607
000190 50 ee d6 be e3 b8 0f 3d ab 72 7a 3c 9c 72 5c bf
       -0.41978693 0.03508843 0.015286128 -0.8611238
0001a0 4c 54 f8 3d 2a b8 a3 1b 93 7c 11 bd 12 04 8a 3e
       0.12125453 2.70851e-22 -0.035519194 0.2695623
0001b0 3c d0 c6 bd 3c 2a 59 3e aa 65 13 0f c6 7b fb 8f
       -0.09707686 0.21207517 7.267239e-30 -2.4798187e-29
0001c0 d2 02 0c 91 6e 81 fe bc 75 97 5b 3e 3e 37 c9 bc
       -1.1044922e-28 -0.031067576 0.21444495 -0.024562474
0001d0 87 2e f4 3e 8c 35 15 3f 1c 89 55 be 59 5d 3d 3e
       0.47691748 0.5828483 -0.20853084 0.1849264
0001e0 38 ae ba bd 78 73 09 32 91 a9 2f 3e 3e 38 eb be
       -0.09115261 8.000704e-09 0.17154528 -0.45941347
0001f0 96 f6 4c be ed 7b b0 bc 1c e0 ec 8e 8f 1a c2 0f
       -0.2001594 -0.021543467 -5.83943e-30 1.9140107e-29

backbone.1.conv.2.weight f4 [8]
000000 95 de 08 3f 17 d7 06 3f a1 ad 12 3f a1 ea 03 3f
       0.53464633 0.5267195 0.57296187 0.5152989
000010 cf 69 11 3f 83 4b 1b 3f ae 1d 18 3f 71 fa 02 3f
       0.56802076 0.60662097 0.5942029 0.51163393

backbone.1.conv.2.bias f4 [8]
000000 3c c8 9e b8 e7 34 81 b7 41 1b 2c 39 18 b3 ff b6
       -7.571324e-05 -1.5402633e-05 0.00016413351 -7.6204415e-06
000010 a6 fb 6a 38 b9 0d 24 b9 d3 19 2a b8 b0 5a 6b 38
       5.6024313e-05 -0.00015645371 -4.055521e-05 5.6112825e-05

backbone.1.conv.2.running_mean f4 [8]
000000 0b 69 84 3f 2b 82 4d bf 04 42 08 3f 3a 41 db be
       1.0344557 -0.80276746 0.5322573 -0.428232
000010 59 7f 2e bf 0e d9 f2 3d f4 3f f7 be 06 27 1e 3f
       -0.6816307 0.11857806 -0.4829098 0.61778295

backbone.1.conv.2.running_var f4 [8]
000000 97 f9 04 3e 3d ae 21 3e b4 53 66 3e 51 9d 88 3e
       0.12985836 0.15789123 0.22492868 0.26682523
000010 16 b3 2b 3e 13 77 9b 3e c5 db dd 3e 46 fd 2b 3e
       0.16767535 0.30364284 0.43331733 0.16795835

backbone.2.conv.0.0.weight f4 [48, 8, 1, 1]
000000 a4 5a 32 3e 9d 55 b9 3d f0 88 1e 3e c6 a5 15 be
       0.17417389 0.090495326 0.15481925 -0.14614019
000010 cc 4f 05 be ad 28 ec 3c f4 21 90 3e 86 bf 4d 3d
       -0.13018721 0.02882799 0.28150904 0.05023148
000020 78 bd 80 3d d8 fa a8 3d d0 a6 d4 3d 1a 4c 19 3e
       0.06286138 0.0825097 0.103833795 0.14970437
000030 a4 e8 45 be 33 e4 8e be 74 fb e5 bd fc 20 be bd
       -0.19327027 -0.27908477 -0.112296015 -0.09283635
000040 dd 4a 97 bd 5a e5 15 bd e2 08 2f be e6 3c 0e 3e
       -0.07387326 -0.03659568 -0.17093232 0.13890418
000050 fb 5d ed bc d7 1f 9b 3d 12 08 a6 be c2 e5 fe 3d
       -0.028975477 0.07574432 -0.32428032 0.124461666
000060 25 46 3b bd cd e3 6d 3e 67 15 a8 3d 22 96 16 bf
       -0.045721192 0.2323143 0.08207207 -0.58822834
000070 ba 88 48 3b 7c aa 08 be cb ca 87 be e1 7c cb be
       0.0030599074 -0.13346285 -0.26521906 -0.39743713
000080 a8 49 6f 3d 8c 6c 81 bd 74 58 21 3e d6 55 95 be
       0.058419853 -0.06319532 0.15756398 -0.2916705
000090 26 33 f5 bd e1 96 0c 3e d6 0b 9d 3d 40 ae 3f be
       -0.119726464 0.1372943 0.07668273 -0.18718815
0000a0 96 ad 8f bc 60 98 36 bc 75 2c 17 3d 81 ea 4b be
       -0.017538827 -0.0111447275 0.036907632 -0.19913675
0000b0 92 03 ad bc f0 dc 00 3e 2e 19 5d 3e 08 84 f1 bd
       -0.021119867 0.12584281 0.21591637 -0.11792761
0000c0 c6 cd 76 3d e0 88 32 3e a9 c3 f1 3d 0e 1b b7 3d
       0.060254835 0.17435026 0.11804897 0.08940707
0000d0 b2 7f 03 be 87 5c 8f be fb bf 23 be 5e 70 88 bc
       -0.1284168 -0.2800028 -0.15991203 -0.016655143
0000e0 41 5d 31 3d 19 73 55 3e a8 af 5b 3d cc c1 23 bd
       0.043301824 0.20844688 0.053634316 -0.03997974
0000f0 eb 91 7c bc 8e 5a 9a 3d d3 86 42 bd ec c2 20 3e
       -0.015415649 0.07536803 -0.04749186 0.15699357
000100 a5 2a 86 be e8 fa 96 bd 86 8e b7 3e 57 48 73 bc
       -0.2620441 -0.07372075 0.35850924 -0.01484879
000110 09 85 c8 bd 9c 57 fe bb c5 f8 47 be bc 73 53 3b
       -0.097909994 -0.0077619087 -0.19528492 0.0032265028
000120 b5 06 76 3c 22 bf 92 3e 69 a2 d3 bc 70 48 06 3e
       0.0150162475 0.28661448 -0.02583428 0.1311357
000130 78 b0 21 be 97 7a 23 bd 48 fe 8e 3d 67 9e 8c bd
       -0.15789974 -0.039911833 0.06982094 -0.0686615
000140 c8 b0 85 bc ca 9f fb bd 76 a7 74 bb 89 98 cb be
       -0.016319647 -0.12286337 -0.003733126 -0.39764813
000150 86 21 99 3d 37 78 5c bd 6d 47 aa bc 80 d6 f0 3d
       0.07477097 -0.053825583 -0.020786012 0.11759663
000160 28 07 9b bd 0d fd 61 bc 3c e8 12 be 6e 2b 80 3e
       -0.07569724 -0.013793242 -0.14346403 0.25033134
000170 59 b0 28 bd fa c1 0e be cc 1d 8b be fa db 76 3e
       -0.041183803 -0.13941184 -0.2717117 0.24107352
000180 c7 1a 09 3e 9f 90 d3 3d e7 f1 ec bd fa 50 a5 3b
       0.13389121 0.10330319 -0.11569577 0.0050450535
000190 ea 41 bb 3d dc 0e 15 3e c9 22 3e bb b5 a7 b6 3d
       0.091434315 0.1455645 -0.0029012433 0.08918706
0001a0 c4 06 e6 3d 2b 8f 33 be 1f a8 56 bb b1 10 d1 bd
       0.11231759 -0.17535083 -0.0032754017 -0.10208262
0001b0 b9 9a 90 be 67 14 35 3e 0a 41 45 3d 36 7e 47 3e
       -0.28243044 0.17683564 0.04815773 0.1948174
0001c0 45 e5 30 be 3f a8 a8 bd e3 45 d5 3d 90 f5 92 3e
       -0.1727496 -0.082352154 0.104137205 0.28702974
0001d0 79 27 07 3e b8 50 2e 3e 25 64 07 3b 32 60 a2 be
       0.13198651 0.1702298 0.0020659056 -0.31714016
0001e0 0a c0 c4 3c 29 d5 08 3e 0e 5d 40 3e 9c 4b 21 3e
       0.024017353 0.13362564 0.18785498 0.15751499
0001f0 72 84 a7 be a8 21 d2 bd 7c 9e 4c 3c c1 34 52 be
       -0.32718235 -0.10260326 0.0124889575 -0.20527937
000200 d0 d3 87 3e bc 57 d8 3d 39 53 24 3e c7 09 3c 3e
       0.26528788 0.10563609 0.16047372 0.18363105
000210 2b 04 49 3e ac 03 01 3e 7f cf 8f 3d db 1c 5d 3d
       0.19630496 0.12599057 0.070219986 0.053982597
000220 5e e6 f2 3c 31 74 18 bd 6b f7 29 3e a2 37 68 be
       0.029650863 -0.037220184 0.16598289 -0.22677472
000230 b3 2c 04 be cd 52 aa 3d bf 35 36 3d 89 05 2a bd
       -0.12907676 0.08316574 0.04448485 -0.041509185
000240 9c ab 85 be d0 c0 bb 3c 91 6a 13 be d6 a0 14 3e
       -0.2610749 0.022919089 -0.1439612 0.14514479
000250 44 a9 fe bd 58 16 37 bd 96 bc 9f be 99 65 63 3e
       -0.124346286 -0.044699043 -0.31198567 0.22206725
000260 c1 10 c3 bd 33 f5 88 3d cc f1 7c be b2 79 7e 3e
       -0.0952468 0.06687393 -0.24701613 0.2485111
000270 a6 36 09 3e 7c 67 87 be 74 a6 85 be b1 d3 a9 3e
       0.13399753 -0.2644614 -0.26103556 0.3316932
000280 39 c7 ad 3d 58 b3 2d 3e 27 45 29 3e 7b ac 7f 3e
       0.08485264 0.16962945 0.16530286 0.2496814
000290 b4 de 9d bc f1 1c f2 3c 28 1d fd 3d 90 1f 0b 3e
       -0.019271232 0.029554816 0.12359077 0.13586259
0002a0 5e 64 c0 3d cc f5 08 bd 8d ee 95 3d 6c ce a8 be
       0.093941435 -0.033437535 0.073208906 -0.32969987
0002b0 2a b3 19 3e 76 58 e3 bd a0 f5 9b be 06 06 3e be
       0.15009752 -0.11100857 -0.30460835 -0.18556985
0002c0 82 a2 7d 3d ee 24 ee 3c 49 42 df 3c 1c 75 d9 3d
       0.061922558 0.029070344 0.027253287 0.1061804
0002d0 9a 2d 91 bd 3e 9f 0b be 3e 66 2d 3b ca 4d b7 bd
       -0.07088776 -0.13634965 0.0026458646 -0.08950384
0002e0 ac 97 6c 3e 90 1e 5b 3d 9c 71 8c 3d 5c cf 85 3d
       0.23104733 0.053495944 0.06857607 0.06533691
0002f0 7d 97 d1 3d 91 10 8d bb c6 e4 92 bc 71 95 55 3d
       0.10233972 -0.0043049534 -0.017931353 0.05214447
000300 bf 48 3b bd 73 f4 66 3d bd 07 dd 3d cf f4 d3 3d
       -0.045723673 0.05638547 0.107924916 0.10349428
000310 c6 5d be bb 4c 1f 80 be 08 df 5a 3d e8 9a 89 bd
       -0.0058095185 -0.25023878 0.053435355 -0.06718999
000320 91 fe 8c 3c 95 13 d6 be 02 86 4a 3e 00 11 94 bd
       0.01721123 -0.41811815 0.19777682 -0.07229805
000330 3f e6 11 3e d8 59 04 be dc a6 bc bd e8 3d 90 3e
       0.14247988 -0.12924898 -0.092115134 0.2817223
000340 70 50 8a bb 77 38 a2 3d bb 4c 80 3e 15 b0 64 3d
       -0.0042210147 0.07920926 0.2505854 0.055831987
000350 81 9e 9a bd 9b 88 a4 bb 2b 95 46 3e 7d 44 1e 3e
       -0.075497635 -0.0050211675 0.1939284 0.15455814
000360 d7 fc aa be 7c 69 87 3d 5b e3 a3 bd 66 ae 5c 3e
       -0.33396026 0.066119164 -0.08002349 0.21550903
000370 41 55 12 be 57 9d 9c 3b 87 cf 89 3e 04 97 50 3d
       -0.14290334 0.0047794986 0.26916143 0.05092527
000380 61 60 c6 3e d4 ce bd 3d df 41 ea bd 8b 09 0f be
       0.38745406 0.09267965 -0.11438345 -0.13968484
000390 43 ae d5 bd d3 24 81 be c0 58 e6 bc ad dd b8 3d
       -0.104336284 -0.25223407 -0.028118491 0.09026656
0003a0 38 c1 70 bb fa d4 02 3d 27 06 26 3e 5b 20 47 3e
       -0.003673626 0.03194139 0.16213284 0.19445936
0003b0 13 89 61 3d 3d 4a 1e 3e 82 51 56 3c 97 93 80 3c
       0.055062365 0.15458007 0.013080956 0.015695376
0003c0 a7 2b 24 be 8d 17 17 be 4f 3e d7 be 1a 4c 8b bd
       -0.16032277 -0.14755078 -0.42039725 -0.068016246
0003d0 b2 29 f4 3c 1d 64 d3 3e 22 1a b4 3d da 9e a3 3b
       0.029805038 0.41287318 0.08794047 0.004993302
0003e0 a3 6e 41 3e 14 d0 88 bd b5 91 61 bd e5 e3 7b be
       0.18889861 -0.06680313 -0.055070598 -0.24598654
0003f0 03 c4 82 be 89 18 6b bc 52 3d 5b 3d d9 d4 8e 3e
       -0.2554017 -0.014349111 0.053525276 0.27896765

backbone.2.conv.0.1.weight f4 [48]
000000 50 ec f3 3e 64 b1 b6 3e 27 cb ec 3d c9 c0 32 3e
       0.4764123 0.35682213 0.11562186 0.17456354
000010 95 33 26 3e 7e 1e 47 3e 58 e9 90 3e e7 25 0e 3e
       0.16230614 0.19445226 0.28303027 0.13881646
000020 60 a8 ec 3e 04 d5 ff 3d d1 77 38 3e ef 0e af 3e
       0.4622221 0.124918014 0.18014456 0.3419108
000030 f6 1b b0 3d 03 8f ad 3d 0a 19 f6 3d a3 68 e8 3e
       0.08599083 0.08474543 0.120164946 0.4539233
000040 d0 d3 11 3e cd d6 27 3e e0 20 a6 3e 0e 6e 2b 3e
       0.14240956 0.16390534 0.32446957 0.16741201
000050 94 46 11 3e 51 27 e4 3d aa 41 e6 3d d1 0b 85 3d
       0.1418708 0.111403115 0.11242993 0.064963944
000060 2a 5f 2e 3e 9a 07 b2 3e da 02 2a 3e 14 11 8f 3e
       0.1702849 0.34771425 0.1660265 0.27942717
000070 eb 53 11 3e cb 5a 54 3d fb ea f8 3e 49 25 a8 3d
       0.14192168 0.0518444 0.48616776 0.082102366
000080 f9 27 16 3e 3f 94 91 3e 1c a9 78 3e 81 33 63 3e
       0.14663686 0.28433415 0.2428326 0.22187616
000090 be 64 9b 3e f0 97 aa 3e 4c b2 f2 3d 97 c6 ab 3e
       0.30350298 0.33319044 0.11850414 0.3354995
0000a0 a3 a1 f4 3e 93 e6 40 3e e0 a0 0d 3e 04 dd ed 3d
       0.4777957 0.18837957 0.138309 0.11614421
0000b0 16 6b 31 3e 63 85 de 3e f8 10 9f 3e b0 e6 28 3e
       0.17326006 0.4346114 0.31067634 0.1649425

backbone.2.conv.0.1.bias f4 [48]
000000 85 ab 52 bc 90 00 95 bb b5 a9 79 3e 67 71 c7 3e
       -0.012858276 -0.004547186 0.24381144 0.38953707
000010 25 ca 8a 3e 77 8b 2c 3e e5 91 b2 3d 33 13 19 3d
       0.2710735 0.16850077 0.087192334 0.037371825
000020 cc 8b 27 bd a3 4e 25 3e 4d 52 a8 bd 53 41 a3 3d
       -0.040904805 0.16143279 -0.08218823 0.07971444
000030 6d bf 41 3e f4 30 74 3e e8 41 69 3e 9c 2d 2e bc
       0.1892068 0.23846799 0.22779047 -0.010630991
000040 ae 74 99 bd 38 d6 83 3e c5 32 b4 3d fd 81 c9 3e
       -0.07492958 0.25749373 0.08798746 0.39356986
000050 19 75 d5 3e e9 a6 2a 3e 5f ae 86 3e b1 a3 a2 3e
       0.416909 0.16665234 0.2630491 0.31765512
000060 29 b7 eb 3d 34 7a 06 bd f9 28 d2 3d e2 19 a8 be
       0.115095444 -0.032831386 0.10261721 -0.32832247
000070 00 ba 7b 3e 48 90 8a 3e 50 2a 73 bc 8b 84 72 3e
       0.24582672 0.27063203 -0.014841631 0.23683374
000080 ca c7 2d 3e cd 81 40 3d e2 33 b8 3d 6d 5b 1a 3e
       0.16970745 0.046998788 0.08994271 0.15073939
000090 23 48 99 3d 8f 93 d5 3d 0c 9a 80 3e e4 5b c4 3d
       0.07484462 0.10428535 0.25117528 0.09587839
0000a0 1d a8 53 3b 97 f4 d7 3d 74 7a 8d 3e b3 68 5b 3e
       0.0032296248 0.10544699 0.27632487 0.21426658
0000b0 86 97 1a 3e a6 f3 32 3b 62 b7 59 3e 7b 8e 25 3e
       0.15096864 0.002730587 0.21261361 0.16167633

backbone.2.conv.0.1.running_mean f4 [48]
000000 7d e7 a4 b7 fb 8e 95 b7 b4 12 d8 37 d4 17 01 b8
       -1.9658119e-05 -1.7828765e-05 2.5757916e-05 -3.077819e-05
000010 6b 79 af b7 d0 1c 72 b7 c9 f1 34 b7 d3 00 27 37
       -2.0918165e-05 -1.44310325e-05 -1.0785131e-05 9.954168e-06
000020 9f b3 65 37 93 ca 62 b7 b6 5e 37 36 33 c1 d6 37
       1.3691285e-05 -1.3517815e-05 2.7324254e-06 2.5600753e-05
000030 a0 14 0a 37 1e 22 cc 35 88 03 47 36 9c f9 de b7
       8.230243e-06 1.5209114e-06 2.9655366e-06 -2.6580696e-05
000040 9b 77 b7 36 a1 1d 35 b7 31 31 00 38 ba 91 09 38
       5.467749e-06 -1.0795339e-05 3.056339e-05 3.2799064e-05
000050 54 a2 b8 36 64 86 14 b7 49 b9 5b b7 9a 37 e6 31
       5.502525e-06 -8.852778e-06 -1.3096557e-05 6.700202e-09
000060 9e 13 3b b7 0b 83 bb 37 4d 9e af 35 2d eb 97 36
       -1.1150636e-05 2.2353159e-05 1.3084588e-06 4.5275287e-06
000070 89 c0 c2 b7 25 ae 41 37 12 a7 8d 37 d0 bf ac b6
       -2.3216258e-05 1.1544243e-05 1.6886308e-05 -5.1483294e-06
000080 01 4b 87 b6 61 20 fe b6 fd 98 9d 37 c0 2a d2 b7
       -4.032045e-06 -7.5735593e-06 1.87871e-05 -2.5053858e-05
000090 ae 14 ca b7 64 b6 8d b7 aa ed 15 b7 c2 f1 0f 38
       -2.4089906e-05 -1.6893442e-05 -8.936428e-06 3.431901e-05
0000a0 e6 7d b2 35 3c eb b3 37 9e 44 a5 b5 4c d1 d8 35
       1.3298675e-06 2.1448002e-05 -1.2313428e-06 1.6154167e-06
0000b0 b7 dc a2 b7 5f 4e a2 37 a1 c0 96 b7 17 07 84 36
       -1.9414683e-05 1.93484e-05 -1.7971093e-05 3.934732e-06

backbone.2.conv.0.1.running_var f4 [48]
000000 bc e2 d8 3d 75 bd 8f 3d b0 ba cd 3d 64 04 b1 3d
       0.10590121 0.07018558 0.100453734 0.086434156
000010 53 d0 bd 3d 78 56 71 3d 30 8d 8e 3d 13 5c b4 3c
       0.0926825 0.058920354 0.06960523 0.02201656
000020 1d c7 8b 3d e5 5c 67 3d 87 31 33 3d a8 05 03 3e
       0.06825087 0.056485076 0.043748405 0.12795126
000030 0c bb 82 3c 6a ca 8c 3d 97 2a fb 3d da f3 ae 3d
       0.015958332 0.06874545 0.12263983 0.08542605
000040 f7 38 89 3c 07 4e 58 3d 68 c5 f9 3d b7 a5 50 3e
       0.016750796 0.052808788 0.121958554 0.20375715
000050 0a 3f dc 3c ac a3 e0 3c 16 5f 9a 3c c7 02 44 3c
       0.026885528 0.027421795 0.018844169 0.011963553
000060 d2 2c 1f 3d 79 7d f4 3d c5 68 00 3d 43 b5 3c 3d
       0.038861103 0.119379945 0.031349916 0.046071302
000070 83 a0 0e 3e 7f 0a 94 3c 80 cc 21 3e 93 fe f8 3d
       0.13928418 0.018071411 0.15800667 0.12157931
000080 dc 9c 72 3d 21 8d 81 3d 81 4b b7 3d 8d ad dd 3d
       0.059231624 0.06325746 0.08949948 0.10824118
000090 bc 6b 8a 3d 31 55 57 3e 79 fb ba 3c 63 c0 fe 3d
       0.0675883 0.21028592 0.02282499 0.124390386
0000a0 ec a8 07 3d 59 c5 55 3d 76 32 eb 3c 04 84 c0 3d
       0.03312008 0.05219016 0.028710585 0.0940018
0000b0 9b 86 b5 3d 6b d6 0b 3e 66 cc f0 3d 50 c0 0c 3e
       0.088635646 0.13656013 0.11757736 0.13745236

backbone.2.conv.1.0.weight f4 [48, 1, 3, 3]
000000 17 d4 b4 bd 6e 67 33 be fa 9f 9e bd 7a 66 16 be
       -0.088295154 -0.17519924 -0.07745357 -0.14687529
000010 5f a4 23 be 50 ac d9 bd 38 0d 9e bc bd 01 e5 bd
       -0.15980671 -0.10628569 -0.019293413 -0.11181972
000020 09 bd f7 bc e3 e5 cd bd a0 85 64 bd 1d f0 06 3c
       -0.030241506 -0.10053613 -0.055791497 0.008235958
000030 74 0e 1d be c1 19 87 bd b1 ba 27 bc 7c 5c 3f be
       -0.15337545 -0.06596709 -0.010237382 -0.18687624
000040 1e 5f 2d be 95 6f 73 bd 44 40 0a be f6 49 86 bd
       -0.16930816 -0.059432585 -0.13501078 -0.06557076
000050 bd ed d1 3c e5 8d 23 3e 0b 58 be 3e d7 a4 26 3e
       0.025626058 0.15972097 0.37176546 0.16273819
000060 6a 91 60 bd f9 16 14 be c6 6c ba be 32 c6 04 3e
       -0.054826178 -0.14461888 -0.36411113 0.1296623
000070 88 09 6c 3e 2e ab 1f bd 9b 8c 32 3e 0c cb 05 3f
       0.23050511 -0.03898161 0.17436449 0.5226295
000080 89 97 9c 3c df ee 1c 3d 3c 3a 26 3e b5 ff 4b bd
       0.019115226 0.038313743 0.16233152 -0.049804408
000090 ac 85 e8 bd 8c 38 92 be de 28 2b be 04 7c ce bd
       -0.11353621 -0.28558767 -0.16714808 -0.10082248
0000a0 77 84 f4 bd b2 14 d1 bc 83 3c e4 3d a1 bc be 3e
       -0.11939328 -0.025522564 0.11144354 0.37253287
0000b0 78 f2 0b 3e 06 c3 61 3d 4b 56 8c 3e 4a 54 63 3e
       0.13666713 0.05511763 0.27409586 0.22200122
0000c0 5e 2e 5d bd 85 fe b4 bd ed 90 77 3d c4 4e c2 bd
       -0.053999297 -0.08837608 0.060440946 -0.094876796
0000d0 ed 72 47 be 48 6c 15 be 6c 35 72 bd b6 6f 9f bd
       -0.19477434 -0.14592087 -0.05913298 -0.07784979
0000e0 76 18 bf bd fb 97 8e 3c 71 e3 6e be 9a 1a 6e be
       -0.093308374 0.017406454 -0.2332895 -0.23252335
0000f0 96 b3 b5 3c 57 05 40 be 29 d2 78 be a9 b2 0c be
       0.02218036 -0.18752037 -0.2429892 -0.13740028
000100 04 20 1d 3d 52 11 12 be a1 66 07 be 8c 50 03 3e
       0.03836061 -0.1426442 -0.13222744 0.12823695
000110 a3 2c 2d be 8e a1 25 be 7d 51 b3 3d 38 89 0d be
       -0.16911559 -0.1617491 0.08755777 -0.13821876
000120 f4 da 6f 3d a4 95 0d 3e 9b be d0 3d 41 f9 b5 3d
       0.05855842 0.13826615 0.10192605 0.08885432
000130 93 c4 99 3e 5c 7e 5d 3e 48 f8 90 3c 22 f4 2c 3e
       0.30032787 0.21630234 0.017696515 0.16890004
000140 60 5d 01 3e b0 88 da bd e5 a2 4b 3e 9d 90 ad bd
       0.12633276 -0.10670602 0.19886358 -0.084748484
000150 18 03 3c bd d7 71 9c 3d 76 d7 a5 bd ce cb 02 3e
       -0.045901388 0.07638901 -0.080977365 0.12773058
000160 67 7f b3 be 14 18 e6 3d 5d d2 a1 3c 9e fe 91 3d
       -0.35058138 0.11235061 0.01975363 0.071286425
000170 83 41 c1 3b bf 71 a4 3d 2a 25 1e 3e 3c a5 57 3d
       0.005897702 0.08029508 0.15443864 0.052647814
000180 2c 0c 88 3d 08 ff 61 3e da 0e 46 3d f6 20 48 bd
       0.066429466 0.22069943 0.048354007 -0.04885956
000190 a9 2a 26 be ad 33 20 be 2b da ea bc fb 88 7b be
       -0.16227211 -0.15644713 -0.028668484 -0.24563973
0001a0 dd c9 76 be 3e e6 29 3c 7b 0d 87 3b 48 b4 0b bd
       -0.24100442 0.010369835 0.00412148 -0.034107476
0001b0 81 f9 a4 bd 28 30 e5 3d 9d a8 15 3c af 7f 49 3e
       -0.080554016 0.11190826 0.009134439 0.19677614
0001c0 23 29 ad be 6f 6a d1 3d b0 c0 d6 bd 31 05 54 3e
       -0.33820447 0.10225379 -0.10485971 0.20705105
0001d0 2a e4 d1 bd 39 aa e9 bd 71 0e 39 bc 70 ef 87 3d
       -0.10248597 -0.114094205 -0.011294947 0.06637466
0001e0 9d d9 89 be b2 5d a8 3e 5f 0f bc 3b fe 1f 47 3b
       -0.26923838 0.32883984 0.005739137 0.003038406
0001f0 08 ba 47 3e 3a 4b 12 be 0a bf 89 bd 3b 97 ef bd
       0.19504559 -0.14286509 -0.06725891 -0.11698767
000200 d3 0c c4 bd 8e ab e6 3d 55 71 be 3e 58 9a 93 3d
       -0.095727585 0.1126319 0.3719584 0.07207173
000210 1a a6 49 bd 51 47 91 be fe f3 02 bd e4 84 ac bd
       -0.049230672 -0.28374723 -0.03197097 -0.084237844
000220 6a e0 01 be 71 47 09 bc 91 11 36 be 8e 47 53 be
       -0.12683263 -0.008378849 -0.17780139 -0.20632765
000230 3b 34 a1 bd 49 bc b3 bd 5c 8e 46 be 7d 2e ba bd
       -0.0787129 -0.08776147 -0.19390243 -0.09090898
000240 d2 c5 c9 bd 5f b6 02 be 24 6d 36 bd c8 2a 59 bd
       -0.09852184 -0.12764882 -0.04453768 -0.053019315
000250 23 1a 82 3d fd 7c 11 3e 60 f2 c2 ba 3b e1 be 3d
       0.063526414 0.14207835 -0.0014873259 0.09320303
000260 dc 7d 35 3e f4 da f5 3d 2a 0d 37 3e e2 28 82 3d
       0.17723793 0.120046526 0.17876115 0.06355454
000270 ec d9 38 3e 94 7e 26 3e 0f e2 4a 3c ad a7 98 3d
       0.1805188 0.16259223 0.012382998 0.074538566
000280 cb e4 ce 3d 46 9e 06 3d 87 c9 39 bd fc 41 ed bd
       0.101022325 0.032865785 -0.045358207 -0.11584851
000290 e3 42 86 3b 33 80 8e 3c c8 72 9d be 8c b5 b1 bd
       0.004097329 0.017395115 -0.30751634 -0.086772054
0002a0 a3 86 b1 3c 50 da 1f be 53 c8 93 3c c9 08 e4 3c
       0.021670645 -0.15610623 0.018039858 0.02783622
0002b0 b5 67 e1 bc 17 5d df bc fe 80 b3 bd a3 4c 9f be
       -0.027515272 -0.027266068 -0.08764838 -0.31113157
0002c0 64 f6 49 be 9f 68 18 3a df 49 5b be ae e6 e2 bd
       -0.19722897 0.00058139296 -0.21414898 -0.11079155
0002d0 07 ca 06 3e b5 8e 24 3e 22 cd 79 bb 4e ed 3a 3e
       0.13163005 0.16070063 -0.0038116653 0.18254587
0002e0 33 7d c0 3e dd 6e d0 3b 88 56 ef 3d 0b 7b 12 3e
       0.3759552 0.006360872 0.116864264 0.1430475
0002f0 d2 4a 3e bd 99 ef 67 bd fe 8c 2e bd 97 15 13 3e
       -0.046458073 -0.056624983 -0.04261493 0.14363705
000300 4a d1 e8 bd 6a 4e 67 be 36 de 91 3e b7 14 23 bd
       -0.11368044 -0.22588506 0.28489846 -0.039814677
000310 92 d1 5c be 68 78 11 3e 82 e4 a4 3d c1 c9 7d be
       -0.2156432 0.14206088 0.08051397 -0.24783994
000320 35 d7 b8 3d a9 d2 7d be cd 33 dc 3e f2 94 eb bd
       0.090254225 -0.24787392 0.4300827 -0.115030184
000330 0f 4a 1e 3e bc f3 41 be 15 ad 16 3d 60 3d 97 bd
       0.15457939 -0.18940634 0.036786158 -0.07384753
000340 10 07 93 3c 0d de 52 bd c4 cb 73 3d 66 0a ee be
       0.017947704 -0.051481295 0.059520498 -0.46492308
000350 7c 6a 99 3e 8c 37 80 bd 6d fc ac 3e c9 2f a5 be
       0.29964054 -0.06260595 0.33786336 -0.3226302
000360 52 99 af bd c7 cb 71 bd 6e 6f 15 3e de 61 84 bc
       -0.085741654 -0.059032228 0.14593288 -0.016159948
000370 96 61 49 be 55 ae 8f be 1a be 3b 3d 8e 27 8f 3e
       -0.19666132 -0.28062692 0.04583559 0.27959865
000380 b5 22 0b 3e 1c 5a 09 3d 9c 68 ef 3d 46 f5 65 3d
       0.13587458 0.0335332 0.116898745 0.056142114
000390 be d9 a7 3d 9c 7d a6 3e ef 62 1b 3e 90 88 10 3e
       0.08195828 0.32517707 0.15174459 0.14114594
0003a0 a4 0e 8f 3e a6 f9 da 3d 63 65 99 bd 15 6c d9 bd
       0.27940857 0.10692148 -0.07490041 -0.10616318
0003b0 42 18 1b bd cd 3f 14 3e 87 b1 a3 3e 88 8f 2a 3e
       -0.03786493 0.14477463 0.3197138 0.16656315
0003c0 51 8e 07 bd db 84 9b bd 25 b1 7a bc af 22 4f 3d
       -0.033094708 -0.075936995 -0.015301024 0.050570186
0003d0 5c 97 07 3e 78 31 d5 3d d9 d1 8e 3d aa 20 0d 3e
       0.13241333 0.10409826 0.06973619 0.13781992
0003e0 60 04 13 3e c2 06 74 3b bc 68 ae 3d 44 a2 98 3d
       0.14357138 0.0037235473 0.0851607 0.07452825
0003f0 10 21 ed 3d 5e 96 21 3e 87 b6 b3 3d c8 4c df 3d
       0.11578572 0.15780017 0.08775049 0.10903317

backbone.2.conv.1.1.weight f4 [48]
000000 76 90 0a 3f ac 55 99 3e 47 1b b8 3e 4d 20 82 3e
       0.5412668 0.29948175 0.3595831 0.2541527
000010 a6 3a b4 3e a2 bb b0 3e 34 ef 2b 3e e9 38 a3 3e
       0.35200995 0.34518152 0.16790468 0.31879357
000020 bb b4 80 3e 24 3a 90 3e b6 3a fa 3d 61 8f e2 3e
       0.25137886 0.28169358 0.122182295 0.44250014
000030 b3 12 bc 3e 9a 46 8e 3e 57 bd 93 3e 79 5f de 3e
       0.36733016 0.2778824 0.28855392 0.43432215
000040 a5 c3 8b 3e 30 4d 6e 3e d0 98 04 3f 89 ac f3 3e
       0.27297702 0.23271632 0.51795673 0.4759257
000050 38 cd 8a 3e ee 35 6f 3e fd ae d3 3e 86 9d db 3e
       0.27109694 0.23360416 0.41344443 0.42893618
000060 51 9c c7 3e 8b f6 9b 3e 2b 35 a3 3e 88 6f 17 3e
       0.38986447 0.30461535 0.318765 0.1478864
000070 a4 ed 89 3e 53 25 a6 3e 62 8c 05 3f b0 54 43 3e
       0.26939118 0.3245035 0.5216733 0.19075274
000080 e6 12 9f 3e 0c 14 51 3e b3 13 79 3e 2d ae b9 3e
       0.31069106 0.20417804 0.24323921 0.36265698
000090 ab 0f 3f 3e e2 31 a1 3e 14 74 c5 3e 70 64 97 3e
       0.1865832 0.3148337 0.38565123 0.29568815
0000a0 ae b4 d8 3e 20 85 70 3e c6 26 b1 3e 43 fb bb 3e
       0.42325348 0.23488283 0.34599894 0.36715135
0000b0 16 42 b2 3e 5c ec 87 3e 64 53 b1 3e 43 d9 80 3e
       0.34816045 0.26547515 0.34633934 0.25165758

backbone.2.conv.1.1.bias f4 [48]
000000 d8 0f 12 bd e5 df bb 3d 48 56 8b 3c 2d d1 22 3f
       -0.03565964 0.09173564 0.017008916 0.63600427
000010 f5 52 c7 3d 46 49 0a 3d c9 1d 38 3f c8 30 ec be
       0.0973262 0.033761285 0.7192045 -0.46130967
000020 9c 63 57 3e bb 71 e0 bb 60 86 86 3d 04 9c b8 3d
       0.21034092 -0.006849495 0.06568599 0.090141326
000030 28 4e 03 bd 34 88 1a bc 41 f3 07 bd d0 a6 10 3d
       -0.032056957 -0.009431887 -0.03319097 0.035315335
000040 71 12 05 3d 48 7a 69 3b 7d 39 82 3c eb e9 ee bb
       0.03248829 0.0035625864 0.015896553 -0.007291069
000050 2f 75 36 3f 38 a6 85 b9 55 7b 3f bc 00 ef a6 3c
       0.7127256 -0.0002549158 -0.0116871195 0.020377636
000060 57 b1 6e bc 82 e7 ab 3d d0 d8 89 3b ec b4 30 3d
       -0.014568648 0.08393766 0.0042067543 0.04314129
000070 72 e3 d0 3d 74 a1 a0 bc 32 32 31 3c 91 2a 16 3c
       0.10199632 -0.019608237 0.01081519 0.009165422
000080 6d d1 e1 3c 72 5b 24 3f a9 a7 87 3f 43 b2 d9 bc
       0.027565682 0.64202034 1.0598041 -0.02657426
000090 7e 7f d9 3e b4 48 69 3e 52 8f 50 bb bc 00 10 3e
       0.4248008 0.2278164 -0.0031823707 0.1406278
0000a0 46 4d 1f 3e 15 cd 3e 3d fe fb 21 3c e4 4d 85 3c
       0.15556821 0.0465823 0.00988674 0.016272493
0000b0 58 75 12 3c 38 26 aa 3e 92 4d e6 3c da 16 79 bc
       0.00893911 0.33232284 0.02811316 -0.015203202

backbone.2.conv.1.1.running_mean f4 [48]
000000 bb b6 fa bd 22 f6 a5 bd 8e ac d5 bb 4c fa eb 3e
       -0.12241884 -0.08103587 -0.0065208143 0.460894
000010 df 4d 41 bd 4b c1 88 3b e2 44 17 be ae 35 20 bd
       -0.047193404 0.004173433 -0.1477237 -0.039113693
000020 06 1a 18 3e 86 8c da bc 1f 65 99 3c 58 f3 09 be
       0.14853677 -0.026678335 0.018724976 -0.13471735
000030 d5 08 49 b9 10 d6 ac 3c d1 18 9c bc 70 84 0b be
       -0.00019172144 0.021098167 -0.019054802 -0.1362474
000040 ad e9 d8 3b a0 7d 73 3e 4e 67 d4 bd 17 49 c0 be
       0.006619653 0.23778391 -0.10371266 -0.37555763
000050 4e 8f db 3e c0 66 b4 bc 6c 66 42 ba de fe a5 bd
       0.4288277 -0.022021651 -0.0007415775 -0.08105253
000060 99 e1 2d bb 17 4f dd 3d e4 ab 00 3d 08 68 0a 3c
       -0.0026532172 0.10806101 0.031413928 0.008447655
000070 d6 99 3d 3e 15 5e 83 3c 64 59 27 be eb 41 3d 3d
       0.18515715 0.016036073 -0.16342694 0.046205442
000080 ee 33 9c 3d 79 f7 c7 bd da c6 2e be ee 4a 0f 3d
       0.07627092 -0.097639985 -0.17068043 0.034983568
000090 cd 0e 05 be d9 eb 21 be c8 e2 c0 3a 29 a2 45 3e
       -0.12993927 -0.15812625 0.0014716024 0.1930014
0000a0 64 5c 32 be 18 85 06 3e 03 47 5b bd 32 03 9c 3c
       -0.17418057 0.13136709 -0.05353452 0.019044492
0000b0 07 7f 3f 3d e3 1c 6d 3e 68 6e 7b be 15 7d c2 3c
       0.046752002 0.2315555 -0.24553835 0.023741284

backbone.2.conv.1.1.running_var f4 [48]
000000 53 1b c9 3c 39 9c 2a 3c b2 e0 7a 3b 42 d5 ab 3c
       0.024549162 0.010413223 0.0038280901 0.020975713
000010 b1 56 6f 3c cf 0c fa 3b 75 10 bd 3c 7b 4e 49 3b
       0.014608071 0.0076309214 0.023079136 0.0030716944
000020 4b 52 6f 3d 02 1b 97 3a a1 38 c4 3a 2d 4c fe 3c
       0.05842809 0.0011528435 0.001497049 0.031042183
000030 7d f5 37 3a c0 82 aa 3a 00 17 8d 3a eb c3 cc 3c
       0.00070174766 0.0013008937 0.0010764301 0.024995765
000040 8c 25 f7 3a b1 a5 f6 3b 2c 52 a8 3c 92 ce 54 3c
       0.0018855794 0.007527076 0.020546995 0.012988703
000050 b2 32 f9 3b a2 10 38 3b d7 16 18 3b 2b 96 28 3a
       0.0076049203 0.0028086086 0.0023206973 0.0006431068
000060 d6 24 2a 3b 55 b7 2b 3d 06 4f 6a 3b bc 14 14 3a
       0.0025961897 0.041922886 0.0035752668 0.00056488416
000070 dd 92 99 3b 09 25 ad 39 8a 01 a7 3c b8 cc 35 3a
       0.004686697 0.00033024725 0.020386476 0.00069351075
000080 a8 3f 70 3b ce 59 34 3c c7 28 bd 3c 77 e9 13 3c
       0.0036659036 0.011007739 0.023090733 0.00902783
000090 0c aa 04 3c 54 a7 d1 3c 73 32 16 3b 6b fe 57 3d
       0.008097183 0.025592484 0.0022918254 0.052732866
0000a0 f9 b0 62 3d ae 34 dd 3b fb de cf 3b ac be 4c 3b
       0.055344556 0.0067506647 0.00634372 0.003124158
0000b0 31 62 86 3b f7 8f f3 3c f9 d1 88 3c 41 85 90 3a
       0.004101061 0.029731734 0.016701685 0.0011026041
