ML Model/tv_detection_epoch_70/e-8-1.147.pth (torch_old, 466513 bytes, 205 tensors)

backbone.0.0.weight f4 [16, 3, 3, 3]
-1.1044475e-32 -2.4673536e-33 1.7502457e-33 -2.9146853e-33 2.061008e-32 -5.5004683e-33 -1.0583934e-32 -6.7398215e-32
1.7894831e-32 8.8536655e-33 -4.3584612e-33 -1.4012073e-32 6.0378408e-33 -1.8806902e-32 -7.18176e-34 -1.3161358e-32
-3.9303277e-32 5.7698332e-33 3.558608e-32 2.6629684e-32 -1.1179429e-34 -1.2725892e-32 1.1334898e-32 2.6155388e-33
-3.6125007e-32 4.4116443e-33 -9.3994e-34 -0.043374076 -0.0032530415 0.0427724 0.11905331 0.37989882
0.049320612 -0.19814683 -0.26795718 -0.038619287 -0.042375695 0.07637842 0.027855508 0.2510738
0.74681044 0.09739812 -0.34361926 -0.60367644 -0.07956747 0.05003624 0.072295144 0.1094965
0.05277813 0.18985237 0.022661507 -0.064440094 -0.14903668 0.0017195912 -0.10456677 0.09376198
-0.012520746 -0.40834197 0.7360779 -0.31952542 -0.67150104 0.92348886 -0.29827318 -0.13053076
0.17779277 -0.057419755 -0.83877677 1.3287675 -0.55126256 -1.0681627 1.4710062 -0.47928733
0.00055226416 0.000907093 0.06142079 -0.17841846 0.40546772 -0.14234821 -0.24510615 0.46892014
-0.12207851 -0.0009874214 -0.044903837 0.07337644 0.06406266 0.19958653 -0.28644377 0.030764798
0.31263235 -0.33410367 -0.0151351895 -0.0753308 0.07089529 0.04803824 0.51278675 -0.6255939
0.056772653 0.64504784 -0.7061228 -0.025495384 -0.041252438 0.004904575 0.038562294 0.0756562
-0.08465064 0.0005966272 0.08361363 -0.13381265 -0.068061486 0.041617777 0.018003186 0.0429189
-0.04945139 -0.06526905 0.1816148 0.019732421 -0.19544168 0.017483106 0.048348334 -0.02734419
0.08208226 -0.21017455 -0.29611653 0.25414145 -0.156451 -0.46617603 -0.0062090605 0.03901043
-0.05206767 -0.03561325 -0.097046115 -0.11852497 0.0065402254 -0.06973112 -0.1256901 0.17290217
0.17023197 -0.23971646 0.12250571 0.63592 0.23674005 -0.18657334 0.59067595 0.6375205
0.042283896 -0.10231494 0.036760356 -0.014661459 -0.23022012 -0.120801456 -0.02728287 -0.20416395
-0.151875 -0.16046266 -0.081463 0.21233495 -0.060027756 -0.4238681 -0.15612862 0.12177362
-0.43453807 -0.53154016 -0.016762866 -0.018965961 1.5506139e-05 0.45126632 -0.1387697 -0.21479267
0.13732742 -0.099110596 -0.067484714 -0.061178096 -0.015965668 0.019819751 0.9062142 -0.27903742
-0.48236117 0.25494587 -0.23668833 -0.095972694 0.018437495 0.017135369 0.0035686714 0.21105392
-0.07665073 -0.14241059 0.04881165 -0.056511775 -0.03748551 0.04320074 -0.010883078 -0.13010517
-0.006787702 0.08302712 0.21339047 -0.009579347 0.15171385 0.32737026 -0.008106164 -0.08057257
-0.18439183 0.010926302 0.18419811 0.3677165 0.010335898 0.3389972 0.5393499 0.0066434084
0.03263291 -0.0006110248 0.010931492 0.06368646 0.18296587 0.02644814 0.1055281 0.16845305
0.053722758 0.043964084 -0.13078968 -0.17847323 0.69225156 -0.5174362 0.027853869 0.7304325
-0.6852516 -0.032875627 0.17056184 -0.20400833 -0.12180764 1.0915431 -0.9156037 0.019924745
1.0527298 -0.9763144 0.046585057 -0.017127285 -0.009488419 -0.117609896 0.39740866 -0.33374527
0.008551534 0.3984057 -0.39173526 -6.036337e-32 -2.723408e-32 4.8005917e-32 8.4203584e-33 -3.681623e-32
-3.8168722e-32 4.4399773e-32 1.0064007e-32 -2.0467207e-32 3.3886607e-32 -4.0411124e-32 1.2913915e-32 -3.6083742e-32
00000000: 8062 658a cffa 4c89 9c67 1109 8024 7289
00000010: fe06 d60a 037b e489 d8d1 5b8a ccf9 ae8b
00000020: 9fd4 b90a 29e2 370a 1c0b b589 7b82 918a
00000030: 56cd fa09 524d c38a a8a7 6e88 e4ac 888a
00000040: 0413 4c8b 64ab ef09 04c6 380b ec44 0a0b
00000050: a099 1487 3927 848a a86a 6b0a 5c4a 5909
00000060: 5f92 3b8b a640 b709 a02c 9c88 04a9 31bd
00000070: fb30 55bb 1d32 2f3d 39d2 f33d 1982 c23e
00000080: 6904 4a3d 01e7 4abe af31 89be 422f 1ebd
00000090: 2392 2dbd 4a6c 9c3d 3c31 e43c bf8c 803e
000000a0: f82e 3f3f aa78 c73d ddee afbe 8a8a 1abf
000000b0: 45f4 a2bd cdf2 4c3d 7a0f 943d b33f e03d
000000c0: e12d 583d a968 423e a0a4 b93c 2bf9 83bd
000000d0: 129d 18be e863 e13a 1a27 d6bd 4806 c03d
000000e0: d123 4dbc 3312 d1be 9a6f 3c3f d698 a3be
000000f0: 7ee7 2bbf c469 6c3f 43b7 98be dba9 05be
00000100: 4f0f 363e fa30 6bbd 13ba 56bf 0e15 aa3f
00000110: 8b1f 0dbf 8eb9 88bf ee49 bc3f 2665 f5be
00000120: d2c5 103a fbc9 6d3a 5e94 7b3d 54b3 36be
00000130: 7799 cf3e bbc3 11be 1bfd 7abe 4d16 f03e
00000140: 4c04 fabd 5d6c 81ba 16ed 37bd 6346 963d
00000150: 4933 833d 6960 4c3e c2a8 92be 7506 fc3c
00000160: 5911 a03e a30f abbe 96f9 77bc 0947 9abd
00000170: 8d31 913d bfc3 443d fe45 033f ec26 20bf
00000180: 718a 683d db21 253f 77c4 34bf b2db d0bc
00000190: 51f8 28bd 8fb6 a03b 7ff3 1d3d a3f1 9a3d
000001a0: 515d adbd f966 1c3a 9f3d ab3d 2f06 09be
000001b0: d263 8bbd 6777 2a3d 6b7b 933c bacb 2f3d
000001c0: 8a8d 4abd c8ab 85bd 3bf9 393e e3a5 a13c
000001d0: dd21 48be bb38 8f3c e708 463d ec00 e0bc
000001e0: be1a a83d ff37 57be 969c 97be d41e 823e
000001f0: b134 20be a0ae eebe 6075 cbbb 67c9 1f3d
00000200: e944 55bd 33df 11bd 1dc0 c6bd 38bd f2bd
00000210: 634f d63b 30cf 8ebd e8b4 00be 440d 313e
00000220: 4a51 2e3e 3b78 75be 46e4 fa3d a7cb 223f
00000230: fc6b 723e 150d 3fbe 8a36 173f 8b34 233f
00000240: e131 2d3d 7f8a d1bd 0792 163d 9e36 70bc
00000250: d3be 6bbe c166 f7bd 5380 dfbc 5b10 51be
00000260: 1f85 1bbe 5350 24be 13d6 a6bd 556e 593e
00000270: aadf 75bd 3d05 d9be 2ee0 1fbe 7364 f93d
00000280: c67b debe 0413 08bf 4752 89bc 815e 9bbc
00000290: 2e13 8237 610c e73e a519 0ebe 9cf2 5bbe
000002a0: 8f9f 0c3e 7ffa cabd 6d35 8abd e295 7abd
000002b0: 6fca 82bc 085d a23c a7fd 673f fedd 8ebe
000002c0: 0bf8 f6be 4488 823e 6d5e 72be 558d c4bd
000002d0: 3b0a 973c 795f 8c3c 5fe0 693b 851e 583e
000002e0: 0ffb 9cbd 15d4 11be baee 473d e478 67bd
000002f0: 688a 19bd 42f3 303d f04e 32bc 4a3a 05be
00000300: 5f6b debb 1f0a aa3d 0883 5a3e b2f2 1cbc
00000310: e05a 1b3e 139d a73e b7cf 04bc 3b03 a5bd
00000320: 36d1 3cbe 3b04 333c 6e9e 3c3e 5645 bc3e
00000330: e657 293c 0a91 ad3e d612 0a3f f3b0 d93b
00000340: 16aa 053d 2e2d 20ba 001a 333c 0c6e 823d
00000350: 685b 3b3e c5a9 d83c 1e1f d83d f57e 2c3e
00000360: 650c 5c3d af13 343d bbed 05be b0c1 36be
00000370: 6637 313f b376 04bf cc2d e43c a0fd 3a3f
00000380: a66c 2fbf 98a8 06bd c3a7 2e3e 8fe7 50be
00000390: 4976 f9bd afb7 8b3f 0165 6abf 3839 a33c
000003a0: dabf 863f beef 79bf f9cf 3e3d 854e 8cbc
000003b0: 5075 1bbc 75dd f0bd 2679 cb3e a9e0 aabe
000003c0: bc1b 0c3c d5fb cb3e 8691 c8be 57b6 9c8b
000003d0: 4d68 0d8b cf42 790b 4ee2 2e0a 2a29 3f8b
000003e0: ef2e 468b 6c89 660b 7005 510a 2b8b d48a
000003f0: 07f3 2f0b 99d3 518b 131b 860a 855b 3b8b

backbone.0.1.weight f4 [16]
-7.040303e-32 0.16524199 0.17546919 0.23851408 0.154357 0.16710581 0.01947483 0.2729914
0.08602766 4.5476344e-07 0.438838 0.10500849 0.21111734 0.31875294 -5.11354e-28 -1.4435659e-30
00000000: d7c6 b68b 3235 293e 32ae 333e 093d 743e
00000010: c30f 1e3e c91d 2b3e ae89 9f3c 87c5 8b3e
00000020: 452f b03d 3626 f434 60af e03e b10e d73d
00000030: 252f 583e 9633 a33e f70d 2292 623b ea8d

backbone.0.1.bias f4 [16]
5.6755128e-30 0.57950866 0.3696789 0.29006502 0.9452108 0.6388246 0.5458918 0.53865886
0.61445326 5.869006e-08 -0.28005534 0.9592062 0.45645216 -0.36569455 -7.150625e-32 -2.3328748e-31
00000000: e539 e60e ae5a 143f 8e46 bd3e 6783 943e
00000010: 56f9 713f 028a 233f 91bf 0b3f 8ce5 093f
00000020: cf4c 1d3f 6712 7c33 6a63 8fbe 8a8e 753f
00000030: 19b4 e93e 513c bbbe 0ea4 b98b 8869 978c

backbone.0.1.running_mean f4 [16]
-3.033968e-30 49.502216 14.779946 -15.923304 -134.50337 -46.819054 -0.9358513 246.28111
10.312017 -8.38009e-30 -62.678886 179.59135 123.39432 66.03482 -1.1891617e-30 -4.0939974e-30
00000000: 0d25 768e 4502 4642 a97a 6c41 dac5 7ec1
00000010: dd80 06c3 b646 3bc2 f393 6fbf f747 7643
00000020: 06fe 2441 eaf7 298f 2eb7 7ac2 6397 3343
00000030: e4c9 f642 d411 8442 d8f3 c08d 8012 a68e

backbone.0.1.running_var f4 [16]
6e-45 2524.9814 8446.818 1496.8649 8494.24 6607.155 2562.1604 28265.97
5783.555 6e-45 3484.5637 15031.7705 8522.377 3875.4797 6e-45 6e-45
00000000: 0400 0000 b4cf 1d45 46fb 0346 ad1b bb44
00000010: f6b8 0446 3d79 ce45 9122 2045 f1d3 dc46
00000020: 71bc b445 0400 0000 05c9 5945 15df 6a46
00000030: 8229 0546 ad37 7245 0400 0000 0400 0000

backbone.1.conv.0.0.weight f4 [16, 1, 3, 3]
1.02506854e-32 -1.073963e-32 9.68537e-33 1.1250355e-32 3.4907072e-33 -1.0375234e-28 9.14446e-33 -7.721295e-33
-5.888558e-33 0.007671854 -0.038459644 0.0681785 -0.006655425 -0.16225983 0.7457893 0.02868677
0.08189478 -0.8048038 0.011044823 -0.015030116 -0.18363662 0.0009434787 0.08170811 1.1276046
-0.004229408 -0.036868103 -0.03701758 -0.10098033 -0.084116824 -0.11720374 0.03591475 0.7560732
-0.3440463 -0.040587887 -0.036069684 -0.19271806 0.59980494 1.9395379 0.4535233 0.23365355
0.44189185 0.17459518 -0.85894084 -2.155159 -0.7657084 -0.005102765 0.15712368 -0.14365272
0.22934535 0.3760316 -1.730017 0.056854825 1.2564019 0.30156183 -0.0064029326 0.08925065
-0.0733376 0.012905785 -0.0011922675 -0.8490685 -0.016220957 -0.056561396 0.9808926 -0.51694167
-0.27750567 0.74689734 -2.4337523 -0.35791743 2.6488717 -0.52429616 -0.20920351 0.6067931
-0.02481376 0.12845805 -0.07872317 0.026967606 -1.1003797 0.1964529 0.011458378 0.01981947
-0.027768519 7.881121e-29 9.8888787e-29 7.8151095e-29 -3.1796044e-29 -3.685661e-29 -1.2973469e-28 3.534889e-29
-5.7676384e-29 -2.4344826e-29 0.14364073 -0.098714985 -0.45051083 -0.14636935 0.18719764 0.40522757
-0.3929543 0.2915234 0.4381991 0.17854665 1.6064714 1.0176202 0.07304673 0.06243983
-0.12596855 -0.3498553 -1.6239169 -0.9864842 -0.0042396607 0.05875151 -0.007270825 0.03642328
0.055696495 -0.6032257 -0.0062023536 0.06935824 0.90714526 -0.05346331 0.007998668 -0.12317496
0.025564184 0.050940514 -0.12027744 -0.111020826 -0.10092079 0.73743063 9.820813e-33 8.127574e-34
-1.2245294e-33 -3.4441962e-33 -1.2982058e-33 1.2256786e-33 -2.7517371e-33 -2.9270588e-33 -2.943363e-33 -6.239262e-33
-1.8746659e-32 -2.2225684e-32 -3.7746233e-33 -1.0485643e-32 -2.2775495e-32 1.18864946e-32 1.6623054e-32 -1.8309958e-32
00000000: fee5 540a ab0d 5f8a 4328 490a 26a9 690a
00000010: 91ff 9009 8f85 0391 4aec 3d0a 725d 208a
00000020: e499 f489 2d64 fb3b dc87 1dbd 2ba1 8b3d
00000030: c015 dabb 7127 26be 0cec 3e3f 8400 eb3c
00000040: 73b8 a73d 9f07 4ebf 58f5 343c e040 76bc
00000050: 3d0b 3cbe c953 773a 9556 a73d 5955 903f
00000060: d996 8abb 0203 17bd bf9f 17bd c6ce cebd
00000070: 7145 acbd 8408 f0bd 581b 133d 038e 413f
00000080: d626 b0be 7c3f 26bd cebd 13bd e257 45be
00000090: d18c 193f c742 f83f 3534 e83e e042 6f3e
000000a0: a63f e23e 14c9 323e 8ce3 5bbf 20ee 09c0
000000b0: 7705 44bf 1835 a7bb 08e5 203e b319 13be
000000c0: 82d9 6a3e 3787 c03e 3271 ddbf 9be0 683d
000000d0: c7d1 a03f 5066 9a3e b1cf d1bb 0bc9 b63d
000000e0: 0632 96bd c972 533c dc45 9cba 8e5c 59bf
000000f0: d0e1 84bc ecac 67bd c71b 7b3f 4a56 04bf
00000100: 3915 8ebe aa34 3f3f 99c2 1bc0 f440 b7be
00000110: 1d87 2940 4638 06bf 7239 56be cb56 1b3f
00000120: 3a46 cbbc 828a 033e 9d39 a1bd 2beb dc3c
00000130: 3ed9 8cbf f32a 493e ecbb 3b3c 715c a23c
00000140: ce7a e3bc 66cf c710 7eb6 fa10 f622 c610
00000150: a039 2190 9de2 3a90 5075 2491 7c3d 3310
00000160: 1d3a 9290 c8e2 f68f 8e16 133e 152b cabd
00000170: 5ba9 e6be d9e1 15be bdb0 3f3e fd79 cf3e
00000180: 4e31 c9be 8e42 953e a25b e03e efd4 363e
00000190: dba0 cd3f 6141 823f 8699 953d e8c0 7f3d
000001a0: e6fd 00be 3c20 b3be 82dc cfbf 3b8a 7cbf
000001b0: daec 8abb 6ca5 703d 1a40 eebb 9430 153d
000001c0: 0222 643d 006d 1abf 1d3d cbbb b10b 8e3d
000001d0: ac3a 683f 58fc 5abd d80c 033c 2743 fcbd
000001e0: fb6b d13c 00a7 503d 0554 f6bd e35e e3bd
000001f0: 8faf cebd 41c8 3c3f 66f8 4b0a e00a 8708
00000200: b875 cb88 fa10 8f89 91b3 d788 9aa6 cb08
00000210: fa9a 6489 a82b 7389 6886 7489 9b95 018a
00000220: 2bad c28a 01ce e68a aeca 9c89 3ec7 598a
00000230: a783 ec8a 72df 760a a89f ac0a 3824 be8a

backbone.1.conv.0.1.weight f4 [16]
3.2422038e-32 0.51879096 0.7123635 0.49786246 1.1338228 0.5070357 0.53885704 0.88017404
0.4750177 -1.3121704e-06 0.24518308 1.081751 0.66215366 0.28824398 1.850505e-30 -2.918062e-32
00000000: 4858 280b 7ccf 043f 745d 363f d4e7 fe3e
00000010: 1b21 913f 17cd 013f 89f2 093f 1653 613f
00000020: 8535 f33e d51d b0b5 4611 7b3e d176 8a3f
00000030: e782 293f b794 933e 7c21 160e b283 178b

backbone.1.conv.0.1.bias f4 [16]
1.0545169e-32 0.9280954 1.4788147 0.45069718 0.22395884 1.0399936 0.94797397 0.4067127
0.5280241 -0.0026739335 0.38392463 0.19697104 1.0638137 -0.30216286 2.3360416e-33 -8.13972e-32
00000000: bc03 5b0a a997 6d3f cd49 bd3f c8c1 e63e
00000010: 7755 653e 831e 853f 6cae 723f a63c d03e
00000020: 962c 073f 293d 2fbb c591 c43e c7b2 493e
00000030: 0c2b 883f 17b5 9abe 1c12 4209 b851 d38b

backbone.1.conv.0.1.running_mean f4 [16]
6e-45 -0.05012954 0.33879748 -0.030497417 0.0579911 0.3222617 0.0393804 -0.1664476
-0.52235585 -1.079313e-35 0.021757811 -0.14394376 0.22701444 0.009023898 -6e-45 -6e-45
00000000: 0400 0000 a254 4dbd dd76 ad3e b8d5 f9bc
00000010: 1388 6d3d 7cff a43e 584d 213d 3d71 2abe
00000020: 1db9 05bf 648b 6585 703d b23c fe65 13be
00000030: 7976 683e f9d8 133c 0400 0080 0400 0080

backbone.1.conv.0.1.running_var f4 [16]
6e-45 0.016644023 0.017466329 0.025938801 0.22907545 0.04648896 0.0020965426 0.37477782
0.007748211 6e-45 0.0060461545 0.14193611 0.02190189 0.0015243003 6e-45 6e-45
00000000: 0400 0000 0c59 883c 8c15 8f3c 9c7d d43c
00000010: c192 6a3e 356b 3e3d 2666 093b e1e2 bf3e
00000020: b4e4 fd3b 0400 0000 d21e c63b b357 113e
00000030: 986b b33c 08cb c73a 0400 0000 0400 0000

backbone.1.conv.1.weight f4 [8, 16, 1, 1]
-3.4249038e-33 0.003907382 -0.042479333 0.16982664 -0.075821914 0.6804231 0.22634241 -0.043523077
-0.09932985 1.6562676e-15 0.10371609 0.2603737 0.057851594 -0.035528596 1.6233169e-32 1.9663409e-33
-1.992393e-32 0.0021756536 -0.5652646 -0.03942786 0.08373219 0.04314296 -0.036187273 0.07341525
0.07960423 4.9592487e-21 0.17687753 0.0020388116 -0.13507874 0.24898139 -5.7026026e-33 -1.7917611e-32
-4.649893e-33 0.5016757 0.14458573 0.43584254 -0.17248537 -0.17644784 -0.24439102 0.07477924
-0.17606665 -9.698372e-10 -0.0070843794 0.3998486 0.07588129 -0.011712687 -1.7084459e-32 -5.6615505e-32
-5.506185e-32 -0.09821023 -0.15274073 0.065156855 0.49896222 -0.4468526 0.042674925 0.047452018
-0.24125704 -8.189366e-23 0.07658124 -0.42027012 0.28810075 0.3554379 7.5478786e-33 -1.0291271e-32
7.899355e-33 -0.33666968 0.28842092 -0.021992719 0.1496597 -0.6109122 0.07695541 -0.29823565
0.16083556 2.792126e-29 0.1267327 -0.113104366 -0.19090898 -0.09094663 -1.4011931e-32 1.3942956e-33
1.3737038e-34 -0.2226888 0.004171526 -0.5349525 -0.308437 -0.22675265 0.35086572 0.44222945
0.36517987 1.4102529e-19 0.037091445 0.47441167 -0.041982546 0.04970625 -3.9694997e-33 -9.2557624e-33
2.1822825e-34 0.4217973 -0.107564144 -0.36796013 -0.4200521 0.033067588 0.022702603 -0.86045325
0.1156382 6.8425696e-26 -0.036235046 0.27564198 -0.09709145 0.20506361 -4.899448e-33 5.675228e-34
-5.9715383e-32 -0.04056704 0.21388526 -0.024652535 0.48027164 0.5869394 -0.21208134 0.18248124
-0.09167809 2.9463665e-10 0.1688318 -0.44976884 -0.20102656 -0.020578664 2.2708909e-33 1.9435374e-32
00000000: d343 8e89 7f09 803b cffe 2dbd 09e7 2d3e
00000010: 8548 9bbd 3530 2e3f 4ec6 673e 4145 32bd
00000020: 736d cbbd 7db1 ee26 1a69 d43d b44f 853e
00000030: cbf5 6c3d 6f86 11bd 2a93 a80a 725b 2309
00000040: e4e6 ce8a 6995 0e3b 2eb5 10bf 1c7f 21bd
00000050: c87b ab3d acb6 303d 1b39 14bd bc5a 963d
00000060: 8b07 a33d e95a bb1d 621f 353e 959d 053b
00000070: 1552 0abe faf4 7e3e 79e0 ec89 2e11 ba8a
00000080: 2526 c189 d26d 003f 480e 143e c126 df3e
00000090: 01a0 30be beae 34be a441 7abe dc25 993d
000000a0: d14a 34be 1d4b 85b0 1524 e8bb f5b8 cc3e
000000b0: a667 9b3d 92e6 3fbc 486a b18a 75fb 928b
000000c0: e0f2 8e8b 7222 c9bd 1168 1cbe f570 853d
000000d0: fa77 ff3e ddc9 e4be e7cb 2e3d 0c5d 423d
000000e0: 160c 77be b801 c69a a0d6 9c3d a52d d7be
000000f0: f181 933e f5fb b53e 68c3 1c0a c8bd 558a
00000100: 2d10 240a f85f acbe e8ab 933e 132a b4bc
00000110: 6440 193e be64 1cbf cc9a 9d3d 58b2 98be
00000120: 14b2 243e de93 0d10 38c6 013e 43a3 e7bd
00000130: a57d 43be 3a42 babd 1a82 918a c7aa e708
00000140: b898 3607 8808 64be 4cb1 883b a6f2 08bf
00000150: 74eb 9dbe d931 68be aca4 b33e e66b e23e
00000160: dbf8 ba3e 477e 2620 33ed 173d 16e6 f23e
00000170: e4f5 2bbd c898 4b3d f6e2 a489 133c 408a
00000180: 9d09 9107 d1f5 d73e 974a dcbd 4565 bcbe
00000190: 1211 d7be e171 073d cffa b93c aa46 5cbf
000001a0: b8d3 ec3d f069 a915 336b 14bd f220 8d3e
000001b0: e2d7 c6bd 32fc 513e de83 cb89 8097 3c08
000001c0: ae07 9b8b a029 26bd bd04 5b3e 1df4 c9bc
000001d0: 2ae6 f53e a941 163f da2b 59be 5ddc 3a3e
000001e0: b9c1 bbbd 6cfa a12f 3ee2 2c3e 1a48 e6be
000001f0: e8d9 4dbe 9694 a8bc 82a8 3c09 16d4 c90a

backbone.1.conv.2.weight f4 [8]
0.5313374 0.52154285 0.58044463 0.52600545 0.56577826 0.6019574 0.5930016 0.51366687
00000000: ba05 083f d583 053f 0598 143f 4ba8 063f
00000010: d8d6 103f e119 1a3f f4ce 173f ac7f 033f

backbone.1.conv.2.bias f4 [8]
-6.0601255e-05 -0.00014526343 -4.3557247e-05 -4.601613e-05 6.894376e-05 7.0067756e-05 7.644125e-05 -0.0001251534
00000000: 1a2e 7eb8 db51 18b9 3db1 36b8 7201 41b8
00000010: e695 9038 57f1 9238 154f a038 9c3b 03b9

backbone.1.conv.2.running_mean f4 [8]
1.0388647 -0.8062223 0.5597453 -0.41786113 -0.6805186 0.08690016 -0.46915162 0.6105755
00000000: 85f9 843f 9664 4ebf 784b 0f3f e5f1 d5be
00000010: 7836 2ebf b6f8 b13d a434 f0be ad4e 1c3f

backbone.1.conv.2.running_var f4 [8]
0.124870785 0.15983708 0.22324759 0.2631368 0.16623363 0.30732185 0.43233088 0.17148088
00000000: 41bc ff3d 55ac 233e 049b 643e deb9 863e
00000010: 2639 2a3e 4a59 9d3e 795a dd3e af98 2f3e

backbone.2.conv.0.0.weight f4 [48, 8, 1, 1]
0.17961262 0.08270484 0.16355053 -0.14056554 -0.13585262 0.03048943 0.2774503 0.044177875
0.06545379 0.08541376 0.10972898 0.14567299 -0.19540395 -0.2697417 -0.12199399 -0.08381849
-0.06730612 -0.031143546 -0.17859954 0.14556174 -0.034406748 0.07450269 -0.31782472 0.119156614
-0.044577144 0.23116641 0.08226939 -0.5900762 -0.0005336029 -0.13372995 -0.2638375 -0.39694053
0.06456145 -0.058563817 0.15395434 -0.293174 -0.12248176 0.13605873 0.07550262 -0.18467338
-0.012970481 -0.018545186 0.037565738 -0.21178947 -0.013133696 0.1234537 0.21390554 -0.11283628
0.06393037 0.17139685 0.12184454 0.08571462 -0.13127413 -0.27504644 -0.1602333 -0.013541944
0.044567823 0.2087194 0.05315465 -0.040600285 -0.015218187 0.07320309 -0.04654654 0.15814652
-0.25164568 -0.071900114 0.35958084 -0.022276243 -0.10801967 -0.0050292965 -0.19856152 0.0063276133
0.023883007 0.27988544 -0.026561491 0.12951943 -0.16287707 -0.041278694 0.07027924 -0.07042224
-0.016107365 -0.118023045 0.0056173843 -0.40722695 0.07545476 -0.051608212 -0.005051938 0.09767135
-0.07627581 -0.012848396 -0.15596177 0.2556457 -0.03588532 -0.1481771 -0.26180327 0.23744938
0.12297458 0.10835415 -0.1207196 0.0043697483 0.09099742 0.14692923 0.0055468706 0.08640277
0.11565374 -0.1708463 -0.0016743495 -0.10282226 -0.2867045 0.17466119 0.047203824 0.19252555
-0.16641538 -0.08367804 0.10640774 0.2934469 0.11490396 0.16640359 -0.003962856 -0.31714743
0.025964707 0.12690963 0.18682969 0.15623802 -0.3313577 -0.100512266 0.012405069 -0.20676222
0.25800878 0.10805401 0.15994108 0.18320017 0.19874685 0.1285322 0.07216535 0.05292476
0.024924813 -0.042677425 0.17033534 -0.21817395 -0.1249988 0.089235105 0.04276676 -0.05040496
-0.25624162 0.0239217 -0.14980751 0.16098914 -0.12525968 -0.056661043 -0.30660746 0.21900325
-0.09160879 0.0727154 -0.24476728 0.24539602 0.1266686 -0.2617507 -0.27040094 0.33706123
0.09528609 0.16747549 0.16129114 0.24463396 -0.01910668 0.02614666 0.12606476 0.141287
0.0920041 -0.03545467 0.07154958 -0.33043817 0.15221499 -0.11241666 -0.3008034 -0.18434218
0.0659842 0.033535305 0.02555771 0.10543484 -0.07382739 -0.12614152 0.011004023 -0.096962936
0.23270422 0.049633835 0.07546733 0.05081846 0.107944004 -0.0041421177 -0.012835604 0.05295441
-0.04723049 0.051743545 0.12538947 0.10169484 -0.009519075 -0.22173043 0.057259217 -0.08115171
0.020429585 -0.40258324 0.19056395 -0.064038426 0.14213718 -0.13248858 -0.09994519 0.29237732
-0.012790906 0.07504711 0.25008076 0.05525807 -0.06644227 -0.005376555 0.19986951 0.15391266
-0.32846406 0.07480762 -0.082905956 0.21681575 -0.14622244 0.008769592 0.26531354 0.051476594
0.38293785 0.0968033 -0.11918354 -0.13239129 -0.103204116 -0.25123698 -0.035135224 0.10148942
0.00024500274 0.022009373 0.16382405 0.19624996 0.059462763 0.1528102 0.004038245 0.025361054
-0.1654106 -0.14577419 -0.4170563 -0.07873171 0.028264832 0.41184062 0.089854196 0.00876281
0.19078933 -0.07099537 -0.05060919 -0.24869148 -0.2542448 -0.014046512 0.053497843 0.276451
00000000: 5fec 373e 2861 a93d ca79 273e 6af0 0fbe
00000010: f31c 0bbe f8c4 f93c f70d 8e3e dcf3 343d
00000020: a30c 863d 69ed ae3d 96b9 e03d 4d2b 153e
00000030: f917 48be 961b 8abe fcd7 f9bd 07a9 abbd
00000040: cbd7 89bd c020 ffbc cce2 36be 230e 153e
00000050: 17ee 0cbd de94 983d ecb9 a2be 6208 f43d
00000060: 8696 36bd e3b6 6c3e db7c a83d 3c0f 17bf
00000070: 7ce1 0bba 81f0 08be b515 87be ca3b cbbe
00000080: cb38 843d 9de0 6fbd 35a6 1d3e e71a 96be
00000090: b8d7 fabd fb52 0b3e 1ea1 9a3d 051b 3dbe
000000a0: 2482 54bc 13ec 97bc 88de 193d 57df 58be
000000b0: b72e 57bc 4bd5 fc3d 0e0a 5b3e b516 e7bd
000000c0: eded 823d a882 2f3e a189 f93d 268b af3d
000000d0: ba6c 06be e3d2 8cbe 3314 24be 08df 5dbc
000000e0: c08c 363d 8aba 553e b1b8 593d 7c4c 26bd
000000f0: b455 79bc 80eb 953d 96a7 3ebd 29f1 213e
00000100: b4d7 80be 5e40 93bd fb1a b83e ab7c b6bc
00000110: 6b39 ddbd cccc a4bb b653 4bbe de57 cf3b
00000120: 4ca6 c33c 254d 8f3e 7c97 d9bc bea0 043e
00000130: 3fc9 26be d913 29bd 90ee 8f3d 8939 90bd
00000140: 98f3 83bc 11b6 f1bd 0912 b83b 0d80 d0be
00000150: 0688 9a3d 2263 53bd ba8a a5bb eb07 c83d
00000160: 7e36 9cbd 1482 52bc 71b4 1fbe fee3 823e
00000170: 7cfc 12bd bdbb 17be 140b 86be ee25 733e
00000180: 19da fb3d c8e8 dd3d d63b f7bd 1b30 8f3b
00000190: db5c ba3d 9e74 163e 86c2 b53b eff3 b03d
000001a0: dedb ec3d 55f2 2ebe d975 dbba 7a94 d2bd
000001b0: efca 92be 62da 323e cc58 413d 6b25 453e
000001c0: cb68 2abe 645f abbd 4dec d93d ac3e 963e
000001d0: c452 eb3d b465 2a3e d8da 81bb 2661 a2be
000001e0: f0b3 d43c 99f4 013e 4850 3f3e dcfc 1f3e
000001f0: b7a7 a9be 60d9 cdbd a13e 4b3c 7ab9 53be
00000200: ba19 843e 6c4b dd3d 98c7 233e d398 3b3e
00000210: 4b84 4b3e f29d 033e 6dcb 933d a2c7 583d
00000220: 1f2f cc3c 86ce 2ebd 636c 2e3e fe68 5fbe
00000230: 5fff ffbd e5c0 b63d 332c 2f3d 6e75 4ebd
00000240: 1a32 83be 71f7 c33c 2467 19be 56da 243e
00000250: 1344 00be 6915 68bd a7fb 9cbe 6342 603e
00000260: 649d bbbd d0eb 943d 46a4 7abe 1849 7b3e
00000270: 6ab5 013e 3004 86be fe71 8abe 4a93 ac3e
00000280: 5b25 c33d b27e 2b3e 8129 253e 5381 7a3e
00000290: 9d85 9cbc 8531 d63c 1f17 013e 8aad 103e
000002a0: a56c bc3d eb38 11bd 9688 923d 312f a9be
000002b0: 3fde 1b3e b53a e6bd e702 9abe 32c4 3cbe
000002c0: b922 873d 515c 093d 675e d13c 39ee d73d
000002d0: d132 97bd 3e2b 01be 384a 343c 8194 c6bd
000002e0: 044a 6e3e d94c 4b3d 9e8e 9a3d 0427 503d
000002f0: bf11 dd3d 9aba 87bb 6d4c 52bc b9e6 583d
00000300: c274 41bd 0af1 533d 1966 003e 6245 d03d
00000310: e5f5 1bbc 4d0d 63be a488 6a3d de32 a6bd
00000320: f25b a73c 641f cebe 3223 433e 9426 83bd
00000330: 698c 113e 16ab 07be 10b0 ccbd 7bb2 953e
00000340: f390 51bc 4db2 993d 960a 803e 4956 623d
00000350: e312 88bd d02d b0bb 98aa 4c3e 489b 1d3e
00000360: 712c a8be bd34 993d 99ca a9bd f304 5e3e
00000370: 56bb 15be 56ae 0f3c 2dd7 873e 1fd9 523d
00000380: 6e10 c43e cf40 c63d 8016 f4bd 9591 07be
00000390: ae5c d3bd 22a2 80be f4e9 0fbd afd9 cf3d
000003a0: b673 8039 004d b43c 7ec1 273e c0f5 483e
000003b0: 3a8f 733d 477a 1c3e 4153 843b fcc1 cf3c
000003c0: 6561 29be d445 15be 6788 d5be 173e a1bd
000003d0: a68b e73c c6dc d23e 7a05 b83d e491 0f3c
000003e0: 475e 433e 0566 91bd 954b 4fbd fba8 7ebe
000003f0: 602c 82be 5723 66bc 8e20 5b3d fc8a 8d3e

backbone.2.conv.0.1.weight f4 [48]
0.4642248 0.35281584 0.11563036 0.16195421 0.16404025 0.19523565 0.27939638 0.13858798
0.46164113 0.13319522 0.17316586 0.34120938 0.08733824 0.084009334 0.1186511 0.45418507
0.13505752 0.16746566 0.33288833 0.18015972 0.14097545 0.1250254 0.12320362 0.06880937
0.1423738 0.35087213 0.15826355 0.27511564 0.1478225 0.04303467 0.48942938 0.08247266
0.14651033 0.28717136 0.23268658 0.21373104 0.30900067 0.33803198 0.11567525 0.3326493
0.47414738 0.19492738 0.14071041 0.120744675 0.1704142 0.42648527 0.3095488 0.16381766
00000000: dfae ed3e 47a4 b43e 9ccf ec3d 53d7 253e
00000010: 2bfa 273e dbeb 473e 0b0d 8f3e 02ea 0d3e
00000020: 3a5c ec3e 5464 083e 6452 313e ffb2 ae3e
00000030: 64de b23d 160d ac3d 59ff f23d f28a e83e
00000040: 854c 0a3e 1e7c 2b3e 5770 aa3e ca7b 383e
00000050: de5b 103e a906 003e 2e52 fc3d edeb 8c3d
00000060: 70ca 113e 83a5 b33e d70f 223e f5db 8c3e
00000070: c85e 173e 1f45 303d 7d96 fa3e 6de7 a83d
00000080: ce06 163e 2008 933e 6445 6e3e 4fdc 5a3e
00000090: 5635 9e3e 8712 ad3e 25e7 ec3d 0251 aa3e
000000a0: 72c3 f23e 0b9b 473e 6416 103e fc48 f73d
000000b0: 0f81 2e3e 475c da3e 2e7d 9e3e d1bf 273e

backbone.2.conv.0.1.bias f4 [48]
-0.022594757 -0.0094425315 0.24392687 0.3994443 0.26921526 0.16773494 0.09049667 0.037619784
-0.040365167 0.1540589 -0.08845936 0.0803909 0.18751267 0.23914142 0.22886853 -0.009135733
-0.07948893 0.2520561 0.07947813 0.38321567 0.41756767 0.1551934 0.25099272 0.3143434
0.13182479 -0.029180614 0.10975385 -0.3325266 0.23747532 0.27662027 -0.011613249 0.23647709
0.16978274 0.0456616 0.095092624 0.16022876 0.06608065 0.09925639 0.2545795 0.09821183
0.006371522 0.08809341 0.27396268 0.2085629 0.15423407 -0.004037564 0.21374364 0.1630272
00000000: a418 b9bc d9b4 1abc f7c7 793e f783 cc3e
00000010: 95d6 893e b5c2 2b3e 5156 b93d 3417 1a3d
00000020: f255 25bd 9ec1 1d3e 2e2a b5bd fca3 a43d
00000030: 5203 403e 7de1 743e 835c 6a3e 0bae 15bc
00000040: 18cb a2bd 7f0d 813e 6ec5 a23d d834 c43e
00000050: 6ecb d53e 05eb 1e3e 1e82 803e 9ef1 a03e
00000060: 14fd 063e 2f0c efbc a0c6 e03d ed40 aabe
00000070: bb2c 733e 2ca1 8d3e 7f45 3ebc 0d27 723e
00000080: 87db 2d3e a807 3b3d ecbf c23d 0213 243e
00000090: 4b55 873d ef46 cb3d 3f58 823e 4923 c93d
000000a0: 33c8 d03b 516a b43d d644 8c3e 8391 553e
000000b0: 89ef 1d3e 8b4d 84bb 9ddf 5a3e 9af0 263e

backbone.2.conv.0.1.running_mean f4 [48]
2.0620333e-05 -8.323495e-06 -1.7352466e-05 3.6120161e-07 1.7814136e-05 1.7463608e-05 -1.0523114e-05 -4.8388836e-07
-1.790038e-06 1.1156676e-07 9.043048e-06 -2.0898384e-05 -1.6480975e-06 1.5854419e-05 -6.8175823e-06 3.2578434e-06
-3.2754274e-06 1.39661925e-05 -1.7571905e-05 -2.7998973e-05 3.4065147e-07 -8.634305e-06 -2.5627987e-06 -3.6640854e-06
-2.6422474e-06 -2.3472692e-06 1.0730745e-05 7.4748923e-06 -7.542732e-07 -2.5396207e-06 8.404267e-06 1.5248876e-05
1.1935968e-05 -9.788186e-06 1.7148666e-05 -1.7161332e-06 -4.3242135e-06 1.1872318e-05 1.7137448e-06 -7.8398825e-06
-1.13373135e-05 1.3228271e-07 6.8001686e-06 1.3196386e-05 4.546984e-06 1.1958264e-05 5.1651305e-06 -1.0504497e-05
00000000: d4f9 ac37 24a5 0bb7 2390 91b7 2ceb c134
00000010: 916f 9537 d07e 9237 6e8c 30b7 8ee4 01b5
00000020: 3d41 f0b5 7a96 ef33 98b7 1737 f04e afb7
00000030: 3334 ddb5 1bff 8437 96c2 e4b6 53a1 5a36
00000040: 6acf 5bb6 5750 6a37 6167 93b7 56df eab7
00000050: c8e2 b634 0fdc 10b7 8cfc 2bb6 82e4 75b6
00000060: 7751 31b6 c785 1db6 3308 3437 d6d0 fa36
00000070: 4279 4ab5 5a6e 2ab6 0d00 0d37 6cd5 7f37
00000080: 9840 4837 f037 24b7 7bda 8f37 e355 e6b5
00000090: b618 91b6 382f 4737 d303 e635 0a88 03b7
000000a0: 6435 3eb7 9809 0e34 012d e436 0c66 5d37
000000b0: 4c92 9836 5aa0 4837 2250 ad36 793c 30b7

backbone.2.conv.0.1.running_var f4 [48]
0.10719152 0.06982753 0.09870935 0.090110146 0.09499146 0.060538445 0.068654165 0.022309566
0.067355774 0.057120133 0.046776883 0.13098231 0.016087309 0.06866914 0.1189907 0.08656727
0.016466552 0.052603208 0.124022745 0.20828642 0.028249485 0.027970206 0.018984284 0.012103165
0.035858206 0.11838919 0.029740226 0.04610702 0.13947873 0.01894736 0.1571697 0.12134597
0.05860594 0.06305311 0.091653906 0.10994744 0.068990834 0.20817976 0.02076031 0.12710065
0.033658523 0.044659078 0.028420355 0.09342074 0.091927774 0.13914603 0.11791205 0.13977577
00000000: 3a87 db3d bc01 8f3d 2128 ca3d ab8b b83d
00000010: e28a c23d 29f7 773d 8e9a 8c3d 8dc2 b63c
00000020: d3f1 893d cdf6 693d 1e99 3f3d 3a20 063e
00000030: 88c9 833c 68a2 8c3d 65b1 f33d 2e4a b13d
00000040: dde4 863c 7676 573d a3ff fd3d 0949 553e
00000050: 776b e73c c621 e53c ee84 9b3c 5a4c 463c
00000060: 0ee0 123d 0876 f23d c6a1 f33c b7da 3c3d
00000070: 83d3 0e3e 7e37 9b3c 18f1 203e 3c84 f83d
00000080: c80c 703d fd21 813d 0bb5 bb3d 202c e13d
00000090: 114b 8d3d 132d 553e 8711 aa3c ac26 023e
000000a0: 85dd 093d 70ec 363d ced1 e83c 5f53 bf3d
000000b0: a144 bc3d 4c7c 0e3e df7b f13d 6121 0f3e

backbone.2.conv.1.0.weight f4 [48, 1, 3, 3]
-0.087129556 -0.17109247 -0.08057915 -0.1516416 -0.15560584 -0.10729536 -0.019718563 -0.1134128
-0.03956482 -0.09483588 -0.052655287 0.010341128 -0.14799525 -0.07102188 -0.012678054 -0.18879569
-0.1715355 -0.057224333 -0.13196965 -0.07001121 0.02458493 0.16289213 0.36481398 0.16002677
-0.057688702 -0.15247087 -0.36767963 0.13282453 0.23150477 -0.039165787 0.17526947 0.5189919
0.011275739 0.03889172 0.16109607 -0.05283735 -0.11675294 -0.28502372 -0.16598926 -0.103793204
-0.120143004 -0.023439078 0.1145339 0.37280986 0.13673535 0.056778878 0.27206632 0.21803036
-0.05487913 -0.08670784 0.066065244 -0.09975106 -0.19528458 -0.15348826 -0.052611355 -0.07329383
-0.09401348 0.01783516 -0.2298817 -0.23683575 0.020795451 -0.1887926 -0.24474181 -0.13766603
0.037035484 -0.14400925 -0.13237707 0.12708347 -0.17060848 -0.16136512 0.08659298 -0.13929667
0.057641696 0.14300933 0.09646528 0.08780847 0.3053926 0.20668392 0.012029765 0.16753154
0.1259545 -0.10808982 0.18757363 -0.08228874 -0.042050906 0.08195641 -0.07765475 0.13588184
-0.35540897 0.11433303 0.01311839 0.07142069 0.005793554 0.077575944 0.14955403 0.054320835
0.0630688 0.2264553 0.053552624 -0.050951395 -0.16401091 -0.14649177 -0.03066424 -0.24976395
-0.23544835 0.009340298 0.0016258921 -0.038900293 -0.07367982 0.11147108 0.011038439 0.19623537
-0.33978283 0.10231573 -0.10584408 0.21168958 -0.09317815 -0.11253154 -0.0033513377 0.07299867
-0.27186438 0.3284065 0.0125331 -0.0013132876 0.19263466 -0.1359923 -0.077243395 -0.124336034
-0.098794915 0.112770066 0.36609596 0.0665236 -0.044877667 -0.28553843 -0.0397973 -0.081854895
-0.13492872 -0.011540972 -0.17645112 -0.20534092 -0.08673903 -0.08409177 -0.18803728 -0.0951487
-0.08234148 -0.12832959 -0.043825556 -0.04097513 0.07250533 0.14471653 0.0048075286 0.100291036
0.17517243 0.12521027 0.17509693 0.057405077 0.18770806 0.16289 0.007467305 0.074895404
0.10283511 0.02290846 -0.047771253 -0.120936625 0.0031013475 0.012789223 -0.31368083 -0.083998844
0.01182431 -0.15102874 0.019838385 0.036636323 -0.020527797 -0.021519793 -0.07399218 -0.2993888
-0.19697262 0.0031212207 -0.2238736 -0.12081844 0.12929083 0.15731037 -0.0013096655 0.18608364
0.3763405 0.008931295 0.118566915 0.14050253 -0.045283742 -0.052246336 -0.044294592 0.14075935
-0.10733337 -0.22069897 0.29184473 -0.041289724 -0.21633813 0.14368752 0.0837418 -0.24118842
0.0903689 -0.2404969 0.43994635 -0.11896683 0.16025813 -0.17736386 0.04115846 -0.07336902
0.021534743 -0.05253414 0.059402503 -0.46587777 0.29863307 -0.06322667 0.338778 -0.32218572
-0.08479438 -0.054143883 0.14882791 -0.030662108 -0.20800641 -0.27873877 0.043215662 0.26424158
0.14666001 0.035283323 0.10923732 0.06429642 0.08395898 0.32109848 0.15704657 0.13436148
0.2769864 0.109739244 -0.07944988 -0.10683098 -0.040053032 0.14465463 0.31627172 0.1637497
-0.037663132 -0.08194634 -0.01537055 0.058881417 0.12974422 0.10387187 0.07713744 0.12848926
0.13729994 0.019074759 0.086538754 0.0854467 0.11905578 0.1603684 0.088571 0.113261975
00000000: fb70 b2bd dd32 2fbe ae06 a5bd f047 1bbe
00000010: 2357 1fbe abbd dbbd d388 a1bc f844 e8bd
00000020: b80e 22bd 5039 c2bd 12ad 57bd d66d 293c
00000030: 118c 17be eb73 91bd 9db7 4fbc a853 41be
00000040: 01a7 2fbe 1064 6abd 0d23 07be 0a62 8fbd
00000050: 5666 c93c 32cd 263e e6c8 ba3e 0fde 233e
00000060: fd4a 6cbd 5321 1cbe 8140 bcbe 2703 083e
00000070: 960f 6d3e 4e6c 20bd d779 333e a7dc 043f
00000080: e1bd 383c ed4c 1f3d 5ef6 243e fa6b 58bd
00000090: 2a1c efbd a1ee 91be 17f9 29be 8891 d4bd
000000a0: 890d f6bd 4f03 c0bc c090 ea3d efe0 be3e
000000b0: 5a04 0c3e f890 683d 474c 8b3e 5a43 5f3e
000000c0: f0c8 60bd e193 b1bd 374d 873d 494a ccbd
000000d0: aef8 47be 072c 1dbe 017f 57bd 131b 96bd
000000e0: 248a c0bd 0b1b 923c 1c66 6bbe 1285 72be
000000f0: 395b aa3c d952 41be 999d 7abe 53f8 0cbe
00000100: 85b2 173d 2977 13be db8d 07be 2b22 023e
00000110: fdb3 2ebe e63c 25be a957 b13d c9a3 0ebe
00000120: b319 6c3d 0a71 123e 978f c53d edd4 b33d
00000130: 6b5c 9c3e f3a4 533e 7e18 453c 638d 2b3e
00000140: 37fa 003e 325e ddbd 4d13 403e 0087 a8bd
00000150: 923d 2cbd c3d8 a73d 7409 9fbd 9c24 0b3e
00000160: 2af8 b5be 7027 ea3d 84ee 563c 0345 923d
00000170: dad7 bd3b 23e0 9e3d b124 193e 867f 5e3d
00000180: 372a 813d e6e3 673e ff59 5b3d 69b2 50bd
00000190: 7af2 27be f001 16be 9233 fbbc 1fc2 7fbe
000001a0: 5f19 71be 0d08 193c e31b d53a ea55 1fbd
000001b0: 72e5 96bd f34a e43d 92da 343c edf1 483e
000001c0: 04f8 adbe e98a d13d c8c4 d8bd 27c5 583e
000001d0: 30d4 bebd f076 e6bd 1ea2 5bbb 5480 953d
000001e0: cf31 8bbe e624 a83e a257 4d3c 9f22 acba
000001f0: 0542 453e 9141 0bbe c931 9ebd e4a3 febd
00000200: fd54 cabd fef3 e63d ee70 bb3e 863d 883d
00000210: a5d1 37bd 1832 92be 7e02 23bd 8aa3 a7bd
00000220: c12a 0abe 5816 3dbc 9aaf 34be e444 52be
00000230: 3ca4 b1bd 4e38 acbd d88c 40be 52dd c2bd
00000240: a6a2 a8bd d568 03be 6d82 33bd 8ad5 27bd
00000250: ad7d 943d 9230 143e 7988 9d3b 6365 cd3d
00000260: 6760 333e 1f37 003e 9c4c 333e 9621 6b3d
00000270: 8b36 403e a3cc 263e 4bb0 f43b c362 993d
00000280: 379b d23d 86aa bb3c caab 43bd 9fad f7bd
00000290: fa3f 4b3b e489 513c c69a a0be 9607 acbd
000002a0: c0ba 413c 47a7 1abe 1c84 a23c f80f 163d
000002b0: e929 a8bc 474a b0bc 3689 97bd 7d49 99be
000002c0: 31b3 49be 658d 4c3b 1f3f 65be a96f f7bd
000002d0: d164 043e f815 213e 15a9 abba b68c 3e3e
000002e0: b4af c03e 9154 123c 36d3 f23d e5df 0f3e
000002f0: 727b 39bd 4100 56bd 3f6e 35bd 3823 103e
00000300: 99d1 dbbd e9fe 61be ac6c 953e 6a1f 29bd
00000310: be87 5dbe d222 133e d280 ab3d 19fa 76be
00000320: 5413 b93d d244 76be a640 e13e e2a4 f3bd
00000330: b51a 243e df9e 35be c695 283d 7f42 96bd
00000340: a169 b03c 0a2e 57bd 0a50 733d 8887 eebe
00000350: 6fe6 983e fc7c 81bd 4f74 ad3e 87f5 a4be
00000360: ada8 adbd fac5 5dbd 5866 183e 1a2f fbbc
00000370: a2ff 54be d9b6 8ebe e802 313d ac4a 873e
00000380: 0b2e 163e 3f85 103d d1b7 df3d d7ad 833d
00000390: b0f2 ab3d 0567 a43e d1d0 203e 0e96 093e
000003a0: 29d1 8d3e f8be e03d 9eb6 a2bd 33ca dabd
000003b0: a60e 24bd 5820 143e 5eee a13e 00ae 273e
000003c0: a844 1abd 7cd3 a7bd c2d4 7bbc a42d 713d
000003d0: abdb 043e c6ba d43d 3cfa 9d3d b092 033e
000003e0: 5b98 0c3e ab42 9c3c 3b3b b13d aefe ae3d
000003f0: 84d3 f33d 9d37 243e b664 b53d e5f5 e73d

backbone.2.conv.1.1.weight f4 [48]
0.544997 0.29489025 0.35936844 0.25814304 0.35967636 0.34809765 0.16963512 0.31828934
0.24624515 0.28569672 0.12240727 0.4426762 0.3643185 0.27562687 0.27575442 0.4343405
0.27433428 0.23603402 0.519871 0.46769476 0.26852646 0.23559143 0.42377442 0.42304045
0.38869765 0.29089722 0.31742957 0.14900897 0.27068672 0.3203798 0.52270067 0.19747634
0.30846766 0.20306906 0.24709307 0.36370134 0.18852706 0.31609342 0.37835002 0.2989342
0.42266175 0.23550208 0.34368652 0.36439586 0.34243897 0.26501828 0.3403233 0.25753877
00000000: ec84 0b3f dbfb 963e 24ff b73e 532b 843e
00000010: 8027 b83e db39 b23e d4b4 2d3e d2f6 a23e
00000020: b027 7c3e d746 923e aab0 fa3d 74a6 e23e
00000030: f487 ba3e f71e 8d3e af2f 8d3e e161 de3e
00000040: 8b75 8c3e e7b2 713e 4416 053f b075 ef3e
00000050: 4d7c 893e e13e 713e f6f8 d83e c298 d83e
00000060: 6103 c73e 7bf0 943e 2186 a23e cf95 183e
00000070: 7397 8a3e d208 a43e b6cf 053f 3d37 4a3e
00000080: 79ef 9d3e 56f1 4f3e f705 7d3e 1037 ba3e
00000090: 3d0d 413e ffd6 a13e 18b7 c13e e70d 993e
000000a0: 1f67 d83e 7527 713e aef7 af3e 1892 ba3e
000000b0: 2954 af3e 7ab0 873e db3e ae3e 1fdc 833e

backbone.2.conv.1.1.bias f4 [48]
-0.028240424 0.09236676 0.020987868 0.64767784 0.097919814 0.03258289 0.7194026 -0.46178043
0.20950697 -0.0079436805 0.066062056 0.08869649 -0.025423013 -0.015938241 -0.039758205 0.034388114
0.024491992 -0.0014289579 0.019130014 -0.007366898 0.7055525 0.0032570718 -0.005187258 0.012366978
-0.017170763 0.07538761 -0.0025243338 0.04507005 0.100239664 -0.020142663 0.0089998515 0.022681108
0.02713436 0.6568238 1.0487899 -0.018738003 0.4186279 0.23265913 -0.01312069 0.13344844
0.14630128 0.04287594 0.015613297 0.008299527 0.008559763 0.33007303 0.020999867 -0.010227835
00000000: 7658 e7bc c92a bd3d c0ee ab3c 37ce 253f
00000010: 2f8a c83d a375 053d c52a 383f 7c6e ecbe
00000020: ff88 563e 3626 02bc 8b4b 873d 81a6 b53d
00000030: ec43 d0bc ea90 82bc 80d9 22bd 8dda 0c3d
00000040: 6ea3 c83c df4b bbba 8cb6 9c3c 0566 f1bb
00000050: 179f 343f 9974 553b e0f9 a9bb de9e 4a3c
00000060: b3a9 8cbc d264 9a3d 4b6f 25bb 5f9b 383d
00000070: 744a cd3d 3a02 a5bc 1d74 133c bbcd b93c
00000080: e148 de3c 9b25 283f bf3e 863f 7180 99bc
00000090: 6556 d63e 323e 6e3e 2af8 56bc b5a6 083e
000000a0: 01d0 153e af9e 2f3d eace 7f3c bdfa 073c
000000b0: 403e 0c3c 55ff a83e ea07 ac3c a692 27bc

backbone.2.conv.1.1.running_mean f4 [48]
-0.11625828 -0.07925755 -0.0119169485 0.468411 -0.045306776 0.0017241753 -0.14861901 -0.039887294
0.146059 -0.023874706 0.01666141 -0.13540998 0.004087411 0.022297285 -0.029516172 -0.14092232
0.0064386725 0.23166294 -0.10387529 -0.35489655 0.43077242 -0.021019159 0.010208527 -0.0784972
-0.005367783 0.10934191 0.02922605 0.008323432 0.18572207 0.009789799 -0.16812386 0.05093299
0.07040444 -0.098581485 -0.1702145 0.03330094 -0.12602119 -0.15272123 -0.0025460464 0.19831164
-0.17382386 0.11967295 -0.038465135 0.006610138 0.04425161 0.22660303 -0.24871266 0.019695647
00000000: d218 eebd c851 a2bd 4e3f 43bc 91d3 ef3e
00000010: 9993 39bd b9fd e13a 952f 18be dc60 23bd
00000020: 7e90 153e e394 c3bc 827d 883c eaa8 0abe
00000030: b0ef 853b cca8 b63c e6cb f1bc f14d 10be
00000040: 80fb d23b 0d39 6d3e 91bc d4bd 00b5 b5be
00000050: 348e dc3e 5f30 acbc aa41 273c 24c3 a0bd
00000060: 3ae4 afbb a7ee df3d 786b ef3c 015f 083c
00000070: ed2d 3e3e 6565 203c a928 2cbe 1c9f 503d
00000080: 3430 903d 17e5 c9bd b64c 2ebe 9166 083d
00000090: b30b 01be f462 1cbe 92db 26bb 3512 4b3e
000000a0: e2fe 31be 1717 f53d 9e8d 1dbd db99 d83b
000000b0: 2d41 353d a00a 683e 88ae 7ebe c458 a13c

backbone.2.conv.1.1.running_var f4 [48]
0.02441937 0.01013911 0.003856286 0.018302508 0.014703807 0.0076675443 0.023588413 0.0032752778
0.061208718 0.0012466087 0.0012421099 0.031234838 0.00066464726 0.0013092106 0.0010818247 0.026299115
0.0018923124 0.0077606 0.021756105 0.014561489 0.0077696186 0.0031955894 0.0024863277 0.00053625286
0.002254716 0.04285427 0.003453374 0.0005827915 0.0050149327 0.0002624889 0.019828502 0.0007198353
0.003622416 0.011364253 0.02223842 0.008853198 0.008349646 0.025453787 0.0020104784 0.051826492
0.05558822 0.007144814 0.00652647 0.003161162 0.0039407657 0.030452074 0.017444309 0.0010184731
00000000: 210b c83c 821e 263c beb9 7c3b 24ef 953c
00000010: 3de8 703c 0640 fb3b 7d3c c13c 0ba6 563b
00000020: feb5 7a3d 3f65 a33a 4bce a23a 34e0 ff3c
00000030: b93b 2e3a d199 ab3a 03cc 8d3a 3e71 d73c
00000040: 7807 f83a a24c fe3b dc39 b23c 5093 6e3c
00000050: 4998 fe3b 186d 513b a8f1 223b 5293 0c3a
00000060: dbc3 133b f687 2f3d 0052 623b 7ac6 183a
00000070: 4e54 a43b aa9e 8939 626f a23c 54b3 3c3a
00000080: 0e66 6d3b 2231 3a3c 592d b63c 010d 113c
00000090: f4cc 083c 7684 d03c 3bc2 033b 0448 543d
000000a0: 79b0 633d 0b1f ea3b 00dc d53b 7f2b 4f3b
000000b0: 8a21 813b a176 f93c 5ee7 8e3c 497e 853a

backbone.2.conv.2.weight f4 [8, 48, 1, 1]
0.18383418 0.15357381 0.0069792885 -0.022726966 0.3939944 -0.034460314 0.22148928 -0.2557
-0.21427955 0.022093026 0.06864711 0.22168106 -0.037971545 -0.060742125 0.009494178 0.3171838
-0.17202234 -0.117018245 -0.032033224 0.35742417 0.044513993 0.025983717 0.00029063635 0.002595266
0.08680319 0.039747342 0.22520408 -0.13156578 -0.17091697 -0.016988574 -0.102898136 -0.050564013
-0.030184483 0.29175738 0.19009098 -0.051390994 -0.0011017054 0.13267483 0.08291989 0.021841474
0.28624126 0.0120956255 0.07858299 0.010358205 -0.08496774 -0.1471437 0.11969934 -0.08117709
0.017303813 0.1936179 0.20801303 -0.44638032 0.018371964 0.1624731 0.055122584 -0.15164272
0.090164125 -0.040725406 0.032624375 -0.07582709 -0.10784904 -0.1329483 -0.038904984 0.1210595
-0.08566644 0.11556379 -0.18901971 0.06783763 0.014644932 0.011677523 0.06382075 -0.028804403
-0.09280525 0.10181991 0.11614253 0.017291315 0.16064587 -0.06158196 0.08999495 -0.1378506
-0.1415063 -0.009789328 -0.22455208 0.028349211 0.31902272 -0.3028836 0.02154642 -0.2261105
-0.11553254 0.05761303 0.018159434 -0.12808874 -0.01013837 -0.25758618 -0.03617636 -0.19419028
0.19033933 -0.019706035 -0.16732217 -0.20459674 0.24674538 -0.38363823 -0.17261077 0.06286997
0.010106128 0.15695384 -0.011973296 -0.28284693 0.2754482 -0.17141514 -0.06657877 -0.05985507
0.06077842 -0.020031068 0.08557057 -0.032000046 0.16009578 0.080356844 0.31333378 0.2682093
-0.097828515 -0.13472593 -0.24674894 0.043733303 0.18714784 0.25313854 0.11504692 0.06049608
-0.16973796 0.17109205 0.105158344 -0.12857604 -0.12687123 0.14679988 0.3063264 -0.17120989
0.12425805 -0.20560585 0.22086528 -0.16360855 -0.16610911 0.17120908 -0.07580691 0.10808073
-0.089415945 0.18501633 0.13977858 0.283132 -0.21412055 0.08037624 -0.08746417 -0.05728406
-0.08417489 0.06972752 0.16323511 -0.20360392 -0.08327771 0.03852576 0.15861514 0.039542824
0.00194224 0.020861227 0.10101677 -0.24927281 -0.07827696 0.13200808 0.1251845 0.100259654
0.10602319 -0.10920762 0.11283233 0.078546315 -0.13733289 -0.096011564 0.1783977 0.07998713
-0.14759956 -0.16640787 0.21663675 -0.066507086 0.046279278 0.1945787 0.07259495 -0.0707897
-0.098539054 0.27389914 0.25965297 -0.014059272 -0.13047987 0.020128833 -0.22697757 0.10945806
-0.010077441 -0.11345604 0.04406645 0.07285332 0.041958373 0.06880643 -0.14341684 -0.045777313
-0.03231075 -0.031294603 0.06415266 0.15339036 0.07412901 -0.088701926 0.04459315 -0.3030506
-0.041021775 -0.094363354 0.055507522 -0.1851826 -0.17977528 0.120750695 0.019026453 0.065543
0.34690347 -0.09018348 0.13331877 -0.04240923 -0.10699776 -0.061147287 -0.21910992 -0.04873241
0.1370036 -0.049270336 0.13255708 0.10006044 0.0682705 0.06712653 0.004921635 -0.040675778
-0.07419008 -0.037153445 -0.05377494 0.09833434 0.086650304 0.25855225 -0.35742366 -0.16388965
0.08807899 -0.09514736 0.16344972 0.0033860784 0.13942873 0.11367915 0.17067842 -0.184734
-0.28096145 0.10764375 -0.014955007 -0.2537603 0.24159834 0.00797469 -0.03426541 -0.06928636
00000000: 073f 3c3e 7442 1d3e 84b2 e43b e72d babc
00000010: a2b9 c93e 4226 0dbd 16ce 623e 1ceb 82be
00000020: 196c 5bbe 6ffc b43c db96 8c3d 5c00 633e
00000030: 0d88 1bbd bccc 78bd 788d 1b3c ea65 a23e
00000040: a026 30be 43a7 efbd 4535 03bd 4d00 b73e
00000050: 4e54 363d cedb d43c 8d60 9839 5715 2a3b
00000060: dfc5 b13d 1cce 223d e69b 663e 2eb9 06be
00000070: dc04 2fbe 9f2b 8bbc 42bc d2bd 361c 4fbd
00000080: 7345 f7bc 3961 953e 36a7 423e 5d7f 52bd
00000090: 1967 90ba e9db 073e e7d1 a93d e4ec b23c
000000a0: 378e 923e bb2c 463c 1ef0 a03d 76b5 293c
000000b0: 9103 aebd d7ac 16be ed24 f53d 2d40 a6bd
000000c0: bac0 8d3c c543 463e 5e01 553e f68b e4be
000000d0: cd80 963c 595f 263e 38c8 613d 3b48 1bbe
000000e0: f8a7 b83d afcf 26bd 23a1 053d 3c4b 9bbd
000000f0: f5df dcbd 9923 08be d55a 1fbd 0bee f73d
00000100: e371 afbd b5ac ec3d 628e 41be 75ee 8a3d
00000110: 4cf1 6f3c 1553 3f3c 74b4 823d 36f7 ebbc
00000120: ae10 bebd f586 d03d 23dc ed3d 84a6 8d3c
00000130: 5a80 243e 5e3d 7cbd 464f b83d b528 0dbe
00000140: 07e7 10be 6b63 20bc fbf0 65be 9b3c e83c
00000150: f256 a33e 8f13 9bbe 1e82 b03c 8389 67be
00000160: 539c ecbd a4fb 6b3d 18c3 943c b229 03be
00000170: 681b 26bc 56e2 83be aa2d 14bd d1d9 46be
00000180: 50e8 423e 8d6e a1bc 8156 2bbe cf81 51be
00000190: d2aa 7c3e 3b6c c4be e1c0 30be f9c1 803d
000001a0: 2c94 253c 82b8 203e a52b 44bc 50d1 90be
000001b0: 8c07 8d3e 7387 2fbe 735a 88bd 972a 75bd
000001c0: cbf2 783d 3218 a4bc 9f3f af3d 7b12 03bd
000001d0: 26f0 233e 2192 a43d 496d a03e bb52 893e
000001e0: 515a c8bd 98f5 09be c1ab 7cbe b121 333d
000001f0: afa3 3f3e 609b 813e b89d eb3d bdca 773d
00000200: cacf 2dbe c132 2f3e 425d d73d 70a9 03be
00000210: 88ea 01be b552 163e d0d6 9c3e a551 2fbe
00000220: 017b fe3d 578a 52be 822a 623e 0089 27be
00000230: 8218 2abe 6f51 2f3e a740 9bbd 6e59 dd3d
00000240: b51f b7bd ec74 3d3e 1e22 0f3e adf6 903e
00000250: 6b42 5bbe 4c9c a43d 6a20 b3bd b1a2 6abd
00000260: e263 acbd 4dcd 8e3d 1b27 273e 8c7d 50be
00000270: 818d aabd 30cd 1d3d 026c 223e a8f7 213d
00000280: c392 fe3a 2ae5 aa3c e1e1 ce3d 5f41 7fbe
00000290: ac4f a0bd 202d 073e 5e30 003e ef54 cd3d
000002a0: b022 d93d 3fa8 dfbd a314 e73d e4dc a03d
000002b0: fea0 0cbe b6a1 c4bd e3ad 363e 4bd0 a33d
000002c0: 5724 17be d366 2abe 06d6 5d3e de34 88bd
000002d0: 578f 3d3d a43f 473e a9ac 943d 31fa 90bd
000002e0: d8ce c9bd 823c 8c3e 3cf1 843e dc58 66bc
000002f0: 849c 05be 39e5 a43c cf6c 68be 8c2b e03d
00000300: da1b 25bc a45b e8bd 067f 343d 1f34 953d
00000310: 8bdc 2b3d 63ea 8c3d dddb 12be fe80 3bbd
00000320: 4758 04bd c52e 00bd 7862 833d 5d12 1d3e
00000330: f3d0 973d 5ba9 b5bd 4fa7 363d 7329 9bbe
00000340: 7306 28bd 9341 c1bd db5b 633d 82a0 3dbe
00000350: 0317 38be 244c f73d 5ddd 9b3c 693b 863d
00000360: 559d b13e 1eb2 b8bd b784 083e 4db5 2dbd
00000370: a421 dbbd 9475 7abd 5a5e 60be a39b 47bd
00000380: ac4a 0c3e b1cf 49bd 0bbd 073e 7dec cc3d
00000390: 67d1 8b3d a279 893d ab45 a13b a59b 26bd
000003a0: f8f0 97bd 362e 18bd 1d43 5cbd 8463 c93d
000003b0: b775 b13d f660 843e 3c00 b7be b0d2 27be
000003c0: c262 b43d 9edc c2bd 5d5f 273e f8e8 5d3b
000003d0: 68c6 0e3e 9dd0 e83d 53c6 2e3e e92a 3dbe
000003e0: 2eda 8fbe 5474 dc3d d805 75bc dfec 81be
000003f0: 8e65 773e 46a8 023c e359 0cbd 02e6 8dbd

backbone.2.conv.3.weight f4 [8]
0.5455661 0.428471 0.46113876 0.41236466 0.3611008 0.5525365 0.3349667 0.6083658
00000000: 38aa 0b3f 8d60 db3e 611a ec3e 7621 d33e
00000010: 34e2 b83e 0873 0d3f c180 ab3e dcbd 1b3f

backbone.2.conv.3.bias f4 [8]
-2.04672e-05 -8.770829e-05 4.194684e-05 0.00017926998 -5.5979195e-05 5.9005695e-05 -0.00017658088 2.2071432e-05
00000000: fab0 abb7 08f0 b7b8 14f0 2f38 6bfa 3b39
00000010: 34cb 6ab8 e27c 7738 9228 39b9 0a26 b937

backbone.2.conv.3.running_mean f4 [8]
0.8419563 -0.50632626 0.16263558 0.25481945 -0.06312517 0.56348443 -0.14091253 0.055389058
00000000: 738a 573f 999e 01bf f189 263e b277 823e
00000010: c547 81bd 8440 103f 604b 10be a3df 623d

backbone.2.conv.3.running_var f4 [8]
0.08500505 0.052453548 0.08595292 0.023561696 0.03972252 0.07609856 0.04060725 0.09735071
00000000: 2117 ae3d 88d9 563d 1608 b03d 7504 c13c
00000010: 15b4 223d 90d9 9b3d ca53 263d cf5f c73d
