ML Model/tv_detection_epoch_70/tv_detection_epoch_70.onnx (onnx, 461915 bytes, 205 tensors)

backbone.0.0.weight f4 [16, 3, 3, 3]
000000 d6 cf 32 80 2e 19 86 81 fa 75 12 80 8e cb 48 80
       -4.666332e-39 -4.9259957e-38 -1.695361e-39 -6.685177e-39
000010 a7 e8 06 00 3c 2f 34 01 b4 1b 5a 81 eb 1b 0b 00
       6.34473e-40 3.3094668e-38 -4.0060152e-38 1.020206e-39
000020 de a8 0d 80 c4 93 61 01 5c 83 10 00 18 84 0e 80
       -1.25444e-39 4.143199e-38 1.516491e-39 -1.333083e-39
000030 dd d1 41 00 bf 13 21 00 70 ff 8b 81 4c e9 50 01
       6.044592e-39 3.037655e-39 -5.142707e-38 3.837095e-38
000040 0b 9b 4a 00 21 30 8d 81 20 40 29 80 13 0c 31 80
       6.851446e-39 -5.186428e-38 -3.788259e-39 -4.504271e-39
000050 4c 59 05 01 18 3f 38 00 a2 cb 09 00 72 dd 04 80
       2.449231e-38 5.165422e-39 8.99569e-40 -4.46782e-40
000060 c5 d7 3e 00 c7 73 16 00 22 eb 0f 80 bc 5a 56 ba
       5.771204e-39 2.061914e-39 -1.461882e-39 -0.00081769726
000070 c5 b1 6e bc fa 6c 29 bd eb a8 07 3e ab 3a af 3e
       -0.014568751 -0.041363694 0.13248031 0.34224448
000080 57 c3 a1 3b f7 9e 53 be 9d c9 7b be 15 30 33 bd
       0.0049366164 -0.20666109 -0.24588628 -0.043747026
000090 38 8f af bb ae 62 9c 3c f8 ac a0 bd af 8f 92 3e
       -0.005357649 0.019090023 -0.07845491 0.28625247
0000a0 b3 d2 3a 3f 02 36 7c 3d bc 8d a9 be 8b e1 0c bf
       0.7297775 0.061574943 -0.33115947 -0.5503165
0000b0 69 b0 a8 bd fe 9f 3b 3e 15 c3 01 3e c3 2b b9 3d
       -0.082367726 0.18322751 0.12672074 0.0904155
0000c0 a5 50 15 3e 7a 5e 85 3e 16 62 44 3d 4e b6 be bd
       0.14581545 0.26048642 0.047945105 -0.093121156
0000d0 0d 41 03 be f3 0e e7 bb 56 fa cb bd f5 52 af 3d
       -0.12817784 -0.0070513426 -0.09959857 0.08560745
0000e0 26 ee af bc 34 77 e0 be 49 5f 35 3f 92 cd 9c be
       -0.021475863 -0.43840945 0.7084852 -0.30625588
0000f0 d8 28 2f bf 6c 3f 65 3f d5 e5 98 be 93 a5 fe bd
       -0.684217 0.895499 -0.29862848 -0.124339245
000100 31 c3 2f 3e 3c 36 65 bd d0 5e 5b bf 78 fe a5 3f
       0.17164303 -0.055959925 -0.8569155 1.2968283
000110 27 0d 07 bf 93 3b 89 bf 39 24 b8 3f a4 3f f3 be
       -0.52754444 -1.0721306 1.4386054 -0.4750949
000120 d0 5d 02 3b 59 16 01 3d ab 8a cb 3d bc 55 53 be
       0.0019892342 0.031515453 0.09938558 -0.20638174
000130 dc 98 d4 3e 70 13 c2 bd 36 06 89 be 6d 1f f1 3e
       0.41522872 -0.09476364 -0.2676255 0.47094288
000140 04 08 cf bd d4 e5 d5 bb 3b e6 be bb 24 43 bd 3d
       -0.10108951 -0.006527642 -0.0058257855 0.09241322
000150 f3 aa 89 3d a7 73 54 3e 9a 35 84 be 11 60 43 3d
       0.06722059 0.20747243 -0.25822145 0.047699038
000160 77 8c a9 3e e4 30 92 be 4d 80 16 3b 34 44 1a bd
       0.3311498 -0.28552926 0.0022964657 -0.0376627
000170 0b 33 91 3d 44 3f 4f 3d 5f df 00 3f ee f1 1d bf
       0.07089814 0.050597444 0.5034084 -0.6169728
000180 31 ff 87 3d 63 33 27 3f 27 34 2e bf 6d 5f 26 3d
       0.06640471 0.65312785 -0.6804833 0.04061835
000190 ae ac 6c 3b a1 86 45 bd 82 da c1 3d 16 7b b4 3d
       0.0036113667 -0.048224095 0.09465505 0.08812539
0001a0 95 e5 0f be ea ce 67 3d 29 2e d9 3d f6 9c 37 be
       -0.14052422 0.056593813 0.106045075 -0.1793097
0001b0 3b 1c bf bd 7a 58 9f bc 09 fb 84 bd 0b 2a 85 3d
       -0.093315564 -0.019451369 -0.06493194 0.0650216
0001c0 25 8e 04 3c 00 39 04 be 81 70 19 3e 76 a7 c3 3d
       0.0080905305 -0.12912369 0.14984323 0.09553425
0001d0 28 1e 23 be 3c 41 13 3d 06 f7 f0 3b a0 c5 4d bd
       -0.15929472 0.035950884 0.0073536662 -0.050237298
0001e0 51 35 f9 3d b0 b1 14 be 37 28 a0 be 30 c0 58 3e
       0.121683724 -0.14520907 -0.31280681 0.21167064
0001f0 f3 dc 89 bd 61 f5 cd be ce c2 2b 3d 0c 76 22 bd
       -0.06731596 -0.40226272 0.041933827 -0.03966336
000200 57 54 2a be 54 2a 77 3b 3a f1 25 be 02 90 a5 be
       -0.16633736 0.0037714439 -0.16205302 -0.32336432
000210 91 22 b9 bc 0a 38 86 bd ed d8 31 be 10 40 23 3e
       -0.02259949 -0.06553657 -0.17367907 0.15942407
000220 43 d5 27 3e ea 34 3b be a5 9e d0 3d c7 68 17 3f
       0.16389947 -0.18281904 0.10186509 0.5914425
000230 1f 3d 7b 3e d1 c8 4e be 36 2a 0a 3f 19 1b 1c 3f
       0.24535035 -0.20193793 0.5397066 0.6097885
000240 a7 26 fc 3d 74 e7 8e bc 88 84 f0 3d 77 84 86 3d
       0.1231206 -0.01744435 0.11744028 0.065682344
000250 2e 51 22 be 49 c8 68 bd 9a b1 27 3d dc ac 0d be
       -0.1585128 -0.05683163 0.04094086 -0.13835472
000260 d7 bb b7 bd e5 0e 5e be 8a 99 12 be 32 8e 0e 3e
       -0.089713745 -0.2168537 -0.14316383 0.1392143
000270 ac 8b f9 bd f3 99 02 bf 65 35 86 be 6c 74 78 3d
       -0.121848434 -0.5101616 -0.26212612 0.060657904
000280 2f fc ff be 5f dd 1a bf 94 97 21 bc b9 76 d4 bc
       -0.49997088 -0.60494035 -0.009862799 -0.025935518
000290 b1 5c 02 3b a1 a6 e8 3e 79 97 db bd b7 bb 0c be
       0.0019891674 0.45439628 -0.107222505 -0.13743483
0002a0 8a 0c 1a 3e 76 45 6d bd 9d c1 ec 3b c5 d1 4d bd
       0.15043846 -0.05792757 0.007225229 -0.05024888
0002b0 3e e7 c9 bc 31 f9 19 3d 2c 6d 67 3f c2 75 47 be
       -0.024646398 0.037591163 0.9040096 -0.19478515
0002c0 b4 ca a2 be 45 67 98 3e 78 18 14 be c2 b1 e0 3a
       -0.31795275 0.29766288 -0.14462459 0.001714282
0002d0 e6 99 27 3c 46 4c be bc 75 46 01 39 ad 25 81 3e
       0.010229563 -0.02322973 0.00012328646 0.25224057
0002e0 35 5c 19 bd ce 67 79 bd 70 d1 c0 3c 69 29 97 bd
       -0.03744145 -0.06089001 0.023537368 -0.07380945
0002f0 2b 4f ae bc f6 67 23 3d 48 a7 e9 3c 3e 45 70 bd
       -0.021277985 0.039894067 0.028522149 -0.058659784
000300 20 13 a0 bc 40 f6 1b 3e 6c 16 89 3e 2c 0b 0e bd
       -0.01954037 0.15230656 0.2677492 -0.034678623
000310 c1 92 b0 3d 11 88 a2 3e a3 f4 6a bd 63 97 3d be
       0.08621741 0.31744435 -0.05736221 -0.1851478
000320 0e 0c 52 be d0 90 08 bd b5 5a ef 3d fe 96 8f 3e
       -0.20512411 -0.03334123 0.11687223 0.28044885
000330 e0 42 0b bd 37 f3 f2 3d 56 b2 9e 3e 7a 30 42 b7
       -0.033999324 0.11862796 0.30995435 -1.1574588e-05
000340 5b 6d 05 3d 82 79 d8 3d 6d 6f 1b 3d 19 0a 2c 3e
       0.032574993 0.10570051 0.03794806 0.16800727
000350 b3 18 ac 3e d1 f6 85 3d ca 0a 0d 3e b9 50 82 3e
       0.33612594 0.06541217 0.13773647 0.25452211
000360 5e e2 1d 3d fd fe 1f 3d 89 6a 0a be 99 f3 41 be
       0.03854596 0.039061535 -0.13517202 -0.18940581
000370 e3 3b 2b 3f af 46 04 bf 9b b3 6b 3c 4d 5f 36 3f
       0.66888255 -0.51670355 0.014386083 0.7123917
000380 ee 1a 2f bf 48 db 12 bd 8a b5 2a 3e da 22 58 be
       -0.68400466 -0.035853654 0.16670814 -0.21107045
000390 28 d3 03 be 5c 57 88 3f d8 81 6a bf 9b f1 37 3c
       -0.12873518 1.065166 -0.91604376 0.011227037
0003a0 1a 8d 84 3f 27 f0 79 bf 88 65 78 3d 7f 7f ad b9
       1.0355561 -0.9763207 0.060643703 -0.00033092123
0003b0 32 b5 f4 bb 1b 96 df bd 6c 98 cc 3e 01 ea aa be
       -0.007467889 -0.10917302 0.3996004 -0.33381656
0003c0 e4 b6 38 3c 7d 80 ce 3e 7c 65 c9 be 2c 81 36 80
       0.011274073 0.40332404 -0.3933524 -5.005455e-39
0003d0 ca d6 2f 00 26 0a 1c 80 5f 98 44 80 9d 53 22 80
       4.39332e-39 -2.575034e-39 -6.299474e-39 -3.152402e-39
0003e0 83 1d 30 80 95 fc 27 00 9f d1 14 80 ad 1b 11 00
       -4.41869e-39 3.672194e-39 -1.911908e-39 1.571132e-39
0003f0 16 70 22 00 68 8a 2c 80 6e c7 0c 00 e7 ed 10 00
       3.162616e-39 -4.090413e-39 1.173568e-39 1.554711e-39

backbone.0.1.bias f4 [16]
000000 a9 28 15 80 1a e1 15 3f 9b 9d cf 3e 2b b9 7d 3e
       -1.943132e-39 0.585466 0.4054993 0.24777667
000010 82 4d 5d 3f b1 d1 09 3f 0b e1 0b 3f 5f 12 02 3f
       0.8644639 0.5383559 0.54640263 0.5080928
000020 4c b7 12 3f 5c d1 01 80 92 11 52 be 9f 3a 6c 3f
       0.5731094 -1.6694e-40 -0.20514515 0.9227695
000030 31 2b ef 3e 95 6a aa be 86 50 01 00 f3 9e 09 80
       0.4671264 -0.3328444 1.20722e-40 -8.8354e-40

backbone.0.1.running_mean f4 [16]
000000 08 79 a8 84 99 b6 80 42 12 6e 0d 41 84 4c a2 41
       -3.960776e-36 64.356636 8.839373 20.287361
000010 b8 48 2a c3 5c ce 74 c2 7f f4 9e 42 69 26 5f 43
       -170.28406 -61.201523 79.47753 223.15004
000020 fe 68 21 3f 8c 28 52 84 c1 33 88 c1 cd 3b 1f 43
       0.6305083 -2.4704e-36 -17.02527 159.2336
000030 f3 69 be 42 94 4c 80 42 e2 25 9a 05 fc cc a0 84
       95.20693 64.14957 1.4496006e-35 -3.7804068e-36

backbone.0.1.running_var f4 [16]
000000 04 00 00 00 7b 9b 48 45 e0 69 06 46 ad 38 f3 44
       6e-45 3209.7175 8602.469 1945.7711
000010 d1 c7 48 46 d2 eb 13 46 53 13 a1 45 74 1a ab 46
       12849.954 9466.955 5154.4155 21901.227
000020 9a 37 b5 45 04 00 00 00 0f 29 32 45 0e 4e 28 46
       5798.95 6e-45 2850.5662 10771.514
000030 75 7f af 45 60 e3 6f 45 04 00 00 00 04 00 00 00
       5615.932 3838.211 6e-45 6e-45

backbone.0.1.weight f4 [16]
000000 d4 7b 1d 00 67 1e 0f 3e d4 e4 ff 3d 82 cf 8c 3e
       2.70765e-39 0.13976441 0.124948174 0.27502066
000010 e6 e3 4b 3e ef 0c 7a 3e 5b 67 1b 3d 0f bd 95 3e
       0.19911155 0.24418996 0.037940364 0.29245803
000020 4c de c3 3d 6c 91 10 80 d6 c4 e5 3e b5 c1 f6 3d
       0.09563884 -1.521535e-39 0.44876736 0.120486654
000030 39 b8 33 3e 3c c6 a9 3e 0f 08 35 00 25 bd 3c 80
       0.17550744 0.33159053 4.870172e-39 -5.577982e-39

backbone.1.conv.0.0.weight f4 [16, 1, 3, 3]
000000 c4 6b 32 01 0f 0c a7 81 8c 1c 42 81 35 58 18 80
       3.2770755e-38 -6.1363415e-38 -3.5652654e-38 -2.235695e-39
000010 e4 02 48 00 8c a4 2e 80 5d 09 8c 01 b8 f8 36 80
       6.613193e-39 -4.283461e-39 5.1441313e-38 -5.04834e-39
000020 88 a4 0e 01 2f 53 c2 3a 89 2b 5b bd b7 1e f4 3c
       2.6199326e-38 0.0014825816 -0.053508315 0.029799802
000030 81 1d 78 ba fe eb f4 bd 90 59 43 3f c4 13 af 3c
       -0.00094648456 -0.119590744 0.76308537 0.02137173
000040 fc 65 45 3d e4 24 4c bf 69 d6 8b 3b 7a 4d 8f bd
       0.048192963 -0.7974379 0.004267503 -0.06997199
000050 77 db 21 be 17 a2 2c bc 13 73 80 3d e6 3b 89 3f
       -0.15806375 -0.010536692 0.06271949 1.0721405
000060 b9 f1 1b 3c 81 92 3a bd cd 6a 8b bd 0b f5 11 bd
       0.00951808 -0.045549873 -0.0680748 -0.03563408
000070 63 70 63 bc 8d 66 cb bd 10 96 6a 3d 93 c5 46 3f
       -0.013881776 -0.099316694 0.057272017 0.77645224
000080 a7 98 ae be 1a a7 c3 bc e2 bf 8a bc a2 7e 22 be
       -0.3410084 -0.023883391 -0.0169372 -0.15868619
000090 6c f8 15 3f 68 bc f8 3f f3 72 e3 3e fc b6 67 3e
       0.58582187 1.9432497 0.44423637 0.22628397
0000a0 84 76 e4 3e 5a b3 3c 3e b3 78 58 bf dd 65 08 c0
       0.4462167 0.18427792 -0.8455917 -2.1312172
0000b0 28 4d 3c bf cc 82 4a be 24 de 8b 3d e5 23 22 be
       -0.7355523 -0.19776458 0.06829479 -0.15834005
0000c0 72 87 09 3e bc 9a ce 3e 80 fb d0 bf db 41 a9 3d
       0.13430575 0.40352428 -1.6326752 0.08264514
0000d0 cc 61 ac 3f dd 04 d3 3e ce d2 aa 3b b7 4f 36 3d
       1.3467345 0.41214648 0.005213118 0.044509616
0000e0 13 b6 c3 bd 73 f1 9a 3d 85 42 fe 3c 74 d2 4e bf
       -0.09556212 0.07565584 0.031037578 -0.80789876
0000f0 5e f7 84 3d 32 e2 02 bd c7 58 7d 3f ac f3 fa be
       0.06492494 -0.031953998 0.9896359 -0.49014032
000100 63 df 80 be d1 8f 43 3f 4d 54 17 c0 44 c8 a1 be
       -0.2517043 0.7639132 -2.3645203 -0.31598103
000110 19 ee 29 40 e5 2b f2 be 93 68 2c be 15 4d 24 3f
       2.6551573 -0.47299114 -0.16836767 0.6418012
000120 95 fc 18 bd 70 32 e1 3d b4 d3 e0 bc f6 55 ec 3c
       -0.037350256 0.10995948 -0.027444698 0.028849583
000130 bb 03 79 bf eb c9 4f 3e a4 2b 43 3c 65 dc 64 bd
       -0.9727132 0.2029187 0.01191226 -0.055874247
000140 ee 8a 9a bd bb 04 38 80 16 cd 45 80 75 90 46 80
       -0.0754603 -5.144485e-39 -6.41022e-39 -6.480306e-39
000150 55 62 0c 00 17 eb 10 00 5b d0 3f 00 01 d3 47 80
       1.137301e-39 1.553702e-39 5.86038e-39 -6.596014e-39
000160 fe 98 42 00 b3 5e 17 80 7c df 80 3d 82 49 2b be
       6.116026e-39 -2.146188e-39 0.06292626 -0.1672726
000170 d3 ed f6 be ee 9e 11 be 7f ba 12 3e ce ed a3 3e
       -0.4822832 -0.14220783 0.14328955 0.32017368
000180 30 8b 86 be 96 ad b4 3e f8 e5 f3 3e e4 24 24 3e
       -0.26278067 0.35288686 0.4763639 0.16029698
000190 7a df c8 3f 13 08 81 3f 6d a1 7e 3d f6 3c 02 3d
       1.56932 1.0080589 0.062165666 0.031796418
0001a0 86 57 ef bd d2 d9 aa be f4 30 d1 bf 82 bf 79 bf
       -0.11686616 -0.3336931 -1.6343064 -0.9755784
0001b0 c4 68 55 bd c0 08 8d 3d 57 42 94 3c 28 b6 b4 bc
       -0.052101865 0.068864346 0.01809804 -0.022059515
0001c0 4e 5e c9 3c 50 e6 1a bf 87 2f 07 bd f7 c6 b4 3d
       0.0245811 -0.6050768 -0.03300431 0.08827012
0001d0 fe fb 64 3f 65 ec fe bb 47 ae 3f 3d ed c9 0b be
       0.8944701 -0.0077796453 0.046797063 -0.13651247
0001e0 e6 34 73 3d b3 28 ed 3d 0a 78 c2 bd fa d0 ce bd
       0.05937662 0.115800284 -0.09495552 -0.10098453
0001f0 e4 d1 da bc ff c2 2f 3f 16 4d 23 80 30 a3 2b 80
       -0.026711412 0.68656915 -3.241896e-39 -4.007467e-39
000200 c4 cf 1c 00 44 da 2e 00 9f 6f 3b 00 1a 7e 4c 80
       2.645926e-39 4.302732e-39 5.458336e-39 -7.024734e-39
000210 3d 43 28 80 62 a8 23 80 36 b5 1b 80 63 9b 06 80
       -3.69754e-39 -3.274647e-39 -2.544565e-39 -6.06755e-40
000220 89 76 3f 00 94 65 71 01 03 ec 3d 80 02 ed 44 80
       5.828159e-39 4.4337588e-38 -5.68663e-39 -6.329836e-39
000230 f5 0d 92 81 ed d3 3a 00 56 e5 40 80 6e 0e 3b 80
       -5.3651957e-38 5.402483e-39 -5.959742e-39 -5.42347e-39

backbone.1.conv.0.1.bias f4 [16]
000000 78 6c 2d 81 73 bb 31 3f 23 dc a8 3f a9 66 a9 3e
       -3.1852904e-38 0.6942665 1.319218 0.33086136
000010 e0 15 44 3e 4c cf 7b 3f 05 dc 2c 3f 2c 8e da 3e
       0.1914897 0.98363185 0.67523223 0.42686594
000020 8e 6d cf 3e 81 a1 20 86 e2 da 93 3e e4 9b 57 3d
       0.4051327 -3.021131e-35 0.28877932 0.052638903
000030 67 ba 82 3f 54 02 91 be 5c 56 04 80 00 cc 00 80
       1.0213135 -0.2832209 -3.98322e-40 -7.3181e-41

backbone.1.conv.0.1.running_mean f4 [16]
000000 04 00 00 00 40 31 79 bd 63 98 a0 3e 9e 2b 24 3d
       6e-45 -0.060837984 0.31366262 0.04008066
000010 66 9e e4 3d dd be 82 3e 70 9b 14 3e 34 25 02 bc
       0.111630246 0.25536242 0.1451242 -0.00794344
000020 4c bb ef be 02 00 00 00 35 90 b3 3c 05 af 53 be
       -0.46822584 3e-45 0.02191935 -0.20672233
000030 d7 9d 2f 3e 35 ed aa 3c 04 00 00 80 04 00 00 80
       0.17150055 0.020865062 -6e-45 -6e-45

backbone.1.conv.0.1.running_var f4 [16]
000000 04 00 00 00 27 6f 40 3c 62 1d 23 3c 0a e4 0b 3d
       6e-45 0.011745251 0.009955736 0.034153022
000010 b3 68 75 3e 78 49 77 3d 3c 58 44 3b 2f bd ce 3e
       0.23965721 0.0603728 0.0029959818 0.4037871
000020 42 43 05 3c 04 00 00 00 d7 08 3d 3c 1a 17 11 3e
       0.008133711 6e-45 0.011537752 0.14168969
000030 fd fa 88 3c bf ea 68 3b 04 00 00 00 04 00 00 00
       0.016721243 0.003554031 6e-45 6e-45

backbone.1.conv.0.1.weight f4 [16]
000000 e0 8d 19 80 b5 00 12 3f ab 09 34 3f 4e 2d 0c 3f
       -2.346783e-39 0.5703233 0.7032725 0.5475663
000010 6e 0b 91 3f b2 ca f7 3e 93 63 00 3f 9c b7 64 3f
       1.1331613 0.48396832 0.5015194 0.89342666
000020 09 52 fc 3e 4a df 13 00 4b f7 81 3e 8d 72 84 3f
       0.49281338 1.824975e-39 0.25383982 1.0347458
000030 0c 94 31 3f a3 a7 92 3e 24 80 07 80 63 57 31 80
       0.69366527 0.28643522 -6.88817e-40 -4.531288e-39

backbone.1.conv.1.weight f4 [8, 16, 1, 1]
000000 b0 82 0b 00 82 71 00 be 0d 9a 22 bc c5 0f 42 3e
       1.057072e-39 -0.125433 -0.009924424 0.18951328
000010 51 4c e1 bd 33 e9 25 3f c8 1c 5f 3e 54 af 84 bd
       -0.11000884 0.6480896 0.21788323 -0.06478754
000020 f4 fc da bd 0d e9 12 80 54 38 df 3d 8c 7f 89 3e
       -0.10692778 -1.736642e-39 0.108994156 0.26855123
000030 3b 83 d1 3d b3 53 f6 3c 76 85 01 80 a2 1f 09 00
       0.10230108 0.030069208 -1.39712e-40 8.37867e-40
000040 f6 2c 41 00 91 bb f5 bd cc 08 03 bf 71 9c 50 3c
       5.985436e-39 -0.11998666 -0.511853 0.012732611
000050 81 8d d1 3d 53 0e 96 bd b3 a8 06 3d a7 d6 da bb
       0.10232068 -0.07326951 0.032875728 -0.0066784206
000060 63 c8 c3 3c 03 cf 38 00 67 aa f8 bc 85 12 6e b8
       0.023899263 5.21705e-39 -0.030354692 -5.676087e-05
000070 23 89 70 be 49 f1 8b 3e 2e d0 03 80 81 76 29 80
       -0.23489814 0.27332523 -3.50187e-40 -3.807767e-39
000080 7a f8 13 00 02 36 c7 3e ba be 06 3e 31 30 e0 3e
       1.834011e-39 0.38908392 0.13158694 0.43786767
000090 f7 56 5e be f8 5a 43 be 5a 87 86 be 0d 91 04 3e
       -0.21712862 -0.1907767 -0.2627514 0.12945957
0000a0 07 47 85 be bb c0 28 80 49 23 03 be 13 bc cf 3e
       -0.26030752 -3.742559e-39 -0.12806429 0.40573177
0000b0 18 52 b3 3c 01 ba c7 bc 58 20 08 00 43 94 0c 00
       0.021889731 -0.024380686 7.46287e-40 1.155212e-39
0000c0 84 bc 18 80 d6 de 12 be b1 83 2e be d2 be ea bc
       -2.271679e-39 -0.14342818 -0.17042424 -0.028655443
0000d0 8a 71 02 3f 6c 87 c1 be d4 a0 a8 3d 69 a2 97 bc
       0.50954497 -0.3779863 0.082338005 -0.01851006
0000e0 6e 82 59 be f1 25 3d 00 fb a3 29 3e 80 5f b9 be
       -0.21241161 5.615576e-39 0.1656646 -0.36205673
0000f0 d2 98 b9 3e 23 b7 ba 3e 93 3e 38 00 96 ae 3b 80
       0.36249405 0.36467847 5.165235e-39 -5.480924e-39
000100 f5 e6 1b 80 0a af b3 be ed ac 95 3e 22 a3 fa bc
       -2.56241e-39 -0.35094482 0.29233494 -0.030595366
000110 33 9d 32 3e b3 be 1e bf 06 4e b2 3d 48 0c 8d be
       0.17442779 -0.62009734 0.08706288 -0.27548432
000120 71 2b b9 3d 2c ff 43 00 eb 57 21 3e 9e b0 d3 bd
       0.09041489 6.244517e-39 0.15756194 -0.103364214
000130 3f cf 48 be a5 bb 0f bc 1d c1 1e 00 ce 9b 2f 80
       -0.19610308 -0.008772765 2.824341e-39 -4.37216e-39
000140 68 8f c4 00 58 e7 0f be 73 38 2d 3c 45 4e f5 be
       1.8051202e-38 -0.14053094 0.010572541 -0.47911277
000150 2e 1a 9c be 94 fd 1f be 31 e4 42 3e 7c e0 14 3f
       -0.30488724 -0.15624076 0.1903236 0.58155036
000160 1c 35 c1 3e 5d 1f 4c 00 86 3a d1 3d 8f 14 e3 3e
       0.37735832 6.990749e-39 0.102162406 0.44351622
000170 d5 bc 87 3a 16 3a 82 3c aa ad 29 80 2c 37 28 00
       0.0010355959 0.015896838 -3.827554e-39 3.693212e-39
000180 c6 7b 92 81 7d 55 e9 3e f9 ff c9 bd 5d a9 f5 be
       -5.3809536e-38 0.45573035 -0.09863276 -0.47980776
000190 7f 2d bd be c3 47 93 3d f5 ed eb 3c f4 b0 4b bf
       -0.36948773 0.07191422 0.02879999 -0.79566884
0001a0 f2 28 20 3e dd 3d 1d 00 07 c0 14 be 91 5f 99 3e
       0.1564062 2.685422e-39 -0.14526378 0.29955724
0001b0 a6 2a fb bc 19 29 3f 3e b1 e0 2b 80 72 b9 25 00
       -0.030659985 0.18668021 -4.02953e-39 3.464439e-39
0001c0 6e cc 04 80 a5 9a e4 bd e2 e8 4f 3e e3 35 2a 3a
       -4.40678e-40 -0.111623086 0.20303681 0.0006493015
0001d0 59 28 fb 3e 6e e8 22 3f 53 f2 7d be b6 60 17 3e
       0.4905422 0.6363591 -0.2479947 0.14782986
0001e0 f7 a7 f3 3b 49 42 36 00 d3 22 d4 3d 1a 75 cf be
       0.0074357945 4.982895e-39 0.10358205 -0.4051903
0001f0 d2 d5 52 be 7a 43 b8 bd cc ae 22 80 26 a3 32 80
       -0.20589378 -0.08997245 -3.185112e-39 -4.650301e-39

backbone.1.conv.2.bias f4 [8]
000000 0e 02 93 b8 a9 d4 23 38 da d7 76 b8 78 cf ae 38
       -7.009889e-05 3.9060284e-05 -5.8851998e-05 8.3356106e-05
000010 3b 92 e6 b8 a0 46 0c b9 24 76 d7 38 1a f8 e0 37
       -0.00010994492 -0.0001337775 0.00010274004 2.6818412e-05

backbone.1.conv.2.running_mean f4 [8]
000000 31 c5 58 3f 67 e0 82 bf 1b 63 51 3e a9 1d 54 be
       0.8467589 -1.0224732 0.20447962 -0.2071444
000010 c1 f2 28 bf 34 d7 5e 3e ae cf d1 be 28 9d 24 3f
       -0.65995413 0.21761781 -0.4097876 0.643023

backbone.1.conv.2.running_var f4 [8]
000000 93 0a e8 3d 4d 35 ed 3d 8f 90 6b 3e 39 41 ac 3e
       0.11330142 0.11582432 0.23004363 0.3364351
000010 45 96 37 3e 55 f8 b2 3e ad fc cf 3e 61 5c 3f 3e
       0.17928417 0.34955087 0.40622464 0.18687584

backbone.1.conv.2.weight f4 [8]
000000 f1 63 0b 3f 20 6e f6 3e 59 0c 25 3f 51 41 11 3f
       0.54449373 0.48130894 0.64471966 0.5674029
000010 5c a8 08 3f 2c 50 10 3f 2e a6 12 3f c0 04 05 3f
       0.53381896 0.5637233 0.5728482 0.5196037

backbone.10.conv.0.0.weight f4 [144, 24, 1, 1]
000000 51 a5 01 80 20 7b b0 01 22 c2 01 80 e8 b7 d1 01
       -1.5114e-40 6.4828865e-38 -1.61477e-40 7.703837e-38
000010 c8 84 93 01 0c 3f a2 81 02 47 1c 00 bc 0a 2a 81
       5.4189803e-38 -5.959987e-38 2.596867e-39 -3.123177e-38
000020 48 55 79 00 fc 48 3e 01 94 77 98 81 04 c1 b0 81
       1.1142688e-38 3.4949852e-38 -5.600757e-38 -6.4929153e-38
000030 cd 79 b1 01 90 82 43 00 2a 0c 9f 81 e7 09 3c 00
       6.5194307e-38 6.199815e-39 -5.842483e-38 5.513682e-39
000040 34 fd 08 81 54 b0 54 01 18 3b 0c 01 f0 d0 11 80
       -2.516092e-38 3.906476e-38 2.5756337e-38 -1.636156e-39
000050 af d9 b7 01 98 00 0c 81 ba 8e 3d 00 88 ec 45 80
       6.7535944e-38 -2.5714365e-38 5.653166e-39 -6.4215e-39
000060 47 4a 64 be 0f 32 de 3c 02 44 09 3e 69 ab db 3d
       -0.2229396 0.02712348 0.13404849 0.10726053
000070 aa a6 77 bd cb 00 35 bd 43 45 47 3c 11 28 4c bd
       -0.060461678 -0.04419021 0.012162509 -0.049842898
000080 f4 21 54 3d 8c 44 c3 bc 91 65 84 3d d5 96 2c be
       0.051790193 -0.023836397 0.06464685 -0.16854413
000090 47 1e 77 3d 32 3a f6 bd 86 da 95 3c 56 0a c2 bd
       0.06033161 -0.120228186 0.018292677 -0.09474628
0000a0 ef 22 bb 3c 60 90 0f 3c 9d e9 8c 3d 5b 72 0f 3c
       0.022843806 0.008762449 0.06880496 0.008755292
0000b0 c4 04 07 3e db 45 36 3d fb d4 15 3d 9b b0 0b bd
       0.13185412 0.044500213 0.036580067 -0.03410397
0000c0 28 ae ac 3d f1 07 be 3c 86 07 b0 3c 45 9c 92 bd
       0.08431655 0.023197146 0.021487962 -0.07158712
0000d0 0f a3 a1 bd 28 00 8a 3d 77 39 30 3d 94 39 8b bd
       -0.07892429 0.06738311 0.043023553 -0.067980915
0000e0 ca a2 6a 3d e3 98 a6 bd fc 42 ae bd 0a ba 6e bb
       0.057284154 -0.081346296 -0.0850887 -0.0036426806
0000f0 73 c2 8e bd 84 5c 2c bc 4f 0e 9d bc 80 e9 ce bc
       -0.06970682 -0.010520104 -0.019171862 -0.025257826
000100 27 03 87 3d 1a 27 08 3d ea a6 45 3e 82 74 63 bd
       0.06592398 0.033240415 0.19301954 -0.055531032
000110 5f b0 10 bc d3 76 77 bd 5b d5 30 3a 77 90 9b 3c
       -0.008831113 -0.060416054 0.00067456596 0.018989785
000120 5f 90 94 bb 5e 81 3e be 94 bd 3d 3d 7f 2f 15 3e
       -0.004533812 -0.18604037 0.046323374 0.145689
000130 1d 6d e0 bc 74 3f 86 bc 34 9b ab bc 2a e6 1c 3c
       -0.02739578 -0.016387679 -0.02094803 0.00957636
000140 91 53 36 3c 64 f0 3d bd 1e 65 6d bd f1 7f a8 3c
       0.011128322 -0.046371832 -0.05795776 0.02056882
000150 f9 ba a8 3b d3 d6 26 3d 51 18 46 bd 64 22 a7 3d
       0.005149242 0.040732216 -0.048363034 0.08160856
000160 b1 8c 82 bc eb f9 36 3d df 9c d9 3b ee 4c a7 bd
       -0.015936228 0.044671934 0.006641015 -0.0816897
000170 c3 f7 28 bd 44 9f 55 3d 3e 2f 07 3e 04 1a 70 3c
       -0.04125191 0.05215384 0.13201615 0.01465464
000180 74 c3 53 3d 06 7c 9d 3d 2f 67 ef bd 8b ca 94 bd
       0.05170007 0.07689671 -0.116896026 -0.072651945
000190 51 97 61 3d f6 36 d0 3d c8 4d 4d 3d 9c b3 25 bd
       0.055075947 0.10166733 0.050123006 -0.040454492
0001a0 cc 5f 1a be fd 3f 8b 3c ee 03 d6 bc a6 34 7e bd
       -0.15075606 0.016998285 -0.02612492 -0.06206193
0001b0 7d 8f 2e 3d fc e4 00 be 50 96 9a bc ae 2c 8e bd
       0.04261731 -0.1258735 -0.018870503 -0.06942116
0001c0 9f 3c 16 3e ea ef cb 3c a1 33 86 3d 76 a0 10 bc
       0.14671563 0.024894673 0.06552816 -0.008827319
0001d0 8a 68 6e bc 6a 2c bf bd 5a 0e cc bc 92 e4 c6 3c
       -0.014551291 -0.09334643 -0.024909187 0.024278913
0001e0 cc 72 e6 ba d9 ed c8 bd 6a b6 0b bd 9d ab e6 bd
       -0.001758182 -0.09810991 -0.03410951 -0.112632014
0001f0 93 89 c4 3b 99 0f fe bc 6c ec 1f bd 80 c6 70 3d
       0.0059978454 -0.031013297 -0.03904383 0.058783054
000200 57 b8 8c bd 5e 8f 57 bd 44 84 4d 3d ff c6 5a 3b
       -0.068710975 -0.05262696 0.050174966 0.003338277
000210 fd 59 bc bd 6b 0e 24 be ad 8e cc 3d e1 b4 59 3d
       -0.091968514 -0.16021125 0.09988151 0.053151015
000220 46 57 b0 bc 05 75 65 3d b2 e7 6e 3d 3a 90 95 bc
       -0.02152599 0.0560198 0.05832643 -0.01825725
000230 11 76 3b 3c 7f ed 88 3c 6a 9c d5 bb cc f3 42 bc
       0.011441723 0.01671481 -0.00651889 -0.011898946
000240 80 ad f7 bb 2b dd 90 3c 2e 9f bd bc 87 2d bd bc
       -0.0075585246 0.017683586 -0.023147192 -0.023092998
000250 e3 7f cf bc c1 87 b4 3b 03 e7 b0 bc e3 d1 bb 3b
       -0.025329536 0.005509347 -0.02159453 0.0057318076
000260 d6 8d 16 bc 58 d9 93 bc e7 fb f9 3b 8e 64 36 bc
       -0.00918909 -0.018047974 0.007628906 -0.011132373
000270 57 68 5a bd 2b 6b 34 bc 5c 6b 37 3c 21 d9 13 bd
       -0.053322162 -0.011011879 0.01119503 -0.036095742
000280 b4 de 08 3c ac e7 23 bd 37 eb 03 bd 49 0a 43 bc
       0.008353878 -0.04001586 -0.03220674 -0.011904308
000290 a0 bb cb bd 55 c6 1a 3d 72 1d 1d 3d f5 8b 78 bc
       -0.09947896 0.0377868 0.03835816 -0.015170087
0002a0 23 ac 25 3d 28 66 63 bd 25 44 5b 3d 27 55 c7 bc
       0.040447365 -0.055517346 0.053531785 -0.024332596
0002b0 54 a7 a5 3c a1 13 db bc 7a 7f aa bd 4f 15 f5 bc
       0.02022139 -0.026742758 -0.083250955 -0.029917387
0002c0 b1 b1 13 3e e3 55 0e 3e 6d ef 38 be 5e 7c 40 3d
       0.14423253 0.1389995 -0.18060084 0.046993606
0002d0 4f 2d 97 bc 9c 7f 93 bb 56 02 5a bd 5e 87 0f be
       -0.018454222 -0.004501296 -0.053224884 -0.14016482
0002e0 cf 5f 77 bd bf d8 8a 3c 23 15 0c be 5e 61 12 3c
       -0.060394105 0.016949056 -0.13679938 0.008934347
0002f0 ba 9a 7c 3d 3c 73 57 3b d1 a5 bb 3c c2 09 80 3d
       0.061670996 0.0032875082 0.022906216 0.06251861
000300 9e 4d 8f 3d 11 80 20 3c 94 5f 7e 3d 62 60 72 bd
       0.06997226 0.009796158 0.06210287 -0.05917395
000310 3f a1 af 3c 8c 3e 96 3d 1b a4 3e 3b c7 ce 21 bc
       0.021439193 0.073361486 0.0029089514 -0.00987596
000320 35 c6 f2 bd a9 c8 80 bd aa 56 48 3c d1 c7 6c 3d
       -0.11854211 -0.06288273 0.012227694 0.057807747
000330 0b d3 cf 3c fc 91 76 bc ac 7e 34 be 19 03 40 3e
       0.025369188 -0.015049454 -0.17626446 0.18751182
000340 04 73 0e bc 83 7a 4e 3d ad 84 f5 3c f1 e1 53 3d
       -0.008694414 0.050409805 0.029970491 0.051729146
000350 93 ff 62 bd c2 6f 39 bd e6 ca a5 3d 4b bc 43 3e
       -0.055419516 -0.045272596 0.080953404 0.19114797
000360 57 ab 32 be 47 f9 c2 3c 62 0a 14 3e e7 ff 5b bd
       -0.17448173 0.023800505 0.14457086 -0.053710844
000370 16 75 3b 3d d6 a6 0c bd 63 29 94 bd 8a 33 a1 3d
       0.04576596 -0.034338795 -0.072344564 0.078711584
000380 0f 9a a6 3d 10 c8 64 bd ac 15 c3 3d 5e d6 d9 bc
       0.08134853 -0.055854857 0.09525618 -0.026591476
000390 cd 7e 98 bc 88 fc 19 be 0f 9d b4 bd 68 37 e6 3c
       -0.01861515 -0.1503774 -0.08819019 0.028102592
0003a0 66 c7 02 3d 6d 87 e6 bc 5e c3 6f 39 83 11 4a 3c
       0.031928442 -0.028140748 0.00022865596 0.012333277
0003b0 fc cd c0 3c 0b 52 a8 3d e0 45 d4 bd 76 a9 b1 3d
       0.023535721 0.082187735 -0.1036489 0.086749
0003c0 b9 60 08 3d 8d 0e 5d bd d6 63 08 bd b4 a0 d9 3c
       0.033295367 -0.053968955 -0.033298336 0.026565887
0003d0 6d 41 27 3d 51 76 58 bd 33 aa 9d 3c 94 01 68 bd
       0.04083388 -0.05284721 0.019246196 -0.05664213
0003e0 5c 85 73 bc c6 d9 2e bd 1d 51 11 bd 65 63 49 bd
       -0.014863338 -0.042688154 -0.035477746 -0.049167056
0003f0 4e d2 2e bd 31 32 d8 bc 50 e8 8c bd a0 3a c0 bc
       -0.04268103 -0.02639112 -0.068802476 -0.023465455

backbone.10.conv.0.1.bias f4 [144]
000000 a2 55 0a 80 33 c2 b1 bd 33 5a 6a 3c 6e c3 a2 3d
       -9.49074e-40 -0.08679619 0.014303732 0.079474315
000010 b0 d9 ac 3d 7a eb cc 3c 1a 96 33 bd 9b 64 c1 bd
       0.08439958 0.025014628 -0.04384432 -0.09443017
000020 3a dd 8e 3d b8 ba 96 bc e8 8b 25 3e 00 3f 7c 3c
       0.06975789 -0.018399581 0.16166651 0.01539588
000030 18 d7 52 bd 5c 7f ab 3d 62 1b 45 3e ae 11 a9 bd
       -0.05147466 0.08373901 0.19248727 -0.08255325
000040 87 02 50 3d 20 c2 cd 3d a5 8e 88 3d 76 10 c2 3d
       0.05078366 0.10046792 0.06667832 0.09475796
000050 fc 70 f2 bb 13 65 e4 bb 04 22 87 bd 93 7b 46 bc
       -0.0073987227 -0.006970057 -0.06598285 -0.012114423
000060 53 30 c0 bd 85 be 1d 3d e5 f8 7e bd 40 25 02 3e
       -0.09384217 0.03851177 -0.062249083 0.12709522
000070 28 4f b7 3d b4 01 c9 3d 23 04 22 3c 21 b9 53 3d
       0.08950645 0.09814778 0.009888682 0.051690225
000080 b5 33 0c be 89 06 3f ba 9c 61 64 3d ef 38 a2 3d
       -0.136916 -0.00072870456 0.05575715 0.079210155
000090 96 8e f7 bc e6 4d e4 3c f7 53 07 bd cc c3 d4 3c
       -0.030219357 0.027869176 -0.03303906 0.02597227
0000a0 1d 19 85 3d 26 d6 fe bc 1a 2b 24 3c 15 45 0d 3e
       0.064989306 -0.031107973 0.010020042 0.13795884
0000b0 42 c8 a2 bd 2f 56 99 bc 9c f3 4b bd 78 3e b9 bd
       -0.079483524 -0.018717853 -0.04979287 -0.09045118
0000c0 4c cb 1b bd a0 71 7b bc 5e 8b 63 bd c6 7c 98 3c
       -0.038035676 -0.0153469145 -0.055552833 0.018614184
0000d0 60 c7 bd 3d c4 22 0f be 32 b6 66 bd 4e 6a 1b 3e
       0.092665434 -0.13978106 -0.0563261 0.15177271
0000e0 82 7e 56 3d 9f 21 0a 3e 33 c4 e3 bd 60 e7 e1 3d
       0.05236674 0.13489388 -0.111214064 0.110304594
0000f0 34 23 d7 3d 19 ef 1d 3d 53 cc 1a bd 31 ce 8c 3d
       0.10504761 0.0385581 -0.037792515 0.068752654
000100 ab d3 af 3c 02 6a aa 3d ef 48 bf bc a1 53 89 3d
       0.021463236 0.08321001 -0.023350207 0.06705404
000110 5a 20 28 bd ba 84 84 bd 8f ae 03 3d 4b 4e 2f bd
       -0.041046478 -0.06470628 0.032148894 -0.042799275
000120 0c ac c7 3b c4 cd a1 bc 55 04 c1 3d 82 f4 32 bb
       0.0060935076 -0.019751437 0.094246544 -0.0027306383
000130 84 92 b2 3c a3 a2 4f 3c aa b7 8f bd 74 3d bd bc
       0.02179838 0.012673053 -0.07017453 -0.023100592
000140 44 63 26 bc 2f a3 98 bd a2 75 17 bd 41 80 d2 bc
       -0.010155503 -0.07453 -0.036977418 -0.025695922
000150 e6 b7 b0 3c 91 96 cf bc 33 47 a8 bd 85 cd 23 3e
       0.021572065 -0.02534035 -0.08216705 0.15996368
000160 22 0c 8b 3d 06 c1 96 bd 1d 04 2d bd 9d e3 ff 3d
       0.067894235 -0.07361035 -0.04224025 0.12494586
000170 8c 4a 30 bc 9c 4c af 3d e1 f0 0a bd 81 82 8f 3c
       -0.010759961 0.08559534 -0.033921126 0.017518284
000180 b2 67 eb 3c eb df 22 bc 3e 9a 17 bd 76 6f 37 3b
       0.02873597 -0.0099410815 -0.03701233 0.002799002
000190 24 6b 36 3d ec 50 ce 3d c4 f7 a6 bd fb dd fd 3d
       0.04453577 0.100740284 -0.08152726 0.12395855
0001a0 98 ed b4 3d 7c 7e bc 3d 23 bf 54 3d 15 3a a6 3d
       0.0883438 0.092038125 0.051940095 0.08116547
0001b0 c5 0c 0c be 35 e7 b7 3d 4e 79 26 bc e5 ab 91 bc
       -0.13676746 0.08979646 -0.010160757 -0.017782161
0001c0 d6 3c d6 3d b5 bb fd 3d 40 c5 a4 bc 65 ca 75 bd
       0.10460822 0.12389318 -0.020113587 -0.06000747
0001d0 00 d7 16 3d b2 15 8b ba b6 00 60 bd 81 4a 09 bd
       0.036826134 -0.0010611324 -0.054688178 -0.033518318
0001e0 57 4a cc bd 76 b1 0b 3e 66 85 13 3a 05 b6 0f 3e
       -0.09975117 0.13641915 0.0005627483 0.14034279
0001f0 4e 69 88 3d 2a e6 1f 3e 46 f9 9d bd 7c c1 35 bd
       0.0666071 0.15615144 -0.07713561 -0.044373974
000200 83 9a bb 3d a3 16 cd 3d 5d a6 d9 3c c7 e8 3b 3d
       0.0916033 0.10014083 0.026568586 0.04587629
000210 77 ea d0 3c 04 b1 cc bd 3e e5 aa 3d eb 45 c6 3d
       0.025502427 -0.099947006 0.08344506 0.096813045
000220 f4 4a ac bd d5 98 05 3e 82 77 bc 3c b8 66 21 3e
       -0.08412734 0.13046582 0.023006205 0.1576184
000230 99 27 3b 3e a3 c1 33 bd 3a 48 4d bd 54 54 3d 3e
       0.18276824 -0.04388584 -0.05011771 0.184892

backbone.10.conv.0.1.running_mean f4 [144]
000000 95 0c 00 00 1b 88 56 b6 41 ec 6a b7 67 73 eb b6
       4.514e-42 -3.1967709e-06 -1.4002494e-05 -7.0169804e-06
000010 1e 7b 48 37 47 30 99 b6 2e 60 57 b3 8b a5 99 b6
       1.1949594e-05 -4.5653755e-06 -5.0146063e-08 -4.579027e-06
000020 91 d0 71 b6 99 49 90 b7 2c b7 6a b7 af ef 8b 37
       -3.60332e-06 -1.720041e-05 -1.3990135e-05 1.6681703e-05
000030 88 c7 16 b7 95 00 1e b7 ff 56 f6 37 c2 d2 df b7
       -8.987154e-06 -9.417669e-06 2.9365996e-05 -2.6681813e-05
000040 8c 70 ee 37 8c 57 b7 35 87 6b 1c 36 57 5f 26 37
       2.842422e-05 1.3660042e-06 2.33084e-06 9.916569e-06
000050 c4 28 1b 37 70 44 23 b7 90 6c 31 36 13 51 d9 b5
       9.248211e-06 -9.731491e-06 2.6438247e-06 -1.6191356e-06
000060 d4 7d 21 b7 f1 c5 d9 36 3b e3 4b 37 f2 7d 36 b7
       -9.625644e-06 6.4901474e-06 1.2152649e-05 -1.0877369e-05
000070 73 4c ac b7 ca ff 27 38 70 66 96 37 9c d2 c6 b7
       -2.0539597e-05 4.0054125e-05 1.7929095e-05 -2.3701512e-05
000080 4f e9 1f b7 ef 63 28 37 a5 db 81 b7 8c 93 37 37
       -9.53146e-06 1.0036848e-05 -1.5480278e-05 1.0942003e-05
000090 f1 eb 47 37 56 41 e9 36 e6 5d d1 b5 81 ce 45 b7
       1.1916259e-05 6.951547e-06 -1.5599041e-06 -1.17901955e-05
0000a0 f4 fa 7e 37 40 bb 78 b6 0e 1d 7b b5 4c 39 af b7
       1.5198009e-05 -3.7063874e-06 -9.3547067e-07 -2.0888307e-05
0000b0 f9 7b 96 37 60 b6 98 37 d7 8e 47 b5 27 26 d4 37
       1.7939123e-05 1.8204737e-05 -7.4341136e-07 2.5290135e-05
0000c0 b1 60 b8 b7 55 53 45 37 39 81 ff b7 a4 70 82 b6
       -2.1979535e-05 1.1761517e-05 -3.0458543e-05 -3.887415e-06
0000d0 a0 cc ed 36 ad dd bb 37 e1 7a 33 b7 38 b3 09 b6
       7.086972e-06 2.2395363e-05 -1.0697841e-05 -2.051891e-06
0000e0 74 5c aa 37 95 e8 7d 36 7d f1 20 37 cc 52 b8 b7
       2.0308631e-05 3.7835318e-06 9.592969e-06 -2.1973065e-05
0000f0 13 af b8 37 21 a0 5e b6 98 f7 af 37 3f 70 ad b6
       2.2016035e-05 -3.3173785e-06 2.097692e-05 -5.168869e-06
000100 d7 33 da 37 e5 30 79 36 e2 d5 a1 34 2e 8a 0f b7
       2.6011765e-05 3.7132352e-06 3.0144207e-07 -8.555637e-06
000110 7f 51 9c 37 87 da a4 37 18 88 05 b7 06 78 08 b7
       1.8634599e-05 1.9652083e-05 -7.959105e-06 -8.134177e-06
000120 06 a7 6e 37 9f 50 2a b7 fe 21 c3 b6 68 99 10 37
       1.4224794e-05 -1.0151561e-05 -5.81541e-06 8.6187865e-06
000130 44 a5 93 37 de f9 3c 36 8a 1b da b5 cb 49 06 37
       1.7600723e-05 2.8159625e-06 -1.6250281e-06 8.004204e-06
000140 37 d1 91 b5 be 08 d5 36 99 20 23 37 ef c2 12 37
       -1.0864231e-06 6.3489124e-06 9.723147e-06 8.747665e-06
000150 40 f2 0a 36 06 2c b7 b7 13 1d a9 36 62 df 1d b7
       2.070461e-06 -2.18358e-05 5.039977e-06 -9.40994e-06
000160 5c c8 35 36 1d b0 6e 37 4b a5 ab 34 6b 07 4c 37
       2.7087726e-06 1.422691e-05 3.1971499e-07 1.2161075e-05
000170 86 3e 79 37 36 22 e8 36 1e 3e e3 37 db 98 47 37
       1.4856114e-05 6.9181215e-06 2.7089434e-05 1.1896914e-05
000180 e9 0e 75 b7 59 5d 90 37 ee ed 86 37 4a 63 6d 36
       -1.46066095e-05 1.7209606e-05 1.608484e-05 3.5373546e-06
000190 cb d3 63 b6 6c 0e 48 b6 18 de c4 b7 af fc ba b7
       -3.3948916e-06 -2.9810717e-06 -2.3468441e-05 -2.2290593e-05
0001a0 99 b9 af 36 d3 39 80 b7 99 e5 34 37 bb df fc b6
       5.237013e-06 -1.5285716e-05 1.0782293e-05 -7.536231e-06
0001b0 45 0c 3a b6 cd d1 25 b7 86 f4 be b6 f5 55 0b b7
       -2.7723302e-06 -9.883614e-06 -5.6909075e-06 -8.305059e-06
0001c0 aa 6f bc 36 41 f7 95 35 24 56 90 36 26 75 81 b5
       5.615836e-06 1.1173325e-06 4.3015625e-06 -9.645344e-07
0001d0 2a d1 5c 37 bd a1 bd b6 c7 25 92 b5 a8 89 51 b7
       1.3161722e-05 -5.6514677e-06 -1.0888842e-06 -1.2489421e-05
0001e0 ab 3f 68 37 1c a5 75 b7 66 50 62 b6 03 25 18 b6
       1.3843101e-05 -1.46415805e-05 -3.3723422e-06 -2.2671309e-06
0001f0 c2 6b 1a b7 85 f3 30 b7 44 df c9 b7 4a af bd b6
       -9.204205e-06 -1.0547116e-05 -2.4065033e-05 -5.6530453e-06
000200 d0 99 b1 37 a9 0d 0b b7 e5 3e 6f 37 f0 3c a1 37
       2.1171669e-05 -8.288226e-06 1.4260154e-05 1.9221072e-05
000210 f5 1e b2 37 2d 55 82 37 3d 32 e3 b6 9c 75 16 37
       2.1233669e-05 1.553687e-05 -6.7709757e-06 8.96808e-06
000220 99 8d 82 b7 4f 51 5f 36 e2 80 ed 36 8b 9d 99 b7
       -1.5563144e-05 3.3276917e-06 7.0781543e-06 -1.8312383e-05
000230 c5 1f 05 38 2e aa cc b7 cc 07 e4 36 f8 bc 08 b7
       3.173926e-05 -2.4397941e-05 6.795837e-06 -8.150229e-06

backbone.10.conv.0.1.running_var f4 [144]
000000 04 00 00 00 01 31 d0 3d e1 a8 2c 3d 1f 39 18 3d
       6e-45 0.10165597 0.042153243 0.03716385
000010 ed ff 92 3d ef a9 19 3d e8 cb 14 3c 43 00 2f 3d
       0.0717772 0.037515577 0.009081818 0.04272486
000020 e8 b6 f5 3d b4 ef 30 3d 66 4e 24 3d f4 b2 4d 3d
       0.11997777 0.04319735 0.04011383 0.05021949
000030 0f a9 22 3d 2e 73 03 3d 1c ba ff 3d b7 a9 3e 3d
       0.039712008 0.032092266 0.124866694 0.04654857
000040 bf 6d 86 3d 86 56 51 3d 6a 1e 19 3d 08 4c 7a 3d
       0.06563901 0.051107906 0.03738252 0.061107665
000050 5a 66 97 3d 6c 2b 8a 3d 65 1a f3 3b ad c7 d6 3a
       0.07392569 0.06746563 0.007418918 0.0016386412
000060 cc 6b 1e 3d 61 92 8a 3d 96 ee fc 3c 5a 9c c6 3d
       0.03867702 0.06766201 0.030875485 0.096977904
000070 50 4e 47 3d c1 ad 87 3d ea 20 90 3d 2d 48 a0 3d
       0.04865867 0.06624938 0.07037528 0.078262664
000080 ff 3f 14 3d a8 5d 89 3d 70 16 8a 3d 26 02 2d 3d
       0.036193844 0.06707317 0.06742561 0.042238377
000090 ec 54 7a 3d 9f 6a 4b 3d 0e 2c 00 3d 53 3c 09 3d
       0.061116144 0.04966223 0.031292014 0.033504795
0000a0 3f d9 21 3d ab bc 91 3d 6e 28 88 3d 69 f0 a7 3d
       0.039513823 0.07116064 0.06648336 0.082001515
0000b0 43 79 02 3e 89 8b 67 3d 08 19 a3 3d 3f fc b9 3d
       0.1274157 0.056529555 0.07963759 0.09081315
0000c0 d6 a4 29 3d d7 5b b5 3d 35 8a a6 3d 77 5e 48 3d
       0.041416965 0.08855408 0.0813183 0.048918214
0000d0 aa 50 ee 3b fe 02 af 3d 70 73 63 3d d5 2e 61 3d
       0.0072727995 0.085454926 0.05553001 0.054976303
0000e0 1f 28 b9 3d 05 41 1c 3d 8f a8 6b 3d 48 29 b7 3d
       0.090408556 0.038147945 0.057533797 0.08943421
0000f0 f6 b1 7b 3d a0 33 93 3d e5 9c c3 3d cc 73 d3 3d
       0.061449014 0.07187581 0.0955141 0.10324821
000100 92 28 3e 3d 0b d3 4b 3d 46 27 73 3d 44 55 73 3d
       0.04642541 0.049761813 0.059363626 0.059407488
000110 16 8f 92 3d 7c 88 90 3d bb dd 44 3d ae 15 ba 3d
       0.07156198 0.07057282 0.04806302 0.09086166
000120 6e cb 8f 3d 52 4e e6 3c bd aa ba 3d 64 3e a1 3d
       0.07021223 0.028113518 0.09114597 0.07873228
000130 77 f0 7b 3d 02 c6 85 3d e8 fb a4 3d 38 37 a1 3d
       0.061508622 0.065319076 0.0805586 0.0787186
000140 6c c7 75 3d c0 f4 df 3c 99 56 2f 3d 73 15 69 3d
       0.060004637 0.027338386 0.042807195 0.05690522
000150 14 ed 8b 3d 6d f0 5d 3d 04 4c 1c 3d 5b 6e 7f 3d
       0.068323284 0.054184366 0.03815843 0.062361103
000160 79 85 c6 3d 9c 1b 56 3d 3c 8f 74 3d d7 ac 88 3d
       0.09693427 0.052272424 0.05970691 0.066735916
000170 31 bd e2 3c 3a 1f e4 3d 83 19 81 3d 03 0f 49 3d
       0.027678104 0.111387685 0.06303694 0.049086582
000180 e4 a0 3f 3d 32 bb 2c 3d c3 4a 0c 3d dd 8c b8 3d
       0.046784297 0.04217071 0.034250986 0.090112425
000190 2e d7 6c 3d 9f 66 5d 3d cc fa 4e 3d f4 f8 4f 3d
       0.0578224 0.054052945 0.050532147 0.05077453
0001a0 03 2d 71 3d c8 34 08 3d f7 04 65 3d 75 3b 42 3d
       0.058880817 0.03325346 0.055912938 0.047419984
0001b0 92 8b 8e 3d f0 73 cb 3c 52 4c 1d 3d df fc 43 3d
       0.06960215 0.024835557 0.038402863 0.04784858
0001c0 47 d2 63 3d c9 54 24 3d 8c f8 03 3d c9 66 3d 3d
       0.055620458 0.04011992 0.032219455 0.0462406
0001d0 6c 00 83 3d 82 f6 7e 3d 52 24 5e 3d e4 31 86 3d
       0.06396565 0.062246807 0.054233856 0.06552485
0001e0 c9 c5 3a 3d e0 fd 4c 3d aa b4 b6 3d 63 fc 4f 3d
       0.04559878 0.0500468 0.08921178 0.050777804
0001f0 b8 10 67 3d 13 96 2a 3d 42 84 e3 3d 96 94 4a 3d
       0.05641243 0.04164703 0.111092106 0.04945811
000200 fa 18 50 3d 25 75 77 3d 8c 13 55 3d ec 18 88 3d
       0.05080507 0.060414452 0.052020594 0.066453785
000210 bc 94 8e 3d 32 0a 8b 3d 29 92 7f 3d b0 ab 9b 3d
       0.069619626 0.06789054 0.06239525 0.07601106
000220 14 c1 97 3d 73 27 db 3c ac e6 49 3d e9 b8 4f 3d
       0.074098736 0.02675221 0.04929225 0.050713453
000230 2e 2d 4f 3d b0 7d 64 3d 6e 0f 8e 3d 0e 82 71 3d
       0.050580196 0.055783927 0.06936537 0.05896192

backbone.10.conv.0.1.weight f4 [144]
000000 04 87 3d 80 6e a5 14 3e c6 c9 00 3e 80 6c c4 3d
       -5.6504e-39 0.14516231 0.1257697 0.09591007
000010 03 a3 14 3e 23 13 0f 3e ad 39 d2 3c 18 d9 40 3d
       0.14515309 0.13972144 0.025662268 0.047082037
000020 8b 89 fd 3d c9 00 1f 3e 4c 68 75 3d f1 bf 14 3e
       0.1237975 0.15527643 0.05991392 0.14526345
000030 3d bb a4 3d fb 9f a7 3d e3 cb 0f 3e 60 7a ed 3d
       0.08043525 0.08184811 0.1404262 0.11595607
000040 d3 09 9c 3d f1 52 27 3d 84 59 36 3d ab 98 c8 3d
       0.07619061 0.040850583 0.044518963 0.09794744
000050 60 d9 29 3e 11 9f 36 3e 82 fb 60 3c e5 9b 19 3c
       0.16586828 0.17834117 0.013731839 0.009375547
000060 5b e4 dd 3d ac 23 0d 3e 50 fc 8a 3d 84 3f e0 3d
       0.10834571 0.13783139 0.06786406 0.10949615
000070 48 89 c3 3d 4f af 14 3e 3f 86 2a 3e 0a 31 f5 3d
       0.09547669 0.1452 0.16652773 0.11972244
000080 91 2b fb 3d 33 83 e2 3d c7 ea 39 3e 9e 88 04 3e
       0.12264169 0.110601805 0.18155967 0.1294274
000090 7f f7 0e 3e d6 c9 1a 3e c8 df be 3d b8 e3 18 3e
       0.139616 0.15116057 0.09320027 0.14930618
0000a0 90 48 ea 3d 90 5e 17 3e 99 80 31 3e 0b e6 91 3d
       0.114396214 0.14782166 0.17334212 0.07123955
0000b0 26 e4 00 3e 7d 4e 14 3e 8f ca 17 3e e0 e7 bc 3d
       0.12587032 0.14483066 0.14823364 0.09223914
0000c0 7d db f4 3d df 5d 36 3e c6 1d 36 3e bd 34 dd 3d
       0.119559266 0.17809246 0.17784795 0.10801075
0000d0 10 ba 6f 3c 63 12 f9 3d 31 56 43 3e 3f 39 c8 3d
       0.014631763 0.1216171 0.19075848 0.09776544
0000e0 b3 1d 05 3e 75 69 7f 3d d6 44 05 3e 9d 1c df 3d
       0.1299961 0.06235643 0.1301454 0.108941294
0000f0 59 b6 9a 3d b1 e7 21 3e be 56 26 3e 58 e2 f6 3d
       0.07554311 0.1581104 0.16244027 0.120548904
000100 58 b9 c3 3d e1 c7 c4 3d 51 37 30 3e 68 ef c6 3d
       0.09556836 0.096084364 0.17208602 0.09713632
000110 98 07 e2 3d 7a 62 e0 3d 05 f2 0c 3e ba 2e 12 3e
       0.11036605 0.10956283 0.13764198 0.14275637
000120 7c d8 44 3e 06 62 f2 3d be 61 bf 3d 31 66 29 3e
       0.19223207 0.11835103 0.09344815 0.16542889
000130 ac ec f4 3d 94 04 17 3e 5c f9 17 3e d0 77 0a 3e
       0.11959204 0.1474784 0.14841217 0.13522267
000140 5e 18 1a 3e aa d8 be 3d 57 1d d4 3d d5 38 ee 3d
       0.15048358 0.09318669 0.10357159 0.116319336
000150 c2 c7 d6 3d fd c5 e2 3d 15 9e af 3d dd cf cd 3d
       0.104873195 0.110729195 0.08575074 0.100494124
000160 b5 a3 dc 3d 71 17 f0 3d 0e 33 0d 3e 56 f8 9a 3d
       0.10773412 0.11723221 0.13789007 0.075668976
000170 bd 71 8c 3d a7 3d 10 3e 9f 4e 09 3e 1e ea 0f 3e
       0.06857631 0.14086019 0.13408898 0.14054152
000180 3a f0 78 3d 89 96 03 3e f3 83 a9 3d 37 38 2e 3e
       0.060775973 0.12850393 0.082771204 0.17013632
000190 52 e5 04 3e 10 74 10 3e f4 0d 0a 3e 01 c5 b6 3d
       0.12978104 0.14106774 0.13481885 0.08924294
0001a0 05 e5 c0 3d dd fe 45 3d 9f e5 0b 3e e3 56 ad 3d
       0.09418682 0.04833876 0.13661812 0.08463838
0001b0 c8 7c 05 3e b1 4b 73 3d a4 9e 18 3e 38 a2 0b 3e
       0.13035882 0.059398357 0.14904267 0.136361
0001c0 0d 95 88 3d 3a d7 bd 3d 01 52 eb 3d a5 3b eb 3d
       0.06669054 0.09269567 0.114902504 0.11485986
0001d0 b3 0f d7 3d 01 14 e4 3d 37 d0 cb 3d 08 56 64 3e
       0.10501041 0.11136628 0.09951823 0.22298443
0001e0 85 20 b0 3d 19 15 e5 3d 11 ff dd 3d a8 80 6b 3d
       0.085999526 0.11185665 0.10839666 0.057495743
0001f0 6d a8 c4 3d 68 e7 6c 3d 4f be 02 3e 60 a6 e5 3d
       0.09602437 0.057837874 0.1276791 0.11213374
000200 bc fb 85 3d 3d 29 d3 3d 60 83 d7 3d 86 a6 07 3e
       0.06542155 0.103106 0.10523105 0.13247117
000210 46 9e 0c 3e 6c eb d2 3d 92 3d a9 3d d6 30 bc 3d
       0.13732252 0.102988094 0.08263697 0.09189002
000220 df 2d 08 3e 0a f9 8c 3c 2f 6a 0a 3e de fe a2 3d
       0.13298748 0.017208595 0.13517068 0.07958768
000230 ab d4 f6 3d 9c 2e 1b 3e ce ed 1c 3e 21 d8 c9 3d
       0.12052282 0.15154499 0.1532509 0.098556764

backbone.10.conv.1.0.weight f4 [144, 1, 3, 3]
000000 44 e5 68 01 87 07 b5 01 54 2c 10 00 68 59 8e 00
       4.277616e-38 6.64997e-38 1.48527e-39 1.3072713e-38
000010 60 d2 7f 81 89 90 05 00 b3 35 ac 81 20 e3 a9 01
       -4.698704e-38 5.11027e-40 -6.3259876e-38 6.2406704e-38
000020 cc c6 60 81 28 7d 00 3e 51 5c b2 bb 2f fa ea bc
       -4.1284932e-38 0.12547743 -0.005443134 -0.02868375
000030 e7 ff 04 3e f4 89 6b 3a 9d 94 18 bc 9a 30 24 3e
       0.12988244 0.0008985095 -0.009312776 0.16034165
000040 8a 91 c3 bc 69 18 c6 3d 37 2d d8 3d f9 5c 18 bb
       -0.02387311 0.096726246 0.10555499 -0.0023248775
000050 30 fb 17 be b5 81 17 3e b6 50 cb 3c 0c 4e 82 bd
       -0.14841914 0.14795573 0.02481876 -0.063625425
000060 17 1a 05 bd 7c 47 31 3c 32 70 82 bc eb 31 7f bd
       -0.032495584 0.010820266 -0.01592264 -0.062303465
000070 bf d4 02 bc d5 dd ea 3c 3e aa 50 bd 89 5f 35 bd
       -0.007985293 0.02867023 -0.050943606 -0.044280563
000080 68 69 77 bc 40 89 97 3c bf 1d 13 be 9d 08 2e bd
       -0.015100814 0.018498063 -0.14366816 -0.042488683
000090 77 f9 06 be 54 1e a0 3c 01 ed 8e 3c f2 0d 4a be
       -0.13181101 0.019545712 0.017446997 -0.19731882
0000a0 d7 b9 b4 3c 45 d9 42 3e 9b fa 05 bd 76 7d 92 3d
       0.022061272 0.19028194 -0.0327097 0.07152836
0000b0 e4 c3 f7 3c b0 3b a1 bd 19 03 82 3c 82 b3 da 3d
       0.030244775 -0.078727126 0.015870618 0.1067877
0000c0 5f a5 2d be d0 55 11 3e eb 6f 2a 3b b4 e6 d2 3b
       -0.16957615 0.14192891 0.002600665 0.0064361934
0000d0 ea 2d e1 bd 94 dd 9a bd b4 1c d9 bb 04 5b 4b bc
       -0.109950855 -0.07561794 -0.006625736 -0.012411837
0000e0 df b8 73 3c 15 f4 ed 3c e0 b8 dc bd 82 52 4b 3d
       0.01487562 0.029047051 -0.107774496 0.049639232
0000f0 83 9b 8f 3c 55 cc 86 3d fe 0e fd 3c 94 75 bc bc
       0.017530208 0.06581942 0.030890938 -0.023005284
000100 c3 51 05 3d 35 7f 32 3d bf 33 3f bd 24 8e 46 3e
       0.032548677 0.043578345 -0.04668021 0.1939016
000110 24 80 a9 bd fe bc 36 bd 13 37 c5 3c 1e 63 55 3c
       -0.08276394 -0.04461383 0.024074113 0.01302412
000120 04 07 a9 bd 19 e1 0d 3d 23 fb 18 be 3b d9 7d 3d
       -0.08253291 0.034638498 -0.14939551 0.061974745
000130 e9 9f 6e 3e 6e 85 0e be 8e 8f 6c bc 8f 1a 1a 3c
       0.23303188 -0.13918087 -0.014438523 0.009405746
000140 a8 85 ce bd 1d a0 1a 3e 87 45 24 3e 35 ed a3 bc
       -0.10084087 0.15100141 0.16042148 -0.02001057
000150 ad 61 d8 ba a8 50 13 be 7f 2c aa bb 2a 57 2f be
       -0.0016508602 -0.14386237 -0.0051932926 -0.17123094
000160 37 72 47 bb 47 86 70 3d c8 9f 33 3c 09 a3 cf bd
       -0.0030433068 0.058721807 0.010963388 -0.10138518
000170 6b 0e 32 3d ca a3 86 bd 9b e3 17 be bf 85 98 bc
       0.04347078 -0.06574209 -0.14832918 -0.018618463
000180 c6 9b 17 bd 94 c8 88 bd 55 84 27 3b 51 45 70 bc
       -0.03701379 -0.06678882 0.0025561054 -0.014664964
000190 c1 83 ef bd ab a7 3b 3c 14 a9 a2 3d 9d d7 e1 bd
       -0.11695052 0.011453549 0.07942405 -0.11027453
0001a0 7a d3 e4 bd 48 6a 31 3e 7f eb 9b 3d ee 31 06 bd
       -0.111731485 0.173257 0.07613277 -0.03276246
0001b0 36 9f 24 bc 3c 3b 9b 3c 0f d4 cb bc 61 8a 19 3e
       -0.0100477245 0.018949144 -0.02488139 0.14994194
0001c0 2e a5 8b 3d 46 ae 0e bd 7c 48 ae 3d ec b6 25 3e
       0.06818615 -0.03483417 0.08509919 0.1618306
0001d0 8b 22 1f 3c ff 5a 29 3b 4a 3c 70 bb b4 45 48 3d
       0.0097128255 0.0025841591 -0.0036657029 0.0488946
0001e0 0c 94 cd bd 35 63 f1 bd 2b 1b 81 bd 8b 96 76 3d
       -0.10038003 -0.117865 -0.0630401 0.060202163
0001f0 9a bc a4 bd 8a 48 66 3c 52 72 d1 bd 9c 6a 81 bd
       -0.080437854 0.014055381 -0.10226883 -0.06319162
000200 ae fe 99 bd 8c 4f ef bd 7a e3 03 bd 78 5c 9b 3c
       -0.075192794 -0.11685094 -0.03219936 0.018964991
000210 55 86 fe bd f8 43 74 bd 8b e3 f1 3c d9 be 19 bc
       -0.124279656 -0.059635133 0.029527446 -0.0093838805
000220 06 18 97 3c 50 b2 d2 bd f1 20 e1 3c d2 c6 32 3e
       0.018444072 -0.10287917 0.027481528 0.17458656
000230 a4 88 49 bc 6b eb db 3d b1 b7 9f 3d 38 db 12 3b
       -0.012300644 0.10738262 0.07798708 0.0022408497
000240 c2 32 66 3c 4a 14 7e bb ec a0 1a bc d0 74 25 3e
       0.014050188 -0.0038769417 -0.009437781 0.16157842
000250 db e1 51 be 4e 68 80 bd 19 e2 8a 3c 3c 6e d1 3d
       -0.20496313 -0.062698945 0.016953515 0.10226104
000260 a4 7a a0 3d 0f 39 9c bc 1e 3d 0c bd f4 8c ab 3d
       0.07835892 -0.019070176 -0.034237973 0.08376494
000270 cb a7 8e 3d 85 77 15 3e 9f 5d 5b bb d4 f5 27 3d
       0.06965598 0.14596374 -0.003347255 0.041005924
000280 bb 82 a2 bd c3 70 7e bc bd 7d 9d 3c a4 45 9a bd
       -0.07935091 -0.015529814 0.019224996 -0.07532814
000290 ee 50 0e be e6 4c 43 3c 40 12 f9 3d 9c 23 05 3e
       -0.1389806 0.0119201895 0.12161684 0.13001865
0002a0 98 e9 1e 3d 3b 2a 8e bc 98 13 28 bc a4 e3 3e 3d
       0.03879699 -0.017354121 -0.010258578 0.046603814
0002b0 94 4e 31 3e 64 a0 03 3e d3 ee 6b bc 27 46 f4 bd
       0.17315131 0.12854153 -0.014400202 -0.11927443
0002c0 54 7a 09 3d 61 e5 88 bd 2a d5 98 bd 8b 1f e6 bd
       0.033563927 -0.066843756 -0.07462533 -0.11236485
0002d0 ad 05 b0 3d 65 8d 40 3e 7d 72 c2 3c 4d 0e 26 3e
       0.085948326 0.18803938 0.023736233 0.16216393
0002e0 87 59 bf 3b 2e c3 9d 3d 5d 32 77 bd 83 04 3d 3d
       0.00583953 0.07703243 -0.060350765 0.04614688
0002f0 5f de a2 bd df 95 10 bb 06 9d 79 3c 87 13 91 3c
       -0.0795257 -0.0022061986 0.015235191 0.017709507
000300 01 e1 ce bc 37 3d be bd 56 b4 28 3b d4 2e 21 3e
       -0.025253775 -0.092890196 0.0025742254 0.1574052
000310 20 a3 71 3e 83 f4 d8 3c 99 cb a3 3c 79 24 6a bc
       0.23597383 0.02648378 0.019994544 -0.014290922
000320 8e 84 25 bc e7 c4 b1 3c e6 55 4d 3d 4d ee 46 3c
       -0.010102404 0.021700336 0.050130747 0.012141776
000330 63 79 dc 3c 1d 85 3c 3d 5f d1 10 3d b1 68 72 3b
       0.02691335 0.046025384 0.03535592 0.003698867
000340 a9 28 7b 3c 73 97 45 3b e6 75 09 3d 2e d3 3e bb
       0.015329518 0.0030150085 0.033559702 -0.0029117572
000350 0b 5d 7a 3c 72 a8 0d 3c 46 f5 23 3d d2 94 87 bb
       0.015280972 0.0086461175 0.040028833 -0.004137614
000360 7c d3 7a bd d3 c5 98 bd 89 93 47 bd d1 e2 00 3e
       -0.061236843 -0.07459607 -0.048724685 0.12586524
000370 86 a0 89 3d ce bd 85 be ff d6 a2 3d b8 c7 0c 3d
       0.067200705 -0.26121372 0.079511635 0.034370154
000380 ed 20 01 be ac 29 37 bd 76 86 0f 3d 50 89 f7 3c
       -0.12610216 -0.044717476 0.03504034 0.030216843
000390 6d f5 5e bd d5 9e 00 bc 38 65 aa bc f6 97 c0 bd
       -0.054433275 -0.0078503685 -0.020800218 -0.09403984
0003a0 40 23 07 be c9 9a 93 bd 4c a0 c2 bc ab f9 e0 bb
       -0.1319704 -0.07207257 -0.023758076 -0.0068657002
0003b0 56 ab bc bc 81 ca 53 3b 32 ce e9 3d 5b 9c 70 3d
       -0.023030918 0.0032316747 0.11416282 0.058742862
0003c0 da dc f5 3c b7 06 9f 3d ee b8 f4 bc ad 0e 52 3d
       0.030012537 0.07764953 -0.029873338 0.051283527
0003d0 33 9d 1d bc 1e be 32 3d ac 42 01 3d e1 f9 01 3e
       -0.009619999 0.04363834 0.031557724 0.12692977
0003e0 64 b7 ec 3a 0a 44 04 be fb e3 67 be e2 28 a7 bd
       0.0018060026 -0.1291658 -0.22645561 -0.08162095
0003f0 90 80 9b 3d 5b 7f dd 3d b6 88 68 3d b7 47 78 bd
       0.07592881 0.10815307 0.056771003 -0.060615268
