ML Model/centernet_model/det.onnx (onnx, 461915 bytes, 205 tensors)

backbone.0.0.weight f4 [16, 3, 3, 3]
000000 d6 cf 32 80 88 9e d6 01 fa 75 12 80 8e cb 48 80
       -4.666332e-39 7.8838666e-38 -1.695361e-39 -6.685177e-39
000010 a7 e8 06 00 f4 b7 e8 81 20 bf 26 81 eb 1b 0b 00
       6.34473e-40 -8.54873e-38 -3.062651e-38 1.020206e-39
000020 de a8 0d 80 e8 fe cc 81 5c 83 10 00 18 84 0e 80
       -1.25444e-39 -7.530354e-38 1.516491e-39 -1.333083e-39
000030 dd d1 41 00 bf 13 21 00 8c 4d e1 01 a4 42 ba 81
       6.044592e-39 3.037655e-39 8.276322e-38 -6.8421234e-38
000040 0b 9b 4a 00 0a 26 67 81 20 40 29 80 13 0c 31 80
       6.851446e-39 -4.245529e-38 -3.788259e-39 -4.504271e-39
000050 99 53 26 02 18 3f 38 00 a2 cb 09 00 72 dd 04 80
       1.2219745e-37 5.165422e-39 8.99569e-40 -4.46782e-40
000060 c5 d7 3e 00 c7 73 16 00 22 eb 0f 80 65 75 92 bc
       5.771204e-39 2.061914e-39 -1.461882e-39 -0.017878244
000070 35 a8 49 bc 4c b5 a4 bc 13 9b 0a 3e 0a d0 b0 3e
       -0.01230817 -0.02010598 0.13535719 0.3453372
000080 fc 36 ee 3b 3d 91 3f be a2 97 75 be fc 82 c6 bc
       0.0072697382 -0.18707748 -0.23983625 -0.02423238
000090 4e 10 ea bc da de 05 3d 5f 4c 2f bd b9 e5 8e 3e
       -0.028572228 0.03268323 -0.042797443 0.2790964
0000a0 cd 79 3c 3f 3d 99 8d 3d 90 88 ae be d6 e8 13 bf
       0.73623353 0.069139935 -0.34088564 -0.57777154
0000b0 5d 95 af bd d5 fa 1a 3e 34 31 f7 3d 90 c7 ee 3d
       -0.08573411 0.15134747 0.120699316 0.11659157
0000c0 ea 9c 05 3e 1f 96 7a 3e 0a 8b 80 3d bb 13 b3 bd
       0.13048139 0.24471329 0.062765196 -0.08743998
0000d0 8b 18 10 be 0c ac 0e 3a 28 37 cf bd 47 da b3 3d
       -0.14071862 0.0005442507 -0.10117942 0.087818675
0000e0 3c 9c 89 bc 84 d4 db be 3e 5d 38 3f 17 13 9e be
       -0.016798131 -0.42935574 0.72017276 -0.3087394
0000f0 65 1c 2e bf c0 ae 68 3f d3 9f 95 be 92 a3 fa bd
       -0.68012077 0.9089165 -0.292235 -0.1223823
000100 9a f5 33 3e 82 80 5b bd a7 c5 59 bf 41 8a a7 3f
       0.17574158 -0.05358935 -0.8506722 1.3089067
000110 6e f8 08 bf 07 a8 89 bf 54 8d b9 3f 0c 48 f2 be
       -0.53504074 -1.0754403 1.4496255 -0.47320592
000120 4d 6e 90 3c 5e 20 18 3d ec 4d d6 3d d3 28 3f be
       0.01763072 0.037140243 0.10464081 -0.18667917
000130 b3 35 d9 3e bf 4e c1 bd ea 34 80 be 07 a8 f6 3e
       0.42423782 -0.09438848 -0.2504037 0.4817507
000140 86 65 ba bd b6 43 66 bb 34 5a 0e bc bd ed b6 3d
       -0.09101395 -0.0035135574 -0.008688498 0.08932064
000150 bb 97 96 3d f4 11 58 3e 01 06 88 be 52 05 23 3d
       0.07353159 0.21100599 -0.2656708 0.039799996
000160 5a 03 a5 3e f5 36 9a be e3 f8 c5 bb a1 94 42 bd
       0.3222912 -0.30120054 -0.0060416325 -0.047505025
000170 3b 0a 90 3d 59 ad 3c 3d 01 89 01 3f 36 01 20 bf
       0.07033201 0.046063755 0.50599676 -0.6250185
000180 31 3e 53 3d d8 07 24 3f 76 57 32 bf 05 c4 9c 3c
       0.051572982 0.6407447 -0.69664705 0.019136438
000190 83 b4 21 bc db c4 23 bd d4 e3 92 3d 64 1b a6 3d
       -0.0098696975 -0.039982658 0.07172361 0.08110693
0001a0 8d 1b 09 be 80 6a f8 3c 91 29 ad 3d 68 39 38 be
       -0.13389416 0.03032422 0.08455194 -0.17990649
0001b0 57 46 c9 bd 42 38 8f bb 49 41 85 bd b8 4e 89 3d
       -0.098278694 -0.00437072 -0.06506593 0.067044675
0001c0 1c 29 b1 3b 05 ee ee bd f7 63 20 3e a8 20 b7 3d
       0.005406512 -0.116664924 0.15663134 0.089417756
0001d0 fb cd 3a be 1c f5 b9 3b ac 47 3f 3c ff e1 b1 bd
       -0.18242638 0.0056749713 0.011674803 -0.086856835
0001e0 9f c1 d3 3d 26 cf 24 be eb 70 a4 be 76 09 5a 3e
       0.10339665 -0.16094646 -0.321174 0.21292672
0001f0 c8 3a 97 bd 55 51 dc be 67 af c1 3c 50 eb 1d bc
       -0.073842585 -0.430308 0.023643209 -0.009638622
000200 f0 bc 26 be c2 13 35 bb 7d 6b 01 be 37 bc 8a be
       -0.16283011 -0.0027630185 -0.1263866 -0.27096722
000210 9a ba 24 bc fa 4e 35 bd 9c 21 27 be 8e df 28 3e
       -0.010054255 -0.04426477 -0.16321415 0.1649153
000220 60 81 26 3e e2 21 4e be a0 eb eb 3d 93 db 18 3f
       0.1626029 -0.20130113 0.11519551 0.59710044
000230 c3 6d 71 3e 74 a6 3f be f0 46 0e 3f 7b eb 1d 3f
       0.23577027 -0.1871584 0.5557699 0.6168744
000240 2e 9d e3 3d 7e a6 08 bd d6 05 db 3d 9a e5 5a 3d
       0.11113964 -0.033361904 0.106944725 0.05344162
000250 6c a0 36 be b2 a4 90 bd 1a b1 28 3d 7c a3 14 be
       -0.17834634 -0.07062663 0.041184522 -0.1451549
000260 03 d1 c7 bd 90 9d 54 be 9d d5 08 be 87 b6 21 3e
       -0.09756663 -0.2076323 -0.13362737 0.15792285
000270 0f 1c e7 bd 1c 4a 00 bf ba de 79 be f8 55 9d 3d
       -0.112846486 -0.5011308 -0.2440137 0.07682413
000280 36 fd f9 be 1c e2 17 bf 82 04 0a bc 5f 50 90 bc
       -0.48825997 -0.5932939 -0.008423926 -0.017616449
000290 da 6a b9 3b 0c 74 ee 3e cc 04 f2 bd c6 dd 35 be
       0.0056584897 0.46572912 -0.11817321 -0.17760381
0002a0 54 fa 16 3e 07 fc 4f bd b1 0d 6b bc 49 8a 62 bd
       0.1474393 -0.05077746 -0.014346526 -0.05530766
0002b0 76 fb 98 bc f6 c8 1c 3d 9e eb 6d 3f 6e 48 60 be
       -0.018674593 0.03827759 0.9293765 -0.2190263
0002c0 db e8 be be d6 c3 8b 3e f5 6f 2c be 70 7f 2b bd
       -0.3728703 0.27297848 -0.16839583 -0.04186958
0002d0 46 dd 82 3c bc 8b 25 bc c9 6b d0 3b d8 51 78 3e
       0.015974652 -0.010104116 0.0063605052 0.24249971
0002e0 38 38 47 bd f4 24 af bd 82 db 70 3c 95 7a 94 bd
       -0.0486376 -0.0855197 0.014700772 -0.07249943
0002f0 8a 83 19 bd 2b 25 95 3c 75 51 7b 3c 71 dd a2 bd
       -0.03747896 0.0182062 0.015339245 -0.07952393
000300 35 fd 2c bd 1f d0 06 3e 1f 42 81 3e bb 03 88 bd
       -0.042233665 0.1316533 0.2524576 -0.066413365
000310 e4 a7 85 3d 0d 09 91 3e 87 c0 36 bd 47 90 ff bd
       0.06526163 0.28327218 -0.044617202 -0.124786906
000320 ba af 33 be 1d 6e ad bc 77 47 40 3e 98 ee af 3e
       -0.17547503 -0.02117067 0.18777262 0.3436172
000330 fc 3c 1a bd 2e b2 39 3e c4 d8 b0 3e 73 77 e1 bb
       -0.037655815 0.18134376 0.3454038 -0.0068806945
000340 a7 8e 82 3d 64 d1 ca 3d 10 48 88 3c 3a 55 2e 3e
       0.06374865 0.09903219 0.016635925 0.17024699
000350 de 2d ac 3e 6f f8 ec 3c 52 a7 0f 3e 4d 1a 74 3e
       0.33628744 0.028927056 0.14028671 0.23838158
000360 f0 38 42 3d ea 0f 28 3d 54 89 09 be 5f 54 35 be
       0.04741758 0.0410308 -0.13431293 -0.17707966
000370 7e b7 2e 3f fe 61 03 bf ca 92 cf 3c f0 99 38 3f
       0.68248737 -0.513214 0.02533855 0.7210989
000380 82 d8 2e bf 70 21 08 bd 3c c0 2b 3e 51 7a 57 be
       -0.68299115 -0.033235013 0.1677255 -0.21042754
000390 dd 46 f9 bd 9e 25 8a 3f d1 10 6a bf 0f ba 8a 3c
       -0.12171719 1.079273 -0.9143191 0.016934423
0003a0 44 77 85 3f 0f fc 79 bf 02 fb 5f 3d 3c 16 20 bc
       1.0427022 -0.97650236 0.05468274 -0.009770926
0003b0 b1 db 58 bc ca 55 e4 bd b4 2d cc 3e 58 d1 ab be
       -0.013235972 -0.111491755 0.3987862 -0.33558154
0003c0 e3 0d 21 3c d1 df cb 3e 3f 35 cb be 2c 81 36 80
       0.009829971 0.39819196 -0.3968906 -5.005455e-39
0003d0 ca d6 2f 00 26 0a 1c 80 5f 98 44 80 9d 53 22 80
       4.39332e-39 -2.575034e-39 -6.299474e-39 -3.152402e-39
0003e0 83 1d 30 80 95 fc 27 00 9f d1 14 80 ad 1b 11 00
       -4.41869e-39 3.672194e-39 -1.911908e-39 1.571132e-39
0003f0 16 70 22 00 68 8a 2c 80 6e c7 0c 00 e7 ed 10 00
       3.162616e-39 -4.090413e-39 1.173568e-39 1.554711e-39

backbone.0.1.bias f4 [16]
000000 a9 28 15 80 54 2d 15 3f ff 27 ca 3e 92 d2 88 3e
       -1.943132e-39 0.5827229 0.3948364 0.26723152
000010 15 54 63 3f 1e 6e 0a 3f 15 f8 0c 3f c6 75 02 3f
       0.88800174 0.54074275 0.55066043 0.5096096
000020 d3 76 17 3f 5c d1 01 80 7e 11 2f be 7f 25 70 3f
       0.59165686 -1.6694e-40 -0.17096516 0.93807214
000030 86 58 ed 3e e1 ef ae be 86 50 01 00 f3 9e 09 80
       0.463566 -0.34167388 1.20722e-40 -8.8354e-40

backbone.0.1.running_mean f4 [16]
000000 d6 79 a8 83 44 c9 88 42 17 8f ba 41 27 f0 b1 3f
       -9.902125e-37 68.3931 23.319868 1.3901414
000010 61 80 2e c3 30 c0 67 c2 bb 81 73 42 85 8b 72 43
       -174.50148 -57.937683 60.87669 242.545
000020 9e 26 bd 40 d8 36 58 84 f6 69 8e c0 6d 8e 07 43
       5.910964 -2.5415861e-36 -4.4504347 135.55635
000030 91 a6 e9 42 2c 4a b0 42 64 87 ed 03 c4 90 a5 84
       116.825325 88.14487 1.3960692e-36 -3.892426e-36

backbone.0.1.running_var f4 [16]
000000 04 00 00 00 b0 df 54 45 6f 09 0c 46 c6 87 d4 44
       6e-45 3405.9805 8962.358 1700.2429
000010 c0 76 4b 46 b9 fc 11 46 0e 31 7e 45 b3 69 c0 46
       13021.6875 9343.181 4067.066 24628.85
000020 b7 d8 bc 45 04 00 00 00 f5 b5 1f 45 1b 1a f4 45
       6043.0894 6e-45 2555.3723 7811.263
000030 81 60 e7 45 6a 83 a8 45 04 00 00 00 04 00 00 00
       7404.063 5392.427 6e-45 6e-45

backbone.0.1.weight f4 [16]
000000 d4 7b 1d 00 f7 8f 1a 3e 8c 39 10 3e 87 f7 83 3e
       2.70765e-39 0.1509398 0.14084452 0.25774786
000010 19 4f 3e 3e f1 0e 7a 3e 1f 86 0b 3d 61 b1 96 3e
       0.18584861 0.24419762 0.034063455 0.29432204
000020 7d 1a b7 3d 6c 91 10 80 9e 51 ff 3e 8e 72 e9 3d
       0.08940599 -1.521535e-39 0.49866956 0.11398803
000030 27 cc 3e 3e 6b 59 a9 3e 0f 08 35 00 25 bd 3c 80
       0.18632565 0.33076033 4.870172e-39 -5.577982e-39

backbone.1.conv.0.0.weight f4 [16, 1, 3, 3]
000000 ea e9 0d 01 4a ca 77 81 6c 9b d2 01 35 58 18 80
       2.6065435e-38 -4.551187e-38 7.7364836e-38 -2.235695e-39
000010 e4 02 48 00 8c a4 2e 80 3a 13 57 01 b8 f8 36 80
       6.613193e-39 -4.283461e-39 3.9503058e-38 -5.04834e-39
000020 c8 fc f4 00 9b 40 2b bc 5e 98 6e bd d9 fe ad 3c
       2.2498542e-38 -0.010452415 -0.058250777 0.021239685
000030 b7 76 0b bc 12 5f 0b be b1 56 40 3f d5 43 5f 3c
       -0.008512191 -0.13610485 0.7513228 0.013627012
000040 4e 53 4f 3d e7 f4 4e bf fe 6c b8 bb b2 a5 5f bd
       0.050616555 -0.8084244 -0.0056282273 -0.05460138
000050 49 c5 11 be b7 3f d1 bc d8 66 89 3d fb c7 8e 3f
       -0.14235415 -0.025543077 0.06709069 1.1154779
000060 60 2b 02 bb bc 1c 42 bd 40 8c 7a bd da af 34 bd
       -0.001986228 -0.047390684 -0.06116891 -0.044113018
000070 8a e6 fc bc 84 24 cb bd bb 24 5c 3d e0 4a 47 3f
       -0.030871648 -0.09919074 0.053745966 0.77848625
000080 dc b2 ac be a9 1b d5 bc cb ea 12 3c 21 a8 25 be
       -0.3373021 -0.026014166 0.008967112 -0.16177417
000090 6d e6 18 3f 7b 22 f9 3f 97 df e5 3e 0b bf 6f 3e
       0.597266 1.9463648 0.44897148 0.23412721
0000a0 be 7a e5 3e 50 1d 3c 3e 1e e5 57 bf d0 a2 08 c0
       0.44820207 0.18370557 -0.8433398 -2.1349373
0000b0 a2 8d 3d bf ee 9e 1a be 0c bd b2 3d 89 fb 22 be
       -0.7404424 -0.1509969 0.08727464 -0.15916266
0000c0 34 83 26 3e 53 18 ca 3e 65 f6 d4 bf 22 4d aa 3d
       0.16260988 0.39471683 -1.6637694 0.08315493
0000d0 65 57 a9 3f 3e c2 c2 3e aa d2 1b 3c 07 1c 9b 3d
       1.3229796 0.3803882 0.009510675 0.07573705
0000e0 0e 09 8b bd e2 4b 23 3d 22 34 84 3c f8 97 53 bf
       -0.067888364 0.03986729 0.01613814 -0.8265376
0000f0 62 da e7 3c a5 70 52 bd 96 d2 7d 3f cf c2 01 bf
       0.028302375 -0.051376957 0.99149454 -0.5068788
000100 bc 03 87 be f6 71 41 3f 9f c8 18 c0 d2 0e aa be
       -0.26370037 0.75564516 -2.387245 -0.33214432
000110 6b 72 29 40 3c 09 fa be 3e 0a 3a be 09 8c 21 3f
       2.6476085 -0.4883517 -0.1816797 0.631043
000120 6b cf f7 bb f7 30 f2 3d 90 b2 2d bd a8 7a 4d 3d
       -0.007562568 0.118257456 -0.04240662 0.050165802
000130 36 1d 83 bf 2f 4a 43 3e 11 d1 24 3d 8a 7d 3a bd
       -1.024329 0.19071268 0.040238444 -0.04552988
000140 91 73 83 bd bb 04 38 80 16 cd 45 80 75 90 46 80
       -0.06418527 -5.144485e-39 -6.41022e-39 -6.480306e-39
000150 55 62 0c 00 17 eb 10 00 5b d0 3f 00 01 d3 47 80
       1.137301e-39 1.553702e-39 5.86038e-39 -6.596014e-39
000160 fe 98 42 00 b3 5e 17 80 ba a2 b8 3d 95 f4 12 be
       6.116026e-39 -2.146188e-39 0.09015413 -0.14351113
000170 4b 81 f3 be 78 a0 0d be 4e 1e 2e 3e d2 67 b6 3e
       -0.4755958 -0.13830745 0.17003748 0.35626084
000180 89 f8 9c be 0b a5 ad 3e a9 00 e7 3e 77 37 1a 3e
       -0.30658367 0.3391498 0.4511769 0.1506022
000190 d6 cc c8 3f 18 a2 80 3f 8b 91 4c 3d be ce ec 3c
       1.5687511 1.0049467 0.049943488 0.028907176
0001a0 6e 98 fd bd f5 f6 b6 be b6 9a d2 bf c9 45 7c bf
       -0.12382589 -0.35735288 -1.6453464 -0.98543984
0001b0 8b 1d 2e bd 58 73 a1 3d 00 a7 a1 3c 97 56 54 bb
       -0.042508643 0.07883328 0.019732952 -0.0032400244
0001c0 61 9e 2c 3d a5 8e 19 bf cc 8e 95 bc 9b 80 ca 3d
       0.04214323 -0.59983283 -0.018256567 0.09887811
0001d0 9c 0a 67 3f ea 80 2a bc 43 79 1b 3d 33 3a 13 be
       0.90250564 -0.010406712 0.03795744 -0.1437767
0001e0 7c be 78 3d 6e a1 cf 3d da d7 fb bd af af d2 bd
       0.060728535 0.10138212 -0.1229703 -0.10287415
0001f0 26 08 56 bd ba ae 36 3f 16 4d 23 80 30 a3 2b 80
       -0.052253865 0.7136036 -3.241896e-39 -4.007467e-39
000200 c4 cf 1c 00 44 da 2e 00 9f 6f 3b 00 1a 7e 4c 80
       2.645926e-39 4.302732e-39 5.458336e-39 -7.024734e-39
000210 3d 43 28 80 62 a8 23 80 36 b5 1b 80 63 9b 06 80
       -3.69754e-39 -3.274647e-39 -2.544565e-39 -6.06755e-40
000220 89 76 3f 00 ea 26 9d 81 03 ec 3d 80 02 ed 44 80
       5.828159e-39 -5.772853e-38 -5.68663e-39 -6.329836e-39
000230 88 b8 42 81 ed d3 3a 00 56 e5 40 80 6e 0e 3b 80
       -3.5764567e-38 5.402483e-39 -5.959742e-39 -5.42347e-39

backbone.1.conv.0.1.bias f4 [16]
000000 40 78 01 81 92 b7 43 3f 28 9e b1 3f b5 38 be 3e
       -2.3779833e-38 0.7645198 1.387639 0.3715264
000010 7d d6 3d 3e 7f e0 72 3f f8 86 49 3f c8 3c d7 3e
       0.18538852 0.94873804 0.7872157 0.4203856
000020 0a 2b e3 3e 74 ef 72 b0 09 d5 ad 3e ad da 94 3d
       0.44368774 -8.837937e-10 0.33951595 0.072682716
000030 38 41 86 3f 19 d6 8e be 5c 56 04 80 00 cc 00 80
       1.0488653 -0.2789772 -3.98322e-40 -7.3181e-41

backbone.1.conv.0.1.running_mean f4 [16]
000000 04 00 00 00 86 b2 c9 bd 0e da a4 3e 6d 6a 31 3d
       6e-45 -0.09848504 0.32197613 0.043314386
000010 34 f6 14 3e 19 f0 80 3e ca a7 e9 3d aa a0 8d bd
       0.14547044 0.2518318 0.11408956 -0.0691541
000020 6a b0 ef be 02 00 00 00 1f 3c 0e 3d 1e 30 8e be
       -0.4681428 3e-45 0.034725305 -0.27771086
000030 7d b5 5d 3e a8 7e 8f 3c 04 00 00 80 04 00 00 80
       0.21651264 0.01751645 -6e-45 -6e-45

backbone.1.conv.0.1.running_var f4 [16]
000000 04 00 00 00 1a 70 56 3c 42 9d 58 3c e8 b2 09 3d
       6e-45 0.0130882505 0.013221087 0.033617884
000010 29 3b 70 3e 14 d1 76 3d df 34 2e 3b c3 83 d8 3e
       0.23460068 0.060257986 0.0026581807 0.42288026
000020 c8 b3 fd 3b 04 00 00 00 76 78 8f 3c de cd 17 3e
       0.007742379 6e-45 0.017513495 0.14824626
000030 66 1a 9b 3c b0 9a 30 3b 04 00 00 00 04 00 00 00
       0.018933486 0.002694767 6e-45 6e-45

backbone.1.conv.0.1.weight f4 [16]
000000 e0 8d 19 80 8f 7f 0c 3f 02 a3 37 3f 7d 3b 06 3f
       -2.346783e-39 0.5488214 0.71733105 0.5243452
000010 15 0a 93 3f 63 87 03 3f 9f 88 fd 3e d0 70 5f 3f
       1.1487452 0.5137846 0.49518296 0.87281513
000020 20 84 02 3f 4a df 13 00 76 63 80 3e 1a 0f 84 3f
       0.50982857 1.824975e-39 0.25075883 1.0317109
000030 c8 f6 2f 3f 4b 01 9c 3e 24 80 07 80 63 57 31 80
       0.68735933 0.30469736 -6.88817e-40 -4.531288e-39

backbone.1.conv.1.weight f4 [8, 16, 1, 1]
000000 b0 82 0b 00 e3 4a cc bd 89 ef a4 bc 86 6a 38 3e
       1.057072e-39 -0.09975221 -0.02013375 0.18009385
000010 71 bf e9 bd 47 a8 26 3f e7 bb 4d 3e 17 00 78 bd
       -0.11413468 0.6510052 0.2009121 -0.06054696
000020 31 f7 d9 bd 0d e9 12 80 7f 24 04 3e fc b3 88 3e
       -0.10642851 -1.736642e-39 0.12904547 0.26699817
000030 88 43 d5 3d b2 de 17 3c 76 85 01 80 a2 1f 09 00
       0.10413271 0.009269403 -1.39712e-40 8.37867e-40
000040 f6 2c 41 00 a1 43 b9 bd 07 ca 0b bf ce 9c af ba
       5.985436e-39 -0.09046102 -0.54605144 -0.0013398172
000050 9b e5 e4 3d 15 cb ce bc 55 7b e6 3c 65 31 19 3c
       0.11176606 -0.025243321 0.028134981 0.0093501555
000060 65 ac 5b 3d 03 cf 38 00 5f 54 fc 3c 82 32 01 bc
       0.053631205 5.21705e-39 0.03080195 -0.007885577
000070 f9 c8 58 be d3 53 8e 3e 2e d0 03 80 81 76 29 80
       -0.21170415 0.27798328 -3.50187e-40 -3.807767e-39
000080 7a f8 13 00 10 a3 d7 3e 97 bd 2c 3e 97 a0 dd 3e
       1.834011e-39 0.42116594 0.16869198 0.43286583
000090 aa a7 54 be 9f e3 44 be 5a e6 8d be a2 ac b8 3d
       -0.20767084 -0.19227456 -0.27714807 0.09017302
0000a0 1b 04 84 be bb c0 28 80 ea 39 e6 bd b7 3c c8 3e
       -0.25784382 -3.742559e-39 -0.11241515 0.39108822
0000b0 b3 fe 9e 3c e6 ec c4 bc 58 20 08 00 43 94 0c 00
       0.01940856 -0.024038743 7.46287e-40 1.155212e-39
0000c0 84 bc 18 80 78 9f 07 be 3c eb 3a be c6 4d a6 bc
       -2.271679e-39 -0.13244426 -0.18253797 -0.020300757
0000d0 89 50 03 3f d5 58 c9 be ca 8a 96 3d b0 bf b8 bb
       0.5129476 -0.39325586 0.07350691 -0.0056380853
0000e0 6f 37 65 be f1 25 3d 00 14 ce 1d 3e 45 e0 b5 be
       -0.22384427 5.615576e-39 0.15410644 -0.35522667
0000f0 a4 11 b0 3e 64 79 c3 3e 93 3e 38 00 96 ae 3b 80
       0.3438846 0.3817855 5.165235e-39 -5.480924e-39
000100 f5 e6 1b 80 5f f1 ae be 14 15 9e 3e 15 0a 23 bd
       -2.56241e-39 -0.34168527 0.30875456 -0.039804537
000110 ee c2 2c 3e e6 fb 1b bf 23 e0 96 3d 46 6a 85 be
       0.16871235 -0.6093124 0.073669694 -0.26057643
000120 c4 03 07 3e 2c ff 43 00 1f 11 20 3e 7f 00 e3 bd
       0.1318503 6.244517e-39 0.15631531 -0.11084079
000130 e9 19 53 be e4 4d da bc 1d c1 1e 00 ce 9b 2f 80
       -0.20615353 -0.02664847 2.824341e-39 -4.37216e-39
000140 30 0b c0 00 ad 43 1e be 85 eb 02 3b 0e 36 f6 be
       1.7636429e-38 -0.15455504 0.0019976806 -0.48088115
000150 80 80 a2 be 62 0f 2a be 7e c1 67 3e c0 1e 0e 3f
       -0.31738663 -0.1660743 0.22632405 0.5551567
000160 e9 4f c7 3e 5d 1f 4c 00 be 4e d0 3d 1b ff e4 3e
       0.38928154 6.990749e-39 0.10171269 0.4472588
000170 03 ec b0 ba 44 b9 51 3c aa ad 29 80 2c 37 28 00
       -0.0013498071 0.012800518 -3.827554e-39 3.693212e-39
000180 06 b1 90 81 ea 89 e6 3e d9 a4 a5 bd e2 97 f4 be
       -5.315126e-38 0.45027095 -0.08088083 -0.47772127
000190 9e 7e c8 be a0 3a 3b 3d ae 25 d4 3c 27 6d 4c bf
       -0.391591 0.045710206 0.025896873 -0.79854053
0001a0 ca 4b 24 3e dd 3d 1d 00 5f 89 fe bd 25 bf 99 3e
       0.16044536 2.685422e-39 -0.12428545 0.30028644
0001b0 3c cc 3c bd 50 e8 4b 3e b1 e0 2b 80 72 b9 25 00
       -0.04609321 0.19912839 -4.02953e-39 3.464439e-39
0001c0 6e cc 04 80 cd f4 af bd 64 69 47 3e 90 5b db 3b
       -4.40678e-40 -0.08591614 0.19473797 0.0066942647
0001d0 53 30 f6 3e a9 c4 25 3f 8e e5 70 be 66 3e 25 3e
       0.48083743 0.64753205 -0.23525068 0.16137084
0001e0 5a 99 95 bc 49 42 36 00 19 ab ef 3d b9 7a d1 be
       -0.0182616 4.982895e-39 0.11702556 -0.40913942
0001f0 0d e0 4d be 99 34 b5 bd cc ae 22 80 26 a3 32 80
       -0.20105 -0.08847923 -3.185112e-39 -4.650301e-39

backbone.1.conv.2.bias f4 [8]
000000 d4 9b d2 b7 f0 a5 8e 36 3c c0 2c b7 22 3a 1a b9
       -2.5106514e-05 4.2512474e-06 -1.0296757e-05 -0.0001470824
000010 29 c8 b4 38 c8 74 0e b7 5a 74 05 b9 5d cf 13 38
       8.6203516e-05 -8.49105e-06 -0.00012727213 3.5240653e-05

backbone.1.conv.2.running_mean f4 [8]
000000 7e 0c 5b 3f 6d 26 7a bf ee 79 88 3e 2f 57 7e be
       0.85565937 -0.97714883 0.26655525 -0.24837945
000010 4d 19 18 bf bd 9e 64 3e c6 c8 cf be 69 c0 1f 3f
       -0.59413606 0.22326179 -0.40582865 0.6240297

backbone.1.conv.2.running_var f4 [8]
000000 1e 53 f8 3d 98 c6 0e 3e 7c 61 65 3e b3 45 ab 3e
       0.12125228 0.13942945 0.22400469 0.33451614
000010 14 8e 37 3e 21 6e a9 3e b4 51 c6 3e 35 12 42 3e
       0.17925292 0.33091834 0.3873421 0.18952258

backbone.1.conv.2.weight f4 [8]
000000 e6 78 03 3f 12 b9 f5 3e c8 79 25 3f 65 8f 12 3f
       0.5135635 0.4799276 0.6463895 0.5725005
000010 83 10 0a 3f 58 ea 14 3f a8 00 12 3f 82 c2 07 3f
       0.53931445 0.5817008 0.5703225 0.5303117

backbone.10.conv.0.0.weight f4 [144, 24, 1, 1]
000000 51 a5 01 80 30 31 96 81 22 c2 01 80 70 ce 6b 81
       -1.5114e-40 -5.517188e-38 -1.61477e-40 -4.3310795e-38
000010 e0 af 50 01 bc a7 9b 81 02 47 1c 00 18 da 23 81
       3.832975e-38 -5.7178695e-38 2.596867e-39 -3.0094846e-38
000020 48 55 79 00 dc 54 23 01 c0 ac 85 81 40 51 96 81
       1.1142688e-38 2.9999255e-38 -4.910437e-38 -5.5217886e-38
000030 3e 9f 6b 81 90 82 43 00 fa 76 47 81 e7 09 3c 00
       -4.3276934e-38 6.199815e-39 -3.663589e-38 5.513682e-39
000040 8e dc 13 02 b0 95 23 01 30 af 06 01 f0 d0 11 80
       1.086315e-37 3.0045767e-38 2.4737604e-38 -1.636156e-39
000050 55 4c 55 81 6a 96 e2 01 ba 8e 3d 00 88 ec 45 80
       -3.9176687e-38 8.323512e-38 5.653166e-39 -6.4215e-39
000060 c2 af 50 be 94 3a 70 3d 1a 9c e0 3d 8e 65 c5 3d
       -0.20379546 0.058649614 0.10967274 0.09638511
000070 c2 a5 9a bc cf aa 58 bd 85 0e a3 3b 9a 70 9f bd
       -0.018877868 -0.05289727 0.004976096 -0.07785149
000080 8c 9c 20 3d 53 9b 24 bd cf 4e 04 3d d2 7f 2d be
       0.039211795 -0.04018719 0.03230172 -0.16943291
000090 8c c9 85 3d 55 73 d8 bd f3 35 1c 3d b0 a1 b9 bd
       0.06532583 -0.10568873 0.038137387 -0.090640426
0000a0 c1 ab b4 3b f0 22 0d 3c a3 e0 70 3d 2e 09 82 3c
       0.0055136387 0.008614287 0.05880798 0.015873518
0000b0 20 10 11 3e fe 9a 7f 3d 24 07 30 3d 67 a8 09 bd
       0.14166307 0.06240367 0.04297556 -0.033607867
0000c0 05 55 95 3d a6 f1 91 3c f2 91 97 3b 1b dc 1f bd
       0.07291607 0.017815422 0.0046255523 -0.03902827
0000d0 c2 d6 fb bd 20 00 7a 3d 2d 67 55 3d 11 14 99 bd
       -0.12296821 0.061035275 0.05210035 -0.074745305
0000e0 e7 47 85 3d cb 29 b2 bd dd cf 6f bd 84 d9 8c 3b
       0.06507855 -0.086993776 -0.058547843 0.004298391
0000f0 d0 66 f4 bc 6f 65 6e ba a3 66 a0 bc d0 b5 53 bd
       -0.029834181 -0.0009094094 -0.019580191 -0.05168706
000100 de 00 23 3d 85 b1 2b 3d 8c 4f 24 3e 04 4a 7d bd
       0.03979575 0.041917343 0.1604597 -0.061838165
000110 af 17 96 3a e7 aa 7c bd 67 ca 14 bd b0 e8 28 3d
       0.001145115 -0.061686423 -0.03632584 0.041237533
000120 5f 0d 08 bd f0 8b 08 be 74 19 ef 3c 9c c9 fa 3d
       -0.033215877 -0.13334632 0.029186942 0.12245485
000130 40 ce 07 bd df ef d4 bc dc b5 9c bc 1f 3c c0 3c
       -0.03315568 -0.025993286 -0.019129686 0.023466168
000140 89 26 8d 3c ed 66 1d bd 69 f5 b7 bd a2 df dd bb
       0.017230289 -0.038428236 -0.08982355 -0.006771044
000150 fc b4 14 3c 2b e5 0d 3d c7 f4 26 bd 1c ed d1 3d
       0.009076353 0.03464238 -0.04076078 0.10250303
000160 11 d3 7a bc 65 c8 7d 3d 28 20 e1 3c 7d aa d8 bd
       -0.015309111 0.06195869 0.027481154 -0.10579393
000170 df 65 16 bd ee 73 13 3d d3 27 fa 3d 95 23 6a 3d
       -0.036718246 0.03599923 0.12214627 0.05716284
000180 a6 23 37 3d 40 0c c7 3d 9e e7 ec bd f4 31 8e bd
       0.04471173 0.097191334 -0.11567615 -0.069431216
000190 fe 0f 8e 3d 1c c6 c8 3d 70 fa 44 3d 72 76 44 bd
       0.06936644 0.09803411 0.0480904 -0.04796452
0001a0 a9 84 10 be ac 09 81 3c 71 d8 30 bd 96 8c 5d bd
       -0.14113106 0.015751682 -0.043175165 -0.05408915
0001b0 6f fd 5f 3c d7 02 f2 bd 68 ba e5 bb 71 3e 16 bd
       0.013671263 -0.11816948 -0.0070107467 -0.036680643
0001c0 a9 a5 ee 3d 7b ba 3d 3d e2 54 97 3d f1 4f 07 3a
       0.11652691 0.04632042 0.07389237 0.00051617535
0001d0 a2 23 4e bd 11 8e b6 bd 42 92 15 bd fa bf 1c 3b
       -0.05032695 -0.08913816 -0.036516435 0.0023918138
0001e0 75 6f c7 3c 96 d2 b5 bd ed 34 3c bd 8d 95 e6 bd
       0.024345139 -0.08878057 -0.04594891 -0.11258993
0001f0 99 a8 cd bb aa b3 0b bd b9 e9 53 bd 04 70 54 3d
       -0.006276202 -0.034106888 -0.051736567 0.05186464
000200 67 b3 78 bd e6 b5 ca bc 9c 49 1d 3b f3 c7 ff bb
       -0.060717966 -0.024744939 0.0024000173 -0.007805818
000210 f1 f1 e0 bd f7 f7 11 be cb fd 9b 3d 29 1b 94 3d
       -0.10983647 -0.14254747 0.076167665 0.07231743
000220 b5 ab 1b bd e9 cd 41 3d 22 cb 8e 3d 8d 06 03 bc
       -0.03800555 0.04731551 0.06972338 -0.007997167
000230 ef 0f f7 3c b9 26 9e bc 8e cb 8f 3c d6 b9 78 3b
       0.030158965 -0.019305574 0.017553117 0.0037952564
000240 e8 f1 0b bc b0 a9 d1 3c e5 1a 32 bd 44 1b fe bc
       -0.008541562 0.025593609 -0.04348268 -0.03101886
000250 83 f5 2a bd 41 51 10 3c 6e c6 44 bd 5b 81 0d 3c
       -0.041738044 0.008808435 -0.0480408 0.008636798
000260 3c 48 8c bc fc 78 dc bc c4 c3 23 3c 4f 99 a0 bc
       -0.017124288 -0.026913159 0.009995405 -0.019604353
000270 00 bb a5 bd 45 42 94 bc e4 06 91 3c 6c 8b 92 bd
       -0.08092308 -0.018098006 0.017703481 -0.07155499
000280 38 fe 39 3c 0a a8 87 bd c8 23 3d bd 48 e6 92 bc
       0.011352114 -0.06623848 -0.0461767 -0.017932072
000290 c9 ff 21 be fc 89 7a 3d 42 da 83 3d 97 26 cd bc
       -0.1582023 0.06116675 0.06438114 -0.025042815
0002a0 7e 58 2a 3d 1b 0d 78 bd 7c 95 b2 3d 5c f2 de ba
       0.0415883 -0.060559373 0.08719918 -0.0017009485
0002b0 25 d6 d1 3c 6a 3b df bc 6c 80 bb bd 1e 4b c4 bc
       0.025614807 -0.02725001 -0.09155354 -0.0239616
0002c0 97 94 08 3e 88 3c 11 3e b8 a1 2a be 05 c4 47 3d
       0.13337933 0.14183247 -0.16663253 0.048770923
0002d0 c3 31 b2 bc 5f 4f ee bb 73 9c 37 bd fc 6d 02 be
       -0.021752244 -0.0072726454 -0.044826936 -0.12737268
0002e0 9d d1 90 bd dc b0 d5 3c dc 5f 11 be dc 2f 16 3c
       -0.070712306 0.02608531 -0.14196724 0.009166684
0002f0 93 ce b1 3d d9 9f 50 3a f7 b6 91 3c 9e 9a 8a 3d
       0.08681979 0.00079583895 0.01778744 0.06767772
000300 31 35 bd 3d a8 b2 33 3c 91 2c 37 3d bf d9 76 bd
       0.09238661 0.010967888 0.044720236 -0.060266253
000310 d9 67 be 3c 3f 5a 9e 3d 6d 91 7e ba 94 79 28 bc
       0.023242878 0.07732057 -0.0009711001 -0.010282893
000320 0b 2f d0 bd 74 1c 86 bd 33 ea 80 3b bf f2 7a 3d
       -0.10165223 -0.06548396 0.0039341687 0.061266657
000330 5f 42 3c 3d b4 30 a0 bc 62 8e 19 be f2 62 39 3e
       0.045961734 -0.019554473 -0.14995721 0.18104151
000340 6d 7c c4 3c 17 26 24 3d 8f 95 10 3d 89 91 d2 3c
       0.023985112 0.040075388 0.03529888 0.025704162
000350 ed ac 22 bd 73 6a eb bc 46 c1 e4 3d a6 a8 3b 3e
       -0.039715696 -0.028737282 0.111696765 0.18326053
000360 b0 18 0f be ee c8 16 3d e7 a0 ea 3d 1b 96 a7 bd
       -0.13974261 0.036812715 0.11456471 -0.08182927
000370 19 36 8a 3c b9 fd 04 bd 4b 07 8e bd a1 29 bb 3d
       0.016871499 -0.03246853 -0.06934985 0.091387995
000380 d4 d3 b4 3d 16 65 c7 bc 9f 41 a5 3d 56 66 4d bc
       0.088294655 -0.024340194 0.08069157 -0.012536606
000390 11 f1 87 bc 12 8d e2 bd 74 6c 84 bd 9d d6 a1 3c
       -0.016594442 -0.11062063 -0.06465998 0.019755656
0003a0 aa 5b 0c 3d a2 f9 90 bc 8a 22 b1 bc fb 29 e4 bc
       0.034267105 -0.01769716 -0.021622915 -0.02785205
0003b0 c5 d4 91 3c cf e0 85 3d 49 bc 0c be b9 ea f8 3d
       0.017801652 0.065370195 -0.137437 0.12154145
0003c0 dc 35 d4 3c 87 0a 60 bd f2 14 c2 bb dd 5f 20 3d
       0.025904588 -0.05469754 -0.005922907 0.039153922
0003d0 56 88 37 3d fa c8 4d bd 1b 57 c4 bb 7a a4 0c bd
       0.044807754 -0.050240494 -0.005991829 -0.034336545
0003e0 e9 58 f6 bc de 51 82 bc d6 60 6f bc b5 3c 91 bd
       -0.030071693 -0.015908178 -0.01461049 -0.07091657
0003f0 40 73 17 bd ed a0 32 bd 55 c5 9a bd dc 10 f7 bb
       -0.036975145 -0.043610502 -0.07557169 -0.0075398516

backbone.10.conv.0.1.bias f4 [144]
000000 a2 55 0a 80 e5 f3 71 bd cb 6f a8 3b d4 8e b7 3d
       -9.49074e-40 -0.059070487 0.00514028 0.08962789
000010 e7 47 c3 3d 5e a1 41 3d be 22 5b bd ee f7 b5 bd
       0.09535199 0.047273032 -0.05349993 -0.088851795
000020 f7 69 8d 3d c9 bb f2 bc 7d a0 19 3e 99 53 c9 3c
       0.06904977 -0.029630559 0.15002628 0.024575995
000030 8c 01 2c bc 86 c1 a4 3d 52 e5 4b 3e e0 a2 b1 bd
       -0.010498416 0.08044724 0.19911698 -0.08673644
000040 2a 84 1c 3c 62 29 98 3d e3 27 83 3c 9e b0 9e 3d
       0.009552995 0.07429768 0.01601023 0.07748531
000050 20 0e f7 3b 8b 96 c4 3b 17 a9 cc bd ef ea 85 bc
       0.0075395256 0.0059993914 -0.09993189 -0.016347377
000060 e1 9a ad bd 46 b3 d5 3c 9b 5d a9 bd 4c d3 08 3e
       -0.084768064 0.02608646 -0.08269807 0.13361853
000070 07 b1 cd 3d ba 2c c4 3d 5e ff b6 3c 9f 8a a3 3d
       0.10043531 0.095788434 0.022338565 0.07985424
000080 2f ec 16 be e2 af ab bc 45 0b 93 3d 6d 96 74 3d
       -0.14738534 -0.02095789 0.07179884 0.05971377
000090 d4 95 c8 bc 8e fd 89 3d 2b 00 a6 bc 33 44 96 3c
       -0.024485506 0.06737815 -0.020263752 0.018343067
0000a0 9f b7 92 3d e3 bd 1a bd de 8b ea 3c 2a da 22 3e
       0.07163929 -0.037778746 0.028631147 0.15903535
0000b0 7d c3 5a bd 6c ea 18 bd 8a 4e 13 bd c8 46 90 bd
       -0.05340909 -0.037332937 -0.035963573 -0.070447505
0000c0 39 d1 ad bc 66 49 cb bc 5a fd 87 bd cd 6c 09 3d
       -0.02121793 -0.024815273 -0.0664012 0.033551026
0000d0 f5 03 1b 3e 86 9e 03 be ed 9f ad bd 07 8f f5 3d
       0.15138228 -0.1285344 -0.08477769 0.11990171
0000e0 6e e9 e2 3c c5 c7 0b 3e e6 9c f7 bd 34 16 ed 3d
       0.027699199 0.13650425 -0.12090473 0.115765005
0000f0 5b 60 cb 3d f1 7b dd 3c 48 31 69 bd 3c 5b 6b 3d
       0.09930488 0.027036639 -0.056931764 0.057460055
000100 2f 5a ea 3a e8 53 a5 3d 98 3f 0f bd 61 24 3d 3d
       0.001787966 0.080726445 -0.034972757 0.04617727
000110 a4 7d 1d bd 6c 41 5d bd 4a 68 15 3d 87 17 45 bd
       -0.0384499 -0.05401747 0.03647641 -0.04811814
000120 43 be e5 3b c7 d1 ea bc cf 7e b8 3d ad d5 c8 bb
       0.0070112064 -0.028664483 0.09008562 -0.0061289878
000130 0c f0 23 3d b3 90 ed 3c 17 35 1f bd 33 48 cb bb
       0.04002385 0.028999662 -0.03886899 -0.006203675
000140 33 d0 07 3c af c7 9c bd 17 c4 15 bd 83 8d fe bc
       0.008289385 -0.07655274 -0.03656396 -0.031073337
000150 e0 7e 30 bc 64 ef 55 bd 58 74 7c bd 39 51 30 3e
       -0.010772437 -0.052230254 -0.06163439 0.17218484
000160 8a fc 48 3d 00 ff 73 bd 29 24 23 bd 82 df ee 3d
       0.049068965 -0.05956936 -0.039829407 0.116637245
000170 6e 96 01 bd 01 8d 07 3e 51 d0 71 bd 4b 61 78 3c
       -0.0316376 0.13237382 -0.059036557 0.015159915
000180 e7 75 e9 3c 54 ab b4 bc 63 24 82 bd d2 cc b8 3b
       0.028498603 -0.022054352 -0.063545965 0.005639651
000190 3f cf 8e 3d 92 6d 00 3e 2f 54 a3 bd 15 3c 07 3e
       0.06973123 0.12541798 -0.07975041 0.13206513
0001a0 59 7f 93 3d 1b bd a9 3d c1 cd 57 3d aa b6 be 3d
       0.07202024 0.08288022 0.052686457 0.09312184
0001b0 d5 13 1b be 56 51 b0 3d db e5 86 3b a8 72 64 3b
       -0.15144284 0.086092636 0.0041167564 0.003485838
0001c0 35 00 ea 3d 21 98 01 3e 34 7f af 3b 7b 9c 8c bd
       0.11425821 0.12655689 0.00535574 -0.06865784
0001d0 2f 55 d3 3c a7 90 0f 3c e2 b7 f1 bc e2 3f 34 bd
       0.025797455 0.008762515 -0.029506627 -0.044006236
0001e0 d0 fb ab bd e3 72 02 3e 8d 91 3a 3c cc a8 09 3e
       -0.08397639 0.12739138 0.011387241 0.13443297
0001f0 40 ea 85 3d 2b ac 1e 3e 9b 4a 91 bd 73 31 df bc
       0.0653882 0.15495364 -0.07094308 -0.027245259
000200 fd 66 97 3d 57 c3 ba 3d a9 24 00 3d f8 25 8b 3c
       0.0739269 0.09119289 0.03128496 0.016985878
000210 f4 b7 4c 3a 1e 4a d9 bd b0 de be 3d 92 e0 a2 3d
       0.00078093936 -0.1060984 0.09319818 0.0795299
000220 14 8c c0 bd 1b 2d 0b 3e 4d 63 1f 3c 5a 4c 39 3e
       -0.09401718 0.13591425 0.009728265 0.18095532
000230 ab c7 60 3e 24 6c 3a bd 56 10 3b bd 9c 79 37 3e
       0.21951167 -0.045513287 -0.045669876 0.17917484

backbone.10.conv.0.1.running_mean f4 [144]
000000 43 43 00 80 44 6a 23 b7 84 79 98 b7 92 62 f2 b6
       -2.4129e-41 -9.740299e-06 -1.8176397e-05 -7.223637e-06
000010 67 00 b2 b7 f5 e2 65 36 c1 2a 37 b7 a4 83 8d 37
       -2.121944e-05 3.4255766e-06 -1.0917604e-05 1.686981e-05
000020 2f d0 d4 b6 92 f6 0b b7 5a dc 2c 35 f8 c8 61 b7
       -6.342328e-06 -8.342455e-06 6.4395647e-07 -1.3457837e-05
000030 6d b7 00 b7 ee 48 8a b6 0b ff a2 b6 d6 53 82 36
       -7.672102e-06 -4.1212106e-06 -4.857667e-06 3.8840617e-06
000040 94 7a eb b6 1f 4b 9d b6 6f 5e 22 b7 2c 7b 33 37
       -7.0178157e-06 -4.68771e-06 -9.6779395e-06 1.069791e-05
000050 c9 a0 56 37 48 10 69 37 ec 9a 31 37 14 f5 e7 b6
       1.279283e-05 1.3891673e-05 1.0586093e-05 -6.9128673e-06
000060 87 64 f3 b6 c9 84 c5 b7 67 93 17 36 1e 61 a6 b7
       -7.2536673e-06 -2.3546063e-05 2.2586553e-06 -1.9833966e-05
000070 10 9e 92 b7 ef d7 43 36 8c dd 65 36 be d9 48 35
       -1.747816e-05 2.9182954e-06 3.4252616e-06 7.482266e-07
000080 50 57 6e b5 8a ad 3d b7 c0 bc 7e b7 aa 93 d2 36
       -8.8788966e-07 -1.1305683e-05 -1.5183527e-05 6.275678e-06
000090 e8 61 d4 34 94 2a e1 b6 f3 45 13 37 09 18 33 b6
       3.9559313e-07 -6.7104793e-06 8.778169e-06 -2.6687069e-06
0000a0 96 87 58 37 53 1a 67 b7 3e da eb 36 9e 02 8b b7
       1.2906172e-05 -1.3774802e-05 7.0289525e-06 -1.657131e-05
0000b0 71 87 b7 37 64 20 4c 37 16 85 a2 b7 05 98 89 37
       2.187837e-05 1.2166889e-05 -1.9373878e-05 1.6402462e-05
0000c0 a0 72 45 36 8d 1c f5 b4 e8 0d b3 b7 dc 54 de b6
       2.9422008e-06 -4.565558e-07 -2.1344938e-05 -6.6259945e-06
0000d0 33 f0 16 34 56 cc 1f 37 e1 71 c7 34 50 ba 99 36
       1.4057223e-07 9.524714e-06 3.7149496e-07 4.581445e-06
0000e0 68 ea 3d 37 78 5f 4c b6 a3 3b 02 37 c3 71 91 37
       1.1319855e-05 -3.045394e-06 7.762489e-06 1.7338321e-05
0000f0 3a 74 bb 35 11 8c 9e b6 0c 96 8a b6 fa 38 26 b7
       1.3966412e-06 -4.725073e-06 -4.1301882e-06 -9.907637e-06
000100 fa 3b b6 36 bd ab a1 36 3f 0c ad 35 bc f3 a6 36
       5.431005e-06 4.818167e-06 1.2893069e-06 4.97556e-06
000110 cc fb 25 b7 a3 20 d6 36 d2 56 42 35 ef 6d 81 b7
       -9.893392e-06 6.3814964e-06 7.239697e-07 -1.542919e-05
000120 cd 5a 76 b3 69 2a 4a b7 7e 45 4a b6 53 ca 38 35
       -5.735892e-08 -1.2050013e-05 -3.0140795e-06 6.883976e-07
000130 42 ac 59 b7 20 26 51 36 cb 0b 68 b7 1f fb 24 37
       -1.2974315e-05 3.1165619e-06 -1.3831023e-05 9.83363e-06
000140 97 eb 42 36 82 09 5b b6 6d 68 81 37 a3 2b 5a b7
       2.9045384e-06 -3.2639077e-06 1.5426625e-05 -1.30039725e-05
000150 b3 d3 92 36 3e 3f 28 36 1d e6 b3 35 20 f6 ab b6
       4.375784e-06 2.5070763e-06 1.3403511e-06 -5.12485e-06
000160 40 08 e1 37 c8 59 b1 b6 40 89 c0 35 24 b4 13 b7
       2.6825932e-05 -5.285463e-06 1.434506e-06 -8.803825e-06
000170 ae 8a 52 b7 a1 1c aa b7 5b 6f df b7 3c 26 a4 35
       -1.2549264e-05 -2.027891e-05 -2.6635526e-05 1.223008e-06
000180 c5 a6 8e 36 47 e4 97 36 a2 fb 75 36 7a 66 47 37
       4.2513443e-06 4.5267257e-06 3.6654314e-06 1.1885184e-05
000190 89 a5 ad 37 c8 d3 30 b7 b7 19 01 b7 03 ba 3f 36
       2.070029e-05 -1.0539727e-05 -7.694986e-06 2.856949e-06
0001a0 d6 28 89 37 0f 3d 49 37 3b 1c 7f b6 e2 a0 f8 b5
       1.6350688e-05 1.199475e-05 -3.8014393e-06 -1.8524263e-06
0001b0 ac a6 2b 37 8a f3 cd 35 c6 d5 d9 b6 d2 9a d1 36
       1.0231201e-05 1.5344569e-06 -6.4919905e-06 6.246709e-06
0001c0 b7 01 5f 37 73 46 1f b7 09 ba 96 b7 64 90 c5 b5
       1.3292235e-05 -9.493541e-06 -1.7968023e-05 -1.4719667e-06
0001d0 4e c9 22 35 58 ae 88 36 b9 76 9a b6 82 85 1e 35
       6.064264e-07 4.073412e-06 -4.603379e-06 5.9053866e-07
0001e0 11 65 89 b7 ec af 73 b7 d9 65 75 b6 9a f3 35 37
       -1.6378735e-05 -1.4524889e-05 -3.6567128e-06 1.0845159e-05
0001f0 5e e6 07 37 8c 08 bb b6 de 11 43 b7 75 a2 3e b7
       8.100264e-06 -5.5740293e-06 -1.1627066e-05 -1.13627075e-05
000200 2d 12 17 37 83 07 19 b7 74 dd 71 b7 a7 37 81 37
       9.004533e-06 -9.12126e-06 -1.44162805e-05 1.5403913e-05
000210 18 6c 5f b7 21 19 d2 35 3e 76 64 b7 5f 2c ca 37
       -1.3317003e-05 1.5653533e-06 -1.3617389e-05 2.4100938e-05
000220 7d a3 9c 37 3e 8d b0 b7 fb ad 67 36 78 9c 4f 35
       1.867278e-05 -2.1046606e-05 3.4522952e-06 7.73412e-07
000230 17 74 54 35 1e 49 7e b7 f2 fc 35 b6 bb f7 13 b6
       7.914509e-07 -1.5156604e-05 -2.7118335e-06 -2.2048905e-06

backbone.10.conv.0.1.running_var f4 [144]
000000 04 00 00 00 20 e7 c5 3d d4 d3 2f 3d e7 8a 27 3d
       6e-45 0.09663224 0.042926624 0.040903952
000010 e2 ed 9b 3d e2 8b 10 3d 00 7c dc 3c cc 1d 49 3d
       0.07613732 0.035289653 0.026914597 0.049100682
000020 3f c9 df 3d de 6d 2d 3d 75 b2 12 3d 61 b3 38 3d
       0.109270565 0.042341106 0.03581472 0.045092944
000030 0d 2f 21 3d e2 3a 00 3d 28 04 00 3e 56 bc 31 3d
       0.03935151 0.031306155 0.12501585 0.0433925
000040 4c 50 9e 3d 40 3c 39 3d f0 c2 37 3d 1b 39 83 3d
       0.07730159 0.045223475 0.04486364 0.064073764
000050 76 f9 85 3d e6 fd 7d 3d 35 1a d2 3c e4 f1 15 3c
       0.065417215 0.062009715 0.025647262 0.0091519095
000060 b3 f1 4f 3d cb 9c 8a 3d 32 ab 14 3d 29 b2 a8 3d
       0.05076761 0.06768187 0.036296077 0.08237106
000070 d9 a5 2b 3d 79 bb 94 3d 65 3b 6e 3d 29 25 ae 3d
       0.04190621 0.0726232 0.05816211 0.085031815
000080 07 25 12 3d 2e 46 8d 3d b1 a4 91 3d 14 ed 3b 3d
       0.035679843 0.06898151 0.071114905 0.045880392
000090 7e 6e 67 3d f8 ff 5a 3d 99 ef ee 3c 87 ad 17 3d
       0.056501858 0.053466767 0.029166983 0.037030723
0000a0 65 e4 15 3d c0 7c 82 3d 0a ae 65 3d 5d f2 b6 3d
       0.036594767 0.063714504 0.05607418 0.08932946
0000b0 57 1a 0c 3e dd 21 7a 3d 48 5f a3 3d d6 ff c0 3d
       0.13681923 0.06106745 0.07977158 0.09423797
0000c0 ff 8c 06 3d 1e af 9c 3d cd b6 c7 3d 45 b7 3b 3d
       0.032849308 0.076505885 0.09751663 0.045829076
0000d0 88 ad 1e 3d b9 ba b6 3d ed a8 58 3d fa f5 7e 3d
       0.03873971 0.08922333 0.052895475 0.0622463
0000e0 48 40 c2 3d e9 f3 05 3d 38 66 85 3d b4 f1 c7 3d
       0.09484917 0.032703314 0.06513637 0.09762898
0000f0 f6 59 7c 3d d3 01 ab 3d b0 53 ac 3d 9a a9 d8 3d
       0.06160923 0.08349957 0.084143996 0.10579224
000100 61 98 46 3d 99 53 1f 3d af 37 59 3d b9 37 80 3d
       0.048485164 0.038898084 0.05303162 0.06260628
000110 8f b1 a3 3d fc f7 a5 3d 6c 9f 33 3d c8 8c a7 3d
       0.07992851 0.0810394 0.04385321 0.08181149
000120 81 56 8c 3d 96 15 09 3d 02 2c ac 3d ec ad 8e 3d
       0.06852437 0.03346785 0.08406831 0.06966767
000130 e1 93 74 3d b6 85 7d 3d 03 44 8d 3d e3 8c 98 3d
       0.05971134 0.061895095 0.06897738 0.07448747
000140 b5 05 73 3d d1 bc c0 3c 6b 99 17 3d fe cf 66 3d
       0.059331615 0.023527535 0.037011545 0.0563507
000150 66 76 6e 3d 39 1f 41 3d 6f 01 0f 3d 80 17 63 3d
       0.058218382 0.047148917 0.034913477 0.055442333
000160 e6 50 ba 3d 29 da 5c 3d 45 56 3a 3d 39 30 9c 3d
       0.090974614 0.05391899 0.04549243 0.07626385
000170 68 1d 31 3d d9 25 f3 3d 3e 06 75 3d fb 1a 4d 3d
       0.043240935 0.11872453 0.059820406 0.05007456
000180 68 9a 57 3d bb 82 5b 3d 59 21 e9 3c 98 f8 97 3d
       0.052637488 0.05359147 0.028458284 0.07420462
000190 8d db 67 3d 55 5d 7e 3d 54 aa 46 3d 02 c6 3f 3d
       0.056605864 0.062100727 0.04850228 0.046819694
0001a0 fd 49 82 3d 7e bb ee 3c a1 36 97 3d 35 1e 41 3d
       0.063617684 0.029142138 0.073834665 0.04714795
0001b0 c0 58 75 3d 55 de c9 3c 56 7f 33 3d ea 2d 58 3d
       0.05989909 0.024642149 0.04382261 0.052778162
0001c0 2c f1 6f 3d 98 eb 0b 3d ff ae e1 3c bd aa 37 3d
       0.05857961 0.034160227 0.027549265 0.044840563
0001d0 65 36 b0 3d a8 22 81 3d d5 8c 71 3d 13 2a a7 3d
       0.08604125 0.06305438 0.0589722 0.08162322
0001e0 21 95 48 3d 34 e0 4a 3d ed c5 ac 3d 90 86 27 3d
       0.048970345 0.049530223 0.08436189 0.040899813
0001f0 c4 72 87 3d 96 e8 40 3d ad 8d f9 3d 4f 76 2e 3d
       0.06613687 0.04709681 0.12185226 0.042593297
000200 85 08 3f 3d a5 12 49 3d f4 a6 3b 3d 01 83 81 3d
       0.046638984 0.049090046 0.045813516 0.06323815
000210 3f 3f 9a 3d 70 70 7f 3d 6e 1d 81 3d 5a cc 92 3d
       0.075315945 0.062363088 0.063044414 0.07167883
000220 15 f7 b7 3d ac c4 22 3d 9e 3f 55 3d 09 1d 70 3d
       0.08982674 0.039738342 0.052062623 0.05862144
000230 43 4e 31 3d 0a f6 7d 3d 00 c9 8f 3d c8 51 83 3d
       0.043287527 0.06200222 0.070207596 0.06412083

backbone.10.conv.0.1.weight f4 [144]
000000 04 87 3d 80 14 66 2f 3e df 9a 08 3e d7 3a a9 3d
       -5.6504e-39 0.17128783 0.13340329 0.08263176
000010 f8 f7 08 3e d4 2f 05 3e 3e 6c 88 3d 78 0d 55 3d
       0.13375843 0.13006526 0.066612706 0.052014798
000020 5c 67 fd 3d 97 5f 0f 3e d7 3f 87 3d e4 23 0d 3e
       0.1237323 0.14001308 0.06603973 0.13783222
000030 f7 8c 00 3e f3 9f ac 3d b5 c0 09 3e 9c b1 e8 3d
       0.12553774 0.084289454 0.13452418 0.11362001
000040 12 59 0a 3e fa ba 5d 3d df 8c e6 3d 09 51 de 3d
       0.1351054 0.054133393 0.11257338 0.108553
000050 15 e9 18 3e f0 4f 3b 3e 9d ff 98 3c 46 67 4f 3c
       0.14932664 0.18292212 0.018676573 0.0126589
000060 58 9d e2 3d 31 59 14 3e 50 6c 7d 3d 16 91 cf 3d
       0.11065167 0.14487149 0.061870873 0.10135095
000070 fe d4 a8 3d df 86 1e 3e 04 c3 20 3e df 19 bb 3d
       0.0824375 0.15481137 0.15699393 0.09135794
000080 a3 4e db 3d b7 10 ca 3d 48 e4 30 3e 7b fb 1d 3e
       0.10708358 0.09866469 0.17274582 0.15427963
000090 2e 63 19 3e 5a 1e 01 3e d7 ab d7 3d a5 ac 1c 3e
       0.1497924 0.12609234 0.10530823 0.15300234
0000a0 5f e4 da 3d ca 28 0b 3e 10 2b 23 3e 47 49 4e 3d
       0.106880896 0.13589779 0.15934396 0.05036285
0000b0 c3 29 18 3e 59 13 fd 3d a8 f5 26 3e 68 11 dc 3d
       0.14859681 0.12357206 0.16304648 0.107455075
0000c0 79 23 0c 3e e0 6f 30 3e 98 6f 29 3e 81 ca a5 3d
       0.13685407 0.17230177 0.16546476 0.08095265
0000d0 55 19 92 3c 19 cb 02 3e 6d 24 2a 3e 53 f5 05 3e
       0.017834345 0.12772788 0.16615458 0.13081865
0000e0 01 5d 20 3e 78 15 65 3d e2 d7 f4 3d a8 6e cf 3d
       0.15660478 0.055928677 0.11955239 0.10128528
0000f0 fb b8 9e 3d bc 69 32 3e a4 0e 14 3e a5 64 02 3e
       0.07750126 0.17423147 0.1445871 0.12733705
000100 e6 ab e3 3d 07 bf c5 3d 14 1f 20 3e a2 a4 ff 3d
       0.111167714 0.09655576 0.15636855 0.12482573
000110 68 46 ea 3d b4 f7 e9 3d f1 a1 13 3e eb 62 09 3e
       0.1143921 0.11424199 0.14417244 0.1341664
000120 ca da 4e 3e 25 28 e9 3d 31 da bc 3d 01 b8 22 3e
       0.20200649 0.1138461 0.09221304 0.15890504
000130 d8 26 d8 3d 82 49 06 3e 53 84 33 3e eb e3 0e 3e
       0.10554284 0.13113979 0.17530946 0.13954131
000140 31 d8 24 3e b5 26 b9 3d d9 2e c7 3d c7 4d 01 3e
       0.16098095 0.09040586 0.09725732 0.12627326
000150 48 b2 b9 3d 5c fe b8 3d c3 1e d8 3d d5 dd b9 3d
       0.090672076 0.0903289 0.10552742 0.09075514
000160 06 0d ea 3d b2 1a fd 3d 89 5a 0c 3e 90 57 a4 3d
       0.11428265 0.12358607 0.13706411 0.08024514
000170 0a c6 9a 3d 3c 3b e3 3d a6 9f e6 3d 45 2e 11 3e
       0.07557304 0.110952824 0.11260919 0.14177807
000180 8f 74 55 3d b1 24 fb 3d 23 6e 9c 3d a2 67 27 3e
       0.052113112 0.12262858 0.076381944 0.16348127
000190 6d 19 da 3d 75 82 f5 3d 95 a6 0c 3e 87 31 a6 3d
       0.10649381 0.11987773 0.13735421 0.08114915
0001a0 9f 36 e4 3d 8c 82 32 3d de 85 11 3e 49 63 90 3d
       0.11143231 0.04358153 0.14211223 0.07050187
0001b0 88 ae ef 3d 94 6e 8b 3d ff 38 11 3e ed 17 1c 3e
       0.11703211 0.068082005 0.14181899 0.15243502
0001c0 9e 21 53 3d 03 84 b6 3d 05 ca c5 3d 85 5d dc 3d
       0.05154573 0.08911898 0.09657673 0.10760025
0001d0 e3 5f f7 3d 8f a8 c1 3d 3a b4 dd 3d 8f 3f 71 3e
       0.12078836 0.09455978 0.10825391 0.23559402
0001e0 89 b5 c3 3d 86 d1 f7 3d af 1c d9 3d 8d e5 5d 3d
       0.095561095 0.1210051 0.10601174 0.054173995
0001f0 41 c5 c0 3d 27 5e 5f 3d 2c d1 04 3e 0e a1 04 3e
       0.09412623 0.05453315 0.12970418 0.12952062
000200 34 7b a8 3d 39 be de 3d 15 5f d7 3d 25 72 24 3e
       0.08226624 0.10876126 0.10516182 0.16059168
000210 0e 9f 20 3e d2 f1 c4 3d 75 0d 95 3d 3a f7 d0 3d
       0.15685675 0.09616436 0.07277957 0.10203405
000220 89 36 fc 3d a6 b8 d1 3c 39 9a 18 3e 2f 7d 6b 3d
       0.12315089 0.025600743 0.14902581 0.05749243
000230 b0 e6 b5 3d cd 5f 1a 3e fc a4 1e 3e 6d f1 de 3d
       0.08881891 0.15075608 0.15492624 0.10885892

backbone.10.conv.1.0.weight f4 [144, 1, 3, 3]
000000 ec e4 35 01 fb d5 9e 01 54 2c 10 00 68 59 8e 00
       3.3408693e-38 5.834708e-38 1.48527e-39 1.3072713e-38
000010 e0 bc 27 81 89 90 05 00 71 68 bb 01 c2 aa 86 01
       -3.0808567e-38 5.11027e-40 6.8842817e-38 4.946885e-38
000020 18 73 b4 01 0e 94 e9 3d de ea 97 3c 95 54 eb bc
       6.628671e-38 0.11405192 0.01854461 -0.028726855
000030 4c b1 0d 3e a6 45 ea 3c 5c 64 f8 b9 09 c9 0d 3e
       0.13837165 0.028597664 -0.0004737702 0.1384622
000040 22 9f e3 bc e0 0c c8 3d d2 16 b1 3d c1 1a 46 3c
       -0.027785841 0.09768081 0.08646931 0.01209134
000050 45 9b 13 be 88 b8 19 3e aa 9b ec 3c 99 3b 7f bd
       -0.144147 0.150118 0.02888282 -0.062312696
000060 d9 00 d6 3c 00 79 9c 3c 4d 05 e2 bc 8e 74 1d bd
       0.026123451 0.019100666 -0.027590418 -0.038441233
000070 a4 35 d8 b9 36 1e f1 3c 92 40 6e bd 47 ef 62 bd
       -0.00041238696 0.029433351 -0.058167048 -0.055403974
000080 01 8f a3 bb 69 86 24 bd d7 3a 0a be 12 75 b1 bc
       -0.0049914126 -0.040167246 -0.13499008 -0.021662269
000090 c2 9a 04 be 7c 96 85 b8 79 f4 97 3c a6 ef 35 be
       -0.1294966 -6.369964e-05 0.01854919 -0.177672
0000a0 da b1 c7 3c 04 04 4d 3e 09 40 f2 bc 08 78 a6 3d
       0.024376798 0.20021063 -0.02957155 0.08128363
0000b0 3a d6 12 3d a6 7b ad bd 90 94 19 3d d4 54 ba 3d
       0.035848834 -0.0847085 0.037495196 0.09098211
0000c0 f9 2d 3c be ef ca 0b 3e dd db dc bc cb 09 90 bc
       -0.18376912 0.13651632 -0.026960308 -0.017582795
0000d0 27 db e2 bd 89 ed a6 bd 03 b2 95 bc 79 26 b7 bc
       -0.11076956 -0.08150775 -0.01827336 -0.022357212
0000e0 60 bb a5 3c 39 00 52 3d 8d a9 62 be 71 14 99 3d
       0.020230949 0.051269744 -0.22134991 0.07474602
0000f0 bb d0 f4 3c ab a2 cd 3d 51 9c 37 3d 3a ee 3e bc
       0.029884687 0.10040792 0.04482681 -0.011653477
000100 93 c2 25 3d 1c 97 b6 3c 03 6d 9c bc ef 3b 83 3e
       0.040468764 0.022288851 -0.01909495 0.25631663
000110 90 74 8c bd c4 11 fb bc 4f 90 0d 3d b1 57 bc 3c
       -0.0685817 -0.03064812 0.03456145 0.022991033
000120 61 eb b5 bd d0 0f d2 3c bf 93 16 be 88 c0 90 3d
       -0.088827856 0.025642306 -0.14704798 0.070679724
000130 7c 8a 69 3e 35 b9 08 be c3 ee 31 bc 8d ce f7 3b
       0.22806734 -0.13351901 -0.010860148 0.0075624646
000140 d3 74 ce bd 2a 56 1a 3e 44 c9 17 3e 13 44 a3 bc
       -0.10080876 0.15071931 0.1482287 -0.019929921
000150 b2 39 ed 3b 60 50 fd bd 41 12 9a 3b cc 12 47 be
       0.007239544 -0.12368846 0.004701883 -0.19440764
000160 41 51 f1 bc 43 a8 18 3d ba 13 45 ba a9 2a 2f bd
       -0.02945769 0.037269842 -0.0007517893 -0.042765293
000170 0c 09 23 3d a8 f1 9c bd 36 ca ed bd 7d 6d e2 bc
       0.03980355 -0.0766328 -0.11610834 -0.027640099
000180 52 3b 73 bd 72 13 b4 bd d1 a1 9e 3c b8 f4 fd 3a
       -0.059382744 -0.087927714 0.01936427 0.00193753
000190 2a 7a c5 bd 18 79 ed 3c e5 2b 08 3e 78 e3 d1 bd
       -0.096424416 0.028988406 0.13297994 -0.10248464
0001a0 0b d9 ab bd ea 4d 2b 3e 9a 85 9b 3d d5 76 94 bc
       -0.08391007 0.1672894 0.07593842 -0.01812307
0001b0 6c 8d 3d 3a c2 ca b2 3b 54 1c 59 bc 54 fc 2d 3e
       0.00072308513 0.0054562995 -0.013251383 0.16990787
0001c0 21 a2 b6 3d ac 48 52 3c b9 cf 74 3d db da 12 3e
       0.089176424 0.012834709 0.059768412 0.14341299
0001d0 5a f2 cc bb 7f 09 06 3d f5 d5 34 bb 25 d1 d1 3c
       -0.0062544765 0.0327239 -0.0027593349 0.025612423
0001e0 b8 4d c9 bd 22 e6 50 bd 64 d3 c8 bd 9a 12 21 3d
       -0.09829277 -0.05100072 -0.098059446 0.03932438
0001f0 b3 6b b1 bd bf d6 6c 3b d5 39 a1 bd 2e 60 3d bd
       -0.0866312 0.003613874 -0.07872359 -0.046234302
000200 7b 26 bf bd eb 64 b4 bd c8 b4 f0 bc 9c 37 0f bc
       -0.093335114 -0.08808311 -0.029383078 -0.008741286
000210 a5 7f 07 be 82 be 91 bd d6 97 28 3b 1c 59 9e bc
       -0.13232286 -0.071164146 0.0025725267 -0.0193296
000220 88 ec 63 3d c9 54 97 bd 05 54 38 bc 15 2e 2d 3e
       0.055645496 -0.07389218 -0.011250501 0.1691211
000230 b3 f3 d6 ba 04 75 b9 3d da ca d4 3d c2 af a7 bc
       -0.0016399532 0.09055522 0.10390253 -0.02046955
000240 ed 4b 58 bc 2b 6a 75 bc 13 c2 92 bc 04 2a 25 3e
       -0.013201696 -0.014978926 -0.017914807 0.16129309
000250 21 fc 5e be 32 66 14 bd 39 99 75 3c 78 1a 9e 3d
       -0.21775867 -0.036230274 0.014990144 0.07719892
000260 80 8d d5 3d b5 7d 3b bc c4 44 b6 bc c7 6c b4 3d
       0.104273796 -0.011443545 -0.022249587 0.0880981
000270 0f 50 4e 3d 82 ec 20 3e 58 66 3d bc 36 0d 24 3d
       0.05036932 0.1571522 -0.011560045 0.04005166
000280 4a 0a 78 bd 46 99 07 bc 40 3b 0d 3d 84 1e 92 bd
       -0.060556687 -0.008276289 0.034480333 -0.07134727
000290 9d 1a 03 be 96 fe 25 ba 08 0c a2 3d c7 27 28 3e
       -0.12803121 -0.0006332187 0.07912451 0.16421424
0002a0 0f 74 41 bb 46 b0 6a bd 8c be c7 bc 87 5c 1f 3d
       -0.002951864 -0.057297014 -0.024382852 0.0389066
0002b0 bd 2a 32 3e 5d 47 e8 3d d8 6a 01 3c 67 cd de bd
       0.17399116 0.113417365 0.007899009 -0.10879021
0002c0 05 01 28 3d e5 4d 7b bd 6e e4 bd bd 11 0c ef bd
       0.041016597 -0.061353583 -0.09272085 -0.11672223
0002d0 3a 26 73 3d 09 6f 61 3e 70 9b 4e 3c 1b 1e 15 3e
       0.059362628 0.22015013 0.012610301 0.14562266
0002e0 36 c2 91 3b df b6 ad 3d c5 71 25 bd d6 3a 14 3d
       0.0044482006 0.084821455 -0.040391702 0.036188923
0002f0 95 ae 1a bd de 4e 20 bd c6 7c aa bc 96 cc 9e 3b
       -0.03776415 -0.039137714 -0.02081145 0.004846166
000300 2b e2 f1 bc 15 d2 df bd d1 c2 23 bc 07 50 10 3e
       -0.02952679 -0.10928742 -0.009995178 0.14093028
000310 ef d7 5b 3e 3d 86 44 3d ee d9 1c 3d 2d 33 b6 bc
       0.21469091 0.047979582 0.03829377 -0.0222412
000320 93 6d 8a bc c0 12 2b 3d 9b f5 ad 3d aa 1c 8f 3c
       -0.016897952 0.04176593 0.08494111 0.017469723
000330 96 33 43 3d 1c c5 a0 3d d9 b7 54 3d 32 66 27 3c
       0.047656618 0.07850096 0.051933143 0.010217236
000340 30 fb b2 3c 4a d4 14 3c 67 1d 4c 3d 8c 68 74 bb
       0.021848291 0.009083817 0.049832728 -0.003729376
000350 6c 7a 0a 3d 45 d0 47 3c c9 dd 9e 3d c9 f7 01 bc
       0.033808157 0.012195651 0.07757146 -0.007932612
000360 00 fb 0e bd 63 b4 73 bd aa 4d 15 bd a0 16 1a 3e
       -0.03490734 -0.059498202 -0.03645102 0.15047693
000370 f1 9e b6 3d a5 52 8b be 58 60 76 3d 99 9d 65 3d
       0.089170344 -0.2721149 0.060150474 0.0560585
000380 dc 52 ba bd 45 ff e4 bc 02 b5 51 3c 79 7d 28 3c
       -0.090978354 -0.027953753 0.012799503 0.010283821
000390 e7 4b 96 bd 71 e9 f6 bc ea 42 1f bd c1 9c d9 bd
       -0.07338696 -0.03014061 -0.038882174 -0.106256016
0003a0 78 26 e4 bd 63 9a 1b bd 68 b2 ca bc b2 aa cf bb
       -0.1114015 -0.03798903 -0.024743274 -0.006337487
0003b0 71 98 35 bc ac 53 e8 3c 25 48 f7 3d 89 bd bd 3d
       -0.011083708 0.02836021 0.12074307 0.092646666
0003c0 9f 7e c6 3c ff 73 9d 3d 96 b1 95 bc f8 78 5f 3d
       0.0242303 0.0768814 -0.018273156 0.054558724
0003d0 40 30 da bc ab 06 cf 3c 39 0a 66 3d 61 a7 02 3e
       -0.026634336 0.025271734 0.056162093 0.12759162
0003e0 17 1a 54 bc 19 0b ab bd 4e 6a 6b be 66 c1 ba bd
       -0.012945673 -0.08351726 -0.22989771 -0.09118919
0003f0 36 af 97 3d 7d 56 ef 3d c6 b1 7d 3d 88 ed 8a bd
       0.07406466 0.11686418 0.061937116 -0.06783587
