ML Model/centernet_model/e-2-1.477.pth (torch_old, 465965 bytes, 205 tensors)

backbone.0.0.weight f4 [16, 3, 3, 3]
000000 9b 8d c3 ab c4 20 7e 2a d0 82 c8 ab 66 73 ad 2c
       -1.3894887e-12 2.25711e-13 -1.4247162e-12 4.9297675e-12
000010 9e 7d c7 ab 14 98 ff 29 6d 4a 42 2b ee aa 93 ac
       -1.4174666e-12 1.1350656e-13 6.902593e-13 -4.1969683e-12
000020 d8 1f e7 2b 7a d1 5f 2b 07 e9 06 2b 80 e0 5d a8
       1.6422376e-12 7.951622e-13 4.7929754e-13 -1.2316645e-14
000030 12 d5 ce aa f8 26 ac ac c6 47 94 29 84 ca 97 2b
       -3.6740798e-13 -4.8928604e-12 6.584971e-14 1.0785405e-12
000040 a7 5d a8 ac c9 f7 18 ab dd 0b 1a ac 40 3b c1 2b
       -4.7852447e-12 -5.434512e-13 -2.1891302e-12 1.372992e-12
000050 57 bb 92 2b a8 b7 b6 aa 5e a3 40 ab 26 21 7e ab
       1.0425921e-12 -3.2457132e-13 -6.843882e-13 -9.028493e-13
000060 cd 12 79 2c 0e ff 5c ac ee 52 b8 ab a8 80 2c bd
       3.5395465e-12 -3.1405464e-12 -1.3097004e-12 -0.042114884
000070 26 67 08 3b 25 86 4c 3d de d8 07 3e d9 0d c9 3e
       0.0020813434 0.049932618 0.13266322 0.39268377
000080 6c 31 86 3d 69 cc 37 be 8c f9 86 be 0c d2 01 bd
       0.06552395 -0.1794907 -0.26362264 -0.031694457
000090 57 b6 0b bd cb 60 bd 3d 8c c4 3a 3d 55 6e 88 3e
       -0.03410944 0.092469774 0.045597598 0.26646677
0000a0 85 4a 42 3f 95 31 e7 3d 4b f8 a8 be 9f 70 19 bf
       0.7589496 0.11288754 -0.33001933 -0.5993747
0000b0 ff c4 93 bd 88 36 c7 3c ce ea 36 3d 65 bb a5 3d
       -0.072153084 0.024317995 0.04465752 0.08092383
0000c0 3b 27 36 3d b0 8e 38 3e 53 af 47 3c 03 81 66 bd
       0.044471007 0.18023181 0.012187797 -0.05627538
0000d0 51 c2 17 be 7e 32 6f 3b cc f6 cf bd 7f d6 cc 3d
       -0.1482022 0.0036498602 -0.10154495 0.100018494
0000e0 05 ce d0 bb 9c c5 cc be 72 b0 3e 3f 17 2e 9f be
       -0.0063722157 -0.39994514 0.74487984 -0.3108985
0000f0 d8 71 2a bf ed 24 6e 3f a0 d5 95 be 71 22 ec bd
       -0.6657996 0.93025094 -0.29264545 -0.11530007
000100 81 97 48 3e 53 52 25 bd 57 ff 51 bf 80 a8 ac 3f
       0.19589044 -0.040361714 -0.8203024 1.3488922
000110 80 37 08 bf 47 ce 86 bf 01 7a be 3f e5 0d ed be
       -0.53209686 -1.0531701 1.4880983 -0.46299663
000120 f0 58 05 3b 0e c6 11 3b 47 d2 7a 3d 7f 5c 34 be
       0.00203472 0.0022243294 0.061235692 -0.1761341
000130 5f a0 cf 3e aa 7b 12 be a2 e4 7d be d5 bb ed 3e
       0.4055204 -0.14304987 -0.24794248 0.46432367
000140 54 cb 01 be e3 36 ad bb d7 cc 5a bd 87 c7 95 3d
       -0.1267522 -0.005286084 -0.053418007 0.073134474
000150 c4 aa 65 3d 07 cb 45 3e bb 27 95 be 65 80 9f 3c
       0.056071058 0.1931573 -0.29131874 0.019470403
000160 29 42 9c 3e ab 68 ae be 98 1e 9b bc 58 fd a1 bd
       0.30519226 -0.3406423 -0.018935487 -0.079096496
000170 5c d9 93 3d a1 91 2c 3d 91 f2 02 3f d1 8c 20 bf
       0.072191924 0.04213107 0.51151377 -0.6271487
000180 a5 06 4a 3d 8d bd 24 3f ea e4 35 bf b1 5f e3 bc
       0.049322743 0.6435173 -0.7105242 -0.02775559
000190 2e 2a 27 bd 0f cf 4c 3c 1c c9 10 3d af f2 9c 3d
       -0.04081171 0.0125005385 0.035348043 0.07663476
0001a0 6f 72 a2 bd e2 40 a5 bb 27 35 ab 3d d2 3c 06 be
       -0.07931983 -0.005043135 0.083597474 -0.13109139
0001b0 80 42 8d bd cb cc d1 3c 18 3b cc 3c 3d 9d e6 3c
       -0.068974495 0.025610348 0.024930522 0.028151149
0001c0 da c6 96 bd b2 97 93 bd a5 25 10 3e 85 b2 8e bd
       -0.07362147 -0.07206668 0.1407686 -0.06967644
0001d0 12 45 8e be 4b 17 a2 3c d8 b8 11 3d af 9a 91 bc
       -0.2778707 0.019786498 0.03557667 -0.017773954
0001e0 19 b5 b8 3d 47 35 59 be 27 bf 8a be 53 02 64 3e
       0.09018917 -0.2121173 -0.27098963 0.22266512
0001f0 ee 0f 4c be 63 6d 00 bf 44 94 89 ba c2 16 cd 3c
       -0.19927952 -0.5016691 -0.0010496457 0.025035266
000200 80 ff 1f bd 14 fb b8 bb 40 34 8d bd 0b c6 99 bd
       -0.039062023 -0.005645165 -0.068947315 -0.07508477
000210 75 16 f8 3c 79 76 6a bd 81 9f e1 bd 28 75 27 3e
       0.030284146 -0.05724189 -0.11016751 0.16353285
000220 99 12 2c 3e 09 02 7a be db 4b 01 3e 07 37 25 3f
       0.1680397 -0.24414839 0.12626593 0.6453709
000230 39 08 77 3e 4f d5 28 be ce 38 1c 3f 57 e4 28 3f
       0.2412423 -0.16487621 0.6102418 0.6597342
000240 81 7b 87 3c 15 5a 06 be 00 6a 16 3c 40 1e ff bc
       0.016538383 -0.13120301 0.009180546 -0.031142354
000250 c4 d2 7b be 2b 95 13 be 45 6a df bc 39 6e 54 be
       -0.2459212 -0.14412372 -0.027272353 -0.20745172
000260 3f c8 1d be 30 42 16 be e9 ac 91 bd a0 de 69 3e
       -0.15408419 -0.14673686 -0.07113058 0.22838831
000270 42 86 2b bd e3 83 ce be a5 12 03 be 01 2a 1f 3e
       -0.041876085 -0.40334997 -0.12800081 0.15543367
000280 f5 a6 ce be 6b 4f fc be cd 25 46 bc 39 79 6e bc
       -0.40361753 -0.4927934 -0.012093973 -0.014555269
000290 de 3f be 3b e3 10 e9 3e 9a 4b 0c be 42 03 57 be
       0.0058059534 0.45520696 -0.13700715 -0.20997337
0002a0 c2 72 06 3e a9 4f e2 bd d4 2f 9e bd 19 d6 60 bd
       0.13129714 -0.1105035 -0.07723966 -0.05489168
0002b0 ba f1 11 bc e8 9a e8 3c 1a e7 6b 3f 03 aa 8b be
       -0.00890773 0.028394178 0.9214951 -0.27278146
0002c0 21 8e f0 be 88 7d 80 3e 5f 29 75 be a5 a9 c9 bd
       -0.46983436 0.25095773 -0.23941563 -0.0984681
0002d0 50 71 a3 3c 71 8f 9e 3c 7f 1d cc 3b 1b 18 5d 3e
       0.019951493 0.019355508 0.006229102 0.21591227
0002e0 b4 cd 96 bd 37 41 09 be cb fe 64 3d ba c7 42 bd
       -0.073634535 -0.13403784 0.055907052 -0.047553755
0002f0 5c 5a 03 bd 36 ca 09 3d 2f 88 d3 bb e2 f8 e6 bd
       -0.032068595 0.03364011 -0.0064554433 -0.112779394
000300 49 76 86 bb 85 81 d9 3d e0 b9 6c 3e 5a cb 31 bc
       -0.004103456 0.10620407 0.2311778 -0.010851705
000310 6f 6f 2b 3e 3a 49 be 3e ba 2d 8d bc 17 34 a9 bd
       0.16741727 0.37165242 -0.017233718 -0.082618885
000320 bd 8c 36 be 87 04 05 3c 02 f3 51 3e ef fd bc 3e
       -0.17827125 0.008118755 0.20502856 0.36912486
000330 31 b0 c7 3b d0 7c b3 3e f2 02 13 3f 95 90 0b bc
       0.0060940017 0.35056162 0.5742637 -0.008518358
000340 9a be 2c bc 72 08 11 bd 39 e9 d1 3a b0 c6 bb 3c
       -0.01054349 -0.035408445 0.001601494 0.02292189
000350 c9 7f d5 3d 82 88 87 3c 73 86 93 3d f0 50 02 3e
       0.10424764 0.016544584 0.072033785 0.12726188
000360 0f 09 48 3d f7 a8 21 3d 16 f6 0a be 85 b1 3d be
       0.048836764 0.039467778 -0.13570437 -0.1852475
000370 6c d5 2f 3f a9 f9 05 bf d7 92 ad 3c 87 77 39 3f
       0.6868503 -0.52334076 0.021188183 0.7244801
000380 52 15 31 bf 0b 52 23 bd 3e 52 28 3e bf f1 57 be
       -0.6917316 -0.039873164 0.16437623 -0.21088313
000390 4e 76 05 be c3 dc 8a 3f 5e 48 6c bf d3 b8 3b 3c
       -0.13033411 1.0848621 -0.92297924 0.01145764
0003a0 a2 cb 85 3f aa 02 7c bf 67 3b 3d 3d ea 1e 8c bc
       1.0452769 -0.98441565 0.04619923 -0.017104585
0003b0 a3 d8 1d bc 21 b3 f3 bd 50 2f cb 3e 71 2d ab be
       -0.00963417 -0.118994005 0.39684534 -0.33433107
0003c0 9e 2a ec 3b 1a 82 cb 3e 49 02 c9 be 86 75 e6 2a
       0.007207229 0.39747697 -0.39259556 4.0937756e-13
0003d0 3e 21 b5 ac 82 a3 7a ac b6 fd 09 2c cf 0e 9a 2c
       -5.14802e-12 -3.5617902e-12 1.9609709e-12 4.3785873e-12
0003e0 52 e6 d3 aa 93 45 60 ac 20 24 bd ab 3d cf 50 2c
       -3.7640946e-13 -3.1870936e-12 -1.3439284e-12 2.9673618e-12
0003f0 b3 9b 2d ac 04 aa 83 ac 8d e1 68 ac 48 51 81 2c
       -2.467121e-12 -3.7421195e-12 -3.3094389e-12 3.6754245e-12

backbone.0.1.weight f4 [16]
000000 38 3f e6 2c 86 03 2c 3e db b3 46 3e 62 d6 66 3e
       6.544012e-12 0.16798219 0.19404547 0.22542718
000010 1f c4 0b 3e af 92 1d 3e 30 e2 93 3d 68 de 85 3e
       0.13649033 0.15387987 0.07220876 0.26146245
000020 be cf ab 3d 8b 38 8e 3a e0 1d de 3e d7 63 cc 3d
       0.08389233 0.0010850591 0.43382168 0.099799804
000030 1f 3b 5c 3e d9 b8 96 3e 0e 0a d6 33 5c a7 49 2f
       0.21506928 0.29437903 9.9669805e-08 1.8340301e-10

backbone.0.1.bias f4 [16]
000000 cd 83 2f 30 bc fd 13 3f 17 fe b4 3e c3 bc 9a 3e
       6.385193e-10 0.5780904 0.35350105 0.3022214
000010 b7 ad 77 3f 5f 2b 27 3f 23 70 02 3f 78 3d 0d 3f
       0.9674944 0.65300554 0.5095236 0.5517192
000020 98 a9 1e 3f bf 12 cc 3a 5e a8 92 be 01 5a 77 3f
       0.6197753 0.0015569552 -0.2864408 0.9662171
000030 c1 ee e8 3e c4 68 c8 be b7 36 37 2d bf 3e 18 2c
       0.45494655 -0.3914243 1.0414495e-11 2.163533e-12

backbone.0.1.running_mean f4 [16]
000000 ca 6a 1b 2f d5 0a 5d 42 ab 47 01 42 07 23 c5 c1
       1.4135107e-10 55.26058 32.31999 -24.642103
000010 09 29 14 c3 00 e5 02 c2 2d 5e 07 41 24 e5 60 43
       -148.1603 -32.723633 8.460492 224.89508
000020 47 a1 9d bf c1 18 25 b0 a2 02 ae c2 75 b6 22 43
       -1.2314843 -6.006183e-10 -87.00514 162.71272
000030 2e 7e ac 42 a7 7c ca 42 76 c1 0e ae 98 2a 1d b1
       86.246445 101.24346 -3.245889e-11 -2.2870719e-09

backbone.0.1.running_var f4 [16]
000000 bc f9 da 23 ab 3e 2e 45 e7 cd 0a 46 52 c1 cc 44
       2.3741374e-17 2787.9167 8883.476 1638.0413
000010 45 60 22 46 aa 38 dc 45 1f 3c 24 45 5f 9a bc 46
       10392.067 7047.083 2627.7576 24141.186
000020 47 f1 b7 45 f5 cc 06 25 62 f1 9c 45 9b 12 44 46
       5886.1597 1.169209e-16 5022.173 12548.651
000030 b8 8b 9b 45 06 0a c3 45 e1 e8 1d 22 d5 33 82 26
       4977.465 6241.253 2.1400753e-18 9.034611e-16

backbone.1.conv.0.0.weight f4 [16, 1, 3, 3]
000000 aa de 84 2b d2 df a4 2b 34 dd ea 29 e6 5d 15 2c
       9.440966e-13 1.1715023e-12 1.043006e-13 2.1226298e-12
000010 dc f1 9e aa 8b a0 b4 b2 f6 00 13 ab e4 14 3e 2b
       -2.8234262e-13 -2.1027764e-08 -5.2226225e-13 6.753055e-13
000020 12 ad c1 aa 59 f3 bf 3c d9 30 dc bc 11 07 b9 3d
       -3.440378e-13 0.023431467 -0.026878761 0.09034551
000030 4b 5e ba bb a8 9f 25 be 39 4f 3e 3f fc 19 0c 3d
       -0.00568751 -0.16174185 0.74339634 0.034204468
000040 07 61 b6 3d aa c3 4d bf 1f 7b 17 bb 09 51 8c bc
       0.08905225 -0.80376685 -0.0023114157 -0.017128484
000050 cb c2 20 be f3 28 e0 3a 4a 7b 9b 3d 17 d4 96 3f
       -0.15699308 0.0017102048 0.07591875 1.1783475
000060 2d 5d 30 bc 58 a9 32 bd 9d dc 23 bd 1f 37 d2 bd
       -0.010764402 -0.04361853 -0.040005315 -0.1026442
000070 38 97 bc bd 66 c3 df bd 18 76 38 3d 8a 20 42 3f
       -0.0920853 -0.10925941 0.045034498 0.758309
000080 db c7 a6 be ea 06 41 bd 37 5c 45 bd 8e 0d 4c be
       -0.32574353 -0.047125734 -0.048183646 -0.19927046
000090 97 e9 17 3f b7 4d f7 3f 04 93 e2 3e 81 45 69 3e
       0.59340805 1.9320592 0.4425279 0.2278042
0000a0 fb 01 df 3e ec 3b 29 3e f8 c9 5d bf 98 78 0a c0
       0.43556198 0.16526765 -0.86636305 -2.1636105
0000b0 d6 71 47 bf 73 fd 95 3b 1a 78 28 3e d2 7d 14 be
       -0.77908075 0.0045773326 0.16452065 -0.14501122
0000c0 59 de 69 3e 22 61 be 3e bd ee de bf d1 4c 3e 3d
       0.22838725 0.3718348 -1.7416607 0.046459977
0000d0 3a 95 9f 3f 7e 5f 90 3e ed 34 35 bc 9b af b7 3d
       1.2467415 0.28197855 -0.011059982 0.08969041
0000e0 57 d5 9f bd 35 fd 24 3c 71 11 05 3a 06 52 5a bf
       -0.07804363 0.010070135 0.00050761463 -0.8528141
0000f0 7d 13 aa bc c9 8f 6e bd e2 3c 7a 3f 4f d7 00 bf
       -0.020761246 -0.058242593 0.9774915 -0.50328535
000100 30 50 87 be 2f 53 43 3f fd b6 1a c0 ef 87 ae be
       -0.26428366 0.76298803 -2.4174187 -0.34088084
000110 e2 12 2b 40 d9 e8 00 bf d9 77 41 be 14 95 20 3f
       2.6730275 -0.503553 -0.18893375 0.62727475
000120 98 99 c8 bc 72 16 05 3e ea 72 a6 bd f5 72 d6 3c
       -0.024487302 0.12996843 -0.08127387 0.026177863
000130 8f 03 8e bf 5e 57 46 3e 0e 10 56 3c 9c fe ab 3c
       -1.1094836 0.19369265 0.013065351 0.02099543
000140 d8 e4 de bc 2a 32 a2 31 22 4e 9c 31 21 71 96 31
       -0.02720873 4.7205235e-09 4.5490802e-09 4.378436e-09
000150 88 bd df af b1 68 1f b0 f8 89 a0 b1 9b c8 59 31
       -4.0698134e-10 -5.799264e-10 -4.672298e-09 3.1691687e-09
000160 58 03 c3 b0 ce 49 49 b2 d4 06 ed 3d 5b 49 f6 bd
       -1.4189068e-09 -1.1716521e-08 0.11573568 -0.1202571
000170 7a db f0 be c7 3b 37 be b1 e1 27 3e 5c 51 c7 3e
       -0.47042447 -0.17893897 0.16394688 0.3892926
000180 6e a3 d4 be 0d ef 8a 3e ad c6 d4 3e 3f 70 41 3e
       -0.41530937 0.27135506 0.41557828 0.18890475
000190 b3 af cf 3f d0 65 83 3f e6 08 a9 3d f6 26 9a 3d
       1.6225494 1.0265446 0.0825365 0.075269625
0001a0 d1 27 f4 bd 7a de ad be 11 0e ce bf cb 70 7a bf
       -0.11921657 -0.339588 -1.6098043 -0.9782836
0001b0 24 e7 8c bb b2 4a 55 3d d3 f9 53 bc 79 b4 bb 3c
       -0.004300015 0.052073188 -0.012937981 0.022913205
0001c0 d3 d3 3e 3d 32 b8 1f bf 60 bf 49 bc 07 61 65 3d
       0.04658873 -0.62390435 -0.012313694 0.056000736
0001d0 c3 9a 63 3f 47 52 5d bd 1a 30 3e 3c d2 c6 cb bd
       0.8890802 -0.054033544 0.011608148 -0.09950031
0001e0 32 c2 b7 3c 00 29 43 3d 2e 9e d4 bd 1b fb ea bd
       0.022431467 0.047646523 -0.10381733 -0.11473676
0001f0 fa bd df bd f1 ed 3e 3f 46 b1 87 aa 98 17 ef aa
       -0.10924907 0.7458182 -2.4103825e-13 -4.24713e-13
000200 b4 0e a8 aa d4 35 28 ab f3 f3 ec aa 81 c3 00 aa
       -2.9852997e-13 -5.976029e-13 -4.2091295e-13 -1.1436513e-13
000210 90 a7 95 a9 9b 37 8d 2a 53 a2 e5 2a 3e 8c 8c 2a
       -6.645997e-14 2.5085215e-13 4.0791207e-13 2.4966308e-13
000220 45 32 14 2c af 08 32 2c 88 40 ba 2b 4a 02 66 2b
       2.105997e-12 2.5300142e-12 1.3234006e-12 8.171559e-13
000230 0f 8a 0e 2c 92 3f 61 ab 6d 15 d8 ab 31 d0 d6 ab
       2.0256052e-12 -8.002428e-13 -1.535367e-12 -1.5263399e-12

backbone.1.conv.0.1.weight f4 [16]
000000 13 de 6a ab 5f ca 07 3f 71 b3 37 3f c4 65 02 3f
       -8.344169e-13 0.5304317 0.7175818 0.5093653
000010 91 9a 90 3f c9 89 02 3f 7c f2 13 3f f4 09 5b 3f
       1.129717 0.50991493 0.57791877 0.8556206
000020 8b 00 f8 3e 45 f4 05 bb cb 97 61 3e a8 00 8a 3f
       0.48437914 -0.0020439785 0.2203056 1.078145
000030 60 a6 2d 3f 1d 3f 8b 3e 7a ff 5d af fc 34 b0 2c
       0.67831993 0.2719659 -2.0190596e-10 5.0081033e-12

backbone.1.conv.0.1.bias f4 [16]
000000 d3 73 99 2b 00 7b 70 3f 5d 19 bb 3f 16 99 ee 3e
       1.0903452e-12 0.93937683 1.4617115 0.4660117
000010 40 a2 6f 3e a2 eb 85 3f 43 85 73 3f bb 02 d0 3e
       0.23401737 1.0462534 0.95125216 0.40627083
000020 c3 26 10 3f cb ae a1 bb a9 24 c3 3e 73 d0 54 3e
       0.56309146 -0.004934167 0.38113907 0.20782642
000030 87 2c 85 3f d8 2f a6 be 1c 9c 12 ab a8 4e 6d ae
       1.0404214 -0.32458377 -5.2086265e-13 -5.3957422e-11

backbone.1.conv.0.1.running_mean f4 [16]
000000 16 29 92 24 e9 ff 1f bb 19 81 ad 3e 8f 39 13 bd
       6.338701e-17 -0.002441401 0.33887556 -0.035943564
000010 40 af 8b bb 93 30 99 3e 5a 9c cf 3c 1f 86 b6 bd
       -0.004262835 0.29919872 0.025343109 -0.089123
000020 9b df 08 bf 9c 07 43 af 5f f1 2d 3c d6 10 43 bd
       -0.53466195 -1.773785e-10 0.010616629 -0.047623478
000030 c5 78 38 3e 4d 45 d0 3b 45 8f e6 99 27 f3 09 1a
       0.1801482 0.0063559175 -2.3839309e-23 2.8527353e-23

backbone.1.conv.0.1.running_var f4 [16]
000000 54 c4 a5 11 fe 17 81 3c ae b5 c1 3c 47 ac b2 3c
       2.6153406e-28 0.01575851 0.023646202 0.021810664
000010 7e 13 64 3e a4 e0 2f 3d 77 9e 8b 3b 55 05 bd 3e
       0.2227306 0.042938843 0.004260834 0.3691813
000020 47 b1 ee 3b b7 fc f8 1d 65 8f 55 3b e6 0a 11 3e
       0.0072843167 6.5906354e-21 0.003258669 0.14164314
000030 e5 fa c0 3c 2d a2 4e 3a 14 c5 06 11 d0 e3 29 12
       0.023557136 0.00078824424 1.0631466e-28 5.36078e-28

backbone.1.conv.1.weight f4 [8, 16, 1, 1]
000000 40 66 bb a8 97 26 06 3d f0 21 8c bd 26 82 31 3e
       -2.0805514e-14 0.032751646 -0.068424106 0.17334804
000010 83 e1 4f bd 5f ac 32 3f fc 42 6a 3e 13 0c e5 bc
       -0.050752174 0.6979427 0.22877115 -0.027959859
000020 6a b3 82 bd ee 11 a9 38 d8 c0 f4 3c 49 d5 7c 3e
       -0.06381877 8.061888e-05 0.029877111 0.24690737
000030 52 2a 53 3d db 41 93 bd b0 16 b3 2b 69 e8 21 aa
       0.05155403 -0.07190295 1.2725012e-12 -1.4380306e-13
000040 85 0a 16 2b 24 07 62 bb 04 81 12 bf 85 3f 8d bd
       5.3305304e-13 -0.003448912 -0.5722811 -0.06896881
000050 ff bf a6 3d 7e a3 83 3c 26 1f 43 bd a3 8e 96 3d
       0.08142089 0.01606917 -0.047637127 0.073514245
000060 2a 88 be 3d 80 1a 33 b8 b5 56 1d 3e fc 5b a6 bc
       0.09303315 -4.2701606e-05 0.15365107 -0.020307533
000070 92 e0 02 be e5 3c 5f 3e 65 39 f6 2b 12 40 f5 2b
       -0.1278098 0.21800573 1.7495281e-12 1.742608e-12
000080 4c 7c 18 2a 96 bf 07 3f a2 a1 03 3e a8 66 d5 3e
       1.3543436e-13 0.5302671 0.12854627 0.41679883
000090 3d 5b 4e be e6 0b 42 be f5 2a 87 be be 37 97 3d
       -0.20151992 -0.18949851 -0.2639996 0.07383679
0000a0 70 7f 13 be 82 43 63 ba 3a 7f e4 bc b2 e2 c0 3e
       -0.14404082 -0.0008669422 -0.027892698 0.37672955
0000b0 bd 72 af 3d fa 3a c4 bc 30 18 ae 2a 38 34 99 ac
       0.085668065 -0.023953903 3.0925392e-13 -4.354319e-12
0000c0 73 95 c4 ac d9 83 ad bd 2b a2 04 be 1e d9 06 3e
       -5.5872472e-12 -0.084724136 -0.12952487 0.13168761
0000d0 fa c2 f2 3e e9 b5 eb be 3d 89 5f 3d 6a 03 6d 3d
       0.4741438 -0.46037224 0.05457424 0.057864584
0000e0 4d 2d 88 be 1e 8c 28 b7 c8 2c 43 3d 6a e9 dc be
       -0.26597062 -1.0046204e-05 0.04765013 -0.4314683
0000f0 62 da 8a 3e fd c7 bc 3e ca 47 fd 2a 58 b4 28 aa
       0.27119738 0.3687133 4.4991642e-13 -1.4983967e-13
000100 0a 7d 0c 2c d2 80 b4 be eb 2b 8b 3e ef 32 da bc
       1.9964607e-12 -0.35254532 0.27181944 -0.026635615
000110 04 f9 2b 3e 3f a4 1c bf 7f 6e 92 3d fb 5f 95 be
       0.1679421 -0.6118812 0.07149982 -0.2917479
000120 fb d3 22 3e e7 0a 8f 31 aa 9a e0 3d 2f 76 cf bd
       0.15901177 4.163087e-09 0.10967 -0.101299636
000130 ee a9 46 be 03 88 94 bd e7 e8 d4 ab 42 30 f7 28
       -0.1940076 -0.07252505 -1.5128149e-12 2.7443437e-14
000140 4d 1f 94 a9 d7 12 3d be 28 d5 c8 bc d7 49 0e bf
       -6.57795e-14 -0.18464218 -0.024515703 -0.5558142
000150 24 5b 99 be 6f 04 72 be b4 47 cb 3e b6 a3 db 3e
       -0.29952347 -0.23634504 0.39703143 0.4289834
000160 b8 cd cc 3e 19 39 ac 38 3a 71 9c 3d c3 5f ed 3e
       0.400007 8.2122344e-05 0.07638784 0.46362123
000170 b2 57 f5 bc 28 cc 68 3d 63 54 c4 2a f1 6b 68 2c
       -0.029949043 0.056835324 3.487515e-13 3.3029102e-12
000180 30 c1 5e a9 ee f6 d2 3e 20 b7 fc bd 8f 69 c0 be
       -4.9461466e-14 0.41204017 -0.12339616 -0.37580535
000190 af a0 de be ab 26 fb 3c 76 42 36 3d 06 dd 58 bf
       -0.43481967 0.030658087 0.044496976 -0.84712255
0001a0 74 4b 1a 3e b0 3c 50 36 b3 d4 3f bd 4d 32 6f 3e
       0.15067846 3.102974e-06 -0.046833705 0.23359032
0001b0 1f 98 d0 bd 1f 65 4a 3e a7 af 4d 2b 4e db c4 ab
       -0.10185265 0.19765137 7.3074397e-13 -1.3987507e-12
0001c0 03 7c 23 ad 5c 27 0d 3d 00 7a 50 3e db f8 c8 bc
       -9.293013e-12 0.034461364 0.2035904 -0.024532726
0001d0 50 c2 f0 3e 74 68 0e 3f 37 b5 42 be a3 c6 33 3e
       0.4702325 0.5562813 -0.1901444 0.17556243
0001e0 e9 77 eb bd 25 ab cc 39 cc 22 35 3e 0d 0c 02 bf
       -0.114974804 0.00039037425 0.17689055 -0.5079964
0001f0 bf 77 54 be 5a 12 fd bb 0d c2 89 2b 81 bf 56 2c
       -0.20748805 -0.007723135 9.788295e-13 3.0517535e-12

backbone.1.conv.2.weight f4 [8]
000000 93 1b 05 3f 09 2d 09 3f 1e f1 11 3f 65 41 e8 3e
       0.519952 0.53584343 0.5700854 0.45362392
000010 61 26 14 3f 97 e3 19 3f 0a a0 1b 3f 5f 42 07 3f
       0.5787106 0.601129 0.60791075 0.5283565

backbone.1.conv.2.bias f4 [8]
000000 ee 53 df b8 05 45 c2 38 7e db 58 38 83 59 43 37
       -0.00010649102 9.263497e-05 5.170283e-05 1.1643747e-05
000010 9e 46 84 38 b2 f1 82 38 ba d0 22 b8 66 b0 45 35
       6.307404e-05 6.243902e-05 -3.88182e-05 7.364491e-07

backbone.1.conv.2.running_mean f4 [8]
000000 60 b0 87 3f 02 90 5c bf ca e1 07 3f 24 1c d0 be
       1.06007 -0.8615724 0.530789 -0.4064647
000010 4e 02 3b bf ac 91 1c 3e c5 df ed be f2 d1 1a 3f
       -0.7305039 0.15289944 -0.46459785 0.604766

backbone.1.conv.2.running_var f4 [8]
000000 69 42 0e 3e 77 16 29 3e 04 4a 62 3e ed 7b 6c 3e
       0.13892521 0.16512476 0.22098547 0.23094149
000010 96 1f 28 3e 1e 34 9d 3e 2a 4f d9 3e 5e 64 1e 3e
       0.16418299 0.30703825 0.4244321 0.15467975

backbone.2.conv.0.0.weight f4 [48, 8, 1, 1]
000000 52 9e 3e 3e 09 45 a0 3d 98 ce 0d 3e eb 6e 01 be
       0.18615082 0.078256674 0.1384834 -0.12639968
000010 01 9f 0e be 2f 81 9a 3c 74 f3 9a 3e 34 90 0d 3d
       -0.13927843 0.018860428 0.30263865 0.03456135
000020 3b af 40 3d 32 56 9d 3d 86 a6 d2 3d d9 23 1c 3e
       0.047042113 0.07682456 0.10285668 0.1524805
000030 cd 4a 37 be a2 fd 98 be f9 3d d6 bd e1 97 d2 bd
       -0.17899628 -0.29881006 -0.10461039 -0.10282875
000040 de cf 9e bd e8 f7 69 bd 29 1d 18 be 9a a1 d3 3d
       -0.07754491 -0.057121187 -0.14854874 0.103335574
000050 f8 16 d0 bb 4a 32 b4 3d 76 0e b4 be c0 54 fb 3d
       -0.0063503943 0.087986544 -0.35167283 0.12272024
000060 0b 1f f2 bc 45 e4 73 3e 97 cb 7a 3d 8d 62 18 bf
       -0.029555818 0.23817547 0.061229315 -0.59525377
000070 fb 33 b4 bb 58 ed 06 be a4 22 81 be 6c dc cb be
       -0.0054993606 -0.13176477 -0.2522174 -0.39816606
000080 00 b5 85 3d d2 fd 63 bd 53 8f 0f 3e db af 97 be
       0.06528664 -0.055661984 0.14019518 -0.29626355
000090 8f ec fd bd bf 73 1f 3e 18 ab 64 3d a0 a3 38 be
       -0.123986356 0.15571497 0.05582723 -0.18031168
0000a0 02 86 2d bd aa 78 d3 3b 52 c9 10 3d 8f 41 0b be
       -0.042364128 0.0064535933 0.035348244 -0.13599227
0000b0 5e 54 dc ba fc bb 1d 3e 0b 6c 4a 3e 6a e1 19 be
       -0.0016809811 0.15403742 0.19767778 -0.15027395
0000c0 9b 90 53 3d c2 c3 24 3e 63 75 e3 3d 7d e6 c9 3d
       0.05165158 0.160903 0.11106374 0.09858415
0000d0 ce b9 00 be 97 0e 92 be f1 e4 31 be 97 8f 5c bc
       -0.12570879 -0.28526756 -0.1737249 -0.013461969
0000e0 d9 0b 1a 3d a0 4b 50 3e 7c fd 5a 3d 87 ea 20 bd
       0.037608955 0.20341349 0.053464398 -0.039286163
0000f0 c9 06 67 bc cf 19 b4 3d 92 2a 57 bd e3 c6 1f 3e
       -0.014100739 0.08793985 -0.052530833 0.15603213
000100 11 2b 97 be 02 17 ab bd 36 12 c1 3e 8e d0 76 bc
       -0.29525045 -0.08353998 0.37709206 -0.015064372
000110 2d 98 74 bd 08 3d 72 bc 1d 74 1f be 92 24 b7 bc
       -0.05971544 -0.014785059 -0.15571637 -0.022356305
000120 b3 81 0b 3c e5 22 8d 3e ef ab c0 bc 13 08 2a 3e
       0.008514809 0.27565685 -0.023519484 0.16604643
000130 2e f4 1c be fe f0 13 bd e8 3d 77 3d bf 6f 9d bd
       -0.15327522 -0.0361185 0.060361773 -0.076873295
000140 aa 8a 13 3d 0f ac 06 be d8 2b 36 bc 7d c1 c9 be
       0.036020912 -0.13151573 -0.011118852 -0.39405432
000150 01 11 49 3d 37 74 41 bd 81 8b 56 bd 39 9a 03 3e
       0.04908848 -0.04722997 -0.052379135 0.128518
000160 1a 3f 9c bd 9f 93 58 bc aa e2 cf bd 2c 5f 82 3e
       -0.07629223 -0.013218789 -0.101506546 0.25463235
000170 e6 da 40 bd 0a f5 18 be 96 82 8c be 90 4e 73 3e
       -0.047083758 -0.14937225 -0.2744338 0.23760438
000180 2d 70 fa 3d 73 11 cd 3d 2e 44 d7 bd e2 86 ff bb
       0.12228427 0.10013094 -0.10511051 -0.0077980617
000190 05 9e c3 3d 40 fb 2b 3e e7 39 9c 3b cd 99 b3 3d
       0.09551624 0.16795063 0.0047676447 0.087695695
0001a0 ab 2e dc 3d be 32 3a be 6d 57 8c bb 75 6a da bd
       0.10751089 -0.18183419 -0.004282883 -0.10664836
0001b0 a7 d4 8c be d3 22 3a 3e 6f f1 4b 3d 16 8b 48 3e
       -0.2750599 0.18177347 0.049790796 0.19584307
0001c0 40 f6 62 be 89 0f b3 bd 5f 25 dc 3d 26 0c 8e 3e
       -0.2216425 -0.087431975 0.107493155 0.27743644
0001d0 06 89 41 3e ff 08 33 3e 54 06 f0 ba 4d ef 96 be
       0.18899927 0.174839 -0.0018312433 -0.29479447
0001e0 27 a7 06 3d 9e 86 f3 3d 21 b0 36 3e c6 a8 10 3e
       0.032874253 0.118909106 0.17840625 0.14126882
0001f0 9b 8a b1 be 64 9b c5 bd 5e 26 58 3c 5d 12 58 be
       -0.3467606 -0.09648779 0.013192741 -0.21100755
000200 a4 63 7e 3e 99 89 9e 3d 0e 52 28 3e 34 59 39 3e
       0.24842697 0.077410884 0.16437551 0.18100435
000210 b8 c4 55 3e 83 04 0a 3e 12 46 91 3d e0 6d bf 3c
       0.20875823 0.13478284 0.07093443 0.023367822
000220 e9 a2 57 3c 07 bc 04 bd 9d cb 39 3e b9 16 6b be
       0.013161399 -0.03240588 0.18144079 -0.22957887
000230 16 fe fa bd 3f a5 a1 3d d2 07 32 3d 68 38 0a bd
       -0.12255494 0.07892846 0.04346449 -0.0337452
000240 6e d0 45 be 52 e3 bd 3c eb 99 f8 bd 69 4e e6 3d
       -0.19317791 0.023179684 -0.121387325 0.11245424
000250 a5 9c 2f be a0 b9 41 bd 46 25 a6 be 20 9f 72 3e
       -0.17149599 -0.047296166 -0.32450312 0.23693514
000260 04 5b bb bd 3b 6b 6a 3d 38 0f 5f be 25 1d 74 3e
       -0.09148219 0.05723117 -0.21783149 0.23839243
000270 e9 b9 08 3e 8f c0 8e be 0c 6c 80 be 37 71 af 3e
       0.13352169 -0.27881286 -0.25082433 0.34266064
000280 1d 60 7d 3d 57 44 31 3e d6 85 35 3e bf c1 73 3e
       0.06185924 0.17311226 0.17726836 0.23804377
000290 50 da cd bc d1 d4 ca 3c 38 d5 07 3e 70 7c f2 3d
       -0.025128514 0.024759682 0.1326493 0.11840141
0002a0 94 bd c3 3d 4d c7 06 bd c1 11 8e 3d 02 d6 a8 be
       0.095576435 -0.03290491 0.0693698 -0.32975775
0002b0 57 4a 15 3e 04 c0 cf bd 27 75 ab be 71 8a 39 be
       0.1457914 -0.10144046 -0.33487818 -0.18119217
0002c0 1f c3 77 3d 37 73 0a 3d 97 2a 94 3c ee e7 e7 3d
       0.060488816 0.033801284 0.018086715 0.11323534
0002d0 6b 22 92 bd b9 c5 0f be d0 97 39 bc f7 5b 89 bd
       -0.07135471 -0.14040269 -0.011327699 -0.06706994
0002e0 d8 ea 5f 3e c4 d1 59 3d 11 ad a2 3d bc ba 47 3d
       0.2186693 0.053178564 0.07943166 0.04876207
0002f0 8a 0e e5 3d 8d f8 d9 3b de f2 5d bc e1 84 4a 3d
       0.11184414 0.006651944 -0.013546674 0.04944313
000300 0d a6 cb bc db b3 93 3c a8 18 d7 3d 92 f0 c2 3d
       -0.024859453 0.018030098 0.1050275 0.095185414
000310 b6 66 18 bb 44 4e 92 be 33 44 d0 3c 50 1c 8a bd
       -0.002325458 -0.28575337 0.025423145 -0.067436814
000320 aa 22 f0 bc e1 aa e6 be 14 82 46 3e 53 ee 21 bd
       -0.029313404 -0.45052245 0.19385558 -0.039533924
000330 89 a6 35 3e 8c 6d e2 bd d4 88 c1 bd ca b5 84 3e
       0.1773931 -0.11056051 -0.09449926 0.25919944
000340 4d d0 a7 3c ed c9 b4 3d b6 d7 5e 3e 19 f7 54 3d
       0.020485068 0.08827577 0.21761975 0.051993463
000350 cc cd c6 bd 79 3b a3 bb 45 23 41 3e e8 cc 2d 3e
       -0.097072214 -0.004981455 0.1886111 0.16972697
000360 7d 2b a2 be 9e 43 83 3d f6 14 a0 bd 42 a0 57 3e
       -0.31673804 0.06409381 -0.07816498 0.21057227
000370 19 ff 21 be 16 1e 0c 3b ac b2 8c 3e a2 58 82 3d
       -0.15819968 0.0021380237 0.27480066 0.063645616
000380 e7 5a a6 3e ab d0 de 3d 33 2a ed bd 1b c0 1c be
       0.32491228 0.10879644 -0.115803145 -0.15307657
000390 b0 ed 50 bd 28 cb 9c be e5 9d aa 3c d0 f3 a8 3d
       -0.051007926 -0.30623746 0.020827243 0.082496285
0003a0 56 13 f2 3b d9 b7 74 3d 29 44 29 3e af 8b 4c 3e
       0.007387559 0.059745643 0.16529907 0.1997516
0003b0 e7 85 0d 3d 8a 74 10 3e 0d f7 f2 3c e3 99 87 bc
       0.034551527 0.14106956 0.029658819 -0.016552871
0003c0 5e 3a 1a be fa d0 0c be 4a 60 dd be 1c 6d 73 bd
       -0.15061328 -0.13751593 -0.43237525 -0.059430227
0003d0 da 69 3e 3d 48 88 d1 3e 44 e0 b9 3d a0 47 42 3b
       0.046487667 0.40924287 0.090759784 0.0029644743
0003e0 35 23 3d 3e 24 fd 8a bd da fb 8c bd be a1 6c be
       0.18470462 -0.06786564 -0.068839744 -0.23108575
0003f0 d9 59 84 be 94 50 6b bc 87 0c 59 3d dd da 92 3e
       -0.25849798 -0.014362473 0.052990463 0.28682604

backbone.2.conv.0.1.weight f4 [48]
000000 e6 25 f7 3e 8c 72 b7 3e 0c d3 ed 3d 6e b7 53 3e
       0.48271102 0.3582958 0.116125196 0.20675442
000010 4c d2 21 3e 91 ec 49 3e f0 01 97 3e 76 d3 09 3e
       0.15802878 0.19719149 0.29493666 0.13459572
000020 eb e6 e5 3e b7 52 02 3e c0 c0 5d 3e 0e 2a c9 3e
       0.4490274 0.12726866 0.2165556 0.39289898
000030 11 80 b0 3d 71 0e a1 3d 48 62 0f 3e c9 4b ec 3e
       0.08618177 0.078640826 0.14002335 0.4615157
000040 9e aa 1b 3e b0 c2 fb 3d a8 e9 a3 3e ca a8 30 3e
       0.15201804 0.12292993 0.32014203 0.17251888
000050 6e f9 02 3e 07 93 03 3e 90 f3 cf 3d 37 ae 86 3d
       0.12790462 0.12849055 0.10153878 0.065761976
000060 38 01 4c 3e 25 df ce 3e b5 a9 26 3e b1 36 8b 3e
       0.1992234 0.4040462 0.16275676 0.27190164
000070 cb 1b 00 3e 4f b4 84 3d 11 87 fe 3e 2c f0 ac 3d
       0.12510602 0.06479704 0.49712422 0.08444247
000080 f4 ef 24 3e 11 62 a1 3e 86 88 b7 3e e7 c5 55 3e
       0.1610716 0.3152013 0.35846347 0.20876275
000090 68 f0 89 3e a9 3e ab 3e ef d8 ef 3d c5 8a b7 3e
       0.26941228 0.33446243 0.11711299 0.3584806
0000a0 fc 9d f8 3e 41 31 13 3e 22 ae 15 3e ba d1 c0 3d
       0.48558033 0.14374258 0.14617208 0.09415002
0000b0 6e f2 32 3e f8 6d e5 3e 2b 82 9e 3e 6d b8 23 3e
       0.17475292 0.44810462 0.30958685 0.15988322

backbone.2.conv.0.1.bias f4 [48]
000000 d5 65 28 3c 65 bf 1d bc 2a 7e 79 3e f5 d5 b8 3e
       0.010278185 -0.009628152 0.24364534 0.36100736
000010 eb 1c 8d 3e cc bd 29 3e aa 4c 9a 3d ee 0b 3c 3d
       0.27561125 0.16576308 0.07534154 0.045909815
000020 50 01 69 bd 08 14 23 3e 96 ca 56 bd cc 3b 33 3d
       -0.056886017 0.1592561 -0.052439295 0.0437582
000030 8c fa 41 3e 42 29 79 3e 5d a1 56 3e a4 8d db 3a
       0.18943232 0.24332145 0.20959993 0.0016750586
000040 ff 08 8b bd e7 5a 9e 3e e4 e1 bb 3d 27 ac c7 3e
       -0.06788825 0.30928728 0.091739446 0.3899853
000050 c2 32 dc 3e 0d db 1b 3e e3 56 8c 3e b0 93 a2 3e
       0.43007475 0.1522028 0.2741004 0.31753302
000060 5e 2f c0 3d 1b 11 b0 bc 17 f8 d7 3d ea d5 ac be
       0.093840346 -0.021492532 0.10545366 -0.33756953
000070 57 ba 88 3e 5b 64 85 3e b7 dd 50 bc 81 80 70 3e
       0.26704666 0.26053128 -0.012748173 0.2348652
000080 34 25 1f 3e ec b9 d9 3c 82 4e 2f 3d 48 ee 29 3e
       0.15541536 0.026577912 0.04279948 0.16594803
000090 11 9c ef 3d 9d 55 d1 3d 35 66 81 3e ea c0 98 3d
       0.11699689 0.102214076 0.2527329 0.074586704
0000a0 b1 b9 36 3c a8 aa 41 3e 79 b1 89 3e 27 0e 74 3e
       0.011152671 0.18912756 0.26893213 0.23833524
0000b0 7c e0 18 3e 19 f0 2a 3c 8c 26 5b 3e 03 93 2b 3e
       0.14929384 0.01043322 0.21401423 0.167553

backbone.2.conv.0.1.running_mean f4 [48]
000000 35 8d ae b7 9b 40 fd b6 bb 0c 4a 37 df 7a 99 b7
       -2.0808171e-05 -7.5475086e-06 1.2043102e-05 -1.8296238e-05
000010 d5 98 5d b7 4b b9 27 36 2e 96 ca b6 56 72 8d 36
       -1.32082105e-05 2.4992794e-06 -6.0375523e-06 4.215438e-06
000020 24 88 bc 37 dd a9 fd 36 45 57 da b7 3a 6d 02 37
       2.2474742e-05 7.5597623e-06 -2.6028263e-05 7.774035e-06
000030 c0 18 ec 35 84 9e a9 b7 4f 4c 37 38 c2 55 f2 b5
       1.7590573e-06 -2.0220185e-05 4.3701668e-05 -1.8055364e-06
000040 1c 0e 26 37 76 97 27 b7 b1 44 23 37 42 3f d4 36
       9.897656e-06 -9.98924e-06 9.731551e-06 6.3254565e-06
000050 cd d1 57 37 95 3f 79 b7 c5 29 95 b6 4b a0 9e b6
       1.2863847e-05 -1.485636e-05 -4.4454086e-06 -4.7274275e-06
000060 36 8d 56 b6 0a c3 07 b7 7e 0d 45 34 22 ef ae 37
       -3.197068e-06 -8.092038e-06 1.8351963e-07 2.0853771e-05
000070 92 97 33 b8 85 ab ae 37 90 6e 4e 37 9f 76 20 b8
       -4.2818087e-05 2.0822286e-05 1.2304299e-05 -3.8257447e-05
000080 8f aa 1c 37 cc 76 e0 b6 6e bc 98 b5 5e d1 ac 36
       9.338036e-06 -6.68955e-06 -1.1379723e-06 5.150373e-06
000090 ee c7 75 b7 ce fb 5d b8 f1 a7 86 36 8c 32 0d 37
       -1.4649688e-05 -5.2925017e-05 4.013062e-06 8.416024e-06
0000a0 39 db 13 36 47 63 dd 37 5f f8 54 36 d6 22 be 37
       2.2032311e-06 2.6391483e-05 3.1735033e-06 2.2665987e-05
0000b0 76 85 e9 36 d9 95 2f b6 1f 30 bf b7 c8 fd 25 38
       6.959478e-06 -2.6164255e-06 -2.2791382e-05 3.9575418e-05

backbone.2.conv.0.1.running_var f4 [48]
000000 26 20 d4 3d 71 d6 94 3d 7c 3b cf 3d 25 5d a0 3d
       0.10357694 0.07267464 0.101187676 0.07830266
000010 9a 54 a0 3d 69 0a 5b 3d b5 6b 94 3d f8 ef 9c 3c
       0.078286365 0.053476725 0.07247106 0.019157395
000020 83 95 a4 3d 29 f9 59 3d c5 31 24 3d af 07 ef 3d
       0.080363296 0.053216133 0.040086526 0.116713874
000030 ea 06 92 3c 5a 27 7b 3d 99 7f 1d 3e ae d8 b9 3d
       0.017825563 0.061316825 0.15380706 0.090745315
000040 4c 44 7a 3c 1d f2 36 3d 43 fb d6 3d 16 5e 3d 3e
       0.015275072 0.04466449 0.10497143 0.18492922
000050 24 4d c7 3c ee a0 ef 3c 02 9b 99 3c c9 5a 1b 3c
       0.024328776 0.029251542 0.018750671 0.009482094
000060 a8 f0 22 3d 5c ec 0f 3e 32 a6 0a 3d 0f bd 25 3d
       0.03978029 0.14055008 0.033849902 0.040463503
000070 06 c1 02 3e a1 4a 81 3c f9 91 27 3e d9 b6 ee 3d
       0.12768945 0.015782656 0.16364278 0.11655969
000080 ff c5 87 3d 01 f3 7b 3d a6 57 94 3d 96 47 e6 3d
       0.06629562 0.061511043 0.0724328 0.11244123
000090 4d 2f 58 3d 7a e1 5e 3e 34 e5 ca 3c a4 d5 01 3e
       0.052779485 0.217657 0.024767496 0.12679154
0000a0 f6 75 04 3d e7 31 85 3d 13 ae e7 3c b0 09 d0 3d
       0.03233906 0.06503659 0.028281247 0.10158098
0000b0 bb 83 ae 3d b0 83 13 3e 18 4d df 3d d7 fa 14 3e
       0.08521219 0.14405704 0.10903376 0.14548813

backbone.2.conv.1.0.weight f4 [48, 1, 3, 3]
000000 d4 74 ac bd 55 75 22 be d4 3b 8e bd 99 b1 24 be
       -0.08420721 -0.15865071 -0.06945005 -0.16083373
000010 43 62 29 be d2 37 d9 bd 9c 31 1f bd c1 9d f2 bd
       -0.1654139 -0.1060635 -0.03886567 -0.118464954
000020 be 3e 00 bd 31 b9 e8 bd 23 b0 5b bd 20 2e 32 3b
       -0.031309836 -0.113634475 -0.053634774 0.0027188137
000030 30 eb 34 be f6 c8 7c bd 0e 3d 33 3b 18 df 3d be
       -0.17667842 -0.06171509 0.0027349624 -0.18542135
000040 9c e8 22 be c2 e9 6c bd 27 9f 07 be 89 e7 6f bd
       -0.15909046 -0.057840116 -0.13244306 -0.05857042
000050 ea 28 1b 3d e7 f4 25 3e 2e b1 c1 3e f6 02 25 3e
       0.037880816 0.16206704 0.3783049 0.16114411
000060 da de 25 bd b2 04 0d be 03 ce ba be e9 da f0 3d
       -0.04049573 -0.13771322 -0.364853 0.11760504
000070 c5 fa 5c 3e a0 de 46 bd 13 b3 41 3e ca 1f 08 3f
       0.21580036 -0.048552155 0.18915968 0.53173506
000080 c9 27 b7 3b 08 2c 4a 3d 29 93 23 3e ca fb 88 bd
       0.0055894596 0.049358398 0.15974106 -0.0668865
000090 40 63 b7 bd 04 d7 83 be 2b 58 20 be aa d6 c9 bd
       -0.08954477 -0.2574998 -0.15658633 -0.09855397
0000a0 ed c4 e9 bd 0c df a5 bc 46 ad ee 3d 67 74 ca 3e
       -0.11414514 -0.020247959 0.11654143 0.39541933
0000b0 40 cf 19 3e 8c 44 3a 3d 03 ea 8c 3e 09 20 71 3e
       0.15020466 0.045475528 0.27522287 0.23547377
0000c0 0c 5e 7c bd 9b 7e af bd 4a 69 9b 3d 82 f5 b6 bd
       -0.061613128 -0.0856907 0.07588442 -0.08933546
0000d0 ca 73 42 be 54 a2 ff bd 2f 2c fc bc 23 27 a3 bd
       -0.18989483 -0.124821335 -0.030782787 -0.07966449
0000e0 dc 09 c4 bd 45 e9 36 3d 6c 0d 6c be d8 e1 79 be
       -0.09572193 0.044656057 -0.23051995 -0.24402559
0000f0 e3 fc 45 3d 16 38 3c be d7 f9 67 be 64 e2 0c be
       0.048336875 -0.1838077 -0.226539 -0.13758236
000100 46 4b 32 3d 66 16 0c be ac d3 05 be e5 a8 08 3e
       0.043528818 -0.1368042 -0.13069028 0.13345678
000110 22 e7 27 be f9 43 25 be 50 9e bc 3d d1 1c 07 be
       -0.16396764 -0.16139211 0.09209883 -0.13194586
000120 7c 24 83 3d 04 64 03 3e e1 d9 c6 3d 3f 8e de 3d
       0.06403443 0.12831122 0.09709526 0.10866975
000130 13 27 9d 3e 2c 2d 75 3e 16 fb 05 3d 91 72 20 3e
       0.30693874 0.23943013 0.032710157 0.15668704
000140 fa 8b 02 3e ad a5 e0 bd d2 cd 54 3e 7c c2 a1 bd
       0.1274871 -0.109691 0.20781639 -0.07898423
000150 26 a7 24 bd 2d ea b6 3d c9 b6 a3 bd 4b f6 02 3e
       -0.040198468 0.08931384 -0.07993848 0.12789266
000160 e4 5f ad be e9 54 f4 3d 65 52 1b 3d 3a 8c 09 3d
       -0.3386222 0.11930258 0.037920374 0.033580996
000170 f5 dd d1 3b 33 de c0 3d f2 02 1b 3e a1 49 8e 3d
       0.006404633 0.09417381 0.15137842 0.06947637
000180 46 d1 a2 3d da f0 33 3e 64 ef 76 3d c0 e0 29 bd
       0.07950072 0.17572346 0.060286894 -0.041474104
000190 18 0f 2f be ff 51 3e be c4 81 b2 bc fb 5b 73 be
       -0.17095602 -0.18585967 -0.021790393 -0.23765557
0001a0 ff 68 6c be 4d ae 92 3c e2 e6 3b 3a 24 6b 03 bd
       -0.23086928 0.017905379 0.0007167888 -0.0320846
0001b0 46 97 b1 bd 7c 50 e3 3d 45 17 13 bb 32 9f 5f 3e
       -0.08671431 0.110993356 -0.002244429 0.21838072
0001c0 e2 8c a3 be 8f 7f e9 3d 3c 1b e0 bd 48 bd 5a 3e
       -0.31943423 0.11401283 -0.109426945 0.21361268
0001d0 91 9a d0 bd ab 4b 02 be a1 ac bb bc 2a 75 86 3d
       -0.10185731 -0.12724178 -0.022909464 0.06565316
0001e0 05 33 8b be d0 ab a2 3e 4b 08 f3 3b f1 14 c1 3c
       -0.27187362 0.31771708 0.00741676 0.023569556
0001f0 a2 a1 48 3e ae d0 13 be e2 99 6a bd 2d 3a df bd
       0.19592908 -0.14435074 -0.05727566 -0.10899768
000200 f4 db a7 bd 18 14 ba 3d f7 45 be 3e 0c b3 8e 3d
       -0.081962496 0.09085864 0.37162754 0.06967744
000210 ca 00 6c bd 58 41 93 be f2 70 bd bc 10 5d 9d bd
       -0.05761794 -0.2876079 -0.023125146 -0.07683766
000220 03 fc ed bd 60 9c 8b bc 3a 9e 2f be 2b fc 56 be
       -0.11620333 -0.017042339 -0.17150202 -0.20994632
000230 22 b3 b9 bd 0e 69 cc bd a9 0e 4c be cf 9b ae bd
       -0.0906737 -0.09980975 -0.19927467 -0.08525812
000240 c3 5b 06 be 7a 89 15 be 0f 67 6f bd d8 15 5a bd
       -0.13120942 -0.14603224 -0.058447894 -0.053243488
000250 1d a6 6b 3d 71 2b 08 3e 77 88 92 ba 30 78 b0 3d
       0.057531465 0.13297822 -0.0011179586 0.08616674
000260 97 75 42 3e 6f ea 00 3e 8d f8 5f 3e 75 ba b9 3d
       0.1899017 0.1258943 0.21872158 0.09068767
000270 de dd 0e 3e 0f 83 01 3e ce 70 a0 3c a4 8a 55 3d
       0.13951823 0.12647651 0.01958504 0.05213417
000280 06 28 bb 3d 52 bf 66 3d 11 f8 0d bc 3e 5a cd bd
       0.09138493 0.0563348 -0.008665101 -0.10026978
000290 1a f2 08 3c b1 6d aa 3c ca 05 ad be e3 8e 9e bd
       0.008358503 0.020804258 -0.3379348 -0.07742097
0002a0 04 4e 9f 3c 1b 4e 32 be 40 3f 04 3d 6a 2f 31 3c
       0.01944638 -0.17412607 0.032286882 0.010814527
0002b0 d1 f6 42 bd 16 8f 28 bd 0f 2c b1 bd 29 d9 98 be
       -0.047598664 -0.041152082 -0.08650982 -0.2985318
0002c0 be 2c 53 be cd 92 60 3c 37 bd 4d be 06 0f f1 bd
       -0.20622537 0.013706875 -0.20091711 -0.117704436
0002d0 68 19 10 3e 44 fe 21 3e 18 da 87 3c a7 ee 45 3e
       0.14072192 0.15819651 0.016583487 0.1932932
0002e0 2d ce b9 3e c4 a6 29 3c d2 18 0e 3e 60 63 06 3e
       0.36290112 0.010354701 0.13876656 0.13123846
0002f0 c3 6f 44 bd 11 33 6d bd 10 bb ab bc ed 45 16 3e
       -0.047958147 -0.05791003 -0.020963222 0.14675112
000300 f8 5b d1 bd cf f4 5c be e5 7e 9d 3e 12 b7 b6 bc
       -0.1022262 -0.21577762 0.30760875 -0.022304092
000310 fd 14 4a be 34 85 1c 3e d9 8f a6 3d c9 1d 77 be
       -0.19734569 0.15285188 0.081329055 -0.24132456
000320 43 d4 ca 3d a6 d4 81 be f7 75 d9 3e 8d 68 0e be
       0.09903767 -0.2535755 0.42472813 -0.1390707
000330 7a bc 1c 3e a8 fd 1e be bb 13 dd 3c dc 00 85 bd
       0.15306273 -0.1552645 0.026986947 -0.064943045
000340 57 36 c7 3c 4d 1f 24 bd 65 77 81 3d e5 39 dc be
       0.024317903 -0.040068913 0.06321601 -0.4301292
000350 0a 7c a2 3e fb 54 75 bd 79 7f b2 3e 6b ac a1 be
       0.3173526 -0.059895497 0.3486288 -0.31576857
000360 67 3e 8b bd 20 ec bd bd c1 5b 06 3e fb bc 2e 3d
       -0.06799012 -0.09273553 0.13120939 0.042660695
000370 ec ca 38 be 84 94 98 be f1 74 7b 3d 67 ed 97 3e
       -0.18046159 -0.29800808 0.06139082 0.2967331
000380 2f f6 d6 3d 80 33 eb 3c 71 90 f5 3d 2a dc 22 3d
       0.104961745 0.02871108 0.11990441 0.039760746
000390 42 82 af 3d 34 dc ad 3e b0 a1 15 3e 55 38 10 3e
       0.085697666 0.33957064 0.1461246 0.14083989
0003a0 93 07 8d 3e 97 cf f3 3d 88 80 80 3a 13 c9 4c bd
       0.2754484 0.11904829 0.000980393 -0.049996447
0003b0 92 b4 f0 bc ce bf 38 3e d3 b6 ab 3e 6e d7 2d 3e
       -0.029382978 0.18041918 0.3353792 0.16976711
0003c0 8c 43 d5 bc 08 de 82 bd 0f b3 2d bc 41 ae 25 3d
       -0.026033185 -0.06390005 -0.010601773 0.040449385
0003d0 e4 88 ff 3d 47 4e ea 3d e8 1c 06 3d 75 d8 10 3e
       0.12477282 0.114407115 0.03274241 0.14145072
0003e0 3c 5f 16 3e f7 17 d7 bc d8 21 aa 3d dd 50 a6 3d
       0.14684767 -0.026256545 0.083072364 0.08120892
0003f0 00 28 ae 3d f6 0d 29 3e 9a 90 b0 3d 98 c5 b5 3d
       0.08503723 0.16509232 0.086213306 0.08875579

backbone.2.conv.1.1.weight f4 [48]
000000 71 07 0b 3f d9 a4 9d 3e 8a c2 b9 3e 5b 75 7e 3e
       0.5430823 0.3078983 0.36281234 0.24849455
000010 31 e0 af 3e 33 51 af 3e 39 86 36 3e 85 cb a5 3e
       0.34350732 0.34241638 0.1782464 0.32381836
000020 db a6 8a 3e 39 ab 8c 3e 2c 4c 04 3e 37 a0 e3 3e
       0.27080426 0.27474383 0.12919682 0.44458172
000030 c1 c6 c8 3e 6a 8b 8c 3e 3f d6 80 3e 49 bc e2 3e
       0.39214137 0.27450114 0.25163457 0.44284275
000040 7f 0e 85 3e 3b 3d 5a 3e 47 6f ff 3e c4 f6 e4 3e
       0.25987622 0.2131242 0.49889585 0.44719517
000050 68 76 88 3e 6f 62 80 3e 35 53 da 3e 35 45 e3 3e
       0.26652837 0.250751 0.42641607 0.44388738
000060 36 0d b7 3e 3d 4e ad 3e a8 27 a1 3e 6a e8 18 3e
       0.35752267 0.33848754 0.31475568 0.14932409
000070 b1 a8 6a 3e 29 64 ab 3e 99 e7 07 3f 18 1c 4f 3e
       0.22915913 0.33474854 0.53087765 0.2022556
000080 3c e6 ac 3e d7 9e 58 3e fd 1b 6c 3e d8 36 b8 3e
       0.33769405 0.21154343 0.23057552 0.35979342
000090 9f 93 35 3e 7d 07 a3 3e b6 ff cd 3e 5a 36 98 3e
       0.17732094 0.3184165 0.40234154 0.29728967
0000a0 66 7a d8 3e 3b 4c 67 3e 90 28 b0 3e f3 8c b7 3e
       0.42280883 0.22587673 0.34405947 0.35849723
0000b0 d8 0b bb 3e 12 9a 95 3e 2e bf aa 3e 6a f6 75 3e
       0.36532474 0.2921911 0.33348984 0.24019781

backbone.2.conv.1.1.bias f4 [48]
000000 60 b4 32 bd 64 0f f5 3d 73 56 96 3c 7c 2a 15 3f
       -0.04362905 0.11965826 0.01835177 0.5826795
000010 f2 bb db 3d b4 69 8e 3d 28 32 38 3f 82 7d e8 be
       0.10729207 0.06953755 0.7195153 -0.45408255
000020 8b 71 5a 3e 49 20 9e 3b 94 2a 7a 3d 56 c2 b3 3d
       0.21332376 0.004825626 0.061075762 0.08777301
000030 19 b5 0e 3c 19 41 d4 bc 68 7d df ba 5b 3c 43 3d
       0.008710169 -0.025909947 -0.0017050924 0.04766498
000040 a4 c6 2b 3d 74 9a db 3c e8 43 e8 3b 14 f7 a5 3a
       0.041937485 0.026807047 0.007088173 0.0012662136
000050 6f 72 36 3f 93 bd 9b 3b 2a 2b 94 3a 51 90 82 3a
       0.7126836 0.0047528236 0.0011304368 0.0009961223
000060 f6 45 cf bb 73 2c 07 3e ec fb e1 3c 78 a3 10 3d
       -0.0063254787 0.1320055 0.027585946 0.035312146
000070 c3 f7 bd 3d ff b0 8c bc 31 08 39 3c 0a b6 37 bb
       0.092757724 -0.017174242 0.011293457 -0.0028032088
000080 6b b3 ec 3c 24 8b 24 3f b6 27 8a 3f e6 ba bc bb
       0.028894147 0.6427481 1.0793369 -0.0057595847
000090 81 73 bc 3e b0 b4 32 3e ad 66 04 bb 1a 2e 1a 3e
       0.36806872 0.1745174 -0.00202028 0.15056649
0000a0 37 49 0c 3e 8c 36 09 3d 91 0a 10 3c e2 19 d3 3c
       0.13699804 0.033499286 0.008791582 0.025769178
0000b0 ea 6f aa 3c ef ea 9e 3e 67 e2 c9 3c e9 21 d4 bb
       0.020805318 0.31038615 0.02464409 -0.006473769

backbone.2.conv.1.1.running_mean f4 [48]
000000 e6 17 0a be 27 a8 a0 bd d6 de 95 3b 48 b4 d4 3e
       -0.13485679 -0.078445725 0.0045736833 0.41543794
000010 83 61 76 bc 38 de 5e 3c d4 10 08 be 59 8d 1b bd
       -0.015037897 0.013602786 -0.1328767 -0.037976597
000020 9b 7f 10 3e 89 30 8a bc 77 bd fc 3c 5a 8d 06 be
       0.14111178 -0.016868846 0.030852063 -0.13139859
000030 2d b4 c7 3b 27 a4 68 3c da 51 93 bc 46 bf 13 be
       0.0060944767 0.014199293 -0.017983366 -0.14428434
000040 75 f7 d3 3b 64 f5 8e 3e 90 f2 ca bd 6b d6 c3 be
       0.006468708 0.27921593 -0.099095464 -0.38249525
000050 84 a5 eb 3e a6 48 b1 bb db ed 0a b9 39 f1 42 bd
       0.46024716 -0.0054102717 -0.00013249314 -0.04759333
000060 d8 8a 9f 3a 10 d1 10 3e 03 6d 6f 3d 19 91 9f 3b
       0.0012172116 0.14142251 0.05845357 0.004869592
000070 20 80 48 3e 99 5d d7 bb 51 9a 2f be 86 fe 31 3d
       0.19580126 -0.006572437 -0.17148711 0.043455623
000080 55 19 9f 3d 69 47 b3 bd 3b a4 34 be 92 17 13 3d
       0.077685036 -0.08753855 -0.17640774 0.03591115
000090 b4 84 1d be d0 2b 16 be 07 b7 0e 3c 5b a1 37 3e
       -0.15382653 -0.1466515 0.008710629 0.17932646
0000a0 32 05 36 be ad df 3a 3e 9a f9 26 bd 1b 63 0f 3d
       -0.1777542 0.18249388 -0.040765382 0.035006624
0000b0 f2 58 5c 3d 9f 8f 71 3e 4c b3 70 be 2f d3 8a 3b
       0.053795762 0.23589943 -0.23505896 0.004236601

backbone.2.conv.1.1.running_var f4 [48]
000000 c7 52 d0 3c aa 46 28 3c 70 2b 77 3b 0d 7a d7 3c
       0.025430096 0.010270754 0.00377151 0.026303316
000010 ce fe 62 3c 61 05 de 3b 47 27 b4 3c 98 23 3c 3b
       0.0138546955 0.0067755436 0.021991385 0.002870774
000020 40 8f 3a 3d 85 64 98 3a 8e fc 3a 3b 85 e1 16 3d
       0.04554677 0.0011626637 0.0028531882 0.036836166
000030 f8 00 52 3a ac c8 94 3a 4d 30 9e 3a 4a 8a de 3c
       0.00080110086 0.0011351309 0.0012068838 0.02716555
000040 57 ee 14 3b 7c a5 ab 3b ba 9f c2 3c 1d 05 65 3c
       0.002272507 0.005238233 0.023757804 0.01397827
000050 7d c3 d4 3b 2e 96 68 3b 57 5f 02 3b 9e 3b f3 39
       0.0064930306 0.0035489905 0.0019893253 0.0004639299
000060 3b 52 62 3b ee b1 6c 3d d7 18 81 3b 58 55 86 39
       0.0034533876 0.057786874 0.0039397287 0.00025622058
000070 a5 25 5e 3b 3f a8 f2 39 57 3e ae 3c ac ac 28 3a
       0.003389695 0.0004628319 0.02126996 0.00064344215
000080 06 18 88 3b 76 2c 3f 3c f9 38 05 3d 78 57 08 3c
       0.0041532544 0.011668315 0.032525036 0.008321635
000090 f1 82 fe 3b aa f1 ae 3c 19 d6 19 3b 1d 3c 76 3d
       0.0077670743 0.021355469 0.002347356 0.060115922
0000a0 d0 3b 5a 3d ef fb 80 3b 47 45 d1 3b 86 0b 1f 3b
       0.053279698 0.003936283 0.0063864323 0.0024268343
0000b0 54 59 8c 3b 5f aa f0 3c 6d 62 6b 3c a4 4d 8f 3a
       0.0042831097 0.029378114 0.014366728 0.0010933173
