ML Model/tv_detection_epoch_40/e-25-0.894.pth (torch_old, 465973 bytes, 205 tensors)

backbone.0.0.weight f4 [16, 3, 3, 3]
-4.666332e-39 -3.609978e-38 -1.695361e-39 -6.685177e-39 6.34473e-40 -6.3336364e-38 -2.0463834e-38 1.020206e-39
-1.25444e-39 -5.375044e-38 1.516491e-39 -1.333083e-39 6.044592e-39 3.037655e-39 -4.4025838e-38 -4.388803e-38
6.851446e-39 4.8037857e-38 -3.788259e-39 -4.504271e-39 1.4025989e-38 5.165422e-39 8.99569e-40 -4.46782e-40
5.771204e-39 2.061914e-39 -1.461882e-39 -0.04199727 -0.015107489 0.014696865 0.1173284 0.34365678
0.032930754 -0.17722842 -0.24581127 -0.039571267 -0.03591669 0.05685055 -0.00082946 0.2598166
0.72757304 0.089223996 -0.3424275 -0.6011812 -0.09587897 0.1211814 0.1329829 0.15659237
0.11543322 0.22997898 0.07027823 -0.059850577 -0.14480235 -0.0023764896 -0.102337435 0.0916753
-0.015222786 -0.42110452 0.7287244 -0.31640658 -0.68172973 0.9098666 -0.29841822 -0.1328067
0.16924806 -0.06405869 -0.8532945 1.3128582 -0.55182844 -1.0823005 1.4488808 -0.48665306
0.010075723 0.015002551 0.08087518 -0.1820155 0.41452274 -0.12065231 -0.24473721 0.47429845
-0.1069539 -0.0043809935 -0.028584309 0.06778279 0.07249052 0.20928589 -0.2700446 0.051831566
0.3308789 -0.31030968 -0.004576712 -0.051422693 0.07325171 0.05002919 0.51591665 -0.61798906
0.067611635 0.65657496 -0.6895655 -0.0070890086 -0.012223844 -0.012286956 0.048050657 0.08604197
-0.10266503 0.017863344 0.09242862 -0.15058061 -0.08947288 0.021929635 -0.036254417 0.039633222
-0.03728719 -0.09934094 0.1843166 0.06765985 -0.14863507 0.006820029 0.026833784 -0.074264154
0.09660547 -0.19970202 -0.31052005 0.25291464 -0.10687018 -0.41380394 0.023923853 0.0127654495
-0.1167929 -0.0094879605 -0.12638198 -0.21218848 -0.0071380506 -0.079929456 -0.16900767 0.16649379
0.1704254 -0.21066064 0.1248602 0.61122996 0.23686156 -0.17792225 0.5713045 0.6188495
0.0920363 -0.04389839 0.10007154 0.037956152 -0.18987045 -0.07563234 0.028657183 -0.15991655
-0.11384211 -0.19540478 -0.103125 0.18591328 -0.09802779 -0.47444674 -0.21589074 0.09266466
-0.47032398 -0.5866912 -0.014322583 -0.017111016 0.0044525987 0.45490938 -0.13321903 -0.19151555
0.15978257 -0.05973347 -0.039219182 -0.055140242 -0.01119131 0.031284343 0.91784334 -0.25402716
-0.4228951 0.27568316 -0.19962576 -0.07130334 0.013323369 0.007267406 0.0055878693 0.22631226
-0.07018617 -0.120858856 0.044024806 -0.07413776 -0.04960335 0.04932285 0.044030692 -0.071473375
-0.021637054 0.11535577 0.25337568 -0.044810053 0.085743934 0.2981463 -0.015312001 -0.07508865
-0.17206644 0.0075388183 0.18615973 0.35176957 -0.01151286 0.22548921 0.39044613 0.023031559
0.08940406 0.06995497 0.03754339 0.1543673 0.30133596 0.04593402 0.1403432 0.2157985
0.05116315 0.042037368 -0.13675526 -0.1782953 0.6866365 -0.51627743 0.029919384 0.7284122
-0.68133867 -0.03534017 0.166425 -0.21249568 -0.12648599 1.0813593 -0.9194843 0.017524775
1.0461165 -0.9778862 0.04814724 -0.014936369 -0.015469383 -0.11897029 0.3946606 -0.33812425
0.007661721 0.39627868 -0.39633512 -5.005455e-39 4.39332e-39 -2.575034e-39 -6.299474e-39 -3.152402e-39
-4.41869e-39 3.672194e-39 -1.911908e-39 1.571132e-39 3.162616e-39 -4.090413e-39 1.173568e-39 1.554711e-39
00000000: d6cf 3280 c08b 4481 fa75 1280 8ecb 4880
00000010: a7e8 0600 016b ac81 d8d4 de80 eb1b 0b00
00000020: dea8 0d80 9752 9281 5c83 1000 1884 0e80
00000030: ddd1 4100 bf13 2100 10b3 6f81 fcf2 6e81
00000040: 0b9b 4a00 80c5 8201 2040 2980 130c 3180
00000050: c0ba 9800 183f 3800 a2cb 0900 72dd 0480
00000060: c5d7 3e00 c773 1600 22eb 0f80 5405 2cbd
00000070: 6785 77bc 1fcb 703c df49 f03d c8f3 af3e
00000080: 66e2 063d 5e7b 35be f3b5 7bbe 7b15 22bd
00000090: 611d 13bd 1fdc 683d 1e70 59ba ae06 853e
000000a0: 3a42 3a3f 12bb b63d a852 afbe 03e7 19bf
000000b0: 325c c4bd f42d f83d ab2c 083e c059 203e
000000c0: 4168 ec3d 9c7f 6b3e 08ee 8f3d e125 75bd
000000d0: 1147 14be e1be 1bbb 4a96 d1bd 42c0 bb3d
000000e0: fe68 79bc 039b d7be af8d 3a3f 0b00 a2be
000000f0: d785 2ebf 04ed 683f 46ca 98be 7bfe 07be
00000100: 5d4f 2d3e 3431 83bd 8271 5abf bd0b a83f
00000110: a144 0dbf d388 8abf ed74 b93f 972a f9be
00000120: a514 253c 42cd 753c e3a1 a53d 4562 3abe
00000130: 533c d43e 8f18 f7bd 649c 7abe 3fd7 f23e
00000140: a50a dbbd 708e 8fbb a429 eabc b4d1 8a3d
00000150: e975 943d 0a4f 563e 4943 8abe 564d 543d
00000160: f668 a93e e9e0 9ebe 3ef8 95bb 9aa0 52bd
00000170: fe04 963d 68eb 4c3d 1d13 043f 8834 1ebf
00000180: f877 8a3d 4c15 283f 5d87 30bf ea4a e8bb
00000190: 8546 48bc 3b4f 49bc c4d0 443d c636 b03d
000001a0: 0b42 d2bd 2656 923c 374b bd3d ce31 1abe
000001b0: 8f3d b7bd c7a5 b33c 837f 14bd 7256 223d
000001c0: 74ba 18bd 4373 cbbd 7ebd 3c3e 3f91 8a3d
000001d0: cb33 18be 8d7a df3b 86d2 db3c ce17 98bd
000001e0: 17d9 c53d b07e 4cbe 7cfc 9ebe 077e 813e
000001f0: c1de dabd 1cde d3be f5fb c33c 2d26 513c
00000200: 1e31 efbd 6473 1bbc 476a 01be f047 59be
00000210: 4fe6 e9bb 0eb2 a3bd 5910 2dbe 597d 2a3e
00000220: ff83 2e3e 6cb7 57be b4b6 ff3d 9179 1c3f
00000230: d68b 723e 4031 36be 0341 123f ec6c 1e3f
00000240: 877d bc3d ccce 33bd 4ff2 cc3d e977 1b3d
00000250: 666d 42be 21e5 9abd 78c2 ea3c 2ac1 23be
00000260: 0d26 e9bd 3118 48be 3333 d3bd 0d60 3e3e
00000270: cbc2 c8bd afea f2be 7612 5dbe f8c6 bd3d
00000280: 4ece f0be 6531 16bf 44a9 6abc 672c 8cbc
00000290: 1be7 913b e2e9 e83e 926a 08be a71c 44be
000002a0: 0b9e 233e 15ab 74bd 4ba4 20bd bcda 61bd
000002b0: c25b 37bc 0324 003d c8f7 6a3f d90f 82be
000002c0: b585 d8be 5826 8d3e b26a 4cbe 7c07 92bd
000002d0: 434a 5a3c 6c23 ee3b 721a b73b 67be 673e
000002e0: c4bd 8fbd d984 f7bd 5b53 343d 8ad5 97bd
000002f0: e22c 4bbd c206 4a3d 8759 343d a260 92bd
00000300: 3140 b1bc a53f ec3d 75ba 813e bf8a 37bd
00000310: 849a af3d a2a6 983e 30df 7abc 14c8 99bd
00000320: 2f32 30be 3108 f73b a8a0 3e3e 241b b43e
00000330: 6fa0 3cbc a5e6 663e 8ee8 c73e aeac bc3c
00000340: 7a19 b73d 8d44 8f3d 19c7 193d 7612 1e3e
00000350: b548 9a3e 5025 3c3d 21b6 0f3e 48fa 5c3e
00000360: 7490 513d 602f 2c3d 9209 0cbe 0b93 36be
00000370: 69c7 2f3f c22a 04bf 7f19 f53c 3979 3a3f
00000380: 366c 2ebf dbc0 10bd 516b 2a3e 7898 59be
00000390: 8b85 01be fb69 8a3f 5363 6bbf 1e90 8f3c
000003a0: 25e7 853f c056 7abf 0a36 453d acb7 74bc
000003b0: 4c73 7dbc b2a6 f3bd f410 ca3e 9f1e adbe
000003c0: 2d0f fb3b 0ae5 ca3e 70ec cabe 2c81 3680
000003d0: cad6 2f00 260a 1c80 5f98 4480 9d53 2280
000003e0: 831d 3080 95fc 2700 9fd1 1480 ad1b 1100
000003f0: 1670 2200 688a 2c80 6ec7 0c00 e7ed 1000

backbone.0.1.weight f4 [16]
2.70765e-39 0.15724304 0.14346886 0.25534806 0.18173225 0.23365803 0.036059618 0.2894133
0.09000094 -1.521535e-39 0.5047775 0.119803794 0.21471569 0.34067878 4.870172e-39 -5.577982e-39
00000000: d47b 1d00 5204 213e 80e9 123e fbbc 823e
00000010: 0518 3a3e 0d44 6f3e 40b3 133d fb2d 943e
00000020: 6a52 b83d 6c91 1080 1939 013f b15b f53d
00000030: 6ede 5b3e 736d ae3e 0f08 3500 25bd 3c80

backbone.0.1.bias f4 [16]
-1.943132e-39 0.58131194 0.39426088 0.27173296 0.9027073 0.5540865 0.5462436 0.5164557
0.5986411 -1.6694e-40 -0.17473534 0.93746895 0.44236597 -0.33611953 1.20722e-40 -8.8354e-40
00000000: a928 1580 dcd0 143f 90dc c93e 9520 8b3e
00000010: d317 673f 9dd8 0d3f 9fd6 0b3f 7136 043f
00000020: 8b40 193f 5cd1 0180 d2ed 32be f7fd 6f3f
00000030: cb7d e23e dc17 acbe 8650 0100 f39e 0980

backbone.0.1.running_mean f4 [16]
7.701474e-37 74.27229 11.362264 8.575853 -157.17114 -42.714397 31.61173 270.55942
3.1799371 -2.5065598e-36 0.21475478 166.77754 112.919044 80.53452 2.7429882e-36 -3.8327404e-36
00000000: a608 8303 6a8b 9442 d5cb 3541 b236 0941
00000010: d02b 1dc3 8bdb 2ac2 d3e4 fc41 9b47 8743
00000020: 1784 4b40 0a3c 5584 ade8 5b3e 0dc7 2643
00000030: 8dd6 e142 ad11 a142 fe58 6904 d906 a384

backbone.0.1.running_var f4 [16]
6e-45 3818.5977 8807.268 1645.3075 11105.369 7906.8315 3056.971 31771.818
6025.14 6e-45 2377.2483 11729.675 7286.7124 4824.298 6e-45 6e-45
00000000: 0400 0000 90a9 6e45 129d 0946 d7a9 cd44
00000010: 7a85 2d46 a716 f745 890f 3f45 a337 f846
00000020: 1f49 bc45 0400 0000 f993 1445 b346 3746
00000030: b3b5 e345 62c2 9645 0400 0000 0400 0000

backbone.1.conv.0.0.weight f4 [16, 1, 3, 3]
1.8273694e-38 3.47129e-38 -2.0029947e-38 -2.235695e-39 6.613193e-39 -4.283461e-39 2.6139056e-38 -5.04834e-39
-6.3865467e-38 0.00024357538 -0.042959273 0.048571832 0.0004930974 -0.1424284 0.7447457 0.02994376
0.069754735 -0.81175095 -0.0043116747 -0.033404388 -0.16330354 -0.034225043 0.08264293 1.1014062
-0.010083535 -0.055769913 -0.086872585 -0.062353317 -0.03091578 -0.09663695 0.049993847 0.7848612
-0.32631782 -0.009517103 -0.013617367 -0.16237675 0.6081341 1.9607918 0.46624172 0.2445324
0.46367106 0.19391458 -0.83799875 -2.1258748 -0.7379562 -0.10928567 0.10238431 -0.16034205
0.17696854 0.37526685 -1.6962986 0.071368806 1.2947856 0.3502972 0.004492402 0.08516117
-0.081329614 0.026401933 0.004855015 -0.84971565 0.006871567 -0.051750816 0.9759785 -0.50633305
-0.2601756 0.7612701 -2.398039 -0.33391145 2.6535304 -0.49543008 -0.18751097 0.62483996
-0.015433997 0.097569555 -0.05940301 0.039084464 -1.0885814 0.19181491 0.024711063 -0.008332649
-0.047450643 -5.144485e-39 -6.41022e-39 -6.480306e-39 1.137301e-39 1.553702e-39 5.86038e-39 -6.596014e-39
6.116026e-39 -2.146188e-39 0.113923565 -0.115191326 -0.46495566 -0.1333348 0.18774149 0.3867139
-0.34965733 0.3216365 0.43399033 0.15555383 1.5715373 1.0052778 0.052967172 0.030097496
-0.13208309 -0.36215463 -1.6492597 -0.9929598 -0.026452763 0.078855276 0.021830121 0.0101676565
0.042470846 -0.6014414 -0.004833699 0.08945934 0.9031738 -0.004860932 0.037468333 -0.14113629
0.06489409 0.08522977 -0.13346471 -0.110431656 -0.07739161 0.71931124 -3.241896e-39 -4.007467e-39
2.645926e-39 4.302732e-39 5.458336e-39 -7.024734e-39 -3.69754e-39 -3.274647e-39 -2.544565e-39 -6.06755e-40
5.828159e-39 1.8719809e-38 -5.68663e-39 -6.329836e-39 -2.0870443e-38 5.402483e-39 -5.959742e-39 -5.42347e-39
00000000: a0fb c600 b9fe 3c01 581b da80 3558 1880
00000010: e402 4800 8ca4 2e80 8750 0e01 b8f8 3680
00000020: bcdb ad81 4568 7f39 10f6 2fbd 42f3 463d
00000030: 3543 013a c0d8 11be a7a7 3e3f 9e4c f53c
00000040: 92db 8e3d e9ce 4fbf f348 8dbb 0ad3 08bd
00000050: 0b39 27be 8f2f 0cbd b240 a93d e1fa 8c3f
00000060: 6935 25bc fe6e 64bd 41ea b1bd 3166 7fbd
00000070: 1743 fdbc 98e9 c5bd 59c6 4c3d aaec 483f
00000080: 2113 a7be a0ed 1bbc 601b 5fbc 1746 26be
00000090: adae 1b3f 3afb fa3f 3cb7 ee3e b466 7a3e
000000a0: 4b66 ed3e 8b91 463e 1687 56bf 550e 08c0
000000b0: b3ea 3cbf 2ad1 dfbd ddae d13d b530 24be
000000c0: 3e37 353e fa22 c03e 5020 d9bf cf29 923d
000000d0: 89bb a53f 285a b33e 0035 933b fb68 ae3d
000000e0: 2490 a6bd de48 d83c d116 9f3b f786 59bf
000000f0: e22a e13b aaf8 53bd bad9 793f 0b9f 01bf
00000100: bc35 85be 99e2 423f 7979 19c0 71f6 aabe
00000110: 71d3 2940 03a9 fdbe e002 40be 83f5 1f3f
00000120: e0de 7cbc 8cd2 c73d 9250 73bd 0817 203d
00000130: a356 8bbf 216b 443e db6e ca3c aa85 08bc
00000140: 9b5b 42bd bb04 3880 16cd 4580 7590 4680
00000150: 5562 0c00 17eb 1000 5bd0 3f00 01d3 4780
00000160: fe98 4200 b35e 1780 c250 e93d 6ee9 ebbd
00000170: ab0e eebe eb88 08be 4e3f 403e 5dff c53e
00000180: 4906 b3be 8aad a43e fb33 de3e 8149 1f3e
00000190: 2228 c93f f1ac 803f 1bf4 583d 068f f63c
000001a0: ca40 07be 556c b9be f11a d3bf 9d32 7ebf
000001b0: 77b3 d8bc e07e a13d 15d5 b23c 3e96 263c
000001c0: e9f5 2d3d 10f8 19bf 0264 9ebb 7536 b73d
000001d0: 6636 673f 7448 9fbb 6578 193d 0886 10be
000001e0: 31e7 843d f28c ae3d f9aa 08be fe29 e2bd
000001f0: 7e7f 9ebd c824 383f 164d 2380 30a3 2b80
00000200: c4cf 1c00 44da 2e00 9f6f 3b00 1a7e 4c80
00000210: 3d43 2880 62a8 2380 36b5 1b80 639b 0680
00000220: 8976 3f00 36d7 cb00 03ec 3d80 02ed 4480
00000230: 4e42 e380 edd3 3a00 56e5 4080 6e0e 3b80

backbone.1.conv.0.1.weight f4 [16]
-2.346783e-39 0.5246109 0.7172207 0.5063385 1.157634 0.51502514 0.50954986 0.8797505
0.49452904 1.824975e-39 0.23548265 1.0494934 0.6728505 0.3234502 -6.88817e-40 -4.531288e-39
00000000: e08d 1980 e64c 063f c79b 373f 669f 013f
00000010: 5a2d 943f b0d8 033f dc71 023f 5437 613f
00000020: e932 fd3e 4adf 1300 5d22 713e cd55 863f
00000030: ee3f 2c3f 449b a53e 2480 0780 6357 3180

backbone.1.conv.0.1.bias f4 [16]
-1.5399356e-38 0.84216136 1.4586192 0.36776245 0.19787838 0.94019085 0.8603665 0.43020666
0.4784787 -1.1436816e-05 0.35545242 0.11512858 1.0510485 -0.25640628 -3.98322e-40 -7.3181e-41
00000000: 24af a780 e397 573f 09b4 ba3f 5c4b bc3e
00000010: a1a0 4a3e 59b0 703f fb40 5c3f 0c44 dc3e
00000020: 29fb f43e c0e0 3fb7 dcfd b53e 88c8 eb3d
00000030: c288 863f af47 83be 5c56 0480 00cc 0080

backbone.1.conv.0.1.running_mean f4 [16]
6e-45 -0.0681148 0.30508965 0.041561056 0.2212486 0.23642273 0.061731067 -0.08234508
-0.5162936 3e-45 0.03876849 -0.2993187 0.2148724 0.017071676 -6e-45 -6e-45
00000000: 0400 0000 c67f 8bbd b634 9c3e ed3b 2a3d
00000010: fe8e 623e cd18 723e b7d9 7c3d 8aa4 a8bd
00000020: d12b 04bf 0200 0000 b5cb 1e3d 4d40 99be
00000030: 8307 5c3e e6d9 8b3c 0400 0080 0400 0080

backbone.1.conv.0.1.running_var f4 [16]
6e-45 0.012725332 0.012207335 0.03160061 0.23576634 0.057798848 0.002559589 0.39996684
0.008715559 6e-45 0.01784055 0.14541455 0.024394156 0.0027104507 6e-45 6e-45
00000000: 0400 0000 e97d 503c 4601 483c a46f 013d
00000010: bb6c 713e 7cbe 6c3d c7be 273b 74c8 cc3e
00000020: b4cb 0e3c 0400 0000 5826 923c 8de7 143e
00000030: 41d6 c73c d1a1 313b 0400 0000 0400 0000

backbone.1.conv.1.weight f4 [8, 16, 1, 1]
1.057072e-39 -0.054510593 -0.011505971 0.19752058 -0.10032326 0.65845555 0.20654282 -0.05939487
-0.107817255 -1.736642e-39 0.1329233 0.27100563 0.07183232 -0.013061641 -1.39712e-40 8.37867e-40
5.985436e-39 -0.057003845 -0.55481833 -0.029447287 0.11555404 0.013978226 -0.0007102263 0.041942377
0.08529881 5.21705e-39 0.06357715 -0.007294977 -0.18457018 0.28148258 -3.50187e-40 -3.807767e-39
1.834011e-39 0.46150386 0.14454125 0.43712625 -0.20581368 -0.16994716 -0.25836083 0.08401118
-0.22992276 -3.742559e-39 -0.08155805 0.39804116 0.023421574 -0.033278797 7.46287e-40 1.155212e-39
-2.271679e-39 -0.11236843 -0.19869299 -0.0028858378 0.5051861 -0.41165915 0.045191273 0.016983941
-0.20234378 5.615576e-39 0.15297383 -0.38651073 0.3178973 0.38500053 5.165235e-39 -5.480924e-39
-2.56241e-39 -0.32118747 0.33391732 -0.041635927 0.18296957 -0.6002133 0.09680086 -0.26153463
0.12400306 6.244517e-39 0.13373889 -0.11640996 -0.20022154 -0.048437852 2.824341e-39 -4.37216e-39
1.6774126e-38 -0.18024698 0.01920981 -0.48390803 -0.33108047 -0.19051261 0.26342893 0.51180804
0.40358746 6.990749e-39 0.056375913 0.45368436 -0.012272526 0.02149815 -3.827554e-39 3.693212e-39
-5.180681e-38 0.43571332 -0.095727906 -0.40056506 -0.4059117 0.056883436 0.022809021 -0.84242946
0.14193344 2.685422e-39 -0.09784447 0.2857897 -0.06294747 0.20788665 -4.02953e-39 3.464439e-39
-4.40678e-40 -0.09125726 0.20741868 -0.0019939428 0.47272572 0.62671936 -0.24155055 0.17328623
-0.03784549 4.982895e-39 0.12254837 -0.41489893 -0.21051134 -0.084432706 -3.185112e-39 -4.650301e-39
00000000: b082 0b00 8046 5fbd 8a83 3cbc d642 4a3e
00000010: 4876 cdbd 8b90 283f f67f 533e 0948 73bd
00000020: 4bcf dcbd 0de9 1280 0c1d 083e 40c1 8a3e
00000030: d31c 933d 7e00 56bc 7685 0180 a21f 0900
00000040: f62c 4100 dd7c 69bd 9308 0ebf 703b f1bc
00000050: 99a7 ec3d ee04 653c 7b2e 3aba c5cb 2b3d
00000060: 24b1 ae3d 03cf 3800 bd34 823d b40a efbb
00000070: f7ff 3cbe 7c1e 903e 2ed0 0380 8176 2980
00000080: 7af8 1300 3c4a ec3e 9f02 143e 03cf df3e
00000090: d2c0 52be a106 2ebe df47 84be 0e0e ac3d
000000a0: df70 6bbe bbc0 2880 e807 a7bd 0dcc cb3e
000000b0: 9ade bf3c 594f 08bd 5820 0800 4394 0c00
000000c0: 84bc 1880 6b21 e6bd 2d76 4bbe 5320 3dbb
000000d0: e053 013f fdc4 d2be 7c1a 393d e821 8b3c
000000e0: 3533 4fbe f125 3d00 2ca5 1c3e bce4 c5be
000000f0: 6fc3 a23e ca1e c53e 933e 3800 96ae 3b80
00000100: f5e6 1b80 af72 a4be 36f7 aa3e 6f8a 2abd
00000110: 605c 3b3e 94a7 19bf 873f c63d dee7 85be
00000120: 51f5 fd3d 2cff 4300 d9f2 083e 5868 eebd
00000130: e006 4dbe c566 46bd 1dc1 1e00 ce9b 2f80
00000140: 70a7 b600 aa92 38be e45d 9d3c cbc2 f7be
00000150: 6183 a9be bd15 43be 28e0 863e da05 033f
00000160: 04a3 ce3e 5d1f 4c00 6eea 663d 5149 e83e
00000170: b412 49bc e31c b03c aaad 2980 2c37 2800
00000180: 1408 8d81 d115 df3e fe0c c4bd dd16 cdbe
00000190: a9d3 cfbe 9bfe 683d fcd9 ba3c 75a9 57bf
000001a0: 0057 113e dd3d 1d00 ae62 c8bd 0753 923e
000001b0: 9aea 80bd 3de0 543e b1e0 2b80 72b9 2500
000001c0: 6ecc 0480 16e5 babd 9065 543e cfac 02bb
000001d0: 1b09 f23e ae70 203f 0759 77be f271 313e
000001e0: df03 1bbd 4942 3600 a4fa fa3d a26d d4be
000001f0: 4990 57be 0eeb acbd ccae 2280 26a3 3280

backbone.1.conv.2.weight f4 [8]
0.5343107 0.49579504 0.62281454 0.58030623 0.53971684 0.59299 0.5559412 0.5240063
00000000: 96c8 083f d9d8 fd3e c670 1f3f f38e 143f
00000010: e22a 0a3f 31ce 173f 2a52 0e3f 4725 063f

backbone.1.conv.2.bias f4 [8]
-2.6562595e-05 -2.6124759e-05 -6.385759e-05 -4.6740956e-07 -0.00015787708 8.302121e-05 -7.717669e-05 9.9300116e-05
00000000: bdd2 deb7 7e26 dbb7 48eb 85b8 48f0 fab4
00000010: ce8b 25b9 ac1b ae38 ecd9 a1b8 583f d038

backbone.1.conv.2.running_mean f4 [8]
0.9058187 -0.9193578 0.34742373 -0.3347381 -0.5004585 0.22200146 -0.4267434 0.5713799
00000000: bce3 673f 085b 6bbf 86e1 b13e cb62 abbe
00000010: 0c1e 00bf 5a54 633e 1c7e dabe f445 123f

backbone.1.conv.2.running_var f4 [8]
0.12902392 0.14109649 0.23832376 0.31333792 0.18576935 0.33726022 0.41641003 0.19034494
00000000: d91e 043e 997b 103e 250b 743e d46d a03e
00000010: 523a 3e3e 5fad ac3e b233 d53e c9e9 423e

backbone.2.conv.0.0.weight f4 [48, 8, 1, 1]
0.12724796 0.022827579 0.19965011 -0.18320069 -0.095983185 0.036131024 0.28058004 0.039230812
0.11201295 0.10109544 0.10095608 0.1640847 -0.16933429 -0.24969094 -0.12730171 -0.09562868
-0.089745626 0.016633324 -0.17412509 0.20789972 -0.017833916 -0.09654733 -0.23970826 0.14972413
-0.08541366 0.21575604 0.13017894 -0.57987505 0.025634216 -0.11585344 -0.24593079 -0.41728446
0.061542638 -0.046775058 0.19690019 -0.2641185 -0.13097696 0.086244844 0.06419365 -0.2154731
0.0019791822 -0.044958726 0.07200181 -0.24066661 -0.03055533 0.041023463 0.24779247 -0.0786839
0.05442874 0.190281 0.13361196 0.09078273 -0.11787538 -0.28992322 -0.14421538 -0.035027016
0.05434062 0.21710932 0.028439127 -0.040026963 -0.0040868646 0.05447398 -0.027280025 0.18184243
-0.16714169 -0.014872662 0.3692169 -0.06734 -0.20154381 0.005431321 -0.19763072 0.01918449
-0.02985777 0.31505036 -0.0017619956 0.10993653 -0.16102932 -0.03050969 0.02927005 -0.07854268
-0.07346094 -0.07311891 -0.016580528 -0.44117403 0.07761732 -0.0007437479 0.0022119575 0.06835958
-0.08264809 0.019847738 -0.2868361 0.27380973 0.023406623 -0.14038587 -0.19902173 0.22011691
0.117136836 0.13869555 -0.14908296 0.07412989 0.061718605 0.107333064 0.002632834 0.06468614
0.16526857 -0.16799116 -0.032379813 -0.06648871 -0.2837885 0.13163392 0.053837396 0.23379965
-0.058923975 -0.1310029 0.08468879 0.37783146 0.0077711344 0.0529763 -0.008822844 -0.299496
0.010272795 0.09721974 0.25197473 0.14774318 -0.28812113 -0.10211115 0.029944723 -0.23331897
0.20493065 0.18604521 0.16335513 0.19049227 0.21596578 0.13425678 0.059215654 0.061178215
0.04651579 -0.013235599 0.1363017 -0.22636478 -0.15575632 0.110080205 0.025753714 -0.054784764
-0.27867073 0.08186259 -0.20103782 0.1047681 -0.09546304 -0.076286525 -0.24621841 0.2645527
-0.092603 0.045836437 -0.2926379 0.26943251 0.11938162 -0.23432694 -0.26309174 0.33998978
0.11270456 0.19529447 0.16536137 0.24969463 -0.016527154 0.01994511 0.12769155 0.122127816
0.09954783 -0.049610715 0.06728527 -0.3472796 0.15429218 -0.115137145 -0.2828843 -0.15948872
0.04471613 0.07730341 0.026164513 0.09284345 -0.14037792 -0.046386737 0.020015612 -0.1255152
0.2859583 0.012737151 0.09607578 -0.001782082 0.08608496 -0.0050496925 0.018814733 0.056946285
-0.07126071 -0.023253512 0.11645371 0.16386296 -0.07757139 -0.119309925 0.088014126 -0.105497316
0.06849695 -0.3372529 0.24954297 -0.09011275 0.17121896 -0.18230945 -0.024802662 0.2491874
-0.05928545 0.042057388 0.22388197 0.03712024 -0.093241066 -0.01012107 0.23376869 0.15714253
-0.32433796 0.117146805 -0.10329963 0.2189755 -0.14300807 0.10229686 0.23299198 0.050259776
0.4156568 0.03559174 -0.13808621 -0.10522924 -0.15461627 -0.2312732 -0.06592476 0.10578789
0.028636292 0.003113735 0.17688647 0.16852212 0.06322195 0.16300832 -0.024238609 0.09276603
-0.19282018 -0.18242428 -0.37263322 -0.05737439 -0.003074608 0.42124647 0.0980338 0.0063147964
0.15587592 -0.04959273 -0.03231862 -0.27872044 -0.25675973 0.007670515 0.041871145 0.25887552
00000000: 4a4d 023e e700 bb3c 1471 4c3e f698 3bbe
00000010: d592 c4bd 20fe 133d 30a8 8f3e 7db0 203d
00000020: 0c67 e53d 200b cf3d 10c2 ce3d d205 283e
00000030: f865 2dbe fbae 7fbe 615b 02be f8d8 c3bd
00000040: 8ecc b7bd 9c42 883c d94d 32be aae3 543e
00000050: 6f18 92bc 9bba c5bd 1576 75be 4851 193e
00000060: 5bed aebd 27ef 5c3e a14d 053e b172 14bf
00000070: d9fe d13c 9144 edbd 48d5 7bbe 4fa6 d5be
00000080: 2214 7c3d 3497 3fbd 34a0 493e 8a3a 87be
00000090: d31e 06be 23a1 b03d f677 833d fba4 5cbe
000000a0: 2bb5 013b a426 38bd af75 933d 4f71 76be
000000b0: 2c4f fabc 3808 283d 4fbd 7d3e 0625 a1bd
000000c0: acf0 5e3d 06d9 423e 93d1 083e 4cec b93d
000000d0: a668 f1bd d170 94be 32ad 13be 7d78 0fbd
000000e0: 4594 5e3d e851 5e3e 2cf9 e83c 50f3 23bd
000000f0: 1beb 85bb 1c20 5f3d 5c7a dfbc e734 3a3e
00000100: 3127 2bbe 77ac 73bc ff09 bd3e 8ee9 89bd
00000110: 8061 4ebe 39f9 b13b b55f 4abe cb28 9d3c
00000120: 4898 f4bc 484e a13e c3f2 e6ba 6726 e13d
00000130: dfe4 24be 75ef f9bc bec7 ef3c fcda a0bd
00000140: b072 96bd 5ebf 95bd e3d3 87bc 90e1 e1be
00000150: d4f5 9e3d 14f8 42ba 7df6 103b 1c00 8c3d
00000160: 6743 a9bd b997 a23c 2edc 92be ca30 8c3e
00000170: 3fbf bf3c 50c1 0fbe 5acc 4bbe 5466 613e
00000180: 70e5 ef3d 3506 0e3e 34a9 18be 69d1 973d
00000190: a6cc 7c3d 70d1 db3d a08b 2c3b 2b7a 843d
000001a0: 2a3c 293e e005 2cbe b2a0 04bd 3c2b 88bd
000001b0: ba4c 91be 0bcb 063e 9a84 5c3d 2d69 6f3e
000001c0: 445a 71bd a025 06be 5171 ad3d 2073 c13e
000001d0: 00a5 fe3b adfd 583d b18d 10bc 8a57 99be
000001e0: 3a4f 283c 251b c73d d502 813e fd49 173e
000001f0: 9d84 93be a71f d1bd a34e f53c 2beb 6ebe
00000200: 57d9 513e a382 3e3e 9146 273e 6810 433e
00000210: 2226 5d3e 9c7a 093e 1d8c 723d 0296 7a3d
00000220: 5787 3e3d 20da 58bc ac92 0b3e 2bcc 67be
00000230: 967e 1fbe bb71 e13d 74f9 d23c fd65 60bd
00000240: eead 8ebe 93a7 a73d dcdc 4dbe a890 d63d
00000250: 2082 c3bd 1c3c 9cbd ae20 7cbe 7473 873e
00000260: a4a6 bdbd fdbe 3b3d a3d4 95be 0ff3 893e
00000270: 5a7e f43d 67f3 6fbe f6b3 86be 2413 ae3e
00000280: a6d1 e63d 46fb 473e 7e54 293e f3af 7f3e
00000290: f463 87bc ed63 a33c 93c1 023e 261e fa3d
000002a0: bcdf cb3d 9b34 4bbd dccc 893d a2ce b1be
000002b0: c5fe 1d3e 06cd ebbd 36d6 90be 0351 23be
000002c0: 4328 373d 4051 9e3d f656 d63c b524 be3d
000002d0: 3bbf 0fbe 0500 3ebd c8f7 a33c 0e87 00be
000002e0: 2069 923e 7caf 503c 61c3 c43d c094 e9ba
000002f0: 504d b03d e477 a5bb 5b21 9a3c 8240 693d
00000300: 23f1 91bd 267e bebc 487f ee3d b1cb 273e
00000310: c0dd 9ebd c358 f4bd c040 b43d fa0e d8bd
00000320: 2148 8c3d 69ac acbe 3188 7f3e 098d b8bd
00000330: 0654 2f3e 54af 3abe f42e cbbc fb2a 7f3e
00000340: 4dd5 72bd 5e44 2c3d 5141 653e 650b 183d
00000350: 2cf5 bebd d8d2 25bc 0f61 6f3e f9e9 203e
00000360: a00f a6be aaea ef3d c28e d3bd 1d3b 603e
00000370: b570 12be 0481 d13d 7395 6e3e 32dd 4d3d
00000380: f8d0 d43e a5c8 113d 7966 0dbe 6e82 d7bd
00000390: ba53 1ebe e2d2 6cbe 9003 87bd 52a7 d83d
000003a0: a896 ea3c ce0f 4c3b ba21 353e 1091 2c3e
000003b0: 827a 813d a7eb 263e 0c90 c6bc 1efc bd3d
000003c0: a772 45be 6ecd 3abe c8c9 bebe 6901 6bbd
000003d0: 5d7f 49bb 9ead d73e f2c5 c83d 5aec ce3b
000003e0: f09d 1f3e bf21 4bbd 8760 04bd 72b4 8ebe
000003f0: 0376 83be f258 fb3b 1481 2b3d 558b 843e

backbone.2.conv.0.1.weight f4 [48]
0.42466518 0.30856043 0.13472699 0.14307322 0.19660506 0.123920426 0.30858353 0.14433403
0.43412235 0.17485815 0.19291304 0.35424727 0.09262327 0.11716686 0.1368153 0.42489845
0.11416297 0.20289622 0.37337992 0.20730412 0.1889177 0.14332302 0.12340947 0.070582055
0.13731073 0.28637102 0.16270591 0.285129 0.12214179 0.046613246 0.4772078 0.07982358
0.1941123 0.28236705 0.20210697 0.20662303 0.34562975 0.36634755 0.12536973 0.34483114
0.41227624 0.20104617 0.11471639 0.16806056 0.18926279 0.3492672 0.3224323 0.17333537
00000000: b76d d93e a2fb 9d3e dff5 093e c981 123e
00000010: d652 493e fec9 fd3d a9fe 9d3e 4dcc 133e
00000020: 4945 de3e 040e 333e ff8a 453e e65f b53e
00000030: 45b1 bd3d 2ef5 ef3d 4f19 0c3e 4a8c d93e
00000040: 46ce e93d 07c4 4f3e a72b bf3e 8847 543e
00000050: a473 413e 45c3 123e 1bbe fc3d 538d 903d
00000060: 2f9b 0c3e 399f 923e 619c 263e 6efc 913e
00000070: 7a25 fa3d 88ed 3e3d 9554 f43e 8c7a a33d
00000080: 60c5 463e 6a92 903e 21f5 4e3e fd94 533e
00000090: 62f6 b03e e891 bb3e ec60 003e b58d b03e
000000a0: df15 d33e 0cdf 4d3e 6df0 ea3d 1118 2c3e
000000b0: 1bce 413e 27d3 b23e d915 a53e d47e 313e

backbone.2.conv.0.1.bias f4 [48]
-0.04670087 0.020201467 0.23011169 0.41313216 0.2322911 0.2287735 0.05739098 -0.004347109
-0.029086959 0.10370595 -0.08700898 0.07787213 0.18291292 0.20620342 0.21689905 -0.014159405
-0.10567437 0.19525662 0.041756973 0.3543093 0.3597631 0.13542894 0.2498458 0.30563295
0.13736041 -0.009786475 0.11243453 -0.3145224 0.2609474 0.2805704 -0.0115382895 0.23710774
0.111137055 0.0537419 0.12124861 0.1703068 -0.019905755 0.06753988 0.24770562 0.08937649
0.022541426 0.07920395 0.29461354 0.1466661 0.1367056 -0.028713774 0.19937812 0.15039025
00000000: 6949 3fbd 8c7d a53c 66a2 6b3e 0f86 d33e
00000010: b8dd 6d3e 9a43 6a3e ce12 6b3d 3172 8ebb
00000020: c647 eebc c963 d43d c431 b2bd 6c7b 9f3d
00000030: 864d 3b3e fd26 533e c91a 5e3e d9fc 67bc
00000040: ce6b d8bd 5af1 473e 5c09 2b3d 0768 b53e
00000050: de32 b83e e2ad 0a3e 94d7 7f3e ec7b 9c3e
00000060: 35a8 0c3e 7457 20bc 1344 e63d 1409 a1be
00000070: e69a 853e eca6 8f3e 180b 3dbc 5fcc 723e
00000080: d39b e33d 7720 5c3d 3151 f83d e864 2e3e
00000090: 6511 a3bc 5952 8a3d 8ba6 7d3e 050b b73d
000000a0: cca8 b83c ae35 a23d 96d7 963e a32f 163e
000000b0: 8efc 0b3e 2639 ebbc c729 4c3e e7ff 193e

backbone.2.conv.0.1.running_mean f4 [48]
-1.4673923e-05 1.1916435e-05 2.4475681e-05 -2.9908777e-05 -1.7972612e-05 -1.4106797e-05 5.2804885e-06 2.0929338e-06
-1.8629114e-05 1.6066451e-05 -1.6827948e-05 3.3787644e-05 1.27528665e-05 2.1931985e-05 -3.367514e-06 1.9153185e-06
-1.8657734e-05 -8.069323e-06 2.863534e-05 3.075191e-05 -1.3144938e-06 -2.383904e-05 9.809759e-06 -9.106114e-06
-1.9190866e-06 -3.1851258e-05 -1.0542842e-05 1.9197058e-05 2.8099514e-05 -1.3204157e-05 2.0208634e-05 1.6812246e-05
2.2115924e-05 -2.7599544e-05 -1.5083521e-05 2.1239897e-05 -1.4029477e-05 4.2910386e-05 6.5891554e-06 -2.124187e-05
4.878488e-06 -2.6589558e-05 -8.306328e-06 1.8277311e-05 3.092757e-05 -5.976981e-06 -1.0082301e-05 -2.3237255e-05
00000000: 0530 76b7 b3ec 4737 2051 cd37 9ce4 fab7
00000010: e4c3 96b7 3bac 6cb7 0d2f b136 5474 0c36
00000020: b845 9cb7 71c6 8637 be29 8db7 35b7 0d38
00000030: 25f5 5537 94fa b737 73fd 61b6 ec88 0036
00000040: 2e83 9cb7 7a61 07b7 ed35 f037 9dfb 0038
00000050: aa6d b0b5 f3f9 c7b7 9894 2437 76c6 18b7
00000060: a8c9 00b6 0798 05b8 29e1 30b7 5e09 a137
00000070: 3fb7 eb37 6c87 5db7 b685 a937 0608 8d37
00000080: 9685 b937 9285 e7b7 3b0f 7db7 552c b237
00000090: 2560 6bb7 adfa 3338 6a18 dd36 9230 b2b7
000000a0: e5b1 a336 a40c dfb7 685b 0bb7 3a52 9937
000000b0: 3ab8 0138 e08d c8b6 2727 29b7 a0ed c2b7

backbone.2.conv.0.1.running_var f4 [48]
0.108494684 0.064577706 0.10574747 0.12078901 0.11660914 0.075594425 0.064434595 0.02236136
0.06882272 0.05174038 0.06072158 0.17738588 0.02227526 0.077269204 0.07741865 0.08852655
0.017712565 0.070003025 0.12697594 0.2650876 0.032951877 0.038201455 0.020087328 0.025716549
0.027408196 0.09918865 0.028608844 0.058357313 0.13801618 0.017487282 0.14724281 0.115654595
0.054375917 0.056504726 0.1170638 0.10637161 0.08716124 0.18798478 0.019602459 0.1338496
0.032916754 0.0543095 0.03501831 0.09077532 0.10118258 0.13701488 0.118003964 0.12265457
00000000: 7632 de3d 5141 843d 2192 d83d 3a60 f73d
00000010: c6d0 ee3d 40d1 9a3d 49f6 833d 2c2f b73c
00000020: edf2 8c3d b8ed 533d 31b7 783d a5a4 353e
00000030: 9b7a b63c 513f 9e3d ab8d 9e3d 684d b53d
00000040: f119 913c bf5d 8f3d fb05 023e 90b9 873e
00000050: 8cf8 063d 2179 1c3d 2e8e a43c 83ab d23c
00000060: 2787 e03c 6b23 cb3d 185d ea3c 1408 6f3d
00000070: 1d54 0d3e 7d41 8f3c d2c6 163e 51dc ec3d
00000080: 48b9 5e3d 8071 673d 25bf ef3d 5cd9 d93d
00000090: 9881 b23d 157f 403e 5695 a03c df0f 093e
000000a0: b8d3 063d a373 5e3d 5c6f 0f3d 69e8 b93d
000000b0: d038 cf3d a14d 0c3e 10ac f13d 5232 fb3d

backbone.2.conv.1.0.weight f4 [48, 1, 3, 3]
-0.059718784 -0.21435389 -0.1445267 -0.025537955 -0.10396647 -0.10363441 0.024015112 -0.1321932
-0.060561948 -0.041552193 0.00413354 0.009145132 -0.10366072 -0.10843984 -0.047106307 -0.17915893
-0.18886611 -0.08830321 -0.10736487 -0.0738886 0.019233702 0.1837701 0.355628 0.21999972
-0.10237509 -0.16888492 -0.3207228 0.116703644 0.21857244 -0.0030126895 0.21598239 0.48947915
0.05133533 0.08489824 0.18450746 0.0030106362 -0.11786307 -0.29218718 -0.15095076 -0.10426945
-0.11203433 -0.0046335496 0.15074925 0.3832964 0.12322728 0.07806343 0.25744575 0.16153452
-0.0424055 -0.080956735 0.0081582265 -0.09340504 -0.23309925 -0.2445181 -0.06837563 -0.039239153
-0.102303624 -0.0010047895 -0.23911582 -0.2860498 -0.03116488 -0.12596914 -0.23751616 -0.13829973
0.019791827 -0.15589984 -0.12722696 0.11270062 -0.18035154 -0.15823282 0.07948212 -0.14753643
0.057652164 0.16147314 0.07052637 0.011547271 0.2724358 0.1560408 -0.030230671 0.20447013
0.105645895 -0.1189809 0.21796663 -0.06467911 -0.014725595 0.11672564 -0.08006058 0.14277813
-0.33581597 0.0982772 0.017495282 0.072484836 0.016452176 0.067846835 0.21501233 0.0610393
0.07661713 0.13959949 0.09384973 -0.054864675 -0.17160372 -0.076030195 -0.026062133 -0.28228936
-0.21528119 -0.0045909234 -0.011839097 -0.07333594 -0.055892386 0.105352044 -0.0018088543 0.1915589
-0.36008352 0.057075486 -0.115991525 0.22704907 -0.0562015 -0.095454 0.035713885 0.061613213
-0.311427 0.3105959 0.034292344 -0.05780273 0.16849779 -0.120374545 -0.08379951 -0.11284117
-0.037484806 0.15127572 0.3839366 0.07748788 -0.044233516 -0.28643808 -0.06748607 -0.05303632
-0.14847028 0.029120816 -0.18513751 -0.21743508 0.029244239 -0.104614936 -0.21382578 -0.023948671
0.024231313 -0.109611325 0.010984087 -0.020248877 0.08786495 0.15840667 0.07992228 0.09537194
0.1270444 0.092568465 0.14829703 0.014354612 0.19834383 0.23036148 0.006992614 0.05755252
0.12772368 0.0076247086 -0.008370369 -0.041718353 0.052034523 -0.00625776 -0.286313 -0.12058451
-0.010606018 -0.2106653 -0.042290773 0.035059676 -0.04640081 -0.058340944 -0.028319973 -0.29843125
-0.18669191 0.013460208 -0.25198004 -0.13015318 0.10904254 0.1543357 -0.008684612 0.17827648
0.36635572 -0.033245735 0.06940193 0.17172325 -0.05197165 -0.05141093 -0.015959097 0.16902612
-0.08603531 -0.21550302 0.28607118 -0.019754857 -0.22149636 0.14256811 0.09249279 -0.27913752
0.06615994 -0.21936882 0.4652643 -0.09644423 0.15012808 -0.1581806 0.036618426 -0.080625854
0.011662822 -0.0667929 0.06931742 -0.49899766 0.2845553 -0.00540952 0.38256538 -0.2572984
-0.0028699045 0.019754926 0.1594898 -0.060531866 -0.24734823 -0.31266415 0.057182375 0.23092075
0.15079972 0.07467705 0.11971657 0.09216776 0.08820627 0.25112763 0.15621608 0.11723995
0.25800744 0.1536107 -0.05949456 -0.14086004 -0.05598329 0.17746809 0.29654515 0.092729084
-0.098239616 -0.16228902 -0.03516189 0.012722341 0.11297154 0.12588473 0.061069496 0.1978539
0.15021628 -0.02931268 0.084220305 0.015654106 0.1562724 0.16454402 0.11351473 0.112120815
00000000: af9b 74bd 967f 5bbe cffe 13be f934 d1bc
00000010: 5fec d4bd 473e d4bd 57bb c43c a75d 07be
00000020: ce0f 78bd a232 2abd a672 873b 77d5 153c
00000030: 124c d4bd b515 debd 8bf2 40bd 7075 37be
00000040: 1e66 41be 50d8 b4bd 1de2 dbbd e852 97bd
00000050: ff8f 9d3c 3b2e 3c3e e014 b63e 9b47 613e
00000060: 08aa d1bd 2bf0 2cbe c735 a4be 5202 ef3d
00000070: 74d1 5f3e 8b70 45bb 7d2a 5d3e 039d fa3e
00000080: ff44 523d 21df ad3d 86ef 3c3e 184e 453b
00000090: 3162 f1bd 8f99 95be d692 1abe 398b d5bd
000000a0: 4172 e5bd 08d5 97bb 035e 1a3e 6d3f c43e
000000b0: 965e fc3d b8df 9f3d eecf 833e 4e69 253e
000000c0: 64b1 2dbd a5cc a5bd 15aa 053c 244b bfbd
000000d0: 92b1 6ebe f462 7abe 8608 8cbd 3cb9 20bd
000000e0: 9084 d1bd 24b3 83ba c7da 74be 1f75 92be
000000f0: 7e4d ffbc 0efe 00be 7037 73be 729e 0dbe
00000100: 7822 a23c 35a4 1fbe c947 02be 95cf e63d
00000110: 13ae 38be c907 22be 86c7 a23d ca13 17be
00000120: ad24 6c3d 3759 253e 2170 903d c430 3d3c
00000130: b57c 8b3e 29c9 1f3e 50a6 f7bc 9e60 513e
00000140: e05c d83d 42ac f3bd a532 5f3e 7b76 84bd
00000150: 9f43 71bc da0d ef3d cdf6 a3bd 6e34 123e
00000160: 12f0 abbe 8e45 c93d 4452 8f3c ee72 943d
00000170: b7c6 863c 48f3 8a3d 312c 5c3e 5804 7a3d
00000180: 71e9 9c3d 2bf3 0e3e 4a34 c03d c8b9 60bd
00000190: e3b8 2fbe b8b5 9bbd 4180 d5bc 3b88 90be
000001a0: ac72 5cbe 756f 96bb c6f8 41bc 2731 96bd
000001b0: 6aef 64bd d0c2 d73d 1417 edba 0428 443e
000001c0: de5c b8be fcc7 693d f78c edbd 8d7f 683e
000001d0: 8b33 66bd 637d c3bd b948 123d 235e 7c3d
000001e0: 5c73 9fbe 6d06 9f3e 2176 0c3d 8ec2 6cbd
000001f0: af8a 2c3e ee86 f6bd 149f abbd 4519 e7bd
00000200: ab89 19bd 06e8 1a3e 5793 c43e f7b1 9e3d
00000210: 342e 35bd 03a8 92be 2336 8abd 9d3c 59bd
00000220: 9808 18be c78e ee3c b094 3dbe 4da7 5ebe
00000230: 9d91 ef3c 5b40 d6bd 25f5 5abe 0130 c4bc
00000240: bf80 c63c e77b e0bd 9af6 333c f9e0 a5bc
00000250: 8af2 b33d 5c35 223e 4bae a33d 5d52 c33d
00000260: ed17 023e 8994 bd3d 2ddb 173e 9b2f 6b3c
00000270: a51a 4b3e e1e3 6b3e 4c22 e53b 31bc 6b3d
00000280: ffc9 023e b1d8 f93b df23 09bc dde0 2abd
00000290: 2722 553d e50d cdbb 9e97 92be 03f5 f6bd
000002a0: ddc4 2dbc a5b8 57be 1739 2dbd bc9a 0f3d
000002b0: c70e 3ebd eaf6 6ebd 4aff e7bc fbcb 98be
000002c0: 2a2c 3fbe 3488 5c3c 8703 81be e046 05be
000002d0: b251 df3d 2e0a 1e3e e749 0ebc 1c8e 363e
000002e0: fa92 bb3e ae2c 08bd 9922 8e3d 38d8 2f3e
000002f0: 3ae0 54bd 4494 52bd a7bc 82bc 2f15 2d3e
00000300: 4833 b0bd d3ac 5cbe ec77 923e f0d4 a1bc
00000310: f1cf 62be 60fd 113e dc6c bd3d 1deb 8ebe
00000320: dd7e 873d 38a2 60be 1f37 ee3e 8d84 c5bd
00000330: 2dbb 193e 18fa 21be 34fd 153d 2b1f a5bd
00000340: 6c15 3f3c b7ca 88bd 4bf6 8d3d 9f7c ffbe
00000350: 3bb1 913e 5842 b1bb 9cdf c33e 9ebc 83be
00000360: 0215 3cbb 15d5 a13c 4b51 233e 43f0 77bd
00000370: db48 7dbe 8415 a0be 1138 6a3d 7d76 6c3e
00000380: 3e6b 1a3e 48f0 983d f62d f53d 73c2 bc3d
00000390: 7da5 b43d cd93 803e 1cf7 1f3e 801b f03d
000003a0: 8d19 843e 204c 1d3e 91b0 73bd 9d3d 10be
000003b0: bc4e 65bd 32ba 353e c4d4 973e bfe8 bd3d
000003c0: da31 c9bd 182f 26be ea05 10bd 5e71 503c
000003d0: 9f5d e73d ede7 003e 0224 7a3d 369a 4a3e
000003e0: 4cd2 193e 2521 f0bc b27b ac3d 0a3d 803c
000003f0: df05 203e 3a7e 283e 697a e83d 999f e53d

backbone.2.conv.1.1.weight f4 [48]
0.5295111 0.27786955 0.36869147 0.2392415 0.3772598 0.382547 0.14366452 0.300577
0.20262837 0.27193043 0.14069752 0.4900387 0.32617053 0.27645054 0.34666777 0.39229968
0.29794413 0.26832438 0.53487355 0.50099427 0.26420772 0.2020445 0.35469723 0.36996415
0.38723758 0.21687144 0.35723457 0.18907943 0.2754538 0.30039024 0.4970169 0.20558895
0.30972204 0.1948363 0.27383995 0.35870156 0.21838853 0.3353602 0.34894592 0.31741077
0.37317756 0.22786501 0.3227761 0.34742483 0.34023175 0.21533562 0.321743 0.2559278
00000000: 0a8e 073f eb44 8e3e 21c5 bc3e b9fb 743e
00000010: 3228 c13e 33dd c33e cb1c 133e 3be5 993e
00000020: d07d 4f3e 773a 8b3e 0313 103e 5ae6 fa3e
00000030: d3ff a63e ed8a 8d3e 707e b13e 81db c83e
00000040: 228c 983e d061 893e 79ed 083f 2941 003f
00000050: 3c46 873e c1e4 4e3e e09a b53e f16b bd3e
00000060: 0144 c63e 8c13 5e3e 73e7 b63e 0a9e 413e
00000070: 4808 8d3e c0cc 993e 0079 fe3e e985 523e
00000080: e393 9e3e 2b83 473e c034 8c3e bba7 b73e
00000090: 3ea1 5f3e 55b4 ab3e 0aa9 b23e aa83 a23e
000000a0: 2111 bf3e 7255 693e e942 a53e abe1 b13e
000000b0: db32 ae3e f180 5c3e 80bb a43e f808 833e

backbone.2.conv.1.1.bias f4 [48]
-0.011620292 0.049263675 0.0024990703 0.7269066 0.033280525 0.0029958203 0.7012525 -0.48594657
0.17593625 -0.038519017 0.09609001 0.12816444 -0.020364238 0.006751076 -0.030403374 -0.008597585
-0.0058337483 -0.010035957 0.05312387 0.018971583 0.6701433 -0.006697204 -0.030336497 0.0025456352
0.006237004 -0.01585565 -0.018633721 0.0763382 0.12126925 -0.034131337 -0.00449694 0.037991524
-0.025556779 0.6693778 0.93432605 -0.016435964 0.5359037 0.31032825 -0.0056360634 0.10864697
0.07814627 0.040363513 0.02447466 -8.430163e-05 -0.038184125 0.32688478 0.046610247 -0.060395647
00000000: 0a63 3ebc b5c8 493d 71c7 233b 8d16 3a3f
00000010: 2951 083d 8655 443b 4985 333f fdcd f8be
00000020: a228 343e 1ec6 1dbd d7ca c43d 8a3d 033e
00000030: e7d2 a6bc 2138 dd3b 7f10 f9bc e3dc 0cbc
00000040: 0729 bfbb db6d 24bc 6a98 593d 4b6a 9b3c
00000050: 838e 2b3f 3874 dbbb 3f84 f8bc acd4 263b
00000060: c85f cc3b b5e3 81bc bfa5 98bc 3457 9c3d
00000070: 035c f83d 4dcd 0bbd 115b 93bb 009d 1b3d
00000080: 735c d1bc 585c 2b3f fe2f 6f3f b7a4 86bc
00000090: fc30 093f 58e3 9e3e baae b8bb 4d82 de3d
000000a0: 270b a03d 3654 253d 157f c83c 18cb b0b8
000000b0: f566 1cbd 715d a73e 63ea 3e3d 6d61 77bd

backbone.2.conv.1.1.running_mean f4 [48]
-0.09075135 -0.07740476 0.0017392595 0.55510634 -0.02607803 -0.04487617 -0.14275804 -0.03272736
0.12833011 -0.005359227 0.023398127 -0.13584515 -0.002639427 0.009994222 -0.0055128187 -0.10616469
0.0058833165 0.18393292 -0.094669394 -0.34376594 0.32753873 -0.006095424 0.013585364 -0.04848551
0.002888754 0.09783179 -0.0023087454 0.0097916955 0.248311 0.006622295 -0.1569339 0.0965327
0.04850431 -0.104217336 -0.17897242 0.0041675484 -0.09088343 -0.15247996 0.0035203272 0.20940942
-0.15188487 0.12817109 -0.019711485 0.013057351 0.03188244 0.16064955 -0.2833176 0.03632589
00000000: d8db b9bd 6386 9ebd ddf7 e33a 731b 0e3f
00000010: 98a1 d5bc 13d0 37bd 2a2f 12be 200d 06bd
00000020: f868 033e 749c afbb 6ead bf3c fe1a 0bbe
00000030: 3dfa 2cbb cebe 233c e0a4 b4bb df6c d9bd
00000040: d6c8 c03b e958 3c3e 07e2 c1bd 1702 b0be
00000050: 28b3 a73e 1fbc c7bb 2695 5e3c be98 46bd
00000060: 4051 3d3b 095c c83d 524e 17bb 596d 203c
00000070: 3d45 7e3e d6ff d83b 48b3 20be f0b2 c53d
00000080: 75ac 463d e66f d5bd 8c44 37be ee8f 883b
00000090: 1721 babd b523 1cbe 4ab5 663b 6c6f 563e
000000a0: b587 1bbe 483f 033e fb79 a1bc 80ee 553c
000000b0: 2997 023d 5181 243e 010f 91be 75ca 143d

backbone.2.conv.1.1.running_var f4 [48]
0.017570173 0.008834761 0.0057073543 0.017926734 0.018206524 0.0055256085 0.027405571 0.0029400426
0.048988514 0.0017062804 0.001464082 0.03100084 0.0006179933 0.0021825766 0.0032315264 0.021079602
0.0012583776 0.009597125 0.021396274 0.018367687 0.011525992 0.003749147 0.0025145612 0.0006027817
0.002927931 0.02538435 0.004381545 0.00084894337 0.0063696173 0.0002854047 0.0247775 0.0012818262
0.0051796585 0.015039493 0.019107817 0.008304593 0.007508247 0.03735487 0.0019393071 0.05588825
0.040859345 0.008190521 0.0045131184 0.005359035 0.0047418345 0.026528966 0.019853607 0.001537362
00000000: 53ef 8f3c acbf 103c c204 bb3b 16db 923c
00000010: d925 953c 2a10 b53b a681 e03c bbad 403b
00000020: 2ea8 483d 45a5 df3a 71e6 bf3a 79f5 fd3c
00000030: d400 223a 8f09 0f3b 04c8 533b 21af ac3c
00000040: 25f0 a43a 433d 1d3c 3d47 af3c d577 963c
00000050: 84d7 3c3c 40b4 753b 56cb 243b ff03 1e3a
00000060: 88e2 3f3b d7f2 cf3c 1093 8f3b a08b 5e3a
00000070: 39b8 d03b 5fa2 9539 2ffa ca3c f302 a83a
00000080: 20ba a93b 3568 763c ff87 9c3c fd0f 083c
00000090: be07 f63b 6c01 193d 5930 fe3a 14eb 643d
000000a0: 215c 273d 8931 063c c8e2 933b d89a af3b
000000b0: 6461 9b3b 4653 d93c 08a4 a23c 4f81 c93a

backbone.2.conv.2.weight f4 [8, 48, 1, 1]
0.14624622 0.12678595 0.025163328 0.020051505 0.38871554 -0.029578716 0.20570397 -0.251782
-0.21878351 -0.06604351 0.060435485 0.23452245 -0.026022239 -0.09529167 0.010429309 0.26966766
-0.19036661 -0.11141396 0.088013984 0.38379288 0.032343227 -0.026605489 -0.025063392 -0.020624075
0.11353013 0.00085219374 0.21888533 -0.20849444 -0.15847844 -0.06492587 -0.014868066 -0.06490472
-0.073756084 0.30971268 0.20566577 -0.08639432 0.04495408 0.17719024 0.051028196 -0.02631754
0.26699218 -0.003251309 0.060327366 -0.04578946 -0.122926 -0.17543145 0.04756453 -0.10638566
0.031462576 0.15671635 0.24116835 -0.4575518 0.015007003 0.1907169 0.042166404 -0.14754045
0.066860214 -0.023081344 -0.013107162 -0.108764835 -0.09201915 -0.118257664 -0.0026980012 0.090093896
-0.04418487 0.06283186 -0.19023402 0.05963561 0.037768852 -0.036357056 0.009777968 -0.006590158
-0.057351034 0.07400402 0.16076893 0.03151107 0.13528886 -0.102779604 0.0687895 -0.124238975
-0.118770786 0.04522101 -0.17690171 -0.03914199 0.44374758 -0.295616 0.024213713 -0.25706422
-0.05901427 0.025263235 -0.0024556948 -0.13432373 -0.052614346 -0.26206255 0.0085870745 -0.18184336
0.17641115 -0.04037861 -0.116900995 -0.2875173 0.22194049 -0.37478998 -0.1587645 0.0591412
0.01976131 0.1564949 -0.058733653 -0.27988595 0.25576177 -0.18558331 -0.11881858 -0.077757895
0.10647075 -0.04825923 0.09968433 -0.040805202 0.16756892 0.061390955 0.27906317 0.26453504
-0.10309028 -0.10612628 -0.27407143 0.07041515 0.20809755 0.25698158 0.093380876 0.05040172
-0.2026588 0.15927301 0.1407288 -0.14612931 -0.11925094 0.2036967 0.2737299 -0.1738863
0.11627624 -0.24500333 0.20080312 -0.16343407 -0.16981362 0.116852425 -0.11337935 0.14525084
-0.11406544 0.16296552 0.16625528 0.29276064 -0.21570462 0.1381563 -0.0739408 -0.056118146
-0.029702717 -0.0020270003 0.1908619 -0.23937519 -0.038687907 0.06185641 0.24203712 0.012766311
-0.042887416 0.017959021 0.019162996 -0.22744937 -0.087331496 0.10422814 0.1150356 0.05225171
0.10441061 -0.117224656 0.16544019 0.061111894 -0.093618385 -0.12217854 0.2153636 0.036777947
-0.12936088 -0.1619894 0.24205099 -0.045539904 0.024133438 0.21577868 0.058217056 -0.0137625355
-0.07520524 0.26084486 0.26835984 -0.010533239 -0.08297633 0.028264105 -0.24349804 0.07017221
-0.037636586 -0.16409045 0.16359217 0.0665995 0.10529746 0.12114168 -0.15301727 -0.04439333
-0.006665023 -0.034700632 0.13380231 0.14002429 0.12539646 -0.046197563 0.15006042 -0.3014702
-0.05820093 -0.14106995 0.040845107 -0.1346089 -0.21929611 0.083229646 0.0060715564 0.035135612
0.32860923 -0.022153165 0.21873222 -0.014911493 -0.10454308 -0.05154005 -0.1705619 -0.0432239
0.16237976 -0.08577201 0.17237319 0.13960706 0.008232024 -0.000743064 0.038567856 -0.01463155
-0.07838307 -0.016192416 0.01951554 0.12282436 0.12254064 0.22784887 -0.31619668 -0.21290141
0.0975075 -0.13396846 0.18726254 0.007665357 0.21569398 0.10011265 0.17673016 -0.1775982
-0.22313322 0.14471297 -0.017589945 -0.3111669 0.24923708 0.026863893 0.13491647 -0.10115574
00000000: 92c1 153e 2dd4 013e 5323 ce3c 0e43 a43c
00000010: b905 c73e 104f f2bc 10a4 523e 92e9 80be
00000020: c908 60be d241 87bd 338b 773d a726 703e
00000030: 972c d5bc 4728 c3bd b1df 2a3c e111 8a3e
00000040: 77ef 42be 012d e4bd ad40 b43d 8080 c43e
00000050: 557a 043d c1f3 d9bc be51 cdbc d2f3 a8bc
00000060: 7c82 e83d c165 5f3a 7a23 603e 917f 55be
00000070: 2c48 22be dbf7 84bd 3099 73bc c4ec 84bd
00000080: 6e0d 97bd a992 9e3e 0c9a 523e 81ef b0bd
00000090: c521 383d 5c71 353e f102 513d e297 d7bc
000000a0: 33b3 883e ea13 55bb d419 773d bb8d 3bbd
000000b0: a0c0 fbbd 4da4 33be 06d3 423d bae0 d9bd
000000c0: e7de 003d 407a 203e d6f4 763e 3b44 eabe
000000d0: efdf 753c 4b4b 433e aeb6 2c3d d814 17be
000000e0: 02ee 883d 1615 bdbc 6cbf 56bc 19c0 debd
000000f0: 8974 bcbd 1331 f2bd f3d0 30bb 2683 b83d
00000100: 32fb 34bd fdad 803d b5cc 42be 7844 743d
00000110: 83b3 1a3d 23eb 14bd c533 203c 41f2 d7bb
00000120: ebe8 6abd 6b8f 973d 9ca0 243e c011 013d
00000130: 2a89 0a3e 1d7e d2bd 82e1 8c3d 0171 febd
00000140: 193e f3bd aa39 393d b925 35be 5a53 20bd
00000150: e232 e33e fb5a 97be d65b c63c ec9d 83be
00000160: f2b8 71bd d8f4 ce3c b9ef 20bb 298c 09be
00000170: 2482 57bd 102d 86be cdb0 0c3c 2535 3abe
00000180: 20a5 343e 0b64 25bd ca69 efbd 7835 93be
00000190: 5e44 633e 79e4 bfbe 2993 22be 0b3e 723d
000001a0: 79e2 a13c 3340 203e b392 70bd 364d 8fbe
000001b0: 35f3 823e 8d09 3ebe 2857 f3bd 883f 9fbd
000001c0: 560d da3d 78ab 45bd 4c27 cc3d 5b23 27bd
000001d0: 3097 2b3e 1575 7b3d 5ee1 8e3e 2371 873e
000001e0: ff20 d3bd bc58 d9bd 1753 8cbe d135 903d
000001f0: 8617 553e 1793 833e 793e bf3d 0972 4e3d
00000200: ca85 4fbe 7718 233e 361b 103e eca2 15be
00000210: d639 f4bd de95 503e 5326 8c3e 400f 32be
00000220: 3d22 ee3d 27e2 7abe 559f 4d3e 435b 27be
00000230: 9fe3 2dbe 5350 ef3d 6f33 e8bd a3bc 143e
00000240: 249b e9bd 6fe0 263e d33e 2a3e b9e4 953e
00000250: ace1 5cbe d878 0d3e 466e 97bd 24dc 65bd
00000260: 1d53 f3bc 6cd7 04bb 4d71 433e c51e 75be
00000270: 3677 1ebd 265d 7d3d 94d8 773e ca29 513c
00000280: b7aa 2fbd cc1e 933c b7fb 9c3c 7de8 68be
00000290: dbda b2bd 9075 d53d c997 eb3d e405 563d
000002a0: 3bd5 d53d 7b13 f0bd 2769 293e 7750 7a3d
000002b0: ffba bfbd be38 fabd 4788 5c3e 79a4 163d
000002c0: 2e77 04be 8de0 25be 37dc 773e 0d88 3abd
000002d0: 7db3 c53c 16f5 5c3e 0275 6e3d 427c 61bc
000002e0: 3405 9abd 758d 853e 7666 893e 9b93 2cbc
000002f0: 7eef a9bd 208a e73c 8d57 79be 73b6 8f3d
00000300: d228 1abd 5407 28be b584 273e 5265 883d
00000310: 32a6 d73d 2119 f83d 8fb0 1cbe c8d5 35bd
00000320: 4466 dabb 4022 0ebd 7903 093e 8762 0f3e
00000330: ee67 003e a839 3dbd 70a9 193e 4d5a 9abe
00000340: 1964 6ebd a474 10be 334d 273d ead6 09be
00000350: 298f 60be 4e74 aa3d e8f3 c63b 5cea 0f3d
00000360: 783f a83e 8e7a b5bc 57fb 5f3e 564f 74bc
00000370: af1a d6bd a91b 53bd c7a7 2ebe 8b0b 31bd
00000380: e146 263e 3ca9 afbd 9982 303e 27f5 0e3e
00000390: 9cdf 063c 2eca 42ba 54f9 1d3d 2bb9 6fbc
000003a0: 4e87 a0bd f5a5 84bc 0edf 9f3c 578b fb3d
000003b0: 96f6 fa3d 3751 693e 88e4 a1be d402 5abe
000003c0: 03b2 c73d 072f 09be c0c1 3f3e ad2d fb3b
000003d0: e2de 5c3e dc07 cd3d c0f8 343e 4ddc 35be
000003e0: 097d 64be a32f 143e ca18 90bc 4551 9fbe
000003f0: 0138 7f3e ab11 dc3c 8b27 0a3e be2a cfbd

backbone.2.conv.3.weight f4 [8]
0.56293225 0.44408303 0.46364605 0.42171475 0.37515646 0.55104554 0.33489993 0.5725953
00000000: 541c 103f da5e e33e 0463 ed3e ffea d73e
00000010: 8214 c03e 5211 0d3f 0178 ab3e 9b95 123f

backbone.2.conv.3.bias f4 [8]
4.4574514e-05 1.1652004e-05 4.1853506e-05 3.2821714e-05 -9.0056266e-05 1.2428682e-06 5.6612353e-06 -0.00014981319
00000000: 85f5 3a38 fa7c 4337 dc8b 2f38 0caa 0938
00000010: 97dc bcb8 a0d0 a635 a4f5 bd36 2c17 1db9

backbone.2.conv.3.running_mean f4 [8]
0.8255589 -0.40155557 0.054689333 0.32488397 -0.030812794 0.60366124 -0.19534172 0.049423356
00000000: d457 533f b198 cdbe ec01 603d 3157 a63e
00000010: 1d6b fcbc 8b89 1a3f a907 48be 2570 4a3d

backbone.2.conv.3.running_var f4 [8]
0.10149408 0.06322622 0.08668287 0.03487547 0.047924463 0.09671985 0.060016584 0.13393661
00000000: 21dc cf3d c07c 813d ca86 b13d 95d9 0e3d
00000010: 714c 443d 0f15 c63d f3d3 753d ae26 093e
